MLAgents Jumper Exercise/Assets/results/Jump0/JumperAgent/JumperAgent-499979.onnx (onnx, 570158 bytes, 15 tensors)

network_body.observation_encoder.processors.0.normalizer.running_mean f4 [26]
0.9145803 0.9257212 0.9145803 0.9259559 0.9145803 0.9259559 0.9145803 0.92671573
0.9145803 0.92671573 0.9145803 0.9281811 0.9145803 0.9281811 0.9184016 0.9332838
0.9184016 0.9332838 0.94844925 0.9570571 0.94844925 0.9570571 0.97239417 0.97666615
0.97239417 0.97666615
00000000: ef21 6a3f 11fc 6c3f ef21 6a3f 720b 6d3f
00000010: ef21 6a3f 720b 6d3f ef21 6a3f 3e3d 6d3f
00000020: ef21 6a3f 3e3d 6d3f ef21 6a3f 479d 6d3f
00000030: ef21 6a3f 479d 6d3f 5e1c 6b3f b0eb 6e3f
00000040: 5e1c 6b3f b0eb 6e3f 92cd 723f b201 753f
00000050: 92cd 723f b201 753f d3ee 783f cb06 7a3f
00000060: d3ee 783f cb06 7a3f

network_body.observation_encoder.processors.1.normalizer.running_mean f4 [2]
0.07957703 -0.027487429
00000000: 48f9 a23d 512d e1bc

network_body._body_endoder.seq_layers.0.weight f4 [256, 28]
-0.022253595 0.05795235 -0.11563899 -0.053399064 0.20706232 0.007872816 -0.0117863715 -0.0132445395
-0.22913368 -0.3061717 0.055017106 0.13892429 0.24166024 -0.11795434 0.20939508 0.32109565
-0.16674495 -0.14922342 0.07512799 -0.009737335 -0.06339342 -0.072960846 -0.05462084 -0.37865072
-0.1262719 0.07769768 0.3262555 0.19161515 -0.15431137 0.097111456 -0.121033095 -0.2739212
-0.11870375 -0.063691735 0.05772307 0.04572667 -0.08700636 -0.2182828 -0.1634473 0.013750401
0.013196755 0.30294728 -0.05892711 -0.32388243 0.18725306 0.03150695 -0.11046079 -0.4482324
0.24857913 -0.2561961 0.060815323 0.040546346 -0.3133393 -0.22935173 0.13625222 0.23418418
0.3889812 0.3332346 0.36786273 -0.35220432 -0.0026302317 0.1209875 0.2581124 0.15472512
0.022021776 -0.10609367 -0.07226433 -0.012380791 0.18668607 -0.13842076 -0.11051405 -0.0366042
0.092148535 0.061681986 -0.23330832 0.24451242 -0.0106409835 0.2210987 -0.14973024 0.31278557
-0.2518627 -0.23018607 0.052285425 0.00959123 -0.055643875 -0.2252653 0.07489397 0.4749124
0.35972553 -0.050869443 -0.25080177 0.0766099 0.040811107 0.076061495 0.23093985 0.02097271
-0.10584402 0.039461683 0.12001974 0.4626693 -0.4077682 -0.17848742 0.13475756 -0.13203616
-0.023120178 -0.041051928 0.168234 0.016750114 0.4958133 0.2968523 -0.25414896 -0.14469963
-0.26437786 0.16846828 -0.2864569 0.14099051 -0.053647168 0.10130743 -0.096690126 0.25922006
-0.059990026 -0.4012247 0.3014464 0.34143144 0.01355485 0.013097617 0.072170384 -0.080472
0.06978584 -0.4397492 0.3293304 -0.22920589 -0.025664816 -0.026434638 0.112872295 -0.2557022
-0.11710545 0.12927546 0.03184807 -0.18986435 0.19332422 0.18949139 0.12231162 -0.155198
0.061288126 -0.26221526 -0.016532023 0.18553615 -0.11056797 0.02235822 -0.13088237 0.34196612
-0.1534743 -0.037043735 0.06730737 0.17940627 0.075130925 -0.11957562 0.008985627 -0.14949338
0.063820414 0.34018922 0.21175824 -0.2269504 -0.0071291537 -0.3112753 -0.04300358 0.11061757
0.19364265 -0.09461481 0.1527973 0.01855116 -0.046727803 0.12556991 0.34920844 -0.14295702
-0.12706119 0.3931775 0.2608239 -0.28301826 -0.33600318 0.21224989 0.38186485 0.09012292
-0.17760085 -0.053062327 0.28915188 -0.25569332 0.20257609 0.11677317 -0.0038032613 -0.3964535
0.15804677 0.13150945 0.15576921 -0.29821473 0.10163625 -0.36385876 -0.28307548 -0.17431435
-0.28318352 0.25117543 -0.015145886 0.038810436 -0.18671417 0.035517182 -0.05206807 -0.09335342
-0.07002233 0.3356199 0.17719072 0.02576124 -0.0117952395 0.24131419 -0.33772543 -0.027821636
0.16888434 -0.05231456 0.07799105 -0.12141711 0.017809117 0.29522702 0.024853634 0.04143915
0.2404245 -0.19121581 0.01435741 0.11851629 -0.025929693 -0.07051576 -0.014071073 0.012478512
0.22758113 -0.32200202 -0.35826096 -0.12881225 -0.09993596 -0.033901196 0.1439804 0.13023576
0.07394375 0.16811192 -0.26771474 -0.21832727 -0.047211237 -0.14519918 0.23346521 -0.38406888
0.017424293 -0.17061025 0.25455716 -0.0041369027 -0.30473477 -0.18485722 0.1338777 0.19732854
00000000: 2c4d b6bc 715f 6d3d 23d4 ecbd fab8 5abd
00000010: 2508 543e fcfc 003c a01b 41bc a0ff 58bc
00000020: 05a2 6abe 89c2 9cbe 9e59 613d 2b42 0e3e
00000030: c875 773e 0c92 f1bd aa6b 563e a666 a43e
00000040: 30bf 2abe 06ce 18be b4dc 993d 5889 1fbc
00000050: 69d4 81bd 7f6c 95bd 1aba 5fbd 82de c1be
00000060: 6c4d 01be f61f 9f3d f60a a73e c336 443e
00000070: cd03 1ebe 5fe2 c63d 33e0 f7bd 663f 8cbe
00000080: f41a f3bd d070 82bd 076f 6c3d e44b 3b3d
00000090: 6430 b2bd 8785 5fbe bb5e 27be 5d49 613c
000000a0: 3437 583c e81b 9b3e 8e5d 71bd ebd3 a5be
000000b0: 44bf 3f3e 6e0d 013d 4439 e2bd b87e e5be
000000c0: 878b 7e3e 232c 83be 7d19 793d ed13 263d
000000d0: 026e a0be 2edb 6abe b485 0b3e facd 6f3e
000000e0: 8b28 c73e ba9d aa3e 8158 bc3e 2054 b4be
000000f0: f75f 2cbb 4bc8 f73d 4f27 843e 4370 1e3e
00000100: 0367 b43c a347 d9bd 52ff 93bd cdd8 4abc
00000110: a22a 3f3e 2cbe 0dbe 3155 e2bd 49ee 15bd
00000120: 5fb8 bc3d 40a6 7c3d 60e8 6ebe 7761 7a3e
00000130: 8557 2ebc b367 623e e252 19be 6e25 a03e
00000140: 26f4 80be e6b5 6bbe 3e29 563d 8924 1d3c
00000150: d5ea 63bd f2ab 66be 0262 993d b827 f33e
00000160: f22d b83e 7a5c 50bd 1769 80be a7e5 9c3d
00000170: 8c29 273d 21c6 9b3d 7f7b 6c3e f6ce ab3c
00000180: c0c4 d8bd 93a2 213d e9cc f53d fee2 ec3e
00000190: fec6 d0be 68c5 36be e3fd 093e 7d34 07be
000001a0: 8766 bdbc 1126 28bd 8945 2c3e 8937 893c
000001b0: 3edb fd3e 06fd 973e d01f 82be 242c 14be
000001c0: 895c 87be f382 2c3e 7baa 92be d15f 103e
000001d0: 22bd 5bbd 457a cf3d 7905 c6bd 7eb8 843e
000001e0: 1ab8 75bd 536d cdbe 2f57 9a3e 1ad0 ae3e
000001f0: 2915 5e3c 6397 563c 11ce 933d 81ce a4bd
00000200: e1eb 8e3d cf26 e1be ff9d a83e f3b4 6abe
00000210: 053f d2bc 748d d8bc 9729 e73d 66eb 82be
00000220: fbd4 efbd c960 043e 1f73 023d cd6b 42be
00000230: c9f6 453e 080a 423e 847e fa3d 39ec 1ebe
00000240: 4209 7b3d 1441 86be 2a6e 87bc 30fd 3d3e
00000250: 7671 e2bd 9628 b73c 0706 06be 2f16 af3e
00000260: 5e28 1dbe 2cbb 17bd 72d8 893d 47b6 373e
00000270: 3ede 993d 10e4 f4bd 7438 133c cb14 19be
00000280: 47b4 823d 482d ae3e 27d7 583e b065 68be
00000290: ad9b e9bb 7a5f 9fbe 8624 30bd 778b e23d
000002a0: 424a 463e 69c5 c1bd e576 1c3e 9af8 973c
000002b0: a765 3fbd 6695 003e 73cb b23e 5363 12be
000002c0: 541c 02be 904e c93e b68a 853e c5e7 90be
000002d0: 9c08 acbe 0958 593e ca83 c33e 5e92 b83d
000002e0: ffdc 35be e257 59bd b70b 943e 3cea 82be
000002f0: 1b70 4f3e c626 ef3d 2340 79bb f4fb cabe
00000300: 03d7 213e 6aaa 063e f781 1f3e 9aaf 98be
00000310: ab26 d03d b24b babe 45ef 90be 767f 32be
00000320: 6efd 90be 119a 803e 7326 78bc b1f7 1e3d
00000330: 0032 3fbe 777a 113d 5445 55bd 1430 bfbd
00000340: de67 8fbd 5fd6 ab3e 7c71 353e 3c09 d33c
00000350: d240 41bc 111b 773e 59ea acbe 33ea e3bc
00000360: 04f0 2c3e cb47 56bd c6b9 9f3d 89a9 f8bd
00000370: 6de4 913c ff27 973e d999 cb3c 19bc 293d
00000380: d731 763e 14ce 43be 583b 6b3c abb8 f23d
00000390: 826a d4bc 916a 90bd 5c8a 66bc ac72 4c3c
000003a0: 070b 693e 73dd a4be fb6d b7be 5ce7 03be
000003b0: 39ab ccbd fbdb 0abd 996f 133e 865c 053e
000003c0: d26f 973d 8825 2c3e e811 89be 2f91 5fbe
000003d0: 9260 41bd 18af 14be 8111 6f3e ada4 c4be
000003e0: 64bd 8e3c 74b4 2ebe 5155 823e db8e 87bb
000003f0: 3206 9cbe 364b 3dbe 3c17 093e 7e10 4a3e

network_body._body_endoder.seq_layers.0.bias f4 [256]
-0.0035046844 -0.0014685009 -0.000570756 0.0011223863 0.0006274998 0.0009967446 0.0034441827 -0.0022935283
0.0012787281 0.003739336 0.0015228848 0.0040801205 -0.0030492682 0.0029272481 -0.0015614035 -0.0016510847
0.0023651686 0.0015040558 -0.00259387 -0.0013778543 0.004667725 -0.00083539786 -0.0013968562 0.0043706335
0.0009629152 0.0023366443 0.0048548267 0.003548306 0.0013659281 -0.0032927901 0.004077068 0.0036282686
0.0024086256 -0.0016125276 0.0028504895 -0.0036224385 0.000989032 0.00024183972 0.0021849591 0.0034863702
-0.001112478 0.0020597868 0.006734153 0.0031258273 0.002611597 -0.0024909093 0.0042650797 0.0023734444
-0.00028858765 -0.0006339861 0.0024057596 -0.00333235 0.0005375372 0.00040092037 -0.0013834997 0.0009232179
-0.002029398 0.00031144053 0.0029203475 -0.0005794884 8.241293e-05 0.0024550797 -0.0031082917 0.0024702714
0.004227461 -0.0027306152 0.0038780398 -0.0016220661 0.003420871 -0.0010323285 -0.00038660248 -0.00033753083
0.004191703 0.0034403952 -0.0018022204 0.0037854153 -0.004282501 -0.0020700009 0.00078901957 0.0035343736
-0.0018782304 0.00097092544 0.0023646578 0.0027355114 0.0011013206 0.0003422918 -0.0025798639 0.0013879851
-0.00111858 0.0026419142 0.001714354 0.0010218315 0.00311073 -0.00342385 -0.0023140947 0.005925696
0.0052776 0.0024239712 -0.0007404464 0.0017691191 0.0008202032 0.0026129992 0.002363203 0.00385922
0.002455702 -0.0017789017 0.003384143 0.00036438042 0.0030357866 0.0017229759 -0.00045961785 0.003531788
-0.0030241515 0.0005911102 0.004626607 0.0010033434 -0.0006451378 -0.0049389256 0.0016926145 0.0024626912
0.0025770536 -0.0010373946 0.0013544243 0.00069238764 0.0028409965 -0.0019864268 -0.0012345917 -0.0009219734
0.005609197 7.788569e-05 5.9664868e-05 -0.00041485447 -0.00012201093 0.0018036392 -0.0029473128 -0.001882977
-0.0012396972 -0.0016601504 0.0034962655 0.0014483508 -0.0021076628 0.003672436 0.0039038884 -0.0003009634
-0.00048976316 0.00021764704 0.0063476986 0.00220805 0.002756658 0.001302755 0.002030157 0.0017160837
0.0050931824 -0.0013757359 0.0026411118 0.000544916 0.00300694 0.0026314026 0.003039764 -0.0009649129
0.004100551 0.00096848264 0.004540531 0.0023771976 0.0011925249 -0.0015070548 0.0012519376 0.0035798892
5.7572677e-05 0.0016010157 -0.0031191634 0.0017721906 0.0046610916 -0.0010981867 0.0036771577 0.0019241982
0.0031014336 -0.00016892883 0.0014536394 0.00302003 -0.0015937238 -4.9389524e-05 0.0019763396 0.0002828081
0.0017724767 0.003740792 -0.001854 -0.004044871 0.002134493 -0.0009562632 0.00022762499 -0.0025675066
0.002777267 -0.0037170935 0.0002441791 0.0021356342 0.0030526188 0.0008223604 0.0017679713 0.0010606429
-0.002511715 0.0036255454 0.004352107 -0.0009930397 0.00017664609 0.00094187446 -0.00045499933 -0.0024334048
0.0038487813 0.0013221665 0.0017507449 0.0013683704 -0.00069571275 0.00091326714 0.0010690717 -0.0034185792
0.0010450227 -0.002664112 0.002370339 -0.003984943 0.002829409 0.0029547587 0.0028307345 -0.00025905092
-0.00033641906 -0.0027211448 0.0031327596 -0.00013465456 0.005474301 0.003003062 0.0017904621 -0.0032193286
0.0030161794 -0.0015332341 0.0023946862 0.0021522616 0.0014629061 0.00016298077 0.00028303696 0.0027524354
0.00025412405 0.003067294 0.002075082 0.00010641065 -0.0005605461 -0.0034442686 -0.0004146841 0.00044822547
0.0027074164 0.00090739585 -0.0017358498 0.00030665836 0.0021993609 0.0016806886 0.00039444395 0.0006763992
00000000: d9ae 65bb b77a c0ba c99e 15ba 091d 933a
00000010: cc7e 243a 33a5 823a ccb7 613b 054f 16bb
00000020: ff9a a73a a60f 753b 899b c73a 88b2 853b
00000030: 3bd6 47bb 13d7 3f3b 02a8 ccba 3669 d8ba
00000040: f200 1b3b bd23 c53a ebfd 29bb 1e99 b4ba
00000050: b7f3 983b 9afe 5aba b716 b7ba 8837 8f3b
00000060: 256c 7c3a 6322 193b 3d15 9f3b b28a 683b
00000070: f108 b33a dacb 57bb ed98 853b 3fc8 6d3b
00000080: 08da 1d3b 735b d3ba 47cf 3a3b 6f66 6dbb
00000090: 68a2 813a 5b96 7d39 8831 0f3b 967b 643b
000000a0: 91d0 91ba 7dfd 063b 2baa dc3b aeda 4c3b
000000b0: 5427 2b3b 863e 23bb 15c2 8b3b ca8b 1b3b
000000c0: 944d 97b9 1632 26ba f3a9 1d3b 8e63 5abb
000000d0: 83e9 0c3a 9f32 d239 8c56 b5ba 1b04 723a
000000e0: a6ff 04bb d748 a339 4d63 3f3b cfe8 17ba
000000f0: 1bd5 ac38 67e5 203b 7bb4 4bbb 47e4 213b
00000100: 8386 8a3b 1ff4 32bb b626 7e3b 829b d4ba
00000110: b130 603b 324f 87ba e8b0 cab9 9ff6 b0b9
00000120: 8e5a 893b 4178 613b 7b38 ecba bb14 783b
00000130: 3954 8cbb daa8 07bb 35d6 4e3a f3a0 673b
00000140: f42e f6ba b485 7e3a 60f8 1a3b 4446 333b
00000150: 305a 903a a175 b339 ef12 29bb 0ded b53a
00000160: 519d 92ba f723 2d3b 2db4 e03a faee 853a
00000170: 64dd 4b3b ac62 60bb 11a8 17bb 572c c23b
00000180: b8ef ac3b 7ddb 1e3b 841a 42ba c9e1 e73a
00000190: e802 573a da3e 2b3b f8df 1a3b f8ea 7c3b
000001a0: d8ef 203b 092a e9ba 80c8 5d3b 500a bf39
000001b0: 0cf4 463b 7ad5 e13a ddf8 f0b9 9275 673b
000001c0: d830 46bb bcf4 1a3a cb9a 973b 9e82 833a
000001d0: 771e 29ba b6d6 a1bb b8da dd3a 1a65 213b
000001e0: c9e3 283b 30f9 87ba f086 b13a 5981 353a
000001f0: 0330 3a3b b62e 02bb 06d2 a1ba 96b0 71ba
00000200: 5bcd b73b 9056 a338 aa40 7a38 d380 d9b9
00000210: 1fe0 ffb8 1768 ec3a b427 41bb 39ce f6ba
00000220: 567d a2ba 6799 d9ba 9a21 653b 97d6 bd3a
00000230: b720 0abb 41ad 703b 61d8 7f3b a0ca 9db9
00000240: 7363 00ba 2f38 6439 5b00 d03b efb4 103b
00000250: 0ca9 343b 34c1 aa3a 620c 053b 37ee e03a
00000260: b6e4 a63b 0952 b4ba 8116 2d3b b2d8 0e3a
00000270: 1510 453b 9c73 2c3b c736 473b 35f2 7cba
00000280: ea5d 863b c5e1 7d3a bcc8 943b c2ca 1b3b
00000290: 7f4e 9c3a 5e88 c5ba 0e18 a43a 939c 6a3b
000002a0: 317a 7138 2cd9 d13a e16a 4cbb d948 e83a
000002b0: 12bc 983b 08f1 8fba 78fc 703b 6135 fc3a
000002c0: 6c41 4b3b 7d22 31b9 0b88 be3a b2eb 453b
000002d0: 7fe4 d0ba 9927 4fb8 7a85 013b dc45 9439
000002e0: 7352 e83a 1328 753b eb01 f3ba d68a 84bb
000002f0: dae2 0b3b bdad 7aba 9eae 6e39 9d43 28bb
00000300: cf02 363b 7b9a 73bb 2a05 8039 fff5 0b3b
00000310: 720e 483b ac93 573a 46bb e73a 4505 8b3a
00000320: 969b 24bb 8f9a 6d3b 1f9c 8e3b e228 82ba
00000330: 133a 3939 20e8 763a fa8c eeb9 c279 1fbb
00000340: d63b 7c3b 8c4c ad3a 4079 e53a e45a b33a
00000350: 7e60 36ba 5268 6f3a 1820 8c3a 3e0a 60bb
00000360: 25f9 883a 6298 2ebb b057 1b3b 2094 82bb
00000370: 9b6d 393b a0a4 413b d883 393b 3ad1 87b9
00000380: 6761 b0b9 3c55 32bb fc4e 4d3b 0f32 0db9
00000390: c461 b33b 05cf 443b f0ad ea3a 5ffb 52bb
000003a0: 18ab 453b cdf6 c8ba 2bf0 1c3b f50c 0d3b
000003b0: fcbe bf3a d1e5 2a39 9464 9439 3462 343b
000003c0: f43b 8539 a704 493b 19fe 073b c828 df38
000003d0: 9df1 12ba 3db9 61bb f569 d9b9 ceff ea39
000003e0: e96e 313b 4ede 6d3a 7485 e3ba fdc6 a039
000003f0: 2723 103b 8d4a dc3a 5fcd ce39 6250 313a

network_body._body_endoder.seq_layers.2.weight f4 [256, 256]
0.08179176 0.019647535 0.015559353 0.0677649 0.020195939 0.038759828 0.021507323 -0.011417631
-0.10621658 0.058983125 0.03071548 0.019795686 0.012206279 0.02324913 0.018599942 -0.025048425
0.08222927 0.10338535 0.072510354 -0.0076591657 -0.06500673 0.018404426 0.12509337 0.064629816
-0.07843252 -0.0669581 -0.015371638 0.014524568 0.045786425 0.031508766 0.13311842 -0.0214175
0.083480015 -0.019650172 0.042873293 -0.04720368 -0.01808208 0.07767558 0.08711411 0.13017964
0.060168214 0.020042054 -0.030570112 -0.01310142 0.09291375 0.17467965 -0.055403452 -0.060292322
-0.049091287 -0.03452806 -0.18375432 -0.062173694 -0.043294642 0.016372975 0.10625363 -0.070732474
-0.0130564645 0.045476183 0.006427105 -0.08108279 0.024668762 -0.108747035 0.08460417 0.13179767
-0.12055837 -0.018198928 -0.0007999462 -0.0142257 0.028121756 0.01655619 -0.014782717 -0.06824752
0.047625948 -0.039667405 -0.01378749 -0.018825794 0.018253392 -0.02564967 0.02441589 -0.022026729
-0.050947674 0.019832073 -0.018949231 0.029520573 0.026852349 0.044512976 0.05846742 0.02824091
0.0052549937 -0.05783937 -0.0067786095 -0.09490607 0.06742951 0.068340935 0.013035428 0.00031228337
0.0074687223 -0.02569528 0.048501357 -0.0570002 0.023616452 0.03016086 0.036794923 -0.079973646
-0.16991822 -0.0116821695 0.11131459 0.05084211 -0.0677968 0.08246475 -0.066183485 -0.034125697
-0.013313064 -0.005640849 0.05063262 0.0069770897 0.030590711 -0.035483893 -0.02250439 0.016065842
-0.038088497 0.07560047 0.004323343 0.019860957 0.035708345 0.00089243223 -0.07266183 0.056030307
0.041617833 0.015745312 -0.07396368 0.10975279 -0.019955905 -0.033546437 -0.033773053 0.050655168
0.057753947 0.08165501 -0.090424016 0.06889225 0.056070384 -0.051032595 -0.010324596 -0.12499758
-0.057077803 -0.07315786 0.08174809 -0.0017289766 -0.018744158 0.035061184 -0.04258317 0.0056030373
-0.035670858 -0.054506112 -0.03159429 -0.058828045 -0.071172476 0.193656 -0.037294205 -0.0071324375
-0.034452997 0.09944743 0.09099041 0.09799809 -0.017520133 0.024393272 0.08400198 0.008836165
-0.084555596 0.00332503 0.024100667 -0.024341833 0.02054504 0.00027142421 -0.045618225 0.06157989
0.07732474 -0.014268492 -0.10141483 0.016574867 0.0396814 -0.05633941 0.039891917 -0.009639747
-0.2123211 -0.08253767 -0.12650037 0.05302011 -0.022928474 0.020303428 0.028598424 -0.12015319
0.06422333 -0.06483372 -0.014865466 -0.007211276 -0.031752635 -0.0024512033 -0.042877473 -0.12949328
-0.07653683 0.009277242 -0.039054483 -0.030087058 0.056112617 -0.009702759 0.082872584 0.07553385
0.069527045 -0.031316463 0.035246164 -0.04071597 -0.02937171 0.10775591 0.010387833 0.111134015
-0.05175791 -0.043400314 -0.04566213 -0.12775521 0.063101925 0.03802202 -0.069922544 -0.088492036
0.09156305 -0.07032914 -0.020685134 0.122139595 0.01525059 -0.013731805 -0.019827716 -0.06394178
-0.05891621 0.0435614 -0.11390959 -0.02525269 0.064606 -0.015931075 0.075721696 0.03023938
0.01605986 0.07766917 0.008652914 0.017079951 -0.18395233 -0.024847876 -0.08749712 -0.0063433666
-0.014076688 0.07253206 0.018405585 0.01969462 -0.117207274 -0.003471155 -0.05703808 0.04107681
00000000: 7082 a73d def3 a03c a8ec 7e3c 53c8 8a3d
00000010: f471 a53c a0c2 1e3d 2030 b03c 0411 3bbc
00000020: 1488 d9bd 4a98 713d 089f fb3c 902a a23c
00000030: d8fc 473c f674 be3c e85e 983c 5b32 cdbc
00000040: d267 a83d b3bb d33d 4f80 943d bdf9 fabb
00000050: 4022 85bd e1c4 963c 7a18 003e a35c 843d
00000060: 3ba1 a0bd 5421 89bd 53d9 7bbc 74f8 6d3c
00000070: 8c8a 3b3d 560f 013d 3250 083e c173 afbc
00000080: 92f7 aa3d 66f9 a0bc e89b 2f3d a558 41bd
00000090: df20 94bc 6014 9f3d e268 b23d d04d 053e
000000a0: f272 763d 3c2f a43c 2c6e fabc 57a7 56bc
000000b0: 9049 be3d 39df 323e bbee 62bd 15f5 76bd
000000c0: f213 49bd 4c6d 0dbd 182a 3cbe d8a9 7ebd
000000d0: b955 31bd 9e20 863c 819b d93d 30dc 90bd
000000e0: c8ea 55bc 3c45 3a3d 779a d23b bc0e a6bd
000000f0: 2516 ca3c c4b6 debd f344 ad3d f8f5 063e
00000100: 4fe7 f6bd eb15 95bc 7bb3 51ba e912 69bc
00000110: 995f e63c d9a0 873c 3633 72bc 5bc5 8bbd
00000120: 6d13 433d 4a7a 22bd ede4 61bc 8d38 9abc
00000130: 2388 953c 421f d2bc d503 c83c 6671 b4bc
00000140: 82ae 50bd df76 a23c 6b3b 9bbc 21d5 f13c
00000150: 75f9 db3c 3d53 363d 897b 6f3d 7b59 e73c
00000160: 1532 ac3b fae8 6cbd 191f debb 1d5e c2bd
00000170: 7c18 8a3d 55f6 8b3d 8c92 553c f7b9 a339
00000180: 2fbc f43b e87e d2bc 5ca9 463d 0b79 69bd
00000190: 4a77 c13c e813 f73c 46b6 163d 39c9 a3bd
000001a0: 0bff 2dbe 9266 3fbc e7f8 e33d d13f 503d
000001b0: 0cd9 8abd 47e3 a83d 358b 87bd 63c7 0bbd
000001c0: 0a1f 5abc dfd6 b8bb 2664 4f3d 12a0 e43b
000001d0: 5f99 fa3c 8f57 11bd 205b b8bc 839c 833c
000001e0: af02 1cbd 6bd4 9a3d d4aa 8d3b 72b3 a23c
000001f0: ea42 123d 1df2 693a bacf 94bd 0980 653d
00000200: 7677 2a3d 50fc 803c 457a 97bd 12c6 e03d
00000210: 917a a3bc fd67 09bd 9d55 0abd cb7b 4f3d
00000220: 678f 6c3d be3a a73d 3a30 b9bd 6117 8d3d
00000230: 0faa 653d 8e07 51bd 7f28 29bc bbfe ffbd
00000240: 6aca 69bd cad3 95bd 8b6b a73d d49e e2ba
00000250: 598d 99bc 519c 0f3d b16b 2ebd af99 b73b
00000260: 9b1b 12bd cd41 5fbd 0469 01bd adf5 70bd
00000270: e0c2 91bd c24d 463e cfc1 18bd 39b7 e9bb
00000280: 961e 0dbd 18ab cb3d 2e59 ba3d 39b3 c83d
00000290: 6286 8fbc 66d4 c73c 3b09 ac3d 90c5 103c
000002a0: 7c2b adbd bfe8 593b c36e c53c 8668 c7bc
000002b0: 124e a83c f14d 8e39 2dda 3abd 323b 7c3d
000002c0: 6f5c 9e3d 65c6 69bc 94b2 cfbd 04c8 873c
000002d0: f788 223d 27c4 66bd b565 233d 08f0 1dbc
000002e0: b46a 59be 8309 a9bd 5089 01be 9d2b 593d
000002f0: 7fd4 bbbc 6053 a63c 3e47 ea3c e012 f6bd
00000300: 8587 833d 8bc7 84bd 498e 73bc 914c ecbb
00000310: 0d0f 02bd 5ea4 20bb 4aa0 2fbd e399 04be
00000320: 57bf 9cbd 93ff 173c 98f7 1fbd 2279 f6bc
00000330: 58d6 653d 52f8 1ebc 1ab9 a93d 7eb1 9a3d
00000340: 3264 8e3d b145 00bd 485e 103d cac5 26bd
00000350: f19c f0bc 21af dc3d bb31 2a3c 3b9a e33d
00000360: 1a00 54bd 87c4 31bd 3708 3bbd 43d2 02be
00000370: 953b 813d fabc 1b3d 8d33 8fbd 503b b5bd
00000380: 6985 bb3d b908 90bd df73 a9bc 5324 fa3d
00000390: 9cdd 793c 5dfb 60bc bc6d a2bc e8f3 82bd
000003a0: 2052 71bd 706d 323d 6e49 e9bd bbde cebc
000003b0: 2750 843d e381 82bc fa13 9b3d 94b8 f73c
000003c0: f88f 833c 0411 9f3d f4c4 0d3c 41eb 8b3c
000003d0: 005e 3cbe c68d cbbc b131 b3bd 04dc cfbb
000003e0: e9a1 66bc b08b 943d 4fc7 963c 9d56 a13c
000003f0: 5e0a f0bd 517c 63bb c3a0 69bd 2840 283d

network_body._body_endoder.seq_layers.2.bias f4 [256]
0.00090629194 0.0021837216 0.0041282782 -0.0034440267 0.003490426 -0.0012964591 0.0025492613 -0.0032228522
-0.00066786114 0.0019818717 -0.0045669912 0.0033024028 -0.0020039224 0.0013963773 0.0033132494 -2.8897006e-05
-0.0020697783 0.003965259 -0.0026955346 0.0042582066 -0.0015582859 -0.0015842657 0.0017823373 3.1217452e-05
0.0031092945 0.00041028784 -0.00061698083 -0.0003584313 -0.002791215 0.00040758526 0.00255608 0.0030501129
0.0029003634 0.0034043558 -0.00046144743 -0.0021500892 -0.002089162 -0.0041173883 0.00073211046 0.0018935465
-0.004175504 4.515678e-05 -0.00046960003 -0.0022530996 0.0014787129 0.0023595465 0.0042464584 -0.002925558
0.0011619439 -0.0006153797 0.002925089 -0.0008755474 -0.0012011414 -0.0013545639 0.0041806293 0.002363896
-0.00091264205 0.001403045 0.003938565 0.001632488 0.0049496656 0.0033087363 -0.00041138727 -0.0039029757
-0.0031948746 0.001064149 0.0036212425 -0.0024416063 0.0019950375 0.0036470944 -0.0012120393 0.0007084507
-0.0019886852 0.00018525544 -0.0007318277 -0.0027070448 0.0024432202 -0.0014350024 0.0040105614 0.0012652285
0.0032500701 0.0030306187 -0.0005147186 0.0027092344 -0.0015059054 0.0008452156 0.0014971389 0.0017707876
-0.0035716456 0.0014928757 0.0032928183 -0.0038264713 0.0010076954 0.0034280175 0.0035731003 -0.0016636832
-0.0029620815 -0.0020938865 -0.0015178364 0.000602834 0.00025328493 -0.0017513017 -0.0013650946 -0.0035168352
0.00065529195 0.000574374 0.00049384654 0.0048053176 -0.00069982593 0.0041140453 -0.0020240047 0.004208483
-0.0015098621 -0.0019761468 0.0037886407 0.0018749648 -0.0011905339 -0.0014128822 0.0016934886 -0.0030068716
-0.0041783876 0.0021494399 0.0008051656 -0.00091704517 -0.0009853642 -0.0005986055 0.0042923824 0.0014204904
-0.00021327457 -0.00043159942 0.0014291393 0.0019319294 -0.0033683134 -0.0027373668 -0.003806295 0.0010655905
0.0032944614 0.004684389 0.0019167435 -0.0020038157 0.0030196481 0.0014807082 0.0023515522 -0.00046016084
0.0020589163 0.0032694102 -0.0020835076 0.0027428844 0.0026682091 0.003473746 -0.0007827984 0.0035507677
0.0036177577 -0.0044101067 -0.0028540648 0.0032433234 -0.004263342 0.0036352393 -0.0018715613 0.0015121177
-0.0011812301 0.0027116276 -0.00043979503 -0.0009803694 0.0030483226 -0.0026321271 -0.0015387865 -0.0013873178
3.5988152e-05 -0.0028765928 0.00034030955 -0.0002608777 0.0019212158 0.0044002356 -0.0023995265 0.0043736203
0.0023245648 -0.002093165 0.0044300067 -0.0014003639 0.00080242037 0.0029500183 -0.0011939997 -0.0013559418
0.0034652145 -0.0035646781 0.001319589 -0.0024747516 -0.00018995369 0.0024122733 0.0029566453 -0.0005502714
-0.0031441902 -0.0019892529 0.00069877686 -0.0026389773 -0.00019398036 0.0002245081 -0.0030161182 -0.00078392075
-0.0013015224 0.0039432067 0.0037563592 0.0020969925 -0.0005208662 0.0010983393 0.003244563 0.0027000313
0.0009243252 -1.6537386e-05 -0.0001455107 0.00023075433 -0.00094419206 0.0029761929 0.0024548166 -0.0004675411
-0.0009224678 0.0044060443 -0.00084370235 0.00023861558 -0.001967249 0.0035249882 0.0031722449 -0.0015088354
0.0042396258 0.0032068759 -0.0009903143 0.0038057691 -4.164445e-05 0.0031922143 0.00014449397 0.004246289
-0.0016865191 0.0030136516 -0.00034884026 -0.0020491935 -0.003558154 0.0029010265 0.00076003454 0.00015381526
-0.00015091343 0.0027051996 -0.0019180819 -0.0015287468 0.0034509818 -0.0040672114 -0.001679274 -5.9461956e-05
-0.0035246487 0.000243189 -0.0019336313 -0.001497275 -0.00034351318 -0.0025156217 0.003941579 0.0015052714
00000000: 3994 6d3a c51c 0f3b 8246 873b 2eb5 61bb
00000010: a2bf 643b f3ed a9ba 8211 273b 7d36 53bb
00000020: 6713 2fba 4ae2 013b b3a6 95bb 206d 583b
00000030: 3d54 03bb a606 b73a 1a23 593b d967 f2b7
00000040: 1ea5 07bb 01ef 813b 91a7 30bb 6d88 8b3b
00000050: 663f ccba 23a7 cfba 519d e93a 7cef 0238
00000060: 4ec5 4b3b e71b d739 e2bc 21ba d6eb bbb9
00000070: d1ec 36bb 2bb1 d539 e883 273b 67e4 473b
00000080: 0614 3e3b 9d1b 5f3b 6dee f1b9 83e8 0cbb
00000090: 52ea 08bb 28eb 86bb 1aeb 3f3a e130 f83a
000000a0: abd2 88bb b966 3d38 a634 f6b9 bda8 13bb
000000b0: 5fd1 c13a 9fa2 1a3b e025 8b3b b8ba 3fbb
000000c0: 5e4c 983a 6f51 21ba dab2 3f3b fe84 65ba
000000d0: 9e6f 9dba 9f8b b1ba a9fd 883b 98eb 1a3b
000000e0: 5f3e 6fba 61e6 b73a 140f 813b 35f9 d53a
000000f0: ce30 a23b 62d7 583b 77af d7b9 11c9 7fbb
00000100: 1a61 51bb ea7a 8b3a 5e52 6d3b 5b03 20bb
00000110: 2dbf 023b 1704 6f3b 4add 9eba 52b7 393a
00000120: 9a54 02bb 2141 4239 20d8 3fba ad68 31bb
00000130: 6f1e 203b b116 bcba 076b 833b 06d6 a53a
00000140: 21ff 543b 589d 463b 2eee 06ba 698d 313b
00000150: cd61 c5ba 7591 5d3a a53b c43a c619 e83a
00000160: 4512 6abb 99ac c33a 53cc 573b 89c5 7abb
00000170: a614 843a 97a8 603b ad2a 6a3b f20f daba
00000180: 7b1f 42bb 9639 09bb 23f2 c6ba 8107 1e3a
00000190: 54cb 8439 ef8b e5ba f9ec b2ba b47a 66bb
000001a0: e6c7 2b3a 9691 163a 7b75 013a ed75 9d3b
000001b0: 8674 37ba 1dcf 863b 2aa5 04bb 50e7 893b
000001c0: 91e6 c5ba 3e82 01bb d84a 783b 61c1 f53a
000001d0: b00b 9cba 7630 b9ba 0cf8 dd3a ef0e 45bb
000001e0: dbea 88bb 9edd 0c3b c011 533a dc65 70ba
000001f0: 5627 81ba bceb 1cba 1da7 8c3b c02f ba3a
00000200: 75a2 5fb9 4b48 e2b9 f551 bb3a cb38 fd3a
00000210: ecbe 5cbb 6565 33bb 0973 79bb 49ab 8b3a
00000220: e4e7 573b 817f 993b 3d3b fb3a 7352 03bb
00000230: 4ae5 453b 5314 c23a 801c 1a3b be41 f1b9
00000240: e2ee 063b 9a43 563b 758b 08bb f7c1 333b
00000250: 1fdd 2e3b c9a7 633b b634 4dba ffb3 683b
00000260: e717 6d3b a882 90bb 430b 3bbb f08d 543b
00000270: 81b3 8bbb 323d 6e3b 2d4f f5ba 4032 c63a
00000280: 81d3 9aba 90b5 313b 4a94 e6b9 bd7f 80ba
00000290: 5ec6 473b c47f 2cbb 1bb1 c9ba a9d6 b5ba
000002a0: fcf1 1638 3885 3cbb 936b b239 6ac6 88b9
000002b0: 4ed1 fb3a da2f 903b 6041 1dbb 9650 8f3b
000002c0: ba57 183b 7b2d 09bb 9729 913b 6a8c b7ba
000002d0: 8559 523a 1855 413b fb7f 9cba dbb9 b1ba
000002e0: a718 633b 609d 69bb 0ff6 ac3a 712f 22bb
000002f0: 4e2e 47b9 3b17 1e3b 47c4 413b 1740 10ba
00000300: c20e 4ebb 205e 02bb 1f2e 373a b1f2 2cbb
00000310: 3567 4bb9 ef69 6b39 11aa 45bb 0880 4dba
00000320: d897 aaba 0436 813b 402d 763b b26d 093b
00000330: bd8a 08ba 27f6 8f3a bca2 543b 02f3 303b
00000340: 6a4e 723a c4b9 8ab7 3b94 18b9 a5f6 7139
00000350: a883 77ba 3b0c 433b fde0 203b 4e20 f5b9
00000360: c4d1 71ba 9460 903b e82b 5dba e234 7a39
00000370: f6ec 00bb 7d03 673b 70e5 4f3b 1dc4 c5ba
00000380: 8fec 8a3b 732a 523b 6fcd 81ba 366a 793b
00000390: 63ab 2eb8 7834 513b 4e83 1739 7424 8b3b
000003a0: 310e ddba af80 453b 8ce4 b6b9 c34b 06bb
000003b0: eb2f 69bb 261f 3e3b 0e3d 473a 7849 2139
000003c0: 843e 1eb9 b849 313b 2668 fbba 3b60 c8ba
000003d0: de29 623b 3e46 85bb 161b dcba ca66 79b8
000003e0: cbfd 66bb 8d00 7f39 e671 fdba 3640 c4ba
000003f0: 8f19 b4b9 21dd 24bb 5c28 813b 874c c53a

network_body._body_endoder.seq_layers.4.weight f4 [256, 256]
0.032763824 -0.092245474 -0.00083015347 0.065729685 -0.017172122 0.043089956 -0.06342872 -0.018007306
0.038284898 0.0054305308 0.08349182 0.09636254 0.05850659 0.023074271 -0.0073799696 0.008979432
0.03695303 -0.09457229 0.096861176 0.012411248 -0.031002128 -0.05439902 -0.16433899 -0.14698257
-0.04053315 -0.017235713 0.0021565214 0.09121443 -0.07729509 0.050578192 0.03414533 -0.15431006
0.043980427 -0.01658576 0.004776675 0.07258282 -0.03275177 0.028532669 0.010616594 0.0886159
0.0067907562 -0.0077448455 -0.08180986 0.0771787 0.036825877 0.05140111 -0.01847742 -0.011632751
-0.02498862 0.047880813 -0.045414895 0.031944755 -0.036100782 0.028093487 -0.02979571 0.0043033883
-0.03385925 -0.0122936955 0.029149441 0.0022132043 -0.080283806 0.0442764 -0.13031591 0.034130797
0.017080901 0.042800937 0.073838726 0.033719614 -0.030574137 -0.012951478 -0.032037567 -0.011056834
0.0067806416 0.01591677 -0.022169208 -0.01632967 -0.098961465 -0.022432258 -0.012702507 -0.07541454
0.052488767 -0.12229737 0.045712423 -0.06476948 0.07529943 -0.014394666 -0.009791249 -0.08968556
0.07528997 -0.056659844 0.043270353 -0.07336656 -0.015116374 0.051410448 0.023916507 -0.12493432
0.09153659 0.0023961302 0.06552828 -0.00012798395 -0.014645735 0.072626255 -0.05637842 0.006481369
-0.009123736 0.020877408 -0.07398212 0.036297597 0.06250912 0.081529796 0.08554084 0.009176332
0.07854762 -0.022324385 -0.07845363 -0.012723226 -0.03300543 0.013722173 -0.056480594 0.017809307
0.029766763 0.0315568 0.042204443 -0.019816175 0.044264372 -0.029233687 0.08357106 0.04990996
-0.048594877 0.057246964 -0.035531443 -0.027529748 0.017035497 0.099345736 0.026285777 -0.035791434
-0.07165776 0.11719122 0.070479035 0.012915109 0.05944017 0.02924155 0.042585377 0.024936527
-0.023673598 -0.03842388 0.016235726 -0.032217912 -0.04234607 -0.010465569 -0.04211025 -0.0014365593
-0.10913912 -0.049958725 -0.05373421 0.028044295 0.0059269723 -0.075511254 -0.023727875 0.028689293
0.14084901 -0.034650747 -0.07032476 0.037837435 -0.038439143 0.063440755 -0.03793508 0.017362313
0.034452785 0.008242889 -0.03333236 0.0909952 0.068636715 0.0018776271 0.13447033 0.10907955
0.12243605 0.034947563 0.033978157 0.0126981605 0.13438603 -0.11710109 0.069333084 0.039832648
-0.16981846 0.006701976 -0.00394822 -0.0636679 0.023353267 -0.032003384 -0.058539696 -0.113525346
0.037855506 -0.076518096 0.019668143 0.064770125 -0.018381502 0.00014612661 0.041990813 0.084853165
-0.06891731 0.06895649 0.050550733 0.06522924 0.021842713 0.13728698 -0.018614622 -0.032830868
0.046553604 0.049107242 0.051072646 0.15810259 -0.044875827 -0.020128908 -0.019642811 -0.074641876
-0.03849325 -0.17981692 0.048157435 -0.1154695 -0.05199615 -0.052660257 0.017559538 0.027589504
-0.05592363 0.05439937 -0.10017312 0.0033796001 -0.09034293 0.031187927 0.005438048 -0.014565783
0.099813804 -0.030725483 0.038888022 0.019120352 0.042445548 0.06749931 -0.033035744 -0.007223665
0.04635323 -0.049939644 0.092962645 -0.021762533 -0.04203952 -0.019971965 -0.006671602 -0.082266174
-0.073694505 0.071440406 0.051274657 0.04254959 -0.11863939 0.119287804 0.06749043 0.08920299
00000000: 5c33 063d 32eb bcbd a89e 59ba 499d 863d
00000010: 8dac 8cbc 187f 303d ebe6 81bd 0f84 93bc
00000020: a0d0 1c3d 98f2 b13b c2fd aa3d b959 c53d
00000030: 9ba4 6f3d 4106 bd3c acd3 f1bb 781e 133c
00000040: 0f5c 173d 1eaf c1bd 275f c63d 8c58 4b3c
00000050: 2df8 fdbc 82d1 5ebd 7b48 28be 9982 16be
00000060: 1706 26bd e931 8dbc 6d54 0d3b a2ce ba3d
00000070: e34c 9ebd 142b 4f3d f9db 0b3d 7503 1ebe
00000080: d224 343d dcde 87bc a785 9c3b 4da6 943d
00000090: b826 06bd 58bd e93c 39f1 2d3c 417c b53d
000000a0: fe84 de3b 79c8 fdbb ee8b a7bd de0f 9e3d
000000b0: bbd6 163d f889 523d f55d 97bc 4b97 3ebc
000000c0: efb4 ccbc ac1e 443d f804 3abd 81d8 023d
000000d0: 6ade 13bd 5024 e63c 2216 f4bc 7003 8d3b
000000e0: ffaf 0abd 7f6b 49bc cfca ee3c 680b 113b
000000f0: d66b a4bd 2c5b 353d 8971 05be bccc 0b3d
00000100: 3fed 8b3c 0950 2f3d c238 973d 941d 0a3d
00000110: 9d76 fabc 7032 54bc d339 03bd b927 35bc
00000120: 2530 de3b e363 823c 339c b5bc cdc5 85bc
00000130: 4fac cabd dbc3 b7bc 2d1e 50bc f072 9abd
00000140: 76fe 563d 0b77 fabd f33c 3b3d dca5 84bd
00000150: 9636 9a3d 9bd7 6bbc 7a6b 20bc 10ad b7bd
00000160: a131 9a3d 2714 68bd 413c 313d 3541 96bd
00000170: abaa 77bc c393 523d 8dec c33c 91dd ffbd
00000180: 8977 bb3d 6508 1d3b b133 863d 6e33 06b9
00000190: aaf4 6fbc 13bd 943d 0fed 66bd aa61 d43b
000001a0: b97b 15bc 1907 ab3c f083 97bd caac 143d
000001b0: c804 803d 18f9 a63d 0930 af3d 5358 163c
000001c0: 93dd a03d a1e1 b6bc 4cac a0bd 1475 50bc
000001d0: b430 07bd f7d2 603c 3258 67bd d3e4 913c
000001e0: 6dd9 f33c b441 013d 91de 2c3d 8855 a2bc
000001f0: 8f4e 353d 7c7b efbc 4e27 ab3d 636e 4c3d
00000200: 6c0b 47bd cb7b 6a3d 6b89 11bd 1186 e1bc
00000210: 078e 8b3c c775 cb3d 4555 d73c 0a9a 12bd
00000220: 4ec1 92bd f301 f03d 5057 903d e599 533c
00000230: 8977 733d fa8b ef3c 016e 2e3d b047 cc3c
00000240: 22ef c1bc 5c62 1dbd c900 853c eef6 03bd
00000250: 1373 2dbd c777 2bbc cc7b 2cbd ee4a bcba
00000260: 5584 dfbd 85a1 4cbd 6718 5cbd 26bd e53c
00000270: 0c37 c23b a5a5 9abd f660 c2bc cf05 eb3c
00000280: b93a 103e f1ed 0dbd 6e06 90bd 6dfb 1a3d
00000290: 5d72 1dbd 3aed 813d d061 1bbd 693b 8e3c
000002a0: 5d1e 0d3d 2f0d 073c 8387 08bd b15b ba3d
000002b0: 6891 8c3d b61a f63a 97b2 093e 1965 df3d
000002c0: c0bf fa3d 2d25 0f3d ae2c 0b3d f20b 503c
000002d0: 7e9c 093e b2d2 efbd 81fe 8d3d 8f27 233d
000002e0: e4e4 2dbe 409c db3b 1260 81bb 5164 82bd
000002f0: 5a4f bf3c fb15 03bd 52c7 6fbd fa7f e8bd
00000300: 600e 1b3d 85b5 9cbd 161f a13c 33a6 843d
00000310: ce94 96bc 9039 1939 8ffe 2b3d 7fc7 ad3d
00000320: 8524 8dbd 0f39 8d3d 490e 4f3d e896 853d
00000330: 7def b23c f594 0c3e b17d 98bc a979 06bd
00000340: feae 3e3d ad24 493d 8d31 513d a5e5 213e
00000350: b7cf 37bd 61e5 a4bc f6e9 a0bc d7dd 98bd
00000360: 19ab 1dbd ed21 38be bb40 453d 467b ecbd
00000370: eaf9 54bd 48b2 57bd 05d9 8f3c 6203 e23c
00000380: 2d10 65bd e0d1 5e3d 9127 cdbd 487c 5d3b
00000390: b705 b9bd d37d ff3c a731 b23b 52a5 6ebc
000003a0: 2e6b cc3d 02b4 fbbc 0c49 1f3d 49a2 9c3c
000003b0: 62db 2d3d 143d 8a3d 7d50 07bd 7eb4 ecbb
000003c0: e2dc 3d3d 838d 4cbd 3363 be3d 5747 b2bc
000003d0: a231 2cbd 3f9c a3bc 749d dabb 2b7b a8bd
000003e0: 25ed 96bd 594f 923d 6005 523d 7b48 2e3d
000003f0: 35f9 f2bd 2a4d f43d 6c38 8a3d 0fb0 b63d

network_body._body_endoder.seq_layers.4.bias f4 [256]
-0.0028113709 0.0003186175 0.0030831483 0.0007377812 -0.0002866998 0.003116195 0.0020240524 0.0012113411
0.00297469 0.0030419342 0.0016026193 0.0009968997 0.0036697972 -0.002853397 -0.0010892643 0.0035391538
0.0015857758 -0.0014803314 0.003305299 0.0004186408 0.003273975 0.0005073183 -0.003554559 0.0032341194
-0.0035741369 -0.0031967806 -0.0034310897 0.0042203353 -0.0011719326 0.002292164 0.00013348908 -0.0029777628
-0.0031504377 0.0022194956 -0.0036893273 -0.003052647 0.003885103 -0.0028676342 -0.0019738153 0.002297528
0.0031929105 -9.104611e-05 0.0027506305 0.0023857572 -0.00080909714 0.0016562474 -0.0029745842 -0.001260126
0.0013650368 0.002929238 -0.002388597 0.0029719325 0.004138383 0.0032042528 -0.00414598 -0.00086389075
-0.0029762299 -0.0011820283 0.0012261252 0.0024279426 0.003148759 0.0036152336 -0.0024290376 -0.0032562388
-0.0018610698 0.0013258005 -0.0030081125 -0.0010129102 -0.0025951792 0.0025609792 0.002224244 -0.0033978142
0.0024941806 0.002809371 0.00045274885 -0.0010700783 0.0030626145 0.0025389225 2.108125e-06 -0.00078678975
-0.002418348 -0.0022262507 0.004268321 -0.0018439197 0.004346588 0.0020568247 -0.0017418911 -0.00037216683
4.1734318e-05 0.0022472844 0.00050779554 -0.0020467194 -0.0010620458 0.0020731825 0.0006741028 -0.0020627459
0.00058758626 -0.0016042918 0.003498462 -0.0013019644 0.0028747343 0.0030145263 0.0038278953 -0.0021804487
0.0030201646 -0.0037321255 0.0015413704 0.003311678 0.0026932007 -0.0039472342 -0.0007818542 0.0027396556
-0.0004183468 -0.0012580061 0.004217005 0.0025643571 -0.0032985043 0.0024661422 0.004378761 -0.0005177994
-0.003505944 -0.00092845544 0.0034419359 0.0021369096 0.0037064871 0.0029461803 0.0026101745 0.0012897773
-0.0035704884 0.002442589 -0.0024060453 -0.002822771 0.003834685 -0.0025573964 0.0017773814 0.0019627106
0.003702707 0.00406946 0.003291918 -0.0034795485 -0.0022153233 -0.00355957 0.0033109128 0.0024279696
0.0028825689 0.0026266114 0.0010919052 0.002844137 0.003848824 -0.0033339376 -0.0029574623 0.0029578013
0.0002674437 0.0034282664 0.0020374253 -0.0020750698 0.0032592774 0.001283789 -0.0007044001 -0.0020832515
0.0025443381 -0.0016810988 0.00071681576 -0.0027996085 -0.0017642354 -0.00077930524 -0.0020009337 -0.0016446182
-0.0032834655 -0.000930544 0.00216564 -0.0026052152 0.0034141704 -0.0021348225 0.0002485007 -0.0005658161
-0.00031142612 0.0006378021 -0.00267798 0.0039443625 0.0015615573 -0.00370959 0.000749668 -0.00084421615
0.0027562582 0.0033487817 0.0033229417 -0.003767161 -0.0013436741 0.0013176462 0.0022504607 0.002283003
0.0006685847 -0.0011692084 0.0020801756 -0.0023027845 -0.0030476563 0.003920931 0.0024869728 -0.0027517993
-0.00176113 -0.0013023664 0.0011828959 0.0018816825 -0.0003239091 0.0017678379 0.0019193618 0.0003838578
0.0015104115 -0.00053071935 -0.0030100602 0.0021457763 -0.0014452453 0.0035749697 0.0010440728 0.0027999247
-0.0039191167 0.0016568536 -5.8446734e-05 -0.0015740023 0.0046814866 0.0012743192 0.0025459712 0.003633127
-0.0031616741 0.003700003 0.00040023436 5.8375834e-05 0.0037466914 -0.0041000317 -0.0026035004 0.0010314258
-5.339602e-05 -0.0016435744 -0.0037704902 0.0001250132 0.0037092925 0.0028715362 -0.0036838644 0.0014253596
0.001317323 0.0038554526 0.0036735493 7.903256e-05 0.0034487215 -0.002356398 0.0022798846 -0.0014187588
-0.002929382 -0.00031389666 0.0014719582 0.0033925385 0.0020717056 0.0017363983 -0.0011720104 0.0016877211
00000000: fa3e 38bb 1e0c a739 a50e 4a3b a967 413a
00000010: 3250 96b9 1439 4c3b f7a5 043b ddc5 9e3a
00000020: 04f3 423b 305b 473b fb0e d23a 67aa 823a
00000030: fb80 703b 0f00 3bbb a5c5 8eba 26f1 673b
00000040: ced9 cf3a ae07 c2ba b79d 583b 047d db39
00000050: 3090 563b 8efd 043a 9bf3 68bb 85f3 533b
00000060: 113c 6abb 1481 51bb 22dc 60bb bd4a 8a3b
00000070: 889b 99ba 2138 163b 34f9 0b39 9226 43bb
00000080: 9377 4ebb f574 113b a4c8 71bb eb0e 48bb
00000090: 369d 7e3b ebee 3bbb 205b 01bb 2092 163b
000000a0: 2640 513b 02f0 beb8 ec43 343b 5d5a 1c3b
000000b0: 9719 54ba 7116 d93a 3ef1 42bb d02a a5ba
000000c0: 09eb b23a 75f8 3f3b 028a 1cbb c1c4 423b
000000d0: 469b 873b 71fe 513b 00db 87bb ba76 62ba
000000e0: da0c 43bb 4aee 9aba efb5 a03a 1e1e 1f3b
000000f0: 695b 4e3b 8eed 6c3b 7d30 1fbb 9f66 55bb
00000100: 24ef f3ba 7cc6 ad3a c123 45bb a0c3 84ba
00000110: e213 2abb 1ad6 273b 9fc4 113b ddad 5ebb
00000120: 6875 233b 6d1d 383b ec5e ed39 df41 8cba
00000130: 25b6 483b 0d64 263b 5079 0d36 9140 4eba
00000140: 267d 1ebb 4ae6 11bb 46dd 8b3b aeaf f1ba
00000150: d36d 8e3b cbcb 063b 2b50 e4ba 631f c3b9
00000160: e20b 2f38 2d47 133b 951d 053a 4122 06bb
00000170: 5834 8bba 3bde 073b 46b6 303a 222f 07bb
00000180: 3f08 1a3a 1a47 d2ba 7446 653b ada6 aaba
00000190: 0a66 3c3b 5c8f 453b 6ddd 7a3b dce5 0ebb
000001a0: f4ed 453b ad96 74bb cf07 ca3a bd08 593b
000001b0: 6980 303b cd57 81bb 59f5 4cba cb8b 333b
000001c0: 8f55 dbb9 aee3 a4ba cd2e 8a3b c60e 283b
000001d0: b82b 58bb 009f 213b b67b 8f3b eebc 07ba
000001e0: fbc3 65bb 9763 73ba 1a92 613b 650b 0c3b
000001f0: 89e8 723b b414 413b 760f 2b3b bf0d a93a
00000200: dbfe 69bb d813 203b beae 1dbb 3dfe 38bb
00000210: 574f 7b3b fe99 27bb 06f7 e83a d2a0 003b
00000220: 1da9 723b 1b59 853b 38bd 573b 2309 64bb
00000230: f52e 11bb ad47 69bb e6fb 583b 921e 1f3b
00000240: 7be9 3c3b 3a23 2c3b 421e 8f3a b364 3a3b
00000250: 8d3c 7c3b 317e 5abb fcd1 41bb acd7 413b
00000260: b037 8c39 c4ac 603b 5386 053b e5fd 07bb
00000270: 9a99 553b d044 a83a 7ea7 38ba 2987 08bb
00000280: e9be 263b 5158 dcba b1e8 3b3a a379 37bb
00000290: eb3d e7ba 4a4a 4cba 1922 03bb 3b90 d7ba
000002a0: 692f 57bb c0ef 73ba 69ed 0d3b 42bc 2abb
000002b0: 46c0 5f3b 61e8 0bbb 3349 8239 4753 14ba
000002c0: e846 a3b9 2d32 273a 0d81 2fbb b63f 813b
000002d0: 2bad cc3a 981c 73bb 5e85 443a 634e 5dba
000002e0: 57a2 343b 3c77 5b3b b6c5 593b 79e2 76bb
000002f0: 391e b0ba dfb4 ac3a 777c 133b 6f9e 153b
00000300: f643 2f3a 2040 99ba 8e53 083b 50ea 16bb
00000310: 30bb 47bb 277b 803b 7bfc 223b 8857 34bb
00000320: b8d5 e6ba 2ab4 aaba 660b 9b3a caa2 f63a
00000330: 58d2 a9b9 ccb6 e73a 1893 fb3a 8640 c939
00000340: 00f9 c53a f91f 0bba 6e44 45bb 27a0 0c3b
00000350: 636e bdba 0a4a 6a3b 45d9 883a f17e 373b
00000360: ef6b 80bb c82a d93a b424 75b8 c14e ceba
00000370: 2867 993b 0f07 a73a 4fda 263b c219 6e3b
00000380: 1734 4fbb c07b 723b 8cd6 d139 93d8 7438
00000390: 0d8b 753b 8f59 86bb 7d9f 2abb e830 873a
000003a0: 8af5 5fb8 356d d7ba 541a 77bb fa15 0339
000003b0: 9a17 733b 6230 3c3b fd6c 71bb 22d3 ba3a
000003c0: 06aa ac3a c3ab 7c3b eebf 703b 48be a538
000003d0: f203 623b cc6d 1abb 1e6a 153b a5f5 b9ba
000003e0: e0fa 3fbb 7f92 a4b9 b9ee c03a 5a55 5e3b
000003f0: 74c5 073b dc97 e33a 259e 99ba 8636 dd3a

action_model._continuous_distribution.log_sigma f4 [1, 2]
-0.0017894495 0.00077634776
00000000: f68b eaba d183 4b3a

action_model._continuous_distribution.mu.weight f4 [2, 256]
0.032095272 -0.0050147492 -0.0039305845 -0.0036674414 0.003985971 -0.011458096 0.0023586573 -0.0084295655
-0.010227788 -0.024163762 -0.00325398 -0.005174997 -0.026544452 0.015585755 0.008278496 -0.008400402
0.005670868 0.0047569578 -0.0075294157 0.00084952964 -0.02150579 -0.0015221208 0.0056004734 -0.017110538
0.01802691 0.017515257 0.014742328 -0.011901158 0.008258569 -0.010196444 0.007884601 0.015325493
0.020840129 -0.0052476022 0.019459397 0.017711248 -0.026827374 0.002083339 0.0058015455 -0.009720025
-0.025700025 -0.00014768567 -0.017505188 -0.0070113805 -0.0003060254 -0.006705864 0.018449139 0.0075980723
-0.0047034025 -0.01834002 0.014939664 -0.0045733578 -0.019567978 -0.016147036 0.0057868096 0.015971346
0.0068927733 0.004337552 -0.010530867 -0.017510187 -0.0076387427 -0.028636899 0.017088974 0.021009527
0.02130383 -0.0027205718 0.01313166 0.008132474 0.0040504397 -0.0022475978 -0.0065345606 0.002880131
-0.011598523 -0.014392351 -0.0023539136 0.020806748 -0.01820861 -0.013521855 -0.00724512 0.015769424
0.018878264 0.019852296 -0.006883456 0.0035277589 -0.019574782 -0.0216942 0.006271452 -0.0010078715
-0.0047856127 -0.014279121 -0.0012032337 0.004806587 0.0027543711 -0.007904853 0.0065304344 -0.00072907325
0.0031995543 0.01653045 -0.030078596 0.02332957 -0.009612152 -0.0179744 -0.025547544 0.012826983
-0.010457977 0.027556004 -0.0018685237 -0.019395964 -0.0021239566 0.0114905005 0.008435992 -0.013317596
0.00671603 0.0064269328 -0.016233828 -0.018634558 0.009043844 -0.007832492 -0.014606814 0.0040441724
0.011913572 0.00047906497 -0.0022457966 -0.005191369 -0.01772513 -0.013556688 -0.019553935 -0.001095964
0.029216783 -0.0094569195 0.01108034 0.0061497027 -0.0036122815 0.01862038 0.00031619292 -0.007029308
-0.0023367882 -0.009697462 -0.011556847 0.018387679 0.008554323 0.039964907 -0.018234517 -0.013099521
-0.016542092 -0.02319577 -0.0047842246 -0.0039878255 -0.007938899 0.019804591 0.013067139 -0.017477185
0.0033456138 -0.011589827 -0.0053055384 0.012365345 -0.006994652 -0.014902129 0.008771297 0.0042680413
-0.0095989695 0.015211834 0.003356698 0.016400928 0.0030962413 0.0055770054 0.010541601 0.009711875
0.009483825 0.0059255953 -0.004412005 0.01247859 -0.013923238 0.0125603825 -0.00012829693 0.011591749
0.0082032895 -0.008109387 0.016088212 -0.00927612 -0.0051061157 0.008908515 0.000522949 -0.0010448296
-0.016085476 -0.015012334 -0.024305042 0.0127722435 0.013678636 0.00038776558 -0.005547437 -0.009620742
0.00845599 0.0024468445 -0.0010939703 0.006985353 0.018137567 -0.01520879 0.0009775743 0.015241311
0.012603812 0.006294257 -0.0019814635 -0.014607338 0.0015498898 -0.0030971458 -0.00051939883 -0.001304255
-0.0027384993 0.0012778793 0.007143659 -0.0052156034 0.008860533 -0.01944408 -0.011063924 -0.008019041
0.031046474 -0.003277917 0.0027514333 0.013331594 -0.014369255 -0.012593606 -0.0044984245 -0.024361212
0.018386753 -0.006389071 0.0015990549 0.006522981 -0.019489089 0.010299583 0.013872311 0.0014016134
0.0030143657 0.010428848 0.009496477 0.0041991333 -0.015756287 -0.010368117 0.023479346 -0.0048346194
-0.010225986 -0.0035091192 -0.029622342 0.0074024023 -0.02921329 0.004476668 -0.004583948 -0.0017592591
0.015882876 -0.004534883 -0.00107451 -0.018564042 -0.01521897 -0.0042822477 0.015879087 -0.017331973
00000000: 5576 033d c452 a4bb 22cc 80bb 7559 70bb
00000010: c09c 823b bdba 3bbc b493 1a3b 291c 0abc
00000020: 7492 27bc 15f3 c5bc ba40 55bb 0593 a9bb
00000030: c073 d9bc 655b 7f3c 87a2 073c d7a1 09bc
00000040: b0d2 b93b 41e0 9b3b 51b9 f6bb f8b2 5e3a
00000050: e92c b0bc e681 c7ba 2d84 b73b 662b 8cbc
00000060: 2cad 933c 287c 8f3c ce89 713c 13fd 42bc
00000070: f34e 073c fc0e 27bc 6a2e 013c c717 7b3c
00000080: ebb8 aa3c 14f4 abbb 5069 9f3c 2e17 913c
00000090: 15c5 dbbc a188 083b e41a be3b bd40 1fbc
000000a0: dc88 d2bc 12dc 1ab9 0a67 8fbc b9bf e5bb
000000b0: 0972 a0b9 ddbc dbbb a622 973c 40f9 f83b
000000c0: 001f 9abb cf3d 96bc 7ec5 743c 1bdc 95bb
000000d0: 064d a0bc ca46 84bc 479f bd3b 57d6 823c
000000e0: c6dc e13b 0622 8e3b a889 2cbc 8671 8fbc
000000f0: 6b4e fabb ee97 eabc 2dfe 8b3c 2c1c ac3c
00000100: 5f85 ae3c 9f4b 32bb 2d26 573c 113e 053c
00000110: 8db9 843b 6f4c 13bb de1f d6bb 94c0 3c3b
00000120: bb07 3ebc e5cd 6bbc 1e44 1abb ea72 aa3c
00000130: 392a 95bc c58a 5dbc 7968 edbb e12e 813c
00000140: 97a6 9a3c 48a1 a23c 9d8e e1bb f931 673b
00000150: 4b5b a0bc 09b8 b1bc c180 cd3b 8e1a 84ba
00000160: a1d0 9cbb f9f2 69bc d3b5 9dba 9380 9d3b
00000170: ae82 343b 5b83 01bc 41fd d53b 471f 3fba
00000180: 9daf 513b de6a 873c 6367 f6bc a81d bf3c
00000190: 4a7c 1dbc 0d3f 93bc 1549 d1bc 4428 523c
000001a0: ef57 2bbc 21bd e13c 40e9 f4ba 49e4 9ebc
000001b0: 1432 0bbb a742 3c3c 1d37 0a3c 0c32 5abc
000001c0: 2512 dc3b 0599 d23b cefc 84bc 80a7 98bc
000001d0: a22c 143c da53 00bc 6b51 6fbc fa84 843b
000001e0: 2531 433c 032b fb39 372e 13bb 5c1c aabb
000001f0: 4b34 91bc df1c 5ebc 932f a0bc 73a6 8fba
00000200: 0958 ef3c 32f1 1abc 508a 353c 7283 c93b
00000210: 07bc 6cbb c489 983c b2c6 a539 1c56 e6bb
00000220: cd24 19bb 1be2 1ebc ee58 3dbc c2a1 963c
00000230: 6e27 0c3c 3eb2 233d 8e60 95bc 609f 56bc
00000240: 4883 87bc 0e05 bebc fcc4 9cbb 4eac 82bb
00000250: 2812 02bc 3d3d a23c 8e17 563c 502c 8fbc
00000260: 1642 5b3b 42e3 3dbc 15da adbb 0498 4a3c
00000270: 6533 e5bb 0f28 74bc 7cb5 0f3c edda 8b3b
00000280: ff44 1dbc 0e3b 793c 0cfc 5b3b 3d5b 863c
00000290: 4fea 4a3b 50bf b63b aeb6 2c3c 8e1e 1f3c
000002a0: 0c62 1b3c 7f2b c23b 9592 90bb 0073 4c3c
000002b0: 4b1e 64bc 10ca 4d3c 7287 06b9 52eb 3d3c
000002c0: 1767 063c 3cdd 04bc 6dcb 833c defa 17bc
000002d0: 3451 a7bb 05f5 113c 8316 093a aaf2 88ba
000002e0: b0c5 83bc 4bf6 75bc 5e1b c7bc ac42 513c
000002f0: 5c1c 603c 044d cb39 46c7 b5bb 51a0 1dbc
00000300: fe8a 0a3c 3d5b 203b 8d63 8fba 63e5 e43b
00000310: 3c95 943c 4a2e 79bc f321 803a b1b6 793c
00000320: 3880 4e3c 0e40 ce3b 71db 01bb 9e53 6fbc
00000330: ac25 cb3a 7cf9 4abb 4428 08ba 89f3 aaba
00000340: 6578 33bb 847e a73a 5b15 ea3b a7e7 aabb
00000350: c52b 113c 3149 9fbc 7645 35bc 4c62 03bc
00000360: 2d55 fe3c 52d2 56bb 6451 343b c26c 5a3c
00000370: 066d 6bbc 6955 4ebc 8567 93bb 2a91 c7bc
00000380: d19f 963c 695b d1bb 6197 d13a bbbe d53b
00000390: 95a7 9fbc 95bf 283c b148 633c 57b6 b73a
000003a0: aa8c 453b c2dd 2a3c 1d97 1b3c e298 893b
000003b0: 5413 81bc 09df 29bc c257 c03c ba6b 9ebb
000003c0: e58a 27bc 40f9 65bb 8eaa f2bc da8f f23b
000003d0: b650 efbc 03b1 923b f134 96bb f196 e6ba
000003e0: ce1c 823c 5b99 94bb 93d6 8cba 9e13 98bc
000003f0: fd58 79bc 1952 8cbb dc14 823c c8fb 8dbc

action_model._continuous_distribution.mu.bias f4 [2]
-0.0035918534 -0.0007225061
00000000: 4d65 6bbb 9066 3dba
