MLAgents Jumper Exercise/Assets/results/JumperAgent_3/JumperAgent/checkpoint.pt (torch, 512866 bytes, 50 tensors)

network_body.observation_encoder.processors.0.normalizer.running_mean f4 [26]
000000 dc 59 44 3f 9d 75 4c 3f 35 59 44 3f dd a0 4c 3f
       0.76699615 0.79866964 0.7669862 0.7993296
000010 dc 59 44 3f 65 a1 4c 3f dc 59 44 3f 8f 2e 4d 3f
       0.76699615 0.7993377 0.76699615 0.8014917
000020 dc 59 44 3f 8f 2e 4d 3f dc 59 44 3f e4 3f 4e 3f
       0.76699615 0.8014917 0.76699615 0.8056624
000030 dc 59 44 3f e4 3f 4e 3f bd b0 48 3f 7b f8 52 3f
       0.76699615 0.8056624 0.7839468 0.824104
000040 bd b0 48 3f 7c f8 52 3f 36 9e 59 3f 19 01 61 3f
       0.7839468 0.8241041 0.85007036 0.878923
000050 36 9e 59 3f 19 01 61 3f 91 42 72 3f 12 8c 74 3f
       0.85007036 0.878923 0.9463282 0.9552623
000060 91 42 72 3f 12 8c 74 3f
       0.9463282 0.9552623

network_body.observation_encoder.processors.0.normalizer.running_variance f4 [26]
000000 63 98 94 46 95 3c 5f 46 6c 99 94 46 7c d4 5d 46
       19020.193 14287.1455 19020.71 14197.121
000010 63 98 94 46 d0 d2 5d 46 63 98 94 46 25 50 59 46
       19020.193 14196.703 19020.193 13908.036
000020 63 98 94 46 25 50 59 46 63 98 94 46 bc c0 50 46
       19020.193 13908.036 19020.193 13360.184
000030 63 98 94 46 bc c0 50 46 97 d4 8c 46 b5 d1 3c 46
       19020.193 13360.184 18026.295 12084.427
000040 97 d4 8c 46 b4 d1 3c 46 e3 f2 53 46 53 a7 0b 46
       18026.295 12084.426 13564.722 8937.831
000050 e3 f2 53 46 54 a7 0b 46 5c f3 a8 45 cb eb 6c 45
       13564.722 8937.832 5406.42 3790.737
000060 5c f3 a8 45 ca eb 6c 45
       5406.42 3790.7368

network_body.processors.0.normalizer.running_mean f4 [26]
000000 dc 59 44 3f 9d 75 4c 3f 35 59 44 3f dd a0 4c 3f
       0.76699615 0.79866964 0.7669862 0.7993296
000010 dc 59 44 3f 65 a1 4c 3f dc 59 44 3f 8f 2e 4d 3f
       0.76699615 0.7993377 0.76699615 0.8014917
000020 dc 59 44 3f 8f 2e 4d 3f dc 59 44 3f e4 3f 4e 3f
       0.76699615 0.8014917 0.76699615 0.8056624
000030 dc 59 44 3f e4 3f 4e 3f bd b0 48 3f 7b f8 52 3f
       0.76699615 0.8056624 0.7839468 0.824104
000040 bd b0 48 3f 7c f8 52 3f 36 9e 59 3f 19 01 61 3f
       0.7839468 0.8241041 0.85007036 0.878923
000050 36 9e 59 3f 19 01 61 3f 91 42 72 3f 12 8c 74 3f
       0.85007036 0.878923 0.9463282 0.9552623
000060 91 42 72 3f 12 8c 74 3f
       0.9463282 0.9552623

network_body.processors.0.normalizer.running_variance f4 [26]
000000 63 98 94 46 95 3c 5f 46 6c 99 94 46 7c d4 5d 46
       19020.193 14287.1455 19020.71 14197.121
000010 63 98 94 46 d0 d2 5d 46 63 98 94 46 25 50 59 46
       19020.193 14196.703 19020.193 13908.036
000020 63 98 94 46 25 50 59 46 63 98 94 46 bc c0 50 46
       19020.193 13908.036 19020.193 13360.184
000030 63 98 94 46 bc c0 50 46 97 d4 8c 46 b5 d1 3c 46
       19020.193 13360.184 18026.295 12084.427
000040 97 d4 8c 46 b4 d1 3c 46 e3 f2 53 46 53 a7 0b 46
       18026.295 12084.426 13564.722 8937.831
000050 e3 f2 53 46 54 a7 0b 46 5c f3 a8 45 cb eb 6c 45
       13564.722 8937.832 5406.42 3790.737
000060 5c f3 a8 45 ca eb 6c 45
       5406.42 3790.7368

network_body._body_endoder.seq_layers.0.weight f4 [128, 26]
000000 7e e8 3c 3e 80 27 a4 be d4 52 04 3d e3 78 a9 bd
       0.18448064 -0.32061386 0.032305554 -0.082750104
000010 1a ce cb bd 9d d1 51 3e cb c5 c3 3d 95 0f 9f 3c
       -0.0995142 0.20490117 0.095592104 0.01941661
000020 eb e4 6f 3e 94 c2 26 be 3e 4a ef 3d 79 1f e9 3d
       0.23427169 -0.16285163 0.116840824 0.11382956
000030 44 a4 a9 3d 2a de c9 3d b5 3b 8e 3e c1 16 ba bd
       0.08283284 0.098568276 0.27779928 -0.09086371
000040 7f 23 fa bd 81 b4 c6 bc 30 b7 8f be 66 14 7a 3d
       -0.122138016 -0.024255993 -0.28069448 0.06105461
000050 52 d5 52 3c fb dc 2c be 5b 12 53 be 80 e3 6e 3c
       0.012868242 -0.16881172 -0.20612471 0.014580607
000060 7e b0 f8 3e 31 04 a2 3e aa 90 eb 3d bd 59 ac 3d
       0.48572153 0.31643823 0.11502202 0.08415554
000070 2c c4 84 3e 89 6c ce bd 73 f4 90 be c8 90 ea bd
       0.25930917 -0.10079295 -0.283115 -0.11453396
000080 65 03 06 3d 1c 1f d4 3d 0d 7b 99 3d 16 f8 50 3b
       0.03271808 0.10357496 0.07494173 0.0031886152
000090 b2 44 fa bd 1f ec b1 3d d0 11 23 3d 14 54 2e 3e
       -0.12220134 0.08687615 0.03981191 0.17024261
0000a0 8d ba 6f 3e 6e 7e d5 3d f1 7a 85 bd f8 d2 1d be
       0.23411007 0.10424505 -0.0651759 -0.1541251
0000b0 d8 97 42 be 07 bd 10 3e df 5f 50 3e 0e 9e 85 be
       -0.19003236 0.14134608 0.20349072 -0.2609715
0000c0 ba c0 8e 3d 60 0c 62 be 51 7a 1f 3e e6 b6 bd be
       0.069703534 -0.22075033 0.15574004 -0.37053603
0000d0 99 88 0d 3e 3c d3 44 be 4f ae e9 bd 98 3a 0d 3e
       0.13821639 -0.19221205 -0.114102 0.13791883
0000e0 14 b3 f1 bd 14 e4 1c 3e 83 62 82 bd d2 c9 54 be
       -0.118017346 0.1532138 -0.06366446 -0.20780113
0000f0 a3 b7 4d be c1 ed 05 bd 54 bb 75 bd d1 75 69 bd
       -0.20089583 -0.032697443 -0.059993103 -0.056997124
000100 0c 78 ca be f3 79 99 3c 7a 89 6c 3e b8 77 1c be
       -0.39544713 0.018734908 0.23099318 -0.15280044
000110 4b 84 5f 3e 9e 0b 97 3d 74 fa 24 bd 8a e1 a1 3d
       0.2182781 0.07375263 -0.040277913 0.07904346
000120 eb 93 c2 be 9f 97 64 be 66 43 3e 3e 99 df 77 3e
       -0.38003477 -0.22323464 0.18580398 0.2420639
000130 81 2e 17 3d 81 6e 8f 3d af ee 71 3e d9 e1 89 be
       0.036909584 0.07003499 0.23626207 -0.2693012
000140 48 12 c5 3d 1d b6 28 3e 97 ec 10 3d c0 a7 38 be
       0.096226275 0.1647572 0.03538188 -0.18032742
000150 d0 b3 88 3e 38 6c 6c 3d 32 c6 07 3e 00 67 7d be
       0.26699686 0.057720393 0.132592 -0.24746323
000160 3a fe 8e be d8 52 f8 bc c4 e6 b9 bd fa 20 43 3e
       -0.27928334 -0.03031294 -0.09077218 0.19055548
000170 5e 7d 3a bd 75 b5 b1 3d 7f e1 95 bd 11 07 94 bd
       -0.045529716 0.08677188 -0.073184006 -0.0722791
000180 4a 7a 33 be 5e 36 f9 bd af 6b 33 3e 66 0f 30 be
       -0.17527118 -0.12168573 0.17521547 -0.17193374
000190 21 ef f1 bd 57 6d 74 bb 8a 6c 53 be 82 a1 eb 3d
       -0.11813188 -0.0037296617 -0.20646873 0.115054145
0001a0 45 4e 71 be e0 a9 d3 3c 27 e4 9f be 2b 69 97 3e
       -0.23565014 0.025837839 -0.31228754 0.29572424
0001b0 c4 67 1d bc a8 12 98 be 5d 86 40 be de 06 78 3e
       -0.009607259 -0.29701734 -0.18801256 0.2422137
0001c0 b8 69 9a 3d 9c 0f 75 3e be 84 dc 3d 9d 89 3c bd
       0.075396955 0.23931736 0.10767506 -0.046029676
0001d0 9a 0f 70 3e ab 64 5d be cf 7b 05 be da 54 3b be
       0.23443452 -0.21620433 -0.1303551 -0.18294087
0001e0 f7 9b d4 3c 5e e5 1a 3e 8c a2 8a be fa b7 9a 3c
       0.025953276 0.15126559 -0.27077138 0.018886555
0001f0 67 03 64 3e ba 4c 82 3e 12 4a 13 be 0a 02 cf be
       0.22266923 0.25449163 -0.14383724 -0.40431243
000200 7d f7 eb 3e 6b e7 91 be 11 c8 08 3e 1e c0 da 3d
       0.46087256 -0.2849687 0.1335757 0.10681175
000210 a3 05 c9 3d f8 12 b7 3d 5e b2 c3 bc f5 c1 b4 be
       0.09815528 0.08939165 -0.023888763 -0.35304227
000220 45 eb 41 be a2 d4 41 bd 24 4b 2c be 46 ec 4c 3e
       -0.18937404 -0.047321923 -0.16825539 0.20012006
000230 bd 07 97 bc 20 3e b8 3d 8e 09 9d 3e 01 a4 52 be
       -0.018436307 0.089962244 0.30671352 -0.20570375
000240 45 2a 10 be f3 35 d9 3d 63 6b fe 3e 29 87 0e bd
       -0.14078625 0.10605993 0.49691305 -0.034796868
000250 20 e7 26 bc d2 b6 43 3e f3 1d 9a 3d c7 6f 4e bc
       -0.01018694 0.19112709 0.075252436 -0.012599892
000260 f2 54 03 be 77 19 8f 3e 93 12 57 3e ee 2c 7e 3e
       -0.12825373 0.27949116 0.21003179 0.24821827
000270 d3 f6 62 bd 9a 65 51 3e f3 86 11 bd 54 34 a5 bd
       -0.05541117 0.20448914 -0.03552909 -0.080666214
000280 73 06 0a be e1 f3 89 3e f3 87 5b be 98 0a 2b be
       -0.13479023 0.26943877 -0.2143858 -0.1670326
000290 fd c6 16 3e 0c b3 54 be c8 f5 d0 bd a7 eb 98 3e
       0.14724346 -0.20771426 -0.10203129 0.29867288
0002a0 5b c7 bd bb e1 bf 33 be 6a 94 cb bc 8b 28 e1 bd
       -0.0057915873 -0.17553665 -0.024851043 -0.10994061
0002b0 13 a7 9a 3d 45 d1 dc 3d c7 12 5f be 15 8f 31 3d
       0.07551398 0.107821025 -0.21784507 0.043349344
0002c0 77 a5 8a bd fd 55 d3 bd df da be 3d ca 62 ab be
       -0.06769841 -0.10319135 0.0931909 -0.33473808
0002d0 ea e7 be 3d c5 8b 91 bd d7 5f e0 3d f1 9c 07 3d
       0.09321578 -0.07106737 0.1095578 0.033108655
0002e0 6e b8 c5 bd 3d e6 33 be 84 23 99 3d a2 46 ed 3d
       -0.09654318 -0.17568298 0.07477477 0.11585738
0002f0 32 87 26 3e 71 5c 27 3d 81 d5 2c 3d 03 b0 b3 be
       0.1626251 0.040859643 0.0421958 -0.35095224
000300 19 ea 19 be 1c b7 f0 bd 7c 9a 35 3e 07 81 2e 3e
       -0.15030707 -0.11753675 0.17734712 0.17041408
000310 f4 0d 03 3d 92 70 18 3e 65 4d 51 be 0c 6d 89 3d
       0.03199573 0.14886692 -0.2043968 0.06710252
000320 71 da 64 bd b7 6e cc 3e 9c cd 88 bd fd 49 c1 3d
       -0.055872384 0.3992822 -0.06679842 0.0943794
000330 59 35 3c be 85 7f 18 3c ab 7b 9f 3d a0 8a 66 be
       -0.18379726 0.009307747 0.0778726 -0.22513819
000340 5a 97 34 3e a2 66 5c bd 6d d7 af bd 08 b7 09 be
       0.17635861 -0.053808816 -0.08586011 -0.13448727
000350 bd 0f 38 be 81 dd 3e 3e 6b 28 23 3e dc 7d 17 be
       -0.17974754 0.18639185 0.15933387 -0.14794105
000360 33 dd 9f be f4 54 ac 3c 5c e6 8f be c5 99 2a bd
       -0.3122345 0.021036603 -0.28105438 -0.041650552
000370 f5 3c d8 bc d0 3f 41 be 6e 3a 89 3e 2b 72 c6 bd
       -0.026396254 -0.18871999 0.2680239 -0.096897446
000380 e4 0a 33 be 64 de 5d 3c 5a e3 98 3d 4e 21 ea 3d
       -0.17484623 0.013541792 0.07465239 0.114321336
000390 61 45 84 bd 4d 45 1e 3e d3 b4 fb 3c 8b 1e 76 3e
       -0.064585455 0.15456124 0.030725872 0.24035089
0003a0 2a 40 bf 3d 44 2d a7 3d f6 9a 81 be 26 95 30 3e
       0.0933841 0.081629306 -0.25313538 0.17244396
0003b0 eb 14 a4 bd 17 7b a5 bb 7c df 0c bd 73 f9 64 be
       -0.08011802 -0.005050074 -0.03439282 -0.22360782
0003c0 dc 8a 4b be fc e0 36 3e fb a8 23 3e fd c0 fb bd
       -0.1987719 0.17859262 0.1598243 -0.12292669
0003d0 ce 05 52 3e 33 ef 0c 3d 9d 36 02 bf 1f a8 74 be
       0.20510027 0.034407806 -0.50864583 -0.23892258
0003e0 ed b0 e7 bd 7c f4 5e 3e f1 d9 b2 be b6 c6 4d 3e
       -0.11313043 0.21772951 -0.349319 0.20095333
0003f0 64 da 5b 3e df d8 a3 be 0a 05 03 be 68 3b ae 3d
       0.21470028 -0.32001397 -0.12794891 0.085074246

network_body._body_endoder.seq_layers.0.bias f4 [128]
000000 39 ea b5 bb 87 8c 68 3b 3b 12 a1 3b 5a a6 86 bb
       -0.005551603 0.0035484151 0.0049155033 -0.004109186
000010 5f e8 30 bb bd af 8f ba 05 b1 26 3c ae dc 73 3b
       -0.0026993973 -0.0010962408 0.010174041 0.0037210393
000020 e1 ed 9b 3c a4 f1 e9 3b 36 31 c3 3b 5d 25 53 3b
       0.019034328 0.0071394015 0.005956794 0.0032218315
000030 d8 77 aa 3b 8b 73 55 3b 1b d9 95 ba bf 40 23 b8
       0.005202275 0.003257009 -0.00114325 -3.8922528e-05
000040 07 14 26 3c dd 7b 95 bb 80 b3 1d 3a 34 8e 1b 3a
       0.010136611 -0.004561885 0.00060158223 0.00059339707
000050 3b 1a b3 ba 3e 60 be ba da 1e 87 bb 86 f2 70 3a
       -0.0013664433 -0.0014524532 -0.004123551 0.0009191412
000060 52 c5 59 3b 78 04 64 bb 89 94 8e bb 6d 10 97 bb
       0.0033229184 -0.0034792703 -0.004351203 -0.0046101124
000070 45 d7 8f ba 2e 97 3f bb 4b f7 fd 3b 97 07 0f 3c
       -0.001097419 -0.0029234397 0.007750427 0.008729837
000080 5c 24 26 3a 89 58 40 3c 29 5b 07 3b d4 c9 c4 3a
       0.00063378154 0.011739858 0.00206537 0.0015013763
000090 20 38 14 bc 3e e0 04 bc 60 b1 b6 3b 6c 5a ac bb
       -0.009046584 -0.008110104 0.005575344 -0.0052598026
0000a0 54 bb d4 3c 16 c8 b0 3b 5f 2d 50 ba 27 23 81 3a
       0.025968231 0.005394946 -0.0007941331 0.0009852395
0000b0 a8 04 ba 3b 25 e9 1c 3b d3 6f 3a 3c 18 ef ee 39
       0.0056768246 0.0023942676 0.0113792 0.00045573036
0000c0 6c 9b b6 ba 78 6b 74 3c d0 e2 fb 3b 71 06 a9 ba
       -0.0013931817 0.014918201 0.0076869503 -0.0012895596
0000d0 e8 70 7f 3b 2a 7c 3f 3c 73 e1 1c 3b b8 9f 43 3c
       0.003897721 0.011687318 0.002393809 0.011939935
0000e0 cb f9 ca 3b ee 69 5e 3b 3b fd 52 3b 93 79 77 3c
       0.0061943284 0.003393765 0.0032194394 0.015104669
0000f0 f8 7f 68 3b 24 df f6 ba 0f 79 e9 38 d5 0e 0a ba
       0.0035476666 -0.0018834812 0.00011132855 -0.00052664924
000100 49 5d 33 3b a9 05 15 bb 33 b5 81 bb 3f 1b 60 3a
       0.0027368835 -0.002273897 -0.003958368 0.0008548982
000110 46 d5 aa bb 5a c6 88 bb 3c 32 3f 3b 8e 43 17 3c
       -0.0052134125 -0.004174036 0.002917423 0.009232415
000120 b8 56 c4 3a 68 45 bd 3b a4 0c 23 3b a5 ea 92 bb
       0.0014979457 0.005776096 0.002487936 -0.004483538
000130 8b 9e 10 bb dc 5e b0 3b 63 46 7a ba c5 65 3a 3c
       -0.0022067155 0.005382402 -0.00095472316 0.011376803
000140 cc 41 c9 3b 4b 72 ab ba 39 bf c1 3b 6d bf 90 3c
       0.006141877 -0.0013080327 0.005912688 0.017669404
000150 22 b6 75 3a 08 40 28 3c 09 e8 69 3b 2b ee c4 3b
       0.0009373148 0.0102691725 0.0035691282 0.006009837
000160 13 b1 ce 3b 6b ea de 3a e6 62 5d 3b 00 76 3a 3b
       0.00630773 0.0017007118 0.0033780872 0.002845168
000170 80 28 9a 3c 47 8c 8c 3a 49 36 0e 3c bd 73 9d bb
       0.01881814 0.0010722958 0.008679935 -0.004805057
000180 fe 44 ce ba 82 4f 53 bb 88 d5 82 bc 5c 2e 81 bb
       -0.0015737114 -0.0032243435 -0.01597096 -0.003942294
000190 54 bb c5 39 0d 5d 23 bb 92 f5 b7 b9 fb 6b 78 3b
       0.00037714338 -0.0024927289 -0.00035087444 0.0037906158
0001a0 31 c8 c7 3a 63 c1 0e bb bd 72 d4 ba 2c 2b c6 b9
       0.0015242157 -0.0021782748 -0.0016208511 -0.00037797668
0001b0 a4 11 de ba 1c b1 97 ba 77 aa 98 3b f9 28 81 3c
       -0.0016942513 -0.0011573168 0.004658993 0.015766608
0001c0 75 40 2a 3b d0 f5 82 3b 47 00 c3 39 71 49 93 3b
       0.002597836 0.0039965883 0.00037193505 0.004494839
0001d0 20 28 8b 3a 9e 71 c8 3a ab e8 c6 ba 93 1a 26 3b
       0.0010616817 0.001529265 -0.0015175542 0.002534543
0001e0 fe 38 8e ba 15 a8 ed 3b a4 a0 87 3b 59 ee 43 3c
       -0.0010850725 0.007252703 0.004139023 0.011958682
0001f0 a1 c9 74 3a fc b9 c7 bb 50 bf f5 ba 2b 9c d6 3b
       0.00093379064 -0.006095169 -0.0018749032 0.0065493784

network_body._body_endoder.seq_layers.2.weight f4 [128, 128]
000000 70 8c ae 3d 9f 91 89 bd a2 51 cf bd 10 86 4e bd
       0.0852288 -0.06717228 -0.10122992 -0.05042082
000010 42 1f 9a 3d 47 c5 49 bd 14 e0 79 3d 5b 58 b1 3d
       0.07525493 -0.049260404 0.061004713 0.086594306
000020 cb 61 56 bd 43 44 17 3c cc e6 a3 3d ac a4 ce 3c
       -0.052339356 0.009232583 0.080030054 0.025225006
000030 9f 55 e5 3d af 41 72 bd 17 1d ec bc 96 d0 e6 bc
       0.111979716 -0.059144672 -0.028822465 -0.028175633
000040 89 9d 28 3d 24 9c 87 bd 83 fa 96 3d 42 07 ef bc
       0.041165862 -0.06621578 0.07372 -0.029178265
000050 e3 a4 2e 3e 39 5c 3a 3b 73 7c 06 3e 12 fb b2 bb
       0.17055087 0.0028436317 0.13133411 -0.005462059
000060 af d9 ad 3c 5a d4 5b 3d 47 ea d6 bd ac b4 c4 3d
       0.021221964 0.05366931 -0.104939036 0.09604773
000070 03 0a d8 3d 62 2d 02 be 8a 4e 02 be 8e b5 8d 3d
       0.105487846 -0.12712625 -0.12725273 0.069193944
000080 f1 5b 92 3c 30 62 b9 bd a1 8c a3 ba 4a ba 6c 3c
       0.017866107 -0.09051931 -0.0012477824 0.014448712
000090 8b 7a 79 3c 32 b3 3a bd fe f8 19 bd 1f fa f6 3d
       0.01522697 -0.04558105 -0.037590973 0.120594256
0000a0 46 7b ce bd 5f 61 f6 bc 96 c2 81 bc f7 54 8a 3e
       -0.10082106 -0.030075727 -0.015839856 0.27017948
0000b0 85 61 ec bd d5 7e b4 3b 03 21 bd 3a 5e a4 c2 3c
       -0.11542038 0.0055082836 0.0014429394 0.023760017
0000c0 47 a9 83 3d 61 04 d8 3d 1e 25 62 bd 9f 69 8e 3c
       0.064287715 0.1054771 -0.05521118 0.017384348
0000d0 19 7e 17 be 93 36 78 3e 87 b2 2e bd 67 10 30 bc
       -0.14794196 0.24239568 -0.042650726 -0.010746098
0000e0 6e 5e e0 3c 80 cb 89 bc b9 99 d1 bd a8 a5 ca bd
       0.027388778 -0.01682067 -0.102343984 -0.09894878
0000f0 34 e9 ea bd 06 89 96 3b a2 ad dc 3c 7c 6c a8 3c
       -0.11470261 0.004593971 0.026938263 0.020559542
000100 7c 08 c9 3d 3e f2 3e 3e f7 61 3a 3e b6 02 a0 3d
       0.098160714 0.18647096 0.18201433 0.07813017
000110 7e 46 1c 3e 66 7a 43 3d 3f 90 e1 3d de b1 b0 bd
       0.15261266 0.04772415 0.11013841 -0.086276755
000120 b9 7c e2 3c f6 96 ce bd e4 44 d1 3d 5c 1c eb 3c
       0.027647363 -0.10087387 0.10218218 0.028700046
000130 ce 3b e9 bd 30 46 24 3e f4 ec 0f 3e 38 02 c0 3d
       -0.1138836 0.160424 0.14055234 0.09375423
000140 f0 55 66 3a 8e 5c 11 bd 2f 62 6e bc 7d 9a 09 3e
       0.00087866094 -0.035488658 -0.014549776 0.13437839
000150 56 f9 d6 3c 03 29 f2 bc ff 55 83 3c 39 f5 88 3d
       0.02624194 -0.029560572 0.016032217 0.066873975
000160 e8 e2 7e bd 1e 11 18 3d b0 0b fc bb 71 06 b3 3c
       -0.062228113 0.0371257 -0.007691823 0.021853657
000170 16 7b 7d 3d 38 f1 40 3d 3e ec d8 3d c3 a2 ce bd
       0.061884962 0.047105044 0.105919346 -0.10089638
000180 aa e5 8f bd c5 2e 2e be f5 36 5e bd 73 de 8d bd
       -0.07026227 -0.17010029 -0.05425163 -0.069271944
000190 d3 80 66 3d 2e 53 5c 3e 41 17 3a bc aa 30 a4 bb
       0.0562752 0.21516106 -0.011358083 -0.005010684
0001a0 af e9 6e 3c d0 c1 e5 bc 24 08 0b 3e 1b bd 02 3e
       0.014582082 -0.028046519 0.13577324 0.1276745
0001b0 0a de 9e 3b 2d b3 09 3d a1 b2 19 3d e7 58 93 bd
       0.0048482465 0.03361814 0.03752387 -0.07194691
0001c0 3a dc b7 bd 4b 4c f5 3d dc 82 d6 bd 4c 8a 90 bd
       -0.08977552 0.11977442 -0.10474178 -0.07057628
0001d0 7f 3d a3 bd f7 8f 9d bd da 88 ad 3d 4c e6 2d bd
       -0.07970714 -0.07693475 0.08473368 -0.042455956
0001e0 37 bf 71 3d 6d a5 11 3e d8 8f 38 3c 8e dc 99 bc
       0.059020247 0.14223261 0.011264764 -0.018781926
0001f0 61 4e 05 3c 64 c0 49 be 9d 0a 1c 3e 7a ca 8d bd
       0.008136363 -0.19702297 0.15238424 -0.06923385
000200 6a 32 9a bd 00 e6 7d 3c b8 ee 68 3d 78 a9 0c 3d
       -0.07529147 0.015496731 0.056868285 0.034341305
000210 33 f0 1e 3e cd 4c 3d 3d bf 02 f0 3c d9 1c 80 3d
       0.15521316 0.04621582 0.029298184 0.06255502
000220 83 e9 59 3e 8b 06 93 3d 6e ee a3 bd 85 5f ed bc
       0.21280484 0.07178982 -0.08004461 -0.028976211
000230 5e 31 92 bd a9 23 fa 3c 3a b8 c6 bd fc 15 bf 3d
       -0.07138322 0.030534582 -0.09703107 0.09330365
000240 97 bb 9f bd e2 6d 00 3e e5 f3 e4 bb 95 9e 89 bd
       -0.07799452 0.12541917 -0.0069870823 -0.067197
000250 2b 83 ca bd 9d f7 6e bd 56 7f 5b 3d 2d c2 90 3c
       -0.098882996 -0.05834161 0.053588234 0.017670715
000260 a7 df 01 3e d6 ad 40 bd 50 72 04 3d e7 e0 b7 bd
       0.12682973 -0.047040783 0.03233558 -0.089784436
000270 03 f9 56 3d 12 f9 98 bc ba 69 01 3d 37 7e 7c 3c
       0.05248357 -0.018673453 0.03159497 0.015410951
000280 fd b5 5b bc a8 b0 3c 3e 77 27 d9 bd 0a a4 5d 3d
       -0.013410089 0.18426764 -0.106032304 0.054111518
000290 9b 9f 4b 3d 89 61 20 bb e3 c7 20 bc 7c cc 47 bd
       0.04971276 -0.0024472198 -0.009813282 -0.048778996
0002a0 62 8b 07 bd ac 91 4e 3e b3 60 a2 bd c5 27 a7 3b
       -0.03309191 0.20172757 -0.079286 0.0051011764
0002b0 1f e6 11 3e ab 8b 27 be cd 09 ba 3c e6 36 01 3d
       0.1424794 -0.16361873 0.022709752 0.031546496
0002c0 e8 27 92 3d ab 0f 25 3e 73 56 95 bd e8 dd 15 bd
       0.07136518 0.16119258 -0.072918795 -0.03658858
0002d0 e6 7e 95 bd 8f 59 04 3e b1 a0 56 bd 9b 62 00 3c
       -0.072995946 0.12924789 -0.05239934 0.007836009
0002e0 c3 3b 91 bd 74 0f 8f 3d e6 07 1f 3d c2 e7 87 3d
       -0.07091477 0.06985369 0.038825892 0.06636001
0002f0 13 c2 fa 3d 4b 99 37 be 0a 09 8c bd 9c 35 52 3b
       0.12244048 -0.1792957 -0.068376616 0.003207541
000300 c7 d3 ac bd c8 a1 2f bb ee 3c f0 3d 81 2a ae bc
       -0.08438831 -0.002679931 0.117303714 -0.021260502
000310 1a f6 b1 bd 06 c7 82 bd 30 d9 2d 3e e9 c3 2e bd
       -0.08689518 -0.06385617 0.16977382 -0.042667303
000320 ef a2 8e bd 13 c8 d4 bb 44 ce 96 3b 14 84 e2 3c
       -0.06964671 -0.0064935773 0.0046022255 0.02765087
000330 1f f6 9c 3d a6 6e f2 3d df 00 94 3c d4 37 3f 3d
       0.076641314 0.11837511 0.018066822 0.0466841
000340 47 db c0 bd 27 6a a8 3d 16 bc 3b 3a 9a 1c 4c bb
       -0.09416824 0.08223372 0.0007161511 -0.0031144978
000350 50 c3 f7 bc b8 f6 bf 3d 74 27 9d 3c fe 4b a0 bd
       -0.0302445 0.0937323 0.019183852 -0.07826994
000360 26 86 3d 3d 9d f2 b4 3a 70 1d 82 bd a7 60 22 bd
       0.046270512 0.0013805215 -0.06353271 -0.039642956
000370 76 c2 22 3e 13 46 a8 bc 5f c1 77 bc ed 96 a5 3b
       0.15894493 -0.020541226 -0.015121787 0.005053392
000380 8f 73 30 3e 86 56 ef 3c bb 78 89 bd 26 87 1b be
       0.17231582 0.029216062 -0.06712481 -0.15188274
000390 c2 4e d8 bd fa 6a 8a 3d 8e 9a 00 bd cb 54 02 3e
       -0.10561897 0.067586854 -0.031397395 0.12727658
0003a0 4e 8f 08 3d 62 b8 f9 bd bd 24 7d bc 16 04 89 3e
       0.03333979 -0.12193371 -0.015450654 0.2676093
0003b0 c4 46 39 be d7 50 de bc 4a 92 f5 bc 57 9d 0b 3e
       -0.18093401 -0.027138157 -0.029976983 0.13634239
0003c0 9c d0 3c 3d 30 0c 3c bb 53 17 14 3d 00 f6 c8 3d
       0.046097383 -0.0028693788 0.036155056 0.09812546
0003d0 8c 03 dc 3c 24 49 40 be 0f 4d 9c bc c3 dd 54 bc
       0.02685716 -0.18777901 -0.019079713 -0.012992325
0003e0 1c f6 f7 3c a0 18 00 be 96 0f 82 bd e3 50 40 3b
       0.030268721 -0.12509394 -0.06350629 0.0029345087
0003f0 59 88 21 bd c4 83 bf bc 02 c8 41 bd 1a 07 ac bd
       -0.039436672 -0.02337826 -0.047309883 -0.08399792

network_body._body_endoder.seq_layers.2.bias f4 [128]
000000 94 3b f8 b9 ef b4 a9 3b 43 05 3f 3a 9b 24 b8 ba
       -0.00047346635 0.0051790397 0.0007286856 -0.0014048995
000010 72 18 ef 3b 60 91 48 ba 52 ca ee ba fe c6 26 3b
       0.0072966153 -0.0007651057 -0.0018218255 0.0025448198
000020 9c 84 ae 3a bf 71 32 3b aa 18 ad ba 9b 13 4d ba
       0.0013314667 0.0027228442 -0.0013206203 -0.0007823051
000030 d0 55 97 3a 35 95 dd 36 0c dd bc 39 51 a2 e5 ba
       0.001154596 6.6036832e-06 0.00036022847 -0.0017519688
000040 51 9c f3 3a da 5d c9 b8 b3 27 7b bb 9d ea dc 3b
       0.0018586015 -9.601908e-05 -0.0038323223 0.0067418353
000050 f4 05 44 bb bd 6e 52 3b 0b 0d 8c bb 02 2d 6e bb
       -0.0029910775 0.0032109462 -0.004274016 -0.0036342745
000060 4b fc b7 3a 56 8f e8 3b ba 3e 5a 3c eb cc d7 ba
       0.0014036981 0.007097165 0.013320619 -0.0016464269
000070 5d 0e 0a bb 8e 07 0a 3b c6 b4 93 3b 51 25 61 ba
       -0.002106569 0.0021061632 0.004507634 -0.00085886294
000080 54 12 a9 3a c8 24 06 bb 15 ab f1 3a f5 2d 1f 3c
       0.0012899139 -0.00204687 0.0018437827 0.009715547
000090 34 c0 72 3b 79 d6 03 3b 5a 4a 4d b9 49 0a 57 3c
       0.0037040832 0.002011685 -0.00019578022 0.013125011
0000a0 07 5a de b7 0c ca 88 3a d3 28 c3 ba 3d 90 72 3a
       -2.6506385e-05 0.0010436191 -0.0014889486 0.00092530606
0000b0 ee 1f 34 3b dd d2 c7 39 41 77 59 3b 0f 68 8b 3b
       0.0027484852 0.00038113343 0.0033182653 0.004254348
0000c0 b0 4f dc ba b1 47 4c 3b 1f d7 eb 3b c0 bc 97 ba
       -0.0016808417 0.003117066 0.0071972753 -0.0011576638
0000d0 3e ef 86 3b 41 85 69 bb a7 10 ec 3b 1c e7 52 bb
       0.0041178754 -0.0035632404 0.0072041336 -0.003218121
0000e0 8e c3 b6 38 77 24 d5 3a 94 23 bb 38 c1 16 7c 3b
       8.714861e-05 0.0016261478 8.923482e-05 0.003846571
0000f0 4e b9 8b ba 23 24 49 3b 95 57 81 3b af c2 0e 3b
       -0.0010660083 0.0030691705 0.003947208 0.002178352
000100 9d 6c 3a 3b d2 97 89 b9 a3 16 e0 ba f7 52 f3 ba
       0.0028446086 -0.0002624379 -0.001709659 -0.0018564154
000110 1b 15 d8 3a 85 62 4c bb 21 28 bc 3a 3c 09 1c bb
       0.0016485782 -0.0031186652 0.0014355221 -0.0023809215
000120 55 10 a6 b9 f4 f5 49 bb eb 54 30 3b 2d f6 68 bb
       -0.00031674156 -0.0030816766 0.0026906084 -0.0035547123
000130 43 18 78 3c 73 b6 e3 3b 93 50 57 3b a2 3a 24 bb
       0.015142503 0.00694924 0.0032854422 -0.0025059362
000140 21 63 bd 3a 1d b7 1c 3c 0b a0 2e bb 0a 85 2b 3b
       0.0014449098 0.009565142 -0.0026645686 0.0026171827
000150 59 b6 2e 39 f6 ba a8 3b ff 88 40 bb d1 bb 44 3b
       0.00016661863 0.0051492406 -0.002937853 0.0030019174
000160 57 16 1e 3b 40 f9 59 3c ca 68 49 3b 71 7c 48 bb
       0.0024122202 0.013304055 0.0030732625 -0.003059175
000170 e2 b6 d0 ba 4f ba 12 3a 31 ab 05 bb 3e 65 16 3b
       -0.0015923644 0.000559722 -0.0020396227 0.0022948529
000180 5c 56 3b 3b ba c8 a9 3b ac cf 16 3a 26 8b 00 3a
       0.002858541 0.005181399 0.00057529914 0.0004903547
000190 7c aa d1 3b 30 d6 44 3b a1 a2 c8 ba 82 04 57 3c
       0.006398497 0.0030034892 -0.0015307256 0.013123633
0001a0 24 b9 bc 39 ca e6 bc bb d6 c0 77 3b d4 95 d8 3a
       0.00035996095 -0.005764817 0.0037804148 0.0016524144
0001b0 e5 8a 75 3b 0e d8 1e 3c c7 00 2c 3a 15 ca f3 3b
       0.003746682 0.009695066 0.0006561395 0.0074398615
0001c0 68 f3 b1 39 3a aa ec b9 18 7b 7b 3a 4c 59 a7 3b
       0.00033941423 -0.00045140256 0.00095932325 0.0051070806
0001d0 8e 32 5a 3a 77 2e 19 bb 27 d5 29 3c 04 b3 0d bb
       0.0008323573 -0.0023373642 0.010365761 -0.0021621594
0001e0 b8 b0 de 39 26 4e 14 bb 84 51 a8 3b c0 ae ac 3a
       0.00042474805 -0.0022629588 0.0051366705 0.0013174638
0001f0 7c a8 b5 3b 43 a2 73 3b df bd 50 3a fb 89 21 bb
       0.0055437665 0.0037175573 0.00079628633 -0.0024648893

action_model._continuous_distribution.log_sigma f4 [1, 2]
000000 04 77 df bb f4 73 a2 3a
       -0.0068196077 0.0012394176

action_model._continuous_distribution.mu.weight f4 [2, 128]
000000 b0 83 ee bc a5 90 79 3c cd a4 e6 3c 5b b4 95 bc
       -0.029115528 0.01523224 0.028154755 -0.018274477
000010 fc 3d 1f 3b f6 db 88 bc f8 00 24 3c 68 9c 9d 3b
       0.002429842 -0.016706448 0.010009997 0.004809905
000020 cd bb 62 3c 99 4d 33 bc d6 f6 85 3c 45 c8 ba bb
       0.0138387205 -0.010943794 0.016353052 -0.0057001435
000030 92 5a 43 3c c3 9d 62 bc 1d 18 5e bc 34 a2 89 3b
       0.011923449 -0.013831559 -0.013555554 0.0042002443
000040 fa 11 43 3d e8 b6 d2 3c 53 69 b9 bc 9c 90 8a 3c
       0.047624566 0.025721982 -0.02263323 0.016914658
000050 12 3d 85 3c 49 39 29 bc 12 4b a4 bb a9 54 0c bc
       0.016264472 -0.010328599 -0.005013832 -0.008565106
000060 d1 96 4d 3b 22 e8 d9 bb 29 a2 9c 3c 6c a7 e5 3c
       0.003137041 -0.006649987 0.019120293 0.028033935
000070 ec a7 9c bc 81 df 62 3a c0 8f 72 39 0a 7d 1d 3c
       -0.01912304 0.00086545205 0.0002313247 0.009612331
000080 f4 41 0c ba 8d 32 33 bc 13 bf 9f 3b 69 67 4e 3c
       -0.0005350404 -0.010937345 0.0048750727 0.012597897
000090 a4 13 d7 3b 54 74 d1 3c d4 b2 64 3a 38 36 8c 3c
       0.0065636206 0.025568165 0.0008724157 0.017115697
0000a0 a0 c9 0f bd 57 db 01 bd 27 ac 4a bc 64 26 29 3c
       -0.035104394 -0.03170332 -0.012370146 0.010324094
0000b0 a9 7c 3b bc 6e 74 3a 3c c2 c2 a2 3b 70 59 9a bc
       -0.0114432955 0.011380298 0.0049670646 -0.018841475
0000c0 60 0a 73 bc 60 1d de 3b 70 01 ce bb b7 9d 24 bc
       -0.014834017 0.006778404 -0.0062867925 -0.010047368
0000d0 ec c5 65 3c 84 5a f0 bb 1f f8 51 bc 56 24 8b 3c
       0.014024239 -0.007335009 -0.012815504 0.0169851
0000e0 50 b5 dd bc 55 02 dc 3c 08 65 ed bc dc ea 68 3c
       -0.027063996 0.02685658 -0.02897884 0.014216151
0000f0 fe 2a eb bc 70 5c 9b bc 4d 12 20 3b c4 59 68 bc
       -0.028707024 -0.018964976 0.002442497 -0.014181558
000100 00 df 98 3a f6 71 da 3c 8e b1 92 bc 55 fc 1d 3c
       0.0011663139 0.026665669 -0.01790693 0.00964268
000110 27 f6 69 3c 9b 47 93 bc 89 8f 6c bc a1 10 b2 bc
       0.014279879 -0.01797848 -0.014438518 -0.021736445
000120 f7 21 62 3d e8 8f 19 3c 71 ea 52 bc 6d 62 f8 3a
       0.055208173 0.009372689 -0.012873278 0.0018950232
000130 34 69 e8 3b 9d f4 09 bd d1 fb bc bc 4b 4c 9c bc
       0.0070926193 -0.033680547 -0.023069294 -0.019079348
000140 24 e9 3c 3c 0a f9 5a bc ab f8 0d bd 2e 94 99 bb
       0.011530194 -0.01336504 -0.034660976 -0.004686854
000150 e1 21 b6 3c ad cc 02 3c 37 18 ab bb 3c b2 88 3c
       0.022232952 0.007983369 -0.0052213925 0.016686551
000160 8f 18 46 bb 0d b9 c1 bc 2a 18 94 3c ff 6a ea bb
       -0.003022704 -0.02364781 0.018077929 -0.007153868
000170 f8 0d a1 bc 53 13 a5 3c b6 ce 01 bd 16 14 f9 3b
       -0.019659981 0.020150816 -0.031691276 0.0076012714
000180 57 01 d8 3b 2d 5d b9 ba 38 4b 88 bb 06 47 30 3d
       0.0065919566 -0.0014142148 -0.0041593574 0.043036483
000190 29 77 38 3c 3d a7 33 ba 8b bf 40 3c 55 6e db 3b
       0.011258879 -0.00068532286 0.011764417 0.006696502
0001a0 60 55 a6 bc 8f e5 2f bc 6b 06 97 3b af ec b7 3b
       -0.020304382 -0.010735883 0.0046089194 0.0056129317
0001b0 81 c7 50 3c 6c 27 a1 bb c8 56 15 bc 1f 32 4c 3c
       0.012742878 -0.0049180295 -0.009114929 0.012463122
0001c0 55 42 ea 3c 59 7b 5e 3d 90 1c 0d bc 09 70 61 3b
       0.028596083 0.054316852 -0.008612767 0.0034399054
0001d0 e4 c2 17 3c d1 d4 c3 3a 7c 74 fa 3a 1c 80 5d bd
       0.009262774 0.0014940744 0.0019108201 -0.054077253
0001e0 95 64 99 3c aa 2f 00 3b 45 6d d1 3c 1e 89 69 3c
       0.018724719 0.001955966 0.0255648 0.014253883
0001f0 c3 a4 9e 3b 96 a4 81 bc b5 36 9c bc 05 51 0d bc
       0.0048414185 -0.015825551 -0.019069055 -0.008625274
000200 03 e5 ce bb c2 fd 1e 3d 13 08 fa bb 4d b1 22 3c
       -0.0063139214 0.03881622 -0.007630357 0.009929967
000210 56 cb a7 bb 40 71 42 3c 1e b4 c7 bc fc 85 05 bb
       -0.005120675 0.011867821 -0.024377879 -0.002037405
000220 a6 28 91 ba 33 28 dc 3b b9 be 6a bc ed fa d8 bc
       -0.0011074736 0.0067186593 -0.014327698 -0.026486838
000230 4b ad 55 3c 25 83 28 3c f3 0e 15 bb 47 8d a1 bc
       0.013041805 0.010285174 -0.0022744506 -0.019720687
000240 62 70 1a bc e4 59 28 bc e0 b3 d0 bc 1f 82 8e 3c
       -0.009426208 -0.010275338 -0.025476396 0.017396031
000250 e4 de cd bc 8b fd 9b bc ad 14 db bb de 5b 6f ba
       -0.025130697 -0.019041797 -0.0066858144 -0.0009130816
000260 d3 88 b5 3c 05 f1 3e bc 9d 18 1f 3c bc 32 c7 bc
       0.02215997 -0.011654143 0.009710458 -0.024316184
000270 45 39 44 bd 7e 8d bb 3b 92 f3 40 3c fe 51 f2 bb
       -0.04790618 0.0057236543 0.011776822 -0.007395028
000280 f3 75 cb bc fa 6a 67 bc 5f 48 9a 3c 4f 98 9c bb
       -0.024836516 -0.014124626 0.018833337 -0.004778899
000290 6b da 27 3d 32 d9 03 bd 3c c8 71 bb f2 79 84 3c
       0.040979784 -0.032189555 -0.003689303 0.01617143
0002a0 65 e3 b7 3b ff 3b 3d bc 98 26 62 bc f2 ea de bc
       0.0056118243 -0.011549949 -0.013803147 -0.02721164
0002b0 da 51 40 3b b0 e9 df 3c bf fd 42 bb 79 86 79 bb
       0.0029345662 0.02733311 -0.0029753295 -0.0038074537
0002c0 81 7c 17 bd e1 ad ac bb a6 17 a0 3c 42 ea 27 3c
       -0.03698397 -0.0052697514 0.019542526 0.0102487225
0002d0 c7 9d ad bc b5 98 2f ba 93 8c 03 bb 01 36 8c bc
       -0.021193398 -0.00066984753 -0.0020072802 -0.017115595
0002e0 3f 81 c8 bb 1f fa 16 3c 83 e2 0c 3c aa 5f 65 bc
       -0.006118923 0.009214907 0.0085989265 -0.013999859
0002f0 68 b6 c4 b9 8f f1 23 3c f5 35 71 bc 9a a9 09 3c
       -0.00037519936 0.0100063225 -0.014722337 0.008402253
000300 6c 77 87 3b 51 61 13 bc 58 9e 8b bc b5 72 7c bc
       0.0041341092 -0.00899537 -0.017043278 -0.015408208
000310 29 6b a9 3c ab c4 4a bb 25 4b 79 3c f5 ab c6 bc
       0.02068098 -0.0030939977 0.01521567 -0.024251917
000320 bf ba 03 bc be 6c af bc 27 66 1b 3c 79 96 17 3b
       -0.008040129 -0.021414157 0.009484804 0.002313046
000330 a5 37 96 bb 5c 7f 9d 3b da 41 f0 3c 43 7a 4e bc
       -0.00458427 0.004806442 0.029328275 -0.012602392
000340 c4 76 e1 ba 49 b9 82 bc ec dd a1 bc 60 92 98 3c
       -0.0017201533 -0.015957491 -0.01975914 0.018624485
000350 b5 a6 a2 bc 22 dc 56 bc 47 db 04 3b 56 2c dc 3c
       -0.019854883 -0.013114007 0.00202723 0.02687661
000360 63 90 b3 3c 8e 96 b2 3b 6b e6 72 3b 9c 97 07 bd
       0.021919435 0.0054500764 0.003706361 -0.03310357
000370 c8 4d de bc 8f f5 17 bd 34 02 94 3b a6 67 63 bc
       -0.027136698 -0.037099417 0.004516864 -0.013879692
000380 3b 24 0e 3c 9e a8 aa 3b c8 6f 14 3c ed e4 a2 bb
       0.00867563 0.005208089 0.009059854 -0.0049711377
000390 b7 40 14 bc 82 0e f1 3b 6b df f9 ba 7a 8b 29 3c
       -0.009048632 0.007356466 -0.0019063776 0.010348195
0003a0 1a fb a5 b8 53 72 ec bc 1e d0 bd 3c e2 23 da 3b
       -7.9145844e-05 -0.028863108 0.023170527 0.0066571096
0003b0 f0 cd 0b 3c 87 fe 21 ba e6 ed aa 3b 15 da 47 bb
       0.008532986 -0.000617959 0.005216348 -0.0030494977
0003c0 1f aa d8 39 d0 7c 16 bd d9 66 d1 3b 68 09 81 3c
       0.0004132548 -0.036740124 0.006390434 0.015751556
0003d0 f1 8c 84 bc 63 14 e5 3a 47 74 b4 3c 9c d0 07 bc
       -0.016180487 0.0017477389 0.022028102 -0.008289482
0003e0 79 a3 4d 3c 79 0d 56 bc f9 f5 81 3c 68 ad ef ba
       0.012551182 -0.013064736 0.01586436 -0.0018285932
0003f0 74 34 85 bc 33 8e f2 3c be 2f d5 bb 15 7c e1 bc
       -0.016260363 0.029608821 -0.0065059355 -0.027524987

action_model._continuous_distribution.mu.bias f4 [2]
000000 43 03 a6 3a 88 19 23 3b
       0.0012665767 0.0024887044

action_model._discrete_distribution.branches.0.weight f4 [2, 128]
000000 1f 24 2f bd 58 fd 25 3d 9a 78 70 bb 78 9d 3d bc
       -0.042759057 0.04052481 -0.0036692978 -0.011573188
000010 27 3c dd 3c b3 30 9a 38 db cf 5a bc 25 b9 cb bc
       0.027006222 7.352363e-05 -0.013355221 -0.024868557
000020 5c 4b cc bb cf a3 ac b9 ca fa 9e bb 5f 47 88 3b
       -0.0062345695 -0.00032928443 -0.0048516737 0.0041588987
000030 19 dd f3 3a e3 7a 19 3c 7f 11 6a bc 0b 03 9a bb
       0.0018605321 0.009367677 -0.014286398 -0.00470007
000040 54 e6 df bc 76 a5 a1 3a e0 8f 64 bc 52 5f 16 3d
       -0.027331509 0.0012332636 -0.013950318 0.036712
000050 d0 7a 56 bc 30 e5 c8 3c 70 f3 b1 bc fa 58 43 3c
       -0.013090804 0.024523348 -0.021722525 0.011923069
000060 c9 f9 5f 3c 35 4d 48 bd 49 52 6d 3d 1c 37 95 bc
       0.013670393 -0.048901755 0.0579398 -0.018214755
000070 00 f1 37 3c 87 fa 50 ba 29 dd 45 bc c2 c3 05 bc
       0.0112268925 -0.0007971902 -0.0120766545 -0.008164348
000080 2c e5 29 bd a8 9a 2d 3c 28 b4 ba 3b 96 2c 24 3d
       -0.04147832 0.010595955 0.005697746 0.040081583
000090 10 b7 f5 bc 72 73 a4 3c c1 ae a9 bb 30 7a 37 3d
       -0.029994518 0.02007458 -0.005178303 0.04479426
0000a0 d3 0a 8f bc 92 4b 74 3c 28 ef 3e 3c 0c c0 c2 bc
       -0.017461216 0.0149105955 0.011653699 -0.023773216
0000b0 87 07 6e bc 17 2e 50 bc 95 6a 0f bd 73 67 25 bd
       -0.014528162 -0.012706301 -0.035013754 -0.04038186
0000c0 05 6c 9f bc 27 e3 1e bd 0a 7e 16 3d 3c 49 af ba
       -0.019460687 -0.038790848 0.036741294 -0.0013373266
0000d0 a9 c4 f1 3c 1a c9 96 bb a5 7e 1a 3d b0 a3 93 bc
       0.02951272 -0.00460161 0.037718434 -0.018022388
0000e0 93 8e ac 3c d1 10 53 bc 0d ed b8 3b f0 c2 52 bd
       0.021064078 -0.012882427 0.005643493 -0.051455438
0000f0 5f a1 d2 3b f1 ee dc 3c 35 bf fd bc 77 54 ac bc
       0.0064279283 0.026969405 -0.030974964 -0.02103637
000100 70 01 83 bc a7 93 04 3d a0 4b ee 3b 92 64 5e bb
       -0.015991896 0.032367375 0.007272199 -0.0033934456
000110 3b 62 61 bc 86 5e 82 bc f0 3d 5b bc 39 dc 63 ba
       -0.01375633 -0.015914213 -0.013381466 -0.00086921785
000120 7c 17 1e bd 70 6b e9 bb 0b d5 82 bb 25 ae 9b bb
       -0.038596615 -0.0071234033 -0.003992682 -0.0047509843
000130 b9 cd 23 3d ff e9 40 3d 36 ed 8c 3c 0f 19 e2 bc
       0.039991114 0.047098156 0.017202955 -0.02759984
000140 3c 91 0a bd 62 7d 18 3d 43 01 34 3b 71 08 53 bc
       -0.033829913 0.03722895 0.0027466572 -0.012880431
000150 09 d8 8b 3c d8 0c 40 bd f3 78 d3 bb 9f 80 2b bc
       0.017070787 -0.04688725 -0.0064536273 -0.010467677
000160 dc 65 19 bc 83 39 2c 3d 15 1f bb bc 2d 26 31 3b
       -0.009362664 0.042047035 -0.02284197 0.0027030811
000170 39 63 a9 bc 81 22 a3 3c 2a 51 c9 3b 01 50 ec 3c
       -0.020677196 0.019913914 0.0061437087 0.028846743
000180 9f 7e cc bc df 47 00 bb 74 67 a4 bc de cb 02 bd
       -0.024962721 -0.0019574089 -0.020068862 -0.031932704
000190 1d 6d 41 bd 5f 2e 9b bb 68 b6 9b ba d1 4d 44 3d
       -0.0472232 -0.0047357525 -0.0011879923 0.047925774
0001a0 80 56 f8 3b 86 16 36 bc cc 7f 1c bc 0d 43 9b bc
       0.007578671 -0.011113768 -0.0095519535 -0.01895287
0001b0 fd 16 03 bd cc 7e 05 3d 91 38 87 bc 5b 47 29 3d
       -0.032004345 0.032591626 -0.016506465 0.041327816
0001c0 21 9b 31 ba 3d 5a eb bb 04 f2 15 3c e8 c2 06 3a
       -0.000677513 -0.007182388 0.009151939 0.00051407376
0001d0 cc dd 9b bb d6 4a cb bb 1f aa 11 3d f6 bb 37 bb
       -0.004756665 -0.0062039895 0.03556263 -0.0028035617
0001e0 b3 d4 9a bc 97 37 ad bc c7 73 fd 3c 25 85 64 3b
       -0.018900251 -0.021144671 0.030938996 0.00348694
0001f0 ac 34 07 bd 86 91 97 bb 2d 40 97 bc 64 a8 0c 3b
       -0.033009216 -0.004625502 -0.018463219 0.0021462673
000200 bd 0b 1d 3d 55 16 f1 bc 04 4d 85 3b b9 dd 28 3c
       0.038341273 -0.029429594 0.004068019 0.010306769
000210 ea 8a 05 bd 40 a2 67 3c 18 40 53 3c 33 d9 e7 3c
       -0.032603182 0.0141378045 0.012893699 0.02830181
000220 a6 ae ee 3b 05 f1 22 3c 70 19 0b 3b cf 92 2c bb
       0.0072840033 0.009945159 0.0021224879 -0.0026332622
000230 7b 10 1c 3c fa 33 dd 3a 77 6f 97 3c 8b 1d 08 bc
       0.009525414 0.0016876452 0.018485768 -0.008307825
000240 da 2f 07 bc 21 d4 61 3c a6 96 79 3c 0d 84 bc bc
       -0.008251155 0.013783486 0.015233671 -0.023012185
000250 97 41 8b 3c af 77 1a bd 80 93 04 bc d1 01 9d 3c
       0.01699905 -0.037711795 -0.008091807 0.019165905
000260 40 7b de 3a 7e 86 0b 3d 94 08 26 bd fb 80 63 3c
       0.0016973987 0.03406381 -0.040535524 0.013885732
000270 be f3 89 bc bb d7 86 bb c1 d9 8c bb f5 f2 df 3b
       -0.016839858 -0.0041150725 -0.004298419 0.0068343827
000280 93 3a d3 3c ab 21 92 3b 5e e8 e6 bb 18 35 c2 bc
       0.025784766 0.00445958 -0.0070467433 -0.023706958
000290 a8 b9 87 3c dd a3 cc bc 8b 65 d7 3b c2 db 3a bd
       0.01656802 -0.02498048 0.006573384 -0.045619734
0002a0 0c b8 9c 3b 35 be 1c bd d5 06 5d 3c 19 7e 2b 3d
       0.0047826823 -0.038267333 0.013490398 0.041868303
0002b0 8b 18 4a 3c 96 be 4f 3c 8a 76 28 3d b3 46 44 3d
       0.012334953 0.012679717 0.041128673 0.047918987
0002c0 19 ed b5 3c 5d 1f 82 3c d6 42 01 bd ed 88 ce 3c
       0.022207784 0.015884096 -0.03155788 0.025211776
0002d0 10 42 b6 bc e0 1d 2e bc 28 e9 c7 bc dc 23 0d 3c
       -0.022248298 -0.01062724 -0.02440317 0.008614507
0002e0 be e7 8a bc 2e b1 30 b9 85 b4 e0 bc 31 c6 24 3d
       -0.016956206 -0.00016850673 -0.027429828 0.040228073
0002f0 ab 17 86 bc f6 b0 ac bc 22 cf 08 3d 60 fd 1c 3d
       -0.016368708 -0.021080475 0.033400662 0.038327575
000300 0a 1f 02 3d 95 2d 1a 3c 75 ef 55 bb b6 c1 fc 3c
       0.031767882 0.009410282 -0.0032643948 0.030854087
000310 f3 47 6c bb ce 72 9a 3c 25 f7 13 3c d0 83 a9 3b
       -0.0036053627 0.018853571 0.009031092 0.005173184
000320 6f 06 bd 3c 28 ce b0 3c 32 60 82 3a d8 53 a6 3c
       0.023074357 0.021582678 0.0009946881 0.020303652
000330 cc 16 69 bd 03 c0 1d bd c1 01 c0 bc 7f 51 71 3c
       -0.056906506 -0.038513195 -0.023438336 0.014728903
000340 b2 1f d8 3c 6c 9d 4c bd a0 a0 15 bc 98 85 dd 3c
       0.026382301 -0.049954817 -0.009132534 0.027041242
000350 70 c4 54 bc 2a ac 14 3d 9b 5a 35 bb 4a 17 c7 3c
       -0.0129862875 0.036297 -0.0027672413 0.024303097
000360 c8 2c 19 3b 48 45 3a bd a6 c0 26 3c cc 12 5d bb
       0.002337264 -0.045476228 0.010177767 -0.0033733128
000370 e5 ff f5 3c 71 e9 17 bd dc 5e 49 3c bf 0e b2 bc
       0.030029247 -0.03708786 0.012290683 -0.021735547
000380 d6 55 c4 3a db 61 75 3c e6 ea 4b 3a 8e 3c a6 3b
       0.0014979194 0.014976944 0.0007778838 0.0050731367
000390 28 1e 40 3d ca 05 91 3c 2a 82 67 3c fe 68 21 bd
       0.04690376 0.017702956 0.014130155 -0.03940677
0003a0 d8 ee bf 3b fc 06 12 3c eb 28 3d 3b aa 0b 69 3b
       0.00585733 0.008912798 0.00288635 0.003555993
0003b0 0e a0 ca 3c 72 db bc bc be 4e a6 3c e6 37 0b bd
       0.024734523 -0.023053858 0.02030122 -0.033988856
0003c0 bc af d8 3c d2 2a 29 3c a8 e9 5d 3c 82 c1 35 3c
       0.026450984 0.010325151 0.0135444775 0.011093499
0003d0 2b 0e 1a 3d 00 1b 61 3c d0 43 e9 bc 49 d0 8e 3b
       0.037611168 0.013739347 -0.028474718 0.0043583256
0003e0 ec f8 dd 3b 9e e4 ad 3c ea a8 f7 bc db 77 16 bb
       0.0067740586 0.021227177 -0.030231912 -0.0022959623
0003f0 e8 72 4a 3d d4 14 74 bb 4f 57 d6 3c ef ec 03 b8
       0.04942599 -0.003724386 0.026164679 -3.1453495e-05

action_model._discrete_distribution.branches.0.bias f4 [2]
000000 7f e4 f4 3a 6f e4 f4 ba
       0.001868382 -0.0018683801

exp_avg f4 [128, 26]
000000 37 d7 66 37 39 44 72 37 36 d3 66 37 21 83 72 37
       1.3759177e-05 1.4440208e-05 1.3758245e-05 1.4454855e-05
000010 37 d7 66 37 13 87 72 37 37 d7 66 37 8d 5f 73 37
       1.3759177e-05 1.4455773e-05 1.3759177e-05 1.4506176e-05
000020 37 d7 66 37 8e 5f 73 37 37 d7 66 37 01 08 75 37
       1.3759177e-05 1.4506177e-05 1.3759177e-05 1.46050015e-05
000030 37 d7 66 37 04 08 75 37 60 4e 7b 37 f5 4c 83 37
       1.3759177e-05 1.4605004e-05 1.4979014e-05 1.5652253e-05
000040 60 4e 7b 37 f9 4c 83 37 e4 89 c6 37 b1 70 bc 37
       1.4979014e-05 1.565226e-05 2.366765e-05 2.2463822e-05
000050 e4 89 c6 37 b0 70 bc 37 61 a0 13 b7 ef b0 1e b7
       2.366765e-05 2.246382e-05 -8.799224e-06 -9.458729e-06
000060 61 a0 13 b7 ed b0 1e b7 14 2b 05 b7 d6 7b e9 b6
       -8.799224e-06 -9.458728e-06 -7.937448e-06 -6.9583575e-06
000070 57 31 05 b7 ce b5 e8 b6 14 2b 05 b7 bb a9 e8 b6
       -7.938906e-06 -6.9353036e-06 -7.937448e-06 -6.933898e-06
000080 14 2b 05 b7 09 f9 e5 b6 14 2b 05 b7 15 f9 e5 b6
       -7.937448e-06 -6.8537233e-06 -7.937448e-06 -6.853729e-06
000090 14 2b 05 b7 80 96 e0 b6 14 2b 05 b7 78 96 e0 b6
       -7.937448e-06 -6.6932407e-06 -7.937448e-06 -6.693237e-06
0000a0 79 d0 03 b7 78 34 d1 b6 79 d0 03 b7 6d 34 d1 b6
       -7.856747e-06 -6.2347935e-06 -7.856747e-06 -6.2347885e-06
0000b0 e5 fe 7e 36 67 d8 92 36 e5 fe 7e 36 5d d8 92 36
       3.7997318e-06 4.3763316e-06 3.7997318e-06 4.376327e-06
0000c0 80 d1 41 38 59 26 20 38 80 d1 41 38 59 26 20 38
       4.6209898e-05 3.8182687e-05 4.6209898e-05 3.8182687e-05
0000d0 16 4c f0 38 0a 33 ee 38 75 4a f0 38 ae 1f ee 38
       0.00011458264 0.00011358231 0.000114579605 0.00011354625
0000e0 16 4c f0 38 55 21 ee 38 16 4c f0 38 bf e5 ed 38
       0.00011458264 0.00011354933 0.00011458264 0.00011343834
0000f0 16 4c f0 38 bd e5 ed 38 16 4c f0 38 77 67 ed 38
       0.00011458264 0.00011343833 0.00011458264 0.000113203125
000100 16 4c f0 38 78 67 ed 38 9b 38 e7 38 b4 31 e3 38
       0.00011458264 0.00011320313 0.00011025482 0.000108334614
000110 9b 38 e7 38 b4 31 e3 38 19 9c 21 39 57 b2 12 39
       0.00011025482 0.000108334614 0.00015412307 0.00013990082
000120 19 9c 21 39 56 b2 12 39 ad f5 86 b8 c8 25 7c b8
       0.00015412307 0.0001399008 -6.4353786e-05 -6.011667e-05
000130 ad f5 86 b8 c6 25 7c b8 5f c1 2e b5 21 ea 30 35
       -6.4353786e-05 -6.011666e-05 -6.5101443e-07 6.590581e-07
000140 76 c2 2e b5 66 7b 39 35 5f c1 2e b5 a4 7d 39 35
       -6.510303e-07 6.909744e-07 -6.5101443e-07 6.91007e-07
000150 5f c1 2e b5 09 7f 55 35 5f c1 2e b5 09 7f 55 35
       -6.5101443e-07 7.9533544e-07 -6.5101443e-07 7.9533544e-07
000160 5f c1 2e b5 49 b4 86 35 5f c1 2e b5 45 b4 86 35
       -6.5101443e-07 1.0036248e-06 -6.5101443e-07 1.0036243e-06
000170 91 2b 72 b5 b5 cd a5 35 91 2b 72 b5 bc cd a5 35
       -9.021542e-07 1.2353327e-06 -9.021542e-07 1.2353335e-06
000180 02 77 55 b5 7d b7 22 36 02 77 55 b5 61 b7 22 36
       -7.952186e-07 2.4246685e-06 -7.952186e-07 2.4246622e-06
000190 d2 6b 17 38 4f 71 1b 38 d2 6b 17 38 4e 71 1b 38
       3.610162e-05 3.7060407e-05 3.610162e-05 3.7060403e-05
0001a0 99 32 07 37 0e bb 97 36 f0 32 07 37 0c d3 94 36
       8.058408e-06 4.5219267e-06 8.058487e-06 4.435313e-06
0001b0 99 32 07 37 e1 d1 94 36 99 32 07 37 d7 4f 8b 36
       8.058408e-06 4.435177e-06 8.058408e-06 4.1518174e-06
0001c0 99 32 07 37 d8 4f 8b 36 99 32 07 37 12 9c 70 36
       8.058408e-06 4.151818e-06 8.058408e-06 3.5853632e-06
0001d0 99 32 07 37 af 9b 70 36 03 2b ae 36 3b 60 d5 33
       8.058408e-06 3.5853407e-06 5.1906113e-06 9.9360896e-08
0001e0 03 2b ae 36 a1 5e d5 33 7b e5 21 37 57 c1 33 36
       5.1906113e-06 9.935798e-08 9.649778e-06 2.6785617e-06
0001f0 7b e5 21 37 1b c1 33 36 71 07 51 38 00 14 17 38
       9.649778e-06 2.678548e-06 4.9836413e-05 3.6019832e-05
000200 71 07 51 38 03 14 17 38 7f a5 1a 36 fd 84 5f 36
       4.9836413e-05 3.6019843e-05 2.304412e-06 3.3306999e-06
000210 95 aa 1a 36 d1 33 61 36 7f a5 1a 36 4f 2f 61 36
       2.304708e-06 3.3557774e-06 2.304412e-06 3.355515e-06
000220 7f a5 1a 36 7a 9d 66 36 7f a5 1a 36 70 9d 66 36
       2.304412e-06 3.4364334e-06 2.304412e-06 3.4364311e-06
000230 7f a5 1a 36 3b 71 71 36 7f a5 1a 36 35 71 71 36
       2.304412e-06 3.5977707e-06 2.304412e-06 3.5977694e-06
000240 72 44 2e 37 90 91 2c 37 72 44 2e 37 92 91 2c 37
       1.0387144e-05 1.028589e-05 1.0387144e-05 1.0285892e-05
000250 88 45 96 36 f1 8f 9a 36 88 45 96 36 e6 8f 9a 36
       4.478443e-06 4.6063146e-06 4.478443e-06 4.6063096e-06
000260 5d 24 be 35 37 b5 02 36 5d 24 be 35 36 b5 02 36
       1.4166686e-06 1.947699e-06 1.4166686e-06 1.9476988e-06
000270 5f 2f db 36 7c 8a 2b 37 10 2a db 36 bc 07 2d 37
       6.5322233e-06 1.0224638e-05 6.5316053e-06 1.0313404e-05
000280 5f 2f db 36 88 0a 2d 37 5f 2f db 36 bd ef 31 37
       6.5322233e-06 1.03140555e-05 6.5322233e-06 1.06058405e-05
000290 5f 2f db 36 c1 ef 31 37 5f 2f db 36 1d b1 3b 37
       6.5322233e-06 1.0605844e-05 6.5322233e-06 1.1187306e-05
0002a0 5f 2f db 36 22 b1 3b 37 e9 eb 00 37 35 e4 5d 37
       6.5322233e-06 1.11873105e-05 7.684322e-06 1.322576e-05
0002b0 e9 eb 00 37 39 e4 5d 37 b5 11 83 37 0e 91 b7 37
       7.684322e-06 1.3225764e-05 1.5624662e-05 2.1882846e-05
0002c0 b5 11 83 37 0b 91 b7 37 c1 c9 d3 37 5b 05 09 38
       1.5624662e-05 2.188284e-05 2.5247109e-05 3.2668333e-05
0002d0 c1 c9 d3 37 5b 05 09 38 93 b9 aa 37 96 a0 ab 37
       2.5247109e-05 3.2668333e-05 2.0351994e-05 2.0459567e-05
0002e0 1f b9 aa 37 69 a2 ab 37 93 b9 aa 37 ec a2 ab 37
       2.0351783e-05 2.0460417e-05 2.0351994e-05 2.0460655e-05
0002f0 93 b9 aa 37 34 a9 ab 37 93 b9 aa 37 34 a9 ab 37
       2.0351994e-05 2.046358e-05 2.0351994e-05 2.046358e-05
000300 93 b9 aa 37 bb b0 ab 37 93 b9 aa 37 c0 b0 ab 37
       2.0351994e-05 2.0467085e-05 2.0351994e-05 2.0467094e-05
000310 af 09 80 37 04 9c 88 37 af 09 80 37 01 9c 88 37
       1.5263298e-05 1.6285114e-05 1.5263298e-05 1.6285108e-05
000320 10 48 ef 37 d7 b8 f6 37 10 48 ef 37 d3 b8 f6 37
       2.8524577e-05 2.9411558e-05 2.8524577e-05 2.941155e-05
000330 40 ef 21 38 af f6 16 38 40 ef 21 38 b0 f6 16 38
       3.860821e-05 3.599253e-05 3.860821e-05 3.5992533e-05
000340 59 32 ec 38 2f 00 d5 38 9c 30 ec 38 5d 69 d4 38
       0.00011262735 0.00010156666 0.00011262411 0.00010128573
000350 59 32 ec 38 05 6b d4 38 59 32 ec 38 58 82 d2 38
       0.00011262735 0.00010128882 0.00011262735 0.00010037859
000360 59 32 ec 38 59 82 d2 38 59 32 ec 38 c8 ab ce 38
       0.00011262735 0.000100378595 0.00011262735 9.854842e-05
000370 59 32 ec 38 c5 ab ce 38 f0 ff f9 38 f7 bc cf 38
       0.00011262735 9.85484e-05 0.00011920917 9.9057266e-05
000380 f0 ff f9 38 f3 bc cf 38 14 6c 36 39 b0 69 10 39
       0.00011920917 9.905724e-05 0.00017397135 0.00013772282
000390 14 6c 36 39 b0 69 10 39 2e be be b7 fe 02 a8 b7
       0.00017397135 0.00013772282 -2.2738324e-05 -2.0028554e-05
0003a0 2e be be b7 f8 02 a8 b7 bd 94 53 39 e8 6c 56 39
       -2.2738324e-05 -2.0028543e-05 0.00020177937 0.00020449201
0003b0 30 93 53 39 fe 78 56 39 bd 94 53 39 91 7a 56 39
       0.0002017736 0.00020453703 0.00020177937 0.0002045429
0003c0 bd 94 53 39 94 a5 56 39 bd 94 53 39 95 a5 56 39
       0.00020177937 0.00020470313 0.00020177937 0.00020470314
0003d0 bd 94 53 39 f5 f4 56 39 bd 94 53 39 f4 f4 56 39
       0.00020177937 0.00020499884 0.00020177937 0.00020499883
0003e0 3c 47 57 39 6e b5 58 39 3c 47 57 39 6e b5 58 39
       0.00020530535 0.00020666953 0.00020530535 0.00020666953
0003f0 e2 18 97 39 2d a5 8d 39 e2 18 97 39 2b a5 8d 39
       0.00028819503 0.0002701668 0.00028819503 0.00027016675
