MLAgents Jumper Exercise/Assets/results/beta_1/JumperAgent/JumperAgent-999856.onnx (onnx, 570158 bytes, 15 tensors)

network_body.observation_encoder.processors.0.normalizer.running_mean f4 [26]
00000000: 5909 413f cbaa 453f ba09 413f b6c3 453f
00000010: ba09 413f b6c3 453f 580f 413f 1115 463f
00000020: 580f 413f 1115 463f 4515 413f 21b3 463f
00000030: 4515 413f 20b3 463f 4ea4 443f ad15 4a3f
00000040: 3ca4 443f 9e15 4a3f c7a3 4c3f b0b8 503f
00000050: b0a3 4c3f abb8 503f 78d2 573f 101b 5a3f
00000060: 78d2 573f 101b 5a3f
0.7540489 0.77213734 0.75405467 0.77251756 0.75405467 0.77251756 0.7541404 0.77375895
0.7541404 0.77375895 0.7542308 0.7761708 0.7542308 0.77617073 0.7681321 0.78939325
0.768131 0.78939235 0.79937404 0.8153181 0.7993727 0.8153178 0.84305525 0.85197544
0.84305525 0.85197544

network_body.observation_encoder.processors.1.normalizer.running_mean f4 [2]
00000000: f24c 0a3e 3b82 c9bc
0.13505915 -0.024598232

network_body._body_endoder.seq_layers.0.weight f4 [256, 28]
00000000: 67b0 413d b363 61be 590e 723e 2f8c 3abe
00000010: 3388 4a3e 641b 8b3e fd5d b7bc f8e2 8cbe
00000020: 8784 883d e0ad 0a3e 549c 38be 8677 3dbb
00000030: 1d4d bc3c 2c79 97bd d0be 3dbc 37f4 93bd
00000040: 2f3f 8c3d 4d63 23be 2b7a f23d 8848 533e
00000050: 1a32 4abe 7cf5 5e3d ee05 86be 61ad a03c
00000060: d9c2 9abd 37a3 1abe 9013 92bc 3059 303e
00000070: 9248 0a3e bd6f a83d 4703 3abe f76e 8b3e
00000080: d363 7a3d a8c5 e13d ed6a 0b3e 269c af3d
00000090: eed0 15be 283d acbc c8f1 d13b 0e09 063c
000000a0: a9ef 15be d3a6 1b3d e502 303e 9692 3c3e
000000b0: 37c6 533b 1547 90bd 6ab1 7b3e 2b69 5fbe
000000c0: e54b 08be f86a e6be 5901 843d 07f1 30be
000000d0: c4c7 2bbe b1eb 1cbe 17c0 5bbd 5cb9 ecbd
000000e0: 9cbf 163e 31bc 24bc c8aa a03e b172 0f3e
000000f0: 2cfc 21be d63e e4bd 1c38 833e 2bb4 01be
00000100: 2fd0 1c3d 74a9 f5bd 296a 253e 1671 b5bd
00000110: 6964 2bbd 4ff0 20be e3a6 3a3e 55f5 0a3e
00000120: dcfb 893b 9bb5 2bbb 3ad0 9c3e ea92 643d
00000130: 44c1 dcbc e40d 6f3d bb15 b33b cc92 be3d
00000140: 7f2e 453d ce4b c43d 61ae a03e 6c0c 883e
00000150: cb83 083c a52c d4bd e924 94be 420b bbbd
00000160: 7a5b 2d3e 1023 4a3d f7a5 86be 709e 4cbe
00000170: 728e af3e 2c44 47be 09e0 243e 2f58 c2bd
00000180: 25b8 1abe c355 6b3e 44dd c5bd 2c1a c9bb
00000190: 185f 33bd 9f8b 573e 88cb b03c 15fc 7d3c
000001a0: e3aa d1bd 6cfa 70be 7a12 47be 92ee 8e3e
000001b0: c7cf b6bd 413f dcbd bf7e eabe a331 9d3d
000001c0: c0e9 283e b1b6 c0bd 670c 14bd 7378 3e3e
000001d0: 5349 853d 6e9a d0bb 0f93 83be 7b7b 813c
000001e0: fc08 c43d c125 1ebe 2841 5cbe 09fd cd3d
000001f0: 27ce 7dbe 9b22 d3bd d226 fb3d 8b5a 8f3d
00000200: 63bb 1d3d af5f 943e 047d 97be 717c dc3d
00000210: 9981 46be 9de6 8b3e 043d aa3d 27c4 cb3d
00000220: 1ae8 bcbb 2503 debd 47dd bb3e 1b2b 8b3d
00000230: f040 833e a86d cabe 93a8 213e 4a99 21bd
00000240: 76ff cfbd 461c 163e 6146 303e 025f eabd
00000250: c818 09bb 4901 b2bd 7fc5 cf3c bc5e 2c3c
00000260: d64f 13be 5bdb 6a3d 2dff c3bc 0ef3 05bd
00000270: 3584 8dbe d117 f9bd 5448 2b3e 4a82 023d
00000280: a1f2 21be 2756 a93e 2f06 9b3e 341b 96bc
00000290: 8da9 29bd 001b 483d 9aa4 d53c d821 38bd
000002a0: 2426 173e c54d fa3d c189 123e 7bd6 3cbe
000002b0: 4cbd 78be c64c fb3d 1a6c d7bc 8bdf 083e
000002c0: 9437 2b3d 3d8f 0a3e 7524 f0bc adab d0bd
000002d0: cd53 8abe a9e9 1e3c e032 8b3e 89b8 313e
000002e0: 9649 63bd 3907 abbe a3df b0be 5a8e 42be
000002f0: a63e a93d e32e 83be e45a e5be fc6f 123e
00000300: aa3d 243e f57f 313e e77d 523d eb1b f33e
00000310: a6b2 803e 466c 6dbe d5cd d8bd 9793 47be
00000320: 76e1 943e 50ed 2b3e 7818 913e f8d7 d9bc
00000330: 4a12 993d 5ce3 85be 0133 65be 4b66 6ebe
00000340: 07c9 aebc df56 b7bd bce4 7e3e 86c6 e53c
00000350: 87b1 993d 5fd7 33bd 918f 5f3e 6485 a7bd
00000360: 61d7 54be 3fda cd3d 7ba9 613d a63b c3be
00000370: 4742 b93d 795a 47bc 7ef0 a73e 6e77 8fbe
00000380: 691a 2dbe 5904 503e 8bbf 92bd f7e6 f3bd
00000390: 5a6c 233e dc44 9f3e 0144 b43d 3c9a 44bd
000003a0: a8bb 89be 97ab 64bc 386c 72be 603e c2bd
000003b0: abaf 983e 543c 603e 0760 fb3d 08cb 9bbd
000003c0: aa0e 603c 6dec 423e d946 313c 3720 01be
000003d0: 7b5b 4cbe 2ec9 c9bd b020 89be 20ed 59be
000003e0: e2b7 c63d 4a77 bcbc fa19 30be 7587 07bf
000003f0: 5667 603e 1d23 993e 60ac 543e bf83 4ebd
0.04728737 -0.22010688 0.23638286 -0.18217538 0.19778518 0.27169335 -0.022383684 -0.27516913
0.066659026 0.1354289 -0.18028384 -0.0028910353 0.02298599 -0.073961586 -0.011581138 -0.07224315
0.06847989 -0.15955849 0.11839708 0.20633137 -0.19745675 0.05443333 -0.261764 0.019613924
-0.075566955 -0.15101324 -0.017831594 0.17221522 0.13504246 0.082244374 -0.18165313 0.27233097
0.061130356 0.11024028 0.13615008 0.08574705 -0.14630482 -0.021025255 0.0064069964 0.00818087
-0.14642204 0.038000893 0.17188604 0.18415293 0.003231419 -0.07044808 0.24579397 -0.21817462
-0.13310201 -0.45003486 0.064455695 -0.17279445 -0.16775423 -0.15324284 -0.053649988 -0.11558792
0.1472153 -0.010054634 0.31380296 0.14008595 -0.15818852 -0.111447975 0.25628746 -0.12666385
0.038284477 -0.11995211 0.16153778 -0.0885946 -0.041843805 -0.1571667 0.18227725 0.13570149
0.004210932 -0.0026200775 0.30627614 0.05580417 -0.026947625 0.058362857 0.005465237 0.09305343
0.048140045 0.09584771 0.3138304 0.26571977 0.008332203 -0.10360078 -0.2893441 -0.09133007
0.16929427 0.049349844 -0.26298496 -0.19982314 0.34288365 -0.194596 0.16101088 -0.09489476
-0.15109308 0.22981934 -0.09661344 -0.006137153 -0.04379186 0.21049355 0.021581426 0.015501996
-0.10237672 -0.23533028 -0.19440642 0.2791639 -0.08926349 -0.10754252 -0.45799825 0.07675483
0.16495419 -0.094098456 -0.03614464 0.18600635 0.06508126 -0.0063660657 -0.25698134 0.01580595
0.09572026 -0.1544409 -0.2150923 0.10058028 -0.24785672 -0.10309335 0.12263264 0.069996916
0.038508784 0.2897925 -0.29587567 0.10765923 -0.19385375 0.2732438 0.08312419 0.099495225
-0.0057649733 -0.108404435 0.3669226 0.06795331 0.2563548 -0.39536786 0.15786962 -0.03945283
-0.10156147 0.14659223 0.17214347 -0.114439026 -0.0020919312 -0.086916514 0.025362728 0.010520633
-0.14385924 0.0573381 -0.023925388 -0.0327025 -0.27639928 -0.12162746 0.1672681 0.031862535
-0.15815212 0.33073542 0.30278155 -0.018323518 -0.04142146 0.048853874 0.026079465 -0.04495415
0.14760643 0.122218646 0.14310361 -0.18441193 -0.24290961 0.12270503 -0.026296664 0.13366525
0.04180105 0.13531204 -0.029314259 -0.101889946 -0.2701706 0.009699264 0.27187252 0.17355551
-0.0554901 -0.33403948 -0.3454562 -0.18999615 0.08263902 -0.2562171 -0.44795907 0.14300531
0.16039148 0.17333968 0.0513896 0.47482237 0.25136298 -0.23185834 -0.10586134 -0.19489895
0.29078263 0.16789746 0.2833898 -0.02659224 0.074741915 -0.26150024 -0.22382738 -0.23281209
-0.021336092 -0.08952116 0.24891943 0.028048765 0.07504564 -0.043906566 0.2183211 -0.08179739
-0.20785286 0.10051393 0.05509327 -0.38131446 0.090458445 -0.012167566 0.32800668 -0.28020805
-0.16904606 0.20314158 -0.0716544 -0.119092874 0.15959302 0.31107223 0.08802033 -0.04799865
-0.26900983 -0.013956926 -0.23674095 -0.09484553 0.29821524 0.21898013 0.12274175 -0.076070845
0.013675371 0.19035502 0.010820114 -0.12609945 -0.19956772 -0.09852825 -0.2678275 -0.21281862
0.097030416 -0.0230061 -0.1719741 -0.52941066 0.2191442 0.29909602 0.20768881 -0.05041861

network_body._body_endoder.seq_layers.0.bias f4 [256]
00000000: 501f 99bc 8421 fdbc 0635 243b b80e 0b3d
00000010: 9ef8 f13c 4d58 f7bc 2797 1e3d 926c 74bc
00000020: d87c f5bc 7020 46bd cfc6 c1bc 617d 023d
00000030: bcbf c8bd f4de 6cbb 565e 07bd 12f7 ca39
00000040: fc80 ebbc d54a 37bd 3da9 d4bc 20f5 cb3b
00000050: 2c07 e5bc d406 933c 1952 e5bb 8574 1f3d
00000060: 1dd6 f6bc 1f12 29b9 6936 703c d35d 20bd
00000070: 7dc1 ccbc ae0c abbc b218 adbc eee9 1abd
00000080: d9c1 1f3d 57d2 cb3c 2b99 e8bc dea8 32bc
00000090: ecfc f53c 2eec b53c b6a6 cf3b 8992 78bc
000000a0: 35ee a5bb f2f3 07bd 42f0 ddbc a49c e9bb
000000b0: 908e 213d 58c6 3b3b 2375 ec3c bced f7bc
000000c0: e347 c33c 71d0 1dbd fec6 c63c 65af ec3c
000000d0: 36de 53bc 15f0 57b9 1787 00bd 950b 1f3c
000000e0: 735b b2bc d529 07bd 7abd 19bc 59e8 28bd
000000f0: 7600 efbc 1ce0 bcbc aa13 043d 0338 4fbc
00000100: 62e3 e03c 862d dfbb de22 86bd 68f0 c5bc
00000110: 30ac 39bb 07ca 8b3b d537 1dbd dcb5 3ebd
00000120: 4481 66bd 3c66 dfbb bb33 f9bb bf06 4bbd
00000130: a467 24bd a3c6 8fbc a2eb f7bc 521e 173c
00000140: 6cd7 a7bc e265 00bd b34c 39bc 842e b03c
00000150: 5029 79bc 18e0 18bd ca4b 8bbc f514 95bc
00000160: 09bb 9abb e88d fcbc bced dcbc 6919 c33b
00000170: ffca 32bd 4fe8 3bbd cda9 f7bc 78db a7bc
00000180: db04 e8bc 3901 41bc dd40 03bd 2af4 a7bc
00000190: 2282 ca3c 663b 55bd a245 c93c a47c a73a
000001a0: 6442 92bc 2eb2 013d 0680 19bd 9051 65bc
000001b0: c897 e43c 63c3 9fbc 6f3d 57bd bd61 b4bc
000001c0: 9c12 9b3c 514b cfbc 329a 05bd fb2a 70bc
000001d0: 2459 78bc 1341 c8bc 2635 7a3b 744f 043d
000001e0: a4a3 a7bc 2771 f13c 0471 1fbd be4d 123d
000001f0: 6fe3 cabc 5208 9e3c 54dd 073b d637 313c
00000200: 953c 893c a8da 113d 8f27 14bd 3beb a03b
00000210: 9a86 d03a 633f c1bc 3f19 49bd 4c98 393c
00000220: 01c4 b3bc 9df5 10bd 9b8d 04bd eca5 b6bc
00000230: 5a98 01bd 05e8 0abd dc3e 113c 79d3 55bb
00000240: fc8f 12bc b412 d1bc 8248 91bc d4b6 e03b
00000250: 64e4 0dbd b251 86bc f297 053c e169 33bd
00000260: 9b44 6dbc 1f79 a6bb 1de3 24bd fb44 babb
00000270: 5181 09bd 630d 983c 7da1 e53b a6df 7d3c
00000280: a90b c13b d925 0bbd b72b 15bd edfb d2ba
00000290: 9e29 213d fab1 413d d5fb 2cbd 7acd 73bd
000002a0: d2fb 72ba df74 96bc cf6f e4bc 1c83 abbc
000002b0: 489a 35bd 8f3b 5bbb 1299 3c3d 172e 96bc
000002c0: 612e 823b cf3b 2d3d 573d 153c 0558 583c
000002d0: a3f6 22bd 1b4e 2bbd a98a 90bc cfee afbc
000002e0: 7435 ddbc 7199 34bd 8aea 76bc 0805 5bbd
000002f0: bdf8 bebc e1ba c53c 5bad d13c 47aa 85bc
00000300: db0b 21bd ecb0 b1bc e67d 05bb 422d 2a3d
00000310: 7dc6 2cb9 8241 c73c 734a 8a3c 7c24 0fbc
00000320: fb65 853c ed37 3abd db17 33bb bf85 fb3c
00000330: 161a f9bc cbc4 e1bc 6d6d 10bd 9ffd c6bc
00000340: 131f c8bc ab75 a03c 3cff ee3c e270 adbc
00000350: 34b5 acbc 5f46 0abd d981 adbc cb49 9cbc
00000360: e0f8 c5bc 1428 d63a 78b1 5cbc 80b3 90bc
00000370: 9a16 07bd cf38 a93b 8115 dbbc 959a 90bc
00000380: c208 2d3b b19f f43c 92b9 16bd bb0e 0e3d
00000390: 238c b4bb 5024 70bc 7b47 dbbc ce4a aa3c
000003a0: 453b 973c 0b19 44bd 725c 8bbb a301 dcbc
000003b0: 2d75 abbc 8459 37bd a00d 1cbd ac9f 3c3c
000003c0: 493d 90bd ee0e 913c de77 643b 2f11 44bc
000003d0: 20d4 c63c f128 063d 5d2a babc da85 c5bc
000003e0: 6ccf 2e3d 386d 0fbb b567 50bc 6a20 8dbc
000003f0: 71dd 13bd d5db 9f3c d432 a1bc ba95 f6bc
-0.018691689 -0.03089977 0.0025056018 0.033949584 0.029537495 -0.030193472 0.03871837 -0.014918463
-0.029966757 -0.04837078 -0.02365437 0.031857852 -0.098021954 -0.0036143633 -0.03304895 0.00038712524
-0.028748028 -0.0447491 -0.025959605 0.0062242895 -0.027957521 0.017947592 -0.006998312 0.03892948
-0.030131394 -0.00016123847 0.01466141 -0.039151978 -0.024994606 -0.02088007 -0.02112994 -0.03782075
0.039003227 0.024880571 -0.028393349 -0.010904519 0.03002783 0.022207346 0.006337012 -0.015171655
-0.005063797 -0.03319163 -0.027092103 -0.0071292687 0.0394426 0.0028652158 0.028864449 -0.030264728
0.02383799 -0.038528863 0.024264809 0.028892228 -0.012931397 -0.00020593435 -0.03137883 0.009707351
-0.021772122 -0.03299888 -0.009383554 -0.04123721 -0.029175024 -0.023056082 0.032245316 -0.012647632
0.027452175 -0.0068108467 -0.06549619 -0.024162486 -0.0028331392 0.004266027 -0.038383324 -0.046560153
-0.05627562 -0.006817607 -0.0076050437 -0.04956698 -0.040137902 -0.017550772 -0.030263726 0.0092235375
-0.020488463 -0.031347163 -0.01130979 0.021506555 -0.015207604 -0.037323087 -0.017003912 -0.01819847
-0.0047220034 -0.030829385 -0.02696883 0.005953957 -0.043650623 -0.045875844 -0.030232335 -0.020490393
-0.028322628 -0.011780077 -0.03204428 -0.020502169 0.024720255 -0.0520586 0.024569336 0.0012778235
-0.017853923 0.031664066 -0.03747561 -0.013996497 0.027904406 -0.019502347 -0.052548822 -0.022019261
0.018929772 -0.025304468 -0.032617755 -0.014658685 -0.0151579715 -0.024445092 0.0038178652 0.032302335
-0.020463772 0.0294729 -0.03892614 0.035718672 -0.024766652 0.019291077 0.0020731287 0.010816535
0.01675252 0.035608917 -0.03617054 0.004910854 0.0015909255 -0.023589795 -0.049096342 0.011327814
-0.021944048 -0.035390485 -0.032361608 -0.022295915 -0.031639434 -0.033912677 0.0088650845 -0.0032627268
-0.008945461 -0.025521614 -0.01773477 0.0068577323 -0.03464164 -0.016396377 0.008153902 -0.043802146
-0.014481689 -0.0050803567 -0.040255655 -0.0056844926 -0.03357059 0.01856107 0.0070077763 0.0154952165
0.0058912826 -0.03397164 -0.036418643 -0.0016096808 0.03934633 0.047288872 -0.042232353 -0.05952213
-0.00092690915 -0.018366275 -0.027885346 -0.020936541 -0.044336587 -0.0033452248 0.046044417 -0.018332524
0.003972814 0.042293366 0.009108863 0.013204579 -0.039785992 -0.041822534 -0.017644243 -0.021476177
-0.027003027 -0.044091646 -0.015070567 -0.053471595 -0.023311967 0.024136962 0.025595358 -0.016316546
-0.039317947 -0.021690808 -0.002036923 0.041547067 -0.00016477141 0.024323229 0.016881203 -0.008736726
0.01628398 -0.04546349 -0.0027327451 0.030703424 -0.030407947 -0.027559659 -0.035260607 -0.024290858
-0.02442888 0.019587358 0.02917444 -0.02117199 -0.021082498 -0.033758517 -0.02118008 -0.019078156
-0.024166524 0.0016338849 -0.013470046 -0.017663717 -0.03298054 0.005164243 -0.026743652 -0.017651835
0.0026402925 0.029861303 -0.036798067 0.034682017 -0.0055098697 -0.014657095 -0.026767483 0.020787623
0.01846088 -0.047875445 -0.0042529637 -0.02685625 -0.020929897 -0.044763103 -0.03809893 0.011512678
-0.07042939 0.017707314 0.0034861485 -0.0119669875 0.024271071 0.03275389 -0.022725279 -0.024111677
0.04267828 -0.0021885168 -0.012720038 -0.01722737 -0.036099855 0.019514004 -0.019677557 -0.030100692

network_body._body_endoder.seq_layers.2.weight f4 [256, 256]
00000000: 2db4 80bc b08f 93bd ccdf c1bb 9e92 12be
00000010: c480 9a3d 8613 b53d 1539 643d 8859 003e
00000020: 352e 1b3d 6b18 74bc db43 95bc ba35 2b3d
00000030: 4212 2c3d 5145 b3bc 76ad 573c a598 8ebd
00000040: 1725 b03c 59ee 5abc 7ad6 9a3d df1b b53b
00000050: 2782 aebd d670 5d3c 6140 a7bc c098 b53a
00000060: 077e 1b3d 21d7 8ebc 14d9 f4bc a0d0 e7bd
00000070: a7c2 7a3d 11aa 4bbd 00f8 043c 7f25 1c3d
00000080: 478c 35bd bfc4 9abc e0a2 1abd 779e e93c
00000090: 9731 653d 1223 123d 4462 14be 2c2a fb3d
000000a0: 56de febc dae6 35bd e018 353d 4e42 833d
000000b0: 2333 6c3c 7384 77bd 24d8 f93d 5029 f83c
000000c0: 4acf d4bd bd11 ca3c e7ac 023c fbbd 8dbd
000000d0: 9487 8abd 2256 fe3c 027a 2e3d cf53 c23c
000000e0: 6dde 913d d486 4e3d bd96 e1bd c7bc b73d
000000f0: 6108 70bc 6579 3c3d 31aa d4bd 1c62 c33d
00000100: e204 acbc 4e32 b73d ebe9 8fba d171 72bd
00000110: a34f f1bd 1fed f8bd cf3f 2cbd 909a 9d3b
00000120: 19ae deba c7de 403c 90dd 5dbd 0809 05bd
00000130: 1c11 bbbd 13c3 02ba 0612 14bd 509d 26bb
00000140: 21bc efbb 86e2 143d cf0d 75bd beaa 49bd
00000150: 2ebf 9fbd c2e3 73bd edd1 28bd 9cfe 60bd
00000160: 4186 223e 2fa9 7c3d 9c30 8a3d 382b 85bd
00000170: b003 bfbc 81a2 a7bd c81d d1bb 0c7f 473d
00000180: 79cc a4bc e5ca 7f3d b1dc 11bb aa71 6bbc
00000190: aef8 903b 7181 e63c ec9b 803d 91e7 003e
000001a0: 6bd5 ae3c 8080 d33a f54c 1ebc bb20 b5bc
000001b0: ed0e 05be 9bf3 fdbd 793c 1b3d 71d2 adbd
000001c0: c6d2 433c 9065 e33d f16e f53d 4175 5f3d
000001d0: b14d 3ebd db19 23be a65f a2bd 15e0 11be
000001e0: 8c46 a0bd 0f53 8abc a3c1 4b3d b224 e9bd
000001f0: c451 133d 37ac a93d cba1 50bc 3e6a 873d
00000200: 9a43 b9bd 7c7b 1c3d 079b 7fbd 7ce2 033e
00000210: 9fa7 8fbd ab03 bc3d 8a31 8bbc 1118 c73d
00000220: 4331 623d 4bc0 b1bd 2677 0d3d 574a 1b3c
00000230: 0ffe 793c a683 3ebd 0d1d 41bd 6a93 93bc
00000240: 6b81 27bd 53d2 96bc d046 423b 0ff8 cd3c
00000250: d679 91bd 5169 9e3c 4bf1 ab3c eb03 44bd
00000260: 2669 95bd 9830 febc a2d3 123b bb59 e1bb
00000270: a0ba 7b3c dbb4 4fbc 0170 0fbd 0a43 95bc
00000280: d0a6 0b3d f7e3 e73d 11a1 6fbc cf64 5f3c
00000290: 84bd 55bc 2f38 cebd 5a29 94bc 0389 003d
000002a0: bc80 53bc 4ef3 c9bd e351 3ebc ad8b fabd
000002b0: 82c5 a03d ee91 92bd c6d5 903a f41e 563d
000002c0: f3f3 bc3b ae5f 3abd 026d 8e3c 9f62 25bd
000002d0: 8056 013d c701 19be d626 a23a f8b7 52bd
000002e0: feb5 1e3b 8e0f b23c 6f6e 983d 5a6b a03c
000002f0: 89a6 3fbc e024 7dbd eddd f0bd 6a8f 4d3d
00000300: 6cc2 c73c 8bbf 003e fd05 273d bbdd 8e3d
00000310: a19b 54bd 2892 213c 1713 843d e0e0 183c
00000320: ac16 74bd cbf3 fb3c b40c 623d c6e5 4bbc
00000330: f817 0f3d 369d b93d 5188 703d 6ba6 d7bb
00000340: bc31 61bd c40f a83b bfed 523c 3f50 35bc
00000350: e678 a5bc 26be 603d 4678 933d 53b0 b0bc
00000360: 268e 143d 33b7 103d 9247 d3bb 3bd0 5dbc
00000370: 6496 72bd ae50 113c 1258 353d 9069 b83d
00000380: 1917 67bd f3f8 f93d be60 133e da1c 7cbc
00000390: 578e babd 6b0f b6bc e44c 123e ce6e 82bc
000003a0: 3d1a 7f3d b9e0 cb3b d0e2 583d ea43 af3d
000003b0: cd01 d9bc 1f63 b33c 3ee1 d23c 2199 b5bc
000003c0: 42af 79bd 3b41 39bc 35d3 e5bc 7851 6abd
000003d0: 0959 2a3d f0bb 7dbc 51de 66bd 09ee b93c
000003e0: fc9d f13d 5bb0 0d3d 5159 fb3b 4e9f be3c
000003f0: a15b 2b3e b0f3 39bd 756c 58bd dad2 a6bb
-0.015710915 -0.072051406 -0.0059165712 -0.14313743 0.07544091 0.088416144 0.0557185 0.12534153
0.037885863 -0.0148984 -0.018220833 0.041799285 0.0420096 -0.021883639 0.013163915 -0.069627084
0.02150206 -0.013362491 0.075604394 0.005527004 -0.08520918 0.013515672 -0.02041644 0.0013854727
0.037961986 -0.017436566 -0.029888667 -0.11319089 0.06122079 -0.049722735 0.008115768 0.038121697
-0.044323232 -0.018892644 -0.037752986 0.028517945 0.055955496 0.035677977 -0.1449061 0.12263903
-0.031111877 -0.04440961 0.044213176 0.06409131 0.014416489 -0.060429048 0.12199429 0.030293137
-0.103911 0.024666661 0.007975793 -0.069210015 -0.06764141 0.03104693 0.042596824 0.023721604
0.071225025 0.05042155 -0.11015079 0.08971553 -0.014650435 0.04601421 -0.10384024 0.09540197
-0.020998422 0.08945142 -0.0010979747 -0.059190575 -0.117827676 -0.12154602 -0.04205304 0.004809685
-0.0016989141 0.011771864 -0.054166377 -0.032479316 -0.09134123 -0.0004988175 -0.03615 -0.0025423355
-0.007316128 0.036348842 -0.059827622 -0.049235098 -0.078001365 -0.05954338 -0.041215826 -0.054930314
0.15871526 0.061684784 0.06747553 -0.06502384 -0.023317188 -0.08185292 -0.006381724 0.048705146
-0.020117031 0.062449355 -0.0022256786 -0.014370361 0.004424176 0.028137894 0.0627974 0.12588336
0.021342 0.0016136318 -0.009661903 -0.022110334 -0.12993975 -0.1239998 0.037899468 -0.08487404
0.011952108 0.11103356 0.11984051 0.05455518 -0.04646081 -0.15927832 -0.079284 -0.14245637
-0.07825956 -0.016885309 0.049745213 -0.11383952 0.03596665 0.082848005 -0.012733887 0.06612061
-0.09046097 0.0382037 -0.062403705 0.12879366 -0.07014393 0.09180387 -0.016991396 0.09721387
0.05522276 -0.08679255 0.034537457 0.009478173 0.015258326 -0.04651227 -0.047146846 -0.018014628
-0.040894907 -0.018410837 0.0029644258 0.025142698 -0.071033165 0.019337328 0.02098908 -0.0478553
-0.07295446 -0.03102903 0.0022403975 -0.006877152 0.015364319 -0.012677397 -0.035018925 -0.018220443
0.03409463 0.11322778 -0.014625804 0.0136348745 -0.013045672 -0.1006931 -0.018086124 0.031380665
-0.012909111 -0.0986086 -0.011616203 -0.12233672 0.078501716 -0.0715674 0.0011050038 0.052275613
0.0057663857 -0.045501404 0.017385963 -0.040377256 0.031576633 -0.14942084 0.0012371193 -0.051444978
0.0024217363 0.021735933 0.074429385 0.01958244 -0.01169742 -0.061802745 -0.11761079 0.0501856
0.0243847 0.12573068 0.040777195 0.069758855 -0.05190623 0.0098615065 0.064489536 0.009330958
-0.059591934 0.030755898 0.055187896 -0.012444919 0.034934968 0.09063189 0.05872375 -0.006581118
-0.05497907 0.0051288325 0.012874066 -0.011066495 -0.02019925 0.05486884 0.07200675 -0.021568453
0.036268376 0.035330962 -0.006447741 -0.013538416 -0.059225455 0.008869333 0.044273444 0.090045094
-0.056418512 0.122056864 0.14392373 -0.015387738 -0.091091804 -0.022224149 0.14287144 -0.015921976
0.062280882 0.0062218574 0.05295068 0.085578755 -0.026490116 0.02189785 0.02574217 -0.022167744
-0.060958154 -0.011307056 -0.028054813 -0.0572066 0.041588817 -0.015486702 -0.05636436 0.022696512
0.11797711 0.034592014 0.0076705595 0.023269322 0.16734172 -0.045398414 -0.052837808 -0.0050910534

network_body._body_endoder.seq_layers.2.bias f4 [256]
00000000: d3a3 16bc fc1c 16bd 322f 99bb cd82 85b9
00000010: 18f4 9e3c 56f9 93bc 38a5 e6bc 73f1 6abc
00000020: 5dd0 c0bc a526 293c 27dd 75bc 66d6 a6bc
00000030: 542e d73c 0948 54bc 5248 883c f1ad f1bc
00000040: 3eea 083d 0ef7 063a 8070 963b 714e 61bc
00000050: 900e c2bc 4a91 a7bc 3e43 16bc 0341 03bd
00000060: 64c4 80bc cac9 13bc 98a2 88bc 9c52 023d
00000070: 7dd3 813c 4981 82bc 840e 9abc a888 eb3b
00000080: a1b1 a23c 5114 783c 78c2 ac3c 5de2 e6bc
00000090: 2697 963c 1cc1 f33c 7abb 74bc a18d c13c
000000a0: 8c65 dfbc 4952 8cbc a99f 2cbd 0781 96bc
000000b0: 471a 1a3c 931e ffbc 7bf5 883c c385 5fbc
000000c0: 87c5 3dbb f614 08bd 4645 86bc c180 1b3c
000000d0: 4617 9abc 7287 a6bc 7173 af3c f314 b13b
000000e0: 1e18 05bd ad8f 90bc 088f 43bc 6c99 ecba
000000f0: 987a cebc a57b edbc 3cbb d8bc 68d4 29bd
00000100: c073 033b b80d cbbc 3e30 e4bc ad15 143c
00000110: 3013 90bc 047e f73b 4206 133c 71a6 93bc
00000120: 009b 5e3b 7386 0fbb 7a0b f4bc 4310 0ebd
00000130: c32c b2bc e86d 00bd fb59 cbbc 5c18 6638
00000140: f44e b8bb 1734 a2bc 52cc 1e3c b656 013b
00000150: 5716 a1ba 7ee7 74bc ae0d 09bd b700 dfbc
00000160: 1150 f9bc 0d8d 8abc 8f47 24bd f7bc ec3b
00000170: 3d7f b5bc 0697 5b3c c950 d8bc 1a3f 31ba
00000180: b741 6a3c 33da 11bd 885f d0bc 19f1 583c
00000190: 7a3d c93b ffdf 873c c1b3 14bc dc97 1abd
000001a0: 8a37 e3bc 2a47 b9bc 798a 9dbc df56 883c
000001b0: 936e 103c ee63 1cbc 85ae 90bc 17a3 bdbc
000001c0: ad49 873c ddd3 06bc cf28 38bc 4771 533b
000001d0: 9581 543c 2a65 91bc 5b95 04bd d078 b2bc
000001e0: e665 32bd dbcb 18bc 572a 5bbc f543 8d3b
000001f0: 48f6 cd3c 6bed debc 6ac3 fcbc f068 b33b
00000200: afd7 e5bb 5488 02bd 982e a03c 6257 81bc
00000210: f65b 15bd dd50 f03b 0f22 bcbc 2d49 d2bc
00000220: b9a6 373d 0b3b 1cbd 150e a53c 554a 34bd
00000230: 738b adbc 740d d83c 6150 2f3d 0e38 f63c
00000240: bc85 e1bc f5ea 393c f3a2 46bc a960 9cbc
00000250: 822d 5a3c 4f75 2ebc ec59 093c 7ec5 353b
00000260: 91d9 ebbc 0fa3 eebb 7260 dabc 69a0 26bc
00000270: 0ce5 153a bce0 a7bc 10e1 003d 2801 26bc
00000280: 3989 9abc 7b34 373c 75e4 83bb a8af a23c
00000290: d3b5 2ebc 8eba 93bc d525 313d ca7e 10bd
000002a0: a273 173d f489 1e3c a579 02bd f1fa 2bbd
000002b0: 3efb 12bd 24bb 3c3d 1478 d93c a0f7 79bb
000002c0: 0889 eabb de4a 3a3c ff82 3fbc 125f b13c
000002d0: 3527 d03a e2d7 f4bb 96ed 68bc 63d7 aa3c
000002e0: 4d7f 90bc 48db ecbc f6a8 223d c804 97bc
000002f0: 1c3b a5bc c974 9bbc 78cb 14bd 23f5 36bd
00000300: 8b51 fbbc eb51 81bb 5d3b 8a3b 0ff7 10bd
00000310: 4e59 22bc 78ee bebc 74fc ebbc 9ff4 e5bc
00000320: 58b9 24bd 29e4 0ebd e3e6 f9bc f832 b6bc
00000330: c1cd d6bc 1b71 d5bc a6f2 d4bc 4849 233b
00000340: 556e 183b 8816 f13c f7fa 37bd 19a9 513b
00000350: e01b f0bc 2753 29bc 007d 0ebd cd0f bebc
00000360: c54d 373d b67f 19bd 73cd 9fbc 866b 2a3c
00000370: 29dd 85bc d94d 30bc 9462 d8bc 2e57 d7bb
00000380: bfde 16bd 9639 a7bc e614 fdbc e748 02bd
00000390: 7614 f13c 450f 99bc f347 2abb 1899 68bb
000003a0: 8979 a33a 3a00 d9bc 3d96 08bd a5e5 9fbc
000003b0: 2dc3 713c e8c6 a9bc 8a1f bebc b2da f6bc
000003c0: efac cfbc abb4 24bc c09d b6bc 190b 6239
000003d0: dadf a33b a0e7 043d c028 f4bb 2697 49bc
000003e0: dc61 6fbc 70b9 0bbd 3e5f f6bc c5e6 cabc
000003f0: 7d56 16bc 9c4c eabc 6b84 a3ba 1314 893b
-0.009194332 -0.036648735 -0.0046748156 -0.0002546519 0.019403502 -0.018063229 -0.028154954 -0.014339793
-0.023536855 0.010324155 -0.01500634 -0.020365905 0.026267208 -0.012956628 0.016636048 -0.029501887
0.033426516 0.00051485084 0.0045910478 -0.013751612 -0.023688585 -0.020455021 -0.009171305 -0.032044422
-0.015718646 -0.009020278 -0.016679093 0.031817064 0.015847916 -0.015930789 -0.01880575 0.0071879216
0.01986009 0.015141563 0.021088824 -0.02818411 0.01838262 0.029755168 -0.014937276 0.023627104
-0.027270101 -0.01712908 -0.04214445 -0.018372072 0.009405679 -0.031142509 0.016718617 -0.013642731
-0.0028956847 -0.033223115 -0.016390454 0.009491147 -0.018809926 -0.020328257 0.021417351 0.0054041087
-0.032493703 -0.017646635 -0.011935957 -0.0018051094 -0.025204942 -0.028989622 -0.026456468 -0.041462332
0.0020058006 -0.024786815 -0.027855035 0.009038371 -0.017587274 0.007552864 0.00897366 -0.018023701
0.00339669 -0.0021900206 -0.029790629 -0.034683477 -0.02174986 -0.031354815 -0.02482318 5.485896e-05
-0.0056246463 -0.019800229 0.009692268 0.0019735522 -0.0012289983 -0.01494777 -0.03346031 -0.02722202
-0.030433686 -0.016912961 -0.040107306 0.007224675 -0.022155399 0.013402706 -0.026405709 -0.0006761417
0.014297894 -0.03560848 -0.025436178 0.013241076 0.006141362 0.016586302 -0.00907606 -0.03774248
-0.027736444 -0.022616941 -0.019231068 0.016642986 0.008815425 -0.0095453095 -0.017661342 -0.023149056
0.016514624 -0.008229223 -0.011240198 0.0032263563 0.012970348 -0.017748434 -0.032369 -0.021786124
-0.04355421 -0.009325947 -0.013376794 0.0043110796 0.02514185 -0.02721282 -0.0308549 0.005475156
-0.007014237 -0.031868294 0.019553468 -0.015788738 -0.036464654 0.0073338584 -0.02296546 -0.025669659
0.044836733 -0.038142245 0.020148316 -0.0440162 -0.021184659 0.026373602 0.042801265 0.030056026
-0.02752959 0.011347522 -0.012123811 -0.01908906 0.013316514 -0.010648086 0.008383255 0.0027736123
-0.028790267 -0.0072826217 -0.026657317 -0.010170081 0.00057180296 -0.020492904 0.031464636 -0.010132112
-0.018864261 0.011181946 -0.004025037 0.01985915 -0.010663467 -0.018033292 0.04324897 -0.035277165
0.03697551 0.009676445 -0.03185429 -0.041987363 -0.035884134 0.04607691 0.026546516 -0.003814198
-0.0071574487 0.011370389 -0.011688947 0.021651778 0.0015880825 -0.0074720243 -0.014216801 0.020854658
-0.017638827 -0.028913155 0.039711915 -0.018434897 -0.020169787 -0.018976586 -0.036326855 -0.044667374
-0.030678531 -0.003946533 0.0042185024 -0.035391863 -0.009908987 -0.02330707 -0.028806902 -0.028070746
-0.04021582 -0.03488556 -0.030505603 -0.0222411 -0.026221158 -0.02605491 -0.02599461 0.0024915505
0.0023259122 0.029429689 -0.044917073 0.003199166 -0.029310167 -0.0103347665 -0.034787178 -0.023200894
0.0447519 -0.03747531 -0.019507146 0.010401612 -0.016340809 -0.010760748 -0.026414193 -0.006571672
-0.03683352 -0.020413201 -0.030893754 -0.031807806 0.029428702 -0.018684039 -0.0025982826 -0.0035491642
0.0012472133 -0.026489366 -0.033346403 -0.019518683 0.014756006 -0.020724729 -0.023208398 -0.030133579
-0.025351016 -0.01005284 -0.022292018 0.00021557174 0.0050010504 0.032447457 -0.007451147 -0.012304103
-0.014610734 -0.034112394 -0.030074712 -0.024768243 -0.009175894 -0.028600983 -0.0012475377 0.0041833012

network_body._body_endoder.seq_layers.4.weight f4 [256, 256]
00000000: 1d5d 51bd 9405 5e3d 3f79 24bd e01f 61bb
00000010: 5600 a0bb f1cb 3c3d 325d abbd 1248 ecbc
00000020: f9f4 0fbc 4d49 933c 9e72 ca3d 68d9 bd3b
00000030: 2cab da3c bdbd 9f3c 5a11 ecb8 8d7b 133d
00000040: 7260 40bd ed98 5ebc f042 23bd 271a e9bc
00000050: 9104 fbbc be7a 4e39 3cdd 103d bd6c 513d
00000060: 668f 7dbd b5b0 5ebc a443 8d3d 55fa 8d3c
00000070: 8abf e83b d2d6 d23c beb1 c6bc 5837 9bbd
00000080: da4b 3c3d a013 363d ccf1 7e3d 4291 30bd
00000090: 4b89 52be 686a 95bd a208 d93d 94d7 24bd
000000a0: 195d 43bd 980f efbb 7f8c c8bc 1735 8e3d
000000b0: c1e7 e7bc 0c11 5b3d 9771 fd3b 425c 053d
000000c0: 09ff 8d3d 24c7 afbc 2d90 86bd 6db5 75bd
000000d0: 7b52 a63b 65e6 2f3c e8ad 04be ca70 cebc
000000e0: 1925 98bd 25d7 263d c841 1cbd 05d7 e63c
000000f0: 7901 4a3c 44de 883c e2db 463a 637f e73d
00000100: 314c 1dbe 13bd 053e ffa4 2f3d 7a65 8c3d
00000110: 563b d73d c91d 343e 8929 d0bd 6354 143e
00000120: 2441 483d 19c8 8dbd f4c6 c83c 5b28 013d
00000130: 05da ae3d 3743 673d 604f fabc 25f0 dc3c
00000140: 3c1b 453a 5a59 913d 4dc0 d73c 9771 073c
00000150: 99f2 6d3d a427 66bd fac1 833c be6c 5b3b
00000160: d066 f9bb 6b6b aebd 556c cd3a cf01 bcbd
00000170: c0c0 efbb e247 89bd a281 fa3b ce13 6c3d
00000180: d810 983b 7564 22bd 8573 1b3d fde2 503d
00000190: 34f0 283b 4f9b 483e 5444 f03d a311 9c3d
000001a0: 0ff9 a8bc 5ce8 273d 9f1e 7f3c 544a 1a3c
000001b0: b216 c13c d225 ed3c 861c 523e 3cd4 5dbd
000001c0: 3b04 f53d 23e7 79bb 7e14 d6bc 13fd acbd
000001d0: 8f48 bd3a e0de 183c 9b14 623d df66 6ebd
000001e0: 9cd7 113d ec2e 333c 9c36 253d edd3 033b
000001f0: ce50 a23c c071 9dbd 0af3 04be e53c 15bd
00000200: 17c1 47bd 50c7 b33d d14d f53d a165 053c
00000210: 9536 45bc 2981 7abc 0716 5abe 1df2 d3bc
00000220: 1833 4b3d a57b 87bc 155f 4f3d 4331 77bd
00000230: 1dbf ad3d 46e2 07bd e909 1fbd c560 91bd
00000240: 0de7 1abd b348 06be 0485 a93c a00e e5bd
00000250: 1fd9 a1bd 7cdf 63bd 5a49 46bd 99e7 edbd
00000260: bfc1 6bbd 001f 813c c143 3cba d805 0e3d
00000270: 6fa6 62bc 72f3 2a3d 5dec 083d 554f d6bb
00000280: 74e2 9ebd 0c6e 253d 41b4 74bd 80e5 053c
00000290: b5bc e8bd ffbf aa3d bd76 14bd 6fb3 893d
000002a0: 7db0 17bc 4ccf 5c3d 2a22 703b d614 b1bc
000002b0: c6da c3bc 6927 123d 32af d7bc 359e 29ba
000002c0: 2e99 e63c b294 50bd cf84 e5bd a1ce b93d
000002d0: cdbb a1bd 12fa 0fbe 1669 dfbb 0ac4 af3b
000002e0: 3f03 45bd 834b 7ebd a541 cf3d 289f cc3c
000002f0: e758 2b3b b583 e33b 854c fa3c b6aa 27bc
00000300: 113b d33c 51b6 903d ef12 a13c 6e5f 153d
00000310: 945d bbbc 5fab 81bd 6a79 833d 4f32 a53c
00000320: 1a5f 0bbd ee08 e2bd f077 da3c f845 dbbc
00000330: f4c9 2fbd 628e 15bd 28ff 82bd 9715 3a3c
00000340: 76d2 6dbe 077e a93d 76b7 0c3d 2447 013c
00000350: ccd2 493e 2ad6 9b3b beb4 1bbd e740 3dbb
00000360: f8da 223d cd6d 823d 2339 29bc 882b 48bc
00000370: 529a 783d c3bd 1dbd 4e01 8b3d 7522 e43c
00000380: 115c 9c3c 5f3c ac3d 13fe d4bc 9ea0 a0bd
00000390: c616 d53b 1a8a 5dbd df5d 3abd 3355 273d
000003a0: 3fe5 793b 6ead 1c3c 7e77 21be 5f7a 5dbd
000003b0: 0d25 b03c b68d 2e3d 18a5 693d 9b03 1ebc
000003c0: 8b48 cfbd 68f1 a4bc 7991 47bd a0e9 0e3d
000003d0: ad29 0c3d e201 13bd 697c 5fbd 63db f6ba
000003e0: 32ad c83d 38a2 d1bc f056 91bd 3e5d 82ba
000003f0: 5c20 b13c 8ae8 96bd 7156 40bc 0092 dcb9
-0.05111419 0.05420454 -0.04015469 -0.0034351274 -0.0048828525 0.04609293 -0.08367385 -0.02884296
-0.008786433 0.017979288 0.09885143 0.005793739 0.02669295 0.019499654 -0.00011256589 0.0360065
-0.046966977 -0.013586265 -0.03985876 -0.028454853 -0.030641826 0.00019691416 0.035367236 0.05112909
-0.061904334 -0.013591935 0.06897667 0.017331282 0.0071029114 0.0257372 -0.024254676 -0.07578915
0.045970775 0.04445231 0.062242314 -0.04310728 -0.20560186 -0.07295686 0.1059735 -0.040244654
-0.047696207 -0.00729556 -0.024481056 0.0694372 -0.028308751 0.053483054 0.007734488 0.032558687
0.0693341 -0.021457262 -0.06570468 -0.059987474 0.0050757504 0.010736083 -0.12956965 -0.025200266
-0.07428951 0.04073252 -0.03814867 0.028178701 0.012329453 0.016707547 0.00075858657 0.11303594
-0.15361096 0.13060407 0.042881962 0.068552926 0.10509364 0.17589487 -0.10164172 0.14485316
0.048890248 -0.06922931 0.02450893 0.031532627 0.08537678 0.056460585 -0.030555427 0.026969979
0.0007519012 0.070971206 0.026336813 0.008266828 0.058092687 -0.056190148 0.016083706 0.0033481563
-0.007611133 -0.08516582 0.0015672544 -0.091800325 -0.0073166788 -0.06703164 0.007644848 0.057636075
0.00464068 -0.039646585 0.037951965 0.050997723 0.0025777938 0.19590496 0.117317826 0.076205514
-0.020626573 0.04099308 0.0155712655 0.009417135 0.023570392 0.028948698 0.20518693 -0.05415748
0.119636975 -0.0038132153 -0.026132818 -0.084467076 0.001444118 0.009330481 0.055195432 -0.058203574
0.03560601 0.01093648 0.040335283 0.0020115331 0.019813921 -0.07687712 -0.12983337 -0.036435027
-0.04876813 0.0877825 0.11977733 0.008141906 -0.012036939 -0.015289583 -0.21297465 -0.025872285
0.049609274 -0.01653845 0.050627787 -0.060349714 0.084837176 -0.033174776 -0.03882781 -0.070985354
-0.037818003 -0.1311367 0.02069331 -0.1118443 -0.07902741 -0.055633053 -0.048409797 -0.11616439
-0.057557818 0.015761852 -0.0007181727 0.03467354 -0.013833626 0.041736074 0.03342854 -0.006540219
-0.07758036 0.040388152 -0.059742216 0.008172393 -0.11364118 0.083374016 -0.03624605 0.06723677
-0.009258387 0.05390863 0.0036641457 -0.02161638 -0.02390803 0.035682116 -0.026328657 -0.0006470413
0.028149214 -0.050923057 -0.11206972 0.090726145 -0.07897148 -0.14060238 -0.006817947 0.005363946
-0.0480988 -0.062083732 0.101199426 0.024978235 0.002614552 0.006943191 0.030554065 -0.010233572
0.025785001 0.07066024 0.019662349 0.036467962 -0.02287177 -0.063315146 0.06419642 0.02016559
-0.034026243 -0.110368595 0.026668519 -0.026766762 -0.042917207 -0.03651274 -0.063963234 0.0113576865
-0.23224816 0.08275991 0.03435465 0.007890496 0.19709319 0.004755755 -0.038014166 -0.0028877796
0.039759606 0.06368599 -0.010328564 -0.01221741 0.060694046 -0.03851105 0.06787358 0.027848462
0.01908687 0.08409952 -0.026000058 -0.07843135 0.006502959 -0.054086782 -0.04549968 0.040852737
0.0038131026 0.009562833 -0.15768239 -0.05407178 0.021502042 0.042615615 0.05704221 -0.009644414
-0.10121258 -0.020134643 -0.048722718 0.03489077 0.034219433 -0.035890467 -0.054562006 -0.0018833693
0.097986594 -0.025590047 -0.0709666 -0.0009946001 0.021621875 -0.07368572 -0.011739359 -0.00042070448

network_body._body_endoder.seq_layers.4.bias f4 [256]
00000000: 71b1 05bd fd89 df3b f6f3 6fbc f18d f9bc
00000010: 1f22 d1bc 7bae 37bd fe0e 30bd bdb0 edba
00000020: fae7 54bc ccc4 b8ba 264e 0bbb 17f3 01bd
00000030: 0637 2a3c 50f6 0cbd ba8e c33b 0ef7 083b
00000040: 6084 b1bc 8be8 45bd 4e2d edbc 606e e2bc
00000050: be03 a7bb 78e1 a13c 5a30 c0bb 4a0c cb3c
00000060: 5555 2cbc bccb 4a3c 54a4 ddbc d680 0ebd
00000070: 7b1b 4f39 94c5 a73c 093f 40bc 37d7 28bc
00000080: 326a 31bb 038f 9b3c 46f9 b3bc 7340 03bd
00000090: 3196 7fbc e76d 93ba b889 7c3b 7994 3b3c
000000a0: ac8d 653b 8861 07bd 65e2 833c 2e73 bcbb
000000b0: a12b cebc 35f2 b5bc 1ca7 8bbc 309a a7bc
000000c0: f27e 86bc f609 3f3b 06af f7bc 7a1e 653b
000000d0: 5a5a 26bd 5d63 543c 5dc9 1dbb 2833 cd3c
000000e0: ae56 7abc 63b3 ecbc fdbd 7fbd dd85 7ebc
000000f0: 6f06 07bd 85df a53b 2841 d73c 3ecf 97bc
00000100: 444e 0ebd 4c56 46bb 38c0 18bd dcd1 20bb
00000110: 42cb cabc 9003 cb3b 2832 30bd 81b4 e5bc
00000120: 13c9 913b 048d efba e4f2 243c 3e28 05bd
00000130: 1e85 0dbd a890 943c d57f 65bc 5d93 c83c
00000140: c5b0 f43b 004b 3b3c ba4c a9bc e992 04bd
00000150: 06cd 4dbd 44bd 17bc 68f5 c8bb 14a4 753c
00000160: 8b04 1e3c a544 1bbc 3f7f 273c 7299 50bd
00000170: 03a4 803b 9924 0fbd 69a9 b0ba ae2f 12bd
00000180: 8ec2 b13b 0593 98bb 3f52 e3bc b588 81bc
00000190: ebef a2bc bc5b 53bc d546 e9bc b0e2 e53b
000001a0: fb7d 21bb bcec 853c b872 07bd f71d a73a
000001b0: 436b f33a 897b 41bd a3a7 3abc e98c 96bb
000001c0: 639d a2b9 2f79 223c 169b 04bd 2a8d afbc
000001d0: eea1 46bc a6b0 34bc 475c 13bd 6a5d e0bc
000001e0: 7cbc 063c 30db 1ebd 3b61 e43b ef02 3b3c
000001f0: c4de 1cbc 6ad2 75bd d60a b43b 7788 5eba
00000200: 67ad afbc 567d 783a bcff d4bc d04b a93a
00000210: f26d 52bc 372e 3dbb bc78 ddba af74 87bc
00000220: 8b89 92bc e907 dabc 63af 0abc 6fa6 713c
00000230: a9ed 56bd 3e7b a13b 54f5 0b3c ff56 8abb
00000240: a887 9d3c b321 56bc 7f65 40bb 50ad 913b
00000250: 405d bcbc 904a e0bc 94e2 ddbc d228 6e3c
00000260: f7a7 64bc 213b 4dbc e2a4 113c 2cb5 8cbc
00000270: 2c46 33bc 3e19 d6bc 9095 dbbc 8084 10bd
00000280: 6cb2 41bc 4de6 d2bc d975 39bd e13e c13c
00000290: 684c a73b 0307 7f3c d876 6cbc f361 7d3c
000002a0: e461 7b3c a101 543c 9bff 913c 8270 97bb
000002b0: 49d6 0dbd 446d 9dbc bc8f 1fbd 5692 20bd
000002c0: a895 883b ee54 cf3c e784 a23c b896 cfbc
000002d0: 5bc4 a0bb 9457 9d3b 523b 813b 36b5 913c
000002e0: 415d fcbc e184 923b 9904 90bc f310 393c
000002f0: c5d0 25bd c165 9fbc 5dab 15bd 79f0 c53c
00000300: 658d 19bd 7741 0abd 3d6e dfbc c44b e9bc
00000310: 095e adba 173b 4bbb edd2 adbc 4e9a e9ba
00000320: 5427 82bc a96d 07bd b0b0 c9bb 2f41 9e3b
00000330: aee7 02bd 3935 d0bc 6c44 bd3b 238c 34bd
00000340: 5e00 613a 8b92 28bb bb2d ffbc 68f3 21bc
00000350: 913c 363c 6db9 873a cd6c 37bd 7c97 2fbc
00000360: 06db afbc fa38 4cbd e495 6f3c ccc3 a2bc
00000370: 55ba de3c 73be 5ebc 9136 b9bc 6255 8ebc
00000380: 9602 b0bc 98bb 65bc 15fa 203b b223 32bc
00000390: 5005 7fbc 9db1 42bc 1a31 07bd 946e babc
000003a0: a5f6 36bc 7bd3 493c 523b 603c c93e 9abc
000003b0: da16 853b c4ef 4dbc 9fae 53bd 33b5 b5bc
000003c0: bcfd 14bd 9af0 a9bc bfa5 98bc 3866 0f3b
000003d0: 8859 57bd 4b8a ebbc a5db 933c 384a c73b
000003e0: 2c19 a2bc 9ece 213c 1444 84bc 9369 47bc
000003f0: 1d43 31bd ed91 85ba 7559 1dba 0f29 bbbb
-0.032639924 0.0068218694 -0.014645567 -0.03046319 -0.025528966 -0.044844132 -0.042983048 -0.0018134337
-0.012994761 -0.0014096736 -0.0021256297 -0.03172597 0.010389095 -0.03441459 0.005967942 0.002089921
-0.021669567 -0.048317473 -0.028952267 -0.027640522 -0.0050968817 0.019760832 -0.005865139 0.024786133
-0.010518392 0.012377676 -0.027055897 -0.034790836 0.00019751296 0.020479955 -0.011733779 -0.0103052175
-0.0027071354 0.018989092 -0.021969449 -0.032043885 -0.015599773 -0.0011247963 0.0038534235 0.011448973
0.003502707 -0.033051997 0.016099164 -0.005751035 -0.025167288 -0.02221022 -0.017047457 -0.020459265
-0.016417954 0.0029150224 -0.030234825 0.0034960792 -0.04061351 0.012963143 -0.002407632 0.025048807
-0.015279455 -0.028894132 -0.062437046 -0.015534845 -0.03296512 0.005062046 0.026276186 -0.018531438
-0.03474261 -0.003026384 -0.03729269 -0.0024539148 -0.024755124 0.006195493 -0.043016583 -0.028040173
0.0044490187 -0.0018276279 0.010067675 -0.03250908 -0.03455078 0.018135384 -0.014007528 0.02448433
0.0074673616 0.011431456 -0.020666469 -0.032366667 -0.050244354 -0.009261433 -0.0061327703 0.014992733
0.009644638 -0.009476815 0.010223209 -0.050927587 0.0039258017 -0.03494701 -0.0013478223 -0.035690002
0.005424804 -0.004656198 -0.027749179 -0.015812257 -0.019889792 -0.012900289 -0.028476158 0.0070155486
-0.002464174 0.016348235 -0.03306839 0.0012750019 0.0018571395 -0.047236953 -0.011392507 -0.0045944345
-0.0003101631 0.009916588 -0.032374464 -0.021429617 -0.012123568 -0.011028444 -0.035976674 -0.027388293
0.008223649 -0.038783252 0.0069695986 0.011414274 -0.009574596 -0.06001512 0.005494456 -0.0008488963
-0.02144499 0.0009479126 -0.02600085 0.0012916271 -0.012843596 -0.0028866658 -0.0016896944 -0.016535131
-0.017887851 -0.0266151 -0.008464667 0.0147491535 -0.052472744 0.0049280217 0.0085423775 -0.0042217965
0.019229725 -0.013069558 -0.0029357371 0.0044457093 -0.022993684 -0.027379304 -0.02708558 0.0145360995
-0.013956062 -0.012526304 0.008889409 -0.017176233 -0.010942023 -0.026135083 -0.026804715 -0.03528261
-0.011822324 -0.025744582 -0.045278404 0.023589553 0.005105544 0.015565637 -0.014432631 0.015465247
0.015343163 0.0129398415 0.017822077 -0.0046215663 -0.034628186 -0.019217141 -0.038955435 -0.039202057
0.004168231 0.025309052 0.019838763 -0.025340423 -0.00490622 0.0048017 0.003943839 0.017786603
-0.030806186 0.004471407 -0.017580317 0.011295545 -0.0404823 -0.0194577 -0.036540378 0.024162518
-0.03748836 -0.03375384 -0.027274245 -0.02847851 -0.0013226877 -0.0031010562 -0.021218741 -0.0017822476
-0.015887894 -0.033063564 -0.006155096 0.004829548 -0.03195923 -0.025416004 0.005775979 -0.044078957
0.00085831236 -0.0025722112 -0.031149736 -0.009884693 0.011122839 0.0010354944 -0.044781495 -0.010717269
-0.021466743 -0.049859025 0.014623139 -0.019868754 0.02718846 -0.013595211 -0.022609027 -0.017374698
-0.021485608 -0.014021777 0.0024563123 -0.010872768 -0.015565231 -0.011883167 -0.03300581 -0.022757806
-0.011167203 0.012318487 0.013686018 -0.018828766 0.004061562 -0.012569372 -0.051680204 -0.02218113
-0.036374792 -0.02074461 -0.018633721 0.0021880995 -0.052575618 -0.028752467 0.01804907 0.0060818456
-0.019787394 0.0098759215 -0.016145743 -0.012171167 -0.043276895 -0.0010190584 -0.0006002405 -0.0057116817

action_model._continuous_distribution.log_sigma f4 [1, 2]
00000000: 9b70 f6bc 1954 053c
-0.030082991 0.008137726

action_model._continuous_distribution.mu.weight f4 [2, 256]
00000000: 7fe9 e43a 2972 ce3a 54d7 123c c18e a33a
00000010: 4686 87bb 95e1 fe3a 97ca 2b3b 80eb c83b
00000020: 3ac7 80bc 167b d23a 5d4e b2ba 0911 9e3b
00000030: b0f6 673b 289d 03bc 5bfd cab8 b0b9 9abb
00000040: 1a1f c23b d893 b83b 028a 29bb de1f 31ba
00000050: c2f8 53ba dd49 c6bb 5af1 753b 5b68 543c
00000060: 5aab 03bc c945 8bbb d460 f7ba b846 313b
00000070: 6f0a 413a 270c e0bb 047e 75ba 70fd 66ba
00000080: 0fb8 55bc 4b4e e63a 0856 94bb 0e61 08bb
00000090: 88b7 c13a 2d25 8e3b b8bd 1a3b ce6c bf3c
000000a0: f7aa 243c f3c2 acbb db3d 833b 0617 bcb8
000000b0: 6ac1 163a b3b0 db3b 5c14 ce3c 2099 ddba
000000c0: 5d16 6cbc 95e5 e8b9 24a7 2abb 9a38 b1ba
000000d0: 4fc7 533c c101 c83a acd4 c539 19b8 01bc
000000e0: 11a5 1fbb 97fe a3bc 4493 77bb 34d7 dc3b
000000f0: e215 363c 617f 7ebb a64c 473c b95f 44bb
00000100: 1c11 32bb 2bd7 09bb 1344 66b9 2065 ae3a
00000110: 2f0e a73b ba8c 5a3b 4f5a 2ebb a7e7 4bbb
00000120: e515 043a 5c56 083a c32d 90ba a3b7 bcbc
00000130: 03f5 28bc 4eed 053c ba14 b43b 5807 0e3c
00000140: ec9c cfbb 479a 06bc 434d 6f3c 19c0 d93a
00000150: d1b4 c9ba ece7 7d3b a350 333c 6b68 dc3a
00000160: 6115 f83a f774 b9ba 03a4 67bc a21e aebc
00000170: ad26 6e3c 1a2c 1ebc 9a2c 81bb 5d02 84bc
00000180: 668d b9bb 9900 09ba a4e6 c33b f8f3 08bb
00000190: b29d 48bb c1a0 b0bb 7aa0 b4bb 5e94 41bb
000001a0: 4900 69bb 8ce9 8839 78f9 8bbc dd42 b0bb
000001b0: fb45 32ba 4440 1ebc 36f3 cd3b 1484 70bb
000001c0: 3ee0 203b 9ac6 e23a 4ac1 15bc 11de 2abc
000001d0: 0c0b 233c e063 bfba 4b09 eeba 39ae 84bb
000001e0: b477 753b 0c3c 1a3c b2e1 e83b 50bb 0a3b
000001f0: bca9 993c e051 59bc cddd ec39 dbb5 f2ba
00000200: 969a 0bbb b940 0dbb f3e5 373b 9bd4 6d3b
00000210: 5ce2 d6bc a109 8eba 6f7f 96bb 74a8 56ba
00000220: f9cb 08bc 7a12 56bb d0d2 c83a cfae d0bb
00000230: b709 3a3c 1dbd 08bc ea3c 723a 79e5 16bc
00000240: bde6 443d 0dd6 b6ba 8be1 5e3c 8dfd e33a
00000250: 68b6 1aba e05a 80bb bedb 043c 78f5 253a
00000260: f8fd eaba 64e1 03bb e6e0 b1ba 2406 b63a
00000270: da72 13bb 158f 453b 77bf 3cba 167b a7ba
00000280: cfcd 353c 8b71 e53b 7256 b33a fe17 ed3a
00000290: f3a8 9aba 5d5a 63ba ed5c a6ba 15f8 d63b
000002a0: a3c4 dd3a 1f27 4239 5608 e4bb 6658 943c
000002b0: 037b 4d3c 4544 56b9 c04a 98bb 3153 18bc
000002c0: dd3e d5bb a75d 9f3b c777 213a eb56 00bb
000002d0: 7d22 2a3a 82ab 933b 3f6a 273b 53d0 403a
000002e0: 743d 8b3a 6387 89ba 2345 cfbb 2e79 893c
000002f0: c452 8f3a e27b 7fbc 2889 1e3c 4e85 5e3b
00000300: 14b5 663a 375e 433a 6028 62bb 5a9f 39bb
00000310: f4c6 19bc f414 76bb cb56 ceb9 4ab7 feba
00000320: 64c9 b4bc 8d8b 873b 3fcf cfba 35d6 59bb
00000330: d05b fcb9 1ded 1ebb 7489 e53b bab2 a23b
00000340: f5f3 53bb a36d 03bc 9563 1a3c 20db e9b9
00000350: 7f4f 60bb 6d2f 8fba 4e40 153b 7682 55bb
00000360: 4aea e5bb 20b8 863b 6572 ba3a 9f7a dfba
00000370: 6981 043d ea33 d7ba 3de2 ce3b b7aa 42b9
00000380: 567a 0ebb c659 74bb 8857 82b9 da5e b5ba
00000390: 3e76 8e39 882d 6a3c 090a 11bb 0000 953c
000003a0: 5eec 6e3b 41b4 83bb 7b99 6ebb 3dce 09bc
000003b0: aeba f1bc 9262 1b3a d70f f33b ad90 64ba
000003c0: dfd0 933b 534a 6dbb 339e 7cbb 9b53 8cba
000003d0: dbf1 53bc 79b9 3f3b 677f a3bb 5c54 863a
000003e0: 5925 683c e72d c83b b148 6f3a 5145 8b3b
000003f0: 36b6 3ebc 9182 033b ff51 2c3a 43ac 5b3c
0.0017464607 0.0015750575 0.008962471 0.0012478457 -0.0041358797 0.0019445891 0.0026213282 0.0061315894
-0.015719999 0.0016058411 -0.0013603676 0.004823808 0.003539484 -0.008033074 -9.679302e-05 -0.0047218427
0.0059241178 0.0056328587 -0.0025869613 -0.0006756763 -0.0008086079 -0.0060512857 0.003752789 0.012964333
-0.008036459 -0.0042502624 -0.0018873462 0.0027050208 0.00073639204 -0.006837386 -0.0009364786 -0.0008811569
-0.013044371 0.001757094 -0.0045268573 -0.0020809802 0.0014779428 0.004337928 0.0023611616 0.023367312
0.010050527 -0.005272263 0.0040051765 -8.968827e-05 0.0005750867 0.006704414 0.025156192 -0.0016906597
-0.014409629 -0.0004442154 -0.0026039565 -0.0013520897 0.012925937 0.0015259312 0.0003773322 -0.007917427
-0.0024359862 -0.020018859 -0.0037776986 0.0067395214 0.011113616 -0.0038833248 0.0121642705 -0.0029964282
-0.0027170843 -0.002103279 -0.00021959869 0.0013305284 0.0050981264 0.003334804 -0.002660412 -0.0031113417
0.0005038663 0.0005200857 -0.0010999966 -0.023036784 -0.010312322 0.008174254 0.005495635 0.008668743
-0.006335845 -0.0082154935 0.014605823 0.0016613036 -0.001538897 0.0038742973 0.010944518 0.0016815787
0.001892727 -0.0014149238 -0.014138225 -0.021254841 0.014535588 -0.009654069 -0.0039420845 -0.016114408
-0.005662608 -0.00052262243 0.0059784222 -0.002089737 -0.0030611572 -0.005390257 -0.0055122944 -0.0029537897
-0.0035553148 0.00026113947 -0.01708673 -0.0053790645 -0.0006800589 -0.009658877 0.0062850965 -0.0036699818
0.0024547721 0.001730162 -0.009140322 -0.010428921 0.009951364 -0.0014601909 -0.0018160729 -0.0040490893
0.0037455382 0.00941373 0.007106983 0.0021168776 0.018757693 -0.013264149 0.00045178682 -0.0018517332
-0.0021301857 -0.002155347 0.0028060644 0.0036290053 -0.026230983 -0.001083661 -0.004592828 -0.00081885536
-0.008349412 -0.0032664821 0.0015321616 -0.006368495 0.011354855 -0.008345869 0.0009240644 -0.009209984
0.04807161 -0.001394929 0.013603578 0.001739429 -0.00059018144 -0.003917083 0.008109031 0.0006330828
-0.0017928472 -0.0020123357 -0.0013571053 0.0013887328 -0.0022498877 0.0030145098 -0.00072001613 -0.0012777771
0.011096432 0.007002061 0.0013682379 0.0018088815 -0.0011799618 -0.0008672828 -0.0012692489 0.0065603354
0.0016919564 0.00018515855 -0.0069590015 0.018108558 0.012541535 -0.00020434063 -0.004647583 -0.009297178
-0.006507738 0.004863459 0.0006159511 -0.0019583057 0.00064901245 0.0045065293 0.0025545505 0.00073552615
0.0010623173 -0.0010492619 -0.0063253804 0.016781416 0.00109347 -0.015593501 0.009676255 0.0033953968
0.00088007865 0.0007452699 -0.0034508929 -0.002832374 -0.009385813 -0.003754911 -0.00039356048 -0.0019433287
-0.022068687 0.004136509 -0.0015854611 -0.003323925 -0.0004813359 -0.0024250217 0.007004911 0.0049651535
-0.0032341455 -0.008021745 0.009423156 -0.00044604484 -0.003422707 -0.0010924168 0.0022773924 -0.0032578981
-0.007016455 0.004111305 0.0014224766 -0.0017050094 0.032349978 -0.001641867 0.006313591 -0.00018564878
-0.0021740398 -0.0037284954 -0.00024860748 -0.0013837472 0.00027172448 0.014293082 -0.0022131226 0.018188477
0.0036456804 -0.0040192907 -0.00364074 -0.008410987 -0.029507961 0.0005927469 0.0074176597 -0.0008719068
0.0045109834 -0.003620763 -0.0038546443 -0.0010706069 -0.012936081 0.0029254837 -0.004989553 0.001024853
0.014169061 0.0061089876 0.00091279583 0.0042502065 -0.011640122 0.0020066837 0.00065734977 0.01340777

action_model._continuous_distribution.mu.bias f4 [2]
00000000: ed77 933c 0f8c c13c
0.018001521 0.023626355
