MLAgents Jumper Exercise/Assets/results/beta_1/JumperAgent/JumperAgent-499800.onnx (onnx, 570158 bytes, 15 tensors)

network_body.observation_encoder.processors.0.normalizer.running_mean f4 [26]
0.75288564 0.7703273 0.7528962 0.7706957 0.7528962 0.7706957 0.7530061 0.7718938
0.7530061 0.7718938 0.7531209 0.77422905 0.7531209 0.774229 0.76317513 0.7848064
0.76317513 0.78480643 0.7963198 0.8121382 0.7963174 0.81213677 0.8384383 0.8476054
0.8384383 0.8476054
00000000: 1dbd 403f 2c34 453f cebd 403f 504c 453f
00000010: cebd 403f 504c 453f 02c5 403f d59a 453f
00000020: 02c5 403f d59a 453f 88cc 403f e033 463f
00000030: 88cc 403f df33 463f 725f 433f 12e9 483f
00000040: 725f 433f 13e9 483f 9ddb 4b3f 4ae8 4f3f
00000050: 75db 4b3f 32e8 4f3f e4a3 563f abfc 583f
00000060: e4a3 563f abfc 583f

network_body.observation_encoder.processors.1.normalizer.running_mean f4 [2]
0.113143094 -0.027001511
00000000: 91b7 e73d 4632 ddbc

network_body._body_endoder.seq_layers.0.weight f4 [256, 28]
0.04142085 -0.22593664 0.23050247 -0.18800344 0.1919048 0.2658655 -0.028267335 -0.28099197
0.060775388 0.12960581 -0.18615864 -0.00870034 0.017111557 -0.07977076 -0.016657755 -0.07750333
0.06338832 -0.16483034 0.11428109 0.20171581 -0.20157251 0.049817905 -0.2703572 0.012036498
-0.08416012 -0.15859081 0.0018542493 0.171716 0.13165827 0.079964235 -0.18502553 0.27007377
0.057758257 0.10798465 0.13292341 0.08355091 -0.14953148 -0.023221485 0.0032842527 0.0061563957
-0.14954464 0.03597632 0.16847593 0.18216129 -0.00019419294 -0.07245212 0.2414581 -0.22030994
-0.13743776 -0.45217052 0.057807595 -0.17439005 -0.17440218 -0.1548384 -0.045955174 -0.113462426
0.14104405 -0.01708919 0.3076869 0.13303135 -0.16430348 -0.118502885 0.24999394 -0.13379072
0.031990606 -0.12707913 0.15521629 -0.09584655 -0.048165396 -0.16441898 0.17086244 0.124756046
-0.0071712313 -0.013538297 0.29798314 0.047524065 -0.03524034 0.050082754 -0.005520136 0.08260436
0.037154585 0.08539865 0.31414425 0.27180216 0.010652278 -0.10347612 -0.28702343 -0.09125269
0.17161463 0.049427208 -0.26081428 -0.19987734 0.34505433 -0.19465016 0.16303138 -0.09529173
-0.14907257 0.22942187 -0.09550484 -0.007606332 -0.04267911 0.20902732 0.021364614 0.0124431
-0.10259359 -0.23838931 -0.19326514 0.2755412 -0.088122204 -0.111163706 -0.445671 0.05673993
0.15983377 -0.09719089 -0.0413104 0.18296279 0.05991536 -0.009409293 -0.26207605 0.012943924
0.09062641 -0.15730307 -0.22010902 0.098083675 -0.25287327 -0.10558989 0.1160467 0.0670223
0.031922717 0.2868174 -0.29121852 0.1145941 -0.18919674 0.28017795 0.0771672 0.0951901
-0.011721976 -0.11270956 0.35793135 0.078396544 0.2516058 -0.3985501 0.15307237 -0.042595208
-0.10635846 0.14345005 0.16738135 -0.11745351 -0.006853925 -0.089931026 0.020225478 0.007594185
-0.14899674 0.054411747 -0.027275065 -0.033666823 -0.27978814 -0.122628696 0.14824472 0.019778723
-0.17717546 0.3186518 0.3088965 -0.008585468 -0.035306185 0.05859204 0.027526021 -0.052100312
0.15864412 0.13306798 0.15411346 -0.17356701 -0.23189977 0.13354993 -0.015329007 0.14453082
0.052768584 0.14617762 -0.018356021 -0.091051154 -0.25921273 0.020537876 0.28117037 0.18321553
-0.046171017 -0.324363 -0.3276964 -0.17437315 0.10039823 -0.2405937 -0.43689877 0.15129559
0.17145231 0.18162999 0.049846362 0.47266626 0.24992096 -0.23106273 -0.10731169 -0.19405481
0.2893319 0.16874152 0.28199744 -0.025593258 0.07335063 -0.26050156 -0.22522746 -0.2315099
-0.022736322 -0.08821884 0.25042737 0.031862788 0.07654589 -0.04009831 0.21829982 -0.078290135
-0.20787409 0.10402122 0.052531075 -0.3784544 0.08789638 -0.0093084 0.31336507 -0.26599166
-0.16523227 0.20852256 -0.06784072 -0.113677144 0.16340625 0.31648803 0.092146285 -0.042509053
-0.2648832 -0.008467316 -0.23244786 -0.08911199 0.30250746 0.22471371 0.1268507 -0.07017033
0.017777288 0.19624962 0.016687125 -0.11825037 -0.19370095 -0.0906789 -0.2667611 -0.2064781
0.09809648 -0.016666176 -0.18411861 -0.52285117 0.2246586 0.3046481 0.21320608 -0.04486535
00000000: e9a8 293d ef5b 67be d708 6c3e f983 40be
00000010: b182 443e 861f 883e e690 e7bc 2ede 8fbe
00000020: 9def 783d 63b7 043e 5fa0 3ebe df8b 0ebc
00000030: 892d 8c3c da5e a3bd d875 88bc 11ba 9ebd
00000040: bcd1 813d 49c9 28be 340c ea3d 978e 4e3e
00000050: 0669 4ebe dc0d 4c3d 426c 8abe bb34 453c
00000060: 245c acbd a165 22be 480a f33a 52d6 2f3e
00000070: 6dd1 063e 4ac4 a33d 5577 3dbe 1c47 8a3e
00000080: ec93 6c3d 0e27 dd3d 131d 083e bd1c ab3d
00000090: c81e 19be fc3a bebc 9e3c 573b 97bb c93b
000000a0: 3b22 19be e85b 133d f484 2c3e 7d88 3a3e
000000b0: 45a0 4bb9 c761 94bd cb40 773e ee98 61be
000000c0: 7cbc 0cbe e582 e7be a8c7 6c3d 4e93 32be
000000d0: 7c96 32be f58d 1ebe 7e3b 3cbd fd5e e8bd
000000e0: da6d 103e a1fe 8bbc 2389 9d3e 5f39 083e
000000f0: 2c3f 28be a4b1 f2bd 69fe 7f3e 6f00 09be
00000100: 9508 033d 0821 02be 05f1 1e3e 324b c4bd
00000110: 1449 45bd 735d 28be 90f6 2e3e 1980 ff3d
00000120: a6fc eabb bccf 5dbc 3f91 983e 98a8 423d
00000130: 2d58 10bd 9323 4d3d 42e2 b4bb 7a2c a93d
00000140: 682f 183d 7de5 ae3d 84d7 a03e a729 8b3e
00000150: e486 2e3c 4aeb d3bd bcf4 92be b1e2 babd
00000160: bfbb 2f3e 2f74 4a3d 7389 85be a5ac 4cbe
00000170: f6aa b03e 5f52 47be b3f1 263e 4f28 c3bd
00000180: 7ba6 18be 91ed 6a3e 0b98 c3bd 8a3e f9bb
00000190: 4ad0 2ebd 420b 563e d804 af3c 25de 4b3c
000001a0: 971c d2bd 541c 74be 4ce7 45be bc13 8d3e
000001b0: 6a79 b4bd cca9 e3bd fd2e e4be 2168 683d
000001c0: 77ab 233e 040c c7bd 1835 29bd 995a 3b3e
000001d0: cf69 753d 6f29 1abc d52e 86be c112 543c
000001e0: 579a b93d 0e14 21be 4264 61be 18e0 c83d
000001f0: 9b78 81be 833f d8bd e4a9 ed3d fd42 893d
00000200: 65c1 023d bbd9 923e 981a 95be 50b0 ea3d
00000210: cabc 41be 7c73 8f3e d609 9e3d 07f3 c23d
00000220: 880d 40bc 45d4 e6bd c742 b73e 5e8e a03d
00000230: 7ad2 803e c20e ccbe 01bf 1c3e 5078 2ebd
00000240: 77d2 d9bd 92e4 123e 0466 2b3e 778b f0bd
00000250: e496 e0bb c22d b8bd e7af a53c a4d8 f83b
00000260: 9a92 18be dade 5e3d f56f dfbc 39e6 09bd
00000270: 6440 8fbe c124 fbbd 77cd 173e fd06 a23c
00000280: 7c6d 35be 5426 a33e af27 9e3e 10aa 0cbc
00000290: 389d 10bd 35fe 6f3d 407e e13c 2367 55bd
000002a0: 9b73 223e f942 083e ebcf 1d3e 8dbb 31be
000002b0: 2277 6dbe 50c1 083e 8426 7bbc e3ff 133e
000002c0: df23 583d 96af 153e 5e5f 96bc 0779 babd
000002d0: 88b7 84be 0c3f a83c 90f5 8f3e da9c 3b3e
000002e0: d21d 3dbd e812 a6be d3c7 a7be e08e 32be
000002f0: 969d cd3d 325e 76be 32b1 dfbe 3bed 1a3e
00000300: 3291 2f3e 36fd 393e b32b 4c3d 5001 f23e
00000310: 48eb 7f3e b59b 6cbe 3bc6 dbbd 4eb6 46be
00000320: 5023 943e 94ca 2c3e f861 903e f4a8 d1bc
00000330: db38 963d 7660 85be 07a2 66be ee10 6dbe
00000340: 8641 babc 14ac b4bd 0438 803e 8e82 023d
00000350: 17c4 9c3d 203e 24bd fd89 5f3e 9456 a0bd
00000360: f2dc 54be 1409 d53d d32a 573d c6c4 c1be
00000370: 0403 b43d 4282 18bc 6371 a03e 0f30 88be
00000380: a632 29be f086 553e 13f0 8abd 90cf e8bd
00000390: f853 273e b80a a23e 31b7 bc3d f91d 2ebd
000003a0: c59e 87be 7fba 0abc d006 6ebe 5980 b6bd
000003b0: 42e2 9a3e 5a1b 663e 26e5 013e 76b5 8fbd
000003c0: ada1 913c a9f5 483e 70b3 883c 402d f2bd
000003d0: 8b59 46be dcb5 b9bd e994 88be ff6e 53be
000003e0: cfe6 c83d 8187 88bc 9789 3cbe 93d9 05bf
000003f0: e70c 663e d6fa 9b3e b252 5a3e bbc4 37bd

network_body._body_endoder.seq_layers.0.bias f4 [256]
-0.0193394 -0.00973055 -0.0065984763 0.01664556 0.013438957 -0.010593448 0.0039387466 0.0010394227
-0.009070852 -0.039935656 -0.018377488 0.009318676 -0.074832335 -0.009238472 -0.031005982 -0.0057378896
-0.010040485 -0.011048765 -0.0030706883 -0.018613096 -0.02718118 -0.0018512731 0.0041774786 0.010225462
-0.015409736 0.001732336 0.0012288996 -0.013402556 -0.008614792 -0.0013629547 -0.0013398606 -0.023857212
0.009655917 0.009413007 -0.013494594 -0.0048291744 0.002105137 0.0070821173 0.013544207 -0.020683942
0.009510534 -0.021194391 -0.0061609414 -0.0019380293 0.018645365 -0.0060452665 0.014096638 -0.013914994
0.0013606497 -0.014112916 0.00979809 0.007881146 -0.014781632 -0.016968127 -0.04146604 0.0073178075
-0.008325989 -0.01606224 -1.2004255e-05 -0.036858857 -0.020894552 -0.0053976695 0.00317365 -0.00951993
0.0044957395 -0.030863727 -0.042325832 -0.004567322 -0.015286438 -0.0062146266 -0.030125098 -0.026741909
-0.029735694 -0.020530721 0.010559218 -0.0187922 -0.018366357 -0.009443342 -0.020640094 0.0029591687
-0.011554339 -0.030150332 -0.011266926 0.0038361764 0.0032816327 -0.03333607 -0.02333048 0.006234497
-0.010264093 -0.016437348 -0.015107781 -0.004160843 -0.02693995 -0.010517516 -0.008751324 -0.00071992265
-0.018406892 0.004644895 -0.0090130605 -0.022371031 -0.0027507064 -0.03479044 -0.006530018 0.011410865
0.003942522 0.0021799447 -0.027442532 -0.025005823 0.0028955766 -0.024835695 -0.032476548 -0.0050024264
0.005698511 -0.00566686 -0.01576032 -0.0037225373 -0.0035191022 -0.015610646 -0.0034112574 0.013081943
-0.022148909 0.009340549 -0.02835924 0.019042376 -0.025371611 0.00878068 0.002732236 -0.002020014
-0.00279494 0.016448252 -0.01934167 0.012917506 -0.016197404 -0.010581477 -0.02478896 0.009918191
-0.0051030316 -0.013353128 -0.030726338 -0.012177108 -0.021872055 -0.020391999 -0.0023182258 -0.022464724
-0.012274814 -0.00068554515 -0.0042210203 0.009372075 -0.029206805 0.00028295378 -0.0021668717 -0.020515442
-0.021870568 -0.023069281 -0.01898968 0.013520924 -0.012412632 0.0023130125 -0.015533986 -0.009643311
-0.0045166113 -0.011856265 -0.0037192367 0.012908371 0.018021045 0.012403377 -0.028244194 -0.033666085
-0.007346162 -0.0015160104 -0.0048102313 -0.031889837 -0.02145986 -0.010280927 0.017520124 -0.024600592
-0.010495704 0.023258567 0.0099382335 0.0028842082 -0.027651869 -0.023062209 -0.020001948 -0.021137852
-0.0105359135 -0.029763335 -0.0009361747 -0.028398404 -0.0050499993 0.02001428 0.011386799 -0.007532029
-0.030937102 -0.022211816 -0.011182043 0.011069656 -0.008078309 -0.0036913895 0.012068992 -0.017253462
0.0010376519 -0.027221072 -0.015323484 0.00513096 -0.009924942 -0.02355887 -0.04352248 -0.013937987
-0.010876094 -0.0036820944 0.0065617138 -0.02274517 0.0058758087 -0.033214606 -0.026714073 0.0038782123
-0.022622684 -0.017688718 -0.01910119 -0.010484129 -0.03287339 -0.012924587 -0.019179324 -0.016670201
0.007576859 0.005314826 -0.004475974 0.012032082 -0.0030348115 -0.0147905545 -0.006335418 -0.025555002
-0.00021545605 -0.02782109 -0.0020921375 -0.02953311 -0.018288324 -0.0225704 -0.022397371 0.00015602454
-0.040992297 -3.2745203e-05 -0.009330474 -0.0016541156 0.015175079 0.016225887 -0.0043390593 -0.023144685
0.012340932 -0.012531407 -0.005296377 -0.02026814 -0.02589856 -0.007372282 -0.022167234 -0.009943197
00000000: a96d 9ebc e36c 1fbc 0838 d8bb 455c 883c
00000010: 122f 5c3c 2490 2dbc 9a10 813b 3d3d 883a
00000020: e99d 14bc 9293 23bd 638c 96bc 5cad 183c
00000030: b241 99bd f65c 17bc 4200 febc e804 bcbb
00000040: d980 24bc e105 35bc 9a3d 49bb 7e7a 98bc
00000050: 11ab debc 6ba6 f2ba 3be3 883b b288 273c
00000060: 1e79 7cbc 8d0f e33a 0713 a13a 6596 5bbc
00000070: 0e25 0dbc 2ca5 b2ba 439e afba 3370 c3bc
00000080: da33 1e3c 0339 1a3c 6e18 5dbc 0d3e 9ebb
00000090: 57f6 093b 1b11 e83b 86e8 5d3c 5f71 a9bc
000000a0: 12d2 1b3c dc9f adbc b9e1 c9bb 7905 feba
000000b0: 2abe 983c 5f17 c6bb 96f5 663c b7fb 63bc
000000c0: d457 b23a dc39 67bc 2b88 203c ec1f 013c
000000d0: a92e 72bc be00 8bbc 4bd8 29bd 38ca ef3b
000000e0: bb69 08bc f594 83bc e265 49b7 50f9 16bd
000000f0: 0d2b abbc efde b0bb 03fd 4f3b 7bf9 1bbc
00000100: ff50 933b edd5 fcbc da5d 2dbd 79a9 95bb
00000110: f873 7abc 11a4 cbbb e9c8 f6bc d911 dbbc
00000120: 4598 f3bc 0b30 a8bc 9200 2d3c 1af2 99bc
00000130: 0b75 96bc 3fb8 1abc 6a15 a9bc 9dee 413b
00000140: 694e 3dbc d4fd f6bc ea98 38bc 5c68 7b3b
00000150: a910 573b 678b 08bd 901f bfbc c04a cc3b
00000160: ba2a 28bc 9ea7 86bc a086 77bc ae57 88bb
00000170: 2cb1 dcbc a951 2cbc b761 0fbc 31b9 3cba
00000180: 0dca 96bc 3434 983b 84ab 13bc 7443 b7bc
00000190: 3245 34bb 6c80 0ebd c3f9 d5bb a3f4 3a3c
000001a0: 4630 813b 67dd 0e3b 29cf e0bc 03d9 ccbc
000001b0: b7c3 3d3b 3a74 cbbc 2106 05bd 65eb a3bb
000001c0: 93ba ba3b 11b1 b9bb c91b 81bc d0f5 73bb
000001d0: bda0 66bb ccc3 7fbc 678f 5fbb a555 563c
000001e0: a171 b5bc 1a09 193c a351 e8bc c2fe 9b3c
000001f0: 20d8 cfbc d7dc 0f3c 500f 333b 3662 04bb
00000200: 502b 37bb 7cbe 863c 6c72 9ebc f2a3 533c
00000210: 6bb0 84bc ee5d 2dbc 3812 cbbc e87f 223c
00000220: 5537 a7bb 14c7 5abc cdb5 fbbc 7e82 47bc
00000230: 062d b3bc 1f0d a7bc 60ed 17bb f107 b8bc
00000240: 4d1c 49bc 28b6 33ba 7c50 8abb 558d 193c
00000250: 1c43 efbc 6a59 9439 1302 0ebb 0010 a8bc
00000260: e829 b3bc cafb bcbc 3f90 9bbc de86 5d3c
00000270: 5a5e 4bbc e995 173b 4282 7ebc fafe 1dbc
00000280: 1500 94bb c840 42bc 70be 73bb a27d 533c
00000290: dfa0 933c 8937 4b3c 5e60 e7bc 73e5 09bd
000002a0: 13b8 f0bb deb4 c6ba 259f 9dbb eb9e 02bd
000002b0: 97cc afbc 5571 28bc 5d86 8f3c 2e87 c9bc
000002c0: 2cf6 2bbc c088 be3c f9d3 223c fc04 3d3b
000002d0: 2c86 e2bc f5ec bcbc 20db a3bc 4a29 adbc
000002e0: d39e 2cbc 3dd2 f3bc 9f69 75ba c5a3 e8bc
000002f0: 777a a5bb fdf4 a33c b28f 3a3c 3dcf f6bb
00000300: ce6f fdbc 8ef5 b5bc e334 37bc 815d 353c
00000310: e25a 04bc 3deb 71bb 05bd 453c 2257 8dbc
00000320: d201 883a bafe debc 5a0f 7bbc 9d21 a83b
00000330: 399c 22bc 88fe c0bc a144 32bd 285c 64bc
00000340: a531 32bc 4b4f 71bb a503 d73b 1454 babc
00000350: db89 c03b 0a0c 08bd 79d7 dabc 9b29 7e3b
00000360: 3553 b9bc eee7 90bc 197a 9cbc a0c5 2bbc
00000370: 3fa6 06bd a6c1 53bc f51d 9dbc f28f 88bc
00000380: 4d47 f83b fe27 ae3b 31ab 92bb 3622 453c
00000390: b0e3 46bb 1554 72bc 5799 cfbb b958 d1bc
000003a0: 0bec 61b9 0ee9 e3bc 3e1c 09bb 6cef f1bc
000003b0: 65d1 95bc 8fe5 b8bc b17a b7bc 859a 2339
000003c0: 8ae7 27bd e557 09b8 d8de 18bc e9ce d8ba
000003d0: e5a0 783c 27ec 843c ab2e 8ebb ec99 bdbc
000003e0: 9f31 4a3c 8850 4dbc 3b8d adbb 5f09 a6bc
000003f0: 3829 d4bc 2f93 f1bb 0f98 b5bc cae8 22bc

network_body._body_endoder.seq_layers.2.weight f4 [256, 256]
-0.011033331 -0.07132459 -0.005305811 -0.12734462 0.07416758 0.09852151 0.064451896 0.11203932
0.049064662 -0.018597754 -0.028119605 0.05010739 0.037912678 -0.013073314 0.004808233 -0.06888326
0.031252924 -0.027158245 0.06411813 0.0059753964 -0.09159936 0.0142964935 -0.010836093 0.010361928
0.033185717 -0.017149996 -0.02844826 -0.12356718 0.06664087 -0.046382103 0.00859082 0.034318086
-0.032989144 -0.0073548257 -0.04105105 0.023965321 0.06259287 0.031274777 -0.13630286 0.12898932
-0.03569402 -0.042024627 0.044500303 0.064320005 0.022099173 -0.049675576 0.12184074 0.019188851
-0.08445049 0.025719311 0.016502993 -0.053227164 -0.06734196 0.023600973 0.045735065 0.03040332
0.069448866 0.05558482 -0.107677735 0.08943157 -0.017389344 0.060370542 -0.09503769 0.08641041
-0.011659584 0.07918278 0.00078531605 -0.0668514 -0.10655749 -0.12049907 -0.043171972 -0.009862758
-0.0034982255 0.017058535 -0.058271144 -0.037926376 -0.084303744 0.0064237877 -0.037464064 -0.0069825836
-0.0058776145 0.031827897 -0.061993893 -0.04887302 -0.06841281 -0.045550637 -0.04519936 -0.056855366
0.1617414 0.049457222 0.056539312 -0.07121582 -0.03206506 -0.0820982 -0.01522915 0.0436446
-0.0335243 0.058685124 -0.0014844218 -0.028285008 0.012732461 0.02706232 0.07934645 0.12206114
0.022028176 0.010833863 -0.013150479 -0.026119422 -0.11397049 -0.12497135 0.04076248 -0.086935595
0.013494603 0.10737793 0.11622591 0.053150315 -0.041389067 -0.15669616 -0.074003376 -0.12872133
-0.07856513 -0.02169812 0.05352392 -0.1037962 0.036993764 0.08849791 0.004953488 0.075548
-0.07468846 0.044789862 -0.059136223 0.12931262 -0.0649011 0.099613935 -0.016938679 0.09510461
0.06205692 -0.09287463 0.032625247 -0.0024255759 0.0113171525 -0.03993341 -0.03984291 -0.013105108
-0.0419466 -0.013912702 0.0058033806 0.02639231 -0.07677184 0.02147078 0.02159883 -0.053494565
-0.07643241 -0.038839303 0.0017705107 -0.0050258054 0.018920118 -0.0029489377 -0.033182014 -0.014994034
0.03642844 0.12078153 -0.0068971068 0.023760624 -0.013666966 -0.0938286 -0.022005375 0.030740267
-0.007291872 -0.10068952 -0.01189247 -0.12172653 0.08165671 -0.06843278 -0.000636314 0.052556816
0.007431365 -0.032336377 0.00995191 -0.03256797 0.035970047 -0.15765414 0.0052136136 -0.043014683
0.0021750317 0.017358858 0.087226406 0.010159618 -0.013240595 -0.067643255 -0.11368614 0.047606196
0.023247713 0.11940606 0.04286245 0.07068855 -0.05528221 0.015293329 0.055521283 0.0035122654
-0.05312559 0.02695999 0.051085763 -0.021832056 0.033518936 0.09514316 0.059357338 -0.005096978
-0.048111636 0.0024846576 0.014218534 -0.020797752 -0.026144898 0.054201767 0.07514011 -0.024846848
0.031095639 0.029433522 -0.0012764297 -0.019699963 -0.059241276 0.022734912 0.034897756 0.093008295
-0.07591152 0.12701072 0.13816844 -0.019178411 -0.09197857 -0.016260318 0.13424344 -0.006099014
0.076797575 0.0045184125 0.05204097 0.08494534 -0.03443734 0.021259109 0.020224229 -0.003722583
-0.062028363 -0.009754336 -0.017173015 -0.04993152 0.041766796 0.005977887 -0.047894884 0.023101239
0.12406926 0.031071704 0.013690022 0.01641579 0.15712813 -0.04587756 -0.05232189 0.007581438
00000000: 25c5 34bc a012 92bd 5edc adbb a166 02be
00000010: 2ce5 973d a5c5 c93d 5bff 833d df74 e53d
00000020: 07f8 483d 515a 98bc 165b e6bc 683d 4d3d
00000030: 534a 1b3d 7431 56bc 628e 9d3b ab12 8dbd
00000040: 1103 003d f87a debc 5e50 833d 42cd c33b
00000050: 7298 bbbd d73b 6a3c de89 31bc 13c5 293c
00000060: bfed 073d 267e 8cbc 530c e9bc ca10 fdbd
00000070: 027b 883d 29fb 3dbd 83c0 0c3c 1f91 0c3d
00000080: a01f 07bd c000 f1bb 2525 28bd ec52 c43c
00000090: b130 803d fb19 003d fa92 0bbe c715 043e
000000a0: e533 12bd 0422 2cbd f345 363d 35ba 833d
000000b0: 5309 b53c 9e78 4bbd a387 f93d f031 9d3c
000000c0: 61f4 acbd 4eb1 d23c 4931 873c ba04 5abd
000000d0: 95ea 89bd d456 c13c b154 3b3d 6210 f93c
000000e0: 353b 8e3d e9ac 633d 2586 dcbd e627 b73d
000000f0: 1974 8ebc 1a47 773d 1fa3 c2bd f1f7 b03d
00000100: d707 3fbc 952a a23d abdd 4d3a 63e9 88bd
00000110: d03a dabd 37c8 f6bd 18d5 30bd 6897 21bc
00000120: 7c42 65bb 57be 8b3c b9ad 6ebd b058 1bbd
00000130: 71a7 acbd a37e d23b eb73 19bd 28ce e4bb
00000140: 0199 c0bb f85d 023d 4fed 7dbd 132f 48bd
00000150: 041c 8cbd 4e93 3abd f722 39bd 2ce1 68bd
00000160: 8a9f 253e a893 4a3d c495 673d 9ad9 91bd
00000170: a756 03bd 1a23 a8bd af83 79bc aec4 323d
00000180: c750 09bd d05f 703d ee90 c2ba f6b5 e7bc
00000190: d09b 503c ccb1 dd3c 6480 a23d 31fb f93d
000001a0: 6f74 b43c 8480 313c 1b75 57bc 66f8 d5bc
000001b0: 5c69 e9bd fbf0 ffbd 8ff6 263d 4a0b b2bd
000001c0: 7818 5d3c f6e8 db3d da07 ee3d 25b4 593d
000001d0: 9587 29bd f574 20be 158f 97bd 86cf 03be
000001e0: c1e6 a0bd 41c0 b1bc e63b 5b3d 1a93 d4bd
000001f0: c686 173d 643e b53d de50 a23b e9b8 9a3d
00000200: 43f6 98bd 9375 373d d338 72bd 876a 043e
00000210: deea 84bd 6402 cc3d fcc2 8abc 35c6 c23d
00000220: 662f 7e3d 0e35 bebd 0da2 053d 69f6 1ebb
00000230: 946b 393c 3791 23bd 5232 23bd cfb6 56bc
00000240: 33d0 2bbd 1af2 63bc 492a be3b b034 d83c
00000250: 8e3a 9dbd 7de3 af3c 08f0 b03c 1e1d 5bbd
00000260: 9888 9cbd f615 1fbd 7b10 e83a 83af a4bb
00000270: 5dfe 9a3c f742 41bb dde9 07bd 89a9 75bc
00000280: fd35 153d 4f5c f73d 2001 e2bb a4a5 c23c
00000290: 69eb 5fbc 3629 c0bd 9e44 b4bc 03d3 fb3c
000002a0: a8f0 eebb 4f36 cebd a2d8 42bc c24b f9bd
000002b0: a23b a73d 7c26 8cbd 4fce 26ba d145 573d
000002c0: cf82 f33b 2673 04bd 560d 233c fe65 05bd
000002d0: 5455 133d 1670 21be f6d6 aa3b 2a30 30bd
000002e0: fa8a 0e3b 2a34 8e3c c2a3 b23d 8774 263c
000002f0: 15ef 58bc 8c88 8abd 47d4 e8bd b7fe 423d
00000300: fd71 be3c 2a8b f43d 8990 2f3d 29c5 903d
00000310: 996f 62bd df90 7a3c 496a 633d 092e 663b
00000320: 389a 59bd 32db dc3c 4e3f 513d 24d9 b2bc
00000330: 274b 093d 6bda c23d ae20 733d 8d04 a7bb
00000340: b510 45bd a3d5 223b dbf4 683c 0c60 aabc
00000350: d32d d6bc ac02 5e3d 0fe3 993d 9e8b cbbc
00000360: 48bc fe3c 921e f13c e04d a7ba d161 a1bc
00000370: fba6 72bd 913e ba3c f3f0 0e3d 227b be3d
00000380: 8077 9bbd 190f 023e 077c 0d3e 0b1c 9dbc
00000390: 435f bcbd 5c34 85bc 1d77 093e 3dda c7bb
000003a0: 0c48 9d3d 310f 943b ea28 553d d3f7 ad3d
000003b0: 2b0e 0dbd 9527 ae3c 48ad a53c 94f6 73bb
000003c0: 7411 7ebd a7d0 1fbc 6cae 8cbc fe84 4cbd
000003d0: a913 2b3d 27e2 c33b 6d2d 44bd cf3e bd3c
000003e0: 0618 fe3d 168a fe3c 1d4c 603c 687a 863c
000003f0: 32e6 203e 1cea 3bbd 7a4f 56bd b66d f83b

network_body._body_endoder.seq_layers.2.bias f4 [256]
-0.01639344 -0.020065667 -0.0030558095 -0.0061605996 0.0055856803 -0.0059715 -0.01098821 -0.0112971645
0.0009883911 -0.0064727603 0.00048752245 -0.009977997 0.015383139 -0.0026460744 -0.0011503218 -0.027098265
0.008810361 -0.013653811 0.017352717 -0.014578417 -0.011160751 -0.010410422 -0.009260695 -0.010181544
-0.010505455 -0.003386601 -0.010269065 0.0045734383 0.004022693 -0.008247046 -0.0031016904 -0.004096571
0.0029561487 -0.0011297147 0.0012855966 -0.014602462 0.0056298063 0.009602751 -0.01926734 0.000405705
-0.006064751 -0.0056932047 -0.02744225 -0.018060083 -0.0013188805 -0.020209648 0.013664051 -0.02325994
-0.015510275 -0.019717595 -0.018075697 -0.0071854326 -0.0076108403 -0.0024829097 0.0014441975 0.007515248
-0.013767207 -0.0028158359 0.00042473705 -0.009081564 -0.014123552 -0.013699537 -0.0028380088 -0.026778365
-0.008056306 -0.01300553 -0.012420843 -0.011494456 -0.02233301 -0.009235414 0.0021629978 -0.008881972
-0.004478606 -0.014466539 -0.01432329 -0.016166728 -0.008366231 -0.0070629925 -0.00824611 -0.010721353
0.0019049433 -0.0145077 -0.0023450677 -0.009649277 -0.00024951703 -0.013395807 -0.010872988 -0.015528234
-0.0116762575 -0.011892771 -0.018099695 -0.0072423383 -0.019373039 -0.012124322 -0.0064898185 -0.008437092
0.0024790193 -0.01056596 -0.00724776 -0.005897603 0.004328358 0.009309197 0.006754731 -0.016704414
-0.007830166 -0.005942142 -0.014145871 0.0031114963 0.008816055 -0.00639833 -0.006003912 -0.008624285
-0.0024217947 0.0006858124 0.006399376 -0.0012960259 0.011566599 -0.022254528 -0.017304046 -0.0054196967
-0.021473972 -0.017490717 -0.012761386 0.006997874 0.016293326 -0.012447732 -0.009969519 0.011867263
-0.0056901514 -0.02202614 0.001013432 0.0015845628 -0.016020011 0.004412367 -0.014961974 -0.0033667195
0.013973726 -0.016141454 0.00097114086 -0.027005868 -0.0027309682 0.0076057976 0.018625084 0.010518327
-0.016027616 5.4949043e-05 -0.0061676395 -0.0069332705 0.005280694 -0.0010101841 0.003844113 -0.003070432
-0.015539972 -0.0017251377 -0.012162356 -0.005459442 -0.009575092 -0.010990766 0.00423035 -0.011495576
-0.00080233044 0.006066104 0.005696029 -0.0004612074 -0.014485553 -0.0069281147 0.022289352 -0.009648744
0.0047593485 -0.011591767 -0.029100558 -0.022631036 -0.012378209 0.014368889 0.012441594 -0.0106891375
-0.01058019 -0.005462447 -0.008513181 0.008022395 -0.0045288573 0.002567654 -0.002504919 0.012472385
-0.014904786 -0.009400741 0.014805313 -0.009915456 -0.007325114 -0.007638123 -0.029750982 -0.026275307
-0.01736095 0.0030597006 -0.0076759313 -0.006170656 -0.010885966 -0.02251195 -0.013701121 -0.020705229
-0.01267703 -0.020880422 -0.005204376 -0.005105072 -0.009937722 -0.008802246 -0.012192128 -0.009120764
-0.013610972 0.0092704315 -0.03164679 -0.0030150292 -0.01496424 -0.014594487 -0.028513245 -0.010945706
0.018808747 -0.02351254 -0.008064106 0.018241111 -0.027469866 0.0017698655 -0.013347237 -0.00907633
-0.012867633 -0.009845879 -0.008231149 -0.015737507 0.011396232 0.0021844674 -0.008230164 -0.0021813875
-0.0129109565 -0.005738361 -0.013878139 -0.015776698 0.007937666 0.0041411063 -0.0044068466 -0.0085076885
-0.0069204527 0.003947319 -0.008134993 -0.009263085 -0.0051165675 0.010041467 -0.0038569656 -0.010202624
-0.014748987 -0.018106658 -0.009772688 -0.03027503 0.005495413 -0.020898752 -0.008766754 -0.012385098
00000000: 894b 86bc c160 a4bc fa43 48bb dbde c9bb
00000010: 1508 b73b 93ac c3bb e507 34bc be17 39bc
00000020: e78c 813a 7319 d4bb 289a ff39 c17a 23bc
00000030: 9009 7c3c c369 2dbb 65c6 96ba 2efd ddbc
00000040: 5559 103c 3cb4 5fbc 4927 8e3c 50da 6ebc
00000050: 95db 36bc 7a90 2abc 2cba 17bc 7ed0 26bc
00000060: 121f 2cbc bdf1 5dbb 953f 28bc c8dc 953b
00000070: cbd0 833b 9e1e 07bc bb45 4bbb 873c 86bb
00000080: f2bb 413b ef12 94ba 7781 a83a 2a3f 6fbc
00000090: 3d7a b83b db54 1d3c 8ad6 9dbc ceb4 d439
000000a0: d2ba c6bb 108e babb 92ce e0bc bdf2 93bc
000000b0: 49de acba b48e a5bc 2fdf 5f3c a18b bebc
000000c0: cf1e 7ebc cb86 a1bc 7c13 94bc c773 ebbb
000000d0: 5b64 f9bb 50b8 22bb 3a4b bd3a 7842 f63b
000000e0: da8f 61bc e389 38bb 3eaf de39 d7ca 14bc
000000f0: 7866 67bc 0674 60bc e3fd 39bb 4d5e dbbc
00000100: 99fe 03bc 2615 55bc cb80 4bbc 3e53 3cbc
00000110: b7f3 b6bc 2250 17bc 15c1 0d3b b185 11bc
00000120: 45c1 92bb 1005 6dbc 3cac 6abc 1670 84bc
00000130: 8412 09bc ad70 e7bb b11a 07bc 9da8 2fbc
00000140: 4aaf f93a b4b1 6dbc b5af 19bb 0018 1ebc
00000150: 9cd1 82b9 167a 5bbc 9e24 32bc 226a 7ebc
00000160: c64d 3fbc e6d9 42bc d045 94bc 2351 edbb
00000170: 35b4 9ebc 18a5 46bc 8ba8 d4bb bb3b 0abc
00000180: 0b77 223b d91c 2dbc 9e7e edbb ae40 c1bb
00000190: e6d4 8d3b 9a85 183c ca56 dd3b b2d7 88bc
000001a0: 194a 00bc 4db6 c2bb 15c4 67bc 3fea 4b3b
000001b0: 3771 103c 15a9 d1bb 77bc c4bb e04c 0dbc
000001c0: f9b6 1ebb 17c8 333a dbb1 d13b 6adf a9ba
000001d0: d581 3d3c 214f b6bc 37c1 8dbc b697 b1bb
000001e0: 2fea afbc b148 8fbc 2215 51bc 6c4e e53b
000001f0: 9579 853c 92f1 4bbc 3257 23bc e96e 423c
00000200: 7374 babb 2a70 b4bc 23d5 843a 1bb1 cf3a
00000210: 663c 83bc 9e95 903b 1123 75bc 2ea4 5cbb
00000220: 0ef2 643c 153b 84bc 2994 7e3a 693b ddbc
00000230: 0bfa 32bb 0e3a f93b a293 983c 1055 2c3c
00000240: 594c 83bc 1679 6638 e919 cabb 7d30 e3bb
00000250: ac09 ad3b 2768 84ba 84ed 7b3b 4d39 49bb
00000260: 5e9b 7ebc 041e e2ba 9e44 47bc 1ee5 b2bb
00000270: d9e0 1cbc 9d12 34bc bf9e 8a3b f157 3cbc
00000280: 7c53 52ba 2bc6 c63b c1a5 ba3b 36ce f1b9
00000290: d054 6dbc 3d05 e3bb 2998 b63c c415 1ebc
000002a0: 4ff4 9b3b 65eb 3dbc 4b64 eebc b964 b9bc
000002b0: f9cd 4abc 7d6b 6b3c d4d7 4b3c 7e21 2fbc
000002c0: 8958 2dbc 54fe b2bb de7a 0bbc 5d70 033c
000002d0: cf66 94bb 1646 283b 9129 24bb f958 4c3c
000002e0: 3433 74bc 9105 1abc fc91 723c 7074 22bc
000002f0: 8307 f0bb 3849 fabb 55b8 f3bc 503f d7bc
00000300: 8d38 8ebc 4285 483b 6186 fbbb 3733 cabb
00000310: 0d5b 32bc fb6a b8bc ab7a 60bc 039e a9bc
00000320: 51b3 4fbc 6b0d abbc 7889 aabb 7348 a7bb
00000330: d4d1 22bc 4c37 10bc 7ec1 47bc 426f 15bc
00000340: 8e00 5fbc 02e3 173c 11a0 01bd cc97 45bb
00000350: 922c 75bc b71d 6fbc 9c94 e9bc 9e55 33bc
00000360: cd14 9a3c 5f9d c0bc 501f 04bc 626e 953c
00000370: 7c08 e1bc d5fa e73a 5fae 5abc e3b4 14bc
00000380: c4d2 52bc 9c50 21bc f1db 06bc f2eb 80bc
00000390: 43b7 3a3c 4829 0f3b cfd7 06bc 9cf5 0ebb
000003a0: 7a88 53bc dc08 bcbb 2261 63bc 223e 81bc
000003b0: fc0c 023c 1eb2 873b 4f67 90bb d563 0bbc
000003c0: f7c4 e2bb 8358 813b a248 05bc 32c4 17bc
000003d0: e1a8 a7bb f784 243c 25c5 7cbb e828 27bc
000003e0: bca5 71bc 6a54 94bc a01d 20bc 5703 f8bc
000003f0: de12 b43b dc33 abbc 6ea2 0fbc deea 4abc

network_body._body_endoder.seq_layers.4.weight f4 [256, 256]
-0.04314613 0.053633448 -0.034617826 -0.008713096 -0.0074697617 0.041684877 -0.082870714 -0.029306967
-0.0173003 0.01624635 0.08618553 0.0020567386 0.02247148 0.013136968 -0.006551676 0.04166436
-0.05085686 -0.01017399 -0.058777597 -0.027013518 -0.022735307 0.004229099 0.048928265 0.061488803
-0.06890675 -0.020134602 0.06764276 0.015257495 -0.0034191273 0.032499727 -0.023579719 -0.07120376
0.035099145 0.053044878 0.057202216 -0.040381797 -0.21102716 -0.07540086 0.11155211 -0.041569926
-0.044121195 -0.0021549603 -0.022111394 0.07584808 -0.034999248 0.05856804 -0.0016554492 0.027230404
0.063766986 -0.018106794 -0.06655431 -0.06434114 0.00037217946 0.015944794 -0.13194138 -0.026203496
-0.06718635 0.04493402 -0.039276946 0.023404859 0.009444502 0.022279013 -0.00097119244 0.1190393
-0.1615487 0.13560529 0.048573837 0.06519312 0.10337994 0.1824043 -0.10947721 0.14704405
0.038417336 -0.06526335 0.018853929 0.027300367 0.090877384 0.06084263 -0.029866891 0.026869873
-0.012175581 0.065201364 0.023356792 0.004236739 0.05792425 -0.055567663 0.021811033 0.0011929749
-1.1398032e-05 -0.077478684 0.0011807441 -0.09551112 -0.01483997 -0.06309491 0.01093911 0.052621763
0.005450285 -0.0421866 0.047272496 0.057774715 -0.0048219436 0.1974308 0.100863524 0.07700081
-0.025258074 0.046340298 0.009875717 0.012863966 0.009552023 0.0254485 0.20827098 -0.04753234
0.11314431 -0.0030972965 -0.029268535 -0.09744059 -0.010364271 0.005920075 0.050489787 -0.047754563
0.03871795 0.0042786845 0.03554477 -0.0055470974 0.015406976 -0.07712008 -0.13011639 -0.050078534
-0.05356908 0.09836408 0.11585318 0.01256376 -0.00788224 -0.013443439 -0.20606329 -0.021063989
0.046656676 -0.010210212 0.048904423 -0.06982437 0.094966866 -0.03769399 -0.043976706 -0.08174327
-0.03639125 -0.13219531 0.02043378 -0.106575824 -0.08602723 -0.052118722 -0.05238691 -0.106863834
-0.052486595 0.017722575 0.004450265 0.03125962 -0.004975916 0.041207425 0.026808454 -0.01651878
-0.0735882 0.037011832 -0.062064838 0.001864862 -0.1038332 0.08281902 -0.049349464 0.067409314
-0.009609163 0.05373623 -0.00059052266 -0.0146344 -0.02920762 0.03320821 -0.029604351 -0.010381246
0.024494704 -0.04861427 -0.10509854 0.093029484 -0.08361894 -0.1426731 -0.001145979 -0.004211728
-0.054689914 -0.053428777 0.09872855 0.01938903 0.0021057904 0.018588344 0.02954688 -0.0070338477
0.0219654 0.07259807 0.017381832 0.047095284 -0.029973755 -0.0556384 0.06879179 0.023788419
-0.032387197 -0.11613284 0.027235445 -0.027250953 -0.03490891 -0.029264389 -0.06586577 0.004624746
-0.22515343 0.078227036 0.026042042 0.00018301762 0.19695944 0.00604383 -0.045281477 0.0040112003
0.03389041 0.062390476 -0.007153084 -0.009599142 0.07544385 -0.046620626 0.061443906 0.026473653
0.022730539 0.09066549 -0.017844196 -0.07191014 0.004195733 -0.045160595 -0.054333404 0.037593327
0.01057198 0.00811316 -0.1596292 -0.05262133 0.019174948 0.039305348 0.063301794 -0.0024756233
-0.09888589 -0.018577117 -0.046154868 0.03962302 0.027470618 -0.043250717 -0.056017283 0.001375153
0.09501391 -0.02839967 -0.06360689 0.009723807 0.016693478 -0.07593007 -0.019632123 -0.008252886
00000000: ffb9 30bd bfae 5b3d 6ccb 0dbd 60c1 0ebc
00000010: e7c4 f4bb c3bd 2a3d 1fb8 a9bd 2a15 f0bc
00000020: 5cb9 8dbc 1117 853c 0a82 b03d 59ca 063b
00000030: 1c16 b83c 703c 573c 71af d6bb 3fa8 2a3d
00000040: 484f 50bd cfb0 26bc c7c0 70bd 744b ddbc
00000050: 653f babc 4194 8a3b 0169 483d afdb 7b3d
00000060: fb1e 8dbd 52f1 a4bc 4a88 8a3d 93fa 793c
00000070: 7013 60bb 6f1e 053d 412a c1bc 47d3 91bd
00000080: 1fc4 0f3d 9645 593d df4c 6a3d 6267 25bd
00000090: 8117 58be c46b 9abd 6f75 e43d 3a45 2abd
000000a0: 6db8 34bd 3c3a 0dbb f422 b5bc 3d56 9b3d
000000b0: 5f5b 0fbd 0be5 6f3d a8fb d8ba 4c12 df3c
000000c0: 4498 823d b354 94bc a04d 88bd 4ac5 83bd
000000d0: 1521 c339 a89e 823c a41b 07be b7a8 d6bc
000000e0: ff98 89bd bc0c 383d dde0 20bd 8cbb bf3c
000000f0: 1dbd 1a3c 7a82 b63c 9f97 7eba e0ca f33d
00000100: 066d 25be 1ddc 0a3e 5cf5 463d f883 853d
00000110: ddb8 d33d 31c8 3a3e 9635 e0bd b792 163e
00000120: 7f5b 1d3d cba8 85bd 8e73 9a3c 05a5 df3c
00000130: ec1d ba3d 1f36 793d 69ab f4bc 351e dc3c
00000140: 177c 47bc 4b88 853d be56 bf3c 58d4 8a3b
00000150: fa41 6d3d eb9a 63bd 0dad b23c 985d 9c3a
00000160: 2d3a 3fb7 25ad 9ebd 33c3 9a3a 569b c3bd
00000170: 5823 73bc e737 81bd f439 333c eb89 573d
00000180: 4e98 b23b dbcb 2cbd cea0 413d 2ea5 6c3d
00000190: 6501 9ebb 4d2b 4a3e 8991 ce3d 9ab2 9d3d
000001a0: 05ea cebc 53cf 3d3d c2cd 213c 62c3 523c
000001b0: 1780 1c3c 5f79 d03c fd44 553e 45b1 42bd
000001c0: 34b8 e73d 03fc 4abb 91c4 efbc ef8e c7bd
000001d0: e7ce 29bc 30fd c13b 61ce 4e3d 4a9a 43bd
000001e0: b796 1e3d 3534 8c3b 6597 113d 6dc4 b5bb
000001f0: 8b6d 7c3c 22f1 9dbd 3b3d 05be 261f 4dbd
00000200: 406b 5bbd 1b73 c93d 6f44 ed3d 3bd8 4d3c
00000210: 8324 01bc df41 5cbc 4102 53be 638e acbc
00000220: 121b 3f3d bc48 27bc 0150 483d 1400 8fbd
00000230: fd7d c23d 0365 1abd eb20 34bd 0469 a7bd
00000240: fe0e 15bd 355e 07be be64 a73c 6d44 dabd
00000250: 0b2f b0bd 717a 55bd a893 56bd 6ddb dabd
00000260: 2ffc 56bd ef2e 913c 87d3 913b 160a 003d
00000270: 020d a3bb 1ec9 283d 679d db3c 6452 87bc
00000280: 69b5 96bd b899 173d b337 7ebd 636e f43a
00000290: 80a6 d4bd 059d a93d aa22 4abd e50d 8a3d
000002a0: c06f 1dbc 851a 5c3d 4ecd 1aba 1fc5 6fbc
000002b0: d244 efbc 5505 083d d384 f2bc 1a16 2abc
000002c0: 1ea9 c83c c21f 47bd e73d d7bd 3e86 be3d
000002d0: 6840 abbd e618 12be ad34 96ba 8902 8abb
000002e0: 8802 60bd 22d8 5abd 3232 ca3d bed5 9e3c
000002f0: 4d01 0a3b 9546 983c 4c0c f23c 317c e6bb
00000300: c8f0 b33c 4cae 943d 5864 8e3c fce6 403d
00000310: 858b f5bc 17e5 63bd b6e2 8c3d eedf c23c
00000320: 70a8 04bd 0ed7 edbd de1c df3c 643d dfbc
00000330: a5fc 0ebd dfbb efbc a2e4 86bd 2e8b 973b
00000340: 9f8e 66be 7f35 a03d 1f56 d53c 6be8 3f39
00000350: bcaf 493e 520b c63b 1279 39bd 6370 833b
00000360: acd0 0a3d 288d 7f3d 6b64 eabb b845 1dbc
00000370: 4e82 9a3d 45f5 3ebd 9bac 7b3d 46df d83c
00000380: 6535 ba3c d4ae b93d fe2d 92bc a045 93bd
00000390: 5c7c 893b 51fa 38bd b48c 5ebd 76fb 193d
000003a0: 1936 2d3c 0fed 043c d675 23be 7789 57bd
000003b0: c814 9d3c a5fe 203d 5fa4 813d 113e 22bb
000003c0: af84 cabd 0a2f 98bc e30c 3dbd bf4b 223d
000003d0: 100a e13c aa27 31bd 6172 65bd 7a3e b43a
000003e0: a796 c23d 6da6 e8bc 5444 82bd 9a50 1f3c
000003f0: c3c0 883c 3981 9bbd 8cd3 a0bc 1d37 07bc

network_body._body_endoder.seq_layers.4.bias f4 [256]
-0.022180554 -0.0026568256 0.0037508595 -0.01504743 -0.013928761 -0.020226503 -0.02016344 0.011733806
-0.010199708 -0.0016116229 0.00049398124 -0.01000578 0.009342079 -0.031667992 0.011982934 -0.0090451315
-0.00065797777 -0.033848356 -0.020607475 -0.022383943 -0.005991772 0.008750514 -0.0037306277 0.017830126
-7.3300136e-05 0.0023751552 -0.01875967 -0.022380274 0.007327908 0.012147388 0.00030777467 -0.008977179
-0.014307107 0.010851741 -0.005388841 -0.024307529 -0.0017800819 -0.0030885264 0.0006746089 0.010667715
0.006092522 -0.015940959 0.014462074 -0.017342344 -0.02032357 -0.007947418 -0.005772231 -0.023316298
-0.004841266 0.0012617438 -0.017031759 0.0049326946 -0.015538355 0.016915994 -0.0026868554 0.01292976
-0.009132422 -0.021274561 -0.03325771 0.008334193 -0.014699074 -2.820001e-05 0.0135431 -0.003271245
-0.025392745 0.013316338 -0.0338577 -0.002544881 -0.007318382 0.011779915 -0.024178905 -0.00910984
0.007041751 -0.0010901641 -0.0010603139 -0.031131903 -0.016743833 0.0053003733 0.004734737 0.016640252
-0.003556925 0.0043701455 -0.013135312 -0.023497269 -0.028522667 -0.009966867 0.009816638 0.011723862
-0.0026133775 -0.0015495435 -0.0017398177 -0.029818933 0.018096898 -0.029173458 -0.0011400214 -0.023182299
-0.0031918937 -0.0008490935 -0.00823874 -0.009628477 -0.019419363 -0.008939685 -0.030716015 -0.0013927863
-0.007992003 0.016925065 -0.014907327 -0.0021066016 0.0057956153 -0.029218718 -0.0068987603 0.004647776
0.0042346874 0.014588152 -0.03388367 -0.007678036 0.0061766384 -0.008444141 -0.03074954 -0.028620958
-0.0058163097 -0.014791464 0.012957659 0.006213682 0.0015913126 -0.039463904 0.00670534 0.0006795469
-0.014816118 -0.004777424 -0.0073419996 0.009748281 -0.02037044 -0.0066024344 -0.010797133 -0.015558105
-0.002341699 -0.029686917 -0.008648094 0.0013625261 -0.02515445 -0.005303834 0.010064641 -0.008916387
0.016653616 -0.008240148 0.007847624 -0.003750426 -0.025036478 -0.017081048 -0.00088008126 0.010390611
-0.0054039853 -0.0150187425 0.006410445 0.0019181495 -0.01479392 -0.027769871 -0.023401296 -0.013342773
0.0058694137 -0.011975655 -0.023621771 0.013798662 0.008176319 0.013710247 -0.016211784 0.012946474
0.0017300441 0.0058259387 0.0049058264 0.008904728 -0.016510118 -0.007756887 -0.0362619 -0.034361005
-0.009451222 0.0120185865 0.012266569 -0.0075654443 -0.008208862 0.0011599665 0.013441601 0.0051212744
-0.02284143 0.0055704517 -0.0021278027 0.00035816102 -0.011825278 -0.006310792 -0.011212802 0.013553292
-0.01540529 -0.01569448 -0.012808792 -0.030754762 -0.016118651 0.0022680762 -0.018376863 0.0027901938
-0.013943477 -0.011430931 -0.018417794 -0.006290812 -0.020192737 -0.011730585 0.00061969773 -0.017617164
0.0017931117 -0.010734085 -0.0064598653 0.0027281689 0.0028996754 -0.0010611715 -0.02086068 -0.004014871
-0.009863837 -0.02352175 0.0037060094 -0.0076592504 0.01421463 -0.012102116 -0.0057790247 -0.01194244
-0.02357617 -0.015997805 -0.0070194495 -0.0072503346 -0.0037666806 -0.00995875 -0.027348766 -0.0012195719
-0.023267219 0.013661179 0.0013888828 -0.016953975 -0.0084773125 -0.01363079 -0.033487543 -0.011495112
-0.013346431 -0.0026846204 -0.022619063 0.0037705563 -0.02774255 -0.02114495 0.001583786 0.016936282
0.001877071 0.015477623 -0.013874433 0.0054203053 -0.024878228 0.0020311 -0.011418159 0.009518762
00000000: feb3 b5bc 231e 2ebb fbd0 753b 7f89 76bc
00000010: 7535 64bc 0db2 a5bc cc2d a5bc 263f 403c
00000020: ad1c 27bc 173d d3ba 857e 013a 48ef 23bc
00000030: 850f 193c 4cb6 01bd 1154 443c 0832 14bc
00000040: 247c 2cba 93a4 0abd 02d1 a8bc 885e b7bc
00000050: a056 c4bb 515e 0f3c 8c7d 74bb 7c10 923c
00000060: b6b8 99b8 7ea8 1b3b e1ad 99bc d656 b7bc
00000070: f31e f03b d705 473c d15c a139 0515 13bc
00000080: 5b68 6abc 80cb 313c e094 b0bb 9520 c7bc
00000090: a351 e9ba e068 4abb 3dd8 303a a4c7 2e3c
000000a0: c7a3 c73b 9d96 82bc 56f2 6c3c 8811 8ebc
000000b0: 9e7d a6bc e335 02bc fc24 bdbb d201 bfbc
000000c0: 7ca3 9ebb 1961 a53a 3086 8bbc 71a2 a13b
000000d0: 9694 7ebc 6993 8a3c f415 30bb 58d7 533c
000000e0: 27a0 15bc fd47 aebc 3d39 08bd 248c 083c
000000f0: 63d4 70bc 0f8f ecb7 e1e3 5d3c 6262 56bb
00000100: 7204 d0bc c52c 5a3c 5fae 0abd 05c8 26bb
00000110: 0acf efbb 8b00 413c d712 c6bc 7041 15bc
00000120: 7dbe e63b d6e3 8eba 3bfa 8aba 5508 ffbc
00000130: 5d2a 89bc c1ae ad3b da25 9b3b 2351 883c
00000140: 4d1b 69bb 7033 8f3b 7e35 57bc 587d c0bc
00000150: 5ea8 e9bc 124c 23bc f7d5 203c 7115 403c
00000160: 3345 2bbb 0d1a cbba 980a e4ba d646 f4bc
00000170: f23f 943c 2dfd eebc c56c 95ba cee8 bdbc
00000180: 172f 51bb b395 5eba c8fb 06bc c2c0 1dbc
00000190: 5b15 9fbc c277 12bc 27a0 fbbc 278e b6ba
000001a0: e4f0 02bc 6fa6 8a3c dc3d 74bc e90e 0abb
000001b0: 25e9 bd3b 185c efbc ff0e e2bb 5f4c 983b
000001c0: 22c3 8a3b 2503 6f3c 9ac9 0abd 0998 fbbb
000001d0: 6665 ca3b 4b59 0abc 76e6 fbbc 8076 eabc
000001e0: be96 bebb e657 72bc 5c4c 543c 249c cb3b
000001f0: 9793 d03a e7a4 21bd 78b8 db3b 9f23 323a
00000200: 4ebf 72bc f08b 9cbb 2895 f0bb 41b7 1f3c
00000210: e9df a6bc 3c59 d8bb 75e6 30bc 6ce7 7ebc
00000220: 3177 19bb fa31 f3bc bcb0 0dbc ca96 b23a
00000230: b510 cebc c9cb adbb 2ae6 243c 0a16 12bc
00000240: 2a6d 883c b001 07bc 5293 003c b5c9 75bb
00000250: 4d19 cdbc 8eed 8bbc 41b5 66ba 623d 2a3c
00000260: ea13 b1bb 2c11 76bc b60e d23b 6b6a fb3a
00000270: 3362 72bc a47d e3bc 13b4 bfbc a59b 5abc
00000280: 3654 c03b 8a35 44bc 7282 c1bc c913 623c
00000290: f8f5 053c f2a0 603c 93ce 84bc 731d 543c
000002a0: a6c2 e23a 84e7 be3b 0ec1 a03b 23e5 113c
000002b0: 3a40 87bc 7c2d febb 5c87 14bd 20be 0cbd
000002c0: 4cd9 1abc 9be9 443c b8f9 483c 8ce7 f7bb
000002d0: 767e 06bc 040a 983a 293a 5c3c 5dd0 a73b
000002e0: f31d bbbc 5688 b63b 9b72 0bbb 8fc7 bb39
000002f0: d0be 41bc c3ca cebb e6b5 37bc a00e 5e3c
00000300: 7866 7cbc b691 80bc f8db 51bc 69f1 fbbc
00000310: 430b 84bc 01a4 143b 138b 96bc afdb 363b
00000320: 2e73 64bc cd48 3bbc eae0 96bc 2823 cebb
00000330: 3d6b a5bc a431 40bc 3673 223a df51 90bc
00000340: d806 eb3a 04de 2fbc 47ad d3bb 14cb 323b
00000350: 7b08 3e3b 0217 8bba 04e4 aabc 2e8f 83bb
00000360: ee9b 21bc afb0 c0bc 85e0 723b 73fa fabb
00000370: 7be4 683c f447 46bc f95d bdbb 39aa 43bc
00000380: d022 c1bc d40d 83bc 6903 e6bb 3794 edbb
00000390: 6ada 76bb 062a 23bc 850a e0bc 0bda 9fba
000003a0: e59a bebc 23d3 5f3c 2c0b b63a 10e3 8abc
000003b0: 6de4 0abc ad53 5fbc 3c2a 09bd ff55 3cbc
000003c0: fdaa 5abc 75f0 2fbb 9d4b b9bc 701b 773b
000003d0: 5844 e3bc 2d38 adbc 0a97 cf3a f5bd 8a3c
000003e0: 0d08 f63a db95 7d3c 9751 63bc d19c b13b
000003f0: 6dcd cbbc 341c 053b 3b13 3bbc 95f4 1b3c

action_model._continuous_distribution.log_sigma f4 [1, 2]
-0.017636558 -0.025878211
00000000: 8b7a 90bc 8bfe d3bc

action_model._continuous_distribution.mu.weight f4 [2, 256]
-0.0009648839 -0.006090935 0.012843389 -0.0034541276 -0.0068011614 -0.011813697 -0.004536813 0.0044540325
-0.025204893 -0.01274491 -0.002638866 -0.003772819 0.0059892796 -0.016813021 -0.001652561 -0.0088824015
0.0034267432 -0.0058130585 -0.006926012 -0.000422044 -0.0025097313 -0.004550884 -0.0060678227 0.008181556
-0.0041157533 -0.003638064 0.0016800476 0.0036959609 0.0016376887 -0.010220285 0.00637247 -0.008541483
-0.01894678 0.004895647 -0.0039780927 -0.02309086 0.0036907007 0.00028976187 0.0029497887 0.009513176
0.010724744 -0.0048436467 0.004468053 0.0021249172 -0.007488464 -0.0009496015 0.004604318 -0.0099541135
-0.007796059 -0.007574311 -0.004257543 -0.001054024 -0.0012486932 0.0024288506 -0.0029668047 -0.0042936713
-0.0014008888 -0.024618056 -0.015256635 0.0035761306 0.0008170277 0.002380395 0.009612529 0.0030369035
-0.018453324 0.000820453 -0.0057164063 -0.0006332656 -0.0015945125 0.0010627996 -0.013580265 -0.0039202054
-0.00066517096 -0.009464244 -0.0035806089 -0.038571335 -0.008744825 0.0068583433 0.0044991868 0.004719897
-0.011007857 -0.007979781 0.0014849196 -0.017660556 -0.010607512 -0.0018905541 0.014443034 0.00052667054
-0.007025721 -0.0028375885 -0.015193496 -0.025564872 0.0046779485 -0.013906066 -0.0005293639 -0.01126217
-0.011016718 -0.0029263252 0.0014230061 -0.0020340055 -0.00611624 -0.01335585 -0.02808426 -0.0025394189
-0.008002202 0.0029416936 -0.016841859 9.439182e-05 -0.0008553695 -0.020709312 0.0006085611 -0.0014358115
0.0012625061 0.013828462 -0.032277383 -0.006322408 0.009993278 -0.0022631525 -0.010141112 -0.012283412
0.0009271325 0.0022700906 0.014587296 0.0027639018 0.009616129 -0.023564119 0.0056218766 -0.0004399564
-0.0037965938 0.0016901818 -0.0013998385 0.005482098 -0.03842112 -0.005118248 -0.01460939 0.004627507
-0.005312115 -0.011479491 0.0028542648 -0.009104945 -0.005884525 -0.010878353 -0.0043688817 -0.009266893
0.024106255 0.0017834762 0.004856308 0.002233181 -0.0148764 0.0010787451 0.0021066966 -0.0042353813
-0.0013718539 0.0013618474 -0.00045677405 -5.2959236e-05 -0.0051181903 -0.01632573 -0.010171784 -0.0045890915
0.012128153 -0.005008665 -0.006850017 -0.0011673678 -0.0038371051 -0.0016563493 -0.009534723 0.005297024
-0.0011447478 0.0020997226 -0.0041078352 0.0051735593 -0.008358351 -0.00075606 -0.02810622 -0.029750878
-0.008384836 0.001423476 0.0050682356 -0.0035730696 -0.0035657955 0.0053630006 0.002945353 -0.003307209
-0.0031025428 0.016369693 -0.004178008 0.008890242 0.0015157977 -0.012080979 0.0034253641 0.0033832535
-0.00091502647 -0.005174556 0.0024324574 -0.015941344 -0.01517684 -0.0023894894 -0.003918917 -0.0023876098
-0.014617938 -0.00015692037 -0.009078086 -0.0045353384 -0.0030562682 0.0005555297 0.004815469 -0.00046687768
-0.006740897 -0.01417758 -0.0010218945 0.003659029 -0.006013474 -0.003726464 -0.0055141193 -0.0011875035
-0.004120143 -0.0069395364 0.0026624643 -0.0026504146 0.012010132 -0.0010265224 -0.0012066399 0.00027601418
-0.009163066 -0.004875712 -0.0024948588 -0.0025111048 0.00027849426 0.007474929 -0.01372715 0.009165781
-0.0007443004 -0.0032951063 -0.0105630765 -0.024382116 -0.029853713 0.0004674082 -0.0068365196 -0.0046166303
-0.006479873 -0.0007400851 -0.012564683 -0.005011675 -0.019935856 -0.00328896 -0.004424373 -0.0026006994
0.0077586025 0.0048152427 -0.0015706597 0.007651915 -0.012715739 -0.0010297413 0.003821514 0.01107623
00000000: 43f0 7cba 7796 c7bb 146d 523c a55e 62bb
00000010: 47dc debb 3d8e 41bc 8ca9 94bb 22f3 913b
00000020: 7e7a cebc 07d0 50bc d3f0 2cbb 6641 77bb
00000030: b841 c43b 76bb 89bc bf9a d8ba 7e87 11bc
00000040: 3693 603b 787b bebb 9af3 e2bb c945 ddb9
00000050: 4e7a 24bb 951f 95bb 96d4 c6bb ef0b 063c
00000060: 71dd 86bb 966c 6ebb 0b35 dc3a ef37 723b
00000070: b7a7 d63a fb72 27bc 27d0 d03b 94f1 0bbc
00000080: 4736 9bbc aa6b a03b a95a 82bb 0b29 bdbc
00000090: afdf 713b 2eeb 9739 3e51 413b 27dd 1b3c
000000a0: d6b6 2f3c 74b7 9ebb bf68 923b 3242 0b3b
000000b0: ca61 f5bb aeee 78ba d2df 963b 9416 23bc
000000c0: 1576 ffbb ed31 f8bb dc82 8bbb 2d27 8aba
000000d0: 31ab a3ba 5a2d 1f3b b96e 42bb edb1 8cbb
000000e0: 079e b7ba ceab c9bc f7f6 79bc 845d 6a3b
000000f0: cd2d 563a 6700 1c3b de7d 1d3c c906 473b
00000100: 6d2b 97bc ab13 573a b150 bbbb bc01 26ba
00000110: f6fe d0ba a34d 8b3a c37f 5ebc 1175 80bb
00000120: de5e 2eba eb0f 1bbc a6a8 6abb fafc 1dbd
00000130: 7446 0fbc f4bb e03b ea6d 933b 5ea9 9a3b
00000140: 4c5a 34bc a1bd 02bc a2a1 c23a dfac 90bc
00000150: 21cb 2dbc 78cc f7ba 7aa2 6c3c 4310 0a3a
00000160: 0538 e6bb d6f6 39bb 24ee 78bc 6c6d d1bc
00000170: 7a49 993b 45d6 63bc 03c5 0aba f784 38bc
00000180: 777f 34bc 97c7 3fbb 2984 ba3a f34c 05bb
00000190: bd6a c8bb 7fd2 5abc f610 e6bc 616c 26bb
000001a0: ab1b 03bc 6ec9 403b f0f7 89bc 39f4 c538
000001b0: e03a 60ba 93a6 a9bc d887 1f3a d731 bcba
000001c0: ad7a a53a c690 623c 4a35 04bd 342c cfbb
000001d0: d9ba 233c 6651 14bb e826 26bc 5d40 49bc
000001e0: cf0a 733a cdc5 143b 8eff 6e3c 9422 353b
000001f0: f88c 1d3c 8a09 c1bc b837 b83b f3a9 e6b9
00000200: 46d0 78bb 1789 dd3a c97a b7ba 2ca3 b33b
00000210: 775f 1dbd fab6 a7bb 395c 6fbc 58a2 973b
00000220: 4011 aebb 7a14 3cbc 9e0e 3b3b e82c 15bc
00000230: f9d2 c0bb 1f3b 32bc d628 8fbb 2bd4 17bc
00000240: 7b7a c53c 88c3 e93a aa21 9f3b 8f5a 123b
00000250: 25bc 73bc ae64 8d3a 8110 0a3b f4c8 8abb
00000260: c7cf b3ba 0480 b23a 2d7b efb9 8c20 5eb8
00000270: 7eb6 a7bb 8abd 85bc 8ea7 26bc 1760 96bb
00000280: 29b5 463c ba1f a4bb 1b76 e0bb 5d02 99ba
00000290: f177 7bbb dc19 d9ba 8737 1cbc a892 ad3b
000002a0: 5d0b 96ba 809b 093b 059b 86bb f686 a93b
000002b0: 77f1 08bc 5432 46ba 043f e6bc 1db8 f3bc
000002c0: 8d60 09bc ee93 ba3a 7113 a63b 292a 6abb
000002d0: 1fb0 69bb 1cbc af3b d306 413b c2bd 58bb
000002e0: 0854 4bbb bc19 863c ace7 88bb 61a8 113c
000002f0: bbad c63a 4cef 45bc 137c 603b 93b9 5d3b
00000300: 63de 6fba 528f a9bb dd69 1f3b 6c97 82bc
00000310: 48a8 78bc fb98 1cbb 426a 80bb 7279 1cbb
00000320: 1380 6fbc fe8a 24b9 41bc 14bc 2d9d 94bb
00000330: ac4b 48bb f8a0 113a 15cb 9d3b 43c7 f4b9
00000340: bee2 dcbb 1549 68bc 17f1 85ba 52cc 6f3b
00000350: ad0c c5bb b137 74bb c9af b4bb 01a6 9bba
00000360: 4402 87bb 0d65 e3bb bd7c 2e3b 94b2 2dbb
00000370: 25c6 443c 608c 86ba 1e28 9eba ffb5 9039
00000380: af20 16bc 70c4 9fbb c980 23bb 5991 24bb
00000390: de02 9239 40f0 f43b d7e7 60bc 122c 163c
000003a0: 281d 43ba b6f2 57bb c110 2dbc 01bd c7bc
000003b0: c68f f4bc 770e f539 e204 e0bb 1a47 97bb
000003c0: 1d55 d4bb 4502 42ba 1adc 4dbc fa38 a4bb
000003d0: 8550 a3bc 988b 57bb 55fa 90bb 7f70 2abb
000003e0: e03b fe3b 2fc9 9d3b 98de cdba eabc fa3b
000003f0: ad55 50bc 62f8 86ba 5e72 7a3b 1379 353c

action_model._continuous_distribution.mu.bias f4 [2]
0.023645833 0.023071725
00000000: e8b4 c13c ea00 bd3c
