MLAgents Jumper Exercise/Assets/results/JumperAgent_4/JumperAgent/JumperAgent-416474.onnx (onnx, 570158 bytes, 15 tensors)

network_body.observation_encoder.processors.0.normalizer.running_mean f4 [26]
00000000: 68d9 3c3f fcac 453f 68d9 3c3f a4dc 453f
00000010: 68d9 3c3f a4dc 453f 3bdb 3c3f 8a76 463f
00000020: 3bdb 3c3f 8a76 463f 8bdb 3c3f 05a0 473f
00000030: b2db 3c3f 24a0 473f 702c 403f 7fda 4b3f
00000040: 702c 403f 7fda 4b3f 43b0 513f 22bd 5a3f
00000050: 69b0 513f 4abd 5a3f 1016 703f 88e2 723f
00000060: 1016 703f 88e2 723f
0.73769236 0.7721708 0.73769236 0.77289796 0.73769236 0.77289796 0.7377202 0.77524626
0.7377202 0.77524626 0.73772496 0.77978545 0.7377273 0.7797873 0.75067806 0.79630274
0.75067806 0.79630274 0.8190958 0.85444844 0.81909806 0.8544508 0.93783665 0.9487691
0.93783665 0.9487691

network_body.observation_encoder.processors.1.normalizer.running_mean f4 [2]
00000000: 80b5 5b3e 1a14 25bd
0.21455956 -0.040302373

network_body._body_endoder.seq_layers.0.weight f4 [256, 28]
00000000: d802 65be e690 ce3d 4478 eebd df9f f4be
00000010: b566 7d3e bb67 623e 2439 b53d c1e0 773e
00000020: abac ae3d c7ee 61be f0bc 4bbd ec42 d53d
00000030: ece5 d1be c2cc 5cbe ec49 55bd 068d 513e
00000040: 3dfc a73d 50d6 3c3e 31de 733d 1002 a8bb
00000050: c01c 5f3d 2ac9 053d 3724 b33e afc2 e83d
00000060: 2bb8 193e da3d 42bd 6dc9 d3bd 5d74 ecbd
00000070: 3c3c 993d 6ed8 dabd c6c4 90be 421f 27be
00000080: c895 493e b774 0abe 5b0e 07be ed08 573d
00000090: 892a 643e 8e5d 36be 4623 e23e d01c bb3e
000000a0: 44f1 95bd 3228 d3bd 6aba bdbd ff8a 3d3d
000000b0: f10d f83b 6bd2 d8bd d500 7ebd 1d88 b8be
000000c0: d975 63be f017 843e a1f1 843e 9bc1 77be
000000d0: fdcb 12be 6f1d 0abe b964 97be 3890 683e
000000e0: fc07 9dbe 2de9 af3d 2819 07bf 856b bdbe
000000f0: 0516 27bd dc12 5fbd c06e 053e 1108 4dbe
00000100: 9dfc 853d 3db0 84be c0dd 173e bb0d 0ebe
00000110: 20ae fa3e 3b1d 42be 42bc 0d3e f9cf 303d
00000120: 10e1 1b3e 0278 4a3c aa1c 6d3c c055 813e
00000130: 4cd6 06be c5bb 0bbb 857b 38bd 43d3 583e
00000140: d716 a43d 3753 aebe 22c0 49be 7d35 3fbe
00000150: 94df aebd a01c c4bd 0ea6 7a3d 5269 96be
00000160: aa6d 7fbd b113 d0bc a700 cdbd 31db 51be
00000170: a15a 8dbd 5f28 643e 0df5 9cbd 8b87 34be
00000180: f4ed 04be fdca 1e3e 2806 393d 75de e83e
00000190: e886 04be 1e38 ff3d 31af 193e 3cf1 0f3d
000001a0: 2501 3f3e 2979 0b3e 9e96 933b 13bc 00ba
000001b0: 37a1 37bd 89cf 58be 9f90 003f b029 f43d
000001c0: ed6e babd 62b7 8fbd 39ec 6ebe a8e7 ec3d
000001d0: 7d7d 12bd f3a9 fbbd 8646 883e 9c35 bf3d
000001e0: 800d 313e 8a5e 3ebc 6a7e a5bd 5e5f 72bc
000001f0: efc6 1b3e bfce d4bc 4ea7 e3be 30d8 953e
00000200: 3949 243c 505f f7bd 55b7 d7bd 77b3 ac3e
00000210: c84f 1dbd 7be4 803d 4509 afbd a2cf 55be
00000220: 5a9f d13e 5334 2dbe 9135 7c3e ae19 0f3c
00000230: 57a4 173d 3787 98be e4a0 48be c9db 9cbe
00000240: 4873 553e 9d48 063e 8ef3 803d a52e 62bd
00000250: 6da7 00be 2914 cebe 44f1 47bd 84c3 1a3c
00000260: e44e d7bd db6d 3e3d de11 89be cb4d 63be
00000270: 9e5f 923d a66c d63d 49bd da3c f3ae 87bd
00000280: 2b0e ea3c be37 f03d 048c 573e 5cbc c4bd
00000290: 2570 d7bd e614 6c3e 3d1d 7f3c 4305 c8bd
000002a0: 645e 07be 4585 0e3d ed2b f0be aa23 6fbe
000002b0: 83b3 a23d 364f fc3d 7b23 80be 1211 ba3c
000002c0: db1d 55bd 68d8 32be d322 a33d bd98 7d3e
000002d0: 6f01 13bd 3f8b b53d 1091 ddbc 32bb ae3d
000002e0: ac1b e6be 260a 11bc 0717 35be 2fdb 8abd
000002f0: 00c9 6cbe fff5 563d 0dbb 973e 380c 473d
00000300: 06be c23d 671d 45be a2a6 1c3e f97e 103f
00000310: 69bc ac3c 1285 9dbd 5595 8abd 72c4 40be
00000320: d331 683c 93eb 313e ab9e a83e c63b 36be
00000330: efab c7bd 03ab f53d bdd1 093e 7a83 143e
00000340: 4ad4 71bd 8f27 9a3e d928 3bbd d551 863d
00000350: 2daa 7ebd 445d 09be effa 80be 5986 263d
00000360: 33a9 62be 65fc 073d 991c b0bc 4ad5 663d
00000370: 82db 45bd bb6f dcbd 7157 6b3e ac50 03be
00000380: 55f0 6e3e 7243 a63b 5aad f53d 2202 253e
00000390: 74d0 d13e ee87 aabe 3062 cd3c 2bcc 11be
000003a0: 6a05 b73d e9d4 883d d387 de3d ddf9 633e
000003b0: decb cf3d e3c3 96bc 05f4 a63e e41c 003e
000003c0: 0c55 95be dc1b cd3c 51b1 7fbd 8832 273e
000003d0: 576e 5e3e 7b82 873e 0edd 61be 3fc6 79be
000003e0: f4d9 d73c f953 323e 3d89 643c 0876 b0be
000003f0: dc35 823e ea02 18bf cf3b 97be de3c c33d
-0.22364366 0.10086231 -0.116440326 -0.47778222 0.24746211 0.22109883 0.08848789 0.2420683
0.085290276 -0.22063743 -0.04974073 0.10413155 -0.4099573 -0.21562484 -0.05207245 0.20463952
0.082024075 0.18441129 0.05953807 -0.005127199 0.054470778 0.032662548 0.34988567 0.11365258
0.15011661 -0.047422267 -0.10341153 -0.11545632 0.07482192 -0.10685812 -0.28275126 -0.16320518
0.19686043 -0.13521086 -0.1318907 0.052498747 0.22281851 -0.17809126 0.44167536 0.3654542
-0.073214084 -0.10310401 -0.09264071 0.046275135 0.0075700213 -0.10587009 -0.062012512 -0.36041346
-0.22212924 0.25799513 0.25965598 -0.24194948 -0.14335628 -0.1348779 -0.29569033 0.22711265
-0.30670154 0.085893966 -0.5277276 -0.36996093 -0.040792484 -0.054461345 0.13030529 -0.20022608
0.06542323 -0.2591571 0.14830685 -0.13872425 0.48960972 -0.18956463 0.13841346 0.04316709
0.15222573 0.012357714 0.014472166 0.25260735 -0.13167685 -0.0021321636 -0.045039672 0.2117434
0.08012169 -0.34047863 -0.19702199 -0.18672748 -0.08538738 -0.09575772 0.06119352 -0.29377228
-0.062360443 -0.025400015 -0.1000989 -0.20493771 -0.06902052 0.22281025 -0.07663927 -0.1762983
-0.12981397 0.15507121 0.045171887 0.4548222 -0.12942088 0.124618754 0.15008236 0.03514217
0.1865278 0.13620438 0.004504039 -0.0004910838 -0.04483148 -0.21172918 0.50220674 0.11922014
-0.09103189 -0.07017399 -0.233323 0.115676224 -0.035764206 -0.122882746 0.26616305 0.09336397
0.17290306 -0.01161922 -0.08080752 -0.014793245 0.15212606 -0.02597749 -0.4446358 0.292665
0.010027223 -0.12078726 -0.10533015 0.3373067 -0.038406163 0.06293579 -0.0854669 -0.20879987
0.40941888 -0.16914491 0.24629809 0.00873415 0.03702196 -0.2979066 -0.19592625 -0.30636433
0.20844758 0.13113637 0.06296454 -0.055220265 -0.12563868 -0.40249756 -0.048814073 0.009446029
-0.10513094 0.046491485 -0.26771444 -0.22197644 0.07147144 0.10469942 0.026701586 -0.06625166
0.028571209 0.11729382 0.21049505 -0.09606239 -0.10519437 0.23054847 0.015570936 -0.097666286
-0.13219601 0.034795064 -0.46908513 -0.23353449 0.079443954 0.12319796 -0.2502707 0.022713218
-0.052030426 -0.17465365 0.079656266 0.24765296 -0.03589004 0.0886445 -0.02704671 0.085317984
-0.44942987 -0.008852517 -0.17684565 -0.06780087 -0.2312355 0.052480694 0.29634896 0.048595637
0.095089 -0.19249497 0.1529794 0.56443745 0.021085935 -0.07691397 -0.06766764 -0.18824938
0.014172035 0.1737502 0.32933554 -0.1779624 -0.097495906 0.119955085 0.13458915 0.1450328
-0.059040345 0.30108306 -0.045693252 0.06558577 -0.06217401 -0.13414484 -0.25191447 0.040655468
-0.22134857 0.033199687 -0.021498011 0.056355752 -0.048305042 -0.107634984 0.22982575 -0.12823743
0.23333867 0.005073958 0.11995955 0.16114095 0.4097935 -0.3330683 0.025071234 -0.1423804
0.089365795 0.066812344 0.1086575 0.22263284 0.101463065 -0.018403953 0.32608047 0.12511021
-0.29166448 0.025037698 -0.06242496 0.1632787 0.21721779 0.26466736 -0.22056982 -0.24392031
0.026349045 0.17414846 0.013948736 -0.3446505 0.25431716 -0.59379447 -0.29537818 0.09533094

network_body._body_endoder.seq_layers.0.bias f4 [256]
00000000: 0277 993b 0107 33bb 3bd2 3e3c 58c0 4f3c
00000010: a281 363c fe6d 813c 01d0 ae3b 471e 9dba
00000020: 0c62 ea3a bd25 403c 0f8b 5bba a702 9c3b
00000030: bae7 4bbb 163c 93ba 2de0 0b3c 6407 d33b
00000040: c4f0 a1bb dd3c 763a 0f0c dfba 3c1a e13b
00000050: b94f be3b 7a1d 0f3c 9865 383c db7d 113b
00000060: 7b50 7039 4104 c83b 51a3 bfbb 263e 393b
00000070: cceb 0b3c 1c30 e939 7d6c c33b 4fc0 c4bb
00000080: 7c85 f3ba 741b 743b c99d 4a3b 3b3d fbbb
00000090: 6f17 00ba 5999 be3b bc2d 67bb 481f 8b38
000000a0: ca19 863b 8f3d 513a 4e29 ef3a 9233 d23a
000000b0: d726 2f3c 245e 79b9 24ab 513a f7bf c8bb
000000c0: 3e45 10bb f822 abba 8c53 d03b 38eb 023c
000000d0: 49a2 5e3c b74e 81b9 270f 18ba 7836 423b
000000e0: 1d04 92ba 37b2 77bb d82e 973c c3bf f73a
000000f0: 817c 463c 84d6 a6bb 86c7 613b b792 03bb
00000100: b4f1 223c 7c3f 373c 2361 cdba d8b7 9abb
00000110: 4c62 7a3b 8ede fa3b f322 c1bb 01cc 5f3c
00000120: 9d7d b93b 69bf 8a3c 5d78 33bb 74b5 813b
00000130: 5cec 833b 83a0 b6bb 87f6 173b 834a f13a
00000140: 13b4 483b 370d 073c 7a09 723c 9658 71ba
00000150: 9615 9c39 86bf d2ba a75c 4a39 0d82 753c
00000160: 0723 203c 26a1 0dbc 634e e43a bbb2 523a
00000170: f007 363b 98e4 203c 24a9 e83b adf2 ce3a
00000180: a1e5 963b 43df cb39 c03a 85bb 8b97 c13b
00000190: 8371 673c 3245 163b 8e4d 163c 4894 993b
000001a0: b218 573b dec0 03bc 3ed2 eb3b c877 3ebb
000001b0: 90f3 0abc fd10 0f3b 2bbf 8bbb a012 ea3a
000001c0: 9bbf 1d3c 565b 2e3c f146 97b8 ed19 c7bb
000001d0: b14d 6fba 3206 633b 4b77 1f3b 579a ba39
000001e0: f5bc 33bb 1674 b1ba 62ae 9039 d97c 48bb
000001f0: 219f 013b bc2d 14bb 244c e73b 7de1 0db9
00000200: edce 7ebb f1d9 103c ed21 1ebb 93ab ac3b
00000210: 9f25 2fbb d00e 163c af65 bebb a0bd 803b
00000220: ea8f 93bb 7652 edba d1f9 1e37 08cb 93bb
00000230: a7df 81ba 3671 b83a dbad a33a e051 533b
00000240: 406a 2dbb f8d7 a53a 0260 8e3b da60 bd3a
00000250: 50d6 de3b ffd7 f7ba bd34 153b a52b b7bb
00000260: db1f 533b bb6e 1c3b 6666 bcb8 5188 cc39
00000270: bf37 a73b 1dc5 8d3b 7d9d 943b 4b6d 153b
00000280: ccb1 e73b d57c 1e3c a264 a5b9 ee13 1f3c
00000290: ca81 d13a 79fd 453c 554d e1ba d74f 563b
000002a0: 0364 9e3a 7425 74b9 140c 0d3c 51fc 8e3b
000002b0: b34b 32ba 3953 183c da02 01bb aa63 573c
000002c0: 136a 093c c62a 1a3c 9da0 9bbb cb60 18bb
000002d0: 2f38 6f3a b9be b0bb 3d17 01b8 be9c caba
000002e0: 5bca f63a b068 853b 2863 9c3b 374a cf3a
000002f0: 35ff 153a 255a 563a 6da9 643b d34b 1d3c
00000300: 7e06 1f3c 3b30 bc3a 1268 223b 2a0b 3e3c
00000310: 22c7 82bb c110 253b 03a5 033c 9671 043b
00000320: b2eb 87bb 1624 d83b 0b15 8bbb c1c8 803b
00000330: 28ea e3ba 89dd 273c 8ab0 b3bb 2f27 6b3b
00000340: 5cea e63b 26cd 34ba e949 3dbb 842c 0a3c
00000350: 1e2e 653b bc3f a23a 8164 273c b8cc c53a
00000360: 9f58 39ba c6dc 8dba fec1 4537 b161 bcba
00000370: 1f36 cbba aec1 003c 401e 19b9 64ba a4bb
00000380: 7a23 10ba 6d8a fe3b fd76 113b 5ecc 963c
00000390: 0835 0cb9 3f3d 093c 9665 c23b 6e52 a8bb
000003a0: bc74 913b 1144 e0ba 23de cc3b cb92 c53a
000003b0: 0862 463b 0106 963c 8eee 373b 4cd2 1fba
000003c0: 40ce 243c 9056 af3a 0ccd 083c de5c 8d3b
000003d0: 32eb a9bb 0430 3d3b 2045 a63b 81ce 043b
000003e0: 1298 163b 3bd3 b63b a0d7 4b3c 165b 173c
000003f0: 3211 b33b ebc5 ea3a 93c2 63bb d399 e7bb
0.0046833763 -0.0027317407 0.011646803 0.012680136 0.011139305 0.015799519 0.0053348546 -0.0011987173
0.0017882003 0.0117277475 -0.00083749084 0.0047610584 -0.0031113462 -0.0011233117 0.008537334 0.00644009
-0.0049420316 0.00093932246 -0.0017017144 0.0068695825 0.0058078435 0.008735055 0.011254691 0.002220026
0.00022918165 0.0061040227 -0.0058483263 0.0028265803 0.008540105 0.00044477067 0.0059638605 -0.0060043703
-0.001857921 0.0037247809 0.0030916801 -0.0076672114 -0.00048863044 0.0058166203 -0.0035275063 6.633863e-05
0.0040924298 0.000798189 0.0018246563 0.0016037098 0.0106904125 -0.0002378156 0.0007998219 -0.0061263996
-0.0022013928 -0.0013056686 0.006357616 0.007990651 0.0135884965 -0.00024663444 -0.0005800598 0.0029634517
-0.0011140142 -0.0037795433 0.018454954 0.0018901754 0.012114645 -0.00509149 0.00344512 -0.0020076463
0.009945322 0.011184569 -0.0015669208 -0.004721623 0.0038205562 0.007655925 -0.005894059 0.013659478
0.005660726 0.016936975 -0.0027384975 0.0039583985 0.004025979 -0.0055733337 0.0023187713 0.0018409047
0.003062491 0.008242897 0.014772767 -0.0009206621 0.0002977072 -0.0016078807 0.00019298737 0.01498462
0.009773976 -0.008644378 0.0017418381 0.0008037497 0.0027775727 0.009820126 0.0071002413 0.0015788876
0.0046050106 0.0003888552 -0.0040658414 0.005907958 0.014126184 0.0022929427 0.009173764 0.004686866
0.0032821116 -0.008041589 0.0071966937 -0.0029063094 -0.008480921 0.0021830194 -0.0042647324 0.0017858334
0.009628202 0.010641893 -7.213455e-05 -0.0060760886 -0.00091287034 0.0034641144 0.0024332579 0.00035591677
-0.002742586 -0.0013538625 0.00027595746 -0.0030591993 0.0019778686 -0.0022610268 0.007058637 -0.00013530809
-0.0038880662 0.008841024 -0.0024129108 0.0052694767 -0.0026725305 0.009158805 -0.0058104615 0.003928855
-0.00450324 -0.001810624 9.475699e-06 -0.004510287 -0.0009908573 0.0014071825 0.0012487726 0.0032244846
-0.0026461035 0.0012652865 0.004344941 0.001444842 0.0068004504 -0.0018908976 0.002276703 -0.0055899196
0.0032215032 0.0023869711 -8.983612e-05 0.00039011476 0.005103081 0.0043264762 0.0045353756 0.002280074
0.0070707556 0.009673317 -0.0003154623 0.009709341 0.0015984115 0.012084358 -0.0017189184 0.0032701397
0.0012084249 -0.00023283606 0.008608837 0.0043635746 -0.0006801441 0.009297186 -0.0019685538 0.01314632
0.0083871065 0.009409612 -0.004749371 -0.0023251052 0.00091254985 -0.0053938297 -3.077764e-05 -0.001545809
0.0018828617 0.0040713176 0.0047725625 0.0015814964 0.0005721928 0.0008176885 0.0034891025 0.009600597
0.009706138 0.0014357636 0.002478127 0.011599341 -0.0039910236 0.0025186988 0.008034947 0.0020209304
-0.00414797 0.0065960987 -0.004244452 0.0039301817 -0.001738851 0.010245689 -0.0054836916 0.003588151
0.007046981 -0.00068970246 -0.0028883165 0.008433465 0.0034970115 0.0012378613 0.010216833 0.0015090918
-0.00070703955 -0.0010823242 1.1787282e-05 -0.0014372376 -0.00155038 0.007858677 -0.00014602486 -0.0050271023
-0.00054984505 0.0077679665 0.0022196167 0.018407997 -0.00013371196 0.008376419 0.00593252 -0.0051367795
0.0044389647 -0.0017110129 0.0062520667 0.0015073655 0.0030270834 0.01831341 0.0028065774 -0.00060967053
0.010058939 0.0013377238 0.008349668 0.004314049 -0.005185508 0.002886773 0.0050741583 0.0020264687
0.0022978825 0.00557938 0.012441546 0.009238025 0.0054646963 0.0017911767 -0.0034753426 -0.007067898

network_body._body_endoder.seq_layers.2.weight f4 [256, 256]
00000000: 9e4b a6bc c20b 903d 8ef2 5bbd 3bfe 253e
00000010: a35b 7c3d 76e4 d33d 5955 c3bd d12c 49bd
00000020: 16a9 1f3d 4c90 90bd 4d2c fabd 98bd e5bd
00000030: 1d4b 863b 394f 1ebc 64b0 0d3d 4800 9f3d
00000040: 7945 8fbd 8064 afbc b53f 25bc d88b 3abd
00000050: 2fc7 0b3e f7ac 953d 0120 e43d ffc4 af3d
00000060: 1c76 90bd edcb b6bc d405 c8bd 7047 ddbd
00000070: b739 24bd d133 bd3d 6559 09bd e42e 82bd
00000080: 83bf f9bb a3f0 d53d 99fb 6dbd 4441 00bd
00000090: 0334 0b3d 06f4 99bc 2a1d 32bc 95c1 1abd
000000a0: 07fa 7c3c 3133 fa3d 2bf2 d7bd 32dc a6bd
000000b0: 1e1c 223d b1f9 91bc 387e f73c 9c17 733b
000000c0: 3647 7ebd b2b9 e03c 0067 343d 7d35 c2bd
000000d0: 0abd 233d 4105 fd3c edaa f8bd 8d94 52bd
000000e0: 6c7b 0a3d ba9f a83c ef8b deb9 04f8 20bc
000000f0: 9039 04bd a5f4 a7bd b291 2b3d 2cfb 1ebd
00000100: 8fb5 eebb b526 023d 7231 8f3d ab9e 9d3c
00000110: aa3b 86bd 129a b0bc 02da 8bbc 7ec9 023d
00000120: 954e fb3d ebba 893d 2d79 f03d 57fb 443d
00000130: afb8 4b3d 24c2 74bc 5b15 143d 87d7 98bd
00000140: dd13 953d 2e5c fa3c 6f4d b0bc 55c5 88bd
00000150: cfa5 1d3d ba2a 103e 7440 583d b6a3 283d
00000160: 8f06 893c a18e 043d da76 cfbc 6bda 0b3c
00000170: 8fe0 39bc 1302 f83c 9cd3 06bc 331c b03d
00000180: a0f7 40bc 0a98 9abb 4b41 e73d dbb2 9e3c
00000190: b812 d2bd ab78 ad3c eedc 703c 2eb2 6b3d
000001a0: 408d 17bd e99d a43c 622c 713c 804c 33bd
000001b0: 5e88 1e3d 968e 65bd b8ea 02bb 37ce c1bb
000001c0: 1d8d 073d ccf2 703d ea2a 86bb da26 cd3d
000001d0: d55b a03c 18cc 2d3e 2efc 483d a172 d0bd
000001e0: 23b2 e2bc c4cb ad3c a27b c13c f369 ee3c
000001f0: 4d9e de3d 0f97 54bd e185 a43d ceb3 e4bd
00000200: 74d5 d1bc d4bb 98bd 6738 86bb b1fe 4b3c
00000210: 440d 20bd 7719 983b a5fd 30bd 6c8c 3d3d
00000220: 337b d0bd 1f08 283b 9327 2a3e e152 c6bb
00000230: 11e6 163e 2a2b 353d 0e86 753d 545d af3c
00000240: 7a54 473c 7e18 20bb af3f f3bc 2e51 273d
00000250: a959 6e3d 3af3 a5bc fcdf c43b 1a3f 963d
00000260: cbba 46bc 90f5 de3d 4344 a13d d3ec 02bd
00000270: 7c10 173c b510 fc3b e80a 82bd 2a29 1a3d
00000280: 72e3 0c3c 6326 c53d ad03 a9bd 4135 073c
00000290: 6479 be3d bd1f c6bd 058e 3f3d c53c 9dbd
000002a0: 6fd1 c13d c6a4 a93b 4201 12be 6dee 5fbc
000002b0: b0d9 b6bd 5c67 0b3d 14d3 e8bd 86da c9bd
000002c0: 0b84 013d 77b4 8c3c 13f6 cabd e424 ecbd
000002d0: effd 203d 3d5b 5f3c 0ee4 3f3d d71c e1bb
000002e0: 8ebf 52bd c718 883b b4c4 9f3b 3b24 e7bd
000002f0: ef4b a1bc 601a fa3d 3e6b a3bc 5472 85bc
00000300: 9a7c 3b3d b224 a9bd 9f1f 5abd c1af 58bd
00000310: 7c9d b83c 2033 a23d c58a a63d b1b8 063e
00000320: 44fe 1cbd 28e4 6dbc 78c4 3abd 8def 9e3c
00000330: db0f b8bc f75d 2ebc 578a c03b c4fb aebd
00000340: 2e83 54bd e58d a43c acfe 21bd 5917 4fbd
00000350: 2c92 e2bc e966 8e3c 0333 a8bc a25f 36bd
00000360: 0c9c ad3d edc4 4e3d a38f 16be 62f3 343c
00000370: b455 14bd 2026 c8bc 5056 80bd 5be1 673d
00000380: a2f6 333c 5e33 edbb 62e6 25be 4dbc b03c
00000390: 5529 9dbd 7991 ac3d 6b85 a43d 46af ee3c
000003a0: 63ab 11bd caed 313d b100 4f3d 23c4 7dbc
000003b0: c682 393d ddbf 153d 9a05 15be f14e d2bc
000003c0: 433e 06bc c309 ae3d ba3a 64bd a5cf 98bc
000003d0: 7af9 d73c 50aa 133d 759e 93bd 5551 053c
000003e0: d841 023d 3d8f e13c 2698 153d 4308 bb3c
000003f0: 7881 0b3d 8de3 7d3d 9ba4 ddba 185b 87bd
-0.020299729 0.070334926 -0.053698115 0.16210262 0.06161083 0.1034631 -0.09537763 -0.049115006
0.038979612 -0.070587724 -0.12215481 -0.11217803 0.0040983097 -0.009662443 0.034592047 0.077637255
-0.06995673 -0.021410227 -0.01008599 -0.04554352 0.13650201 0.07308381 0.11138917 0.08582496
-0.070537776 -0.022314036 -0.097667366 -0.10804641 -0.040094104 0.09238399 -0.03353252 -0.063566
-0.007621707 0.104462884 -0.05810127 -0.031312242 0.03398515 -0.018793117 -0.010871211 -0.03778227
0.015440471 0.12216795 -0.10544237 -0.08147468 0.039577596 -0.017819257 0.030211553 0.003709293
-0.06207963 0.027432296 0.04404354 -0.09482858 0.039975204 0.030886294 -0.121419765 -0.0514112
0.03380911 0.020583976 -0.00042447398 -0.0098247565 -0.03228146 -0.08200959 0.041886993 -0.038813755
-0.007284827 0.031775195 0.06991853 0.019240698 -0.06554349 -0.021557841 -0.017071728 0.03193044
0.12270848 0.06725105 0.117418624 0.04809126 0.049736675 -0.014938865 0.03615318 -0.074629836
0.07279179 0.030561533 -0.021521298 -0.06678263 0.038488206 0.14078799 0.052795842 0.041171752
0.01672676 0.032362584 -0.025325228 0.008535962 -0.011345043 0.030274427 -0.008229163 0.085991286
-0.011777788 -0.0047178315 0.112917505 0.019372394 -0.102574766 0.021175703 0.014701111 0.057542972
-0.03699994 0.020094829 0.014720054 -0.043774128 0.03870427 -0.056044184 -0.001997633 -0.0059144753
0.03309356 0.0588253 -0.004094471 0.10017176 0.019575039 0.16972387 0.049068622 -0.10178114
-0.027672833 0.021215327 0.023618523 0.029103255 0.10870037 -0.051901873 0.08033348 -0.111671075
-0.025614478 -0.074577 -0.004096079 0.01245086 -0.03907515 0.0046417075 -0.043210644 0.046276495
-0.101797484 0.0025639606 0.16616659 -0.0060523604 0.14736201 0.044230618 0.059942298 0.021406807
0.012166137 -0.002442866 -0.029693453 0.040848903 0.058190975 -0.020257581 0.0060081463 0.073362544
-0.012129496 0.10886681 0.07874348 -0.031964134 0.009220239 0.0076924213 -0.063497365 0.037636913
0.008599149 0.09626462 -0.08252654 0.008252443 0.09300497 -0.09674022 0.0467663 -0.076776065
0.094637744 0.005177113 -0.14258292 -0.013667685 -0.08928239 0.034034118 -0.11368385 -0.09856133
0.031620067 0.017175896 -0.09910216 -0.11530474 0.03930467 0.013632593 0.04684835 -0.006869893
-0.051452212 0.0041533443 0.0048757438 -0.11286207 -0.019689528 0.12212062 -0.019948598 -0.016289867
0.045773126 -0.08258952 -0.053252812 -0.052901987 0.022536032 0.079199076 0.08131937 0.13156392
-0.038328424 -0.014519729 -0.045597523 0.019401336 -0.022468498 -0.01064252 0.0058758664 -0.08544114
-0.051882915 0.020087192 -0.039549515 -0.050559375 -0.02765759 0.017383056 -0.020532137 -0.044524796
0.08477029 0.05048077 -0.1470323 0.011044355 -0.036214545 -0.024432242 -0.06266463 0.0566114
0.010984095 -0.0072387895 -0.16201165 0.021574164 -0.07673899 0.08426184 0.0803326 0.029136311
-0.035563838 0.043439664 0.05053777 -0.015488657 0.04529073 0.03655993 -0.14552918 -0.025672408
-0.008193555 0.08497956 -0.05572007 -0.0186537 0.026364077 0.036051095 -0.07207958 0.008137067
0.031801075 0.027534122 0.036522053 0.022831088 0.034059018 0.061984587 -0.0016910018 -0.06609172

network_body._body_endoder.seq_layers.2.bias f4 [256]
00000000: bdd7 e63a 25e7 733b 47d1 a9bb ace6 7eba
00000010: 1fb3 a53b 7f70 caba f549 61bb 0481 09bb
00000020: 5b41 a6ba 01ef 1c3c c851 40bb 59de f23a
00000030: 2c91 f23b fc27 91bb e962 60bb 5c22 7eb9
00000040: 3b12 8dbb 4281 5ebb 5150 863a d35b aeba
00000050: 8850 d13b 6b3e 7ebb fb88 943c 969e 1a3a
00000060: b369 29bb 2c57 ed3b e6de e73b 22e8 be3b
00000070: 8ffa 7b3b e7e4 81ba cce2 b83b ebd1 39bb
00000080: 9773 b33a 1a55 21bb d2c0 353a 8d9c e03b
00000090: 47bc a4ba 4e8b 123c 3a96 033b fc1b 193c
000000a0: 2c45 c8b9 a7e5 35bb a1d8 80bb 283d f939
000000b0: 3691 2cbb c72a 01bb c34b 323a 800b 4a3c
000000c0: 2355 c0ba 15ad e7ba 696c 9f3b 6904 3bbb
000000d0: b29e 3dbb 804b 2e3c 560f 0b3c 617d ab3b
000000e0: d36e a4bb f47f 143c 21d2 33bb 17f2 1fbb
000000f0: add6 ca3b ad9f 07bb 3ea9 483b d162 2dbb
00000100: e428 493b 8ace 223c c74e 57bb 212f bcbb
00000110: 7b2e e0b9 d0cd e93a 154e caba 3a1c aebb
00000120: 6714 963b f739 583c 4686 153b e0f3 f83b
00000130: e630 0e3c 50e9 d3b9 9ba2 913b cdad 383b
00000140: 004b 9aba d5b4 e2ba 05e0 59bb c36d 173b
00000150: 1122 dbba eea1 2bbb 5331 013b 3beb a03a
00000160: 0e23 b03b 17cf 1e3b 551f a2bb c73e 0cbb
00000170: ee24 98bb c2cc 1ebc 0aed a4ba feda b0ba
00000180: 340f 00bb 132d 003c bfab 9a3a 2b76 b7bb
00000190: 02e7 42ba 9103 573c ab97 18ba 0430 eaba
000001a0: f92a 443b 3426 4c3a a184 853b a0cc 983b
000001b0: 2661 4dba b16e 323b 7b58 063c 9837 1c3c
000001c0: df14 2bba 830f a9bb 0582 673c 93df 203c
000001d0: ac27 0e3b c172 b03b 76d6 3b3b b40a 723b
000001e0: 77ab 533b 4175 66bb 8271 583b 61b0 f0bb
000001f0: 3887 c33b 76b9 033b fd11 203b d8bf 293b
00000200: 6f05 cc3b d021 413c e667 293c 9540 453b
00000210: 8ab5 043b 7c1b 7e3b aafb 3cba b222 90bb
00000220: 9ea3 a639 d5fb 1a39 ec33 5ebb 6a5f 6a3b
00000230: 4323 6c3b 2fb3 333b 98bd 1fba 8ee3 e43a
00000240: eaf9 a0ba 3adf 463b dae0 c33a dc4e 8139
00000250: 389f 9b3b f3de d23b 038f cabb 2587 4a3c
00000260: 62ad 913b 7cbb 0cbb 381b 16bb 7c9d 6c3a
00000270: 437d b6bb 6bc7 2b3c 3084 b6bb a961 2f39
00000280: 29a2 d93b 318b 3bbb c5dc 2d3c 6601 05bb
00000290: dd4b b7ba 1a3b e73b 01e4 1fbb bc71 6b3b
000002a0: 8ff5 ecba 5e8e ae3b d2ea a6bb 0ee7 1f3c
000002b0: 7dd8 03bb 19c6 953a 99c8 49bb 236e 9fba
000002c0: 0ba2 ee3b 0c44 45bb c0df 0eba e906 9ab9
000002d0: f253 e73b 053f 1ebb a23e f0ba 9c31 203b
000002e0: e1e4 193c 5212 0fbb dafb 1c3b c197 883a
000002f0: 9ede 06b8 6035 97bb 3371 813a 32f6 eaba
00000300: d6bb 09bb 9c1b 99b9 67e6 e3ba 7817 423b
00000310: 74e0 2fba ffba d6bb e42f 75bb 47d9 d33b
00000320: dd04 2b3c 7c5b 53ba 30ce 60ba 2362 363b
00000330: a8ee 2a3c f6b8 a3bb b4a8 453c 11de 5538
00000340: 561f 6b3c f214 893b 8705 ab39 09f4 973b
00000350: bc24 973b 2dd1 b8b9 dc0d 9dbb 8461 3dbb
00000360: 519f 3abb bc68 be3b d3ba 68bb 322e 543a
00000370: cd01 5bba e4d0 6f3b ef37 aabb 3272 5aba
00000380: f64f 043c cd12 543a f6dc 5fbb 8ae2 803b
00000390: 81fb c93b dbd2 173c 9b66 213c ac2f 00bc
000003a0: a074 693b b3cf c33b 9f4a d4ba b593 c93a
000003b0: d01e 973b f50c ccbb a152 e2b9 08dd f9ba
000003c0: 719d e63b e270 913b 0a0e 573c 6d2d e03a
000003d0: f65c 0fbb 02c4 afba a132 b8bb 7bb5 0eb8
000003e0: 8e9f 523b d671 033c 9650 453b 074b a23a
000003f0: 1d25 60bb 803d 873b 34ec 5a3b 4f94 403c
0.0017611902 0.003721663 -0.0051824185 -0.0009723704 0.0050567533 -0.0015444903 -0.0034376357 -0.002098144
-0.0012684272 0.009578467 -0.002934562 0.00185294 0.0074025597 -0.0044298153 -0.0034238643 -0.00024236128
-0.0043051518 -0.0033951555 0.0010247325 -0.0013302512 0.006387774 -0.0038794528 0.018131724 0.0005898265
-0.0025850355 0.0072430577 0.007076132 0.005826012 0.0038448905 -0.0009910137 0.0056422707 -0.002835388
0.0013691065 -0.0024617375 0.00069333345 0.0068546 -0.0012568318 0.008944346 0.0020078556 0.009345051
-0.0003819851 -0.0027755292 -0.003932074 0.00047538546 -0.002633167 -0.0019709335 0.00068014505 0.012331843
-0.001467381 -0.0017675484 0.0048652184 -0.0028536564 -0.00289337 0.010638118 0.008487543 0.005233452
-0.005018094 0.0090637095 -0.002743848 -0.0024405771 0.006190142 -0.002069454 0.0030618454 -0.0026456604
0.0030694539 0.009936938 -0.0032853351 -0.005742923 -0.0004275924 0.0017837826 -0.0015434647 -0.0053134235
0.004580069 0.013197414 0.002281563 0.0075974315 0.0086786505 -0.00040418888 0.004444433 0.0028179765
-0.0011771619 -0.0017296324 -0.0033245098 0.0023106195 -0.0016718527 -0.0026189047 0.0019713237 0.0012277135
0.0053752726 0.0024232322 -0.0049475827 -0.0021399723 -0.0046430742 -0.009692373 -0.001258285 -0.0013492999
-0.0019540312 0.0078232465 0.0011800452 -0.0055988035 -0.00074349355 0.013123409 -0.000582094 -0.0017867093
0.002993284 0.0007787675 0.0040746485 0.004663065 -0.00078346056 0.0027226622 0.008199806 0.009534739
-0.00065262424 -0.00515932 0.01413012 0.009818929 0.0021691127 0.0053847735 0.0028661764 0.003693265
0.0032298246 -0.0035165104 0.003302664 -0.0073452448 0.005967047 0.0020099557 0.0024424784 0.0025901701
0.0062262337 0.011787847 0.010339713 0.0030098308 0.0020249807 0.0038773706 -0.0007209132 -0.0043986673
0.00031783892 0.00014780399 -0.003390546 0.0035762438 0.003603176 0.0027420034 -0.00060936203 0.0017462836
-0.0012281511 0.0030345456 0.001494433 0.00024663552 0.004749205 0.006435269 -0.006181599 0.0123613225
0.0044457177 -0.0021474054 -0.0022904407 0.00090261525 -0.0055691316 0.010484557 -0.005569957 0.00016725682
0.0066416455 -0.00286169 0.010611718 -0.0020295023 -0.0013984401 0.007056606 -0.0024397376 0.0035925945
-0.0018078553 0.00532703 -0.0050939107 0.009759678 -0.002011805 0.0011426836 -0.0030789732 -0.0012163561
0.0072825006 -0.0030100374 -0.00054502115 -0.00029378317 0.0070595676 -0.002414645 -0.0018329213 0.0024443632
0.009392948 -0.0021830988 0.0023953826 0.0010421203 -3.2155418e-05 -0.004614517 0.0009875655 -0.0017926155
-0.00210165 -0.00029203005 -0.0017387391 0.002961604 -0.00067091663 -0.0065530534 -0.0037412578 0.0064651105
0.010438171 -0.00080626435 -0.0008575646 0.002782949 0.010432877 -0.0049964143 0.012064148 5.0989973e-05
0.014350733 0.004183405 0.0003261978 0.0046372456 0.0046125334 -0.00035251063 -0.004792912 -0.0028897235
-0.0028476308 0.005810825 -0.0035511747 0.0008094042 -0.00083544553 0.0036593014 -0.005194656 -0.00083330565
0.008075705 0.000808996 -0.0034158803 0.0039332556 0.006164015 0.00926658 0.009851123 -0.007823866
0.0035622492 0.0059756874 -0.0016196555 0.0015379103 0.0046118274 -0.0062271305 -0.00043167642 -0.0019063065
0.0070378114 0.0044385055 0.013125906 0.0017103382 -0.0021875477 -0.0013409855 -0.00562127 -3.4024455e-05
0.003213856 0.008022746 0.0030107847 0.0012381979 -0.0034201809 0.0041272044 0.0033404948 0.0117541095

network_body._body_endoder.seq_layers.4.weight f4 [256, 256]
00000000: 2c2f ccbc e22e fdbc cdbf e9bc ff86 67bd
00000010: 6ed5 163d 46be ad3d ed2a bd3d ff0c 293e
00000020: 2031 48bd 59e2 85bc 7d54 37bd f7a8 903c
00000030: c8f3 203d c098 fd3d deb1 d53b ae24 993c
00000040: 29ee 9d3d cc63 323e d3a0 96bc 1d81 a13d
00000050: ca46 8bbc 9496 2abc dbfd 0b3c 7754 00bd
00000060: 4fdf deba 126c 44bd 60f5 a43c f576 4c3d
00000070: be95 483c 2a66 a33c 2d75 4abc 9788 9a3d
00000080: aeb2 65bd 9ee8 25bc 973c b2bb 8a6b 54bd
00000090: b503 003e f403 fb3d 12b1 803d 5579 bdbc
000000a0: 81c6 0f3d 1c2a 653d 09bc 2d3d 448e debc
000000b0: 4673 d4bd 2790 153d 5d10 fcbd b251 78bd
000000c0: e8a9 4c3d 666e 993c 77ff de3d d00a db3b
000000d0: dfe6 893d dc1f 7dbd 4d86 da3c 3fda c5bd
000000e0: 7867 cf3d 815d f9bc 3a40 0dbd ef6b 8bbd
000000f0: 8314 99bd 5da9 57bc 1024 3abc 7234 20bd
00000100: 50c8 85bd 7e5f 903c b3e1 bb3c 3617 093c
00000110: 5b9b b2bd 847e 263d da96 8bbd c639 d0bd
00000120: 2ba1 d53d 3acf 15bd 806e 013d 801f 323c
00000130: 3107 3e3d 5de2 d6bc a825 e33b c660 37bd
00000140: 1650 12bd 4363 f8bc 5bb8 083d 974d 8fbc
00000150: ef56 8e3c 1444 34bd cd69 c7bc 45fa afbb
00000160: 2fc1 a3bd cb2a a8bc 9dcd f9bd 9649 263d
00000170: d2f9 633d fe5a 413d ebf5 8ebb dc85 323c
00000180: 3b5d aa3d af05 dc3c 8a45 883c 6753 4a3c
00000190: 2b68 4cbd e08a 313d 32e3 54bd ab69 2e3d
000001a0: 04e4 133e abf2 f93c ad5b 88bd 90df 2d3d
000001b0: abd8 653d 3d80 debd 95ca 143d f1c4 5ebd
000001c0: 5fa8 ddbd da9f 113b f0b4 723d 6c65 16bd
000001d0: 7d9e f63c 9262 cabc 5be2 3ebc d9e5 b53c
000001e0: 1d6f cebd ec8a adba c0ee 29bd 377f 163d
000001f0: e06e bc3c 00f4 9a3c e285 053e 9272 01be
00000200: 8e95 1b3e 1d1d 113d 199a 833d c28a 21bd
00000210: 3e94 543b 9fe4 12bd f99e 583c 35bc 51bd
00000220: e25a 143e 1af2 e63c 97a0 bdbc 35d2 75bd
00000230: b257 613d c610 1bbd 2aa2 09bd df10 36bc
00000240: 55e7 18bd 1782 323d 11c6 e7bc 9dbc dcbb
00000250: d240 13bd e1d6 58be e8aa 9d3d d529 3fbe
00000260: 4c4b ab3d db96 023d 50a1 f0bb cdda 09bd
00000270: db1c be3c d2ee 173e a1ff 433d 8816 0c3e
00000280: ba35 443c 41d9 0a3e 1ff1 c93d 89b0 2c3d
00000290: e2ef fa3c 4bb0 abbd c731 eabc bbfc f53c
000002a0: a8ff 89bd a91f 283c 5aff 1e3b d281 cb3d
000002b0: 63bc adbb b5eb 1d3d 4ac3 5dbd 11b0 9bbb
000002c0: 8a2e 86ba 1b4b ab3a f92d 8abd a612 713d
000002d0: 03b3 7ebc 19ae 453e a9c0 e83b 867a 783c
000002e0: 7150 16bd 8f30 613d 8f1a 863d 395a 6a3d
000002f0: a6b6 3d3d 1306 4abd 9ae6 273d 40fe 7d3c
00000300: 4d04 7ebc aff9 28bd ee5a 003d 4719 f43d
00000310: 9fb6 783c d01b 453c 1954 1d3d 63ba 203c
00000320: 2198 bd3c e8c2 8bbd 9827 56bd 849e 23bc
00000330: e30d 283d 2712 c0bc 092d 82bd 506b 27bd
00000340: 1717 203d 07fd 86bd fb80 b9bd d430 d23c
00000350: 18f7 be3d 534d 5c3b da88 9f3d e31e 0ebc
00000360: 5e86 4a3d c9df 043e 08f2 3abc 05fb 953d
00000370: 5fdf 333d 515e 873d 4af8 d33c d4a3 e5bb
00000380: 1918 ccbc bb99 c73d 91e0 c6bc e9c1 af3b
00000390: 8255 91bd df67 44bd 02fd a73c 398d 44be
000003a0: 6403 d83b 95e0 0abd dbc9 ab3d d78b 1e3d
000003b0: 2f3c c53d b701 353e abf4 ec3c f6a3 bb3b
000003c0: 63b1 70bd 0efd 983b f3b6 333d 488a bc3d
000003d0: 8fc9 c0bd 1ffb 523d 45d1 37bd a646 da3d
000003e0: d1b7 e4bd 8a59 a7bc 56d3 64bc 8d41 963d
000003f0: 9dd7 8bbd bb98 a23b 87be 75bd fa76 84bc
-0.024924837 -0.030906145 -0.02853384 -0.056525227 0.036824636 0.084835574 0.09236703 0.16508864
-0.048874974 -0.016343283 -0.04475831 0.017658694 0.039294988 0.123826504 0.0065214476 0.018694248
0.07711441 0.17420882 -0.018387234 0.078859545 -0.017001528 -0.010411877 0.008544411 -0.031330552
-0.0017003807 -0.047954626 0.020136535 0.049918134 0.012242733 0.019946177 -0.012357038 0.07545584
-0.056078605 -0.010126261 -0.005439352 -0.05186037 0.12501414 0.122566134 0.062837735 -0.023129145
0.035101417 0.05594836 0.042415652 -0.027167447 -0.10373549 0.036514428 -0.123078085 -0.060624786
0.049966723 0.0187294 0.1088857 0.0066846386 0.06733488 -0.06179796 0.026675368 -0.09660768
0.10127157 -0.030440094 -0.03448508 -0.06807696 -0.074746154 -0.013162938 -0.011361137 -0.039112516
-0.06532347 0.01762366 0.02293477 0.00836735 -0.08721038 0.040648 -0.06815882 -0.101672694
0.10431131 -0.03657458 0.03159952 0.010871768 0.046393577 -0.026230985 0.006931979 -0.044770025
-0.035720907 -0.03032077 0.03337894 -0.017493052 0.017375438 -0.044010237 -0.024342442 -0.0053704106
-0.07995831 -0.020528218 -0.12197421 0.04059752 0.05565817 0.047205918 -0.004362812 0.010896172
0.083185636 0.026858179 0.016634721 0.012348986 -0.04990403 0.043345332 -0.051974483 0.04258124
0.1444245 0.03051122 -0.06658111 0.042449534 0.056114834 -0.10864303 0.03632601 -0.054387037
-0.1082313 0.0022220523 0.059254587 -0.036717817 0.03010487 -0.024705205 -0.011650647 0.022204326
-0.10079787 -0.0013240254 -0.041487455 0.036742415 0.023002088 0.018915176 0.13039353 -0.12641361
0.1519377 0.035428155 0.06425876 -0.03943897 0.0032436992 -0.03586256 0.013221496 -0.05120488
0.14487794 0.028191615 -0.023147864 -0.060014922 0.055015273 -0.037857793 -0.033601917 -0.011112421
-0.03732999 0.043581095 -0.028292688 -0.0067363516 -0.03595049 -0.2117572 0.076986134 -0.18668301
0.08363971 0.03188215 -0.0073434487 -0.03365593 0.023207119 0.14837196 0.04785121 0.1368047
0.0119757 0.13559438 0.09860443 0.042160545 0.030631963 -0.083832346 -0.028588189 0.030027738
-0.06738216 0.010261455 0.0024261088 0.09936871 -0.0053019985 0.038554866 -0.05414132 -0.0047512134
-0.0010237258 0.0013068648 -0.0674705 0.058855675 -0.015545609 0.19304694 0.007103045 0.015165931
-0.03669781 0.05497795 0.065480344 0.05721495 0.046316765 -0.0493222 0.040991403 0.015502512
-0.015503955 -0.04125374 0.031336717 0.11918884 0.015180259 0.012030557 0.03841028 0.009810063
0.02314383 -0.06824285 -0.052283853 -0.009986524 0.04102887 -0.023446156 -0.06356246 -0.040873826
0.03908452 -0.0659123 -0.09057804 0.025658049 0.09324473 0.0033615425 0.07789774 -0.008674356
0.04944455 0.12975992 -0.011410244 0.07323269 0.043914195 0.06609786 0.02587523 -0.007008055
-0.024913834 0.09746119 -0.024277003 0.005363692 -0.070963874 -0.04795062 0.020506386 -0.19194497
0.006592201 -0.033905584 0.0838811 0.03870758 0.0963062 0.17676435 0.02892526 0.005726333
-0.05876292 0.0046688383 0.043875646 0.092060626 -0.09413444 0.05150902 -0.04487731 0.10658006
-0.11167873 -0.020428438 -0.013966402 0.073367216 -0.06828234 0.0049620545 -0.059996154 -0.016170014

network_body._body_endoder.seq_layers.4.bias f4 [256]
00000000: cc2b adb9 09a5 e5ba 643b dcbb 70f5 adbb
00000010: 0ae3 093c 3ccc 43bb 6604 f4ba 548a 253c
00000020: 1d82 97b9 b988 f8ba 1ea3 9cba 3292 1d3b
00000030: ff19 3dbb 6d3e 8d3a b1dc 46b9 3619 24bb
00000040: 9cc5 deba c282 3f3c 858e c7ba a989 183c
00000050: efec ac38 f0ba c83b 0da9 3c3a 9d30 1b3b
00000060: 7440 2fbb 2f87 3a3b a2ec 79bb 419c f33b
00000070: 146c 3ebb e03d 9e3a ba0d 54bb 9c91 5d3b
00000080: 7d06 58bb 33ff 6f3a 23f9 68bb b4d9 8c38
00000090: 6582 c4ba 6f17 ef3a 1297 d6b9 107a 6d3b
000000a0: 8216 3abb cffc 063b ae22 e5ba 138f 15bb
000000b0: c45c 07bb e47d e23b b15b 72ba f149 f5ba
000000c0: 40bb 2b3b 6c0a 0b3b 3ee9 14bb 064c f13b
000000d0: 2867 0c3c 32c2 25bb 7bf6 9939 d7f6 d13b
000000e0: 5000 68bb 0f05 9c3a 7a2c 4ab9 ab09 b13b
000000f0: 70cd 3cbb 9195 e9ba 9226 7bba c39f ccba
00000100: ed6d 22ba ad41 4d3a 4cd3 00bb da45 90bb
00000110: d15f bc3b c91b 0b3c 4da6 843b 9eb3 1e3c
00000120: b6fc 7a3b 38ae 51bb 6cf7 9d3b 673a 243c
00000130: feb3 773a e365 38bb 02ae 1fba c516 393a
00000140: a7dc 7538 b908 a93a 3521 433a e8bd 4d3a
00000150: 2d01 343c b395 39bb 8fd0 de39 aaea 823a
00000160: da22 f3ba f5be 27bb 03db fe3b 2254 9a3b
00000170: 5ec4 00bb f485 b5bb 5e81 4dbb cbc1 153a
00000180: f0c7 c039 845e cd38 acf3 aa3b 465c ceb9
00000190: 754f e9ba 8aa8 a83a 5ae6 e53b f6aa d63b
000001a0: d661 0f3a 6766 203a e921 3539 8817 ad3b
000001b0: c2cb 8dba 434e a8ba e0a6 53bb b9a3 0a3b
000001c0: 4849 0cbb 644f d43b 8667 3bba 554b 443b
000001d0: 8a57 f73b 5202 8cbb 79db 03bb 9f11 0c3b
000001e0: 27eb 42bb 4665 d93b 31b4 7abb b252 51bb
000001f0: e073 fe3b 1c75 9c3a 40ad 74ba a39a eeba
00000200: 000e 0b3b 9b56 0c3b ef9e 673b 9772 faba
00000210: 2ea0 d43b 0f7f 5fbb c4cd 69bb 6cf9 fc3a
00000220: 1d7b a3b9 ac0a 60bb 81f2 353b 53b1 703b
00000230: b144 663a 28ec 0a3c 6743 9d39 7cb3 79ba
00000240: 6e51 893b 1e72 1f3a 2ce1 be3b 37fe 17bb
00000250: 4278 5abb 286c e5ba 430b b03a b75e a93a
00000260: c65d 9539 6a68 313a 23db f63b bf0f 8ebb
00000270: ce56 273b ccac b5ba cb11 6bba 58db 4d3a
00000280: 582d 1c3a 7f24 743a 91c5 cfba fb8a 0d3c
00000290: 6525 01bb 4440 de3a 06ca 2ebb 819f 9f3b
000002a0: a40c 1aba 5728 b33b 3446 0f3c f9ae 4039
000002b0: 310d 683b 090c 6c3b 83c7 7d3a d5fe 863b
000002c0: af51 07bb 312d 33ba ab34 b23b f3a5 86bb
000002d0: 2884 9339 e71e 34bb 07fe 45bb d723 443b
000002e0: 8478 be3b ed21 0d3a 255a 0c3c 6312 55bb
000002f0: 41f9 8b3a ff53 8f3a ab60 afba 22ee ab3a
00000300: f033 943a bc16 6fba 1f44 00bb 61e9 b73a
00000310: f303 993b 6777 fcba eb26 a83b e5b1 9b39
00000320: df44 263b d711 3cbb c21c 993a 3315 3c3b
00000330: 3751 4ebb d271 0239 f3b4 99ba 1d5e 65bb
00000340: 84e7 6dba 8668 8a3a 208d bb3b b9cb b83a
00000350: 773b 1e3c 90f7 8d3a b204 b63a 5b22 2fbb
00000360: 111a f93a 4896 7a3b 65a2 37bb e680 8bba
00000370: 630c 7cbb 5add 893b 8603 223b 1362 6bbb
00000380: 760f 13bb ef28 6b3a ce66 dc3a 68df 60ba
00000390: 118b 9b3a a504 3739 f1e8 cdba 0c9c 063a
000003a0: cf39 d33b 59cc 4ebb ed0c 493b 3309 39bb
000003b0: 0759 20bb e2dc 9f3b 7b46 a63a 9137 47bb
000003c0: 284e beba e4c9 603b 7597 a8b8 10b4 28bb
000003d0: 831a 39ba d6ea e1b9 1dd6 73ba 5b09 c83a
000003e0: 744b 08bb a637 7abb 3516 7dba 24b4 0a3c
000003f0: 4734 1ebb b460 7aba dee5 80bb de53 d83a
-0.00033029763 -0.0017520498 -0.006720947 -0.0053087994 0.008415947 -0.0029876372 -0.0018617033 0.010103781
-0.00028897906 -0.0018961645 -0.0011950468 0.0024043438 -0.0028854606 0.0010776051 -0.00018964965 -0.002503944
-0.0016996148 0.01168889 -0.0015224969 0.0093101645 8.2457314e-05 0.0061258003 0.00071968214 0.0023680099
-0.0026741298 0.0028461923 -0.003813543 0.0074343984 -0.0029056119 0.0012072884 -0.0032356814 0.0033808714
-0.0032962852 0.0009155154 -0.0035548888 6.7162706e-05 -0.0014992474 0.0018241237 -0.00040929817 0.0036236085
-0.0028394763 0.0020597463 -0.0017481649 -0.0022820875 -0.0020654658 0.00691198 -0.00092452305 -0.0018714053
0.002620414 0.0021215929 -0.002272203 0.007363799 0.008569516 -0.0025292751 0.00029366076 0.0064075994
-0.0035400577 0.0011903363 -0.0001928079 0.005402764 -0.0028808974 -0.0017821064 -0.00095806376 -0.0015611578
-0.000619619 0.0007829916 -0.0019657193 -0.004402858 0.005748727 0.008490511 0.004048145 0.009686379
0.00382976 -0.0031994712 0.0048207548 0.01002369 0.0009449123 -0.00281369 -0.0006091298 0.0007060583
5.861805e-05 0.0012896276 0.0007443608 0.00078484276 0.010986608 -0.0028317987 0.00042498528 0.0009988148
-0.0018549815 -0.0025595997 0.007777573 0.0047097364 -0.0019648294 -0.00553965 -0.0031357626 0.00057127763
0.0003677006 9.792767e-05 0.005217036 -0.0003936013 -0.0017800169 0.0012867611 0.0070159854 0.006551142
0.0005469596 0.0006118775 0.00017274138 0.005282346 -0.0010818171 -0.0012840707 -0.003229551 0.0021154715
-0.0021405984 0.0064791907 -0.000714891 0.0029952128 0.0075482773 -0.0042727375 -0.002011983 0.0021372808
-0.0029742213 0.006634387 -0.0038254375 -0.003194016 0.007765278 0.0011936757 -0.00093336776 -0.0018204044
0.0021218061 0.0021413926 0.0035342535 -0.0019107637 0.0064888215 -0.0034102832 -0.0035675624 0.0019300408
-0.0003118151 -0.0034186048 0.0027762952 0.0036726787 0.00087840395 0.008479156 0.00029995592 -0.00095253414
0.0041906154 0.00060823734 0.0058251824 -0.0023192295 -0.003333584 -0.0017503547 0.0013431091 0.0012921904
0.0002848936 0.0006767573 0.0075334474 -0.004335373 0.0025533917 -0.0013860702 -0.000896719 0.0007852814
0.00059576845 0.00093132997 -0.0015851726 0.008639093 -0.0019706127 0.0016956409 -0.0026670708 0.0048713093
-0.00058765174 0.0054674554 0.008744765 0.00018375729 0.0035408253 0.0036017916 0.00096809136 0.004119734
-0.0020648052 -0.0006835042 0.0054384074 -0.004109138 0.0002813649 -0.002748424 -0.0030211227 0.0029928589
0.0058127064 0.00053837785 0.008566414 -0.003251218 0.0010679142 0.0010935067 -0.001338025 0.0013117234
0.0011306982 -0.0009120514 -0.0019571853 0.0014031344 0.0046696602 -0.0019261659 0.0051315925 0.00029696446
0.002537064 -0.0028697157 0.0011681544 0.002869916 -0.0031481513 0.00012440167 -0.0011726901 -0.0034998723
-0.0009075331 0.0010559715 0.0057236105 0.00140988 0.009657732 0.0010831226 0.0013886897 -0.0026723358
0.0019004961 0.0038236547 -0.0028020379 -0.0010643273 -0.0038459531 0.0042072954 0.0024721338 -0.003591661
-0.0022439635 0.0008970638 0.0016815306 -0.0008578212 0.0011867007 0.0001745397 -0.0015709681 0.0005134947
0.0064461003 -0.0031554906 0.003067787 -0.0028234243 -0.0024467127 0.004878626 0.00126858 -0.003039811
-0.0014519142 0.0034300024 -8.039075e-05 -0.0025742091 -0.00070611405 -0.0004309031 -0.000930162 0.0015261577
-0.0020796927 -0.0038180142 -0.0009654493 0.0084658 -0.0024140046 -0.0009551153 -0.0039336523 0.0016504487

action_model._continuous_distribution.log_sigma f4 [1, 2]
00000000: da36 91bb 1989 21bb
-0.0044315876 -0.0024648367

action_model._continuous_distribution.mu.weight f4 [2, 256]
00000000: 7680 d8bb 099a d33b fda4 2a38 f806 5e3b
00000010: 163f 6fb8 051b 743c bdfc 85bc d432 9ebb
00000020: 88b0 57bb 0180 0f3c 87ec 5ebb 6773 6abc
00000030: 4d7e 8dbc 281a 253c ff0e c9bc fcf5 a63b
00000040: 867d fd39 1ebb 87bb 3a2a 08bc a15a f539
00000050: 6ddd 11bc a235 a33c a61b 5abb 2cf4 c1bc
00000060: f0a1 2abc b1d5 b83c e044 8e3b a3b5 af3b
00000070: 08b2 c73c d9dc b9bb 4669 6bbb b816 063d
00000080: bb0d 343c b230 2b3c 4224 2f3b e825 a6bc
00000090: d1fb ab3b 8c54 c13a 0497 47bb beb2 02bc
000000a0: 1b28 553b e9b4 883a 8421 d4ba bbe3 813c
000000b0: f526 05bc 66df 23bc 6353 013c ddb5 48bc
000000c0: a0cd 1b3c 803a a33b 6056 b23b 11b5 ec3a
000000d0: 7610 5b3b bca1 1dbc e25c 063c b910 9c3b
000000e0: 0e85 d3bb b394 08bd cadd 6ebc 127b 903b
000000f0: 946f 2dbc f8d5 2fbc c38c ca3c eec9 293c
00000100: 64d5 82bc b3d9 a5bb 1793 833c 4c90 243b
00000110: 48e5 5f3b e45d 32ba 5792 2dbb 611e 6f3b
00000120: 86ab 653c d53a cdbb f754 123c b325 1dbc
00000130: b657 903b 29f9 3bbc 6dc4 a33c 37fb 403c
00000140: 685b 0d3c 29da babb 3db0 723c f108 883c
00000150: 8dc2 8b39 5b06 e03b 47b7 41bc 3322 3dbc
00000160: df64 633a fd26 3d3b a131 adbc e73c cbbc
00000170: 5647 8e3c 4474 2f3b 8d6e 01bc 95fc 873c
00000180: ecdf 23bc ac9e d0bc fc2c 5c3c 1266 e9bb
00000190: 94b2 a93c 7de4 63bb a256 3939 7a00 4b3b
000001a0: 718a 623c 1c2e 27bc 39a2 b33c 35ce 5bba
000001b0: bb65 b7bc 8a81 85bc 03b7 67bc 4e3b 093b
000001c0: 2303 403c 5c81 113c 635d 1f3c 08c6 5ebb
000001d0: 3808 17bb b711 e839 fbd9 563c 04ac 64bc
000001e0: 22dd f0bb 8752 073c bff7 ae3b 820b d5bb
000001f0: 19de 40bb 6c39 f4bb 9af7 2bbc 4825 9dbc
00000200: d56c 673c 9d6d 253c 888e 143c 9eb9 47bb
00000210: 99d1 193c 8539 a23b 3894 b33a b5ef bcbb
00000220: f363 0abc 1869 563b 59af 81bc e3c8 8dbb
00000230: 87cb d4bb e6be 943b 2cbb 2e3c ff8b c7bb
00000240: 6314 963c 4b8e 0e3c 6a87 1abc f8f1 a13c
00000250: da33 4cbb a0ea 1f3c 93dd d73b fe7d 2ebc
00000260: e1e1 893c 9198 043c 4c33 0fbc 2c04 2cbb
00000270: 6514 2b3c 611c 7dbc 6ff1 6abc c241 1abc
00000280: 43a8 58bc 1f46 ca3b b983 043c 3793 17ba
00000290: de20 49bc bea2 84bb 3ee9 353c bb62 dc3b
000002a0: a679 87bc 50d4 b2bc ed7a debb 0907 3dbc
000002b0: 6692 0abb 4f9d 8cbb c6f7 403c 1806 57bc
000002c0: b969 ab3c a227 cbbc 4d03 39bc aaef 013b
000002d0: e46e e8bb ef92 0bbb 8d74 a43b 98dd d93b
000002e0: e839 fdb9 7992 a2bc fae6 3cbc 41e3 32bb
000002f0: b36e 823c f918 50bc a6be 21bb 7e23 27bc
00000300: 823b 3c3b 21e7 a03b 5371 07bc 4a2d a13c
00000310: d687 27bc 9305 823c 8b07 98bc 3eba 53bc
00000320: 0c33 10bc d284 4abc 690a a8bc 4930 883c
00000330: e582 d7bb 7434 843c 40a2 6a3b b8ef 083b
00000340: 6cfc 44bb 7371 8ebb bae6 65bc 0188 a93c
00000350: 1e12 86ba 1c6d ec3b 54ad 81bc a12a 263c
00000360: f0d6 8bbc 198f d2b9 74c2 573c d681 c63b
00000370: 99a2 73bb 190a 59bb 9f1c 67bb 88ee 993b
00000380: b5f6 96bc 7773 46bc 5d22 193c 479d 3f3c
00000390: 313d 863c 7545 cabc ebaf 22bc 44b1 c3bb
000003a0: 5bdf 7ebc 8b63 e8bb f4d4 cfbb 55f5 1639
000003b0: 8b74 483b 92fb 77bc 37f5 12bc 18a9 4f3b
000003c0: 2201 d93c de97 9d3c fe28 95bc 17f4 433a
000003d0: e590 ae3c ae20 8cbc b5d4 81bb aed9 4cbc
000003e0: 42ae 03bc 9f1c edba e709 a3bc ba49 1abc
000003f0: 98b1 c2bb 0520 103b b80b 5839 789d 463c
-0.0066071106 0.0064575714 4.0684816e-05 0.0033878665 -5.7040794e-05 0.01489902 -0.016355867 -0.0048278365
-0.0032911617 0.008758546 -0.0034015493 -0.014309741 -0.017272139 0.010077037 -0.024543284 0.0050952416
0.00048349443 -0.004142179 -0.008310849 0.00046797565 -0.00890289 0.019923035 -0.003328064 -0.023676
-0.0104145855 0.022562834 0.0043417066 0.005362229 0.024376884 -0.005672079 -0.0035920902 0.03273651
0.010989602 0.010448622 0.0026724492 -0.020281747 0.0052485247 0.0014749928 -0.0030455003 -0.007977186
0.0032525125 0.0010429892 -0.0016184305 0.01585566 -0.008126964 -0.010001993 0.007893416 -0.012250391
0.009509474 0.004981339 0.0054424256 0.0018059333 0.003342656 -0.00962108 0.008200856 0.0047627357
-0.0064550703 -0.033344936 -0.014579246 0.0044092024 -0.010585684 -0.0107321665 0.024725324 0.010363085
-0.015970893 -0.005061352 0.016061349 0.0025110422 0.0034163762 -0.0006804152 -0.002648493 0.0036486613
0.014017945 -0.006263117 0.00893139 -0.009591508 0.004404987 -0.011472979 0.019991124 0.011778644
0.00862775 -0.0057022762 0.014812526 0.016605826 0.00026657098 0.006836695 -0.011823482 -0.011543798
0.0008674394 0.002886235 -0.021141829 -0.024809314 0.017368 0.002677218 -0.0078998925 0.016599933
-0.010002118 -0.025466286 0.0134384595 -0.0071227634 0.020715035 -0.003477364 0.00017675248 0.0030975626
0.013826952 -0.010203864 0.02192794 -0.0008384914 -0.022387376 -0.01629712 -0.0141427545 0.002093989
0.011719498 0.008880939 0.009726855 -0.0033992548 -0.002304567 0.00044263687 0.013113494 -0.013957027
-0.00735058 0.008259422 0.005339592 -0.006501616 -0.0029429256 -0.0074531343 -0.0104960445 -0.019182816
0.014125069 0.010096935 0.009067185 -0.0030475627 0.009388351 0.0049507045 0.0013700789 -0.00576588
-0.008446681 0.003271645 -0.015830683 -0.004326926 -0.006493989 0.0045393584 0.010664742 -0.006089687
0.018320268 0.0087009175 -0.009431699 0.0197687 -0.0031158836 0.009760529 0.006587693 -0.010650156
0.01683134 0.008093015 -0.0087402575 -0.0026247604 0.010441874 -0.015448661 -0.014339789 -0.009415092
-0.0132237105 0.00617291 0.008088046 -0.00057821296 -0.012275903 -0.0040477207 0.011102973 0.006725637
-0.016537499 -0.021829754 -0.0067895562 -0.011537322 -0.002114439 -0.0042912136 0.011777824 -0.013124011
0.020924436 -0.024799172 -0.011292291 0.0019826689 -0.0070932973 -0.0021297296 0.0050187767 0.0066487305
-0.00048299064 -0.019845234 -0.0115296785 -0.0027296098 0.015921926 -0.012701266 -0.0024680286 -0.010201333
0.0028721993 0.004910365 -0.008266765 0.019674916 -0.010225257 0.015871799 -0.018558284 -0.012922822
-0.008801233 -0.012360768 -0.020512776 0.016624587 -0.006576883 0.016138293 0.0035802275 0.0020894837
-0.0030057682 -0.0043470203 -0.01403206 0.020694735 -0.0010228788 0.0072151553 -0.01582972 0.010141999
-0.017070264 -0.00040160937 0.01316892 0.006057958 -0.0037175773 -0.003311759 -0.0035264862 0.0046976246
-0.018428186 -0.01211249 0.009346572 0.011695213 0.0163866 -0.024691323 -0.009929637 -0.0059720594
-0.015556182 -0.0070919446 -0.0063425247 0.00014396508 0.0030587043 -0.015135663 -0.008969597 0.003168648
0.026489798 0.019237455 -0.018208023 0.0007475032 0.021309325 -0.017105427 -0.003962124 -0.012503071
-0.008037152 -0.0018090195 -0.019902183 -0.009416992 -0.005941581 0.0021991741 0.00020603731 0.012122504

action_model._continuous_distribution.mu.bias f4 [2]
00000000: 55c3 22b9 dcce 1abb
-0.00015522291 -0.0023621833
