MLAgents Jumper Exercise/Assets/results/JumperAgent_4/JumperAgent/JumperAgent-499968.onnx (onnx, 570158 bytes, 15 tensors)

network_body.observation_encoder.processors.0.normalizer.running_mean f4 [26]
00000000: c33d 383f fc99 413f b23e 383f a6cc 413f
00000010: b23e 383f a6cc 413f d946 383f 9970 423f
00000020: d946 383f 9970 423f 034e 383f 2cae 433f
00000030: 034e 383f 2cae 433f 591f 3b3f bbb3 473f
00000040: 591f 3b3f bcb3 473f 603b 4d3f 7247 573f
00000050: 603b 4d3f 7247 573f 8921 6f3f 3c36 723f
00000060: 8921 6f3f 3c36 723f
0.7196924 0.75625587 0.71970665 0.75702894 0.71970665 0.75702894 0.71983105 0.7595306
0.71983105 0.7595306 0.71994036 0.7643764 0.71994036 0.7643764 0.7309471 0.7800862
0.7309471 0.7800863 0.80168724 0.8409339 0.80168724 0.8409339 0.93410546 0.94614005
0.93410546 0.94614005

network_body.observation_encoder.processors.1.normalizer.running_mean f4 [2]
00000000: edd1 6a3e 0f8c 28bd
0.22931643 -0.041149195

network_body._body_endoder.seq_layers.0.weight f4 [256, 28]
00000000: 3aaa 913e c061 9fbb c521 b53e 992c eebd
00000010: 1ccd 3a3e f9a4 4a3d b626 493e b741 233d
00000020: cf88 b13c de58 06bd 4e4f 4c3e 28a0 5abe
00000030: 9650 31bd 510b 04be 8ed0 b43d b8dd 9cbe
00000040: 155a 083e d8dd 78bd be87 3c3d 3be2 32be
00000050: e03f babc 55d8 0ebe 874e bb3d 3c8d f7bd
00000060: 3dde 223e d660 dfbc 1658 3f3c 7552 563d
00000070: 3c2a d83d 53c7 f03d 2d31 aebd 4f0f 9fbe
00000080: c461 c2bd 75ed 11be 59b8 3ebe 8d61 c43e
00000090: 657b 01be e81d d83c 720f 063f 29e7 50be
000000a0: 01fe c4bd 595b 58be fdbe f2bd e38d 3f3e
000000b0: 76b8 12be ff3d 9bbd 90b2 4e3e 74f2 a1be
000000c0: 3862 373d cf8a a53d d6df 6c39 453d 16be
000000d0: 10f3 a5bb c3d5 713e 8f9e 063e 656a cabd
000000e0: ac5d c03d 1daf 923d 174b ea3d 461c 8fbd
000000f0: 78ab 333e 09ab 00be 3d43 3a3e cb5f 123e
00000100: 7519 73bd d0af 963e 31f0 4bbd 330d 903d
00000110: 9f9c 203e b4d6 323e d6ca a73e 328e 0ebd
00000120: 5725 303e 183b 8ebc cbb3 cebb 4244 6dbe
00000130: fd30 613e af09 2a3e 908a b2bd bdfb 163c
00000140: 5226 b13e 0f1b 713e 263d 80be 24b5 47bd
00000150: 5223 503e 24e3 6f3e 9813 4cbd 42ad 553e
00000160: 8267 b93d eb2d 7ebd ada9 b63d b8cd 0b3e
00000170: 9197 4fbe e473 6cbd ac86 3dbe 03dd d63c
00000180: 9ddf aebe dd09 443d 3236 e2bc 80d6 61be
00000190: 82fb a3be b270 873e 3ebe 48bc af4c 8cbe
000001a0: 39da 52bd 0a5b 1cbd 9985 443e 7746 9d3e
000001b0: 0ddc 73bc 277f 3c3d ae45 f0bd cc79 d0bd
000001c0: 6604 79be 3b7a d2bd 9e70 3bbe 687a b33c
000001d0: f524 3b3d 053c a13d 7b5c d9bd b31c b23c
000001e0: 2f6b ccbb e103 f13d 55ab 1ebc dd34 44bd
000001f0: 7ea7 f43d cf94 ec3d 901c cf3d ecef f53d
00000200: 42c4 babd 2f12 803d 1a63 3fbe d7de 183e
00000210: e1ce ffbd 20ac 7a3e cdc6 92be f9b2 8abd
00000220: a81d 123c 0ecc ccbd 3f07 343e 5330 d43d
00000230: 947c adbd 3570 9dbd 4969 033e e5e2 f33c
00000240: e832 8c3e 2d5e a03e 3001 6c3d 62fc 0abd
00000250: 50c8 31be 67ac 89be 6a24 243d 0dab 943d
00000260: 9695 9a3e 226c a43d f29c b9bc 3ad2 763d
00000270: cdcc 16be 7b8c c1bc ad72 a23e 3018 963b
00000280: 6a0d 19bd 3b06 193e b60b a5bd c734 0a3e
00000290: 9675 1fbe 1e6d 5f3d defb 12be 135e 373e
000002a0: 42fa aabe 5a1e 8bbd 6bcd 0b3d 7b38 9e3e
000002b0: 32c1 433d d234 9b3c f034 02be 0c58 7c3e
000002c0: d00d 21bb 7250 913c fc2f 633e 8248 bebc
000002d0: ef9f 0c3e cb01 fbbe 7530 10bc 905c 013d
000002e0: 5924 1dbc fa4f 3fbc 88ed 8f3d 8c29 bdbd
000002f0: 90c4 853d 44bf fb3b 6ab8 543d 4a1a 06be
00000300: fe39 7cbe 5890 e03d 142d 283d ac21 db3e
00000310: 551f 9e3e 7d41 d93d 4c0e 023e 891a 093d
00000320: e20f d6bc 8dd9 893d 2129 6cbe bc49 63bd
00000330: 166c ab3e a582 45be 8134 48bd c7e8 aebd
00000340: cf55 0e3d cb35 153e 271f 2fbe 032e 073e
00000350: eb56 72be 8dbc 87be 7daa ae3d 891d 40be
00000360: 1979 89be e95a 043e e881 833e 8a13 963e
00000370: e7c7 fe3d fbeb 563d 5e4d c3be 046c 0dbf
00000380: 3977 0ebe b564 bebd 0dae afbc 55af b8bd
00000390: 238d b73c 8f5f fbbd daec 9e3e 6ea9 67bd
000003a0: 9156 c1be 3bba e93e 9788 893d a9bd 38be
000003b0: cf72 a5be 7bb7 1b3e bff7 1c3d 453c 2f3e
000003c0: e237 42be fdce eebc 2ddd 253e a062 573e
000003d0: 1179 95be ab94 7a3e b09c 973c be5d d4bd
000003e0: 087c 353e 16b6 a33d eb81 adbd d058 5abe
000003f0: 818c d73d 439e 873d c0a1 4abc 59b6 7e3e
0.28450185 -0.0048639476 0.35377327 -0.116296 0.18242306 0.049473736 0.19643673 0.039857592
0.02167168 -0.032799594 0.19952127 -0.21350157 -0.043289743 -0.12894942 0.08828841 -0.30637908
0.13315614 -0.06075844 0.04602789 -0.17469113 -0.022735536 -0.13949712 0.09145837 -0.12087485
0.1590509 -0.027267855 0.011678716 0.05232473 0.105549306 0.11756768 -0.08505473 -0.31066367
-0.094913036 -0.14250739 -0.1862501 0.38355675 -0.12644728 0.026381448 0.5236732 -0.2040068
-0.0961876 -0.21128596 -0.118528344 0.18706469 -0.14328179 -0.07580184 0.20185304 -0.3163029
0.044771403 0.08083116 0.00022590099 -0.1467181 -0.0050643757 0.236167 0.13146423 -0.098835744
0.093928665 0.071623065 0.114401035 -0.069878146 0.17545879 -0.12565245 0.18189712 0.14294355
-0.05935045 0.2943101 -0.04978961 0.070337676 0.15684746 0.17464715 0.3277194 -0.034803577
0.17201744 -0.017362162 -0.006308054 -0.2317057 0.21991344 0.16605256 -0.08717835 0.0092152925
0.3459955 0.23545478 -0.25046653 -0.048756734 0.20325974 0.23426491 -0.049823374 0.20866874
0.09052946 -0.06205551 0.08919082 0.13652694 -0.20272662 -0.05772771 -0.18508404 0.026228433
-0.34154978 0.04786097 -0.027613733 -0.22054482 -0.32027823 0.26453167 -0.0122523885 -0.27402255
-0.051477645 -0.03817276 0.19191588 0.30717823 -0.014884007 0.0460197 -0.1173204 -0.10179481
-0.24318084 -0.1027722 -0.18304679 0.021908954 0.04568954 0.07872776 -0.106133424 0.0217422
-0.006238363 0.11768318 -0.009684403 -0.047901977 0.11946009 0.115518205 0.1011287 0.12008652
-0.091194645 0.06253468 -0.18690148 0.14928757 -0.12490631 0.24479723 -0.28667298 -0.067724176
0.008918203 -0.09999858 0.17580889 0.103607796 -0.08471027 -0.076874174 0.12833132 0.029771278
0.27382588 0.3132185 0.05761832 -0.033932097 -0.1736157 -0.26889345 0.04007379 0.07259188
0.3019225 0.08028437 -0.022657845 0.06025908 -0.14726563 -0.023626557 0.31728116 0.00458052
-0.03736631 0.14943783 -0.08058874 0.13496695 -0.15572199 0.05454742 -0.14353892 0.1790698
-0.33394057 -0.067928985 0.03413145 0.30902466 0.047791667 0.018946085 -0.12715507 0.24642962
-0.0024574883 0.017738555 0.22186273 -0.023227934 0.13732885 -0.49024805 -0.008800616 0.031582415
-0.0095911855 -0.011676783 0.07027727 -0.0923644 0.06531632 0.0076827127 0.051933683 -0.13095966
-0.24631497 0.109650314 0.041058615 0.42799127 0.3088328 0.10608194 0.12700766 0.03347257
-0.02613062 0.06730948 -0.23062564 -0.05549024 0.334809 -0.19288118 -0.048878197 -0.085404925
0.034749802 0.14571302 -0.17101727 0.13201146 -0.23665969 -0.2651104 0.08528612 -0.18761267
-0.26850203 0.12925304 0.25685048 0.29311782 0.12440472 0.052471142 -0.38144964 -0.55242944
-0.13912667 -0.09296552 -0.021445299 -0.09017817 0.022406166 -0.12274086 0.31040078 -0.056558065
-0.37761357 0.45649895 0.067155056 -0.180411 -0.32314155 0.15206711 0.038322207 0.17112835
-0.1896663 -0.029151434 0.16197653 0.21033716 -0.2919393 0.24470775 0.018507332 -0.103694424
0.17723095 0.079937145 -0.084720455 -0.21322942 0.10524846 0.06621983 -0.012367666 0.24874248

network_body._body_endoder.seq_layers.0.bias f4 [256]
00000000: 6d33 ffba edfa b33a ddec c93b 49da d93b
00000010: 1471 a4b9 87d8 71bb b980 4ebb b203 bc3b
00000020: b921 793c 2b34 a03b 7306 ec39 3c5e 5eb9
00000030: 786d 163c bdc3 1dbb 0569 91bb d492 443c
00000040: 963b a13b f59b bc3b 5943 54bb 9eb3 96bb
00000050: c307 fd3b 49af 403b a0c8 5f3a 8e6d 0c3c
00000060: d53e ae3b d41d a73b 7092 02bc dd94 d73b
00000070: 1a94 cc3a 3cdb 993a ccc7 933c b97b 833b
00000080: 8515 12ba 357d 0b3c 5d48 fa3b e7a9 6a3c
00000090: ab79 543b 13a2 d8ba d3a0 3fbb ceb1 0c3c
000000a0: 277a a4bb 27e8 2fba 95ef 31bb 7168 8d3b
000000b0: b686 123b b92f 8bbb c4bc 17bb 0179 acbb
000000c0: 7783 a4ba bb92 033a deca 0abb ddbf 6cba
000000d0: 2609 ba3b 445a c2bb 9d87 91bb aa12 45bb
000000e0: f647 793a 02d5 6bbb d823 a5bb a1b9 0b3c
000000f0: 41c7 a33b 02bf 8e3b 36c4 203b fdf7 703b
00000100: b9ce a43a 5e96 93bb 7af7 f73b 24e8 f43b
00000110: 4d35 953a 5ab6 b33b 25ee 08bb d1a9 5e3c
00000120: 5b16 1d3b 160e 42bb 8933 bc3b e3dc 863c
00000130: 11ae 5bbb 11fb 97bb 0acf c23b f9dc 4fbb
00000140: 6952 e23a af57 af3a 8d1e 283c a2f9 87bb
00000150: 26a0 8b3a 3c35 bfbb 3b89 523b a6bf 49ba
00000160: 94c2 cf3a ca56 5dbb 935e e23b 92a9 353c
00000170: 8da9 933b 5922 dbb9 9490 82bb 6cf6 553b
00000180: 3693 133b 07f4 83bb c6a3 fb3b 3ea3 733b
00000190: a3a3 873c 5a74 88ba 7fe5 823c d7f9 123b
000001a0: ad42 0e3c 2fcb 8e3b 0dea ee3b 1c50 1a3c
000001b0: b8ab d93b f2ef 923a 84f3 b5ba cbba f03b
000001c0: fa59 86ba fab4 15b9 ba00 2b3a 1406 513c
000001d0: 8238 47ba 40f4 123b 7f39 bf3b 175b 283c
000001e0: f16d 67bb 7305 0e3b f9a3 0e3c c13b c73b
000001f0: 9ebf ed3a ebb0 193a 4bca eb3b 0ec7 b739
00000200: 4107 703c 6b68 123b 5547 9ab9 dc1c 643a
00000210: fb51 983a 0a7a d13b 4a8c 5abb 1b4a b3ba
00000220: 8603 1d3c 5aa7 8a3c 2de1 523c 202e b63b
00000230: 3c7f c1b9 c995 2c3c 3a53 7c3b 19d9 b93b
00000240: 7acc bf3b abe9 083b 1b39 5e3b 6a08 8b3b
00000250: 1fc6 ecbb 0989 b1b9 9dd0 62ba 79cf 3c3c
00000260: 5e92 6b3c c6b9 5d3b ef4a d8bb fbcb 1c3c
00000270: 7396 673b 7a7f 7dba 32a5 56bb 0a62 073c
00000280: 2dea 64ba 5eb7 273c fbee c6ba c149 af3b
00000290: 6cc5 1ebc bc31 35ba acdf d13b 6dd8 1a3c
000002a0: a3a4 e3bb 2c6e 483c 6ef2 dd3b 4703 8cbb
000002b0: 9c1d 8a3b 766e 553b 962c 9e3b 1832 7e3a
000002c0: 74af c9bb b472 3dbb 6b59 bf3a 0331 c63b
000002d0: f3a9 033b 5e2e b0bb 62a2 973b 02d7 4bbb
000002e0: 84a3 cebb 89b2 b13b 9ddc 213c 8d7f fd3a
000002f0: ba2e 69ba b8f2 c5b9 f810 33bb 52c7 803b
00000300: 2ba5 3bbb 6987 a33b 7fb7 c03b 8f15 a53b
00000310: d66d 533c 4b18 393c 8185 cd3b 1e66 fa3b
00000320: 78ff dd3b 9dcc 44bb 56b3 a23a 6ddd 3abb
00000330: b089 d0b8 380a d73b 0773 d73b 9609 84bb
00000340: 3cbe 113c 7ae9 e3ba 8bf3 adba 2a7c d23b
00000350: a610 1d3b 3cdd acbb 22b4 d23b 7ecb caba
00000360: 12dd 903b 0bbe 5b3b 1be2 693b faef d2bb
00000370: 0b4c 1e3b 7afb 6e3a 5a2a b43a 0552 fc39
00000380: c274 633a 7ea2 eb3b 37fb 0c3b 1d2d a7bb
00000390: b795 493c a2d4 393c ce79 c43a bca6 ac3b
000003a0: dd94 93bb cf79 c13b 189d a9bb 234b 2e3b
000003b0: 2adf b53a 6011 a13b 29c0 b038 be89 d33b
000003c0: 2c72 36bb 15fc 7c3b dfa1 d13b 186f ff3b
000003d0: 9c90 ad3b de59 bfbb 6c67 a3ba 0bd3 2aba
000003e0: 808d a7ba 049e 963b 5033 543c d62f 10bb
000003f0: 729d 823b f4dd 633c 21a4 6c3b b8a6 9a3b
-0.0019470282 0.0013731398 0.0061622695 0.006648336 -0.00031364767 -0.0036902742 -0.003150983 0.005737745
0.015205794 0.0048890314 0.00045018233 -0.00021206675 0.009181373 -0.0024072968 -0.004437568 0.011997897
0.0049204333 0.005755896 -0.0032388775 -0.0045990488 0.0077218725 0.0029401353 0.00085366704 0.008571042
0.0053175488 0.0050999913 -0.007969484 0.006579025 0.0015608103 0.001173831 0.018039607 0.0040125516
-0.00055726647 0.008513738 0.007638021 0.014322734 0.0032421153 -0.0016527794 -0.0029240146 0.008587314
-0.0050194445 -0.00067103136 -0.0027150859 0.004315429 0.0022358126 -0.0042476323 -0.0023153285 -0.005263448
-0.0012551387 0.0005019118 -0.0021178047 -0.00090312754 0.00567736 -0.0059311707 -0.004441215 -0.003007094
0.0009509319 -0.0035985117 -0.0050396733 0.008528144 0.004998118 0.004356266 0.0024531013 0.0036768906
0.0012573815 -0.004504009 0.0075673433 0.0074739624 0.0011383683 0.0054843845 -0.0020893898 0.013590292
0.0023969624 -0.0029610447 0.005743448 0.016462749 -0.00335205 -0.0046380837 0.005945091 -0.0031717403
0.0017266992 0.0013377572 0.01026119 -0.0041496316 0.0010652586 -0.0058352035 0.0032125253 -0.00076960993
0.0015850835 -0.0033773654 0.006908247 0.011087792 0.004506296 -0.00041796526 -0.00398452 0.00326481
0.0022518164 -0.004026893 0.0076794354 0.0037176157 0.01655752 -0.0010410652 0.015978573 0.0022426748
0.008682889 0.0043577175 0.0072910846 0.009418514 0.006642785 0.0011210425 -0.0013881777 0.007346486
-0.0010250204 -0.00014277166 0.00065232406 0.012757797 -0.0007599668 0.0022423416 0.0058357115 0.010275624
-0.0035313333 0.0021670728 0.008706086 0.0060801213 0.0018138771 0.00058628496 0.007195746 0.00035052787
0.014650167 0.002234007 -0.00029426315 0.000870181 0.0011621112 0.006392722 -0.003334778 -0.0013678701
0.00958336 0.016925503 0.012871069 0.0055596977 -0.00036906626 0.010533758 0.0038501755 0.005671632
0.005853233 0.002089123 0.003390855 0.0042429464 -0.0072257663 -0.0003386217 -0.00086523016 0.011524075
0.014378158 0.0033832653 -0.0066007297 0.009570117 0.0035337477 -0.00096701796 -0.0032752273 0.00826312
-0.00087324047 0.010236589 -0.0015177423 0.0053493683 -0.009690624 -0.0006912013 0.0064048376 0.009451014
-0.0069471165 0.012233298 0.0067732846 -0.0042728516 0.0042149555 0.003256706 0.0048270924 0.00096967956
-0.006154949 -0.002890748 0.0014598792 0.006048323 0.0020090311 -0.005376621 0.004627512 -0.0031103496
-0.0063061137 0.0054228944 0.009879258 0.0019340381 -0.00088952074 -0.00037755608 -0.0027323347 0.003930011
-0.0028632383 0.0049905074 0.0058812494 0.0050379704 0.012904605 0.011297296 0.0062720184 0.007641568
0.006774839 -0.0030029186 0.0012413065 -0.0028513328 -9.943859e-05 0.0065624975 0.0065749916 -0.004029463
0.008895453 -0.0017388307 -0.0013271434 0.006423493 0.0023966222 -0.0052753966 0.006430165 -0.0015472022
0.004420885 0.0033530022 0.0035687748 -0.006437299 0.0024154212 0.00091164524 0.0013745532 0.00048126295
0.0008676761 0.0071910014 0.002151204 -0.0051018135 0.012303761 0.0113421995 0.0014989914 0.0052688997
-0.00450383 0.0059044133 -0.0051761977 0.0026595078 0.0013875712 0.0049154013 8.4281266e-05 0.006455629
-0.0027839048 0.00386024 0.0063974704 0.007795226 0.00529678 -0.0058395704 -0.0012466735 -0.0006516433
-0.0012783259 0.0045964736 0.012951687 -0.0022001169 0.003986054 0.013907898 0.003610857 0.0047195815

network_body._body_endoder.seq_layers.2.weight f4 [256, 256]
00000000: 831c 4dbd e31e 983c 5d13 33bd 49ba e8bd
00000010: aa3f 723d 796b 943a 984c 91bc 4086 8abd
00000020: bff3 a1bd 66d1 5bbd c957 55bd ac66 2bbd
00000030: 1581 273d 3057 3d3d 8e9c 86bd 6048 fa3d
00000040: f07f 4e3d 3d32 273d 80be 8e3d 0a4b 2e3c
00000050: b7ab 6ebd 752f d8bc 063f 54bd b8d3 27bd
00000060: bfd6 e0bd 7c1e ecbb 5061 7a3d 5250 543b
00000070: 05b7 e13c 858d c6bb 945c 6d3c 2a0e bebc
00000080: 055f 54bd 5266 84bc ff77 ec3c 52e1 2fbd
00000090: 452f 46bd 7b65 4d3d 0773 8d3c a088 0b3e
000000a0: 2737 fe3c b222 9abd 49b8 88bd e72e ac3c
000000b0: 44eb fc3d d77d 003d 777a d7bc 1ba6 733d
000000c0: 97a5 8ebd 9c1a e4bc 7703 823d 7cc8 813d
000000d0: c815 87bd 4057 cb3d 9cac 57bd a2d8 8ebd
000000e0: 5bb4 efbc 0a9e 813b 1f80 a23b fd91 6dbc
000000f0: 4a6b f23c 4cf1 69bc 5380 49bc 9cc6 733d
00000100: d262 91bd d5c3 31bd 6127 5dbd 3530 acbd
00000110: fefa 263d d1fa 09bd b52d b3bd 5ac4 303d
00000120: dacd 2d3d 71f0 06bd 938a 103b 97aa acbd
00000130: e3a9 613d 121f 823c c3f9 bfbd 5626 773d
00000140: 5d65 15bc acef 84b9 5973 9b3d db17 9e3c
00000150: 970b 133c 6544 f4bc 4a0b dd3d e435 f53a
00000160: abdb c9bc faf8 18bb b531 dbbd 8165 d83a
00000170: 9730 e53c fdc9 6bbc 8d38 5d3e 6ac5 a53d
00000180: ba7f 92bd d388 f03d 89e8 cb3d bdbc 07bd
00000190: 649c 613c bb50 a03d cf65 a93c c698 983b
000001a0: b482 4ebd 3c7e 4cba 79be 493b 3a15 7bbd
000001b0: 6de2 3fbd 7e1c b8bc 3a2c a1bd a591 22bd
000001c0: 1b21 8ebb f90a 563c b058 85bc 4c82 543a
000001d0: fbd6 003c b1ef cfbc 8709 0abd 03b4 fd3d
000001e0: 9b63 3bbd fb61 a93c cdc4 d53d dc89 f53c
000001f0: 6de6 d13b ca41 bfbd 8a97 553d 9b2a 2b3e
00000200: de39 c2bd 46e2 2cbd 9162 63bc a6fa b2bc
00000210: d43b 123d 231e 853c 5760 96bd 4e22 a23d
00000220: 4bfc 90bd f6eb 67bc aea8 2a3d ab78 7f3d
00000230: fdc0 c13d acaa d73d 2000 2abe e8ef fabd
00000240: 5851 2bbd d8fa 6ebc 1537 89bc edce b43d
00000250: 531b 0e3d 70a3 603d a455 0b3d 9321 18bd
00000260: 9645 c7bd b5d1 e93c 0e8c a1bd dcca c839
00000270: ede2 ecbd de8c 023d 7a31 e7bd 5b77 803d
00000280: 8553 afbd 88a5 ccbc a683 2dbc 2640 983d
00000290: 0554 0dbe d1b6 0fbc 9b68 803d ef40 9dbb
000002a0: b8e0 3a3d 3ce2 aabd abfa ab3c 84ab af3c
000002b0: d532 95bc d468 58bc 9d42 c5bc 17ff 23bc
000002c0: c819 acb9 d76b a13d 0b99 3d3d 592c 90bb
000002d0: 45df 173e 3273 3f3d 669f d23d 90cb 203d
000002e0: 84ce 7b3d dfe4 a5bd 081d 37bd a864 853d
000002f0: 7cb6 233c be05 0c3e 46b7 133d 497a de3c
00000300: 694b d6bd 1199 5cbd 321b 1d3d 67ef a9bc
00000310: 2fe0 c9bc 7f0c 06bd cc63 1e3b cedf c33d
00000320: 4adb 493d fef5 403d f659 64bc b976 163d
00000330: 153f 19bc 5598 343e 3531 863c 6797 833c
00000340: 6844 663d 3c7c f8bc 6247 4e3d dd4b 7b3d
00000350: 4a64 19bd c8c6 c43d da91 efbc 74c2 62bc
00000360: 4f40 fdbc 047f d23b f548 26bd 6407 403d
00000370: 9dc7 003e da5f 10bd c4ad a8bd 47bf a63b
00000380: 8250 a63d 4594 00bd 3450 35bc b779 db3d
00000390: 64ec 8ebc a8e3 7ebd 6b4c b33d dccb 0c3d
000003a0: d923 bebc 80a8 34bc 7591 103e 30bf 953d
000003b0: c16f 153d 74df f53a 6de6 c93c af0d 483d
000003c0: 227f 8fbc bffc e9bc 1da5 8fbd 5dcd d33d
000003d0: e71f dcbc 7435 463d 5395 c5bd 13a9 8e3d
000003e0: bb15 fe3a b5fd 833c 3bdd 803c cc34 083e
000003f0: 2b14 8f3d 3867 a9bd 5e3f 37bb 4baa a3bd
-0.05007602 0.018569415 -0.04371964 -0.11363656 0.059142746 0.0011323533 -0.017736718 -0.067638874
-0.07907819 -0.053666495 -0.05208567 -0.041845962 0.040894587 0.046225727 -0.06572829 0.12220836
0.05041498 0.040819395 0.06969929 0.010638008 -0.05826923 -0.026389817 -0.051817916 -0.040973395
-0.109784596 -0.0072057825 0.06112796 0.0032396507 0.02755309 -0.006059351 0.014487404 -0.023200113
-0.05184843 -0.016162071 0.028865812 -0.04293949 -0.048384923 0.050145607 0.017266763 0.13626337
0.031032158 -0.07526149 -0.066757746 0.021018459 0.12349561 0.03137001 -0.026303513 0.059484582
-0.069651775 -0.02784472 0.06348317 0.063370675 -0.06595951 0.09928751 -0.052654848 -0.06974913
-0.029260805 0.0039556073 0.004959121 -0.014500138 0.029592175 -0.014278721 -0.012298661 0.05951558
-0.070989266 -0.04339965 -0.053992633 -0.08407632 0.04076671 -0.033686463 -0.08748952 0.043156005
0.042432643 -0.032944147 0.0022055253 -0.08430975 0.055093657 0.015883956 -0.0937381 0.060339294
-0.009118405 -0.0002535557 0.0759036 0.019298485 0.008974931 -0.02981777 0.10793169 0.0018708077
-0.024640879 -0.002334176 -0.1070284 0.0016509743 0.027977271 -0.0143914195 0.21603604 0.08094294
-0.07153268 0.11744847 0.09956462 -0.03313898 0.013770197 0.07827898 0.020678429 0.004656884
-0.050417617 -0.0007800793 0.0030783697 -0.06129954 -0.046846796 -0.022474524 -0.07869764 -0.03968968
-0.0043374426 0.0130641395 -0.016277641 0.0008106574 0.007863755 -0.025382848 -0.033700492 0.1238785
-0.045749288 0.020676604 0.104379274 0.029972963 0.0064056427 -0.0933872 0.052146472 0.16715471
-0.094836935 -0.04220798 -0.0138784805 -0.021848034 0.035701588 0.016249722 -0.07342594 0.07916699
-0.07079371 -0.014155379 0.04166477 0.062370937 0.09460638 0.105306 -0.1660161 -0.1225279
-0.041825622 -0.014586173 -0.016749898 0.088285305 0.034694027 0.054843366 0.03401722 -0.037141394
-0.09730069 0.028542379 -0.078880414 0.00038298115 -0.1156672 0.031872623 -0.11288734 0.06272765
-0.08560852 -0.024981275 -0.010590469 0.0743411 -0.13801582 -0.008771614 0.06269952 -0.0047990005
0.045624465 -0.08343932 0.020993551 0.02144409 -0.018212715 -0.013208587 -0.024079615 -0.010009549
-0.00032825605 0.07881897 0.04628853 -0.004399818 0.14831264 0.04674072 0.10284309 0.039256632
0.061476246 -0.08100294 -0.04470542 0.06513339 0.009992238 0.13674065 0.036063455 0.02715792
-0.10463602 -0.053856913 0.038356014 -0.020744039 -0.024643032 -0.03272676 0.002416837 0.09564172
0.049281396 0.047109596 -0.013937464 0.036734316 -0.009353419 0.17636235 0.016380886 0.016063405
0.05621758 -0.030332677 0.050361045 0.061351646 -0.03744916 0.09608227 -0.029244352 -0.013840307
-0.030914454 0.006423833 -0.04059692 0.04688205 0.12576146 -0.03524766 -0.08236268 0.00508872
0.081208244 -0.0313914 -0.011066485 0.10716575 -0.017446704 -0.06222883 0.0875481 0.034374103
-0.023210453 -0.011026502 0.14117987 0.07311857 0.03648353 0.0018758611 0.024646008 0.048841175
-0.017516676 -0.028562902 -0.07013915 0.10341904 -0.026870681 0.04839082 -0.09647622 0.06965842
0.0019385138 0.016112188 0.01573049 0.1330139 0.069862686 -0.082716405 -0.0027961354 -0.07991465

network_body._body_endoder.seq_layers.2.bias f4 [256]
00000000: bb36 63ba 7dfa bc3b b1c7 993a 7656 3c3b
00000010: 3cc9 4fbb 6e5d 9d3a 2856 673a da35 d13a
00000020: 1601 8ab9 1f25 393c 343a a43a 8db2 4c3c
00000030: 1ddd 2f3b 692d dd3a 18fc b6b8 474c 6f3b
00000040: d57a f93b 88b4 ab3b 1721 b03a bdcd 3abb
00000050: a72e 343c 2ce9 913b a5d2 c83a a080 963b
00000060: 8eea 973b 0d2c c53a 61d4 1abb dcdd a83b
00000070: 0093 86bb 2a60 043c 0b37 d73a d650 073c
00000080: 0242 8db9 bf78 6e3a ecd7 863a ef06 6b3a
00000090: 0649 003a 9666 79b9 8535 75bb 6f96 bdba
000000a0: 6ec1 4cba 43fd 093c 1d25 943b a3a5 d035
000000b0: 9d06 4b3c 9780 80ba fb17 e43a b9ff bc3b
000000c0: 72cf 21bb ee19 4cbb fa23 4abb ca65 e03b
000000d0: 12a9 99bb ad94 27bb f28d dfba e96a 953b
000000e0: 5839 d83b 6523 d3bb 494c 25bb b893 bf3a
000000f0: b7ef 873a 81c0 bb3b 7493 95ba e07b f4b7
00000100: 9c14 edbb 96dc 643b a060 9139 359d 023a
00000110: e22b a5b9 00cf cd3b 3442 2639 2a3e 8f39
00000120: 8812 4e3b 30f1 853b ba29 393c ae11 a7bb
00000130: 04f7 283a 2928 17bb 8cea 76ba 1444 463c
00000140: c990 bfba f4f7 7c3b a6d2 153b d84c dd3a
00000150: 953f 17bb a297 353a a8de 383b f989 1cbb
00000160: 3184 d63a b383 2539 18e5 53bb 34db cf3b
00000170: bd13 08ba 856d 133c d449 d43b 560f 8439
00000180: 6fa6 de3a 6ec8 243b 4678 19bb d86f 2ab9
00000190: 26ea 6abb a96f f73a 4738 bc3b 0300 66bb
000001a0: a705 80bb 9923 533b fee6 33bb b1ad d5bb
000001b0: 10f0 fd38 53ff 013b e1ff 323c 62c1 53ba
000001c0: dec2 233c 9a87 103c 0bdd 04bb d728 9e3b
000001d0: 3cd6 373c 3874 a23b 1d6e 1c3c 87a9 d239
000001e0: 3ef6 3a3b 0529 18bb 1f07 f9b9 9c98 35bb
000001f0: 8512 213a 75d1 33bb 47e8 af3b e853 49ba
00000200: f806 73ba 46ca 7ab9 3f56 3dbb 0b4c 1cbb
00000210: b56d 90bb b824 053c 2af8 733b 9766 263c
00000220: a988 7abb 414f bebb c51f 9e3b b0b2 41bb
00000230: 0b99 98bb 1286 a53b 9d35 7d3b 7d4e 923b
00000240: 2c4b cb3b 60f7 84bb e64a 49bb 2f67 2a3b
00000250: 2b0e 1f3b e6b8 203c 4e11 893a d053 173c
00000260: 666d 3c3c 88d6 4a3a 1c76 0bbb f3e5 58bb
00000270: 49fc b93b 993c 9fba cd84 95bb 8042 06bb
00000280: 87e6 ab3b 77bd 5b3b 8fd1 7eba 4564 883b
00000290: 667b 47ba bf3f 02bb 4d0f 98b9 d08f beb9
000002a0: 5543 1f3a 205b c33b 9e19 1ebb 5b8e 93ba
000002b0: 5074 8739 4dda 7bbb 1843 a53b 3e5c bbba
000002c0: d756 39bb 9b0b 1e3c a563 fdba 720a 8a3a
000002d0: 7a52 17bb 8e62 78bb 4d3e 913a 7ab3 65bb
000002e0: dd48 8cba b19a 76bb 8b15 1fbb 5d79 e53b
000002f0: 0181 063c eb99 a33b 3a94 8c3b 5ac2 1d3c
00000300: dbc7 3e3c b407 183c d7dd 8ab8 a0ad 58bb
00000310: 1c81 5f3a 2957 4c3a 8d6a d03a 4eef c9bb
00000320: 8a1a 433c 97ec db3b bd45 7b3b 97fe 59bc
00000330: 9b78 f0ba 9168 7b3c 19da dd3a bb0b 46ba
00000340: 4253 ad3b f92f 2cbb a4c9 a63b 70ff c13b
00000350: 796f ee39 4c12 a13b cb7c 053c 46f5 883b
00000360: 7629 093b 7e4b 58b9 b9cf 153c fd6a 88ba
00000370: 70be 113c 79dd acbb a806 7fbb 931b e83b
00000380: e664 a13b 5484 d239 6748 cfbb e27a 6e3b
00000390: f30b d83b 93db ab3a a09c 773a caf2 9f3b
000003a0: 4538 303c a318 913b d414 b83a b19c 133b
000003b0: 14bc 033c 1ce2 7dbb 965c 1f3b 5b2e 28bb
000003c0: d734 b93a 115b 32bb 3e49 80ba a337 07b9
000003d0: 78be da3a 7ba1 123b f7c7 56bb 6a56 42bb
000003e0: 0e01 16ba 0dc4 2839 abf2 11bb ffb3 95ba
000003f0: 9b21 6c3b 7697 26bb d6cd 0f3c 2abe c33b
-0.0008667518 0.005767165 0.0011732486 0.0028738058 -0.0031705638 0.0012005994 0.0008824789 0.0015961484
-0.0002632222 0.011300354 0.0012529553 0.012493742 0.0026834675 0.0016874495 -8.7253924e-05 0.003651397
0.0076135197 0.005240027 0.0013437596 -0.0028503977 0.010997451 0.004452845 0.0015321566 0.00459297
0.0046361154 0.0015043035 -0.0023625123 0.005153401 -0.0041068792 0.008079568 0.0016419602 0.008259019
-0.00026942795 0.0009096972 0.0010287738 0.0008965572 0.0004893694 -0.00023784707 -0.0037415933 -0.0014464388
-0.00078108057 0.008422199 0.004521026 1.5545414e-06 0.012391713 -0.0009803948 0.0017402166 0.005767789
-0.0024690297 -0.0031143385 -0.0030844198 0.0068480717 -0.004689344 -0.0025570795 -0.0017055853 0.004559864
0.006598633 -0.0064434283 -0.0025222471 0.0014616167 0.0010371123 0.0057297354 -0.0011411742 -2.914475e-05
-0.007235123 0.0034921519 0.00027728546 0.0004982532 -0.00031503948 0.00628078 0.00015855656 0.000273214
0.003144415 0.0040875897 0.011301452 -0.005098543 0.00064454996 -0.0023064709 -0.00094191055 0.012101192
-0.0014615293 0.003859994 0.0022861152 0.0016883863 -0.002307867 0.0006927197 0.0028208885 -0.002388595
0.00163663 0.00015784688 -0.0032332595 0.0063432697 -0.00051909295 0.008998279 0.0064785276 0.00025188428
0.0016986857 0.002514388 -0.0023417636 -0.00016254128 -0.003584513 0.0018877882 0.0057440135 -0.0035095222
-0.003906924 0.0032217263 -0.0027450914 -0.00652095 0.00012108695 0.0019836023 0.010925264 -0.00080778275
0.00999519 0.008821392 -0.0020273353 0.004826646 0.011220511 0.004957702 0.009547737 0.0004018063
0.002852812 -0.002321781 -0.00047498287 -0.002770937 0.0006144422 -0.0027438079 0.005368266 -0.00076800445
-0.0009270753 -0.0002391721 -0.0028890518 -0.0023849036 -0.0044076093 0.00812643 0.0037226775 0.010156295
-0.0038228428 -0.0058077876 0.0048255646 -0.002955597 -0.004656916 0.005051383 0.0038636692 0.004464923
0.0062040295 -0.0040578097 -0.003071481 0.0026001444 0.002426992 0.009809708 0.0010457428 0.009236291
0.011500692 0.0007737656 -0.0021280115 -0.0033096045 0.0056758267 -0.0012148797 -0.00456295 -0.0020486414
0.005245987 0.0033529678 -0.0009720558 0.0041623437 -0.00076096354 -0.0019874421 -0.000290031 -0.00036346773
0.0006075402 0.0059617907 -0.0024124156 -0.0011257635 0.00025835866 -0.0038429678 0.0050433986 -0.0014294458
-0.002828052 0.009646322 -0.0019332065 0.0010531677 -0.0023089931 -0.003790054 0.0011081189 -0.0035049603
-0.0010702867 -0.0037628824 -0.0024274315 0.007002993 0.008209468 0.0049927137 0.004290131 0.009628857
0.011644329 0.00927918 -6.621674e-05 -0.0033062473 0.00085260137 0.00077949703 0.0015900895 -0.0061625605
0.011908183 0.0067115533 0.0038341128 -0.013305328 -0.001834649 0.015344755 0.001692596 -0.00075548486
0.005289466 -0.002627371 0.0050899554 0.005920343 0.0004547795 0.0049155112 0.008147429 0.0041796295
0.0020929254 -0.00020627488 0.009143763 -0.0010407862 0.0088955015 -0.005275425 -0.003891388 0.007083365
0.004925358 0.00040152913 -0.0063257697 0.0036389162 0.0065932213 0.0013111703 0.0009445641 0.0048812376
0.010755603 0.0044279858 0.0014044293 0.0022523815 0.008040447 -0.0038739508 0.002431666 -0.0025662396
0.0014130127 -0.0027214924 -0.0009787453 -0.0001289533 0.0016688844 0.0022374082 -0.0032772997 -0.0029653558
-0.0005722203 0.00016094763 -0.0022269886 -0.0011421441 0.0036030773 -0.0025419868 0.008777102 0.005973597

network_body._body_endoder.seq_layers.4.weight f4 [256, 256]
00000000: 1973 573d 0bfb 01bd d30d 1ebd f0d9 14bd
00000010: 3cff b63d da35 453d deee c43d 0989 483b
00000020: 9b2b afbd 05e9 c23c d464 b83d 7470 5f3b
00000030: 9a6e 943d 7961 233a 14f4 0a3d f043 d9bd
00000040: 783c e6bc d398 a03d a6fe 1fbd adca 563d
00000050: 4071 90bc b439 15bd c28f e33d 14e6 1abd
00000060: 7c5e a3bd bfe3 f63c d7f2 433d 7bef e6bd
00000070: 1e61 a5bd 92de 97bc f8d8 9d3d effd 3d3c
00000080: 2ca1 c13c a948 89bd 55cf 79bd 6f7d 55bc
00000090: 8329 be3d 78f6 7d3d 1e75 5b3d 4c59 68bd
000000a0: ff4f b53c 579a 7bbc 8012 5abc fed7 be3b
000000b0: dd05 40bb 92e8 e3bc 4202 423d a1e2 b93d
000000c0: 8e32 a7bc 1cfc 8bbb c104 0cbe 5797 633d
000000d0: 3a76 f8bc d997 063d 3c38 e0bd acfe 893d
000000e0: 4d3f ed3d 77f7 4b3c 8738 0a3e cf79 353d
000000f0: 333b 4b3e b9a8 1f3d 9344 48bc fa0a 563d
00000100: 1442 b13d aedf 833d 1313 d9bd 28f8 6bbd
00000110: e877 bdbc 8b8b a0bc 9a05 793d c4bd 863d
00000120: fda3 563d 34d1 0d3d 0b9e 49bd 4eb2 ee3b
00000130: ab95 943d 2427 313d 57db 603d 3fa0 edb9
00000140: 118d 8d3c 93d1 0abd e5c8 ef3c f87f 07bd
00000150: 2ab4 21bd 396f ec3c d422 d33d 892b 96bd
00000160: a13a 2e3d 6996 643d bf5c d73c 77a3 05bd
00000170: c517 ce3c 4048 babc 22e8 d7bd 5402 1cbd
00000180: 1705 8e3d 63b8 46bd ce60 07bd 82f8 81bd
00000190: d4e3 073c a2fb 32bb e56e 193e 2216 b93d
000001a0: f1f6 08bd c4e0 65bd c2b8 8b3b 1e50 6d3d
000001b0: a218 42bd c00d 7abd 066d 2dbc d7ea b63d
000001c0: 2bbd 5ebd 286c 88bd 4cc4 8e3d 12fc 633c
000001d0: 1c25 02bd 83f8 b33c 67e5 a3bd 89e0 a5bb
000001e0: cc5a 853d 112a 843d 009f 0d3c 87c2 d1bd
000001f0: 85e7 eabc 8192 3fbd b714 293d ec72 7ebd
00000200: 09af 8cbd fe0f a3bd 91cb 79bd c8bb b93c
00000210: f1ea acbd 8fd6 3ebd c16d 8dbc 156b dc3d
00000220: 79ce a73d 4d90 a4bd 5b12 623c d306 b3bd
00000230: 7f8e aabd 0046 a93c 0749 a2bc 9b9f a3bb
00000240: 5c31 efbb 399c 92bc 8080 2f3d 99bf e1bd
00000250: 5f0b a3bb 7042 1abb 8bfb 87bd 51a1 2f3a
00000260: 785e 5cbc 8efd 313d 0302 343d ad07 5fbd
00000270: 97a2 9abd 5dfe 343c a34b a4bc 7f31 f6bd
00000280: 0e31 ff3d 8d6a b83d b203 a2bd b11e 6a3d
00000290: 0c32 2e3d 3074 0abd c7e0 4cbd f777 8dbd
000002a0: 62a0 4fbd 215d 32bd 2308 fdbc ace1 59bd
000002b0: 42cd 843d 0c17 40bd 095e 69bd 5bc8 bc3c
000002c0: 4672 823b dc1a 51bd 86c0 06be 34fd cabd
000002d0: 7bc9 423d 17ac 5a3c d2c7 b0bd 67c1 15bc
000002e0: c6e4 83bd ec5e 53bd 76e2 aabb 5dc1 23bb
000002f0: 075d 43bd e603 fc3d e6d8 89bd ab52 2f3e
00000300: 2ffc 43bd 18b2 883d f628 893d 9c3b 8e3d
00000310: 2ee4 0fbe 1cef 733a 8188 39bd bb93 bdba
00000320: 7565 febc 5dc6 34bd f9a5 a73c 4ff0 f4bb
00000330: 7b94 f63c ec89 aebc 1b46 aabd 2f7f 003d
00000340: 1ed7 b03c 8087 a03c aa38 cfbd 517f 5ebd
00000350: 4280 29bd d9df 0bbd 4882 23ba a813 22bd
00000360: 18b0 983d 7674 6bbd d436 71bc c1e1 3b3c
00000370: 0421 fc3c d7a6 75bd dd33 e2ba ede5 67bd
00000380: 4960 97bd e64d 59bd 518c dcbd 9fa6 c2bd
00000390: 7121 b43d 42ed a5bd 5c8b 0abb b426 1ebc
000003a0: ec97 5bb9 0e49 d8bc 5340 c33d e91e a7bb
000003b0: 924a 6ebc 5ed5 c5bd 6f59 11bd b77a 83bd
000003c0: f42c a4bd fefa 32bc a9d1 8cbd 48f4 a43d
000003d0: 3c0f 9fbc 940f 373c af85 49bb b0c1 f73c
000003e0: 9b2b 1dbe 532b abbd b9f4 18be 07d3 0c3e
000003f0: 9c00 a63d 2e52 cabb 0740 783d adba bdbc
0.0526 -0.031733554 -0.038587403 -0.036340654 0.08935401 0.04814706 0.09615873 0.0030599257
-0.08553239 0.023792753 0.090036064 0.0034094127 0.07247658 0.0006232481 0.033924177 -0.10608661
-0.028105006 0.07841649 -0.03906121 0.05243938 -0.017632127 -0.036431983 0.11111404 -0.037817076
-0.07977006 0.030137895 0.047839012 -0.11276146 -0.08075164 -0.018538747 0.07707399 0.011596187
0.023636423 -0.06703312 -0.060988743 -0.013030394 0.092852615 0.06200263 0.05357849 -0.056725785
0.022132872 -0.015356622 -0.013310075 0.005824088 -0.002930037 -0.02782086 0.047365434 0.09076429
-0.020409849 -0.004271997 -0.13673688 0.05556425 -0.030329812 0.032859657 -0.10948226 0.06738028
0.11584339 0.012449137 0.13498126 0.04430562 0.19846801 0.038979266 -0.012223381 0.05225656
0.086551815 0.06439148 -0.10599341 -0.057609707 -0.023128465 -0.01959779 0.060796358 0.06579164
0.052402485 0.03462334 -0.049222987 0.007284439 0.072551094 0.043250218 0.05489668 -0.00045323555
0.01727918 -0.03389127 0.029270599 -0.033081025 -0.03947846 0.028861629 0.10309377 -0.073325224
0.04253638 0.055807505 0.026289342 -0.032626595 0.025157819 -0.02273953 -0.10542323 -0.038088158
0.069345646 -0.04851569 -0.033051305 -0.06346227 0.008294065 -0.002731063 0.14983709 0.090374246
-0.033438627 -0.056122556 0.004263968 0.057937734 -0.047386773 -0.06104827 -0.010585075 0.08931511
-0.054379623 -0.06661254 0.069710344 0.013915079 -0.03177367 0.021969086 -0.080027394 -0.005062167
0.06511459 0.06453336 0.008643866 -0.10242181 -0.02867485 -0.046770576 0.04127952 -0.062121317
-0.06869323 -0.07962035 -0.06098515 0.022672549 -0.08443249 -0.046591338 -0.017264249 0.10762612
0.081936784 -0.08035336 0.013798322 -0.08741536 -0.0832796 0.020663261 -0.019810213 -0.0049933917
-0.0072995853 -0.017896758 0.042847157 -0.110228725 -0.004975721 -0.0023538135 -0.06639775 0.0006699758
-0.0134502575 0.0434547 0.04394723 -0.05445068 -0.07550543 0.011046973 -0.020055598 -0.120211594
0.12460528 0.09004698 -0.07910861 0.057158176 0.042528197 -0.03380221 -0.050019052 -0.06907647
-0.050690062 -0.043545846 -0.030887669 -0.053193733 0.06484462 -0.04689698 -0.056974445 0.023044756
0.0039809076 -0.051051006 -0.1315938 -0.09911576 0.047555428 0.0133466935 -0.08631863 -0.009140349
-0.064401194 -0.051604196 -0.0052149845 -0.002498708 -0.04769614 0.12305431 -0.06730823 0.17121379
-0.047847923 0.06674594 0.06697266 0.06944963 -0.14051887 0.00093053444 -0.045296196 -0.0014463583
-0.031054238 -0.044134486 0.020464884 -0.007474936 0.030100098 -0.021306 -0.08314153 0.03137129
0.02158695 0.019595861 -0.1011823 -0.054320637 -0.04138208 -0.034149025 -0.000623737 -0.039569527
0.07455462 -0.057484113 -0.014722545 0.011467398 0.030777462 -0.059973564 -0.0017257888 -0.05661576
-0.07391412 -0.053052805 -0.10768951 -0.09504437 0.08795441 -0.08101894 -0.0021140194 -0.009652782
-0.00020942063 -0.026402023 0.09533753 -0.0051001203 -0.014544146 -0.09659837 -0.03548568 -0.064198904
-0.08016387 -0.010924099 -0.06875927 0.080544055 -0.019416444 0.011173148 -0.0030749848 0.030243725
-0.15348665 -0.08357873 -0.14937104 0.13752376 0.08105585 -0.0061743474 0.060607936 -0.023160303

network_body._body_endoder.seq_layers.4.bias f4 [256]
00000000: 9953 2f3b b71a 48b9 b6b7 12b9 ea71 b638
00000010: 881b 8539 775b 843b 6d1c e9ba d959 983a
00000020: c26c 50bb 6a6c d0ba 6e99 063c a945 12ba
00000030: e187 5e3a ce32 d3b9 3548 c4ba 8073 01bb
00000040: c033 bf3a 330d 503b ae0f 913b a560 c73a
00000050: dd27 a8ba 0f00 13bb 7a33 643b 99a7 3e3b
00000060: f8cc 8fba 3914 583a 753e bbba 8582 ce3b
00000070: 5531 033b d82b 453b 1fdc 72bb 0efb bbba
00000080: 2bfd 693a b306 6dbb f0d2 3f3b 608c 833b
00000090: 6c39 bcba 54f4 0bbb 365a c83b 3614 e0b9
000000a0: 5994 223c e550 b93b c031 c43b feb7 d8ba
000000b0: f979 ab3b f56f 40bb 1736 5f3b 0026 b339
000000c0: 61b6 11bb ea23 bb3b 712f f8b8 de23 503b
000000d0: 71d5 d5ba 90a7 02bb 4207 2ebb 4a9f 083b
000000e0: 9e1c 073c 636e 823a 9648 a5ba 1bfc f9b9
000000f0: 6730 933a 6d81 a03b c183 4d3b 6988 f83b
00000100: ea51 01ba b408 ea3b 04c6 b239 d6ab 44ba
00000110: 44dc 403a 375a e03a 046f aa3b 9e5a bb3b
00000120: e3e6 963a 5371 063a 7784 c7ba 5517 85ba
00000130: 0c7b 7ebb a0ce 5dbb 5457 553b 84df 9db9
00000140: afc1 6bb9 29f3 5a3b 7fea 813b c4bd 043a
00000150: 9187 65bb 8d82 953b b23e c93a 1fc1 c43b
00000160: 3e4d 82ba e720 003b 555c 023b 8e78 f3ba
00000170: 530f 5bbb 9879 f5ba fc55 a9b9 4bc8 e9b9
00000180: 335c 1dbb dba7 3eb9 e696 3dbb 05e9 b2ba
00000190: 959a 013b b4c8 0ebb 890a 42bb 6234 3abb
000001a0: ffba 653b 6644 7fb9 0e22 a03b 4ce9 f63b
000001b0: a8ef 1bbb 0ab0 e0ba b92c 0a3b f65a 713a
000001c0: 3a45 a03a 2dda 77ba fe64 fd3b ffe9 6aba
000001d0: 4a4a 503b 430b a73b cd1a 923b cd5c 4eba
000001e0: 2074 993a c74d c9b9 39ff 9e3b 157d 0a3a
000001f0: 1ea6 58bb dcf3 b33b 2553 1ebb 5028 a73b
00000200: 7c3d 16bb 5752 c83b 8d08 933b e88c 0d3b
00000210: b7b3 f33b c2cd 97ba b906 56ba 63f9 bf3b
00000220: 078b f0ba de29 acba e06b e5b9 8139 863b
00000230: f220 d1ba 80bb a73b 58fc ea3b 6efe c33b
00000240: 6cfd 97ba 9f64 2cbb 6c85 74ba 014e c9ba
00000250: 3f24 e13b f7e0 6d3b 56ea d63b 0266 16bb
00000260: b3e9 36bb 6da0 ba3a 264f 34bb e565 56bb
00000270: 14d1 cb3b 5caf 243b 229e 153a 7703 bd3b
00000280: 9d0e 383c 2d12 caba 209c e23a 2d69 643b
00000290: fc20 1a3c 5251 ddb8 c4cf 143c b0c1 b23a
000002a0: 5c78 e6ba 02f4 5a3b d098 f93a 0118 10bb
000002b0: f945 933b 5497 2e3b 9890 f0ba 95b7 dc3b
000002c0: e214 943b 9019 52bb f6f1 2dbb c730 85ba
000002d0: 2b96 c1ba aab3 ae39 f12d 243a 525d 02bb
000002e0: 7789 2b3b a32f 3bbb 83a9 ffba 553a a53b
000002f0: aadd 5e39 9edc 383a dc41 b73b 02f6 cf3b
00000300: cdf3 48bb 643e 50bb af27 523a 40aa d33b
00000310: 2be4 ea3a 34b9 9e3a 4129 d9ba ecd2 4e3b
00000320: 51cf f53a 0bcb 993b fb6a 3a3a d1f3 e039
00000330: ece6 41bb 4370 683b b776 f83a e7e5 0bbb
00000340: 3fa8 59b9 ee3e 68bb 014f b037 a2b0 41bb
00000350: 8f6b efba bb79 c7b9 d748 963b cc7b f3ba
00000360: 467b 95bb 2d66 5bbb 64e0 afba 5732 a139
00000370: 2e26 983b add9 023c 5e11 f43b 418b 3b3b
00000380: 8083 3e3a 5230 56bb 4981 1c3b 7666 8e3b
00000390: 0ae9 1c3b 9e66 393b 636e 1bbb 892e 8f39
000003a0: 8aa0 d73b 0f3e 78bb b368 0b3b 4151 d63b
000003b0: 8712 de3a 2ba7 f53b 89b9 633b fe57 d93b
000003c0: 86cf 4ebb 950f 1d3b c827 71b9 dc44 813b
000003d0: b4a8 94bb 5849 353c cff3 b13b 8bc2 64ba
000003e0: e2f6 263b c872 163b 6297 91bb cc78 983b
000003f0: d5f0 83ba 620e b83a 19b9 1dbb 19de c73b
0.002675271 -0.00019083438 -0.00013992083 8.6996544e-05 0.0002538825 0.004039224 -0.0017784961 0.0011623456
-0.0031803106 -0.001590145 0.008215291 -0.0005579838 0.00084888755 -0.0004028291 -0.0014975133 -0.0019752681
0.0014587566 0.0031746149 0.004426918 0.0015211297 -0.0012829263 -0.0022430455 0.0034820721 0.0029091595
-0.001097112 0.00082427595 -0.0014285581 0.0063021802 0.0020018418 0.0030085947 -0.0037057472 -0.0014341788
0.00089259696 -0.0036167323 0.0029270016 0.0040145367 -0.0014360375 -0.0021355348 0.0061142696 -0.00042739668
0.009923064 0.0056553953 0.005987376 -0.0016534326 0.005233046 -0.0029363607 0.003405934 0.00034169853
-0.002223395 0.0057110684 -0.00011834398 0.003175966 -0.0016314221 -0.00199363 -0.002655462 0.0020846897
0.008246569 0.0009951111 -0.0012610133 -0.00047680814 0.0011229635 0.0048982413 0.003135905 0.0075846207
-0.00049331656 0.007142151 0.0003409834 -0.0007502412 0.0007357041 0.001711673 0.0052012224 0.0057175895
0.0011512901 0.0005128581 -0.0015221973 -0.0010154048 -0.0038830666 -0.0033845082 0.0032553272 -0.00030111906
-0.00022483499 0.0033409095 0.0039647217 0.00050636777 -0.003502343 0.004562682 0.0015353768 0.006004467
-0.0009941233 0.0019550861 0.001989146 -0.0018575357 -0.0033425882 -0.0018728254 -0.00032298255 -0.00044590453
-0.0024011254 -0.00018182343 -0.0028929054 -0.0013649767 0.0019775976 -0.002178711 -0.002960833 -0.002841257
0.0035054085 -0.00024344175 0.004886872 0.0075351354 -0.002379397 -0.0017142307 0.0021083786 0.00092069746
0.0012227662 -0.0009454813 0.0077329865 -0.000896126 0.003178256 0.005097778 0.0044587613 -0.0007872105
0.0011707582 -0.00038395656 0.0048522023 0.0005282921 -0.0033057998 0.005491717 -0.0024158445 0.005101241
-0.002292483 0.0061133313 0.0044871033 0.002159888 0.007437195 -0.0011581706 -0.0008164454 0.0058585866
-0.001835198 -0.0013135036 -0.00043758657 0.0040962105 -0.0015955253 0.0051187873 0.007171195 0.005981258
-0.0011595911 -0.0026305092 -0.0009327743 -0.001535833 0.006870776 0.003629742 0.0065586967 -0.0022948985
-0.0027910292 0.0014238484 -0.0027512996 -0.0032714542 0.0062199924 0.0025128936 0.00057074626 0.0057682353
0.011233953 -0.0015416794 0.001728896 0.0034852729 0.009407278 -0.00010553248 0.009082738 0.0013638046
-0.0017583477 0.00334096 0.0019042734 -0.0021986964 0.0044944254 0.0026640492 -0.0018353639 0.006735752
0.004519091 -0.0032058693 -0.0026541925 -0.0010161632 -0.0014769485 0.00033321726 0.00062629493 -0.001989205
0.0026174465 -0.002856233 -0.0019505474 0.005042354 0.00021254146 0.00070519175 0.005592568 0.006346465
-0.0030662895 -0.003177547 0.00080167776 0.0064595044 0.0017920783 0.0012109638 -0.0016568081 0.0031558825
0.0018753802 0.004693394 0.0007111278 0.00042906267 -0.0029587103 0.0035467304 0.0018956278 -0.002134675
-0.00020757409 -0.00354379 2.1017624e-05 -0.0029554744 -0.0018266308 -0.00038046934 0.00458632 -0.0018576323
-0.0045618145 -0.003347765 -0.0013418314 0.0003074582 0.0046432232 0.007986468 0.0074483594 0.0028616937
0.000726752 -0.003268261 0.002388077 0.0043457104 0.0023942613 0.0028289924 -0.0023716919 0.00027309757
0.006580417 -0.0037878787 0.0021272122 0.006540448 0.0016942777 0.0074967346 0.0034748039 0.006632804
-0.00315568 0.0023965586 -0.0002299837 0.0039449763 -0.0045367125 0.01106485 0.0054306756 -0.0008726499
0.0025476743 0.0022956599 -0.004443095 0.004653072 -0.001006628 0.0014042372 -0.0024066626 0.006099474

action_model._continuous_distribution.log_sigma f4 [1, 2]
00000000: b901 a0bb 9e2d f7bb
-0.004883018 -0.00754328

action_model._continuous_distribution.mu.weight f4 [2, 256]
00000000: b8c7 e0ba 26ad cebc ff9a 3d3c 1885 833b
00000010: 8e5b 6b3c 5c58 b6bc 19ff 513c 5fa1 55bc
00000020: 313d 26bc 5f20 91ba a5fe 893c 1d69 933c
00000030: e518 363c 1c37 053d 7e39 0fbc 57ac 3338
00000040: a52a 5cbc a5d1 61bc 6ce0 2f3c 1857 103d
00000050: f517 63bc 231f 91bc 8f88 8d3c ce9b 4ebc
00000060: 8184 e83b 47a2 253c 3a81 c23b dca0 9539
00000070: 35c2 003d 53ae 80bb c0fc 05bc 87cc cbbc
00000080: 3be6 373b 38e5 85bb 05e1 be3c 7351 523c
00000090: 483f b1bb 74ae aebc be26 2e3c be87 87bb
000000a0: 634c d1b9 d9c2 1f3a 0784 993b 7c68 d8bb
000000b0: 94a9 aabb e550 c83b 4653 66bb b86d c1bc
000000c0: a0b7 cabc 37be 013c e6db 8b3c e05a 1cbc
000000d0: 19da 093c e37d 2f3c 9cab babb b45d 023b
000000e0: e010 7b3a 4e2c 80bc 5ac0 c5bc d296 4dbc
000000f0: 6de8 b1bb 3757 7abc 85bb 68bc aa19 b93b
00000100: 4e03 b8bc d382 f03b 47a8 8f3c bbb4 203b
00000110: d6c7 49bc 6841 5f3c 0fe2 063c 59d2 863b
00000120: 2742 913c 4e21 5f3c 5eb3 a93b 9386 34bc
00000130: 0751 963b ab8c d2bb 74a5 1ebc e57f 01bd
00000140: b6b3 82bc f7ea b0ba 813d a7bb ae97 5a3b
00000150: 50b2 a0bb dc90 313c 2907 e83b ab27 26ba
00000160: f9eb 743b 8021 6bbc 78fc 4bbb c689 afbb
00000170: aa84 833a 77a8 a63c 2f5c 273c fb05 0e3b
00000180: 6e75 d13b 8da2 d43c 058f 363b 9bff a93b
00000190: 6c51 573c 8471 8fbc 9c5a bd3b 5018 05bc
000001a0: 6a4d bcbc 69b5 0cbc f976 f5bb 28ac 1d39
000001b0: f7ef aaba 0da7 0abd fa57 5fbc 600f b23b
000001c0: 6c33 0c3c 5130 3aba e9c6 77b9 7e9d 04bc
000001d0: 938e 51bc 7825 623c b2af 9b3b 7f7c da3b
000001e0: 3b12 433c e148 403c f4a0 6d3b 790c 5fbc
000001f0: cebd 3e3b 3565 68bb 0126 2cbc d53d 463c
00000200: 86b4 a7bc 6555 943c 1cc5 d1bb e01f f7ba
00000210: 1d64 193c 5a86 a6bc b11d d1bb 2445 49bc
00000220: 174b f8ba 8f7b 853c 6b7c e33c 9eba 39bb
00000230: aca6 85bc 50a3 4e3c c54f bd3b 475e 5a3c
00000240: 9f34 d7bb abfa 7aba ebf9 75bb ee1a 6e3c
00000250: b25c c13b 1b26 1dbc 7d20 863b 0538 a6bc
00000260: f16b 68bc 9b39 4cbb b707 463b 9c99 6cbc
00000270: c926 ee3b 1e16 32bb 83ec ce3a 9ccb bc3b
00000280: 84a0 37bb 4c99 61bc 0077 95bc 6ff1 d13a
00000290: ae7f 6e3a da72 1f3b 2395 27ba 5ea8 03bc
000002a0: 75ef ea3b 64e1 b0bc e569 9c3b 19cd 923b
000002b0: 1a7c 203c 7085 51bc f011 513c 909f 6c3b
000002c0: 595a 89bc 1291 68bb bd80 343b 18ce bfbc
000002d0: cb76 62bc cf50 97bc 93c5 ec3b 7f66 3e3c
000002e0: fde9 953c 7e3e c9bb 5ced 803c 46b3 e13c
000002f0: cd41 e83b 88f2 b03c 4378 903c 47e7 603b
00000300: 3a02 c2bb 65d5 25bc 79e2 803c 86a8 6a3b
00000310: 5cd6 c23b 91a7 edbb 352a 1c3c 8c56 cdbc
00000320: dbfc 743c 252e a9ba c083 e13c 3703 51bc
00000330: 5a45 043a 701d 393c 09c6 b8b8 0f52 ddbb
00000340: e4c8 a0bb 8e14 edbb b115 0abc cb76 a2bb
00000350: 71a6 263c 2f40 62bc aeba 253c 9048 44bc
00000360: f36b e539 bded 7fbb 25e3 abbc fd1b 2f3c
00000370: d3a7 ca39 bf56 a73b 860b a93b 6115 f73c
00000380: cab2 cfbb 42eb a0bb 9f8d 54bb a66f 0cbc
00000390: 53d7 e13b f23e e73c 1fe3 b0bc bf48 aabc
000003a0: 36c9 8bbc dc1b 02bc 8447 103c ff51 aebb
000003b0: 1dd4 6b3b 2769 10bc 06b0 de3b d3e0 4bba
000003c0: bcf5 553b 3b19 5dbc 174f 903a cd43 8f3c
000003d0: aa5a 71bb 2986 0e3a 402a 38bc d46f 963b
000003e0: 15e2 db3b 8f06 30b9 e913 20bb 497a 8f3c
000003f0: 6937 643c f0b7 0b3c a553 1c3a 2e83 77bc
-0.0017149365 -0.025229048 0.0115725985 0.0040136687 0.01436509 -0.02225893 0.012817168 -0.013038962
-0.010146425 -0.0011072269 0.016845057 0.017994458 0.011114334 0.03252326 -0.008741735 4.283743e-05
-0.013437902 -0.013782893 0.010734659 0.03523931 -0.013860692 -0.017715042 0.01727703 -0.012610389
0.007095874 0.010109491 0.005935815 0.00028539344 0.03143521 -0.003927031 -0.008177936 -0.0248778
0.0028060812 -0.004086163 0.023300657 0.012836802 -0.005409155 -0.02132342 0.010629354 -0.004136055
-0.000399205 0.0006094403 0.0046849283 -0.0066042524 -0.0052082036 0.006113159 -0.003514485 -0.023611888
-0.024745762 0.007918886 0.01707263 -0.009543151 0.008413815 0.010711166 -0.005696727 0.0019892277
0.00095774047 -0.015646126 -0.024139572 -0.012548165 -0.0054293186 -0.015279583 -0.014204864 0.0056488113
-0.022462513 0.007339814 0.017536296 0.0024521786 -0.012315711 0.013626434 0.0082326075 0.004114431
0.01773174 0.01361878 0.005178853 -0.011018413 0.004587296 -0.0064254603 -0.009683002 -0.03161611
-0.015954833 -0.0013497759 -0.0051037674 0.0033354568 -0.004904069 0.01083776 0.0070809317 -0.00063383084
0.0037372096 -0.014351249 -0.0031125825 -0.005357 0.0010034044 0.020344002 0.010214849 0.0021671045
0.0063921725 0.025956417 0.0027856242 0.0051879412 0.013141971 -0.017510183 0.0057786237 -0.008123472
-0.022986133 -0.008588173 -0.0074909893 0.0001503682 -0.0013041486 -0.03385072 -0.013631815 0.0054339617
0.008557182 -0.00071025366 -0.00023629855 -0.00809419 -0.01279034 0.013802879 0.004751169 0.006667673
0.011906202 0.011736126 0.0036259266 -0.013613814 0.0029104832 -0.0035460715 -0.010507108 0.012099703
-0.020471822 0.018107126 -0.006401671 -0.0018854104 0.009362248 -0.020327736 -0.0063817133 -0.012284551
-0.0018943277 0.016294269 0.027769288 -0.0028339992 -0.016314827 0.012612179 0.0057773315 0.0133281415
-0.006567552 -0.00095740956 -0.0037532996 0.014532788 0.0059009427 -0.009591605 0.0040932284 -0.020290384
-0.0141858915 -0.0031162265 0.0030217 -0.01444092 0.007267807 -0.0027173827 0.0015787039 0.005761577
-0.0028019259 -0.013769459 -0.01824522 0.0016017387 0.0009098005 0.0024329931 -0.00063927675 -0.008035747
0.007169659 -0.02159185 0.004773366 0.004480016 0.009795213 -0.012788162 0.012760624 0.003610585
-0.016766714 -0.003548686 0.0027542554 -0.023413703 -0.013822268 -0.01847115 0.007225701 0.011621117
0.01830005 -0.006141483 0.015738182 0.027551305 0.007087922 0.021600023 0.01763547 0.003431754
-0.0059206756 -0.010121678 0.01573299 0.0035806014 0.005945964 -0.0072526415 0.009531547 -0.025065683
0.014952864 -0.0012907429 0.027528644 -0.012757114 0.00050457346 0.011298522 -8.8106906e-05 -0.006754167
-0.0049067605 -0.0072351163 -0.008428023 -0.004958009 0.010171519 -0.013809248 0.010115309 -0.011980191
0.00043758712 -0.0039051615 -0.020982334 0.010687825 0.0003865348 0.0051067765 0.0051588444 0.030161561
-0.006338452 -0.0049108574 -0.0032433046 -0.008571541 0.0068921237 0.028228257 -0.021592675 -0.020786641
-0.017063718 -0.0079412125 0.008806113 -0.0053198333 0.0035984584 -0.008814133 0.006795886 -0.0007777337
0.003264769 -0.013494785 0.0011009899 0.017488385 -0.0036827722 0.00054368615 -0.011240542 0.0045909677
0.0067103007 -0.00016787111 -0.002442593 0.017514365 0.013929226 0.008527741 0.0005963392 -0.015106959

action_model._continuous_distribution.mu.bias f4 [2]
00000000: 5a75 453a c9c1 2fbb
0.00075324404 -0.0026818386
