MLAgents Jumper Exercise/Assets/results/Jumper_1/JumperAgent/JumperAgent-123135.onnx (onnx, 570158 bytes, 15 tensors)

network_body.observation_encoder.processors.0.normalizer.running_mean f4 [26]
00000000: 4605 5b3f 75ae 5f3f 6310 5b3f 79c7 5f3f
00000010: e60f 5b3f 09c7 5f3f a5d7 5b3f 5036 603f
00000020: a5d7 5b3f 5036 603f f462 5c3f bef7 603f
00000030: f462 5c3f bef7 603f df37 5e3f 1903 633f
00000040: df37 5e3f 1903 633f 8eae 663f cec9 693f
00000050: 8eae 663f cec9 693f 1b97 6e3f f874 703f
00000060: 1b97 6e3f f874 703f
0.8555492 0.87375575 0.8557188 0.87413746 0.85571134 0.8741308 0.8587592 0.87582874
0.8587592 0.87582874 0.8608849 0.87878025 0.8608849 0.87878025 0.86804 0.886766
0.86804 0.886766 0.901101 0.91323555 0.901101 0.91323555 0.9319932 0.9392848
0.9319932 0.9392848

network_body.observation_encoder.processors.1.normalizer.running_mean f4 [2]
00000000: 75d6 f53d 70f4 96bc
0.12003795 -0.018427104

network_body._body_endoder.seq_layers.0.weight f4 [256, 28]
00000000: b8a0 c73e 87ae 26be 8b04 65be efff 96be
00000010: 6300 c93d 73ee 93be a6bf 1abe 051c 553e
00000020: 45ab f9bd c262 b23d ad13 8d3e 2a03 d53d
00000030: 8bd8 a2bd 40fb 8a3d cf39 823d 4e51 e2be
00000040: 46b9 dcbc 730f 99be 707f fd3d 434c 45bd
00000050: 695f 4dbe 7b86 c63c d681 c83d cd8c 4f3e
00000060: 55c0 b0bd 3f0b 863d 46db 11be f471 523e
00000070: 5c88 a6be f2d0 4dbe 3989 fe3c 87bd 2ebe
00000080: 5c24 503e 3c47 e9bd 0503 3e3d ab6e 6abe
00000090: 9f0c e63e c8dd debc c6a3 f13d eeaa e03d
000000a0: 6358 4a3e 116b bd3e 9318 4cbe f26a 42be
000000b0: d792 833e ec02 1abe 319b a7bc 4494 c53c
000000c0: 9ffa 563e ce51 fbba 39ff 37bc 80c0 293e
000000d0: 61d0 43bd 4de2 da3d 6752 df3d a23b 6c3c
000000e0: 367c 653e f954 9abc 13e8 223e 884a 43bd
000000f0: 109c 93bd e61b b63e 3ad4 b2bd c7df 0abe
00000100: 2235 1abe c74f 42bd a5a1 363e 55d1 ea3d
00000110: d3f5 13bf fcb6 d33e 8c59 903e cef7 85bd
00000120: 6566 92bc 799d 53be 41ea f53b fd44 833d
00000130: 697c fe3c b37c f1be af20 80bd e359 88bc
00000140: 4368 803e 3f99 303e ffd6 fb3d 6a4b fcbd
00000150: 8012 e6be 5f09 a63d d70f 83be 7458 6bbe
00000160: 2d7a b33e 7437 05bc 80b6 76bd 029d fbbd
00000170: 14b7 8f3c caef 3a3e 18f2 f1bc 90ae b0bd
00000180: 9ee7 2fbd 8fef 91bd 5de4 543e 38f4 9cbe
00000190: 46e6 9cbc e15d d43d 1f41 153d 8325 4e3c
000001a0: 544e b63d 1645 cbbe bf46 9dbd 003b 023e
000001b0: d8cc 423e e75e 533e cb8a 93be 75ac 1a3e
000001c0: faa3 3f3e 2be1 af3d 6517 63be e4bc c4bc
000001d0: 46fc 25be 58ab 803d 0fe4 93bd f48d 24be
000001e0: 6c2a 9abd 5b08 193d c04c 593e a2f8 333e
000001f0: 7bc1 d13c e27a cc3d c19f 19be 98ef a83c
00000200: a782 993d bad3 603d 8c8f a63e 97d6 eb3d
00000210: 720b f93d f33f 05be 73ba 00ba ea83 0bbd
00000220: 53f5 94be 1c6a 8f3d 8538 4d3e 9e98 d4bc
00000230: 8ff2 73bd 69ed 45bc a1be 46be c4ca 3a3e
00000240: 0f87 71be b52e b53d 115b af3c 6238 e03d
00000250: f1d8 a13d a32b 443b 6c27 fcbd 1aa1 74bd
00000260: 3b42 12bc 515a 903e ea10 22be 7bc6 8c3e
00000270: 7178 2fbe cf36 6fbe 8b88 463e f6a9 93be
00000280: 574f 23bd 1f69 903c c3db 2b3d 1889 9fbe
00000290: b830 8c3d e4e6 cfbd f441 ad3d 7e52 0f3e
000002a0: e866 62bd ea3a 33be 2540 9e3d 8c91 01bd
000002b0: bdfe 92be 11a5 0ebe 794b 093e 4bed 353e
000002c0: b154 113e 185b d33c f84d f0bd 652a 0b3b
000002d0: 1a37 1abd 9667 d5bd beb4 3d3b 3be5 0bbe
000002e0: 946e 82be af03 99bd c4a3 f63d 245f 0ebd
000002f0: b5b2 06be 726c 80be 3a6d 293e 2449 f93b
00000300: 7bf6 7a3d 9f1e f13d caa6 b9bd 3312 bc3d
00000310: eaec 563e e73a 08be 1009 97be 49a9 363d
00000320: dc04 df3d 5313 6abe f80f 793e aa78 ca3e
00000330: 7cb5 99be ded2 dc3d 7e35 513e 0d99 3d3e
00000340: 51f1 fe3d c0b5 933c b245 513d b9de 64bd
00000350: 605d 273c 05d5 5ebe a1dc 15be 8e8e cc3e
00000360: 9138 23be 3dc4 d1bd feac 71be a63f be3d
00000370: bbaf 9c3d 4724 233e e192 7abe e53b 3c3d
00000380: d4f1 05be f0ed f73d 3fc4 873e 946e 823e
00000390: 6fb5 81be c8a8 6d3e 5fde 31be 3e4c 773e
000003a0: 6d3e 173e 5b11 1dbe 0ff0 bc3d 05f1 9f3e
000003b0: bb20 92bd 9a71 97bd fd8c 0e3e 9cc7 13bd
000003c0: 2e57 babe 5ac1 a13e 2fb3 663e 71df 89bd
000003d0: 43d7 a1be 73db c3bd 183d 3dbd d67a 10be
000003e0: 1740 88be 1aa9 8e3c b38d 8a3e c17c 84bc
000003f0: c22d 8b3b 9644 a7be 0eb8 923e c267 68bd
0.38989806 -0.16277514 -0.22365014 -0.29492137 0.09814527 -0.2889286 -0.1511217 0.2081147
-0.1219087 0.08710243 0.27554074 0.10400994 -0.079514585 0.067862034 0.06358682 -0.44202656
-0.026943814 -0.298946 0.123778224 -0.048168432 -0.20055927 0.024234047 0.09790389 0.20268555
-0.086304344 0.06545114 -0.14243802 0.20551282 -0.3252591 -0.20099238 0.031071292 -0.17064486
0.2032637 -0.1139054 0.0463896 -0.22893779 0.44931504 -0.027205363 0.117988154 0.10970102
0.1976028 0.36995748 -0.1993125 -0.18986109 0.25697967 -0.15040177 -0.020459743 0.02411855
0.20994042 -0.001917416 -0.011230283 0.16577339 -0.047806147 0.10687695 0.10904389 0.014418514
0.22410664 -0.018839346 0.15908842 -0.0476785 -0.07207501 0.3556816 -0.08731885 -0.13561927
-0.15059331 -0.047439363 0.178351 0.11465708 -0.57796973 0.41350543 0.2819332 -0.065414056
-0.017871091 -0.2066554 0.007504732 0.06409643 0.031065183 -0.4716545 -0.06256234 -0.016644424
0.25079545 0.17245959 0.122968666 -0.123190716 -0.4493599 0.08107256 -0.25598022 -0.22982961
0.3505415 -0.008130897 -0.06023264 -0.12285806 0.017543353 0.18255535 -0.029534385 -0.08627045
-0.042945497 -0.0712577 0.20790239 -0.30655074 -0.019152772 0.103694685 0.036439057 0.012582186
0.08901659 -0.39701146 -0.07679509 0.12717819 0.19023454 0.20641671 -0.28816828 0.1510485
0.18714896 0.08587869 -0.22176893 -0.024015851 -0.16209516 0.06282681 -0.07221233 -0.16069776
-0.075276226 0.037361484 0.21220684 0.17575315 0.025604954 0.099843755 -0.15002348 0.02062206
0.07495623 0.05488942 0.32531393 0.11515539 0.12160386 -0.13012676 -0.00049105956 -0.03406135
-0.29093418 0.07002661 0.20041092 -0.02595168 -0.059557494 -0.012080529 -0.19408657 0.18241411
-0.23586677 0.08846799 0.021405729 0.10948254 0.079027064 0.0029933236 -0.123122066 -0.05972395
-0.008926923 0.28193906 -0.15826765 0.2749518 -0.17135789 -0.23360752 0.19388025 -0.28840607
-0.039870586 0.01762825 0.041957628 -0.31159282 0.0684523 -0.10151461 0.08459845 0.13996312
-0.05527392 -0.17502943 0.07727078 -0.031632945 -0.28709975 -0.13930155 0.13407697 0.17766301
0.14192463 0.025800273 -0.11733621 0.0021234986 -0.037650205 -0.10420148 0.0028946842 -0.13661663
-0.2547499 -0.07471406 0.120429546 -0.034758702 -0.13154109 -0.25082737 0.16545573 0.007607596
0.06127022 0.11773419 -0.090650156 0.09183159 0.20988813 -0.1330372 -0.29499102 0.044595037
0.10889599 -0.22858934 0.24322498 0.39545184 -0.30021274 0.10782407 0.20430562 0.18515415
0.12448371 0.018031001 0.051091857 -0.055876467 0.010215133 -0.21760948 -0.14634944 0.3995251
-0.15939547 -0.102425076 -0.23601148 0.09289484 0.076507054 0.15931807 -0.24470092 0.045955557
-0.13080531 0.1210593 0.2651691 0.2547499 -0.25333735 0.23208916 -0.17369984 0.24150178
0.14769907 -0.15338652 0.09225475 0.3123857 -0.07135149 -0.07394715 0.1392097 -0.036079034
-0.36394638 0.31592828 0.2252929 -0.06732071 -0.31609544 -0.09563341 -0.04620084 -0.14109358
-0.26611397 0.017414618 0.27061233 -0.016172769 0.004247398 -0.32669514 0.28656048 -0.056739576

network_body._body_endoder.seq_layers.0.bias f4 [256]
00000000: 0133 acba c0a2 553b 8e13 8139 4af3 563a
00000010: e0d2 6c3a e692 ebb9 bc48 9fba a829 ce3a
00000020: 526f 4b3a 8b57 23ba fa43 b1ba 23be 48ba
00000030: 0bc3 bc39 45b1 d138 708f e3ba bd4d f2b9
00000040: 92f5 dcba c8f8 bc3a 9512 52b9 b75b 333b
00000050: 4ca2 b93a adef 9d39 1aaf 223b 8f0e 0a3b
00000060: 1c77 08b9 2dca b03a 8ca2 023b 4812 b2b9
00000070: 085e 223b 7f3b 963a 5455 723b 3e1a 3dba
00000080: bb32 86ba 3843 993b 7777 2c3b cbef 24bb
00000090: 0459 8f3a 8582 ef39 f859 27ba 03b9 f039
000000a0: 16a6 183a 8d6b faba 752e df39 a078 df3a
000000b0: 894a 21ba 07b2 54ba 13f0 263a 203c 7d3a
000000c0: a400 ed3a 90e7 493a 3c78 ff3a 5ad1 393b
000000d0: a77b 8c3b b7d1 b239 0089 9cba 44b7 d838
000000e0: 4129 353b 9a38 a63a f56b 04ba d746 d839
000000f0: 8677 4c3a 5148 1d3b 4019 97ba c386 f1ba
00000100: 0129 68ba 143a cab9 170a 5239 fa01 12bb
00000110: 713a b7ba 2fd9 ef3a e937 edb7 c682 fd3a
00000120: 73dd 813a c914 9c39 1621 4b3a 12ff ba3a
00000130: cae9 863a 89fd 823a b05e 5c3a 6a32 3d3b
00000140: 6b4b 903b 59ee d33a 758b 363b 3518 17b9
00000150: 0d45 d1ba 69b7 1fba 1189 cfb9 e682 473a
00000160: 3fd2 b639 da8b 7839 df5f 093b 3a73 9e3a
00000170: 3aba 303a 57e9 3c3b 696f 79ba a495 1a3b
00000180: defd a1b8 8a74 13ba ec56 673a 7da1 52b9
00000190: 3ed1 123b 6e16 3dba 043d 91b9 2c7f 3839
000001a0: 2eee e03a 333b bb3a 16c6 d73a 6a39 783b
000001b0: ce57 b9b9 3ad6 2f3b 5817 bc3a 7501 9f3a
000001c0: cc93 21ba 4039 eab9 e6cc 883a 8f07 8fba
000001d0: 9c22 3bb9 fc5b 073a 4ff7 113b 2f21 3e3b
000001e0: 872d 8839 59fe 953a db8b fe3a ff74 873a
000001f0: 9d70 953a 01fe aeb9 f099 40bb 371d 5b3b
00000200: 3fb8 daba f44d 96ba eb40 0c3b cdf8 91ba
00000210: 7806 123a 5bc3 1fbb 9c3b f6b9 be3b 5aba
00000220: 1856 61bb 0d44 603a 7b93 3ebb d984 d2ba
00000230: 600c a23a 6f86 4a3b 1a9b 4a3b 611f ac3a
00000240: 7e14 ccb9 eaf7 063a ffd7 c0b9 2c64 92ba
00000250: 4cd5 f73a 1a8e ac3a c160 5f3a 957e 87ba
00000260: a214 7d39 5227 8739 a3fb a0ba 2e5d 8b39
00000270: 63f8 873a fc09 edb8 715e 11ba 3c72 32bb
00000280: b2c5 9837 7b75 5dbb 1225 343a 38c5 8dba
00000290: 320d 603b b547 08b7 a52f 9e3b bac7 3ab9
000002a0: 5d89 c039 f7e9 e73a 3683 9dba 644e 6739
000002b0: 2605 84b9 00ff 343b bad0 a437 001f 6fba
000002c0: 221f 98ba aeea 0abb 9887 9cba 1eb5 5c3a
000002d0: 8996 2aba 01d0 733a 02ee e2ba 7df3 e73a
000002e0: d5b7 063b 3db9 b83a ac2e 113a 0378 9f3a
000002f0: 1db1 8a3b 0a49 a7ba 7721 993a b2f3 5bba
00000300: d845 2dbb 518f 083b d30a 11bb 6cec 4b3a
00000310: 998e 6a3b bd1a 8a3a 4382 2f3b 1f79 6539
00000320: 5eb8 073a a04d 543a 642e ce3a 310d b439
00000330: 7cb5 153b 764a ff3a d648 f339 468a 02bb
00000340: 9d58 b2ba b941 433a cf5e 973a 4601 443b
00000350: 2e16 513a cc26 043a 9c4b c83a c9b8 11bb
00000360: 8f0c 663a 3af1 f2b9 2884 e0ba efe7 1c3b
00000370: 8be5 9f3a c767 633b 044c 10ba 9971 e73a
00000380: 9863 7339 6902 31ba 571f 1839 7163 813a
00000390: e0de b4b9 1c1e e9ba 15ce b8b9 e87c a63a
000003a0: c957 ed3a a4d3 ed3a ea06 9e3a 328a 31ba
000003b0: b86f a93a c4a1 0c3a 0e9d 483a bb4f 573a
000003c0: a709 6b3a 720c bf3a cc7d d93a b624 2f3b
000003d0: cc9f 42ba e7c1 c739 b935 8d3b 821f 7f3a
000003e0: 08f6 c73a 2ce6 6cba ef9f dcba a7ec 233b
000003f0: 6f2f c139 8206 8937 fe98 99ba 57fa 323b
-0.0013137759 0.0032598227 0.00024619367 0.0008199705 0.00090341084 -0.0004493214 -0.0012152414 0.0015728967
0.00077604235 -0.00062310015 -0.0013524287 -0.0007657727 0.00036003473 9.9989156e-05 -0.0017361473 -0.00046215756
-0.0016857854 0.0014417404 -0.00020034083 0.0027367899 0.0014162748 0.00030123946 0.0024823607 0.0021065807
-0.00013014342 0.0013487987 0.0019933311 -0.00033964426 0.0024775285 0.0011461823 0.003697713 -0.0007213688
-0.0010238508 0.0046772026 0.0026316324 -0.0025167342 0.0010936563 0.00045682877 -0.0006383951 0.00045914212
0.00058230886 -0.0019105539 0.00042568488 0.0017049499 -0.0006152769 -0.00081136863 0.00063681713 0.00096601434
0.0018081856 0.0007702047 0.0019490789 0.0028353543 0.0042872014 0.00034107055 -0.0011942685 0.000103338185
0.0027642997 0.0012681664 -0.0005051487 0.0004125151 0.0007799793 0.0023999403 -0.0011527911 -0.0018427003
-0.0008856208 -0.00038571714 0.0002003092 -0.002227901 -0.0013979209 0.0018298979 -2.8278637e-05 0.0019341342
0.0009907916 0.00029770125 0.00077487656 0.0014266691 0.0010293063 0.0009993772 0.00084064435 0.002886916
0.004403522 0.0016169056 0.002785412 -0.000144095 -0.0015966013 -0.0006092699 -0.0003958424 0.0007610753
0.0003487039 0.00023703222 0.0020961685 0.0012088784 0.0006741617 0.0028825605 -0.00095151976 0.0023587728
-7.724365e-05 -0.00056249707 0.0008824903 -0.0002008732 0.002240255 -0.000721312 -0.00027702015 0.00017594983
0.0017160827 0.001428461 0.0016462232 0.0037876018 -0.0003535137 0.002683057 0.0014350219 0.0012131172
-0.0006163686 -0.00044674613 0.0010437041 -0.0010912287 -0.00017846603 0.0005163548 0.0022272652 0.0029011478
0.00025973862 0.0011443599 0.0019420342 0.001033455 0.0011401359 -0.00033377114 -0.002938863 0.0033434161
-0.001668699 -0.0011467324 0.0021400999 -0.001113677 0.0005570422 -0.0024377916 -0.0004696519 -0.00083249423
-0.0034383591 0.0008555062 -0.0029079604 -0.001606132 0.0012363307 0.0030902883 0.0030915202 0.001313191
-0.0003892518 0.00051486364 -0.00036782023 -0.001116877 0.0018908172 0.0013164908 0.00085211924 -0.0010337407
0.00024135647 0.00025778502 -0.0012282025 0.0002658157 0.0010373708 -0.000113029004 -0.0005545384 -0.0027228734
1.8211871e-05 -0.0033791948 0.0006871979 -0.0010816222 0.0034187553 -8.122927e-06 0.004827457 -0.00017812746
0.00036723437 0.0017693628 -0.0012017253 0.0002205908 -0.00025180838 0.0027617812 1.964752e-05 -0.0009121746
-0.0011605958 -0.002119701 -0.0011942266 0.00084193225 -0.0006507417 0.00093007094 -0.0017313363 0.0017696467
0.002055635 0.0014093291 0.00055382657 0.0012166504 0.0042325393 -0.0012762856 0.0011682947 -0.00083905004
-0.0026439335 0.0020837376 -0.0022131696 0.0007779065 0.0035790561 0.0010536533 0.0026780523 0.00021884263
0.0005177314 0.0008098725 0.0015730378 0.00034342104 0.0022843769 0.0019477147 0.0004640284 -0.0019918843
-0.0013606731 0.0007448453 0.0011548641 0.0029907986 0.00079760223 0.00050411816 0.0015281322 -0.0022235385
0.0008775675 -0.00046337565 -0.0017129229 0.0023941954 0.0012199146 0.0034699307 -0.0005504491 0.0017657756
0.00023211387 -0.00067523733 0.00014507525 0.0009871555 -0.0003449833 -0.0017785463 -0.00035248758 0.001270202
0.0018107827 0.0018144739 0.0012056504 -0.0006772607 0.0012926972 0.0005364681 0.00076527975 0.000821348
0.0008965977 0.0014575853 0.0016593277 0.0026724762 -0.0007424324 0.00038100706 0.0043093828 0.0009732173
0.0015255818 -0.0009036984 -0.0016832332 0.0025012882 0.0003684717 1.6334703e-05 -0.0011718569 0.0027309859

network_body._body_endoder.seq_layers.2.weight f4 [256, 256]
00000000: 77a1 3cbd 256a 28bd 37ec 5cbd 89bb 2cbc
00000010: 1d1c a93c 841c 95bc ec36 4ebd 263f 76bd
00000020: 6e8c 7bbd fe61 0a3d e424 cdbc 1352 74bd
00000030: 3743 203d 761f e9bc 0172 82bd e156 f0bc
00000040: 2d69 c43c 64a3 18bd 3216 033c 9623 343b
00000050: c8fa 423d e052 d1bd bb32 52bd f6fd 78bc
00000060: 8af2 033b 3613 d43c b78d 71bc 3882 7ebd
00000070: dfa5 913b dfd7 8f3d 82aa 63bc 130c 28bd
00000080: 5476 b53d b6a9 e53d 1aaf 5a3c f5e6 a9bc
00000090: b140 e53d 9f6d 413c 25bf 88bd a854 243b
000000a0: afde 24bd 51db e23c 7b26 01bd bd4a e7bd
000000b0: 6bb9 63bd 79e3 ea3c 2e9b bc3c 7f9b c1bc
000000c0: f888 893d ee6b b1bb 9af2 033e 593a b6bd
000000d0: bb25 a7bc 25fc b8bd 4ef2 723c a707 19bd
000000e0: 8568 6a3c 847b 2dbd 0609 28bd 9568 8abc
000000f0: af9e 35bd 66b7 dfbc b168 093e 7aa6 943c
00000100: 6d01 3ebd dd90 00bb c5af 593d 1d4d 183d
00000110: 90c0 653c 1915 c03c ddb2 54b9 cb97 81bc
00000120: 58a1 27bc dd05 22bd 3721 3d3d f77b dabc
00000130: 03e8 a4bc 4caf 71bb 2d06 583c 3178 ee3c
00000140: 3a1b 1bbe a812 1dbe 047a 92bc e1db da3d
00000150: d034 dc3c 500d f9bc 4eb1 e33d 4b5f 15bd
00000160: 202e bebb 1661 29bd 2374 d43d 83ca e0ba
00000170: a37e fd3c 3766 dd3c 5d83 9bbd 8773 cb3d
00000180: f5ce 1ebd cf6b 0cbd 16bd a0bc 2f7e 803d
00000190: fbc6 c6bc 6de3 c1bc cee9 403a 6a31 063d
000001a0: 427a 573d 0c37 dd3c 9f5a 34bd 9382 8e3d
000001b0: 78a6 163d 27e7 0cbb 2271 a3bd 5dfb 89bd
000001c0: ae3f 043d 8140 7e3d 297e 7cbd 1de4 95b8
000001d0: dce8 2abb fb92 6f3c c3ba ed3b 5798 8cbd
000001e0: e6b9 823d f633 313d 55ae 823d 1ee1 c03c
000001f0: 71fa 99bc ff6c 0dbc 1fad 2b3d cb65 c43c
00000200: 9495 2c3d 3350 a43d bbc2 c73d 78bc ddbd
00000210: 77c9 a53b fba1 77bb 71fe 373d e763 8abd
00000220: 506a ce38 f7df e13c 3a1d 7fbd d72a 30bb
00000230: a2a5 0e3e 30c5 2c3d a82b adbd aff8 8fbd
00000240: de8b a3bd e405 8b3d fc07 8cbc f3e8 41bd
00000250: 7fff 91bd c9e1 bc3d 30df 253d f6c2 90bc
00000260: 5d18 883d 3283 c3bb a607 823d 5813 10bd
00000270: f4ab 1e3d 3744 89bd c886 8c3d 4c4c 5bbd
00000280: 04cc 7c3d 8447 1b3c a87d 483d a880 a2bd
00000290: 6edc a2bd 03a8 87bd 0bf1 df3d 4398 36bd
000002a0: 1ce7 813d 4812 5ebc 7f66 0e3b 8285 6cbd
000002b0: a317 1f3d e7a5 d5bd 69bc 7fbd 7030 7a3d
000002c0: d185 bd3d f788 43bc 4262 26bc d390 9dbd
000002d0: 16f2 123d a4fe 56bd 3c86 aa3c e8e3 7ebc
000002e0: 6346 943d 9c5d 813d 8bce 0cbd 3891 6dbc
000002f0: 17b3 bfbd 3f5c 56b9 a72c fcbc 5af5 913d
00000300: 36a6 14bd f3fa 10bd 4220 0fbd 50bc 6abc
00000310: 3716 753c eb3d f93d 6a60 4bbd 9983 5b3d
00000320: 868f 543d 8def 3ebd fceb 573c 212e b2bd
00000330: 5a0c 8b3d 35eb 673d e561 0e3d 282a 073d
00000340: a8e5 34bd fb0a 49bc efdd 0fbd fdb0 c4bc
00000350: 52db 3ebd 3fdf 09bc 908b 633c a3e0 333d
00000360: a338 8bbc a8b1 e1bc de8a c3bd 4727 acbd
00000370: ab9c 863d 788a 3f3d dbac 063d 163d 6ebd
00000380: b252 e0bd 9027 a63b 8e17 f63d c1da b03d
00000390: dd63 993d 7756 133d 7245 7f3c 8c8f 493d
000003a0: b150 a3bc 5537 d03d 42fd 013c 1d44 c93d
000003b0: dd4e bebc eacb 933d b9b9 6b3b 1be1 003e
000003c0: 408a 083e a6c6 0ebd 5aff 65bd 4f0e 963c
000003d0: e61e e03d 17ee b9bc f865 1fba 614f 06be
000003e0: e18a 483d bfe3 fe3c 423a 39bd 40d4 b1bc
000003f0: a4eb 8f3d d38c ce3c 9960 09bc ff05 a4bd
-0.046052422 -0.041116852 -0.05393621 -0.010542759 0.020643288 -0.018202074 -0.050345346 -0.060118817
-0.06141322 0.03378486 -0.025042005 -0.059648585 0.0391266 -0.028457385 -0.06369401 -0.029338302
0.023975933 -0.037265196 0.008000897 0.0027487031 0.047602445 -0.10220885 -0.05131791 -0.015197268
0.0020133578 0.025888067 -0.01474326 -0.062135905 0.004444822 0.07023596 -0.013895633 -0.04102714
0.0886046 0.112140104 0.0133474115 -0.020740012 0.111939795 0.011805921 -0.06677083 0.0025074873
-0.04025143 0.027692469 -0.03153084 -0.11293552 -0.05559675 0.02867292 0.023023214 -0.023633717
0.06715578 -0.0054144775 0.12885514 -0.08897848 -0.020403733 -0.09032468 0.014828278 -0.037360813
0.014307146 -0.04235412 -0.04102423 -0.016895572 -0.044340786 -0.02730913 0.13418843 0.018145788
-0.04638808 -0.0019617595 0.053146143 0.037182916 0.014022961 0.02344756 -0.00020284527 -0.01581945
-0.010231338 -0.039556373 0.046174254 -0.02667044 -0.020130163 -0.0036878167 0.013185066 0.029110046
-0.15147105 -0.15339148 -0.017880447 0.1068647 0.026880652 -0.030401856 0.111178026 -0.03646783
-0.0058038384 -0.041352354 0.10373714 -0.0017150197 0.030944174 0.027026279 -0.07593415 0.099341445
-0.03877159 -0.0342825 -0.019621413 0.062740676 -0.024264803 -0.023668015 0.00073590584 0.03276197
0.05260683 0.027003787 -0.044031736 0.06958499 0.03677985 -0.0021500082 -0.07980563 -0.06737397
0.032287292 0.062073234 -0.061643753 -7.147363e-05 -0.0026078736 0.014622445 0.0072549297 -0.06864994
0.063831136 0.043262444 0.063809074 0.023544844 -0.018796178 -0.008631944 0.041913148 0.02397432
0.042134836 0.08023109 0.09753939 -0.10826963 0.005059417 -0.0037785757 0.04492039 -0.06757336
9.842648e-05 0.027572615 -0.062283732 -0.0026881003 0.13930371 0.04218024 -0.084555924 -0.070298545
-0.07985662 0.06788233 -0.017093651 -0.0473413 -0.0712881 0.092227526 0.04049605 -0.01767109
0.06645272 -0.0059665674 0.06349115 -0.035174698 0.038738206 -0.06702464 0.06861645 -0.05353956
0.061718002 0.0094775 0.04894796 -0.079346955 -0.079522 -0.066238426 0.10934647 -0.0445788
0.06342909 -0.013554163 0.0021728573 -0.05774451 0.0388409 -0.10432034 -0.06243554 0.06108135
0.09254039 -0.01193451 -0.010155262 -0.07693639 0.035875402 -0.052488938 0.020815961 -0.015557267
0.07239988 0.06316683 -0.034376662 -0.014499955 -0.093603306 -0.00020442995 -0.03078301 0.07126875
-0.036291324 -0.035395574 -0.034942873 -0.014327124 0.01495891 0.12170013 -0.049652494 0.0535923
0.051894687 -0.046615172 0.013178822 -0.08700205 0.06789465 0.056620795 0.03476133 0.032999188
-0.04416433 -0.012270684 -0.03512376 -0.024010176 -0.04659588 -0.008415042 0.013888255 0.043915402
-0.01699478 -0.027550533 -0.09547971 -0.08405929 0.06572851 0.046762913 0.03287969 -0.058163725
-0.10953273 0.005070634 0.120162115 0.08635474 0.074897505 0.03597113 0.015580522 0.049209163
-0.019935938 0.10166804 0.0079339165 0.09827445 -0.023230964 0.07216628 0.0035968854 0.12585871
0.13333988 -0.034857415 -0.056151725 0.01831737 0.109433934 -0.022696538 -0.0006080563 -0.13116218
0.04896057 0.031114457 -0.045221575 -0.021707654 0.07027367 0.025213635 -0.008384847 -0.08008956

network_body._body_endoder.seq_layers.2.bias f4 [256]
00000000: f918 923a 0348 9239 c576 88ba 3d2c 45ba
00000010: c490 deb9 4d36 0e3a f626 0f39 39c8 c43b
00000020: 878c 03bb c0d0 863a b03e 0fbb 6cb5 eb39
00000030: 2db6 c93a f302 70b9 5050 f83a 8f62 eaba
00000040: f9a3 a53a 4c6e 1539 d098 1fbb e48e dc3a
00000050: 6daf 083a fc3a 483a 1c53 22bb 3e86 0c3b
00000060: 3006 88ba d663 19bb 2976 0739 1c70 393a
00000070: 6fd8 e3b9 14bf 06ba 8116 983a 7f94 7b38
00000080: a864 3d3b 8d48 70bb b18f b23a df4a 733b
00000090: b3b3 823b 868e f939 d31d c9ba b6a5 573a
000000a0: 95d4 3bba 8eac 9aba ab4e 1abb 44bf 1f3b
000000b0: 5d68 5cbb 8940 67b9 3479 a339 5bec ab3a
000000c0: 1590 e4b9 dda9 173b 44ba 7dba 9d1b 8f3a
000000d0: dbdc 0c3a 5026 09bb 6846 76bb 4ed6 033a
000000e0: 5c0f 25ba 4523 c6ba 550b 3a39 8c57 383b
000000f0: b896 2dba 777d 753b 80f3 1cbb f746 9339
00000100: 9313 823a e3ed b43a 4b24 373b b83d 773a
00000110: c327 033b 7ef4 45ba 0372 f0b9 0e29 d33a
00000120: ff2f 30ba 61db 9bb9 609e b03a e068 113b
00000130: c695 053b 3767 aa39 ebec b73a b53c de37
00000140: e906 f23a 0b99 6338 5d8f 38b9 e6e3 6bb9
00000150: 8faf abb9 cb36 b8ba f5ac 863a d3e6 a2ba
00000160: 61c5 343a e6cf 4fba 9072 28ba 9424 e0b9
00000170: 292d baba 7ab7 15ba ed38 f0ba 121b 053b
00000180: c826 26bb 8e9f 053b 9601 1e3b d1a5 eb3a
00000190: 7527 e1ba cc9d 4eba 6df1 14b9 d028 e839
000001a0: ec68 f9ba 4578 7fb9 6e35 e7b7 d88d 18ba
000001b0: 0f35 f6b8 444a 373a 9964 3abb d896 c93a
000001c0: 821d e03a f77f 94ba 7fb0 c13a ea05 e63a
000001d0: 986f 403a 3a4b 5339 4ebd ca3a a276 55ba
000001e0: 9d10 a53a 5248 123b 8fbc 143b 6ede f2ba
000001f0: 93f2 d2b9 c34f 0ebb ded9 503b 61a2 0a3b
00000200: cee6 e8b9 bfc7 c93a d7ed a7ba 71d4 1e3b
00000210: 1063 b3b9 19ba 303b 0193 83ba ceb2 7838
00000220: b013 ecba e857 5439 9c48 84b6 4425 23b9
00000230: 974f 4c3b 0a3b 28ba 0300 a73a fd72 de3a
00000240: b5f3 2c3a f84b 353b 4f0c e137 6f71 9c3a
00000250: 0cd1 fd3a 7521 0ab9 bb71 c93a cfbb 5b3a
00000260: f22d 07ba d0f1 63ba 105b bdba b617 833a
00000270: 8705 743b dab4 c4b9 addf a73a 1539 b13a
00000280: 9772 173b 3462 933a 87ce 8c38 55b0 eaba
00000290: e499 7e3a cab3 d73a ba2a 5339 e3e0 efb8
000002a0: 6c35 233a d013 643a 138b f0b9 9009 b5ba
000002b0: d4bf 223b 5aae b939 eb32 793b 3e6a c6ba
000002c0: a15a b0b9 04d5 9d3a 2191 e739 d31b 333a
000002d0: b6bb 203b 8d6b 1c3a ab42 503b a04f b439
000002e0: a4d5 893a f24d 333a 2685 adba 8685 cfba
000002f0: a0cb afba 8b7e 1338 9193 0c3b ceb1 d53a
00000300: 71c0 f63a 1131 71b9 2d28 843a 07e2 d4ba
00000310: a927 6cba 28e5 813b 80d6 b5ba 41e5 8bba
00000320: bdf3 0d3b db07 9a3a 4650 b3ba d0db 98b8
00000330: 884d e2ba 18b3 963a 4676 a039 0892 40ba
00000340: 38dd 803a db50 91ba 2a9b ab39 11a4 363a
00000350: 657d a7b9 07d5 263a 649a 413a 526b 96b8
00000360: bbea 75bb f2c1 993a 3922 3fba 74e1 66ba
00000370: 84ac 26ba 2c19 e6ba 1447 c7b9 0d5e 9aba
00000380: 3f35 2f3b eb48 4b39 394e 79b9 2da5 ba3a
00000390: 5e49 353b c7f2 9c3a 32fc 63b9 dff7 b2ba
000003a0: cebf a63a 6399 c53a ae20 ebba 110c 3f3b
000003b0: 73e9 7f3b 953c 17bb 0409 0b3b 58d7 5db8
000003c0: a4e7 d8ba 2008 e3b9 b837 683a ca64 033b
000003d0: a4da daba 93ca fe3a 1752 2d3a d8c6 ea3a
000003e0: a938 28ba 2c5e 12bb 88cb 9b3b bbcd 7cba
000003f0: 64cc 88b9 4d8b 153b 182e 20bb f237 bfb6
0.0011146358 0.00027900943 -0.0010411373 -0.00075215456 -0.00042450998 0.00054249616 0.00013652057 0.0060053137
-0.0020072774 0.0010285601 -0.0021857433 0.00044957863 0.0015389376 -0.00022889282 0.0018944833 -0.0017882156
0.0012637369 0.00014250836 -0.0024352558 0.0016827253 0.0005214129 0.0007638184 -0.0024768775 0.002144232
-0.001037782 -0.0023405454 0.00012918621 0.00070738955 -0.0004345807 -0.0005140167 0.0011603386 5.998136e-05
0.0028899107 -0.0036664337 0.0013623146 0.0037123484 0.003988707 0.0004759917 -0.0015343971 0.0008226292
-0.0007165161 -0.0011800693 -0.0023545425 0.0024375478 -0.0033631541 -0.00022053918 0.00031180086 0.0013116704
-0.00043594898 0.0023142018 -0.000967894 0.0010918264 0.0005373486 -0.0020927377 -0.0037578586 0.00050291873
-0.0006296539 -0.0015116712 0.00017742564 0.0028128354 -0.0006621885 0.0037458816 -0.0023948848 0.00028090898
0.0009924046 0.0013803806 0.0027945216 0.0009431499 0.0020012714 -0.0007551386 -0.00045861313 0.0016110258
-0.0006721019 -0.00029727354 0.0013474934 0.0022187755 0.0020383461 0.00032501828 0.0014032399 2.6492731e-05
0.0018465194 5.426355e-05 -0.00017601014 -0.00022496245 -0.00032746463 -0.0014054416 0.0010274934 -0.001242841
0.0006895867 -0.00079274026 -0.00064257625 -0.00042751862 -0.0014204133 -0.0005711239 -0.0018327512 0.0020310325
-0.0025352705 0.0020389291 0.0024109832 0.0017978494 -0.0017177897 -0.000788179 -0.00014204318 0.00044280896
-0.0019028462 -0.00024363499 -2.7562226e-05 -0.0005819476 -0.00011740077 0.00069919624 -0.0028441309 0.0015380038
0.0017098638 -0.001132964 0.0014777331 0.001754937 0.00073408475 0.00020150552 0.0015467794 -0.0008142983
0.0012593452 0.0022320938 0.0022695397 -0.0018529424 -0.00040235053 -0.0021715022 0.003186814 0.0021153914
-0.0004442245 0.0015394612 -0.0012811971 0.0024235512 -0.00034215348 0.0026966392 -0.0010038317 5.9294332e-05
-0.0018011238 0.00020250643 -3.9423594e-06 -0.00015558774 0.003117537 -0.0006417489 0.0012741092 0.0016971525
0.00065975945 0.002766369 2.6827822e-05 0.0011935661 0.0019364669 -0.0001317317 0.0015368977 0.00083821727
-0.00051566877 -0.00086953957 -0.0014446694 0.0010001573 0.003723474 -0.00037518778 0.001280775 0.001352104
0.0023109072 0.0011244477 6.714189e-05 -0.0017905334 0.00097122625 0.001645678 0.00020138445 -0.000114382965
0.0006225917 0.0008700462 -0.00045879986 -0.0013812054 0.0024833577 0.00035415852 0.0038024734 -0.0015137864
-0.0003363686 0.0012041633 0.00044167883 0.0006832454 0.0024525947 0.0005966954 0.0031778018 0.000343916
0.001051594 0.0006839923 -0.0013238534 -0.001583264 -0.0013412125 3.5165383e-05 0.002145026 0.00163036
0.0018825663 -0.0002300183 0.0010082774 -0.0016241678 -0.00090085954 0.003964085 -0.001387313 -0.0010673181
0.0021660172 0.0011751609 -0.001368054 -7.288868e-05 -0.0017265538 0.0011497466 0.000306057 -0.0007345979
0.0009831553 -0.0011086719 0.00032731268 0.0006967197 -0.00031946148 0.0006364141 0.0007385372 -7.172547e-05
-0.0037523943 0.0011730774 -0.00072911714 -0.0008807399 -0.00063581043 -0.0017555109 -0.00038009195 -0.0011777297
0.0026734618 0.00019386753 -0.0002377563 0.00142399 0.0027662138 0.0011974209 -0.00021742357 -0.0013654194
0.0012721957 0.001507562 -0.0017938816 0.002915148 0.0039049059 -0.0023076881 0.002121509 -5.289106e-05
-0.0016548526 -0.00043302868 0.00088584004 0.0020049089 -0.001669724 0.0019439034 0.00066116586 0.0017912043
-0.00064171344 -0.0022333963 0.0047544874 -0.00096436933 -0.00026092224 0.0022818625 -0.0024441537 -5.6987565e-06

network_body._body_endoder.seq_layers.4.weight f4 [256, 256]
00000000: 4412 cf3d d81d 6bbd 1d3b ebbc 7255 9c3d
00000010: 4559 e9bc ec4f 96bc 48c4 b8bc 255a 683c
00000020: 5400 a3bd 0daa c7bb 69b4 8dbc 64e7 87bc
00000030: c94d 23bd 4b16 e13c c3b8 8d3d 7015 ce3c
00000040: 710b fc3c e430 63bd b586 bc3c fd11 ca3c
00000050: 9349 25be f37f 83bd 95a0 843d 7af7 2fbd
00000060: 4135 5d3d 6105 b13d 803a 62bd 8087 2fbc
00000070: 4701 0f3d fc1f 1ebd 262b ad3b 1d66 25bd
00000080: ecaf 19bd 4520 1dbd 5a12 053e 7969 adbc
00000090: 6983 eabb f3fe 9fbd b718 b73d d3e8 a33d
000000a0: 1734 55bc 48a4 d53c 2e91 513d 0978 ff3c
000000b0: d222 033d 1a2a 20bd 8c24 e03c eaf8 b6bc
000000c0: 0cc5 92bd 65fd 5bbd 927f 1f3c e247 c33c
000000d0: b6c1 c53d 776f 2d3d af74 cb3d cd74 83bd
000000e0: 9238 d7bb 6c2c f13d e459 523c e2d1 4a3c
000000f0: f9a1 9b3d a17c e53c bcf6 bebd d594 ba3c
00000100: 43b3 8d3d a069 6fbc 485e 173c da00 3f3c
00000110: a310 51bd 1aac 493b 0dee 51bd 94ee 2dbc
00000120: beb2 9f3d e78b e7bc 92ff 323c aedc 70bd
00000130: ccce 87bc c9a7 1b3e c577 ad3d 9fcd 8b3d
00000140: 005b 1bbd 9b68 b83b 6861 dc3c bdcd 51bb
00000150: 9c8f 05bb 6853 093d 5611 ee3d d9a5 e8bc
00000160: 19b9 93bd 99a4 d43d 8604 dd3c 1e7e 833d
00000170: eb0e dc3c 4c59 863d 41f9 00be 7e9e f8bc
00000180: 6d6c 7bbd 74a2 443d 7d6d c93d 8ea9 42bd
00000190: 462a 033d feff aa3d 7f98 713d 6034 44bb
000001a0: b0cd d03c 64e9 493c c850 693c d7e9 913d
000001b0: b5be 163d d3c3 863d 69a1 363e e507 02bc
000001c0: dae8 de3c 2993 febc 88e6 243c 2703 803d
000001d0: 661d feba e07a 59bd 1bc5 913c a39a 1d3d
000001e0: 89f0 d33b 0d65 29be 6333 40bc 6503 953c
000001f0: 36de 88bc 3bcc 0c3d 221a 943c 3497 9f3c
00000200: 60a7 11bd 27fb 45bd 7b07 4f3d 4c3a 8bbc
00000210: 7823 85bd bcaa 283d 924c 0cbe 0ecd d33c
00000220: 1253 f7bd 9ea6 973d 9e76 45bd a153 b83b
00000230: 7d90 f03d 4741 b0bd 761b fa3d ac91 e7bd
00000240: 21d6 153c 28a3 833d 2a6c 52bd 4a61 92bc
00000250: cbbe 2e3c bde1 b43d a0c1 c53b 7086 a1bd
00000260: 593b dd3c 59dc 183c 3b23 2d3b 1023 f3bc
00000270: 7ce3 4f3d dcf1 393d f789 cdbc f38e 943c
00000280: 3350 2abb ec33 ad3a 9fc5 9d3b d572 263c
00000290: 89ee 3e3d 99db 83bd 1ccf 253c c2d3 a03c
000002a0: 2e87 793c 591c ef3d 66f1 4d3c 4573 c33d
000002b0: dc59 85bd ecfc b53c 1ff4 1f3d 2f42 063c
000002c0: 803e 003d 5c8c 17bb ee69 503b e4bf 60bd
000002d0: 635a d9bd 7dec 89bd 4818 a13c fbc2 eb3d
000002e0: 7dcb adbb fc60 383d 7e51 58bc 85a5 a3bc
000002f0: 12fc 293d 0acd 8f3d 8777 ef3d 249b 7a3c
00000300: da23 d83d f966 45bd 9a1b ddbc 3c50 30bd
00000310: 7057 3cbd db9f 043d 021f 273d 7dde 8e3d
00000320: d1a7 b1bd e2dc 94bb ed45 293d 368a b1bc
00000330: 0545 44bd 8d76 943c 0b76 beba f827 7a3c
00000340: c286 f1bd 2eef 79bc ae97 cd3a 6c5c b33c
00000350: 9d21 4d3c 05a4 67bb 876b b53c ce39 9abd
00000360: c62d 02bd 4df1 d13d c325 34bd fe3b 8f3c
00000370: 3a4c debd 370d bebd 2a61 82bd 89b5 653c
00000380: 8e7f 3a3c d0c2 63bd b305 d5bc beaa 29bc
00000390: a8e6 14bd f9e8 07bd ae2f ed3c 618c 783c
000003a0: 9485 b23d d25a 7b3d 30c8 893d 6813 f6bd
000003b0: 9d41 ad3d 9e9a 50bc 71aa e0bb 60a9 1fbe
000003c0: fc4f d9bd 450d 9a3c 2151 c4bd c4d7 bc3d
000003d0: 7aa5 4fbd a720 63bd 17de dbbd d935 303d
000003e0: dd51 b03d fe42 3abd 6e41 20bc 27cf 97bc
000003f0: 5764 243e d268 993c 1594 843d e12b eebd
0.10110906 -0.057401508 -0.02871471 0.07633485 -0.02848495 -0.018348657 -0.022554532 0.014181648
-0.07959047 -0.0060932697 -0.01729794 -0.016589828 -0.039869104 0.02747645 0.06920006 0.025156707
0.030767174 -0.055466548 0.023013452 0.02466678 -0.16141348 -0.06420889 0.06475941 -0.04296062
0.054005865 0.08643604 -0.05523157 -0.010713458 0.034913328 -0.03860472 0.0052846847 -0.040380586
-0.037521288 -0.038360853 0.12995282 -0.021168457 -0.0071567786 -0.078122996 0.08940261 0.08003392
-0.0130129075 0.026079312 0.051163845 0.031185167 0.03201563 -0.03910265 0.027361177 -0.022335488
-0.0716649 -0.053708453 0.009735005 0.023837987 0.09656088 0.04234263 0.09934365 -0.06418762
-0.006568023 0.11776051 0.012838814 0.0123791415 0.07599253 0.02801353 -0.093244046 0.022776047
0.06918957 -0.014612585 0.009238787 0.011657918 -0.051041257 0.0030772747 -0.051252414 -0.0106159635
0.07797764 -0.028264953 0.0109251905 -0.058804207 -0.0165781 0.15200724 0.0847011 0.068263285
-0.03792858 0.0056277043 0.026901916 -0.0032013499 -0.0020379787 0.033526808 0.116244 -0.028399395
-0.07213039 0.10382957 0.026979696 0.06420539 0.026862582 0.06560001 -0.12595083 -0.030349012
-0.0613827 0.04800649 0.09835336 -0.04752498 0.032022737 0.08349608 0.058983322 -0.0029938444
0.025488704 0.012323711 0.014240451 0.071246795 0.036802966 0.06580319 0.1783501 -0.0079364525
0.027210642 -0.03107603 0.010064729 0.06250601 -0.0019387424 -0.0530957 0.017794183 0.03847755
0.006467883 -0.16542454 -0.011731002 0.018190095 -0.016707521 0.034374457 0.018078867 0.019481279
-0.035560012 -0.04833522 0.050544243 -0.016995572 -0.06500906 0.04117845 -0.13701084 0.025854614
-0.12076391 0.074048266 -0.048208825 0.0056252037 0.11746309 -0.08606201 0.12212269 -0.113070816
0.009145291 0.06427604 -0.051372685 -0.017868657 0.010665606 0.08832119 0.006035045 -0.0788697
0.027005838 0.009329879 0.0026418704 -0.029679805 0.050754055 0.04539667 -0.0250902 0.01813457
-0.0025987744 0.0013214326 0.004814818 0.010159214 0.046614204 -0.06438369 0.0101201795 0.019632224
0.015229983 0.11675329 0.012569761 0.0954347 -0.0651128 0.02221533 0.03905117 0.00819449
0.031309605 -0.0023124432 0.003180142 -0.0548705 -0.10612943 -0.0673456 0.019664899 0.11511799
-0.0053037987 0.045014367 -0.013203023 -0.019976387 0.04150016 0.0702153 0.1169272 0.0152957775
0.10553713 -0.048193906 -0.0269907 -0.043045267 -0.045981824 0.032379013 0.040801056 0.0697603
-0.086745866 -0.004542933 0.041326452 -0.02167235 -0.047917385 0.018122936 -0.0014531029 0.015268318
-0.11793281 -0.015254779 0.0015685463 0.021894656 0.012520221 -0.0035345566 0.022146 -0.075305566
-0.031781934 0.102511026 -0.043981325 0.017484661 -0.10854383 -0.09279864 -0.06366189 0.014020332
0.0113829505 -0.05560571 -0.026003694 -0.0103556495 -0.036352783 -0.033181164 0.0289534 0.015170188
0.08716884 0.06136591 0.06727636 -0.1201542 0.0845978 -0.012732176 -0.0068562557 -0.15591955
-0.10610959 0.018805156 -0.095857866 0.092208415 -0.05069492 -0.05545106 -0.1073572 0.043020103
0.08609364 -0.045474045 -0.009781225 -0.018531395 0.16053902 0.01872674 0.06473557 -0.11629463

network_body._body_endoder.seq_layers.4.bias f4 [256]
00000000: b25f 4dba e5a4 1bba db21 2d3a 8eff 643b
00000010: c6f3 a435 5a45 8239 9aa4 e6ba cd89 4d3b
00000020: 53f2 df3a 0777 7d3b c573 b3b9 8531 3b3b
00000030: 0663 b33a 1cb5 efba ea6a b0b9 f7a7 9fb9
00000040: 6dfe e339 ad5b 4a3b 41fb 1939 8152 fe3a
00000050: 251c 60ba ac32 4938 deb8 f5ba 738e b8b8
00000060: 0fb3 18ba ae3c d939 1a14 a23a 374a cc39
00000070: 0555 e23a 72fb 483a f1a8 10ba 6875 133b
00000080: 4086 d83a b8b7 a83a 5f3d 863a b739 753a
00000090: 0d2a a53b e266 7aba 4ed1 573b d208 313a
000000a0: ecf6 eeba cf3d fc3a c0d3 10bb b0d6 e63a
000000b0: e49e a7ba 7f21 d43a 4ea5 4f3b b726 f6b9
000000c0: a256 09ba c50e 243b 5565 24ba 432c 60b7
000000d0: 29c4 a8ba 5e30 0abb 698f 193a daaa 52ba
000000e0: 2a8f 8338 e1d6 f6ba c8f4 7f3b 273b 8839
000000f0: b43e 043a 3470 6fba 8915 b239 2c44 9fba
00000100: 2efe 8fb9 f7e1 bf3a 9829 593a d015 06bb
00000110: 8db6 5c3a c352 2a3a c114 d3ba 5451 0bba
00000120: 4237 723a 6d77 a5ba 2b8a 13ba 4738 273a
00000130: 100e 39bb 3982 323b b476 91ba 59ef 1cba
00000140: c47f 543a 5be5 32b9 9678 253b 6473 ec3a
00000150: cd3f d8ba 6d9d 72b9 66b2 953a 6f4c 8fba
00000160: 6ec4 bcba c071 943a f714 dc3a 7f86 4fb9
00000170: 4b5e 9dba 508c 3e3a 81df 89ba a93f 4bba
00000180: 0240 323b 3581 3e3a b0e9 d1ba de31 ccba
00000190: c9a4 60b8 be86 923a bc78 e53a bdb0 07bb
000001a0: 4c8b fe3a 0bee 1b3b 4420 afba 9452 0cbb
000001b0: 397a 9c3a 8946 9c39 43f8 2b3b 12c4 53ba
000001c0: 614b d1ba 6bab c5ba 8c2d ed38 9463 443b
000001d0: 83a6 9e39 ae06 2b3b 3137 bbba 1501 843a
000001e0: 91da 2e3a 532f ae3a 5b09 06bb 0143 90b8
000001f0: c54e bcb9 4c6b d039 63b6 bbba f70d 25bb
00000200: 0db5 d3b8 8055 06b8 290d 583a c43d 7fba
00000210: 9c7b 82ba 3e5b 6b38 9b6b 23ba b719 02b9
00000220: f50d 38ba 782e 4a3a 753a 8539 608a b63a
00000230: f4e9 1a3b ba78 123b a8a5 13ba 35da 4439
00000240: f455 413b f705 e03a fe8f ae3a 4c9f 833a
00000250: 825e 643a 9856 093b 20ec d1ba a999 1d3a
00000260: f4a8 72ba 693a eb38 f59a ccb9 06e0 67b9
00000270: 3917 e1ba 008e b33a afb9 193b cb06 3f37
00000280: fe6b dc39 8295 453b cee4 deba 74b8 9c3a
00000290: 0977 02b8 16ea af3a 5383 89b9 735d 283a
000002a0: c10c 1c3b fbfc e13a 6fa3 5bb9 2336 4539
000002b0: 2eb0 e539 2485 f03a 1214 caba 0979 aa3a
000002c0: a428 c2ba 475d be38 e1b9 863a 9cf4 303b
000002d0: 8c4b e839 919a a0b9 c526 2139 d734 fc3a
000002e0: 5947 e2ba 974b 4c3a e4ac 40b9 75e0 3339
000002f0: 257f a23a 5115 38ba 3a75 793a a53e 6e3a
00000300: dcd8 ef3a 1737 ce3a 3d66 ffba e612 2dbb
00000310: 26dd 323a ceac f83a f0d6 44b9 7c3c 333a
00000320: f690 193b 6edc 5a3b 9efd 03ba 4a25 1b3b
00000330: 1258 b9ba bf0b 0e3b 4cac 2e3a 772d 20ba
00000340: 89b9 bc36 487d 9cba 84e9 61b9 b6ea 39ba
00000350: 7ad4 4fba c49d 793a e47f 013b 6616 0ab9
00000360: 0a0c be3a 0bf3 84ba 8ab2 643a 9101 a3ba
00000370: 5181 fbba 8230 8438 6f42 c83a 9bda 2f3b
00000380: e51f a538 aa8b 253a fdf7 f3ba c49c 15bb
00000390: 0f15 15ba 502a 073b 97ce bfba d763 973a
000003a0: 8b82 993a 792e 23ba 04a7 08bb 92b6 b93a
000003b0: 55c2 b03a 1ef3 f1ba 1e4b aeb9 ec74 2c3a
000003c0: ca7a d43a 141d 5bba b05c fcb7 40ac 43b8
000003d0: 4c9d f03a 18fc c43a e8da 393a 814f 61ba
000003e0: 2658 313a 2d6d fcba f612 bbba 92fc 1ebb
000003f0: 0c52 b73a 9033 89ba 5dbb 0e3b e265 a7ba
-0.0007834389 -0.0005937352 0.0006604471 0.0034942362 1.22899e-06 0.00024847203 -0.0017596663 0.0031362653
0.0017085768 0.0038675682 -0.00034227796 0.0028563451 0.0013686127 -0.0018288228 -0.00033648993 -0.00030451987
0.00043486376 0.0030877397 0.00014684816 0.001940325 -0.0008549116 4.7969326e-05 -0.0018747111 -8.800337e-05
-0.00058250217 0.00041434675 0.001236561 0.00038965206 0.001726777 0.0007666863 -0.00055183383 0.00225004
0.0016519502 0.0012872135 0.0010241679 0.00093546085 0.0050404132 -0.0009552074 0.0032931152 0.00067533285
-0.0018231547 0.0019244495 -0.002209887 0.0017611589 -0.0012788442 0.0016184299 0.0031684223 -0.0004694962
-0.00052390445 0.0025033217 -0.0006271203 -1.3361746e-05 -0.0012875843 -0.0021085958 0.00058578566 -0.0008036323
6.273233e-05 -0.001883235 0.0039055813 0.00025984013 0.0005044744 -0.0009133846 0.0003396685 -0.0012151054
-0.00027464464 0.0014639486 0.0008284091 -0.0020459779 0.0008419536 0.0006497318 -0.0016104208 -0.0005314548
0.00092398014 -0.0012624093 -0.00056281936 0.00063789304 -0.0028237142 0.0027238263 -0.0011097998 -0.00059865933
0.0008106197 -0.00017060844 0.0025248877 0.001803976 -0.0016498506 -0.00023137564 0.0011420965 -0.0010932813
-0.0014401802 0.0011325404 0.0016790916 -0.00019791162 -0.0012006251 0.0007268833 -0.001051888 -0.00077533216
0.0027198796 0.0007267178 -0.0016015079 -0.0015578826 -5.355923e-05 0.0011179072 0.0017507295 -0.002070471
0.0019420176 0.0023793008 -0.0013361056 -0.0021411525 0.0011938281 0.00029807191 0.0026240505 -0.0008078228
-0.0015967899 -0.0015080994 0.000113095244 0.002996658 0.0003026017 0.002609651 -0.0014283416 0.0010071123
0.0006670142 0.001328925 -0.0020452354 -6.8789355e-05 -0.00035916842 0.00039752794 -0.0014321323 -0.0025185326
-0.000100949874 -3.2027718e-05 0.0008241707 -0.0009736682 -0.0009955051 5.6113342e-05 -0.0006233991 -0.00012407346
-0.0007021123 0.0007712613 0.0002541129 0.0013926737 0.0023637982 0.002234979 -0.00056322897 0.00018773305
0.0029500695 0.0017091621 0.001331806 0.0010041981 0.00087115925 0.0020956155 -0.0016015805 0.0006011972
-0.00092567434 0.00011216553 -0.00039025364 -0.00022113332 -0.0017173059 0.0013698936 0.0023456623 1.1386069e-05
0.0004204213 0.0030148928 -0.0017005445 0.0011956827 -3.1105275e-05 0.0013421203 -0.0002622852 0.00064226164
0.0023811313 0.0017241532 -0.00020946351 0.00018807552 0.00043809548 0.0018350226 -0.0015417358 0.0013006042
-0.0014813137 9.07728e-05 0.0010278785 0.0027001267 0.00044306775 -0.0003063274 0.00015368599 0.0019241822
-0.0017263695 0.0007793246 -0.00018374954 0.00017154387 0.0012397511 -0.00070222194 0.00095160643 0.0009088314
0.0018298882 0.0015732971 -0.0019485425 -0.002640897 0.0006823115 0.0018972398 -0.00018772087 0.0006837321
0.002343235 0.0033395546 -0.00050350453 0.002367335 -0.0014140627 0.0021674482 0.00066632475 -0.00061102904
5.6244357e-06 -0.0011939192 -0.00021544663 -0.00070921646 -0.0007928085 0.0009522105 0.0019760067 -0.0001316905
0.0014499438 -0.0010143233 0.0008724114 -0.001243638 -0.001918832 6.303286e-05 0.0015278588 0.002683318
7.873754e-05 0.0006315062 -0.0018613335 -0.0022829035 -0.0005687037 0.0020624585 -0.0014633712 0.001155014
0.0011711878 -0.00062248815 -0.0020851502 0.001416879 0.001348565 -0.0018459295 -0.00033243833 0.0006578702
0.001621091 -0.000835852 -3.0083902e-05 -4.6652043e-05 0.0018357425 0.0015028743 0.00070898095 -0.0008594916
0.00067651493 -0.0019258611 -0.0014272619 -0.002425943 0.0013986244 -0.0010467637 0.0021779158 -0.0012771452

action_model._continuous_distribution.log_sigma f4 [1, 2]
00000000: c10e 6c38 c976 9bba
5.6280525e-05 -0.0011860962

action_model._continuous_distribution.mu.weight f4 [2, 256]
00000000: 947b d53a cb09 cebb fcd2 9b3b 69e4 733c
00000010: 80e9 acb9 db6b 1a3c 513e 82bc 20cb 143c
00000020: 92b6 0f3c c674 573c 02b2 15ba 5cd5 a43c
00000030: e83c 113c f6a0 27bc 44f5 a43a 74fa b0b9
00000040: df11 9e3b 42e3 a03b 31bb 1dbc 2110 f1ba
00000050: e0f0 453a daf0 703b 003a 0dbc eedf 883b
00000060: 1c58 96bb 678b f8b9 8e07 c63b 263b af3b
00000070: 49e1 d93c f78e 383c 1e22 7cbb 9d33 de3b
00000080: 547e 423c f50a 513c 546f 4fbc ce21 433c
00000090: ff1f 013b 2eda acbb d086 4fb9 b409 193c
000000a0: 7f85 a2bc 745a f93c 1a72 38bc fb85 fb3b
000000b0: 69f6 d7bb c6f2 283d eadb a23c 75b6 273b
000000c0: 1217 6ebc 2c2a 363b 9dbe 38bc 85bf 81bc
000000d0: 1edf 04bb d4de 51bc 6e1e 33bc 9f7c c3bc
000000e0: b95e 67bb 1fab 15bb 4c0b d33b 3fb6 043b
000000f0: 6c34 883b 8318 2cbb 3ad8 3dbc a507 9fbc
00000100: c662 80bb 88a0 83bb e7f6 0a3c 197f 1abc
00000110: 6a5e 443c bbcb 323c 9ca8 d8bc 0b12 15bc
00000120: 5cc8 ad3c f1c8 35bc 1acd b3ba 3156 083c
00000130: afd8 30bc ec4d 453c 1e01 40bb f893 20b9
00000140: 63a5 873c e211 4e3b bfac a93b 05bd 2dbb
00000150: a8fa b7bc f91f 773b 7c70 673c 9337 a3b9
00000160: 0ce1 17bd 002b ca3c ce00 873c 3204 42bb
00000170: 8805 abbb 0520 413c 5667 80bc c5e9 e9bc
00000180: 0094 6dba 0227 803b 0e5a debb 4f44 a5bc
00000190: a808 353b d773 913c 155d 383c f24c 0dbc
000001a0: 0a75 7f3c 2b62 adbb 9e00 15bc 67a1 3ebc
000001b0: 220b 80ba f663 983b d0b4 953c 57e0 70bc
000001c0: 2ab1 0dbd 127f 15bc 0a45 6d3b b23c 153c
000001d0: bfbe ae36 4ca8 ba3b ec2c 58bc b886 97ba
000001e0: 98c6 7d3c 8cb2 eb3c bdd4 a6bc 3dd4 e23a
000001f0: 56f4 32bb 8be9 3e3c 3242 1fbb 9816 acbb
00000200: 13cd 71bb 8041 a53a cc8f 2a3c f35c 28bc
00000210: bf41 a6bb 1835 c8bb 839c c7bb cce6 8ebc
00000220: d92b a43b 9c53 9c3b 3015 ac3b 1b1b e73b
00000230: ec50 d53c 22fc 5b3c 9b11 97bb 5c8e 513c
00000240: 110b 293c 3d0b 5b3c e8c5 36bb 3f3b 373c
00000250: 0e53 f13b ff36 6e3c 32a8 3bbc 7929 1a3c
00000260: 3014 0cbc 981c f0bb c5bf 74bc 3185 0dbc
00000270: 5e0f acbc e3b3 b83c 9329 933c fd73 843a
00000280: 6ec5 1a3c e448 4f3b 722c 71bc 7a1b 503c
00000290: 8721 603b dc0f bc3c 64ab 89ba 0d03 0e3c
000002a0: 54dc ee3b 26ef e03c 6f9c 7b3a f8b8 a0bb
000002b0: b183 0a3c b561 903b 9679 a7bc 35e2 a03c
000002c0: 2c98 3bbc b20a 973a 5917 583c 9c8b 613c
000002d0: c1e3 09bc 859b cfbb dc46 0b3c 7b8d 0c3c
000002e0: 5849 fcbc 3913 e03b f237 00bc d187 93b9
000002f0: f0f5 22ba 8323 cebb f57c 443a ea3a 153c
00000300: dea4 bd3c 6ef5 e23b e4b8 bcbc 29ea d8bc
00000310: b3a5 0b3c ced6 233d 2300 613a ddb0 3bbb
00000320: f9f5 813c b6bc 563c 0243 c3ba 940f 8aba
00000330: de6e 4cbd d985 4b3c 2685 dbbb c421 f8b8
00000340: a488 153b d3b8 41bc d418 11bc 9695 cebb
00000350: a013 70ba 82ca c63b 93bb f53c 2e94 d1ba
00000360: 1eef 403c 1623 8cbc 979c 0f3c 90e4 29bc
00000370: ef33 cabc 46ef 053b 2918 153c 6d1b 303b
00000380: a46b 1dbc 0377 333b 1db0 97bc 6018 0dbc
00000390: 34a3 223b af86 27ba b4d4 3dbb 4b41 c73c
000003a0: 1c75 8b3c 226e 8abb 7111 f9bb 8a6a 403c
000003b0: f7f4 f03b 60fb 58bc 40dd de3a 8589 4f3c
000003c0: b312 e43a 0b1a 81bb 2ce5 54bb e66f bdbb
000003d0: 1896 143d 86d7 e23c eed1 013c c774 babb
000003e0: c24e eb3b af99 09bd d648 63bc a6fc 56bc
000003f0: 3968 a73c e16d 8bbb 736b 4a3c 1358 b2bb
0.001628744 -0.0062877885 0.004755376 0.014886 -0.00032980368 0.009425129 -0.015898855 0.009081632
0.0087715555 0.0131504 -0.0005710424 0.020121269 0.008864619 -0.010231247 0.0012585302 -0.00033755938
0.0048239077 0.0049099037 -0.009627149 -0.0018391648 0.0007550847 0.0036764652 -0.008619785 0.004177085
-0.00458814 -0.0004740611 0.006043381 0.005347627 0.026596682 0.011264554 -0.0038472484 0.006781055
0.011870939 0.01275896 -0.01266082 0.011909915 0.001970291 -0.0052750325 -0.0001979128 0.009340692
-0.019839047 0.03043864 -0.011257673 0.007675884 -0.0065906537 0.04124715 0.019880254 0.002559093
-0.014531868 0.0027796132 -0.0112759145 -0.015838394 -0.002027459 -0.012809474 -0.010932548 -0.023863135
-0.0035304262 -0.0022837592 0.0064405557 0.0020250229 0.00415664 -0.0026259727 -0.011587197 -0.019412825
-0.0039180247 -0.0040169396 0.008481718 -0.0094297165 0.011985401 0.010912831 -0.026447587 -0.00909854
0.021213703 -0.011095271 -0.0013717741 0.008321331 -0.010793849 0.012042504 -0.002929754 -0.00015313912
0.016558355 0.0031443764 0.0051780636 -0.002651037 -0.02245839 0.0037708266 0.014125939 -0.0003113119
-0.037079856 0.024678707 0.016479876 -0.0029604551 -0.0052191652 0.011787419 -0.015674274 -0.028553853
-0.0009062886 0.0039109 -0.0067856377 -0.020174174 0.0027623568 0.017755432 0.011252661 -0.008624302
0.015591869 -0.0052912435 -0.009094385 -0.011635161 -0.0009768943 0.004650588 0.018274695 -0.014701924
-0.034592785 -0.009124534 0.003620448 0.009108709 5.20781e-06 0.005696332 -0.013194304 -0.0011560535
0.015489243 0.028771661 -0.020365113 0.0017305684 -0.002730628 0.011652361 -0.002430093 -0.005251717
-0.0036895915 0.0012608021 0.01041026 -0.010276067 -0.0050737555 -0.006109845 -0.0060916557 -0.017444037
0.00501011 0.004770709 0.005251549 0.007052792 0.026039563 0.013426812 -0.004610253 0.012790289
0.01031758 0.013369379 -0.0027888957 0.011183559 0.007364637 0.014539479 -0.011453675 0.009409302
-0.008549735 -0.0073276274 -0.0149383 -0.008637712 -0.021003421 0.022546714 0.01796416 0.0010105368
0.009446485 0.003162914 -0.014720069 0.012701863 0.0034199671 0.022956781 -0.0010503349 0.00866772
0.0072894488 0.027457785 0.00095982006 -0.0049048625 0.008454249 0.004406179 -0.020443719 0.019639114
-0.011449855 0.0011523573 0.01318916 0.013766196 -0.008416117 -0.006335678 0.008500781 0.008578653
-0.030796692 0.006838229 -0.007825838 -0.00028139216 -0.0006216457 -0.0062908544 0.00074954267 0.0091082845
0.023149904 0.00692623 -0.023037381 -0.026478844 0.0085233925 0.039999776 0.0008583089 -0.0028639354
0.01586436 0.013106516 -0.0014897289 -0.0010533207 -0.04991042 0.0124220485 -0.006699222 -0.00011831851
0.002281704 -0.011823851 -0.008856017 -0.006304453 -0.0009158198 0.0060666213 0.029996669 -0.0015989596
0.01177576 -0.017106574 0.008765361 -0.010369435 -0.024682967 0.0020436808 0.0090999985 0.0026871816
-0.009608183 0.002738417 -0.018516595 -0.0086117685 0.0024816515 -0.0006390614 -0.0028965892 0.024323126
0.017023616 -0.0042245546 -0.007600956 0.011744151 0.007353421 -0.013243526 0.0017003193 0.012667065
0.0017400592 -0.003939872 -0.003248523 -0.0057811616 0.036275953 0.02769066 0.007923586 -0.0056901905
0.0071810195 -0.03359383 -0.013872346 -0.0131217595 0.02043544 -0.004255042 0.012354719 -0.005442628

action_model._continuous_distribution.mu.bias f4 [2]
00000000: d5f5 e83a 6d0c 4939
0.0017773459 0.00019173483
