MLAgents Jumper Exercise/Assets/results/JumperAgent_1/JumperAgent/JumperAgent-229102.onnx (onnx, 89014 bytes, 9 tensors)

network_body._body_endoder.seq_layers.0.weight f4 [128, 26]
-0.026610838 -0.12764066 -0.23092479 -0.36147547 0.049545363 0.38233465 -0.15384315 0.18058646
0.41246027 -0.08457887 0.05824997 -0.16396047 0.13113345 0.12290683 0.34398755 0.13376772
-0.22548683 0.1554822 0.1490176 0.33912534 0.13325691 0.24013495 0.05572464 -0.2737311
-0.040738493 -0.06623149 0.13369262 -0.4024129 0.19898269 0.07135988 -0.3347991 0.36371297
0.15722984 -0.013922277 -0.40444836 -0.012709642 0.056503955 -0.15843953 -0.024089266 0.06701544
-0.29633358 -0.23847641 -0.15073924 -0.28834 0.00772153 0.182791 -0.10539676 0.07193111
-0.17353262 -0.14043911 -0.06925305 0.004300154 -0.11512994 0.308202 -0.3113127 -0.028574912
-0.2125985 -0.19376929 -0.056834776 0.0026611972 0.01066437 0.20660119 -0.0549783 -0.39621577
-0.16688707 -0.07051256 -0.41891998 0.1495215 -0.19212782 -0.10900274 0.2184019 0.03780101
0.39222956 -0.11732843 -0.35530087 -0.24930964 0.009837225 0.53803885 0.42209747 -0.15427212
0.14513184 0.08205754 -0.100435466 0.0061424547 0.11541234 -0.41485777 -0.10198894 0.043311633
-0.29528326 0.08962757 0.25922248 -0.08707265 0.002666093 -0.12750511 0.15550752 0.31695443
0.08966912 0.015225731 0.44511765 -0.10314559 0.4547767 0.24637534 0.101605535 0.012532045
0.09506121 -0.22805265 -0.27781472 -0.29873762 0.39577287 0.111101925 0.21967775 0.33423972
0.24447541 0.40211836 0.027912954 0.0861577 0.019318216 -0.019738965 -0.13647418 -0.14482635
0.30634254 0.07090129 0.054754514 0.073006764 0.0019215157 0.3207011 0.1475341 -0.104020394
-0.22885598 -0.10248337 -0.03985892 0.042492755 0.08476151 -0.17990392 0.37217698 0.22221841
0.23669733 0.1727694 0.05383842 0.1742387 -0.1164819 -0.014417473 0.086239435 0.22558784
-0.16413394 0.26847386 0.30654868 -0.04723403 0.10047593 -0.15151109 0.09468653 -0.24840684
0.04846468 0.15554032 -0.025393674 -0.17949824 0.090159245 -0.10799567 0.4785488 -0.26702267
0.09328477 0.18447757 -0.30451727 0.09029198 0.13144457 -0.023912668 0.081402704 0.10501618
-0.07085781 -0.069943085 0.23045433 0.34985936 0.22592725 -0.087988555 -0.005612978 -0.031636655
-0.14695728 0.36185485 -0.018013528 -0.11647692 0.055371147 -0.11321014 -0.1484828 -0.0165362
-0.19265741 0.11807679 0.043530002 -0.113572255 0.29472637 -0.2147773 -0.21827944 0.03594208
-0.025077343 -0.01664307 -0.031134225 0.6587636 -0.031744074 0.06093881 -0.038422514 -0.15180643
0.27199 -0.504044 0.2964411 0.076905794 -0.29752755 -0.17985459 0.07774662 0.12708375
-0.014982318 -0.267191 -0.1590448 -0.021362172 0.064471915 -0.12508994 -0.10674363 -0.15667821
-0.25600797 -0.13235526 -0.16855872 0.14994548 -0.09957728 0.07310563 0.111157104 -0.18527193
0.30224127 0.21459933 0.12651032 0.075385466 -0.08337709 -0.2512109 -0.14570832 -0.093515016
-0.23302324 -0.051153176 -0.0908371 -0.36119875 -0.15971214 -0.28155515 -0.044596072 0.10594682
-0.25193122 -0.18290417 -0.13199008 -0.123003796 -0.107202284 0.07978063 -0.36447302 0.09349257
0.0064062513 0.17101148 -0.24098326 -0.11089307 -0.24835648 -0.06597139 -0.117601156 0.0071812463
00000000: f9fe d9bc 3cb4 02be 8c77 6cbe 5013 b9be
00000010: 14f0 4a3d 5ec1 c33e 0f89 1dbe a8eb 383e
00000020: fe2d d33e b037 adbd 8597 6e3d 41e5 27be
00000030: d947 063e 93b6 fb3d 231f b03e 68fa 083e
00000040: 05e6 66be ba36 1f3e 1298 183e d6a1 ad3e
00000050: 8074 083e f0e5 753e 853f 643d 7c26 8cbe
00000060: 68dd 26bd 60a4 87bd b8e6 083e 1009 cebe
00000070: 1ec2 4b3e 2125 923d ca6a abbe 9638 ba3e
00000080: dc00 213e 431a 64bc db13 cfbe 1a3c 50bc
00000090: b170 673d f93d 22be da56 c5bc 643f 893d
000000a0: 09b9 97be 2933 74be 635b 1abe 4da1 93be
000000b0: e304 fd3b 902d 3b3e 42da d7bd 9e50 933d
000000c0: 89b2 31be 45cf 0fbe 8bd4 8dbd 4ee8 8c3b
000000d0: 3fc9 ebbd a7cc 9d3e 6164 9fbe ef15 eabc
000000e0: 6cb3 59be 756b 46be 95cb 68bd 7b67 2e3b
000000f0: 9cb9 2e3c 438f 533e ed30 61bd cbdc cabe
00000100: 72e4 2abe e468 90bd ae7c d6be 2a1c 193e
00000110: 28bd 44be d43c dfbd bfa4 5f3e 3bd5 1a3d
00000120: 50d2 c83e e349 f0bd ffe9 b5be 074b 7fbe
00000130: 502c 213c eabc 093f 291d d83e 83f9 1dbe
00000140: 719d 143e c90d a83d 1cb1 cdbd a546 c93b
00000150: 4e5d ec3d 3d68 d4be 94df d0bd 8a67 313d
00000160: 5e2f 97be a98e b73d cfb8 843e 2553 b2bd
00000170: 9eb9 2e3b b390 02be 5d3d 1f3e da47 a23e
00000180: 72a4 b73d 5875 793c 76e6 e33e ff3d d3bd
00000190: 7ed8 e83e d149 7c3e 9016 d03d 3553 4d3c
000001a0: 74af c23d a286 69be bb3d 8ebe 23f4 98be
000001b0: bea2 ca3e 6889 e33d 34f3 603e 7821 ab3e
000001c0: c357 7a3e 75e2 cd3e b5a9 e43c 7373 b03d
000001d0: 3c41 9e3c 9cb3 a1bc e3bf 0bbe 5c4d 14be
000001e0: eed8 9c3e b234 913d 4546 603d 9284 953d
000001f0: 5edb fb3a ef32 a43e 2e13 173e a508 d5bd
00000200: 3959 6abe cde2 d1bd 1b43 23bd e20c 2e3d
00000210: 7197 ad3d bc38 38be fb8d be3e 398d 633e
00000220: c960 723e 76ea 303e ad85 5c3d a16b 323e
00000230: 108e eebd 4437 6cbc 4d9e b03d 8000 673e
00000240: ba12 28be 6875 893e f3f3 9c3e 7878 41bd
00000250: 53c6 cd3d b925 1bbe 03eb c13d 5d5e 7ebe
00000260: e682 463d f645 1f3e 6506 d0bc 63ce 37be
00000270: 69a5 b83d d52c ddbd 5904 f53e 32b7 88be
00000280: 160c bf3d b0e7 3c3e b0e9 9bbe 00eb b83d
00000290: 6899 063e 80e4 c3bc 76b6 a63d b912 d73d
000002a0: e61d 91bd 523e 8fbd 38fc 6b3e c420 b33e
000002b0: 7959 673e 5833 b4bd 12ed b7bb 7095 01bd
000002c0: f87b 16be 0a45 b93e 1b91 93bc 748b eebd
000002d0: dbcc 623d b8da e7bd e00b 18be ed76 87bc
000002e0: fc47 45be 3ed2 f13d 844c 323d 9298 e8bd
000002f0: 60e6 963e 95ee 5bbe a584 5fbe 0138 133d
00000300: 006f cdbc 0c57 88bc 340d ffbc bba4 283f
00000310: 1306 02bd f99a 793d ed60 1dbd 2573 1bbe
00000320: 4642 8b3e 0709 01bf 21c7 973e c980 9d3d
00000330: 8855 98be cd2b 38be 9f39 9f3d 3e22 023e
00000340: 6578 75bc 42cd 88be a4dc 22be b9ff aebc
00000350: da09 843d 9417 00be 679c dabd 4170 20be
00000360: 7a13 83be 2388 07be a89a 2cbe 4f8b 193e
00000370: 2cef cbbd 68b8 953d 56a6 e33d edb7 3dbe
00000380: 5ebf 9a3e edbf 5b3e ec8b 013e b263 9a3d
00000390: 9cc1 aabd b79e 80be 9034 15be cd84 bfbd
000003a0: a59d 6ebe fe85 51bd cd08 babd 0bef b8be
000003b0: 948b 23be ff27 90be 5faa 36bd a5fa d83d
000003c0: 21fd 80be 3b4b 3bbe 6828 07be 6ae9 fbbd
000003d0: df8c dbbd 0764 a33d 359c babe 0879 bf3d
000003e0: 88eb d13b a21d 2f3e 51c4 76be e81b e3bd
000003f0: 2951 7ebe 021c 87bd e0d8 f0bd a950 eb3b

network_body._body_endoder.seq_layers.0.bias f4 [128]
-0.020224547 0.1051473 0.007008554 -0.02822131 -0.032793663 -0.028972201 -0.02558255 -0.12345376
0.1545031 0.06511335 0.04735178 0.0705331 -0.061683483 -0.013334785 -0.10333386 0.010574003
-0.019951573 -0.039919596 0.06323634 0.101225294 -0.30789953 -0.019768886 0.104555726 -0.009489828
0.07771395 0.0962143 -0.24984522 -0.039109267 -0.04766415 0.027045518 0.10835286 -0.020555036
-0.028203268 0.11988868 0.102727346 -0.16109584 0.11525766 0.08682439 -0.014036015 -0.08994271
-0.07299272 -0.09240454 -0.035736576 -0.03580383 0.041650567 -0.024656974 -0.1582722 0.05124179
-0.029179515 -0.004252916 -0.08787664 -0.06722781 0.0073599187 -0.27999228 0.055991165 -0.04491952
-0.05000629 0.1386746 -0.04997915 -0.053251658 0.0064219465 -0.12159449 -0.044897854 -0.04031652
0.026891477 0.1181381 -0.033039276 0.07598308 0.06983074 -0.05445747 -0.025103683 -0.06283584
0.12766548 0.06661961 -0.025520256 0.08412579 0.04278907 -0.11074118 0.12993976 0.08033749
0.061907046 0.019400423 -0.019880781 0.09230251 0.018690947 0.13487887 -0.0071325833 -0.03887168
0.038585573 0.06522309 0.21731271 0.10964195 0.058918655 -0.013272088 0.04079757 -0.033498514
-0.029495118 0.006183012 -0.05757616 0.1150146 -0.005589507 -0.031381007 0.10240403 -0.008524788
0.008494111 0.04913021 0.061670635 0.13781498 -0.0307796 0.05365285 -0.036540076 -0.022295615
0.07386901 0.0918465 0.055898245 -0.08331044 -0.19754404 0.10360199 -0.046307743 0.026375914
-0.01656567 0.0013175389 0.037204105 0.048623864 0.08326052 -0.036377996 0.15700394 -0.025335353
00000000: f3ad a5bc 7857 d73d 03a8 e53b 6030 e7bc
00000010: a652 06bd 1c57 edbc 7f92 d1bc 53d5 fcbd
00000020: 1036 1e3e 265a 853d f1f3 413d a873 903d
00000030: d2a7 7cbd 247a 5abc b4a0 d3bd 953e 2d3c
00000040: 7b71 a3bc bb82 23bd 0e82 813d 354f cf3d
00000050: 02a5 9dbe 5cf2 a1bc 5021 d63d 397b 1bbc
00000060: 7e28 9f3d 010c c53d 6dd7 7fbe 0a31 20bd
00000070: 7c3b 43bd 908e dd3c 1be8 dd3d 0963 a8bc
00000080: 8a0a e7bc 3288 f53d b762 d23d 4ff6 24be
00000090: 350c ec3d fcd0 b13d 50f7 65bc e233 b8bd
000000a0: 357d 95bd 973e bdbd 8460 12bd 09a7 12bd
000000b0: c999 2a3d 6cfd c9bc 1c12 22be e9e2 513d
000000c0: e109 efbc 0c5c 8bbb abf8 b3bd bcae 89bd
000000d0: 792b f13b 265b 8fbe fe56 653d 88fd 37bd
000000e0: 65d3 4cbd b700 0e3e f0b6 4cbd 691e 5abd
000000f0: 316f d23b 8806 f9bd d0e6 37bd ef22 25bd
00000100: 844b dc3c 63f2 f13d 3154 07bd 049d 9b3d
00000110: 6b03 8f3d cc0e 5fbd 3da6 cdbc 14b0 80bd
00000120: bdba 023e dd6f 883d db0f d1bc 244a ac3d
00000130: 9843 2f3d 46cc e2bd ee0e 053e fb87 a43d
00000140: 3e92 7d3d a3ed 9e3c 05dd a2bc 1909 bd3d
00000150: c21d 993c b01d 0a3e 72b8 e9bb e937 1fbd
00000160: e80b 1e3d af93 853d 3987 5e3e f58b e03d
00000170: b054 713d 2c73 59bc 5a1b 273d bd35 09bd
00000180: bf9f f1bc dd9a ca3b fbd4 6bbd c68c eb3d
00000190: 2f28 b7bb 5f89 00bd 34b9 d13d 8dab 0bbc
000001a0: e22a 0b3c c23c 493d 599a 7c3d 5f1f 0d3e
000001b0: 8025 fcbc 17c3 5b3d 0cab 15bd 4ba5 b6bc
000001c0: a348 973d 051a bc3d 8ff5 643d aa9e aabd
000001d0: fc48 4abe 482d d43d 30ad 3dbd 4d12 d83c
000001e0: bab4 87bc 45b1 ac3a 5563 183d d129 473d
000001f0: 7e84 aa3d 1801 15bd a4c5 203e 168c cfbc

network_body._body_endoder.seq_layers.2.weight f4 [128, 128]
-0.07444251 0.10808378 -0.028795488 -0.21982914 -0.0555411 -0.21466646 -0.04595887 -0.054115064
-0.024687193 -0.108166754 0.0001108599 0.07382043 0.00055615447 -0.16424553 -0.19130759 -0.06610432
-0.0044825557 -0.03176531 0.031538814 0.05008318 0.020527918 -0.10859161 0.08120245 0.11544943
0.13938816 0.06279378 -0.12501045 -0.030603811 -0.08965469 0.08311227 0.15915605 -0.06824758
-0.13125929 -0.038827915 0.018727876 0.12458715 0.12300269 0.06373301 -0.079767235 -0.04767731
-0.0527233 -0.14309163 -0.059628166 0.0032311191 0.15370265 -0.22058325 -0.07984765 0.018739467
-0.10803067 -0.058750354 0.0031583768 0.19488542 0.13935761 -0.06731974 0.112182796 -0.038365733
0.026299499 0.04963925 0.07083458 -0.06499964 0.07102851 -0.10419042 -0.025740948 -0.07878588
0.022847157 0.14822833 -0.17838486 0.11123366 0.014471671 -0.07492871 -0.13471958 -0.23053515
-0.14475326 0.081279516 0.14053518 0.0047765677 0.0385937 -0.046323784 0.12509382 -0.13386951
0.12472775 0.1599344 -0.024854962 0.12570633 0.21035562 0.07491597 -0.06451072 -0.03198973
0.14735639 0.062497314 0.09142902 0.21380667 -0.16439404 -0.0615365 0.004503698 0.10087369
-0.008165459 0.03391689 -0.020385653 0.02028184 -0.0334282 0.009773471 0.021398554 0.020034667
-0.118637785 0.15757747 -0.11556575 0.1610805 -0.05222618 -0.046486307 -0.015353778 -0.016747491
-0.068473324 0.02628144 -0.12961428 -0.08203057 0.05612697 -0.03160129 0.044893753 0.099686846
-0.055631403 -0.14037402 0.18294425 -0.01058334 -0.013296719 0.17411551 0.0074964482 -0.12774415
-0.062053848 0.28349984 0.026991636 -0.049990073 -0.12915239 -0.13148819 -0.20235483 -0.15988338
-0.07095858 0.06961871 0.15886271 0.070057586 0.06369127 0.048257478 -0.23063007 0.063369446
-0.15183215 -0.09359657 0.051314957 -0.0048185457 -0.28420827 0.05077236 0.14124674 -0.024680892
0.23604631 0.060278982 -0.11716121 0.070843235 -0.121066906 0.07586156 0.03458615 -0.06703328
-0.100065395 0.17657906 0.087301776 -0.06970137 0.19775257 0.0065173297 -0.2332038 -0.1770435
-0.03222191 -0.14376256 0.06742912 0.016866753 -0.036270797 -0.0015735228 -0.13129981 0.09720801
-0.118665166 0.052474294 -0.15308169 -0.02287108 -0.11073951 -0.08810942 0.22562872 -0.0012290659
-0.023751898 0.067925304 0.11448397 -0.05841663 0.046223603 -0.024697093 -0.18231237 -0.10780432
0.18158796 0.17827429 0.0873051 0.07457605 0.023495084 -0.11249296 -0.013874755 -0.11910686
0.03870916 0.13485795 -0.1682805 -0.034758065 -0.075535454 -0.140126 0.29486346 0.06944653
0.07712553 0.03760313 0.005762492 -0.045457352 -0.15689328 0.09010366 -0.09457669 0.040301297
-0.061057296 -0.15175965 0.06615258 0.091085516 0.08962707 0.093534544 -0.16865157 -0.16521375
0.099312894 -0.08586705 -0.10980708 -0.04233608 0.0054493006 -0.1040499 0.03482789 -0.053983405
0.15199958 0.13188455 0.106299154 0.091337405 -0.12303278 0.13511781 0.10756082 0.040060937
0.15132514 -0.06306921 0.176841 -0.031728175 -0.03211578 0.056918424 0.12941132 -0.027957924
0.0045714355 -0.041127037 0.23706384 0.07953134 0.051141426 0.018703993 -0.10814054 -0.09402029
00000000: 5175 98bd 075b dd3d 84e4 ebbc e41a 61be
00000010: 117f 63bd 86d1 5bbe 5e3f 3cbd c2a7 5dbd
00000020: cc3c cabc 8886 ddbd 757d e838 2a2f 973d
00000030: e5ca 113a fb2f 28be 23e6 43be b461 87bd
00000040: 67e2 92bb 571c 02bd d82e 013d 0524 4d3d
00000050: 2a2a a83c 4765 debd 784d a63d c070 ec3d
00000060: c5bb 0e3e 069a 803d bd02 00be d8b4 fabc
00000070: e19c b7bd c436 aa3d cef9 223e 63c5 8bbd
00000080: d668 06be 050a 1fbd 346b 993c 8c27 ff3d
00000090: d6e8 fb3d 7486 823d 015d a3bd 4849 43bd
000000a0: 63f4 57bd 9d86 12be aa3c 74bd 2fc1 533b
000000b0: 3a64 1d3e 93e0 61be 2a87 a3bd 8383 993c
000000c0: 2f3f ddbd 36a4 70bd c5fc 4e3b 0b90 473e
000000d0: c3b3 0e3e efde 89bd 18c0 e53d 6325 1dbd
000000e0: 0c72 d73c 8752 4b3d b811 913d 881e 85bd
000000f0: 6577 913d c961 d5bd aede d2bc 7e5a a1bd
00000100: f629 bb3c 2bc9 173e 85aa 36be 79ce e33d
00000110: 961a 6d3c 3974 99bd eef3 09be 6811 6cbe
00000120: 333a 14be e075 a63d 74e8 0f3e c184 9c3b
00000130: 6d14 1e3d 02be 3dbd 9818 003e 1715 09be
00000140: 4371 ff3d d8c5 233e a29c cbbc 29b9 003e
00000150: 7767 573e 8b6d 993d 321e 84bd aa07 03bd
00000160: 98e4 163e 2ffd 7f3d 233f bb3d 23f0 5a3e
00000170: e956 28be b20d 7cbd c293 933b dd96 ce3d
00000180: 6bc8 05bc 70ec 0a3d d0ff a6bc 1a26 a63c
00000190: 02ec 08bd e920 203c 054c af3c be1f a43c
000001a0: 5ef8 f2bd fd5b 213e bcad ecbd 49f2 243e
000001b0: 1eeb 55bd 6d68 3ebd 6a8e 7bbc 0932 89bc
000001c0: be3b 8cbd 2d4c d73c 9bb9 04be a5ff a7bd
000001d0: 65e5 653d 5b70 01bd 83e2 373d 9e28 cc3d
000001e0: c1dd 63bd 35be 0fbe bd55 3b3e bf65 2dbc
000001f0: 7bda 59bc 564b 323e c4a4 f53b 5dcf 02be
00000200: 2d2c 7ebd e426 913e 901d dd3c 64c2 4cbd
00000210: 8640 04be d7a4 06be 1b36 4fbe 78b8 23be
00000220: bb52 91bd 4194 8e3d e8ac 223e 5a7a 8f3d
00000230: 9270 823d a2a9 453d 4a2a 6cbe d7c7 813d
00000240: e379 1bbe 8faf bfbd a22f 523d e4e4 9dbb
00000250: bf83 91be aef6 4f3d fca2 103e 952f cabc
00000260: 20b6 713e 18e7 763d 37f2 efbd 4216 913d
00000270: edf1 f7bd 4e5d 9b3d 35aa 0d3d bf48 89bd
00000280: 16ef ccbd 24d1 343e 46cb b23d 98bf 8ebd
00000290: a67f 4a3e 538f d53b facc 6ebe e44a 35be
000002a0: 1ffb 03bd 7e36 13be 4718 8a3d 252c 8a3c
000002b0: b090 14bd aa3e ceba 7573 06be fe14 c73d
000002c0: b906 f3bd 49ef 563d 72c1 1cbe 225c bbbc
000002d0: 65cb e2bd b672 b4bd 370b 673e 9c18 a1ba
000002e0: 5793 c2bc 6c1c 8b3d 9276 ea3d 4746 6fbd
000002f0: f654 3d3d 8f51 cabc 18b0 3abe 83c8 dcbd
00000300: 32f2 393e 898d 363e 04cd b23d 54bb 983d
00000310: c378 c03c b662 e6bd f152 63bc 4cee f3bd
00000320: 7f8d 1e3d 3418 0a3e b951 2cbe 795e 0ebd
00000330: 55b2 9abd 317d 0fbe 58f8 963e fb39 8e3d
00000340: fdf3 9d3d bd05 1a3d 49d3 bc3b 7d31 3abd
00000350: a2a8 20be 4588 b83d 6cb1 c1bd f912 253d
00000360: 3717 7abd e266 1bbe 017b 873d 0b8b ba3d
00000370: 668e b73d 0a8f bf3d ffb2 2cbe cb2d 29be
00000380: 8f64 cb3d 10db afbd 89e2 e0bd 9968 2dbd
00000390: 0c90 b23b 1d18 d5bd b1a7 0e3d b41d 5dbd
000003a0: c7a5 1b3e be0c 073e 5fb3 d93d 1b0f bb3d
000003b0: 9cf8 fbbd 535c 0a3e d948 dc3d f016 243d
000003c0: faf4 1a3e 6e2a 81bd cf15 353e 67f5 01bd
000003d0: d68b 03bd 4b23 693d 6784 043e 0408 e5bc
000003e0: fbcb 953b d374 28bd ddc0 723e 54e1 a23d
000003f0: ac79 513d 1e39 993c ca78 ddbd b68d c0bd

network_body._body_endoder.seq_layers.2.bias f4 [128]
0.05720614 0.16572846 0.07010485 0.11009473 -0.03880989 -0.0055626803 -0.03287295 0.07001463
0.011512328 -0.038135353 0.010985535 0.07520305 0.08114647 0.041728344 -0.006844327 0.13027476
-0.0703122 0.040415775 0.13904297 0.005376721 -0.05856095 0.06848432 0.09089921 0.06841048
-0.07054172 0.06237978 0.0866399 0.047072984 0.08732702 0.05120701 -0.027178666 0.020839553
-0.02915825 0.051802076 0.046816535 -0.0022360836 0.024974171 0.032075554 0.087793395 0.1232758
0.078029625 0.113492176 0.077162914 -0.0038719443 0.06250375 0.09347065 0.010218715 0.048220757
0.023928994 0.105951436 0.024939107 0.029202964 0.08374308 0.03855521 -0.067947924 -0.026580203
0.044881728 0.049387697 -0.046534494 0.120719016 0.14196897 0.116063125 0.015819315 0.08916946
0.07604187 -0.062312778 0.022273064 -0.04762592 0.018507423 0.12299307 0.09853966 -0.055358037
0.052752085 0.017677765 0.022106031 0.057873577 -0.044489253 0.119412735 0.13459378 0.048346594
0.038663097 -0.017634735 -0.0056672366 0.05788907 0.027368324 0.10116173 0.057447303 0.017640786
0.01189637 -0.04386744 0.072058566 -0.029496577 0.06481266 0.1032517 0.07043753 0.12474948
0.04399841 0.02149602 0.066497386 0.09133888 0.085708074 0.016789386 0.028229265 -0.0026469165
-0.024003388 0.007864971 0.008984246 0.010613864 0.017386772 -0.006428875 0.026265096 0.09902522
0.118431956 0.10657011 0.0029199205 -0.07631431 0.13624963 0.06913099 0.0136940945 0.027766578
-0.08638857 0.08533022 0.026531965 0.08154319 0.117470585 0.00543711 -0.0515945 0.11948529
00000000: fc50 6a3d b9b4 293e 2293 8f3d 5979 e13d
00000010: 1ff7 1ebd 2547 b6bb c9a5 06bd d563 8f3d
00000020: 349e 3c3c d133 1cbd acfc 333c 0f04 9a3d
00000030: 1f30 a63d 57eb 2a3d 6046 e0bb bf66 053e
00000040: d8ff 8fbd 038b 253d 4861 0e3e 342f b03b
00000050: 9bdd 6fbd 8241 8c3d 5d29 ba3d cb1a 8c3d
00000060: 2d78 90bd f181 7f3d 4370 b13d 9acf 403d
00000070: 82d8 b23d 71be 513d cba5 debc b6b7 aa3c
00000080: 48dd eebc 6a2e 543d b2c2 3f3d 428b 12bb
00000090: a296 cc3c a861 033d 06cd b33d 0678 fc3d
000000a0: ffcd 9f3d 966e e83d 9707 9e3d 72c0 7dbb
000000b0: f701 803d 8a6d bf3d 666c 273c 2183 453d
000000c0: bd06 c43c 11fd d83d 194d cc3c 0e3b ef3c
000000d0: 7e81 ab3d 11ec 1d3d 4828 8bbd babe d9bc
000000e0: e7d5 373d c14a 4a3d f49a 3ebd 883b f73d
000000f0: 5060 113e 81b2 ed3d 8297 813c 7a9e b63d
00000100: d7bb 9b3d af3b 7fbd 0076 b63c 6613 43bd
00000110: e19c 973c cae3 fb3d 29cf c93d 1cbf 62bd
00000120: 9212 583d f6d0 903c b517 b53c d80c 6d3d
00000130: 5d3a 36bd aa8e f43d f4d2 093e 1407 463d
00000140: 325d 1e3d b876 90bc 3ab4 b9bb 171d 6d3d
00000150: 8933 e03c e22d cf3d dd4d 6b3d 6983 903c
00000160: fee8 423c 58ae 33bd 7193 933d cea2 f1bc
00000170: 80bc 843d a175 d33d 8d41 903d a87c ff3d
00000180: ad37 343d 6c18 b03c c82f 883d e10f bb3d
00000190: b787 af3d e589 893c 0f41 e73c e477 2dbb
000001a0: c1a2 c4bc 14dc 003c a932 133c c6e5 2d3c
000001b0: b46e 8e3c 50a9 d2bb e629 d73c bccd ca3d
000001c0: 748c f23d 6e41 da3d 235c 3f3b ad4a 9cbd
000001d0: 0685 0b3e 8c94 8d3d 325d 603c bc76 e33c
000001e0: 7eec b0bd 9cc1 ae3d 9059 d93c 1e00 a73d
000001f0: 6b94 f03d c929 b23b c154 53bd b4b4 f43d

action_model._continuous_distribution.log_sigma f4 [1, 2]
0.052745275 -0.056195453
00000000: 6e0b 583d 342d 66bd

action_model._continuous_distribution.mu.weight f4 [2, 128]
-0.020396128 0.013079645 -0.0035654109 -0.018770084 -0.0055071735 0.008903113 0.053543586 -0.0046338723
-0.01681554 0.001175063 0.012041919 -0.029035904 -0.00684527 -0.024915883 0.013370122 -0.001977162
0.032048706 -0.016100831 -0.0060138954 0.0141411545 -0.002710405 0.0016041037 -0.019715132 0.019287432
0.029093621 0.013803175 0.016075341 -0.023369608 -0.005152977 -0.0035108936 0.015021489 0.005351103
0.01520797 0.025571845 -0.0098521225 0.018618507 0.016079364 -0.029711312 -0.02155017 0.008499626
-0.009673278 0.015663208 -0.017790355 0.025343787 0.02212127 -0.02415449 0.009830834 0.005487652
-0.03311314 0.0011323736 0.011081927 0.0030003348 0.011722576 -0.036039647 0.021079656 0.029376158
-0.014792289 -0.021054978 0.0190026 -0.005605325 -0.000457084 0.019660322 0.001891598 -0.0072982186
0.0017420995 -0.004727151 0.0012150389 -0.0021803204 -0.002353515 -0.012795894 0.017175606 0.01189379
-0.02140781 0.014990111 -0.0037942003 -0.007777615 0.024049234 0.0030442416 -0.002473434 0.019798048
-0.020928914 -0.014389859 -0.0027225204 0.009567798 0.02373114 0.019496186 -0.017180132 0.010063439
0.012534982 0.031903677 0.021743473 0.037915196 0.008759162 -0.00965418 -0.013742513 0.0031837386
-0.0008624455 -0.018321794 0.016716463 -0.018458407 -0.013293375 0.040342648 0.0047217063 -0.0051408135
0.025485689 -0.004528682 -0.00855572 0.0038728514 0.023465723 0.057159897 -0.004333103 -0.008149897
0.0080127185 0.020592531 0.010626866 0.038488716 0.00018787541 -0.0048527806 -0.00790994 0.02924299
0.013241535 -0.0010685857 0.00896805 0.006597085 -0.0066033863 0.015585952 -0.0042080586 -0.0009150435
0.061170276 0.018839784 0.040759645 0.028054474 -0.029561544 -0.031513307 0.057904735 0.043792814
0.06393183 -0.02216758 -0.041024886 0.040182333 0.028746279 0.039524082 -0.032735158 0.00022878294
0.027571898 0.058393326 0.0070215133 0.028149994 -0.0019191015 0.04747494 0.02977743 0.036066543
0.0027583167 0.043866586 0.04040645 0.060880825 0.02686374 0.03613577 0.011808468 -0.05232895
-0.020937521 0.03871674 0.033148136 -0.032478087 -0.051392928 0.04292278 0.028203983 0.039263766
0.037700217 0.019111676 0.031217614 -0.027640395 0.0149859395 0.044234075 -0.043749824 0.05720729
0.064923316 0.013616181 -0.054531608 -0.06051098 0.049685072 0.049170613 0.056932665 0.05109601
0.033418953 0.04437033 0.03624922 0.014491821 0.019079495 0.027951734 -0.04534917 0.040815752
0.044393852 0.00016096905 -0.050159343 -0.01363106 -0.037244853 0.0034601719 0.02108859 0.00044725175
0.052022867 -0.050757147 0.08827025 0.047061905 0.051744405 0.033648036 0.01169868 0.04355859
0.02371495 -0.03635387 -0.014826196 0.028162144 0.04555893 0.02376845 0.03467196 -0.04482469
-0.034520447 0.006798868 0.037783414 0.032657843 0.048505742 0.020745909 0.00823339 0.037859023
0.010084478 0.040611923 0.005492568 0.005039552 0.040358387 -0.04571317 -0.051549457 -0.045246094
-0.0047802986 -0.041924182 -0.034149278 -0.036762927 -0.046439983 -0.015774246 -0.05063742 0.026661819
0.024111552 0.028885495 -0.03080566 0.015901685 0.02738632 0.021943236 -0.0471193 0.007338886
0.0026064941 0.022333317 0.007051993 0.020585902 0.021973163 -0.039763156 0.0037225697 0.016287789
00000000: c815 a7bc 024c 563c aba9 69bb b8c3 99bc
00000010: 8575 b4bb 5dde 113c 8550 5b3d bdd7 97bb
00000020: bec0 89bc 9204 9a3a 784b 453c b4dc edbc
00000030: 494e e0bb 651c ccbc 5b0e 5b3c 4693 01bb
00000040: 8145 033d e4e5 83bc 3610 c5bb 4db0 673c
00000050: 0da1 31bb ca40 d23a a181 a1bc ad00 9e3c
00000060: bf55 ee3c b626 623c 6fb0 833c 9f71 bfbc
00000070: 4eda a8bb 0517 66bb b11c 763c 4e58 af3b
00000080: d92a 793c 0c7c d13c cc6a 21bc d785 983c
00000090: dfb8 833c 2365 f3bc fb89 b0bc 0442 0b3c
000000a0: ab7c 1ebc 2150 803c 14bd 91bc c69d cf3c
000000b0: aa37 b53c a3df c5bc 8211 213c c3d1 b33b
000000c0: a5a1 07bd 276c 943a f990 353c 44a1 443b
000000d0: 0c10 403c 4f9e 13bd 3eaf ac3c 45a6 f03c
000000e0: 5b5b 72bc 7d7b acbc 57ab 9b3c e0ac b7bb
000000f0: c7a4 efb9 af0e a13c 7fef f73a e525 efbb
00000100: 2957 e43a 37e6 9abb f141 9f3a b5e3 0ebb
00000110: 6e3d 1abb dfa5 51bc dbb3 8c3c 2cde 423c
00000120: 6e5f afbc 1599 753c 1ea8 78bb 5ddb febb
00000130: e602 c53c e681 473b 5619 22bb 842f a23c
00000140: 1d73 abbc 71c3 6bbc 506c 32bb 41c2 1c3c
00000150: cf67 c23c 77b6 9f3c 59bd 8cbc 1fe1 243c
00000160: 865f 4d3c 6ead 023d 5e1f b23c f74c 1b3d
00000170: 9782 0f3c 912c 1ebc 4728 61bc 45a6 503b
00000180: bd15 62ba 9617 96bc f7f0 883c 1636 97bc
00000190: 75cc 59bc 553e 253d 8bb8 9a3b 4574 a8bb
000001a0: 5dc7 d03c 5765 94bb 4a2d 0cbc aacf 7d3b
000001b0: 303b c03c 7f20 6a3d b4fc 8dbb 2587 05bc
000001c0: c747 033c abb1 a83c 4e1c 2e3c 58a6 1d3d
000001d0: 6c00 4539 1304 9fbb b198 01bc ff8e ef3c
000001e0: 06f3 583c c90f 8cba baee 123c 5c2c d83b
000001f0: 3861 d8bb 395c 7f3c c1e3 89bb 88df 6fba
00000200: af8d 7a3d e455 9a3c 96f3 263d 7fd2 e53c
00000210: 0d2b f2bc 1914 01bd 842d 6d3d 1860 333d
00000220: b1ee 823d c998 b5bc b609 28bd 3b96 243d
00000230: 517d eb3c 01e4 213d 4d15 06bd 74e5 6f39
00000240: 76de e13c d72d 6f3d b914 e63b d19a e63c
00000250: 5c8a fbba 1575 423d ccef f33c 83ba 133d
00000260: e0c4 343b 73ad 333d 3c81 253d 2c5e 793d
00000270: 5911 dc3c 1a03 143d 4e78 413c e256 56bd
00000280: 2a85 abbc 7295 1e3d 57c6 073d be07 05bd
00000290: 6481 52bd cccf 2f3d 0a0c e73c 0bd3 203d
000002a0: 8b6b 1a3d 1790 9c3c 15bc ff3c 1c6e e2bc
000002b0: 9687 753c ca2e 353d 0433 33bd 3152 6a3d
000002c0: 84f6 843d 6716 5f3c 895c 5fbd 5dda 77bd
000002d0: 9382 4b3d 2067 493d 3a32 693d 0d4a 513d
000002e0: 50e2 083d aabd 353d 107a 143d 1a6f 6d3c
000002f0: 9a4c 9c3c 09fb e43c 0dc0 39bd 6b2e 273d
00000300: 54d6 353d cdc9 2839 e273 4dbd cf54 5fbc
00000310: 0f8e 18bd 0dc4 623b fbc1 ac3c 1d7d ea39
00000320: ee15 553d bae6 4fbd 08c7 b43d fcc3 403d
00000330: f1f1 533d 86d2 093d d2ab 3f3c 7e6a 323d
00000340: db45 c23c cce7 14bd 93e9 72bc 4cb4 e63c
00000350: 009c 3a3d 0db6 c23c 2f04 0e3d 189a 37bd
00000360: 5065 0dbd 0ac9 de3b c8c2 1a3d 3bc4 053d
00000370: f5ad 463d 53f3 a93c 57e5 063c 1012 1b3d
00000380: 5e39 253c b058 263d 00fb b33b d422 a53b
00000390: d64e 253d bc3d 3bbd 8625 53bd f853 39bd
000003a0: 0da4 9cbb b1b8 2bbd 1de0 0bbd b994 16bd
000003b0: da37 3ebd fe38 81bc 2f69 4fbd e369 da3c
000003c0: 9785 c53c 46a1 ec3c 275c fcbc 4044 823c
000003d0: 4759 e03c 4dc2 b33c 2b00 41bd 0a7b f03b
000003e0: b7d1 2a3b 5cf4 b63c 6814 e73b c4a3 a83c
000003f0: 1001 b43c b1de 22bd 5bf6 733b f86d 853c

action_model._continuous_distribution.mu.bias f4 [2]
0.0061586224 -0.05088284
00000000: 45ce c93b 866a 50bd

action_model._discrete_distribution.branches.0.weight f4 [2, 128]
-0.17812191 -0.18027626 -0.11875492 -0.17860746 0.18893567 0.09924187 -0.0013566014 -0.21567579
-0.1200675 0.13456531 0.097957164 -0.15158525 -0.12836114 -0.12371694 0.08819717 -0.16801897
0.030092292 -0.08845472 -0.16459616 -0.061263375 0.12198501 -0.17920704 -0.18358892 -0.17803365
0.072823726 -0.16750948 -0.17124107 -0.1716647 -0.102555856 -0.10352243 0.014109557 0.11690988
0.1524872 -0.11646508 -0.09930255 0.077496655 0.13708918 -0.1502207 -0.14484695 -0.18755335
-0.16964027 -0.17076708 -0.17968307 0.114912674 -0.115691185 -0.20785001 0.08178481 -0.18805608
-0.07855038 -0.15423107 0.12607774 0.13670965 -0.17039913 -0.11967481 -0.019687966 -0.049224965
-0.11957124 -0.14205688 -0.029557431 -0.14153245 -0.18104005 -0.15995534 0.11942182 -0.20698252
-0.12897764 0.09577289 0.13779862 0.14882809 0.06034867 -0.16502982 -0.17500395 0.08727292
-0.13421807 0.108941965 -0.11544935 -0.17582105 -0.013902008 -0.2359722 -0.17767853 -0.16183117
-0.12643106 0.15732254 0.03588934 -0.14033529 -0.079494536 -0.17527634 -0.10731583 0.09857044
0.12234855 0.089082666 -0.14185047 -0.02578642 -0.18191682 -0.14096469 -0.08979827 -0.21751119
-0.11950656 -0.15083395 -0.10284481 -0.12378768 -0.21553294 0.082663245 0.135411 0.14335456
0.040014025 0.13599308 0.12679945 0.10566254 0.03415139 0.09636635 0.11496652 -0.1310585
-0.16891274 -0.19660974 0.0824441 0.028463032 -0.18696159 -0.15745299 0.12772453 -0.00868861
0.12886548 -0.15016028 -0.022857914 -0.1929162 -0.1146073 0.13998893 0.10929486 -0.15235232
0.15458176 0.18105088 0.11828099 0.19122373 -0.20246655 -0.07931982 -0.00633678 0.20362654
0.1196156 -0.13095221 -0.104759105 0.15318146 0.14408314 0.11061363 -0.0970809 0.1475028
-0.014668641 0.09080492 0.18281749 0.053405676 -0.11912374 0.19824065 0.19224459 0.18216297
-0.06367478 0.1810863 0.1722285 0.16537952 0.117448665 0.105989635 0.008735998 -0.10708314
-0.16563083 0.09878411 0.109450385 -0.08942317 -0.13648498 0.15791954 0.14824054 0.18992333
0.17364854 0.1514465 0.1714336 -0.1001395 0.11912583 0.21527432 -0.084242836 0.17668423
0.08374999 0.1793282 -0.100307286 -0.11731692 0.18418698 0.13484232 0.004185512 0.046075057
0.1194069 0.16473593 0.019570822 0.16831459 0.18248998 0.17849658 -0.11625853 0.21490061
0.100624666 -0.09523497 -0.1346957 -0.14679182 -0.06347359 0.15645999 0.15981427 -0.09489194
0.1501828 -0.111396916 0.110834174 0.18060252 0.024657888 0.22770849 0.15597828 0.14668946
0.12788817 -0.16201755 -0.032700595 0.1648804 0.09178627 0.17721571 0.10176949 -0.09913957
-0.122891925 -0.08003697 0.13457936 0.02104354 0.16615409 0.13890699 0.10391448 0.22708939
0.102510504 0.1331588 0.06482685 0.13989846 0.19904518 -0.08569153 -0.12513177 -0.1355742
-0.04702546 -0.12240261 -0.13025853 -0.10305334 -0.015813349 -0.09270352 -0.12277435 0.14522648
0.17854498 0.20871204 -0.07719115 -0.026224123 0.18113463 0.16448534 -0.1319913 0.027904252
-0.116634116 0.12789474 0.024772143 0.18256064 0.12233847 -0.14699939 -0.078579955 0.15841414
00000000: 9765 36be 579a 38be c835 f3bd e0e4 36be
00000010: 5a78 413e 523f cb3d fdcf b1ba 1dda 5cbe
00000020: f3e5 f5bd 7dcb 093e c49d c83d 2a39 1bbe
00000030: 1a71 03be 4f5f fdbd b8a0 b43d 2a0d 2cbe
00000040: 1c84 f63c c027 b5bd e58b 28be 4eef 7abd
00000050: 47d3 f93d 0d82 37be bcfe 3bbe 744e 36be
00000060: 9b24 953d 9b87 2bbe d259 2fbe dfc8 2fbe
00000070: ce08 d2bd 9103 d4bd c52b 673c 726e ef3d
00000080: 9b25 1c3e 3e85 eebd 235f cbbd 91b6 9e3d
00000090: 1b61 0c3e 75d3 19be c252 14be fc0d 40be
000000a0: 2eb6 2dbe 91dd 2ebe d7fe 37be 5657 eb3d
000000b0: 80ef ecbd a2d6 54be cb7e a73d c691 40be
000000c0: 06df a0bd c0ee 1dbe 861a 013e 9dfd 0b3e
000000d0: 1c7d 2ebe 1118 f5bd a848 a1bc 1ea0 49bd
000000e0: c4e1 f4bd 5c77 11be 6d22 f2bc e2ed 10be
000000f0: 9062 39be 55cb 23be 6d93 f43d 3af3 53be
00000100: b712 04be 9424 c43d 151b 0d3e 6466 183e
00000110: 2b30 773d 94fd 28be 3c34 33be 25bc b23d
00000120: 7670 09be f71c df3d b570 ecbd 6f0a 34be
00000130: 3fc5 63bc b2a2 71be 5cf1 35be 12b7 25be
00000140: 2577 01be 2919 213e b300 133d 0eb4 0fbe
00000150: 08ce a2bd a47b 33be 67c8 dbbd 4ddf c93d
00000160: e091 fa3d f970 b63d 4041 11be 0b3e d3bc
00000170: 6748 3abe 0c59 10be 28e8 b7bd 41bb 5ebe
00000180: dbbf f4bd 3774 1abe 4da0 d2bd 6584 fdbd
00000190: abb4 5cbe 594b a93d 2ea9 0a3e 8acb 123e
000001a0: bfe5 233d c541 0b3e b7d7 013e 9a65 d83d
000001b0: 54e2 0b3d b95b c53d 9173 eb3d 3334 06be
000001c0: 76f7 2cbe 1054 49be 74d8 a83d 4e2b e93c
000001d0: dc72 3fbe 5b3b 21be 38ca 023e ac5a 0ebc
000001e0: 50f5 033e 9ec3 19be 8540 bbbc d38b 45be
000001f0: 3bb7 eabd 4259 0f3e fcd5 df3d 3f02 1cbe
00000200: ae4a 1e3e 6765 393e 4e3d f23d 27d0 433e
00000210: 6453 4fbe 6e72 a2bd c3a4 cfbb 7a83 503e
00000220: 06f9 f43d 5618 06be f18b d6bd 9adb 1c3e
00000230: 888a 133e 6689 e23d 5ad2 c6bd f90a 173e
00000240: bd54 70bc eef7 b93d 8234 3b3e e9bf 5a3d
00000250: 26f7 f3bd 99ff 4a3e c4db 443e ee88 3a3e
00000260: ec67 82bd b06e 393e ab5c 303e 4059 293e
00000270: ed88 f03d 1811 d93d 6e21 0f3c 684e dbbd
00000280: 219b 29be 534f ca3d 8627 e03d 7f23 b7bd
00000290: b8c2 0bbe a9b5 213e 5ecc 173e 437b 423e
000002a0: ecd0 313e cb14 1b3e 4a8c 2f3e f015 cdbd
000002b0: 3ef8 f33d df70 5c3e 8287 acbd b6ec 343e
000002c0: 1d85 ab3d d0a1 373e e86d cdbd da43 f0bd
000002d0: 839b 3c3e 1b14 0a3e 9f26 893b 33b9 3c3d
000002e0: 9b8b f43d 89b0 283e fd52 a03c a95a 2c3e
000002f0: a7de 3a3e cfc7 363e f418 eebd e80e 5c3e
00000300: 4e14 ce3d 8d0a c3bd abed 09be 9850 16be
00000310: 71fe 81bd 0c37 203e 5aa6 233e b556 c2bd
00000320: 85c9 193e 1124 e4bd 07fd e23d deef 383e
00000330: 57ff c93c 6a2c 693e c5b8 1f3e c335 163e
00000340: 1ef5 023e eee7 25be 0ff1 05bd 68d6 283e
00000350: 71fa bb3d 0978 353e 866c d03d b009 cbbd
00000360: c3ae fbbd 6cea a3bd 2ccf 093e 8163 ac3c
00000370: 4c24 2a3e a23d 0e3e 1dd1 d43d 1f8a 683e
00000380: 07f1 d13d c85a 083e f1c3 843d 8b41 0f3e
00000390: 80d2 4b3e 0a7f afbd 8b22 00be f7d3 0abe
000003a0: c59d 40bd 38ae fabd 7e62 05be a10d d3bd
000003b0: ff8a 81bc 58db bdbd 1e71 fbbd 40b6 143e
000003c0: 7fd4 363e 9cb8 553e 6516 9ebd f9d3 d6bc
000003d0: 5b7b 393e d86e 283e ba28 07be 7597 e43c
000003e0: dedd eebd d7f6 023e f3ee ca3c 2df1 3a3e
000003f0: 978c fa3d 0287 16be 87ee a0bd 5137 223e

action_model._discrete_distribution.branches.0.bias f4 [2]
-0.08125413 0.08125426
00000000: 9168 a6bd a268 a63d
