MLAgents Jumper Exercise/Assets/results/JumperAgent_1/JumperAgent/JumperAgent-115067.onnx (onnx, 89014 bytes, 9 tensors)

network_body._body_endoder.seq_layers.0.weight f4 [128, 26]
-0.028737873 -0.12848018 -0.23305178 -0.362287 0.0474187 0.38152328 -0.15596974 0.17985456
0.41033724 -0.08530867 0.056123592 -0.16453625 0.12900667 0.12233213 0.341326 0.13304219
-0.22814889 0.1547567 0.15047604 0.3410839 0.13471615 0.24209616 0.053519253 -0.27317306
-0.042943887 -0.06567425 0.13105881 -0.40915003 0.19634879 0.06461064 -0.33742937 0.3569625
0.15459767 -0.0207028 -0.40707874 -0.0194902 0.0538715 -0.165261 -0.026722113 0.060195103
-0.29864052 -0.24522793 -0.15304518 -0.29509276 0.0029439135 0.1762133 -0.11017671 0.065352
-0.17321117 -0.14415272 -0.06893121 0.0005868315 -0.11162599 0.3040752 -0.30780578 -0.032708272
-0.20909825 -0.19790384 -0.05333783 -0.0015001219 0.014160737 0.20244022 -0.05148328 -0.40042034
-0.16338995 -0.074717104 -0.41695642 0.146769 -0.19016528 -0.111755416 0.21442685 0.03314796
0.38825116 -0.12198372 -0.35572538 -0.25245285 0.009411874 0.53489095 0.4201234 -0.15634981
0.14315847 0.079978004 -0.10240896 0.0040633306 0.11343896 -0.4169413 -0.10396231 0.041227307
-0.29725718 0.08753377 0.2572486 -0.0891665 0.00014389787 -0.12993988 0.15298498 0.3145201
0.08893118 0.014010091 0.4443804 -0.10436095 0.4518789 0.24461842 0.09870701 0.0107749
0.09277756 -0.22848478 -0.2801002 -0.29913464 0.3934877 0.11070493 0.21739455 0.33394864
0.24219225 0.4018271 0.025629915 0.08606622 0.017034872 -0.019831102 -0.13902375 -0.14484927
0.30379382 0.070878655 0.05655154 0.07562397 0.0037187047 0.32332003 0.14474107 -0.10349501
-0.23164944 -0.101958215 -0.04241346 0.040868875 0.08220662 -0.1815096 0.3696222 0.22061303
0.23414186 0.17122455 0.051284146 0.17269383 -0.119036295 -0.015847215 0.083684966 0.22415866
-0.16686034 0.2671225 0.303823 -0.048584267 0.10070488 -0.15083347 0.094915956 -0.24772885
0.04526395 0.15504801 -0.02859433 -0.17999066 0.087531984 -0.11013202 0.47592488 -0.26914892
0.09065774 0.1823524 -0.307141 0.08820075 0.12881736 -0.026003795 0.07877572 0.10299134
-0.07348477 -0.07196792 0.22770822 0.3478801 0.2231809 -0.08996827 -0.006454072 -0.032167338
-0.14779828 0.36132544 -0.021408632 -0.11764355 0.05197627 -0.11437676 -0.1464424 -0.012417825
-0.19061704 0.122228175 0.045569837 -0.10942094 0.29676816 -0.2105243 -0.216239 0.040194888
-0.02303775 -0.012207805 -0.029094359 0.66320103 -0.029070726 0.06598951 -0.0357491 -0.1467546
0.27550897 -0.4982238 0.29996204 0.0827252 -0.29961443 -0.17751162 0.07566153 0.12942666
-0.016957771 -0.275284 -0.16101782 -0.029456446 0.06250944 -0.13318463 -0.10870897 -0.16477038
-0.25796992 -0.14044741 -0.17052095 0.14185975 -0.101509854 0.06502054 0.11146864 -0.19084768
0.30255318 0.20902391 0.12358932 0.06804684 -0.08629662 -0.25854883 -0.14385645 -0.09745329
-0.23117106 -0.05509118 -0.093275405 -0.3624604 -0.16215147 -0.28279918 -0.047034886 0.10470331
-0.25436834 -0.18408361 -0.1344286 -0.124183774 -0.10963925 0.07870772 -0.36690983 0.09241962
0.0061081476 0.1706293 -0.24128205 -0.11127456 -0.25243354 -0.06846763 -0.12168229 0.004683152
00000000: b06b ebbc 4f90 03be 20a5 6ebe af7d b9be
00000010: 1c3a 423d 0557 c33e 88b6 1fbe cb2b 383e
00000020: b917 d23e 50b6 aebd dae1 653d 317c 28be
00000030: 531a 043e 4589 fa3d 48c2 ae3e 363c 083e
00000040: dd9f 69be 8a78 1e3e 6416 1a3e 8da2 ae3e
00000050: 08f3 093e 0ee8 773e 0137 5b3d 57dd 8bbe
00000060: eee5 2fbd 3980 86bd 4834 063e 1d7c d1be
00000070: a80f 493e 9552 843d 8bc3 acbe cac3 b63e
00000080: da4e 1e3e eb98 a9bc a06c d0be e9a9 9fbc
00000090: 5da8 5c3d 2e3a 29be 55e8 dabc 248f 763d
000000a0: 69e7 98be 081d 7bbe e0b7 1cbe 6616 97be
000000b0: acee 403b 4271 343e 54a4 e1bd 45d7 853d
000000c0: 455e 31be c59c 13be ce2b 8dbd 98d5 193a
000000d0: 2b9c e4bd bfaf 9b3e b898 9dbe 1cf9 05bd
000000e0: da1d 56be 4ea7 4abe c578 5abd bd9f c4ba
000000f0: 7002 683c 7d4c 4f3e 22e0 52bd e503 cdbe
00000100: b24f 27be 4805 99bd 507b d5be 9d4a 163e
00000110: b0ba 42be 06e0 e4bd b692 5b3e 28c6 073d
00000120: dbc8 c63e 9ad2 f9bd a321 b6be 8041 81be
00000130: 4334 1a3c 9dee 083f 6a1a d73e 2a1a 20be
00000140: 2298 123e 82cb a33d cabb d1bd b025 853b
00000150: af52 e83d 5479 d5be 31ea d4bd f7dd 283d
00000160: 1832 98be e844 b33d 17b6 833e ed9c b6bd
00000170: 4ae3 1639 f60e 05be 18a8 1c3e c708 a13e
00000180: 8d21 b63d 958a 653c d485 e33e 32bb d5bd
00000190: ac5c e73e 407d 7a3e e726 ca3d 3589 303c
000001a0: 2902 be3d eaf7 69be 4b69 8fbe 2d28 99be
000001b0: 3877 c93e 44b9 e23d ad9c 5e3e 51fb aa3e
000001c0: 3f01 783e 48bc cd3e d4f5 d13c 7d43 b03d
000001d0: b78c 8b3c d674 a2bc 3e5c 0ebe 5e53 14be
000001e0: dd8a 9b3e d428 913d 96a2 673d bde0 9a3d
000001f0: 83b5 733b 348a a53e 0137 143e 31f5 d3bd
00000200: 8335 6dbe 78cf d0bd bcb9 2dbd 1f66 273d
00000210: f25b a83d a7dd 39be 1f3f bd3e 62e8 613e
00000220: e2c2 6f3e 7d55 2f3e 530f 523d a7d6 303e
00000230: 4dc9 f3bd 05d2 81bc 0663 ab3d d989 653e
00000240: 70dd 2abe 48c4 883e b08e 9b3e 4c00 47bd
00000250: 5c3e ce3d 1774 1abe 4c63 c23d a2ac 7dbe
00000260: b166 393d e8c4 1e3e a83e eabc 794f 38be
00000270: f843 b33d e68c e1bd 6dac f33e e3cd 89be
00000280: c4aa b93d 96ba 3a3e 9641 9dbe 98a2 b43d
00000290: b3e8 033e e905 d5bc 2a55 a13d 20ed d23d
000002a0: 2f7f 96bd eb63 93bd 582c 693e 571d b23e
000002b0: 8989 643e 4941 b8bd ae7c d3bb e6c1 03bd
000002c0: 6f58 17be a6ff b83e 2861 afbc 1aef f0bd
000002d0: 12e5 543d 5d3e eabd fff4 15be 2274 4bbc
000002e0: 1d31 43be c452 fa3d 70a7 3a3d 1618 e0bd
000002f0: fff1 973e af93 57be c26d 5dbe 65a3 243d
00000300: aab9 bcbc 3f03 48bc 4b57 eebc 8bc7 293f
00000310: bb25 eebc 8225 873d a66d 12bd d646 16be
00000320: 830f 8d3e 3117 ffbe a094 993e d46b a93d
00000330: 1067 99be 9bc5 35be 6ff4 9a3d 6c88 043e
00000340: 06eb 8abc 06f2 8cbe dbe1 24be a54e f1bc
00000350: f304 803d 8d61 08be cfa2 debd 91b9 28be
00000360: a214 84be 72d1 0fbe 0b9d 2ebe af43 113e
00000370: 66e4 cfbd 7d29 853d ac49 e43d 936d 43be
00000380: 40e8 9a3e 5d0a 563e 661c fd3d 245c 8b3d
00000390: 48bc b0bd 8360 84be 1b4f 13be 9795 c7bd
000003a0: 1bb8 6cbe 4aa7 61bd 2d07 bfbd 6994 b9be
000003b0: 090b 26be 0ecb 90be a7a7 40bd b06e d63d
000003c0: 913c 82be 6a80 3cbe a7a7 09be 1054 febd
000003d0: 8b8a e0bd 8331 a13d 9bdb bbbe 7f46 bd3d
000003e0: db26 c83b 72b9 2e3e a412 77be ebe3 e3bd
000003f0: f83e 81be c238 8cbd 9134 f9bd 2075 993b

network_body._body_endoder.seq_layers.0.bias f4 [128]
-0.011633404 0.09129505 -0.0038165352 -0.026301911 -0.022984939 -0.021457275 -0.019948578 -0.109878905
0.13819562 0.05919344 0.03914267 0.06076505 -0.05182819 -0.007887316 -0.095328 0.013950296
-0.012349888 -0.034406617 0.054234996 0.09188937 -0.28463164 -0.013879272 0.09469379 -0.006939732
0.0680116 0.08661596 -0.22966781 -0.034462895 -0.03929052 0.017035369 0.09727108 -0.017165028
-0.024844736 0.110871635 0.09432591 -0.14303124 0.10667558 0.08000664 -0.010406261 -0.08267309
-0.06453667 -0.08257296 -0.027814494 -0.030894525 0.033289235 -0.018743047 -0.13736314 0.040665884
-0.023372013 -0.0018073327 -0.07700603 -0.058071144 -0.0023805029 -0.25498313 0.046612743 -0.037688777
-0.04296822 0.12891224 -0.039913952 -0.049148127 -0.0024395734 -0.1149373 -0.04043852 -0.036146093
0.029395502 0.10584573 -0.02522234 0.06348337 0.06229796 -0.04553589 -0.030399317 -0.05404092
0.11508954 0.059255283 -0.034788612 0.070668265 0.04465448 -0.0994684 0.121952385 0.07142019
0.05339874 0.013508322 -0.015206883 0.07771008 0.007726962 0.12471225 -0.0037505128 -0.038822733
0.029412957 0.05600761 0.2072338 0.09777014 0.064231925 -0.010601758 0.033648904 -0.04001496
-0.022867316 0.0087599 -0.046019744 0.10225485 -0.0015613198 -0.0243031 0.0865161 -0.008168915
0.0005606114 0.04245333 0.046722677 0.12786542 -0.023927711 0.04664804 -0.0306259 -0.014221258
0.06803383 0.08046933 0.04781898 -0.0777555 -0.17426102 0.08472014 -0.04612378 0.017569195
-0.012385838 -0.01233753 0.025466546 0.03665695 0.071866885 -0.032405823 0.13829584 -0.040489003
00000000: 089a 3ebc e6f8 ba3d d61e 7abb 1b77 d7bc
00000010: e94a bcbc 2bc7 afbc 336b a3bc 3108 e1bd
00000020: 2783 0d3e d274 723d 1054 203d c6e4 783d
00000030: cc49 54bd cd39 01bc 543b c3bd c88f 643c
00000040: 2f57 4abc f4ed 0cbd 8425 5e3d 7e30 bc3d
00000050: 3dbb 91be e365 63bc d1ee c13d b166 e3bb
00000060: aa49 8b3d b563 b13d 0a2e 6bbe f728 0dbd
00000070: 19ef 20bd c28d 8b3c 0f36 c73d ac9d 8cbc
00000080: 3087 cbbc ab10 e33d f12d c13d c876 12be
00000090: ba78 da3d 85da a33d 067f 2abc 8250 a9bd
000000a0: cd2b 84bd 031c a9bd 39db e3bc 8416 fdbc
000000b0: 4b5a 083d 058b 99bc eca8 0cbe 4591 263d
000000c0: aa76 bfbc 06e4 ecba 56b5 9dbd 02dc 6dbd
000000d0: 3602 1cbb 268d 82be 01ed 3e3d 8c5f 1abd
000000e0: 72ff 2fbd 9201 043e d07c 23bd 8c4f 49bd
000000f0: 40e1 1fbb 3f64 ebbd dda2 25bd ed0d 14bd
00000100: d6ce f03c a5c5 d83d 159f cebc 9203 823d
00000110: 252c 7f3d d783 3abd fd07 f9bc 035a 5dbd
00000120: 11b4 eb3d abb5 723d 817e 0ebd 86ba 903d
00000130: 9ee7 363d 17b6 cbbd 2cc2 f93d c044 923d
00000140: a3b8 5a3d 0252 5d3c 4a26 79bc 7626 9f3d
00000150: 7532 fd3b 2369 ff3d 2acb 75bb 9604 1fbd
00000160: 71f3 f03c 3c68 653d 1935 543e b63b c83d
00000170: 078c 833d ffb2 2dbc 6fd3 093d bae6 23bd
00000180: 3d54 bbbc af85 0f3c 337f 3cbd fe6a d13d
00000190: 33a5 ccba 4b17 c7bc 5a2f b13d ead6 05bc
000001a0: fff5 123a 8be3 2d3d 4760 3f3d 27ef 023e
000001b0: 0c04 c4bc 0412 3f3d 2be3 fabc 4800 69bc
000001c0: 5255 8b3d 1bcd a43d d6dd 433d 473e 9fbd
000001d0: 7b71 32be c181 ad3d 4aec 3cbd 46ed 8f3c
000001e0: f8ed 4abc 5a23 4abc 389f d03c 9925 163d
000001f0: f22e 933d f8bb 04bd 6d9d 0d3e ccd7 25bd

network_body._body_endoder.seq_layers.2.weight f4 [128, 128]
-0.07884373 0.10730363 -0.032936864 -0.22217828 -0.059023175 -0.21709949 -0.04844507 -0.049241707
-0.025984816 -0.104793884 -0.00082821265 0.079831034 0.002252112 -0.16942756 -0.17916691 -0.07022159
-0.010308848 -0.035281938 0.028770713 0.049412794 0.031264376 -0.11031032 0.07215257 0.1125902
0.13257217 0.06334826 -0.11257124 -0.03348062 -0.0810481 0.07989845 0.16358055 -0.06944375
-0.13282162 -0.044536524 0.020369507 0.13316676 0.119920716 0.06253263 -0.08258223 -0.051048607
-0.048760407 -0.1425392 -0.06333465 0.0010914874 0.15921986 -0.21759935 -0.07104756 0.013704445
-0.11149878 -0.060620658 0.0049901647 0.19718643 0.14645483 -0.0566073 0.11385625 -0.040495794
0.035371155 0.04630323 0.06778024 -0.06793177 0.07333669 -0.09598335 -0.027847746 -0.08066836
0.021566777 0.146972 -0.17739995 0.11091658 0.01285389 -0.07710199 -0.12889142 -0.23063947
-0.14448121 0.083814755 0.14627069 -0.0024502294 0.0296312 -0.039366584 0.12289772 -0.13846062
0.123524904 0.16292523 -0.026930304 0.123905666 0.21517543 0.0671674 -0.06743361 -0.02616862
0.1513302 0.056883797 0.08393517 0.2116139 -0.16737334 -0.06287511 0.0040541072 0.10613009
-0.012625078 0.032772876 -0.02313981 0.014922632 -0.03726839 0.009560217 0.020980326 0.0185931
-0.11416975 0.16058846 -0.1126984 0.16013065 -0.05543335 -0.04625948 -0.018401314 -0.018024458
-0.06695531 0.022733727 -0.13096137 -0.07743219 0.0650697 -0.032956015 0.05023206 0.098794885
-0.051902328 -0.13728078 0.16904622 -0.010827269 -0.011255889 0.1716149 0.002610214 -0.12520754
-0.06460096 0.27818617 0.017963108 -0.04709352 -0.13081904 -0.13014098 -0.20166585 -0.15867019
-0.07669545 0.073218316 0.15357703 0.0711839 0.06521568 0.04211472 -0.21199818 0.06274859
-0.15911083 -0.091491885 0.046661843 -0.015603145 -0.27714267 0.05036402 0.13374236 -0.021879394
0.22689405 0.055636384 -0.10824729 0.07243116 -0.11454326 0.06426658 0.03389206 -0.0622476
-0.096736625 0.16788062 0.087319754 -0.06534512 0.19468074 0.0067646005 -0.23034452 -0.1745088
-0.017677745 -0.13630968 0.0680993 0.02011101 -0.035517838 0.0038345144 -0.12661608 0.0853207
-0.12038116 0.055617347 -0.14925343 -0.020948224 -0.10809664 -0.08105179 0.21928842 -0.0011230194
-0.011465517 0.057679314 0.11090035 -0.056534093 0.047494844 -0.016857795 -0.1790487 -0.105066724
0.18444169 0.1708585 0.09065765 0.07077755 0.022825947 -0.109612465 -0.012461929 -0.11092315
0.033348672 0.13766293 -0.16721144 -0.044146463 -0.08345629 -0.13752437 0.2919488 0.060003206
0.07057803 0.040981926 0.0043902374 -0.05103429 -0.15673727 0.07030448 -0.09201935 0.042966414
-0.05777243 -0.15465239 0.053300623 0.081825726 0.08516614 0.0969396 -0.16800012 -0.16468246
0.09633631 -0.08310677 -0.112196386 -0.053004414 0.0010636915 -0.098014496 0.030034466 -0.051858343
0.15478575 0.13463034 0.10435302 0.076059476 -0.12217335 0.1358812 0.106134154 0.04271404
0.15324391 -0.07646802 0.17525478 -0.023886085 -0.027122824 0.051692046 0.1304251 -0.032468174
0.010986897 -0.04273606 0.22212139 0.073583335 0.048022885 0.020785792 -0.116895564 -0.095691025
00000000: d278 a1bd 01c2 db3d cee8 06bd b482 63be
00000010: 49c2 71bd 544f 5ebe 566e 46bd acb1 49bd
00000020: 1cde d4bc 2d9e d6bd 691c 59ba 747e a33d
00000030: 2b98 133b 6b7e 2dbe 8877 37be 56d0 8fbd
00000040: 71e6 28bc cb83 10bd 8fb0 eb3c 1265 4a3d
00000050: 130f 003d 61ea e1bd bac4 933d b195 e63d
00000060: 00c1 073e bcbc 813d c08b e6bd f922 09bd
00000070: 8cfc a5bd cca1 a33d a981 273e 8638 8ebd
00000080: 6402 08be ee6b 36bd f4dd a63c de5c 083e
00000090: fe98 f53d 1c11 803d df20 a9bd 5818 51bd
000000a0: feb8 47bd ccf5 11be 99b5 81bd 3d10 8f3a
000000b0: 880a 233e 5dd2 5ebe 6281 91bd 9c88 603c
000000c0: 7959 e4bd 5e4d 78bd 8984 a33b 3deb 493e
000000d0: 41f8 153e 0edd 67bd 772d e93d ebde 25bd
000000e0: 58e1 103d 75a8 3d3d 5ed0 8a3d d01f 8bbd
000000f0: 8c31 963d eb92 c4bd f520 e4bc 7435 a5bd
00000100: cfac b03c d47f 163e 55a8 35be 3b28 e33d
00000110: 1f99 523c a6e7 9dbd 1dfc 03be c12c 6cbe
00000120: e2f2 13be 12a7 ab3d fcc7 153e 0794 20bb
00000130: 21bd f23c db3e 21bd cdb1 fb3d 9fc8 0dbe
00000140: a0fa fc3d dfd5 263e f19c dcbc 41c2 fd3d
00000150: f356 5c3e 108f 893d a21a 8abd 935f d6bc
00000160: 4ef6 1a3e fcfe 683d 34e6 ab3d 50b1 583e
00000170: eb63 2bbe aac4 80bd 51d8 843b bc5a d93d
00000180: 6ad9 4ebc da3c 063d b38f bdbc 0e7e 743c
00000190: bda6 18bd 75a2 1c3c efde ab3c 8f50 983c
000001a0: d4d1 e9bd 4d71 243e 6bce e6bd 4af9 233e
000001b0: 150e 63bd 957a 3dbd 5abe 96bc 07a8 93bc
000001c0: de1f 89bd 153c ba3c bd1a 06be c594 9ebd
000001d0: 4343 853d e3fc 06bd 22c0 4d3d f954 ca3d
000001e0: 8997 54bd 5593 0cbe 741a 2d3e dc64 31bc
000001f0: 9f6a 38bc d1bb 2f3e 2010 2b3b 6836 00be
00000200: 824d 84bd 6b6e 8e3e 5e27 933c 23e5 40bd
00000210: 6df5 05be ad43 05be 7e81 4ebe 707a 22be
00000220: 8112 9dbd 7cf3 953d 4c43 1d3e ddc8 913d
00000230: cc8f 853d 7c80 2c3d 0d16 59be 5582 803d
00000240: f3ed 22be 1960 bbbd 7d20 3f3d 55a4 7fbc
00000250: a5e5 8dbe 814a 4e3d c2f3 083e 6a3c b3bc
00000260: ea56 683e fae2 633d c1b0 ddbd ca56 943d
00000270: a895 eabd 329e 833d 67d2 0a3d 57f7 7ebd
00000280: da1d c6bd e6e8 2b3e b3d4 b23d aad3 85bd
00000290: 635a 473e 95a9 dd3b 6fdf 6bbe 6fb2 32be
000002a0: ebd0 90bc c494 0bbe a577 8b3d d8bf a43c
000002b0: 277b 11bd 7a4c 7b3b a5a7 01be 9fbc ae3d
000002c0: 668a f6bd 04cf 633d e4d5 18be 9c9b abbc
000002d0: c561 ddbd 7bfe a5bd 258d 603e 4732 93ba
000002e0: ddd9 3bbc 2541 6c3d b91f e33d 4b90 67bd
000002f0: f489 423d 5c19 8abc 8b58 37be 392d d7bd
00000300: 48de 3c3e 88f5 2e3e b8aa b93d d2f3 903d
00000310: 7bfd ba3c 807c e0bd 1e2d 4cbc ad2b e3bd
00000320: 9e98 083d 83f7 0c3e 7a39 2bbe ecd2 34bd
00000330: 22eb aabd 30d3 0cbe 507a 953e ecc5 753d
00000340: 378b 903d aadc 273d fbdb 8f3b 5509 51bd
00000350: bc7f 20be ccfb 8f3d a474 bcbd 8dfd 2f3d
00000360: c9a2 6cbd 325d 1ebe c151 5a3d 3f94 a73d
00000370: 966b ae3d 4588 c63d 3908 2cbe 85a2 28be
00000380: f94b c53d e233 aabd 38c7 e5bd 281b 59bd
00000390: 906b 8b3a d3bb c8bd d70a f63c 6a69 54bd
000003a0: 2880 1e3e 89dc 093e 09b7 d53d 12c5 9b3d
000003b0: 0536 fabd 7124 0b3e dd5c d93d ebf4 2e3d
000003c0: f9eb 1c3e 449b 9cbd fd75 333e c0ac c3bc
000003d0: af30 debc 0abb 533d 288e 053e 59fd 04bd
000003e0: 6302 343c 020c 2fbd ca73 633e dcb2 963d
000003f0: a5b3 443d f746 aa3c f166 efbd a8f9 c3bd

network_body._body_endoder.seq_layers.2.bias f4 [128]
0.044813387 0.15741672 0.061709862 0.09982016 -0.036278203 -0.0041831187 -0.03534523 0.05889411
0.0016192086 -0.034416646 0.011811235 0.066582225 0.070894316 0.03209421 -0.0060140067 0.122335225
-0.07019108 0.030487124 0.13035403 -0.0059959884 -0.05013328 0.05720816 0.08151696 0.05776012
-0.06466634 0.05079453 0.077661425 0.036647778 0.07905503 0.042807527 -0.026487878 0.021228831
-0.026198518 0.041693185 0.037086185 -0.0013307999 0.025604216 0.022106119 0.07602827 0.11298162
0.06966553 0.10574117 0.06684594 -0.002097781 0.05492559 0.08308329 0.010615208 0.03808356
0.015418137 0.097965956 0.025519546 0.029396102 0.07283751 0.029370045 -0.07342469 -0.03423175
0.03587392 0.038946833 -0.053384863 0.11290016 0.13298692 0.10268149 0.016804988 0.0788669
0.06626311 -0.058197957 0.022928553 -0.04238584 0.018537 0.115588285 0.08869303 -0.050122604
0.04276482 0.018342033 0.013328949 0.04811149 -0.05011657 0.10886755 0.12681964 0.03684825
0.027444545 -0.016060894 -0.0036240919 0.04567353 0.015934348 0.091461584 0.04369693 0.018245729
0.013713629 -0.037064914 0.06372424 -0.03284277 0.05482639 0.094503365 0.054658588 0.11477365
0.03580387 0.0122214565 0.05962033 0.081251465 0.07527245 0.017142588 0.028859103 -0.0018327237
-0.017284593 0.008943833 0.010018781 0.0112205455 0.016906682 -0.0059608766 0.026957685 0.08446968
0.10877364 0.09636087 0.0041891723 -0.07453449 0.12673375 0.060421214 0.014409603 0.02591127
-0.08050362 0.07671704 0.023453666 0.07146873 0.105157346 0.00670516 -0.04429985 0.110364534
00000000: 3e8e 373d d931 213e 7bc3 7c3d 836e cc3d
00000010: 7498 14bd 8b12 89bb 29c6 10bd f33a 713d
00000020: a03b d43a 78f8 0cbd e983 413c 435c 883d
00000030: 0a31 913d 3875 033d 2511 c5bb e48a fa3d
00000040: 57c0 8fbd 22c0 f93c 877b 053e ff79 c4bb
00000050: 8e58 4dbd 1b53 6a3d 5df2 a63d e095 6c3d
00000060: c96f 84bd ed0d 503d f40c 9f3d fb1b 163d
00000070: 9be7 a13d f256 2f3d 1bfd d8bc 16e8 ad3c
00000080: 469e d6bc 79c6 2a3d afe7 173d 3c6e aeba
00000090: efbf d13c e417 b53c b6b4 9b3d e862 e73d
000000a0: cdac 8e3d d48e d83d 86e6 883d ed7a 09bb
000000b0: a8f9 603d 9227 aa3d 69eb 2d3c 82fd 1b3d
000000c0: 5b9c 7c3c 60a2 c83d 5e0e d13c 18d0 f03c
000000d0: d52b 953d 7399 f03c af5f 96bd 9736 0cbd
000000e0: 88f0 123d b786 1f3d 16aa 5abd 3338 e73d
000000f0: b92d 083e ac4a d23d 9daa 893c f884 a13d
00000100: f4b4 873d fb60 6ebd a9d4 bb3c c69c 2dbd
00000110: e8da 973c 8db9 ec3d b1a4 b53d 5c4d 4dbd
00000120: 2a2a 2f3d 0842 963c aa61 5a3c 8e10 453d
00000130: 0847 4dbd f3f5 de3d 02dd 013e 31ee 163d
00000140: 62d3 e03c 2392 83bc 2c82 6dbb 2b14 3b3d
00000150: c088 823c 3650 bb3d 8dfb 323d 1178 953c
00000160: 21af 603c 61d1 17bd db81 823d 2486 06bd
00000170: a391 603d fb8a c13d afe1 5f3d 730e eb3d
00000180: 14a7 123d 813c 483c 7234 743d 2b67 a63d
00000190: 7128 9a3d 9d6e 8c3c ed69 ec3c 0138 f0ba
000001a0: 6b98 8dbc 2889 123c d025 243c 61d6 373c
000001b0: e27f 8a3c 7553 c3bb 5dd6 dc3c 71fe ac3d
000001c0: b7c4 de3d d958 c53d 5345 893b 8aa5 98bd
000001d0: 7ec6 013e 3c7c 773d 4116 6c3c df43 d43c
000001e0: 15df a4bd d31d 9d3d e721 c03c 335e 923d
000001f0: bc5c d73d f5b6 db3b c273 35bd cd06 e23d

action_model._continuous_distribution.log_sigma f4 [1, 2]
0.04947832 -0.04477927
00000000: c7a9 4a3d 786a 37bd

action_model._continuous_distribution.mu.weight f4 [2, 128]
-0.021306308 0.012650146 -0.0047909315 -0.02055102 -0.007233921 0.0073811477 0.05311517 -0.005616492
-0.017558886 -0.0008235738 0.010632966 -0.029744292 -0.008156891 -0.025754714 0.0119756 -0.002611103
0.031058375 -0.017354136 -0.0058911988 0.0136659965 0.00050121127 0.0007082954 -0.020403733 0.018048553
0.030126663 0.012719729 0.014854098 -0.024242984 -0.006408425 -0.0048708413 0.013362739 0.004006669
0.013410176 0.024332015 -0.011197657 0.01701473 0.014514425 -0.030042952 -0.023434572 0.0075493474
-0.010257269 0.014788414 -0.019290019 0.02365292 0.020885522 -0.024643853 0.008172937 0.00449175
-0.033533953 0.00012349295 0.009416312 0.0016416023 0.011023034 -0.036588527 0.020340096 0.028330034
-0.01685471 -0.022096887 0.018445233 -0.0064388844 -0.0013434117 0.018567467 0.0005203819 -0.008272555
7.040758e-05 -0.0011328027 -0.00035129648 -0.0018012982 -0.0038434789 -0.014201955 0.016152922 0.0075626737
-0.022230895 0.013231717 -0.004584624 -0.00865511 0.023177482 0.0020948576 -0.0022639052 0.018708838
-0.021871319 -0.015326876 -0.0038385713 0.009031077 0.022607587 0.01810861 -0.019509599 0.008476496
0.011575212 0.03324845 0.02059779 0.037409987 0.0075671757 -0.011055814 -0.015884701 0.0023901928
2.3937248e-05 -0.0191843 0.017266026 -0.017959803 -0.014171239 0.038769495 0.003120615 -0.0063904673
0.026750375 -0.0060540154 -0.009953983 0.0024326034 0.021848196 0.055297565 -0.0059096655 -0.0089065535
0.007668493 0.019033669 0.008638454 0.037965793 -0.000708409 -0.0048991367 -0.009641202 0.028645743
0.015359263 -0.002332097 0.008218931 0.0063853366 -0.0074423407 0.014169834 -0.0005222242 -0.0017259333
0.059732694 0.017468976 0.040052287 0.02727656 -0.027391696 -0.029615508 0.0557098 0.042441193
0.06297656 -0.020273257 -0.039135378 0.039180372 0.027152775 0.038011495 -0.0308915 -0.0014325879
0.02545973 0.05693956 0.004967494 0.027076548 -0.002617942 0.04593719 0.028560938 0.03457117
-0.0002570968 0.042074267 0.038897194 0.05952088 0.02565537 0.035258573 0.012745464 -0.050082203
-0.019015238 0.037305564 0.032050192 -0.030466631 -0.049211886 0.04147501 0.027361179 0.037415672
0.036587726 0.017898664 0.029828826 -0.02571014 0.012875508 0.042889405 -0.041584194 0.056191653
0.061966565 0.012438608 -0.052368518 -0.058305047 0.048571363 0.047735278 0.056205012 0.05001791
0.03305738 0.042889226 0.035284415 0.013616144 0.017782172 0.026362127 -0.043244995 0.039430525
0.041757632 -0.003191459 -0.048115678 -0.013153065 -0.03492746 0.0029185247 0.018953841 0.0039153807
0.05057732 -0.04894915 0.08727734 0.04617262 0.050716158 0.03195956 0.010179179 0.042187393
0.022640582 -0.034175698 -0.013504562 0.02658013 0.044484317 0.021824602 0.034214698 -0.042632077
-0.032457042 0.0026495322 0.034915317 0.03070407 0.047530588 0.019307924 0.007762563 0.03629472
0.008147522 0.039868563 0.0025594088 0.0033005718 0.038942635 -0.04360592 -0.049355917 -0.043081615
-0.008333727 -0.03988273 -0.03196801 -0.034465108 -0.04435407 -0.013350726 -0.048352677 0.025229866
0.022670865 0.027144197 -0.028719977 0.015150008 0.025140354 0.020473389 -0.045004718 0.0064163352
-0.0011149795 0.02101907 0.007770632 0.018694725 0.020778568 -0.037768796 0.0030529895 0.014740301
00000000: 918a aebc 8f42 4f3c 3ffd 9cbb 9d5a a8bc
00000010: 870a edbb 8edd f13b 4b8f 593d 8d0a b8bb
00000020: a7d7 8fbc 1ae5 57ba e435 2e3c 4daa f3bc
00000030: 7ba4 05bc 8dfb d2bc 4f35 443c 0a1f 2bbb
00000040: 226e fe3c 432a 8ebc f50a c1bb 58e7 5f3c
00000050: b863 033a e6ac 393a bb25 a7bc 8fda 933c
00000060: 31cc f63c 6966 503c 9a5e 733c 3999 c6bc
00000070: c4fd d1bb 949b 9fbb 64ef 5a3c 604a 833b
00000080: 5bb6 5b3c ef53 c73c 6176 37bc 7a62 8b3c
00000090: e9cd 6d3c a31c f6bc dcf9 bfbc 8460 f73b
000000a0: 1b0e 28bc 1b4b 723c 1a06 9ebc c5c3 c13c
000000b0: 1d18 ab3c e8e1 c9bc c8e7 053c 882f 933b
000000c0: e65a 09bd e37d 0139 e046 1a3c 082b d73a
000000d0: f599 343c dadd 15bd 46a0 a63c 6314 e83c
000000e0: e412 8abc 8804 b5bc 751a 973c 47fd d2bb
000000f0: 6b15 b0ba cd1a 983c 3d6a 083a 9c89 07bc
00000100: c8a7 9338 8d7a 94ba 372e b8b9 8a19 ecba
00000110: e0e2 7bbb 51af 68bc 2253 843c 4ed0 f73b
00000120: 911d b6bc d8c9 583c 9d3a 96bb 2ace 0dbc
00000130: b4de bd3c e149 093b 075e 14bb 4743 993c
00000140: 7b2b b3bc 941d 7bbc 8a90 7bbb 15f7 133c
00000150: 8c33 b93c 8258 943c 98d2 9fbc 00e1 0a3c
00000160: f5a5 3d3c 872f 083d b2bc a83c 373b 193d
00000170: 12f6 f73b 7223 35bc a220 82bc c8a4 1c3b
00000180: d9cc c837 6528 9dbc 7b71 8d3c 7020 93bc
00000190: 7c2e 68bc c3cc 1e3d 3b83 4c3b 2067 d1bb
000001a0: 9a23 db3c c360 c6bb 0816 23bc 506c 1f3b
000001b0: fdfa b23c b37f 623d dea5 c1bb cbec 11bc
000001c0: fb47 fb3b 7fec 9b3c 4d88 0d3c 0582 1b3d
000001d0: 86b4 39ba f088 a0bb 22f6 1dbc 7aaa ea3c
000001e0: 6ba5 7b3c 18d6 18bb b2a8 063c 163c d13b
000001f0: e1de f3bb 9728 683c dfe5 08ba b638 e2ba
00000200: 45aa 743d 191b 8f3c de0d 243d 1873 df3c
00000210: 8d64 e0bc 399c f2bc f62f 643d d1d6 2d3d
00000220: dbf9 803d 1a14 a6bc 6b4c 20bd 997b 203d
00000230: 7f6f de3c f1b1 1b3d 2c10 fdbc acc5 bbba
00000240: ec90 d03c 7539 693d 5cc6 a23b a3cf dd3c
00000250: c791 2bbb a328 3c3d a1f8 e93c 809a 0d3d
00000260: f3ca 86b9 1156 2c3d aa52 1f3d 2bcc 733d
00000270: 362b d23c 4b6b 103d 5ad2 503c ff22 4dbd
00000280: d8c5 9bbc b8cd 183d 1047 033d 2895 f9bc
00000290: 6792 49bd b3e1 293d 8d24 e03c 2d41 193d
000002a0: 03dd 153d 38a0 923c 955b f43c 129e d2bc
000002b0: cbf3 523c cdac 2f3d 3054 2abd 3829 663d
000002c0: a7d0 7d3d 4ecb 4b3c 5f80 56bd 46d1 6ebd
000002d0: c4f2 463d 1186 433d 3a37 663d 94df 4c3d
000002e0: 2d67 073d 9dac 2f3d 6486 103d 3f16 5f3c
000002f0: ebab 913c 63f5 d73c aa21 31bd e781 213d
00000300: 0d0a 2b3d cc27 51bb f214 45bd f47f 57bc
00000310: 1910 0fbd b844 3f3b 1645 9b3c 984c 803b
00000320: 2a2a 4f3d e77e 48bd 76be b23d 801f 3d3d
00000330: bfbb 4f3d 07e8 023d 92c6 263c b0cc 2c3d
00000340: be78 b93c d1fb 0bbd 3d42 5dbc 93be d93c
00000350: 3035 363d 82c9 b23c b624 0c3d f99e 2ebd
00000360: adf1 04bd c6a3 2d3b 5d03 0f3d 1a87 fb3c
00000370: 6faf 423d a72b 9e3c 195d fe3b c6a9 143d
00000380: 2f7d 053c 384d 233d c1bb 273b 684e 583b
00000390: 5082 1f3d 1f9c 32bd 6e29 4abd 5976 30bd
000003a0: 2f8a 08bc 135c 23bd e3f0 02bd 492b 0dbd
000003b0: 9dac 35bd 01bd 5abc 750d 46bd ddae ce3c
000003c0: 40b8 b93c 825d de3c 2846 ebbc bd37 783c
000003d0: 25f3 cd3c cfb7 a73c de56 38bd 1f40 d23b
000003e0: 8124 92ba 2f30 ac3c c9a0 fe3b ae25 993c
000003f0: d137 aa3c 74b3 1abd aa14 483b 4e81 713c

action_model._continuous_distribution.mu.bias f4 [2]
0.0066882274 -0.05052488
00000000: eb28 db3b 2df3 4ebd

action_model._discrete_distribution.branches.0.weight f4 [2, 128]
-0.16098557 -0.16856183 -0.11314194 -0.15766414 0.16037592 0.09246256 -0.0012601503 -0.18944545
-0.11368273 0.13105756 0.09200085 -0.145384 -0.109739505 -0.11065107 0.082182445 -0.15696473
0.027630942 -0.07611338 -0.15197323 -0.054214112 0.11705407 -0.15466656 -0.1703946 -0.15166721
0.064988345 -0.1438994 -0.15769997 -0.14556779 -0.09745318 -0.098712996 0.01631034 0.11096158
0.13921757 -0.10340488 -0.07986959 0.07421245 0.128335 -0.13276751 -0.11732012 -0.16655403
-0.16274844 -0.16114356 -0.15958539 0.09996777 -0.10627237 -0.18861796 0.07866966 -0.1635133
-0.07124706 -0.14512967 0.12131061 0.13012917 -0.14562492 -0.112611115 -0.020079978 -0.047922384
-0.11039186 -0.1190042 -0.026976315 -0.13394634 -0.16739342 -0.13811271 0.11517041 -0.18579972
-0.11638596 0.07971141 0.13032974 0.1270503 0.05473501 -0.15753242 -0.15354225 0.08164682
-0.11970694 0.10439374 -0.1155933 -0.1517562 -0.015425007 -0.21524414 -0.16920687 -0.14532343
-0.10702269 0.14170638 0.030735122 -0.11912149 -0.072365716 -0.15415463 -0.09491206 0.095138066
0.11434572 0.087375626 -0.13383389 -0.02599996 -0.15798326 -0.13209493 -0.06870027 -0.19951044
-0.1062316 -0.13444248 -0.086055405 -0.10104746 -0.1938016 0.08235244 0.12820199 0.1354106
0.04020289 0.13014354 0.11679333 0.09835429 0.036897607 0.08216298 0.11209342 -0.1123057
-0.14310314 -0.17224735 0.08463057 0.026426919 -0.17328343 -0.1465403 0.11801179 -0.004862991
0.116233915 -0.14104442 -0.02046406 -0.17158674 -0.089054994 0.13043681 0.102776505 -0.13768005
0.13744543 0.16933647 0.11266804 0.17028037 -0.17390713 -0.07254063 -0.006433187 0.17739622
0.113230914 -0.12744455 -0.09880288 0.14698021 0.12546183 0.09754757 -0.09106619 0.13644855
-0.012207247 0.07846365 0.17019457 0.04635641 -0.11419282 0.1737002 0.17905025 0.1557966
-0.05583963 0.15747626 0.15868737 0.13928273 0.112346 0.10118022 0.0065352027 -0.10113495
-0.1523613 0.08572394 0.090017535 -0.086139016 -0.127731 0.14046636 0.120713785 0.16892403
0.1667567 0.14182301 0.15133595 -0.08519497 0.10970704 0.1960423 -0.08112774 0.15214145
0.076446764 0.1702268 -0.095540114 -0.11073717 0.15941288 0.12777728 0.0045776 0.04477249
0.11022756 0.14168313 0.016989728 0.16072851 0.16884337 0.15665394 -0.112007305 0.19371785
0.08803268 -0.07917352 -0.12722698 -0.12501405 -0.057860058 0.1489626 0.13835254 -0.08926583
0.13567197 -0.106848724 0.11097818 0.15653774 0.026180716 0.20698048 0.14750668 0.13018174
0.10847988 -0.14640152 -0.027546218 0.14366648 0.084657505 0.15609404 0.08936574 -0.095707186
-0.11488934 -0.078329906 0.12656279 0.021257086 0.14222056 0.13003725 0.08281649 0.20908865
0.08923555 0.116767816 0.048037525 0.11715772 0.17731388 -0.085381255 -0.117922366 -0.12763026
-0.0472143 -0.11655256 -0.1202519 -0.09574521 -0.018560207 -0.078500204 -0.11990178 0.1264736
0.15273544 0.18434964 -0.079377905 -0.024187993 0.16745651 0.15357266 -0.12227971 0.024078863
-0.104002334 0.11877859 0.022378309 0.16123119 0.09678621 -0.13744754 -0.072061576 0.14374188
00000000: 67d9 24be 799b 2cbe f6b6 e7bd b572 21be
00000010: 9639 243e 035d bd3d a12b a5ba fdfd 41be
00000020: 7ed2 e8bd f433 063e f16a bc3d 8bdf 14be
00000030: 1bbf e0bd 079d e2bd 454f a83d 5dbb 20be
00000040: 495a e23c 55e1 9bbd df9e 1bbe 9e0f 5ebd
00000050: 0bba ef3d e960 1ebe ec7b 2ebe a64e 1bbe
00000060: 9c18 853d 5d5a 13be 1a7c 21be b90f 15be
00000070: 8895 c7bd 0a2a cabd 439d 853c d33f e33d
00000080: 0d8f 0e3e f0c5 d3bd ab92 a3bd b2fc 973d
00000090: 406a 033e 35f4 07be 8845 f0bd 248d 2abe
000000a0: 87a7 26be d102 25be 5a6a 23be e7bb cc3d
000000b0: 54a5 d9bd 1125 41be 8f1d a13d 0870 27be
000000c0: fbe9 91bd df9c 14be b271 f83d 9540 053e
000000d0: b31e 15be a8a0 e6bd c47e a4bc 434a 44bd
000000e0: 2115 e2bd 79b8 f3bd 6ffd dcbc 3b29 09be
000000f0: 2e69 2bbe 6b6d 0dbe 77de eb3d 4842 3ebe
00000100: c35b eebd bc3f a33d 2975 053e 7919 023e
00000110: d131 603d 2e50 21be 2e3a 1dbe 7336 a73d
00000120: ea28 f5bd 63cc d53d 2ebc ecbd fa65 1bbe
00000130: 2bb9 7cbc f668 5cbe 9144 2dbe aacf 14be
00000140: b62e dbbd 7a1b 113e 39c8 fb3c f8f5 f3bd
00000150: 7a34 94bd b6da 1dbe 4161 c2bd bfd7 c23d
00000160: 172e ea3d fef1 b23d c00b 09be defd d4bc
00000170: 5dc6 21be e543 07be bab2 8cbd 774c 4cbe
00000180: f48f d9bd 4aab 09be d13d b0bd f9f1 cebd
00000190: ed73 46be 65a8 a83d 6247 033e 14a9 0a3e
000001a0: c9ab 243d 5944 053e 5731 ef3d f96d c93d
000001b0: f221 173d 1145 a83d 3c91 e53d 8800 e6bd
000001c0: a189 12be 9c61 30be cb52 ad3d 447d d83c
000001d0: 3671 31be a90e 16be 2ab0 f13d ba59 9fbb
000001e0: 0c0c ee3d f36d 10be 3fa4 a7bc 6fb4 2fbe
000001f0: 7762 b6bd 3a91 053e 7d7c d23d 00fc 0cbe
00000200: 7fbe 0c3e 8a66 2d3e 80be e63d fa5d 2e3e
00000210: b614 32be 2f90 94bd 7ccd d2bb 5ba7 353e
00000220: 9ce5 e73d d380 02be 2a59 cabd fb81 163e
00000230: 1179 003e 05c7 c73d e980 babd 2bb9 0b3e
00000240: e800 48bc 8db1 a03d 7c47 2e3e 38e0 3d3d
00000250: eddd e9bd 77de 313e f358 373e 2589 1f3e
00000260: 19b8 64bd 7541 213e f17e 223e 22a0 0e3e
00000270: a915 e63d 9337 cf3d 4125 d63b d71f cfbd
00000280: 9a04 1cbe 0890 af3d 1d5b b83d a769 b0bd
00000290: eacb 02be 6ad6 0f3e ca38 f73d 6cfa 2c3e
000002a0: 45c2 2a3e 0d3a 113e d0f7 1a3e b37a aebd
000002b0: 16ae e03d 50bf 483e 4d26 a6bd f8ca 1b3e
000002c0: 1f90 9c3d ef4f 2e3e 89aa c3bd 2bca e2bd
000002d0: 213d 233e 0cd8 023e b1ff 953b 5c63 373d
000002e0: fdbe e13d 6215 113e 0b2e 8b3c 0496 243e
000002f0: 47e5 2c3e e469 203e 1664 e5bd f95d 463e
00000300: 7a4a b43d ba25 a2bd ca47 02be af03 00be
00000310: abfe 6cbd a789 183e 4aac 0d3e 01d1 b6bd
00000320: 98ed 0a3e 81d3 dabd 8748 e33d 6e4b 203e
00000330: f178 d63c b1f2 533e fe0b 173e 5d4e 053e
00000340: b32a de3d 48ea 15be 9ba8 e1bc 4e1d 133e
00000350: ea60 ad3d 1ed7 1f3e 6305 b73d 2102 c4bd
00000360: 1a4b ebbd 6e6b a0bd ad99 013e 5723 ae3c
00000370: 44a2 113e 7c28 053e b19b a93d 561b 563e
00000380: 21c1 b63d f723 ef3d ffc2 443d 63f0 ef3d
00000390: c591 353e 5edc aebd 4881 f1bd 82b1 02be
000003a0: c863 41bd 1cb3 eebd a146 f6bd 1116 c4bd
000003b0: 930b 98bc b7c4 a0bd 108f f5bd 4c82 013e
000003c0: ae66 1c3e 27c6 3c3e e290 a2bd e625 c6bc
000003d0: b879 2b3e 2742 1d3e c96d fabd 0941 c53c
000003e0: 2dff d4bd 3042 f33d b752 b73c ca19 253e
000003f0: d937 c63d 0cbf 0cbe 0595 93bd 1231 133e

action_model._discrete_distribution.branches.0.bias f4 [2]
-0.07456341 0.074563526
00000000: b3b4 98bd c3b4 983d
