MLAgents Jumper Exercise/Assets/results/JumperAgent_1/JumperAgent/JumperAgent-164963.onnx (onnx, 89014 bytes, 9 tensors)

network_body._body_endoder.seq_layers.0.weight f4 [128, 26]
0	0xbce4f4c4	-0.027948745
1	0xbe030933	-0.12796478
2	0xbe6dd63c	-0.23226255
3	0xbeb93afb	-0.3617781
4	0x3d457534	0.048207477
5	0x3ec399b3	0.382032
6	0xbe1ee7bf	-0.15518092
7	0x3e38ad57	0.18034874
8	0x3ed27eb5	0.41112295
9	0xbdadb403	-0.084816
10	0x3d691ca5	0.056912083
11	0xbe2802d3	-0.16407327
12	0x3e04e929	0.12979569
13	0x3dfb7b8b	0.12279423
14	0x3eaf46d6	0.3423373
15	0x3e08cd46	0.13359556
16	0xbe689703	-0.22713856
17	0x3e1f0998	0.15531003
18	0x3e1b2689	0.15151419
19	0x3eaef305	0.34169784
20	0x3e0b02f7	0.1357535
21	0x3e78883f	0.24270724
22	0x3d64acac	0.055828735
23	0xbe8ba989	-0.27277783
24	0xbd267041	-0.040634397
25	0xbd85b0d9	-0.06527872
26	0x3e076fd4	0.13226253
27	0xbed0207b	-0.4064978
28	0x3e4a4b3a	0.19755259
29	0x3d89c292	0.067265645
30	0xbeac261b	-0.33622822
31	0x3eb81fed	0.35961857
32	0x3e1f89f8	0.15579975
33	0xbc93cc04	-0.018041618
34	0xbecfcf2c	-0.40587747
35	0xbc89dd02	-0.016829018
36	0x3d619557	0.055074062
37	0xbe267f7f	-0.16259573
38	0xbcd10d8c	-0.025519155
39	0x3d80bcb4	0.06285992
40	0xbe9856e0	-0.2975378
41	0xbe786c36	-0.24260029
42	0xbe1b9752	-0.15194443
43	0xbe95be14	-0.2924658
44	0x3b1d5952	0.0024009538
45	0x3e35987f	0.17733954
46	0xbde2bfe3	-0.11071756
47	0x3d88266b	0.06647953
48	0xbe32f32d	-0.17475577
49	0xbe124e43	-0.14287667
50	0xbd9055ff	-0.070476525
51	0x3af41568	0.0018622102
52	0xbde7d4ea	-0.11319907
53	0x3e9bf020	0.30456638
54	0xbe9e6722	-0.3093806
55	0xbd03f6f6	-0.032217942
56	0xbe57b93c	-0.21066755
57	0xbe4a268a	-0.19741264
58	0xbd60e29f	-0.054903623
59	0xba83736f	-0.0010028909
60	0x3c4e5d6b	0.012595515
61	0x3e4fcec2	0.20293716
62	0xbd5947f7	-0.053047147
63	0xbeccc189	-0.39991406
64	0xbe28ea42	-0.16495612
65	0xbd97fbdb	-0.074210845
66	0xbed5f798	-0.41790462
67	0x3e167e8f	0.14696716
68	0xbe43b2fd	-0.19111247
69	0xbde4782f	-0.11155736
70	0x3e5add34	0.21373445
71	0x3d0738f9	0.033013318
72	0x3ec66e8a	0.3875621
73	0xbdfa17db	-0.12211581
74	0xbeb6ff1b	-0.35741505
75	0xbe81255e	-0.2522382
76	0x3bfd13cd	0.0077233077
77	0x3f08fcf6	0.5351099
78	0x3ed7b082	0.42126852
79	0xbe1eb5d6	-0.15499052
80	0x3e13c461	0.14430381
81	0x3da696bb	0.08134218
82	0xbdcf6330	-0.101263404
83	0x3bb1d706	0.005427244
84	0x3deaab3a	0.1145844
85	0xbed4c4eb	-0.41556486
86	0xbdd291a8	-0.10281688
87	0x3d2e81e7	0.042604353
88	0xbe979c05	-0.2961122
89	0x3db6240f	0.088935964
90	0x3e844c28	0.25839353
91	0xbdb3bdbf	-0.087764256
92	0x3abf677d	0.0014602985
93	0xbe037d5f	-0.12840794
94	0x3e1e0141	0.15430166
95	0x3ea1d14c	0.31604993
96	0x3db8c6f0	0.09022319
97	0x3c7f41b4	0.01557963
98	0x3ee42efc	0.44567096
99	0xbdd28454	-0.10279146
100	0x3ee855d7	0.4537799
101	0x3e7b9ef8	0.2457236
102	0x3dce0c02	0.10060884
103	0x3c42a3b8	0.011879854
104	0x3dbf695f	0.0934627
105	0xbe69fefa	-0.22851172
106	0xbe8f0f48	-0.27941346
107	0xbe992d3b	-0.2991732
108	0x3ec9d131	0.39417413
109	0x3de2a4d8	0.11066598
110	0x3e5f5034	0.21807939
111	0x3eaaf177	0.33387348
112	0x3e78b4c3	0.24287705
113	0x3ecdb274	0.4017521
114	0x3cd7914c	0.0263144
115	0x3daff9f0	0.08592594
116	0x3c9128d3	0.017719662
117	0xbca399cf	-0.019970803
118	0xbe0d83b2	-0.13819769
119	0xbe1472b1	-0.14496876
120	0x3e9bf709	0.3046191
121	0x3d90e9d5	0.0707585
122	0x3d6a06a7	0.05713525
123	0x3d9a7ed1	0.075437196
124	0x3b8cf9c2	0.0043022344
125	0x3ea57192	0.3231321
126	0x3e1633a0	0.14668131
127	0xbdd490a2	-0.10379149
128	0xbe6b38c7	-0.22970878
129	0xbdd16aca	-0.102254465
130	0xbd2b5177	-0.041825738
131	0x3d287c9c	0.04113446
132	0x3da99038	0.08279461
133	0xbe39996d	-0.18124934
134	0x3ebd8c3a	0.37021047
135	0x3e622c88	0.220873
136	0x3e705d1f	0.23473023
137	0x3e2f94e2	0.17146638
138	0x3d547751	0.0518716
139	0x3e31160e	0.1729357
140	0xbdf29549	-0.1184488
141	0xbc801df2	-0.015639279
142	0x3dac9714	0.08427253
143	0x3e65c058	0.22436655
144	0xbe2a2140	-0.16614246
145	0x3e88e377	0.26736042
146	0x3e9becac	0.30454004
147	0xbd46091d	-0.048348535
148	0x3dcf9319	0.101354785
149	0xbe1a41f1	-0.15064217
150	0x3dc3b7c9	0.095565386
151	0xbe7d7a94	-0.24753791
152	0x3d3fca0b	0.046823543
153	0x3e1e8153	0.15479021
154	0xbcdd7839	-0.027034866
155	0xbe389306	-0.18024835
156	0x3db4e91d	0.08833525
157	0xbde0232e	-0.1094421
158	0x3ef41575	0.4767262
159	0xbe8973a9	-0.26846054
160	0x3dbb4fca	0.09146078
161	0x3e3b6ebb	0.18303959
162	0xbe9cd894	-0.30633986
163	0x3db60702	0.088880554
164	0x3e04bb1c	0.12962002
165	0xbccf74d0	-0.025324255
166	0x3da2fa2a	0.07957871
167	0x3dd44963	0.1036556
168	0xbd94da32	-0.0726818
169	0xbd9207a9	-0.07130367
170	0x3e6a1e62	0.22863153
171	0x3eb27a69	0.34859017
172	0x3e657ba3	0.22410445
173	0xbdb6ccda	-0.08925791
174	0xbbb63e7f	-0.0055616493
175	0xbd01115c	-0.031510696
176	0xbe166e82	-0.14690593
177	0x3eb9557c	0.36198032
178	0xbc9f590d	-0.019451642
179	0xbdf01511	-0.11722768
180	0x3d5ce8f0	0.053933084
181	0xbde96455	-0.1139609
182	0xbe173734	-0.14767152
183	0xbc7b4852	-0.015337067
184	0xbe447350	-0.19184613
185	0x3df449ca	0.11928137
186	0x3d359f4d	0.044341374
187	0xbde62106	-0.112367675
188	0x3e9750c8	0.2955382
189	0xbe5aae1a	-0.21355477
190	0xbe5eaff9	-0.21746816
191	0x3d1839a6	0.037164353
192	0xbcc6c9a9	-0.02426608
193	0xbc7c26bb	-0.015390093
194	0xbcf867e0	-0.030322969
195	0x3f28f6bf	0.66001505
196	0xbcf9b99e	-0.030484017
197	0x3d7ff0e9	0.06248561
198	0xbd1837c2	-0.03716255
199	0xbe19dda5	-0.15025957
200	0x3e8c0645	0.27348533
201	0xbf009bbd	-0.5023764
202	0x3e988b20	0.29793644
203	0x3da0eb08	0.07857329
204	0xbe999b13	-0.30001125
205	0xbe3910d5	-0.18072827
206	0x3d9a23a8	0.07526332
207	0x3e013d36	0.12621006
208	0xbc80d65e	-0.015727218
209	0xbe8a6ade	-0.27034658
210	0xbe239fbe	-0.15978906
211	0xbcc8de7f	-0.024520157
212	0x3d828356	0.063727066
213	0xbe035395	-0.12824853
214	0xbddc22eb	-0.107488476
215	0xbe23ac11	-0.15983607
216	0xbe83751e	-0.2567529
217	0xbe0ac3f3	-0.13551311
218	0xbe2d5dc2	-0.16930297
219	0x3e164fd3	0.14678888
220	0xbdcd75b0	-0.10032213
221	0x3d8f4170	0.06994903
222	0x3de380a7	0.11108523
223	0xbe3fee51	-0.18743254
224	0x3e9ab614	0.3021704
225	0x3e598989	0.21243872
226	0x3dfc38bd	0.123155095
227	0x3d923703	0.07139399
228	0xbdb1a0b5	-0.086732306
229	0xbe82a9d2	-0.25520188
230	0xbe1439e0	-0.14475203
231	0xbdc17531	-0.094461806
232	0xbe6da2f5	-0.23206694
233	0xbd5566c5	-0.05209996
234	0xbdbcc201	-0.09216691
235	0xbeb9d3bd	-0.36294356
236	0xbe24e842	-0.16104224
237	0xbe910c3e	-0.28329653
238	0xbd3c1ce5	-0.045925993
239	0x3dd56a10	0.104206204
240	0xbe81ab71	-0.25326112
241	0xbe3d0f16	-0.18462786
242	0xbe088516	-0.13332018
243	0xbdff713a	-0.12472768
244	0xbdde4613	-0.10853209
245	0x3d9fed2a	0.07808907
246	0xbebb4a85	-0.3658029
247	0x3dbc022a	0.091801
248	0x3bc8ab51	0.006123938
249	0x3e2de226	0.169808
250	0xbe770e5b	-0.2412657
251	0xbde592bd	-0.11209629
252	0xbe814c5b	-0.25253567
253	0xbd8dd09b	-0.06924554
254	0xbdf967fb	-0.12178036
255	0x3b80066d	0.003907016

network_body._body_endoder.seq_layers.0.bias f4 [128]
0	0xbc8a5755	-0.016887346
1	0x3dcca6bd	0.0999274
2	0x3b0236f2	0.0019869176
3	0xbce37e22	-0.027770106
4	0xbcf29e39	-0.029616462
5	0xbcde2a1f	-0.027119694
6	0xbcc697ca	-0.0242423
7	0xbdf61842	-0.120163456
8	0x3e192495	0.14955361
9	0x3d80fe76	0.062985346
10	0x3d31cc0c	0.043407485
11	0x3d8ad0a7	0.067780785
12	0xbd6e767f	-0.058218475
13	0xbc3e5008	-0.011615761
14	0xbdcefd04	-0.10106853
15	0x3c3fe413	0.011712092
16	0xbc90d9d3	-0.017681992
17	0xbd1e501c	-0.038650617
18	0x3d74b3ff	0.05974197
19	0x3dca2db6	0.09872
20	0xbe9992e9	-0.29994896
21	0xbc996be7	-0.01872821
22	0x3dd12755	0.1021258
23	0xbc0d291e	-0.00861576
24	0x3d990400	0.07471466
25	0x3dbdef4f	0.0927416
26	0xbe779ca4	-0.24180847
27	0xbd1b8c5d	-0.037975658
28	0xbd45379d	-0.04814874
29	0x3cbd4f73	0.023109173
30	0x3dd50f54	0.10403314
31	0xbca51056	-0.020149391
32	0xbcd840d4	-0.0263981
33	0x3df0a957	0.11751049
34	0x3dce03c9	0.10059316
35	0xbe1d691b	-0.15372126
36	0x3de806e3	0.113294385
37	0x3dad2f97	0.08456343
38	0xbc5a2a77	-0.0133157885
39	0xbdb42f61	-0.08798099
40	0xbd91ddff	-0.071224205
41	0xbdb6b12a	-0.0892051
42	0xbd06902e	-0.032852344
43	0xbd0f662a	-0.03500954
44	0x3d19fb86	0.037593387
45	0xbcba3a6f	-0.022732941
46	0xbe1918a1	-0.14950801
47	0x3d46f61f	0.048574563
48	0xbce13187	-0.027489437
49	0xbb756470	-0.0037443899
50	0xbdac924c	-0.084263414
51	0xbd88e4e6	-0.06684284
52	0x3b542957	0.0032373273
53	0xbe8af03f	-0.27136418
54	0x3d58003a	0.05273459
55	0xbd2cd0bd	-0.042191256
56	0xbd50a072	-0.050934263
57	0x3e0b2eca	0.13592067
58	0xbd406a39	-0.0469763
59	0xbd54e5c3	-0.05197693
60	0x3a959361	0.001141172
61	0xbdf6c85a	-0.12049933
62	0xbd337c0d	-0.043819476
63	0xbd1d72ff	-0.038439747
64	0x3ce36404	0.027757652
65	0x3dea5983	0.11442854
66	0xbcfd158e	-0.030894067
67	0x3d8ff49a	0.07029076
68	0x3d88f99d	0.06688235
69	0xbd537064	-0.051620856
70	0xbce59629	-0.028025704
71	0xbd75d252	-0.06001503
72	0x3dfd7b15	0.12376992
73	0x3d836be8	0.06417066
74	0xbcfca1aa	-0.030838806
75	0x3da4d50d	0.08048449
76	0x3d3808a2	0.044930108
77	0xbdde91e6	-0.10867672
78	0x3e031994	0.12802726
79	0x3d9f06d4	0.07764974
80	0x3d74bdf3	0.059751462
81	0x3c8b480e	0.017002132
82	0xbc9a7bbb	-0.018857827
83	0x3db3620d	0.08758936
84	0x3c645844	0.01393706
85	0x3e07a50b	0.13246553
86	0xbbc613db	-0.0060448474
87	0xbd2f051d	-0.042729486
88	0x3d0e9a2b	0.034814995
89	0x3d811821	0.0630343
90	0x3e5bab45	0.21452053
91	0x3dd948ac	0.10609564
92	0x3d7111f5	0.058855016
93	0xbc4a47d0	-0.012346223
94	0x3d2239f2	0.039606042
95	0xbd14c316	-0.03631886
96	0xbce00073	-0.027343964
97	0x3be04b02	0.006844879
98	0xbd5a3b2f	-0.053279098
99	0x3de2916f	0.110628955
100	0xbba061da	-0.0048944773
101	0xbcf192ec	-0.029489003
102	0x3dc6ddce	0.09710275
103	0xbc1626d8	-0.0091645345
104	0x3bc55c30	0.0060229525
105	0x3d41f299	0.0473505
106	0x3d6a5c6b	0.057217043
107	0x3e0a96a8	0.13534033
108	0xbceb19d1	-0.028698834
109	0x3d53854b	0.05164079
110	0xbd0dd471	-0.034626428
111	0xbca44166	-0.020050716
112	0x3d94d26d	0.07266698
113	0x3db54aef	0.08852183
114	0x3d5b056e	0.053471975
115	0xbda6bd54	-0.0814158
116	0xbe427c17	-0.18992649
117	0x3dc85df7	0.09783547
118	0xbd4527f3	-0.0481338
119	0x3cae453f	0.021273253
120	0xbc6378e9	-0.013883808
121	0xbb83f512	-0.0040270174
122	0x3d0b3e22	0.0339948
123	0x3d37a37a	0.044833638
124	0x3da1945e	0.07889627
125	0xbd0de6fe	-0.03464412
126	0x3e1b3d05	0.15159996
127	0xbcfe7206	-0.03106023

network_body._body_endoder.seq_layers.2.weight f4 [128, 128]
0	0xbd9fa54d	-0.077952005
1	0x3dde128b	0.108433805
2	0xbcfeb457	-0.031091852
3	0xbe631df3	-0.22179393
4	0xbd6e2413	-0.05813987
5	0xbe5da4c7	-0.21644889
6	0xbd44aa65	-0.048014063
7	0xbd56baa6	-0.052424096
8	0xbcc72608	-0.024310127
9	0xbdd86121	-0.10565401
10	0xb94d9880	-0.00019607134
11	0x3d9e9e93	0.077450894
12	0x3891384d	6.9246256e-05
13	0xbe2b4e40	-0.16729069
14	0xbe41b322	-0.1891599
15	0xbd8d0b4a	-0.06886919
16	0xbc02189e	-0.0079404395
17	0xbd0e1d4d	-0.034695912
18	0x3cffe7d2	0.03123847
19	0x3d555f61	0.052092914
20	0x3cc4ba74	0.024014689
21	0xbde158e3	-0.11003282
22	0x3da15197	0.0787689
23	0x3de76d15	0.113001026
24	0x3e0d8895	0.13821633
25	0x3d830a05	0.063983954
26	0xbdf81563	-0.12113454
27	0xbd05bbbb	-0.032649737
28	0xbdb18d70	-0.08669555
29	0x3da7ffa4	0.082030565
30	0x3e25f417	0.16206394
31	0xbd8eaa0c	-0.069660276
32	0xbe083547	-0.13301574
33	0xbd2086b5	-0.039190967
34	0x3cb08e22	0.02155215
35	0x3e02b330	0.12763667
36	0x3dfc5ca2	0.12322356
37	0x3d83675d	0.06416199
38	0xbda82a36	-0.08211176
39	0xbd500472	-0.05078549
40	0xbd59af6b	-0.053145807
41	0xbe14faf3	-0.14548855
42	0xbd7ee849	-0.062233243
43	0x3ac3ec4e	0.0014947744
44	0x3e2081eb	0.1567456
45	0xbe60cd85	-0.219534
46	0xbd9d0291	-0.07666505
47	0x3c9c46fb	0.019076815
48	0xbde1e6b0	-0.11030328
49	0xbd772943	-0.060342085
50	0x3ab20d70	0.0013584327
51	0x3e483744	0.19552332
52	0x3e12755c	0.14302582
53	0xbd82e599	-0.063914485
54	0x3dea2a3a	0.11433835
55	0xbd231285	-0.039812583
56	0x3cf45db5	0.02982984
57	0x3d4f7585	0.050649185
58	0x3d8d3bd1	0.06896175
59	0xbd891058	-0.066925704
60	0x3d91c76d	0.071181156
61	0xbdcc2263	-0.09967496
62	0xbce32148	-0.02772583
63	0xbda44d56	-0.08022563
64	0x3cb29e45	0.021803984
65	0x3e188f29	0.14898361
66	0xbe363164	-0.17792279
67	0x3de2c6c6	0.11073069
68	0x3c72888c	0.014803063
69	0xbd9e9394	-0.07742992
70	0xbe076600	-0.13222504
71	0xbe6e3335	-0.23261721
72	0xbe12cb60	-0.14335394
73	0x3daab762	0.08335759
74	0x3e12e3ff	0.14344786
75	0x3b280eec	0.002564366
76	0x3d099d6d	0.0335974
77	0xbd328b8e	-0.04359012
78	0x3e01743e	0.12641999
79	0xbe08dbec	-0.13365144
80	0x3e01e3ae	0.12684509
81	0x3e262610	0.16225457
82	0xbcd6158c	-0.026133321
83	0x3e005172	0.12531069
84	0x3e59efa0	0.21282816
85	0x3d991923	0.074754976
86	0xbd8909ef	-0.06691348
87	0xbcf6b583	-0.030115848
88	0x3e1936ad	0.14962263
89	0x3d754a39	0.059885237
90	0x3db9ecfa	0.09078403
91	0x3e5b408c	0.21411341
92	0xbe2aaa3a	-0.16666499
93	0xbd7fd9eb	-0.062463682
94	0x3bc134cb	0.005896186
95	0x3dd42134	0.103578955
96	0xbc3a56ba	-0.011373216
97	0x3d08daf8	0.03341195
98	0xbcb863c6	-0.022508513
99	0x3c9ba6b2	0.019000385
100	0xbd1211c0	-0.03566146
101	0x3c09fdb1	0.008422301
102	0x3cb390eb	0.021919688
103	0x3ca01c72	0.019544814
104	0xbdeb732f	-0.11496579
105	0x3e243f78	0.16039836
106	0xbde8a53d	-0.11359642
107	0x3e2763a0	0.16346598
108	0xbd5f7e73	-0.05456395
109	0xbd37edb9	-0.044904444
110	0xbc8d584e	-0.017254021
111	0xbc9b2824	-0.018940039
112	0xbd881919	-0.06645412
113	0x3cdc765d	0.026911909
114	0xbe03f24c	-0.12885398
115	0xbda40f69	-0.08010752
116	0x3d72b7ab	0.05925719
117	0xbd00ec72	-0.03147549
118	0x3d41f3d2	0.047351666
119	0x3dca69bf	0.09883451
120	0xbd5d6004	-0.054046646
121	0xbe0dc339	-0.13844003
122	0x3e35a75c	0.17739624
123	0xbc19b22e	-0.00938086
124	0xbc3f893f	-0.011690437
125	0x3e30c19a	0.17261353
126	0x3bd61119	0.0065328
127	0xbe0168a9	-0.12637581
128	0xbd85af98	-0.065276325
129	0x3e8f67ee	0.2800898
130	0x3ca9090e	0.0206342
131	0xbd435c74	-0.047695592
132	0xbe05a3c9	-0.1305076
133	0xbe04eee0	-0.12981749
134	0xbe4f66ed	-0.20254107
135	0xbe24e0ba	-0.16101351
136	0xbd983b88	-0.0743323
137	0x3d94f644	0.07273534
138	0x3e1e86a4	0.15481049
139	0x3d8f261f	0.06989693
140	0x3d80ed80	0.062952995
141	0x3d393d50	0.045224488
142	0xbe68912d	-0.2271163
143	0x3d83163f	0.064007275
144	0xbe1e2b59	-0.15446223
145	0xbdbd35d6	-0.09238784
146	0x3d4f12b7	0.050554957
147	0xbbb30315	-0.005463014
148	0xbe9109e7	-0.28327867
149	0x3d4e77c1	0.050407175
150	0x3e0f8900	0.14017105
151	0xbcbbceee	-0.02292582
152	0x3e6fe3b7	0.2342671
153	0x3d75991a	0.059960462
154	0xbded08ed	-0.11573968
155	0x3d95573b	0.072920285
156	0xbdf71f13	-0.12066474
157	0x3d8f7fa8	0.0700677
158	0x3d0a5605	0.03377344
159	0xbd82d686	-0.06388573
160	0xbdc8930c	-0.09793672
161	0x3e33138a	0.17487922
162	0x3db7cfb5	0.08975164
163	0xbd8ef795	-0.06980816
164	0x3e4afe98	0.19823682
165	0x3c077a53	0.00826891
166	0xbe6cd89a	-0.23129502
167	0xbe345abc	-0.17612737
168	0xbd02d95a	-0.031945564
169	0xbe150a8c	-0.14554805
170	0x3d8b8016	0.0681154
171	0x3ca0b697	0.019618316
172	0xbd1739cb	-0.03692035
173	0x3aed8495	0.0018121178
174	0xbe0642a7	-0.13111363
175	0x3dc516bc	0.09623477
176	0xbdf30203	-0.11865618
177	0x3d5f6e64	0.054548636
178	0xbe1e6ef0	-0.15472007
179	0xbcd0c1a3	-0.025482958
180	0xbde29ce4	-0.11065081
181	0xbdb2a735	-0.087232985
182	0x3e64b1c5	0.22333439
183	0xb96aadfe	-0.00022380796
184	0xbc95c9ff	-0.018284796
185	0x3d8931ce	0.066989526
186	0x3de5fbfa	0.11229701
187	0xbd66c789	-0.056342635
188	0x3d30092b	0.042977493
189	0xbca003cf	-0.019533066
190	0xbe384f96	-0.1799911
191	0xbdd80033	-0.10546913
192	0x3e3cd6b9	0.18441285
193	0x3e328800	0.17434692
194	0x3db81ac5	0.08989481
195	0x3d915e65	0.070980825
196	0x3ccbfe3a	0.024901498
197	0xbde73a64	-0.11290434
198	0xbc72a2a0	-0.014809281
199	0xbdf09faa	-0.117492035
200	0x3d12a563	0.035802256
201	0x3e0ce900	0.13760757
202	0xbe2d3905	-0.16916282
203	0xbd20fb47	-0.039302137
204	0xbda4c504	-0.0804539
205	0xbe10191f	-0.14072083
206	0x3e979c8c	0.29611623
207	0x3d8b34b9	0.067971654
208	0x3d9f6b60	0.07784152
209	0x3d269ae2	0.04067505
210	0x3bc134fb	0.0058962083
211	0xbd49b325	-0.04924311
212	0xbe21e41c	-0.15809673
213	0x3db08827	0.08619719
214	0xbdbdcbb9	-0.09267373
215	0x3d201ba2	0.039088853
216	0xbd7478a9	-0.059685383
217	0xbe1bcb07	-0.15214168
218	0x3d828f99	0.06375045
219	0x3db0c46e	0.08631216
220	0x3dafd3ef	0.08585345
221	0x3dc66707	0.0968762
222	0xbe2a2572	-0.16615847
223	0xbe2a30f1	-0.16620232
224	0x3dc688ab	0.09694036
225	0xbda9d3b5	-0.08292333
226	0xbde51fde	-0.11187719
227	0xbd438a47	-0.047739293
228	0x3b5e9d61	0.0033968317
229	0xbdd1beda	-0.1024148
230	0x3d01f4d3	0.031727623
231	0xbd4cf09e	-0.050034158
232	0x3e1f0c70	0.15532088
233	0x3e0a2ff9	0.13494863
234	0x3dd5deef	0.10442912
235	0x3dba6457	0.091011696
236	0xbdf9c66c	-0.12196049
237	0x3e0cbfc9	0.13745035
238	0x3dde6b61	0.10860325
239	0x3d217c96	0.039425455
240	0x3e1da625	0.1539541
241	0xbd8b4619	-0.068004794
242	0x3e35fb82	0.17771724
243	0xbcd82426	-0.026384424
244	0xbd021f4c	-0.03176813
245	0x3d5bf023	0.05369581
246	0x3e033136	0.12811741
247	0xbd03badc	-0.032160625
248	0x3c0db430	0.008648917
249	0xbd2fcfd1	-0.0429228
250	0x3e6bd2c5	0.23029621
251	0x3d9c556a	0.07633479
252	0x3d4748d8	0.048653454
253	0x3cad0119	0.021118687
254	0xbde6755f	-0.112528555
255	0xbdc4c06f	-0.09607016

network_body._body_endoder.seq_layers.2.bias f4 [128]
0	0x3d581961	0.05275858
1	0x3e2851d1	0.1643746
2	0x3d89d8c9	0.067308016
3	0x3ddc716f	0.10763823
4	0xbd1aff7f	-0.037841316
5	0xbbaf9630	-0.00535848
6	0xbd1a0e20	-0.037611127
7	0x3d892fd3	0.06698575
8	0x3bf18f82	0.007371844
9	0xbd17cdb8	-0.037061423
10	0x3c3a090e	0.011354698
11	0x3d94f20f	0.072727315
12	0x3da03421	0.07822443
13	0x3d1cb346	0.038256906
14	0xbbe53f7d	-0.006996094
15	0x3e04b1f9	0.12958516
16	0xbd983080	-0.07431126
17	0x3d117176	0.035508595
18	0x3e0d1603	0.13777928
19	0x3b0287cd	0.001991737
20	0xbd6936f6	-0.05693718
21	0x3d851b21	0.06499315
22	0x3db5bc3d	0.08873794
23	0x3d8635ca	0.06553228
24	0xbd940b3d	-0.07228706
25	0x3d703bd1	0.058650795
26	0x3dac0024	0.08398464
27	0x3d308690	0.04309708
28	0x3dae02ff	0.08496665
29	0x3d457f78	0.048217267
30	0xbcf159a3	-0.029461687
31	0x3cb01a3c	0.021496885
32	0xbcf501d0	-0.02990809
33	0x3d442320	0.04788506
34	0x3d31a971	0.043374483
35	0xbb30f76e	-0.0027002948
36	0x3ccc9070	0.024971217
37	0x3ceb2b46	0.028707158
38	0x3dad2bf6	0.084556505
39	0x3df64ac5	0.1202598
40	0x3d9b5e9c	0.07586405
41	0x3de5b95d	0.11216996
42	0x3d9871c1	0.07443572
43	0xbba0bd5d	-0.0049053864
44	0x3d78d9fd	0.060754765
45	0x3db9ab28	0.090658486
46	0x3c2b6200	0.010460377
47	0x3d385a62	0.04500807
48	0x3c9d94c6	0.01923598
49	0x3dd67fd6	0.104736015
50	0x3cd09f06	0.025466453
51	0x3cf528c6	0.029926669
52	0x3da562c6	0.0807548
53	0x3d0fbe86	0.035093807
54	0xbd918cc2	-0.071069255
55	0xbcfe4b70	-0.03104183
56	0x3d2d24f2	0.042271562
57	0x3d3bf239	0.0458853
58	0xbd4b11e8	-0.049577624
59	0x3df4c29f	0.119511835
60	0x3e0fabd9	0.14030398
61	0x3de6ea29	0.11275131
62	0x3c88c29a	0.016694356
63	0x3db10b20	0.086447
64	0x3d933c4b	0.07189234
65	0xbd7f4a1d	-0.06232654
66	0x3cbc8fc6	0.023017775
67	0xbd3d6584	-0.04623939
68	0x3c9d608e	0.01921108
69	0x3dfac360	0.12244296
70	0x3dc529d9	0.096271224
71	0xbd69ad50	-0.05705005
72	0x3d48d1c7	0.049028184
73	0x3c921d7d	0.017836327
74	0x3c8fbe1c	0.017546706
75	0x3d6178b9	0.05504677
76	0xbd495318	-0.04915151
77	0x3def7a1c	0.116932124
78	0x3e08c0bf	0.13354777
79	0x3d36f3cc	0.044666097
80	0x3d11808a	0.035522975
81	0xbc84f0ff	-0.016228197
82	0xbb74f752	-0.003737886
83	0x3d6028d0	0.05472642
84	0x3cbdd60d	0.023173356
85	0x3dca9853	0.09892335
86	0x3d58b481	0.052906517
87	0x3c92b25a	0.01790731
88	0x3c433dcd	0.01191659
89	0xbd3a71b5	-0.045518596
90	0x3d8d07dc	0.06886265
91	0xbd09a249	-0.033602033
92	0x3d7d3ff4	0.06182857
93	0x3dcf9cb5	0.10137311
94	0x3d87e620	0.0663569
95	0x3dfa841f	0.12232231
96	0x3d2de950	0.042458832
97	0x3c97f0a5	0.018547365
98	0x3d836e4d	0.064175226
99	0x3db6ed08	0.08931929
100	0x3da9cccb	0.08291014
101	0x3c7ffed3	0.01562472
102	0x3cecdaad	0.028912866
103	0xbac465a9	-0.001498391
104	0xbcc69671	-0.024241658
105	0x3c13d6bd	0.009023366
106	0x3c24b01c	0.010051753
107	0x3c339c7c	0.010962602
108	0x3c89fabf	0.016843198
109	0xbc11086f	-0.008852108
110	0x3cde8470	0.02716276
111	0x3dc2a7e6	0.0950468
112	0x3dee42c5	0.11633829
113	0x3dd542e3	0.10413148
114	0x3b39bf7c	0.0028342893
115	0xbda178f4	-0.07884398
116	0x3e093139	0.13397683
117	0x3d89e69b	0.06733438
118	0x3c739ab6	0.014868429
119	0x3cc6ebaa	0.024282295
120	0xbdb376dd	-0.08762906
121	0x3daac804	0.08338931
122	0x3cc20950	0.023686081
123	0x3da2b2f3	0.07944288
124	0x3de9effa	0.11422725
125	0x3bb310a3	0.0054646297
126	0xbd5181d4	-0.051149204
127	0x3df123aa	0.117743805

action_model._continuous_distribution.log_sigma f4 [1, 2]
0	0x3d48b169	0.048997317
1	0xbd5a1ea9	-0.053251896

action_model._continuous_distribution.mu.weight f4 [2, 128]
0	0xbc914e96	-0.017737668
1	0x3c7d6e2e	0.015468163
2	0xbae07882	-0.0017125758
3	0xbc87fd47	-0.016600264
4	0xbc0cce91	-0.008594171
5	0x3bbc307c	0.0057430845
6	0x3d62aef9	0.05534265
7	0xbb013e13	-0.0019720837
8	0xbc6b5467	-0.014363385
9	0xbb09d71f	-0.0021032763
10	0x3c11f6e4	0.008908961
11	0xbcde0f5c	-0.027106933
12	0xbb9d041d	-0.00479175
13	0xbcbc4208	-0.022980705
14	0x3c265123	0.01015118
15	0xb84751d0	-4.752149e-05
16	0x3d08ebce	0.033428006
17	0xbc67e208	-0.014153011
18	0xbb5ce52b	-0.003370593
19	0x3c8c9643	0.017161494
20	0xbb2c2999	-0.0026269911
21	0x3b895cc4	0.0041919667
22	0xbc8e12a4	-0.017342873
23	0x3cb209ba	0.021733154
24	0x3cfc44f5	0.0307946
25	0x3c844806	0.016147625
26	0x3c924ba3	0.017858332
27	0xbcacba3e	-0.021084901
28	0xbb8745b2	-0.0041281814
29	0xbb05fe40	-0.0020445734
30	0x3c91e839	0.017810928
31	0x3b24e5b1	0.002516132
32	0x3c421a9b	0.011847164
33	0x3ce36037	0.02775584
34	0xbc013db6	-0.007888248
35	0x3c7c403a	0.015396172
36	0x3c5673c7	0.013089127
37	0xbcdf7943	-0.027279502
38	0xbc9dacdd	-0.019247467
39	0x3c306e56	0.010768494
40	0xbbfb61fe	-0.0076715937
41	0x3c90b0cb	0.017662426
42	0xbc821f77	-0.015884144
43	0x3cb4fb05	0.022092352
44	0x3cc0a4e9	0.023516135
45	0xbcaeee35	-0.02135382
46	0x3bdc8a9e	0.0067303916
47	0x3c03224d	0.008003783
48	0xbd02a5fa	-0.03189657
49	0x3b3d589e	0.0028891931
50	0x3c022296	0.007942816
51	0x38cd1768	9.7795215e-05
52	0x3c6f2de7	0.014598346
53	0xbd0b569e	-0.03401815
54	0x3cc29f5a	0.023757625
55	0x3d01e132	0.031708904
56	0xbc59161d	-0.013249901
57	0xbc9a68d7	-0.01884882
58	0x3cb2ee0e	0.021842029
59	0xbb6a7c84	-0.0035779784
60	0x3aee7d91	0.0018195381
61	0x3cb982bd	0.022645349
62	0xba81488c	-0.000986354
63	0xbb9e4e7e	-0.0048311343
64	0x3b271246	0.002549307
65	0xbb570cb1	-0.003281396
66	0xbafa148e	-0.0019079612
67	0xbba5fbda	-0.0050654234
68	0xbbac536d	-0.0052589686
69	0xbc3f1bfc	-0.011664387
70	0x3c9f2e9e	0.019431408
71	0x3c36fcc7	0.011168665
72	0xbc9dbff2	-0.019256566
73	0x3c3d964f	0.011571481
74	0xbac9bbce	-0.0015391053
75	0xbbac846f	-0.0052648108
76	0x3cd7a54e	0.02632394
77	0x3bbae462	0.005703495
78	0x38b9ab40	8.853385e-05
79	0x3cb70e44	0.02234567
80	0xbc96678e	-0.018359926
81	0xbc89d2f2	-0.01682422
82	0xbbcdc7e7	-0.0062799337
83	0x3c4d4378	0.012528293
84	0x3cd83499	0.026392268
85	0x3caff534	0.021479227
86	0xbc72d877	-0.014822117
87	0x3be527b2	0.0069932574
88	0x3c232545	0.009957616
89	0x3d06dace	0.032923512
90	0x3cb7861a	0.022402812
91	0x3d22d7e7	0.03975668
92	0x3c358442	0.011078896
93	0xbc0bd402	-0.008534433
94	0xbc2ddf84	-0.010612372
95	0x3bb672ff	0.005567908
96	0x3b11d1e0	0.002225034
97	0xbc8223f1	-0.015886279
98	0x3c994a27	0.018712116
99	0xbc7a8e76	-0.015292754
100	0xbc307d1f	-0.010772019
101	0x3d191bf7	0.037380185
102	0x3adc1ad6	0.0016792666
103	0xbc023bf1	-0.007948861
104	0x3cdf3a2b	0.027249416
105	0xbbf984d8	-0.007614713
106	0xbc3bd4bf	-0.011464297
107	0x3a86d453	0.0010286666
108	0x3ca7897f	0.020451305
109	0x3d5d8617	0.054082956
110	0xbbebe9aa	-0.007199486
111	0xbba2951d	-0.0049616233
112	0x3c30049b	0.0107432855
113	0x3cba98c8	0.02277793
114	0x3bf2c703	0.007408978
115	0x3d2848a4	0.0410849
116	0x3b06bcc2	0.0020559286
117	0xbb10808f	-0.0022049283
118	0xbc35659d	-0.01107159
119	0x3d0191cc	0.031633183
120	0x3c71e156	0.014763197
121	0x39fc0717	0.00048070468
122	0x3c471356	0.012150606
123	0x3c1ab9c8	0.009443708
124	0xbb6d9065	-0.0036249396
125	0x3c4dde92	0.012565272
126	0xbae8043d	-0.0017701458
127	0x3ab14208	0.0013523707
128	0x3d7eeddc	0.06223856
129	0x3c9ba5ac	0.018999897
130	0x3d2973a4	0.04137005
131	0x3cf1b193	0.02950362
132	0xbcea7535	-0.028620342
133	0xbcfcfee0	-0.030883253
134	0x3d6c91ac	0.05775611
135	0x3d37c1ed	0.044862676
136	0x3d84d507	0.06485944
137	0xbcad63f5	-0.021165827
138	0xbd2638f3	-0.040581655
139	0x3d25306e	0.04032939
140	0x3cefe7b6	0.029285293
141	0x3d229077	0.039688554
142	0xbd047611	-0.03233916
143	0x3783fe8b	1.5734948e-05
144	0x3ce11d1c	0.0274797
145	0x3d71a0c1	0.058991197
146	0x3bdc8724	0.006729977
147	0x3cf21183	0.029549366
148	0xbb159c36	-0.0022828705
149	0x3d45e820	0.048317075
150	0x3cf8c8aa	0.030369122
151	0x3d17d7ba	0.037070967
152	0x3aaa5c76	0.0012997526
153	0x3d36bb87	0.044612434
154	0x3d268eea	0.040663637
155	0x3d7bf365	0.061511416
156	0x3cd86b84	0.026418455
157	0x3d151117	0.03639325
158	0x3c70153d	0.014653501
159	0xbd532505	-0.051548976
160	0xbca50993	-0.020146167
161	0x3d2284a5	0.03967728
162	0x3d0af162	0.033921607
163	0xbd0293b1	-0.03187913
164	0xbd4f2204	-0.05056955
165	0x3d310a72	0.043222852
166	0x3cf54edc	0.02994483
167	0x3d223fa8	0.03961149
168	0x3d1a385e	0.037651412
169	0x3c9e8dc7	0.019354714
170	0x3d02c90e	0.031930022
171	0xbcdbf33b	-0.02684938
172	0x3c6bfb44	0.014403168
173	0x3d385546	0.045003198
174	0xbd2fff62	-0.04296816
175	0x3d6ed291	0.05830628
176	0x3d81bddc	0.06335041
177	0x3c5ff840	0.013670027
178	0xbd5c713b	-0.053818922
179	0xbd74e660	-0.059790015
180	0x3d5089f7	0.050912824
181	0x3d494caa	0.04914538
182	0x3d6f58c9	0.05843428
183	0x3d561250	0.052263558
184	0x3d0e005c	0.03466831
185	0x3d380441	0.04492593
186	0x3d1a14ad	0.037617374
187	0x3c7267f1	0.014795289
188	0x3ca09f54	0.019607224
189	0x3cf16f44	0.029472
190	0xbd36d1be	-0.04463362
191	0x3d2a621f	0.04159748
192	0x3d31f9e6	0.043451212
193	0xbb5be5f9	-0.0033553822
194	0xbd4adae1	-0.049525145
195	0xbc672445	-0.014107768
196	0xbd14c957	-0.036324825
197	0x3b698f89	0.0035638532
198	0x3caf0b35	0.021367649
199	0x3b9afb47	0.0047296616
200	0x3d566698	0.052343935
201	0xbd4e06d2	-0.050299473
202	0x3db6602a	0.089050606
203	0x3d451af4	0.048121408
204	0x3d580e68	0.052748114
205	0x3d0cf79c	0.034415826
206	0x3c3d13b5	0.011540343
207	0x3d37218d	0.04470973
208	0x3ccbee6b	0.02489396
209	0xbd1116ea	-0.035422243
210	0xbc71e6d7	-0.014764509
211	0x3ceeabc7	0.029134644
212	0x3d40f1ad	0.04710548
213	0x3cc62876	0.024189215
214	0x3d184ec0	0.037184477
215	0xbd348635	-0.044073302
216	0xbd09caf2	-0.03364081
217	0x3b8a9513	0.004229197
218	0x3d13bbf0	0.036067903
219	0x3d059982	0.0326171
220	0x3d4b26e7	0.049597647
221	0x3ca7064d	0.020388747
222	0x3c3baa8d	0.011454237
223	0x3d1d2321	0.03836358
224	0x3c21d421	0.009877236
225	0x3d2a86fb	0.041632634
226	0x3b8bdca7	0.004268247
227	0x3badd6c7	0.0053051445
228	0x3d285a53	0.041101765
229	0xbd377e0c	-0.044797942
230	0xbd4ff88a	-0.050774135
231	0xbd3665c9	-0.044530664
232	0xbbd689b6	-0.006547178
233	0xbd2915eb	-0.04128067
234	0xbd0884a3	-0.033329617
235	0xbd12d1e8	-0.035844713
236	0xbd3ab784	-0.04558517
237	0xbc708815	-0.014680882
238	0xbd4b6fe8	-0.04966727
239	0x3ce692ee	0.028146233
240	0x3ccaab87	0.024739994
241	0x3cf38485	0.029726276
242	0xbcf42dbd	-0.029806966
243	0x3c8e092e	0.017338362
244	0x3cdd51f5	0.02701662
245	0x3cb5121b	0.02210336
246	0xbd3df150	-0.04637271
247	0x3c09e137	0.008415512
248	0x38c02c8b	9.16357e-05
249	0x3cb79e01	0.02241421
250	0x3c180900	0.0092794895
251	0x3cabb593	0.020960605
252	0x3cbf6480	0.023363352
253	0xbd205dbb	-0.03915189
254	0x3b58d132	0.0033083674
255	0x3c8883ea	0.016664464

action_model._continuous_distribution.mu.bias f4 [2]
0	0x3b700a6c	0.0036627306
1	0xbd567140	-0.052354097

action_model._discrete_distribution.branches.0.weight f4 [2, 128]
0	0xbe2dd7f3	-0.1697691
1	0xbe36f45e	-0.17866656
2	0xbdf5c8f0	-0.120012164
3	0xbe328c19	-0.17436256
4	0x3e3a168e	0.18172666
5	0x3dc335d3	0.095317505
6	0x3a0adae9	0.00052969024
7	0xbe560b46	-0.20902738
8	0xbdf23099	-0.118256755
9	0x3e0ab3df	0.13545178
10	0x3dc0da81	0.09416676
11	0xbe1bef17	-0.15227924
12	0xbe001bce	-0.12510607
13	0xbdfcc65a	-0.1234252
14	0x3dabc80d	0.08387766
15	0xbe2a89f6	-0.1665419
16	0x3cff373d	0.03115427
17	0xbda95fad	-0.08270202
18	0xbe2650fa	-0.16241828
19	0xbd662889	-0.056191
20	0x3dfac43b	0.12244459
21	0xbe2ef7c7	-0.17086707
22	0xbe3a6c97	-0.18205486
23	0xbe2ee4c5	-0.17079456
24	0x3d929670	0.071576
25	0xbe222c0e	-0.15837118
26	0xbe2d9c0d	-0.1695406
27	0xbe2a7266	-0.16645202
28	0xbdd44c7d	-0.103661515
29	0xbdd6af15	-0.10482613
30	0x3c8ce543	0.017199164
31	0x3de76379	0.1129827
32	0x3e198426	0.14991817
33	0xbde0a494	-0.10968891
34	0xbdc9c9fa	-0.09852977
35	0x3d989ef3	0.07452192
36	0x3e080274	0.13282186
37	0xbe1889e8	-0.14896357
38	0xbe0bcb96	-0.1365188
39	0xbe3b7e7d	-0.1830997
40	0xbe2dc863	-0.16970973
41	0xbe2e08ca	-0.1699554
42	0xbe347b2f	-0.17625116
43	0x3de65f14	0.112486035
44	0xbdebb5d2	-0.11509289
45	0xbe514dd7	-0.2043985
46	0x3da16f29	0.0788253
47	0xbe3aa706	-0.18227777
48	0xbda371a1	-0.07980657
49	0xbe1d0f9c	-0.15337986
50	0x3dfaf541	0.1225381
51	0x3e07b08f	0.13250946
52	0xbe258089	-0.16162314
53	0xbdf675a6	-0.120341584
54	0xbc8fff8e	-0.017577913
55	0xbd3ef153	-0.046616863
56	0xbdf71d52	-0.12066139
57	0xbe0db986	-0.13840303
58	0xbcd744b2	-0.026277874
59	0xbe10a9ae	-0.14127228
60	0xbe3732e2	-0.17890504
61	0xbe19e9fc	-0.15030664
62	0x3def1649	0.116741724
63	0xbe4fa781	-0.20278741
64	0xbe034260	-0.12818289
65	0x3db1f883	0.08689978
66	0x3e08a5ab	0.13344447
67	0x3e13ecfa	0.14445868
68	0x3d666bd8	0.05625519
69	0xbe28e4ea	-0.16493574
70	0xbe2e7019	-0.1703495
71	0x3db31ee6	0.08746128
72	0xbe084d88	-0.13310826
73	0x3dd897e8	0.10575849
74	0xbdebec56	-0.11519687
75	0xbe30c9a8	-0.17264426
76	0xbc4d0ee5	-0.012515758
77	0xbe6c6785	-0.23086365
78	0xbe355b6a	-0.17710653
79	0xbe1d38d5	-0.15353711
80	0xbdf30651	-0.11866439
81	0x3e1eb662	0.15499261
82	0x3d01413f	0.031556364
83	0xbe064352	-0.13111618
84	0xbd98566e	-0.0743836
85	0xbe2f8fbc	-0.17144674
86	0xbdcd1cbb	-0.100152455
87	0x3dc32cb1	0.095300086
88	0x3dfc8682	0.12330343
89	0x3db89390	0.0901252
90	0xbe113969	-0.14182056
91	0xbcc66f0c	-0.024222873
92	0xbe366bfb	-0.17814629
93	0xbe0fe8c3	-0.14053635
94	0xbda41023	-0.0801089
95	0xbe5b36fa	-0.2140769
96	0xbdf0201e	-0.11724876
97	0xbe197529	-0.149861
98	0xbdcb72c8	-0.09934002
99	0xbdf3c2b2	-0.119023696
100	0xbe586acd	-0.21134491
101	0x3db0519d	0.086093165
102	0x3e0642c8	0.13111413
103	0x3e0e345a	0.13887158
104	0x3d2b83ba	0.04187367
105	0x3e078e34	0.1323784
106	0x3df7db1b	0.12102338
107	0x3dcef223	0.10104778
108	0x3d09af62	0.033614524
109	0x3db78c5d	0.08962319
110	0x3deb7aa7	0.114980035
111	0xbdf97b01	-0.12181664
112	0xbe27d9c5	-0.16391666
113	0xbe4321ed	-0.1905591
114	0x3db08848	0.086197436
115	0x3cf4e867	0.029895974
116	0xbe3d2df5	-0.18474562
117	0xbe1fe4fb	-0.15614693
118	0x3dfc31c6	0.12314181
119	0xbba08405	-0.0048985505
120	0x3e00ad50	0.12566113
121	0xbe197587	-0.1498624
122	0xbca58a02	-0.020207409
123	0xbe40bfcb	-0.18823163
124	0xbdd7f4a6	-0.1054471
125	0x3e0b5873	0.1360796
126	0x3ddecbfe	0.10878752
127	0xbe19d678	-0.1502322
128	0x3e15bd0a	0.14622894
129	0x3e37bf6f	0.1794412
130	0x3df4d079	0.119538255
131	0x3e3f775f	0.1869788
132	0xbe47f19c	-0.1952576
133	0xbd9a68f5	-0.0753955
134	0xbc06ba06	-0.008223062
135	0x3e49b4a3	0.19697814
136	0x3df143b1	0.11780489
137	0xbe0700bc	-0.13183874
138	0xbdcec8b3	-0.10096874
139	0x3e1d9187	0.15387546
140	0x3e10353c	0.14082807
141	0x3de1f054	0.11032167
142	0xbdbdf9b0	-0.0927614
143	0x3e1587c5	0.14602573
144	0xbc80dd89	-0.015730636
145	0x3dae2fe2	0.08505227
146	0x3e38f997	0.18063961
147	0x3d45f922	0.048333295
148	0xbdf4e81b	-0.11958333
149	0x3e427554	0.1899007
150	0x3e43499f	0.19071053
151	0x3e331f40	0.1749239
152	0xbd7fb386	-0.062427066
153	0x3e301322	0.17194799
154	0x3e2e9ee6	0.17052802
155	0x3e2402c9	0.16016687
156	0x3df2cc9d	0.11855433
157	0x3ddbbc9f	0.10729336
158	0x3bb90584	0.0056464095
159	0xbdd34375	-0.10315601
160	0xbe26f9ad	-0.16306181
161	0x3dbc6ea9	0.09200794
162	0x3dde9265	0.10867766
163	0xbdb10be5	-0.08644847
164	0xbe076417	-0.13221775
165	0x3e206c1d	0.15666242
166	0x3e0f4532	0.1399124
167	0x3e3debc4	0.18546969
168	0x3e31e321	0.17371799
169	0x3e1a4005	0.15063484
170	0x3e2c08a4	0.16800171
171	0xbdc81dc7	-0.097713046
172	0x3df2be92	0.11852755
173	0x3e58e814	0.21182281
174	0xbda677e4	-0.08128336
175	0x3e2f01f7	0.17090593
176	0x3dae17c0	0.08500624
177	0x3e36c2ac	0.17847699
178	0xbdc62e12	-0.09676756
179	0xbde7a9d8	-0.11311692
180	0x3e339ef2	0.17541102
181	0x3e0ac2d3	0.13550882
182	0x3b080467	0.0020754577
183	0x3d320a6c	0.04346697
184	0x3df6c72c	0.12049708
185	0x3e24f2b3	0.16108207
186	0x3c857547	0.016291274
187	0x3e2c1674	0.1680544
188	0x3e38aefa	0.18035498
189	0x3e2ce676	0.16884789
190	0xbde89be0	-0.11357856
191	0x3e57c332	0.21070555
192	0x3dcc7360	0.099829435
193	0xbdb0de7d	-0.08636186
194	0xbe057846	-0.13034162
195	0xbe11d72e	-0.14242241
196	0xbd73389d	-0.059380163
197	0x3e201e62	0.1563659
198	0x3e1ee236	0.1551598
199	0xbdc2b973	-0.09508028
200	0x3e18a698	0.149073
201	0xbddd9f05	-0.10821346
202	0x3de278af	0.11058175
203	0x3e35af16	0.17742571
204	0x3cbea404	0.023271568
205	0x3e63f13d	0.22259994
206	0x3e1f22d7	0.15540634
207	0x3e0db788	0.13839543
208	0x3df60244	0.12012151
209	0xbe23852b	-0.15968768
210	0xbce862dc	-0.028367452
211	0x3e1f65ae	0.15566131
212	0x3db182d9	0.08667535
213	0x3e318c22	0.17338613
214	0x3dc1c0dc	0.09460613
215	0xbdc45717	-0.095869236
216	0xbdfda375	-0.123846926
217	0xbda60d01	-0.08107949
218	0x3e09c754	0.13454944
219	0x3c9f9486	0.019480001
220	0x3e2647df	0.16238354
221	0x3e0dcd59	0.13847865
222	0x3dc0f91a	0.09422512
223	0x3e6505d8	0.2236551
224	0x3dcd5149	0.100252695
225	0x3e075bba	0.13218585
226	0x3d7b2cc0	0.061321974
227	0x3e0a607e	0.13513371
228	0x3e4788a2	0.19485715
229	0xbdb68564	-0.08912161
230	0xbdf77823	-0.12083461
231	0xbe063cc9	-0.13109125
232	0xbd483bbc	-0.048885092
233	0xbdf34710	-0.118787885
234	0xbdfef062	-0.12448193
235	0xbdc99a34	-0.09843865
236	0xbc7a4b49	-0.015276738
237	0xbdb00c07	-0.08596044
238	0xbdfb7851	-0.12278808
239	0x3e0b3fa4	0.13598496
240	0x3e31b6d3	0.17354898
241	0x3e4f8679	0.20266141
242	0xbda5c648	-0.0809446
243	0xbce2910d	-0.027657056
244	0x3e373676	0.17891869
245	0x3e271878	0.16317928
246	0xbe027782	-0.12740901
247	0x3cc58b5d	0.024114305
248	0xbde84db5	-0.113429464
249	0x3e02a8bf	0.12759684
250	0x3cb53873	0.022121644
251	0x3e362526	0.17787609
252	0x3de7ca07	0.113178305
253	0xbe12863b	-0.14309017
254	0xbd9fe487	-0.0780726
255	0x3e200b8a	0.15629402

action_model._discrete_distribution.branches.0.bias f4 [2]
0	0xbda5cb75	-0.08095447
1	0x3da5cb85	0.08095459
