MLAgents Jumper Exercise/Assets/results/J01/JumperAgent/JumperAgent-2499768.onnx (onnx, 570158 bytes, 15 tensors)

network_body.observation_encoder.processors.0.normalizer.running_mean f4 [26]
0	0x3f30db89	0.69084984
1	0x3f38a5f1	0.72128206
2	0x3f30dbb0	0.69085217
3	0x3f38cfdd	0.72192174
4	0x3f30dbb0	0.69085217
5	0x3f38cfdd	0.72192174
6	0x3f30dfbc	0.6909139
7	0x3f395848	0.7240033
8	0x3f30dfbc	0.6909139
9	0x3f395848	0.7240033
10	0x3f30e45e	0.6909846
11	0x3f3a606e	0.7280339
12	0x3f30e45e	0.6909846
13	0x3f3a606f	0.72803396
14	0x3f37ce09	0.7179876
15	0x3f40ae20	0.75265694
16	0x3f37ce09	0.7179876
17	0x3f40ae20	0.75265694
18	0x3f41da1f	0.7572345
19	0x3f49862f	0.7872037
20	0x3f41da1f	0.7572345
21	0x3f49862f	0.7872037
22	0x3f54d4c2	0.8313714
23	0x3f5a0a8d	0.8517235
24	0x3f54d4cf	0.8313722
25	0x3f5a0a97	0.8517241

network_body.observation_encoder.processors.1.normalizer.running_mean f4 [2]
0	0x3eb42c84	0.35190213
1	0xbd01267e	-0.03153085

network_body._body_endoder.seq_layers.0.weight f4 [256, 28]
0	0xbe25e28d	-0.16199704
1	0x3dd5eddd	0.104457594
2	0xbdf9686f	-0.12178122
3	0x3e171a5e	0.14756152
4	0x3cce440c	0.025178932
5	0xbdabe92f	-0.083940856
6	0x3e147c0e	0.14500448
7	0xbd89bc14	-0.06725326
8	0xbde7a8b6	-0.11311476
9	0x3e4cc4c0	0.19996929
10	0x3d365e00	0.04452324
11	0xbdf2f0da	-0.11862345
12	0xbd84cf20	-0.064848185
13	0x3c017a25	0.007902657
14	0xbd7bb7fe	-0.061454765
15	0x3ebbc73f	0.3667545
16	0xbe8c20cb	-0.2736877
17	0x3e568b49	0.2095157
18	0xbe699492	-0.22810581
19	0x3ee6f658	0.4510982
20	0xbd2b7d82	-0.04186774
21	0xbea62961	-0.32453445
22	0x3e0b9aa7	0.13633214
23	0x3dd46a5c	0.10371849
24	0x3dd72fad	0.1050714
25	0xbe54d293	-0.20783453
26	0x3e9fdc2f	0.31222674
27	0x3ed33ddd	0.41258135
28	0xbe21c5ab	-0.1579806
29	0xbe5c5001	-0.21514894
30	0x3e3a075c	0.1816687
31	0x3de407ad	0.111342765
32	0x3cc16db6	0.023611885
33	0x3d4e7a3f	0.05040955
34	0x3d995554	0.07486978
35	0x3d949748	0.07255417
36	0x3eaaef03	0.33385476
37	0x3e1e9297	0.15485607
38	0x3ca8b33c	0.020593278
39	0xbe16cbfe	-0.14726254
40	0x3d8c4a8e	0.06850158
41	0x3e5cef37	0.21575628
42	0x3e9e9fc3	0.30981264
43	0xbdaee68d	-0.08540068
44	0x3eaee68c	0.34160268
45	0xbf1f3a94	-0.6219876
46	0x3d80789e	0.06273006
47	0xbe3ff054	-0.18744022
48	0x3e337c01	0.17527772
49	0x3e6022e2	0.21888307
50	0xbd96f435	-0.073707975
51	0xbebc3900	-0.36762238
52	0x3e57d1ab	0.21076076
53	0x3dedb242	0.116062656
54	0x3e74c03e	0.2390146
55	0x3e944cd2	0.2896486
56	0xbb08b9c2	-0.0020862673
57	0x3d06a431	0.03287143
58	0x3e57ffbf	0.21093653
59	0xbddb5fb4	-0.10711613
60	0xbe96ac54	-0.2942835
61	0xbe9eed39	-0.31040362
62	0x3db44e42	0.08803989
63	0x3f0605db	0.52352685
64	0xbebf1a0c	-0.3732456
65	0xbdf732bf	-0.12070226
66	0x3c41b738	0.011823468
67	0xbd15fd5e	-0.036618583
68	0x3dd5b55e	0.10434984
69	0x3e235802	0.15951541
70	0xbe2adced	-0.16685839
71	0x3cfef99f	0.031124888
72	0x3d8cdae3	0.06877687
73	0xbd56a1c9	-0.052400384
74	0x3c97eec8	0.018546477
75	0xbe8c3674	-0.27385294
76	0x3daf67c1	0.08564711
77	0x3e32393c	0.17404646
78	0x3e6f54e3	0.23372225
79	0xbdc856c1	-0.09782172
80	0x3da92c74	0.08260432
81	0x3d3ba07c	0.045807347
82	0xbdf150d5	-0.117829956
83	0x3d587c16	0.052852713
84	0x3d139494	0.036030367
85	0x3daee002	0.0853882
86	0xbd15da4d	-0.03658514
87	0x3e6e0acf	0.2324631
88	0x3d3b29f5	0.04569431
89	0x3f101ef1	0.5629721
90	0x3cc6826a	0.024232108
91	0xbe1c57dc	-0.1526789
92	0x3c6595aa	0.0140127335
93	0x3d993cc7	0.074822955
94	0xbd730f35	-0.059340674
95	0xbe15653f	-0.14589404
96	0x3e37b7c6	0.17941198
97	0xbc52aa74	-0.012858022
98	0x3d41cf06	0.047316574
99	0x3e46c878	0.1941241
100	0x3def9b55	0.11699549
101	0x3d00fd34	0.031491473
102	0xbdcdea3b	-0.100544415
103	0xbe6d29df	-0.23160504
104	0xbebaef01	-0.3651047
105	0x3e228a32	0.1587303
106	0xbece6285	-0.4030954
107	0xbdf28722	-0.11842181
108	0xbcf9c335	-0.03048859
109	0x3c8b04ea	0.016970117
110	0xbe049f5a	-0.12951413
111	0x3e713d92	0.23558643
112	0xbe2e05c2	-0.16994384
113	0xbe29d1f9	-0.16584004
114	0x3e509283	0.2036839
115	0xbdf131c1	-0.11777068
116	0x3e3c82d4	0.18409282
117	0x3e7c5896	0.24643168
118	0xbebaac85	-0.36459747
119	0x3f276a19	0.6539627
120	0xbdd835ff	-0.10557174
121	0xbe6cf9ff	-0.23142241
122	0x3e1b1417	0.15144382
123	0xbe915c05	-0.28390518
124	0x3b30ccee	0.0026977616
125	0x3da13513	0.07871451
126	0xbe59dad1	-0.21274878
127	0x3e38a11c	0.18030208
128	0x3e33db87	0.17564212
129	0xbdfd74ad	-0.1237577
130	0x3be56a9a	0.0070012333
131	0xbe18e175	-0.14929755
132	0xbeaa326b	-0.3324159
133	0x3e14081c	0.14456218
134	0x3d103302	0.035204895
135	0x3e27f22d	0.16400976
136	0x3dbb2d2a	0.09139474
137	0x3db91e2d	0.09038959
138	0x3db6307a	0.08895965
139	0x3d6ecb8c	0.058299586
140	0xbd66ccf2	-0.056347795
141	0x3d89f55e	0.06736253
142	0xbdfcfc8a	-0.123528555
143	0x3e93ca3f	0.2886524
144	0xbe642dca	-0.22283092
145	0xbe09735b	-0.13422911
146	0xbe8e2e5d	-0.27769747
147	0xbc48fb4b	-0.012266944
148	0xbe2030a3	-0.15643553
149	0xbe0ba006	-0.13635263
150	0x3e380869	0.17971958
151	0xbd938a55	-0.07204119
152	0x3dc616bc	0.09672305
153	0x3e4cb570	0.19991088
154	0x3e20f860	0.15719748
155	0x3e296ecb	0.1654617
156	0xbed9a8fc	-0.42511737
157	0x3e315f60	0.17321539
158	0x3e093517	0.13399158
159	0x3d003012	0.031295843
160	0x3e79ae7a	0.24382964
161	0x3eca7aa1	0.39546683
162	0xbcbfbc65	-0.023405263
163	0x3e3b09aa	0.18265405
164	0x3e47041a	0.19435158
165	0x3e1fc99f	0.15604256
166	0x3e3f107a	0.18658629
167	0x3ea32315	0.31862703
168	0x3e682d14	0.22673446
169	0xbeaf49e6	-0.34236068
170	0xbe1ad75c	-0.15121216
171	0xbd04d3d7	-0.03242859
172	0x3e2b924c	0.16755027
173	0x3d01ebbf	0.031718966
174	0xbd9cc63d	-0.076549985
175	0x3d8d79a9	0.069079705
176	0xbe60b05e	-0.21942279
177	0x3d9e8fdc	0.07742283
178	0x3eb22e12	0.34800774
179	0xbe089b5a	-0.13340512
180	0xbc56ad24	-0.013102803
181	0x3ed2bc1a	0.41159135
182	0x3de438a7	0.11143618
183	0x3ecc5a59	0.3991268
184	0xbe0917de	-0.13388011
185	0xbe116080	-0.14196968
186	0xbde1fcc9	-0.11034543
187	0xbea2710c	-0.31726873
188	0xbca6b9e0	-0.020352304
189	0x3dc5823b	0.0964398
190	0x3d8f72ac	0.07004294
191	0xbdc60fff	-0.0967102
192	0x3d57fec1	0.052733187
193	0xbea60b83	-0.32430658
194	0xbd1fb66c	-0.03899233
195	0x3e75f9e9	0.24021114
196	0xbddb3c5b	-0.10704871
197	0xbe57fb18	-0.21091878
198	0xbdbd3294	-0.09238163
199	0xbdd01117	-0.1015951
200	0xbdcd02c3	-0.100102924
201	0x3e1bd3f1	0.15217568
202	0x3e338f31	0.17535092
203	0xbc90c25f	-0.017670808
204	0x3e8587e8	0.2608025
205	0xbdf19256	-0.117954895
206	0xbda5726b	-0.08078464
207	0xbc8297a9	-0.015941458
208	0xbe2dea3a	-0.16983882
209	0xbcf85100	-0.030312061
210	0x3d5b7fa5	0.05358853
211	0xbe2b103e	-0.16705415
212	0x3e037679	0.12838162
213	0x3ef5041b	0.47854695
214	0xbe8664c0	-0.2624874
215	0x3e7dd848	0.24789536
216	0xbc71b444	-0.014752451
217	0xbbe2e297	-0.0069239843
218	0xbe15cbe9	-0.14628567
219	0x3e04d979	0.12973584
220	0xbd1112b6	-0.035418235
221	0x3e846db3	0.25864944
222	0x3dc7d696	0.09757726
223	0x3d86c7f8	0.0658111
224	0xbdfe5573	-0.12418642
225	0x3e84fe38	0.25975204
226	0xbe4adebb	-0.19811527
227	0x3d99502a	0.07485993
228	0x3e6fb646	0.23409376
229	0xbd2e6e34	-0.042585567
230	0xbe4477b1	-0.19186284
231	0x3cc5f799	0.024165915
232	0x3ddb7790	0.10716164
233	0xbd37a155	-0.044831593
234	0xbe8d8b37	-0.27645275
235	0x3e2631e3	0.16229968
236	0x3cfec916	0.031101745
237	0xbe248162	-0.1606498
238	0xbea6b559	-0.32560232
239	0x3ca3dc7f	0.020002602
240	0x3ca0a511	0.01960996
241	0x3e767d2b	0.24071185
242	0x3dc546f8	0.09632677
243	0x3e34e6f5	0.17666228
244	0xbd0fa3ea	-0.03506843
245	0xbdf0bad5	-0.117543854
246	0xbcf75a7f	-0.03019452
247	0x3e1ed0ae	0.15509292
248	0xbe37098c	-0.17874736
249	0x3eb90f35	0.36144415
250	0x3e9cc329	0.30617645
251	0xbe82b8c8	-0.25531602
252	0xbeba4836	-0.36383218
253	0x3e0cc7f3	0.1374815
254	0x3e2e56f6	0.1702536
255	0x3e289adf	0.16465329

network_body._body_endoder.seq_layers.0.bias f4 [256]
0	0x3d87baba	0.06627412
1	0xbd802dd2	-0.062587395
2	0xbd878ab1	-0.0661825
3	0xbda75852	-0.08171143
4	0x3d943406	0.07236485
5	0xbd730bbd	-0.059337366
6	0xbd24e8ac	-0.040260956
7	0x3d7cf1fc	0.06175421
8	0x3d6faa9a	0.058512308
9	0xbcea3016	-0.028587382
10	0xbc16cec3	-0.009204569
11	0xbdaef77b	-0.08543297
12	0xbd91d462	-0.07120587
13	0xbd303718	-0.04302129
14	0x3d032a10	0.032022536
15	0x3d0dd824	0.034629956
16	0xbd7a03a2	-0.06103862
17	0xbdaf92a2	-0.0857289
18	0xbd2d8eb8	-0.042372435
19	0x3cc36b9c	0.023855023
20	0xbdc107c8	-0.09425312
21	0x3ad1ee72	0.0016016497
22	0xbd543ef1	-0.051817838
23	0xbc1fcde4	-0.009753678
24	0x3ca86068	0.020553783
25	0x3d780c86	0.06055882
26	0x3d61da0e	0.055139594
27	0xbd55ca86	-0.052195095
28	0xbda375a0	-0.079814196
29	0xbe5dadf0	-0.21648383
30	0xbcdab0eb	-0.02669569
31	0x3d37a1e2	0.044832118
32	0x3bdb4f96	0.006692837
33	0xbd99cf45	-0.07510237
34	0x3d0ff2e7	0.03514376
35	0xbd6e8e5a	-0.058241226
36	0x3db27b0e	0.08714877
37	0xbdbaeef1	-0.09127606
38	0xbd436a1e	-0.047708623
39	0xbc299f1c	-0.010352876
40	0xbd921cc7	-0.07134395
41	0x3cd53ec6	0.02603091
42	0xbabb937b	-0.001431092
43	0x3d076ec3	0.033064615
44	0xbdc85a20	-0.09782815
45	0xbc1b2f03	-0.009471658
46	0xbc51ce2d	-0.012805504
47	0xbd158d5f	-0.036511775
48	0xbd473000	-0.04862976
49	0xbd0320d9	-0.032013748
50	0xbd7cd694	-0.061728075
51	0xbe1f3bb1	-0.15550114
52	0x3dae6840	0.08515978
53	0xbd09f37c	-0.03367947
54	0xbd6acc1d	-0.057323564
55	0x3b9a2d67	0.0047051194
56	0xbd046689	-0.032324348
57	0xbd8eeb4c	-0.06978473
58	0xbde783ac	-0.11304411
59	0xbc14a42d	-0.009072346
60	0x3d123a2b	0.035700005
61	0xbdd016a8	-0.10160571
62	0xbc2ad7cc	-0.010427427
63	0xbda62ec6	-0.0811439
64	0xba19c8b4	-0.0005866394
65	0x3ddad5e2	0.10685326
66	0xbd25bdc2	-0.04046417
67	0x3c8e3e12	0.017363582
68	0x3c798201	0.015228749
69	0xbd73974e	-0.059470467
70	0xbdbbda1d	-0.09172461
71	0x3d8d1986	0.06889634
72	0xbe4f49fc	-0.20243067
73	0x3d942274	0.07233134
74	0x38fa2d33	0.00011929348
75	0xbd55572a	-0.05208508
76	0xbd6a7b76	-0.057246648
77	0x3c997ec0	0.018737197
78	0xbd7780eb	-0.06042568
79	0x3ce25c4e	0.027631905
80	0x37611128	1.341504e-05
81	0xbc8460b6	-0.016159397
82	0x3ced8311	0.028993161
83	0xbd888994	-0.06666866
84	0xbdbbd6c9	-0.091718264
85	0x3d622f3a	0.05522082
86	0x3b89d7de	0.0042066416
87	0xbdedc2f8	-0.11609453
88	0xbd83403a	-0.064087346
89	0x3d8889db	0.06666919
90	0x3dcd60a0	0.100281954
91	0xbd1366af	-0.0359866
92	0xbc87cfc3	-0.01657856
93	0xbd904700	-0.07044792
94	0xbcd644e0	-0.026155889
95	0xbd27fe44	-0.04101397
96	0x3da9d7a1	0.08293081
97	0x3d87f95f	0.06639361
98	0x3d792d98	0.060834497
99	0xbd089393	-0.033343863
100	0x3da1ae0c	0.07894525
101	0xbdb0ba95	-0.08629338
102	0xbd166183	-0.03671409
103	0xbcdadcba	-0.026716579
104	0xbc5e780b	-0.013578425
105	0xbdad9287	-0.084752135
106	0xbca8ed00	-0.020620823
107	0xbd3c8ff5	-0.046035726
108	0xbcc3f4dc	-0.023920469
109	0x3dbd1ff9	0.09234614
110	0xbd7c1655	-0.061544735
111	0xbb85b552	-0.004080453
112	0xbda1bc20	-0.0789721
113	0xbd70ce79	-0.058790658
114	0xbd6955ec	-0.056966707
115	0xbdae696d	-0.08516202
116	0x3d828530	0.0637306
117	0x3da4c42a	0.08045228
118	0x3d99e505	0.07514385
119	0x3dba03fc	0.09082791
120	0xbdd3e64f	-0.10346662
121	0xbd6fb5c5	-0.05852296
122	0xbba8af0a	-0.0051478194
123	0x3d7bba56	0.061457
124	0xbd8eb264	-0.06967619
125	0x3abe3135	0.0014510514
126	0x3ca425bf	0.02003753
127	0xbc769567	-0.015050269
128	0xbd20d406	-0.0392647
129	0x3cc53639	0.024073707
130	0x3cbc4e11	0.022986444
131	0x3d638529	0.055546913
132	0xbd6aa345	-0.057284612
133	0xbc37287f	-0.011179089
134	0xbb0f8446	-0.002189891
135	0x3da2d604	0.079509765
136	0xbc004d1f	-0.007830887
137	0x3bfe461d	0.007759823
138	0xbb114ab7	-0.0022169778
139	0x3d427485	0.047474403
140	0x3cb69654	0.022288479
141	0xbd75bee2	-0.059996493
142	0x3cf31ffa	0.029678334
143	0x3d61057a	0.054936863
144	0x3bf1a1d4	0.0073740277
145	0xbd8ae612	-0.06782164
146	0xbdaf9b57	-0.085745506
147	0xbcbef061	-0.023307981
148	0x3d8a4fff	0.06753539
149	0xbdc94c68	-0.098290265
150	0x3cf43dbe	0.029814597
151	0x3da44565	0.080210485
152	0x3c6bc41f	0.014390021
153	0x3d4f2f18	0.05058202
154	0xbd28ce15	-0.04121216
155	0xbd2b41ee	-0.041810922
156	0xbdf8866e	-0.121350154
157	0xbd174ef6	-0.036940537
158	0x3d7804fd	0.060551632
159	0xbda7ce7e	-0.08193682
160	0xbcc1b23d	-0.023644561
161	0xbdbb8f9d	-0.091582514
162	0x3da15895	0.07878224
163	0x3d8216db	0.063520156
164	0xbd28694b	-0.04111604
165	0xbd16c2c0	-0.03680682
166	0xbd98aef7	-0.07455247
167	0x3d4c1f79	0.049834702
168	0xbc86419e	-0.01638871
169	0xbdacdc07	-0.084404044
170	0xbda3f150	-0.08005011
171	0xbdb7c418	-0.08972949
172	0x3c9957b5	0.01871858
173	0xbc5c8bff	-0.013461112
174	0xbdea6ba0	-0.11446309
175	0x3d6344a5	0.055485386
176	0xbd94eb92	-0.07271494
177	0xbd871f7d	-0.06597803
178	0xbe78a981	-0.2428341
179	0xbcd40e27	-0.025885655
180	0xbcd16622	-0.025561396
181	0x3c2d71ba	0.010586197
182	0xbd662620	-0.056188703
183	0xbcf856a8	-0.030314758
184	0xbd50d797	-0.050986852
185	0x3d9fe08c	0.07806501
186	0xbd782a66	-0.06058731
187	0xbc9cd9ec	-0.019146882
188	0xbe0e6383	-0.13905148
189	0xbd9c28b2	-0.076249495
190	0xbdb97266	-0.09055023
191	0x3c93f469	0.01806088
192	0xbd6d0857	-0.05786928
193	0x3d860d52	0.065455094
194	0x3d4a305b	0.04936252
195	0x3d56edb6	0.052472793
196	0x3c812b44	0.015767701
197	0x3d335e2e	0.04379099
198	0xbbf99c1e	-0.0076174876
199	0x3d834fe3	0.064117216
200	0x3d2d5cac	0.042324707
201	0xbdce6f20	-0.10079789
202	0x3d7485bd	0.059697855
203	0xbcf7fe93	-0.030272758
204	0xbd4c6876	-0.04990431
205	0xbdec872f	-0.11549222
206	0xbe053337	-0.13007818
207	0xbd1e8f9b	-0.03871117
208	0xbd548948	-0.051888734
209	0x3ccd0605	0.025027284
210	0xbdf43074	-0.11923304
211	0xbcbfe156	-0.023422878
212	0xbd6ff248	-0.058580667
213	0x3d8e4771	0.0694722
214	0x3dad5c3a	0.084648564
215	0x3b859619	0.004076731
216	0xbd094b80	-0.033519268
217	0xbd871aa4	-0.06596878
218	0x3d5ab318	0.053393453
219	0xbda188b3	-0.078874014
220	0xbc4c775d	-0.01247963
221	0x3cea9b4b	0.028638503
222	0xbd9340b7	-0.07190078
223	0x3a05f692	0.0005110289
224	0xbd886b8c	-0.06661138
225	0xbe181c9f	-0.14854668
226	0xbd5a7339	-0.05333254
227	0x3d63481b	0.055488687
228	0xbd2fc2d1	-0.0429104
229	0x3c5a844c	0.013337206
230	0xbde0d27a	-0.10977645
231	0xbc9a1d5a	-0.018812824
232	0xbd6b065f	-0.057379123
233	0xbd037b45	-0.03209998
234	0xbdaf130c	-0.08548555
235	0x3cba01ed	0.022705996
236	0xbd678574	-0.056523755
237	0xbd20adf2	-0.039228387
238	0xbd42a204	-0.04751779
239	0xbd984807	-0.07435613
240	0x3d1dd47a	0.03853271
241	0x3c45f0c4	0.012081329
242	0xbcff5469	-0.03116818
243	0xbdaaf567	-0.08347588
244	0x3d2a750e	0.04161554
245	0x3da833ae	0.08212982
246	0x3bba4fc8	0.00568578
247	0x3d5993e8	0.05311957
248	0x3d4cdafc	0.050013527
249	0x3d84860a	0.064708784
250	0xbddfca6c	-0.10927281
251	0xbd7799ad	-0.06044929
252	0xbe364ddd	-0.1780314
253	0xbd5daee9	-0.054121885
254	0xbb151890	-0.0022750236
255	0x3d85b460	0.065285444

network_body._body_endoder.seq_layers.2.weight f4 [256, 256]
0	0xbe0a8fa2	-0.13531354
1	0x3d0fe35b	0.035128932
2	0xbcb9063b	-0.022585979
3	0xbc86bd22	-0.016447607
4	0x3c957876	0.018245917
5	0xbcd22954	-0.025654472
6	0xbdab7fcb	-0.08373984
7	0x3dd5984c	0.10429439
8	0x3d8033e8	0.062599
9	0xbe16492e	-0.14676353
10	0xbd7f9286	-0.062395595
11	0x3d051144	0.03248717
12	0xbdb1a36d	-0.08673749
13	0x3d78028e	0.06054931
14	0xbb63daf3	-0.0034767955
15	0xbd633a1e	-0.055475347
16	0xbdfe4be4	-0.12416819
17	0xbd03739b	-0.03209267
18	0xbd847c34	-0.06469002
19	0xbda1e0f5	-0.07904235
20	0xbe494fc8	-0.1965934
21	0xbd4ad5b1	-0.0495202
22	0xbd0c9c31	-0.034328643
23	0x3be1cdd4	0.0068909917
24	0xbdb79392	-0.08963694
25	0x3dc5ccf1	0.0965823
26	0xbc45f0f7	-0.012081376
27	0x3bc87bc6	0.0061182706
28	0xbd90b7c8	-0.070663035
29	0xbcac430e	-0.021028068
30	0x3d8a21d9	0.06744737
31	0xbddfc4de	-0.10926221
32	0xbde90405	-0.1137772
33	0xbc4f6c7a	-0.01266014
34	0xbd34a906	-0.044106506
35	0xbd20a9ec	-0.03922455
36	0x3d451e37	0.04812452
37	0xbe095790	-0.13412309
38	0xbd63c9a9	-0.05561224
39	0x3d322215	0.043489534
40	0xbd674869	-0.05646554
41	0x3d1bdadb	0.038050514
42	0x3d8cc7b6	0.06874029
43	0xbdf907ad	-0.12159667
44	0xbe2888f4	-0.16458493
45	0x3cc6db1f	0.024274407
46	0xbe1a25d2	-0.1505349
47	0xbdb6a71f	-0.089185946
48	0xbc441750	-0.011968449
49	0xbe01ca8a	-0.12674919
50	0xbd46a7de	-0.048499934
51	0xbd3c912d	-0.046036888
52	0x3d868b6f	0.065695636
53	0x3d9c43ba	0.07630105
54	0xbd1cdd52	-0.038297005
55	0xb9616b7e	-0.00021497716
56	0x3db87fa3	0.0900872
57	0xbd98b77b	-0.07456871
58	0xbc53452a	-0.012894908
59	0xbdb338de	-0.08751081
60	0x3c84bec8	0.016204253
61	0xbd031d45	-0.032010335
62	0xbdb53933	-0.088488005
63	0xbce3fc93	-0.027830398
64	0x3dab1677	0.08353894
65	0x3cfcdb83	0.03086639
66	0xbdfe4638	-0.12415737
67	0xbc9f08bc	-0.019413345
68	0xbd1f2bf3	-0.038860273
69	0xbdc1dbd3	-0.09465756
70	0xbda1a3d5	-0.078925766
71	0x3e1f5af0	0.15562034
72	0x3ccf744a	0.025324006
73	0x3ddc1dd8	0.1074788
74	0x3e3942d8	0.18091905
75	0xbc4b7db5	-0.012420108
76	0xbdb74df9	-0.08950419
77	0x3c11ffdc	0.008911099
78	0xbc35193a	-0.011053378
79	0xbddb3ec0	-0.10705328
80	0xbbc2e2ae	-0.0059474325
81	0xbd917c9f	-0.07103848
82	0xbd6349b0	-0.055490196
83	0x3db9953f	0.090616696
84	0xbdf5d3c7	-0.12003284
85	0xbcc18dae	-0.023627128
86	0xbc7bdc75	-0.015372385
87	0xbd7b9199	-0.06141815
88	0x3ccc3792	0.024928842
89	0x3cd59038	0.026069745
90	0x3d1f7b0a	0.0389357
91	0xbe16119a	-0.14655152
92	0x3d66c350	0.05633861
93	0xbcda179e	-0.02662259
94	0x3e0040f4	0.12524778
95	0xbda9a922	-0.08284213
96	0xbd42d12e	-0.04756277
97	0x3cb83fc8	0.02249135
98	0xbd7e5035	-0.06208821
99	0xbdc2c7ef	-0.095107906
100	0xbd0f1efb	-0.034941655
101	0x3c277397	0.01022043
102	0xbdcf1a24	-0.10112408
103	0x3c96b7e9	0.018398242
104	0xbcd34807	-0.025791181
105	0xbdaeb432	-0.08530463
106	0xbd05635a	-0.032565452
107	0xbd8fd88f	-0.07023727
108	0xbccde3d8	-0.025133058
109	0x3d9a9649	0.07548196
110	0x3b847117	0.0040418017
111	0xbd5f25fe	-0.05447959
112	0xbe28e0f9	-0.1649207
113	0x3d2aaed5	0.04167064
114	0x3d9baa87	0.07600885
115	0x3d63e837	0.05564138
116	0xbd4522fa	-0.04812906
117	0xbbdcf188	-0.00674266
118	0xbd0b1cd6	-0.033963047
119	0x3d32c1ad	0.043641735
120	0xbd90a137	-0.07061999
121	0xbd6966b1	-0.0569827
122	0xbda32c40	-0.079674244
123	0xbd2c29fe	-0.042032234
124	0xbca1656b	-0.01970168
125	0x3ceb8245	0.02874864
126	0xbcba02d8	-0.022706434
127	0x3b0e08a7	0.0021672638
128	0xbd4415b9	-0.04787228
129	0x3cc26188	0.023728147
130	0x3e01235f	0.12611149
131	0x3b3ce543	0.0028823174
132	0xbd194fb9	-0.037429545
133	0xbe055f37	-0.13024603
134	0xbcec79b6	-0.02886663
135	0xbb4b5619	-0.003102666
136	0xbd880592	-0.066416875
137	0xbaf0694b	-0.0018341927
138	0x3c9b55cd	0.018961811
139	0xbc9c8579	-0.019106613
140	0x3e05e399	0.13075103
141	0x3c4baac3	0.0124308495
142	0x3dfb5546	0.12272124
143	0xbd3fcd39	-0.046826575
144	0xbdc52091	-0.09625352
145	0xbdca12d3	-0.09866872
146	0xbdc47613	-0.09592833
147	0xbbc9a7a4	-0.0061540175
148	0x3c0ada58	0.008474909
149	0xbb9c0c1d	-0.004762186
150	0xbd554e84	-0.05207683
151	0xbd8a5bf8	-0.06755823
152	0x3d2f37fa	0.042777993
153	0xbdbe8a1a	-0.093036845
154	0x3d3f64bb	0.046726923
155	0x3d81bcaf	0.06334817
156	0x3dc160da	0.09442301
157	0x3d944082	0.072388664
158	0xbc3e083b	-0.011598642
159	0xbbf9a01f	-0.007617965
160	0xbd88336d	-0.06650434
161	0x3d49cf9b	0.049270254
162	0xbda8afd9	-0.08236665
163	0xbdb3ec86	-0.08785348
164	0xbd8f4b99	-0.06996841
165	0xbcf18a31	-0.02948484
166	0x3d9ec410	0.0775224
167	0xbdc9c198	-0.09851378
168	0x3db36faf	0.08761536
169	0x3d7c87d0	0.06165296
170	0xbe1810c6	-0.14850149
171	0xbe001cb0	-0.12510943
172	0x3d21fecf	0.039549645
173	0xbd32d470	-0.043659627
174	0x3ccd6a5a	0.025075126
175	0x3d9e02c1	0.07715369
176	0xbdcdd984	-0.100512534
177	0x3d8945a9	0.0670274
178	0x3d081a79	0.03322837
179	0x3cfc95de	0.030833181
180	0xbc90e8b9	-0.017689096
181	0xbe47c1e9	-0.19507565
182	0xbc18b468	-0.009320356
183	0xbdace5c7	-0.08442264
184	0xbde700a7	-0.11279421
185	0xbd4e470f	-0.050360736
186	0xbd93cdd2	-0.072169915
187	0xbd81aff8	-0.063323915
188	0xbbe7493c	-0.0070582908
189	0x3d16af8a	0.0367885
190	0xbcbf757a	-0.023371447
191	0xbdb1cf73	-0.08682146
192	0x3d638917	0.05555066
193	0xbdf5e7bf	-0.12007093
194	0x3e1695a2	0.14705518
195	0xbc042867	-0.008066273
196	0x3d4a05e8	0.04932204
197	0x3d010d63	0.031506907
198	0x3b55e1f3	0.0032635897
199	0x3e3484d4	0.17628795
200	0xbc2e1048	-0.010623999
201	0xbdd89927	-0.105760865
202	0x3dc3a0b8	0.09552139
203	0xbd6cb1b6	-0.057786666
204	0xbe34862a	-0.17629305
205	0xbd09adcf	-0.033613022
206	0xbdf24b64	-0.11830786
207	0xbd619625	-0.05507483
208	0x3d0738ad	0.033013035
209	0xbcb7a982	-0.022419695
210	0x3dc2e1bc	0.09515712
211	0x3dbb732a	0.09152825
212	0x3bcb71ac	0.006208619
213	0x3da67b77	0.08129018
214	0x3dbdac10	0.09261334
215	0xbd90088c	-0.0703288
216	0xbc0cb70f	-0.008588566
217	0xbd9d1c03	-0.076713584
218	0xbbad4b0e	-0.005288488
219	0x3d82b429	0.06382019
220	0xbd1c7460	-0.03819692
221	0x3e302dcc	0.1720497
222	0x3c99f904	0.018795498
223	0xbd34a2b3	-0.044100475
224	0xbe3ab81a	-0.18234292
225	0xbdd80fa7	-0.105498604
226	0x3d09a1ba	0.0336015
227	0x3c9613cc	0.018319987
228	0xbd077f70	-0.03308052
229	0x3d2e36f3	0.042532872
230	0x3df485ef	0.11939608
231	0xbe479651	-0.19490935
232	0xbd5891a0	-0.052873254
233	0x3c211f13	0.009834069
234	0xbd9ec418	-0.07752246
235	0xbd307359	-0.043078754
236	0x3de1a2b0	0.11017358
237	0x3d80e81b	0.062942706
238	0x3d154986	0.03644707
239	0x3d057150	0.032578766
240	0x3df808b1	0.12111033
241	0x3d0e960c	0.034811065
242	0x3dd0f700	0.102033615
243	0xbd6786c4	-0.056525007
244	0xbd306be4	-0.043071643
245	0xbd987d49	-0.07445771
246	0xbe424b68	-0.18974078
247	0x3cbbcb6a	0.022924144
248	0xbb995b9e	-0.004680111
249	0xbdc3187b	-0.09526154
250	0xbc06bc45	-0.008223598
251	0x3c22c971	0.009935723
252	0xbd1fc7f2	-0.039009042
253	0xbd1333ef	-0.0359382
254	0x3c947bca	0.018125433
255	0xba621d9b	-0.00086256274

network_body._body_endoder.seq_layers.2.bias f4 [256]
0	0xbbb72052	-0.0055885697
1	0xbd6a9a7b	-0.05727623
2	0x37b5c6ad	2.1669397e-05
3	0xbc8239b0	-0.015896648
4	0xbd019e3a	-0.031645037
5	0x3c8c3a95	0.017117778
6	0x3c93fb53	0.018064177
7	0xbdf3b409	-0.11899573
8	0xbc3835fb	-0.011243339
9	0xbb740260	-0.003723286
10	0xbccc48f5	-0.024937132
11	0xbd2cd3cb	-0.04219417
12	0xbc50bfe9	-0.012741067
13	0xbdb4ff12	-0.08837713
14	0xbd80da72	-0.06291665
15	0xbdeda21b	-0.11603185
16	0x388be11b	6.669966e-05
17	0xbd05da81	-0.032679085
18	0xbcaf54dc	-0.021402769
19	0xbca64391	-0.02029589
20	0x3c06db4e	0.008230997
21	0xbd55d379	-0.05220363
22	0xbda0a079	-0.07843108
23	0xbd37fc08	-0.04491809
24	0xbdbc4c15	-0.09194199
25	0xbd46453c	-0.04840587
26	0xbdd13a6e	-0.10216223
27	0xbd717319	-0.058947656
28	0xbdaefda2	-0.0854447
29	0xbd960fbc	-0.0732722
30	0xbd02155b	-0.031758647
31	0xbca34a74	-0.019932963
32	0xbd21f0f8	-0.039536446
33	0xbd96e080	-0.07367039
34	0x3bceb520	0.006308213
35	0x3c9d7f88	0.01922585
36	0x3b9602b1	0.0045779576
37	0xbd807efe	-0.06274222
38	0xbae2ef42	-0.0017313736
39	0xbd5103d8	-0.051029056
40	0xbd1dc4f2	-0.0385179
41	0xbda15b97	-0.078787975
42	0xbd3a795a	-0.045525886
43	0x3d44541c	0.047931775
44	0xbd288e94	-0.041151598
45	0xbc493116	-0.012279769
46	0xbd254972	-0.040353246
47	0x3d872747	0.065992884
48	0xbc7147a4	-0.014726553
49	0xbb41dbd8	-0.00295805
50	0xbd9daea7	-0.07699328
51	0xbd15a465	-0.036533732
52	0xbc90ac5d	-0.017660314
53	0xbdc66ff8	-0.09689325
54	0x3cc752a1	0.024331393
55	0xbd1f345a	-0.038868286
56	0xbd710b45	-0.058848638
57	0xbb822cf1	-0.0039726426
58	0xbdbb284e	-0.09138547
59	0x3d13667f	0.03598642
60	0x3be123a3	0.0068707033
61	0xbd01a991	-0.03165585
62	0xbd1506cc	-0.036383435
63	0xbd7f24d4	-0.06229098
64	0xbd16f13d	-0.036851157
65	0xbd9e2712	-0.07722296
66	0xbcc6184b	-0.024181506
67	0x3bcaed23	0.0061928197
68	0xbd81e6bc	-0.06342837
69	0xbc08d440	-0.008351386
70	0x3d2131a0	0.039353967
71	0xbd2d72dd	-0.04234587
72	0x3c4032ca	0.011730859
73	0xbcc5ffa9	-0.02416976
74	0xbdc3d98d	-0.09562979
75	0xbd8345eb	-0.0640982
76	0xbd4551bf	-0.048173662
77	0xbd28b40d	-0.041187335
78	0xbd67ed2f	-0.05662268
79	0x3bbee0e7	0.0058251503
80	0xbd0dc4ca	-0.0346115
81	0xbd2ec201	-0.042665485
82	0xbcb5c6f7	-0.0221896
83	0xbd8f92e3	-0.07010438
84	0xbcd23ef4	-0.025664784
85	0xbd8e1599	-0.06937713
86	0x3d90c078	0.070679605
87	0xbc00eceb	-0.007868986
88	0xbbba3241	-0.0056822603
89	0x3c0895d3	0.008336502
90	0xbc089aae	-0.00833766
91	0xbd80c13f	-0.06286859
92	0xbd1b3692	-0.03789384
93	0xbd4339db	-0.047662597
94	0xbdd20cab	-0.102563225
95	0xbd1d14e8	-0.038350016
96	0xbd3e642c	-0.04648225
97	0xbd2ae933	-0.041726302
98	0xbc8f005c	-0.017456226
99	0xbd6c1d6e	-0.057645254
100	0xbbdcb943	-0.006735952
101	0xbbbb585c	-0.0057173204
102	0xbd1989a8	-0.037484795
103	0xbd8fee15	-0.070278324
104	0xbd45bd8d	-0.048276473
105	0xbd5982e7	-0.053103354
106	0xbd23ec8d	-0.040020514
107	0xbc69d591	-0.01427211
108	0xbbdb1ea7	-0.0066870037
109	0xbc9d38e1	-0.019192161
110	0x3c186c5b	0.009303178
111	0xbd109e19	-0.035307024
112	0xbd121065	-0.035660166
113	0xbd52c37a	-0.051455952
114	0x3cad3cfd	0.021147246
115	0x3ba7c0a7	0.0051194015
116	0xbd71b3c4	-0.05900933
117	0x3c03cc6b	0.0080443425
118	0xbd277ef0	-0.04089254
119	0xbd8c140a	-0.0683976
120	0xbd3982eb	-0.04529087
121	0xbc886122	-0.016647879
122	0xbcccd31e	-0.025003012
123	0x3d863721	0.06553484
124	0x3d25e8ab	0.040505093
125	0x3d634d96	0.055493914
126	0x3c101477	0.008793942
127	0xbd93775b	-0.072004996
128	0x3d76ecd1	0.06028444
129	0xbd4f73bd	-0.050647486
130	0xbd22c87d	-0.03974198
131	0x3d59cd75	0.053174455
132	0xbd7f5043	-0.062332403
133	0xbbeab4a3	-0.007162647
134	0xbd359bcd	-0.044338036
135	0x3c91d136	0.017799955
136	0x3bccb7dd	0.006247504
137	0xbd0cdac3	-0.034388315
138	0xbcde7a27	-0.027157856
139	0xbcb4f155	-0.022087732
140	0x3c1e33fd	0.00965595
141	0x3c1c0347	0.009522266
142	0xbcb6dde1	-0.022322597
143	0xbd30afd4	-0.043136433
144	0xbd02f61e	-0.031972997
145	0xbd6406e6	-0.05567064
146	0xbd363657	-0.044485416
147	0xbdadd141	-0.08487178
148	0xbd6b1d3f	-0.057400938
149	0xbd00583c	-0.031334147
150	0xbcf44c4d	-0.02982154
151	0xbd573bcf	-0.052547272
152	0xbd144e24	-0.036207333
153	0xbd05a04c	-0.032623574
154	0xbd59abe6	-0.05314245
155	0xbd25a64e	-0.040441804
156	0xbcbebd3e	-0.023283597
157	0xbd5ae6aa	-0.053442635
158	0xbc1e9257	-0.009678445
159	0xbd5246e5	-0.05133714
160	0x3d015703	0.03157712
161	0xbd8b4908	-0.06801039
162	0x3aa83f7b	0.0012836301
163	0xbd270002	-0.04077149
164	0xbcb8b8f2	-0.022549126
165	0xbc04b7a5	-0.008100425
166	0x3cbfbee0	0.023406446
167	0xbc2bc525	-0.010484015
168	0xbcec8abc	-0.028874747
169	0xbbd7c7c2	-0.0065850923
170	0xbe068411	-0.13136317
171	0xbdd613b8	-0.1045298
172	0xbca6b6d0	-0.020350844
173	0xbce97af7	-0.028501017
174	0xbc87ce71	-0.016577931
175	0xbd7d3082	-0.06181384
176	0xbd8e7953	-0.069567345
177	0xbdc1a0ba	-0.09454484
178	0xbd3b622b	-0.045747917
179	0xbd1a8d9f	-0.037732717
180	0xbcb280c3	-0.021789914
181	0x3d934855	0.071915306
182	0xbd059132	-0.032609172
183	0xbdc440be	-0.09582661
184	0xbd5076b6	-0.05089446
185	0xbda616c1	-0.08109809
186	0xbd8743c7	-0.066047244
187	0xbcb43a18	-0.022000358
188	0x3bb5bb55	0.0055460134
189	0xbda78c61	-0.08181072
190	0x3cceb420	0.025232375
191	0xbdbef8dd	-0.09324811
192	0xbda82664	-0.082104474
193	0xbd598152	-0.053101845
194	0x3ba88bfc	0.0051436406
195	0x3bb575db	0.005537731
196	0xbcebe826	-0.02879722
197	0xbd627f74	-0.05529733
198	0xbd8e6b63	-0.06954076
199	0xbd827acb	-0.06371077
200	0xbda39c17	-0.07988756
201	0xbd5f9144	-0.054581895
202	0xbc5a5628	-0.013326205
203	0xbb17da45	-0.002317087
204	0xbd766aad	-0.060160328
205	0x3be95331	0.007120513
206	0xbd06b843	-0.03289057
207	0xbd1a99ba	-0.03774426
208	0x3d17e7d0	0.037086308
209	0xbd7bc4c1	-0.061466936
210	0xbd884a27	-0.066547684
211	0x3d15eb2d	0.036601234
212	0xbd384ed1	-0.04499704
213	0xbd1a5ff1	-0.037689153
214	0xbd305fd9	-0.043060157
215	0xbc47a355	-0.0121849375
216	0xbd64e023	-0.055877816
217	0xbd458fb6	-0.048232757
218	0xbabe84c3	-0.0014535416
219	0xbd5964a4	-0.053074494
220	0xbc493062	-0.012279602
221	0xbda2a266	-0.07941131
222	0xbd55f04d	-0.05223112
223	0xbd901bf2	-0.0703658
224	0xbd2b56cc	-0.041830823
225	0xbd4e45bd	-0.050359476
226	0xbd5da0c2	-0.05410839
227	0xbdab21a6	-0.08356027
228	0x3b9e33d9	0.004827958
229	0x3cb7ec74	0.022451617
230	0xbce7b165	-0.02828283
231	0xb9c0cdcc	-0.00036774424
232	0xbcda94e8	-0.026682332
233	0xbb7eaac5	-0.003885911
234	0xbc0e9284	-0.008701924
235	0xbd3b4bf9	-0.04572675
236	0xbb44304b	-0.0029936011
237	0x3c541cc2	0.0129463095
238	0xbdef1f35	-0.11675874
239	0xbc4f67e7	-0.01265905
240	0xbd518ce5	-0.051159758
241	0x3b18c363	0.002330982
242	0x3d949db5	0.07256643
243	0xbd3534f4	-0.044239953
244	0xbd028695	-0.03186663
245	0xbce7c663	-0.02829284
246	0xbcb6db3b	-0.022321334
247	0xbb7f1b41	-0.0038926157
248	0xbcf0e479	-0.02940582
249	0xbd1d47f6	-0.038398705
250	0xbca7f5f9	-0.020503031
251	0xbd25c4e0	-0.040470958
252	0xbd4e5b3a	-0.05037997
253	0xbd850aef	-0.06496226
254	0xbd8795d4	-0.06620374
255	0xbdb2daab	-0.08733114

network_body._body_endoder.seq_layers.4.weight f4 [256, 256]
0	0xbc55e4e9	-0.013055065
1	0xbca79214	-0.020455398
2	0x3d984e28	0.07436782
3	0x3d5853a2	0.052814133
4	0xbc85dd16	-0.016340774
5	0x39dbb858	0.00041908282
6	0x3bb0e57e	0.0053984514
7	0x3d972a52	0.07381119
8	0x3d13224f	0.03592139
9	0x3c2d1514	0.010564107
10	0xbbdb6337	-0.006695177
11	0x3dd3f2f2	0.103490725
12	0x3d5de6a7	0.054175045
13	0xbddd9fec	-0.10821518
14	0xbd691ebd	-0.05691408
15	0xbd8e8cd2	-0.06960453
16	0x3db3661f	0.087597124
17	0xbce6384e	-0.02810302
18	0x3d24e7ec	0.04026024
19	0xbd84b1c2	-0.06479217
20	0xbd2903a8	-0.041263252
21	0xbd93d145	-0.07217649
22	0x3d819631	0.06327475
23	0x3d012c35	0.0315363
24	0xbd2b2a32	-0.041788287
25	0xbb03ee0b	-0.0020130898
26	0xbd694dd5	-0.056958992
27	0x3db222d6	0.08698051
28	0x3db5bd21	0.08873964
29	0xbd813fde	-0.0631101
30	0xbce49445	-0.027902732
31	0xbd8e6b69	-0.069540806
32	0xbe081a8c	-0.13291377
33	0xbca9baaf	-0.0207189
34	0x3d7634ad	0.06010883
35	0xbc454fec	-0.012042981
36	0xbbd6d11d	-0.00655569
37	0x3dd9ed9b	0.10641023
38	0x3cb9ebd6	0.022695463
39	0xbcc6366a	-0.024195869
40	0xbb9c9fa8	-0.0047797747
41	0xbda63849	-0.08116204
42	0xbb98d961	-0.0046645855
43	0xbc5bf39d	-0.013424781
44	0x3d10f7fe	0.035392754
45	0xbcec0896	-0.028812688
46	0xbccb3732	-0.024806593
47	0xbda3d3d9	-0.07999391
48	0x3d7574ed	0.059925962
49	0xbe14e832	-0.145417
50	0x3df17cc4	0.11791375
51	0xbd471693	-0.048605513
52	0x3cb5013a	0.022095311
53	0xbdebf301	-0.11520959
54	0x3ded4b8f	0.11586677
55	0xbdfdb767	-0.12388497
56	0x3d0f765b	0.035024982
57	0xbd134989	-0.0359588
58	0xbe1ed9a9	-0.15512718
59	0xbca75488	-0.02042605
60	0x3c0b6e43	0.008510175
61	0x3dc5de24	0.096615106
62	0x3d05692a	0.032570995
63	0xbd0593f9	-0.03261182
64	0x3d46635b	0.048434597
65	0x3c93a0ef	0.018021075
66	0x3c80bbc6	0.015714537
67	0xbc2f6880	-0.010706067
68	0x3b31fae2	0.0027157594
69	0x3d6732c6	0.056444906
70	0xbbeb2628	-0.0071761794
71	0xbd4f60ac	-0.050629303
72	0xbdbecf98	-0.09316939
73	0xbd3823c4	-0.044955984
74	0x3d38c3c5	0.045108575
75	0xbda336af	-0.079694144
76	0xbc788164	-0.015167568
77	0xbd450e2a	-0.04810921
78	0x3d4f0ac5	0.05054738
79	0xbd9d0a10	-0.07667935
80	0x3d2dfd34	0.0424778
81	0xbd8d4f35	-0.06899873
82	0xbc4bbda5	-0.0124353515
83	0x3a9224a9	0.0011149842
84	0x3c73add1	0.014872984
85	0x3d826749	0.06367356
86	0xbdb3c93c	-0.08778617
87	0xbca79cfa	-0.020460594
88	0x3ad4cf99	0.0016236185
89	0xbe06a540	-0.13148975
90	0x3ce7fdcc	0.028319262
91	0x3c422ba8	0.011851229
92	0x3d4fe8bb	0.05075906
93	0x3e0369e3	0.12833361
94	0xbcaba7d6	-0.020954054
95	0xbd41269b	-0.047155958
96	0xbcd0b01e	-0.025474604
97	0x3d69dc8e	0.057095103
98	0x3cd00e5e	0.025397476
99	0xbd7626f9	-0.06009576
100	0xbd3bd763	-0.045859706
101	0x3d88febc	0.06689212
102	0xbe3026c0	-0.17202282
103	0x399b5afe	0.00029631698
104	0xbde4e760	-0.11176944
105	0xbde1c0ff	-0.11023139
106	0xbcdcb820	-0.026943266
107	0xbd324fa8	-0.043532997
108	0x3d72a96b	0.0592436
109	0xbc5d1a11	-0.013494984
110	0xbd9926ca	-0.074781016
111	0xbcb89036	-0.022529703
112	0xbdbcbfea	-0.09216292
113	0x3da24133	0.07922592
114	0xbdea540f	-0.11441814
115	0x3c279819	0.010229134
116	0x3c047fd8	0.008087121
117	0xbdc97d2c	-0.09838328
118	0xbe168fc4	-0.1470328
119	0x3cd553cc	0.026040934
120	0xbd2f7737	-0.0428383
121	0xbc7a1518	-0.015263818
122	0xba2f51ae	-0.00066878914
123	0x3d72dd25	0.05929293
124	0xbd2544c2	-0.040348776
125	0xbb4b85a9	-0.003105501
126	0xbc430c5e	-0.011904804
127	0xbaa995b9	-0.0012938298
128	0xbd88885f	-0.06666636
129	0xbcd4fd38	-0.02599965
130	0x3cfe7e80	0.03106618
131	0xbd619f58	-0.055083603
132	0xbb531232	-0.003220689
133	0x3d63113c	0.055436358
134	0xbd456582	-0.04819251
135	0xbd6a164a	-0.057150163
136	0x3c114de0	0.0088686645
137	0xbd19c09b	-0.0375372
138	0x3de09578	0.10966009
139	0x3c4e5a25	0.012594734
140	0x3bb7be46	0.005607399
141	0x3d80612c	0.06268534
142	0x3c32b3bb	0.010907109
143	0xbcf75840	-0.030193448
144	0xbcd24fd2	-0.025672827
145	0xbaf40bda	-0.0018619255
146	0xba7d4aaa	-0.000966231
147	0x3d9aa1b6	0.07550375
148	0xbd9a966d	-0.07548223
149	0x3e017bdd	0.12644906
150	0x3d1fc2b7	0.039004054
151	0xbdc7ce6e	-0.0975617
152	0xbcbda554	-0.023150124
153	0xbd8f3cef	-0.06994044
154	0xbc678eaf	-0.0141331395
155	0xbe0c4c9a	-0.13701096
156	0x3bfeb727	0.0077732983
157	0xbb0f0a43	-0.0021826185
158	0xbd48a1ee	-0.048982553
159	0x3d36f16d	0.044663835
160	0xbdadb55f	-0.084818594
161	0x3d1342aa	0.035952248
162	0xbcfe0c35	-0.03101168
163	0x3c9b9938	0.018993959
164	0xbd948906	-0.07252698
165	0x3cd1ef77	0.025626881
166	0x3e13c853	0.14431886
167	0xbcd40853	-0.025882876
168	0xbd819802	-0.06327821
169	0x3b92fa6c	0.004485419
170	0x3cff85b4	0.031191684
171	0x3e2bc04c	0.16772574
172	0xbd99a3de	-0.07501958
173	0xbd99f7c1	-0.075179584
174	0x3de36dad	0.11104903
175	0xbcc86887	-0.024463905
176	0xbdaffd22	-0.08593203
177	0xbe0a2a8b	-0.13492791
178	0xbcc003a9	-0.023439245
179	0xbddf47f2	-0.10902394
180	0xbd28f7b8	-0.041251868
181	0x3cec8717	0.02887301
182	0xbcc5ca2f	-0.02414426
183	0xbd9f63fc	-0.077827424
184	0x3d120240	0.035646677
185	0xbdc01d0f	-0.093805425
186	0xbd3948a9	-0.04523531
187	0xbbf845b6	-0.0075766696
188	0xbb11061d	-0.0022128888
189	0x3d9a41e2	0.075320974
190	0x3950d16c	0.00019914442
191	0x3dee4c29	0.1163562
192	0xbdebc3e1	-0.1151197
193	0xbd56c686	-0.05243542
194	0x3d7decad	0.06199329
195	0x3b8c114f	0.0042745243
196	0xbe211894	-0.15732032
197	0xbd03cf5d	-0.03218018
198	0xbc57f3ec	-0.013180714
199	0xbd5afa54	-0.053461388
200	0x3d9ad142	0.07559444
201	0xbb75e7b7	-0.0037522146
202	0x3d6586bd	0.0560367
203	0xbd9c8577	-0.07642644
204	0xbd0ded44	-0.034650102
205	0x3c44de20	0.012015849
206	0x3d10ae3d	0.035322417
207	0xbc85ad90	-0.016318113
208	0xbd9ac686	-0.075573966
209	0xbe3d7c4a	-0.18504444
210	0x3e2f7c46	0.1713725
211	0xbc8c29de	-0.017109808
212	0xbbf52283	-0.0074809208
213	0x3d4934a3	0.049122464
214	0x3d98a52c	0.07453379
215	0x3e1d5533	0.15364532
216	0x3c0f07ad	0.008729857
217	0x3bd48183	0.0064851656
218	0xbd6a8c41	-0.057262663
219	0x3b83a51c	0.0040174853
220	0x3e5f6531	0.21815945
221	0x3d86fcca	0.065911844
222	0xbd17ddb6	-0.037076674
223	0x3cb88462	0.022524063
224	0xbd236fb2	-0.039901443
225	0xbc7873d5	-0.015164335
226	0xbd0fbfb5	-0.035094935
227	0xbcea6be9	-0.028615909
228	0xbd3723f2	-0.044712014
229	0xbd428aad	-0.047495533
230	0xbde06f6b	-0.10958751
231	0xbd971d24	-0.07378605
232	0x3bc47a4c	0.0059960242
233	0xbd3cb7fa	-0.04607389
234	0x3d0e650f	0.034764346
235	0xbcf3d787	-0.029765857
236	0xbc5bd8de	-0.013418404
237	0xbd1ecb8d	-0.03876834
238	0x3da03c24	0.07823971
239	0xbbb721db	-0.0055887527
240	0x3d29aa7c	0.041422352
241	0xbc8bf8d5	-0.017086426
242	0x3cd09cc1	0.025465371
243	0xbb0e1404	-0.002167941
244	0xbc9ef8aa	-0.019405682
245	0xbdd621e3	-0.10455682
246	0xbc890e68	-0.016730502
247	0xbdcb3e98	-0.09924048
248	0xbd9182a9	-0.071049996
249	0xbd16a435	-0.036777694
250	0x3d25b781	0.040458206
251	0xbd5fc675	-0.054632623
252	0xbc45c227	-0.012070215
253	0xbdc90f29	-0.09817345
254	0xbd0eaf0b	-0.034834903
255	0x3d73b380	0.059497356

network_body._body_endoder.seq_layers.4.bias f4 [256]
0	0xbc063c10	-0.008193031
1	0x3d0b33f4	0.033985093
2	0xbc08838a	-0.008332143
3	0x3c567d4e	0.013091398
4	0x3aeaa263	0.0017901178
5	0xbd209ce8	-0.039212137
6	0xbc7d3590	-0.015454665
7	0xbd6051ba	-0.05476544
8	0xbc024d31	-0.007952974
9	0xbba1175f	-0.004916116
10	0xbc99d364	-0.018777557
11	0xbc974074	-0.01846335
12	0xbcbb9449	-0.022897856
13	0xbcb14d1b	-0.021643212
14	0xbd0d752d	-0.034535576
15	0xbdc3797f	-0.09544658
16	0xba66d122	-0.0008804967
17	0xbc240175	-0.010010113
18	0xbd270331	-0.040774528
19	0xbbe5a49c	-0.0070081484
20	0xbd062739	-0.03275225
21	0xbc2ed7a9	-0.010671535
22	0xbbfcc37b	-0.007713733
23	0x3c785563	0.0151570765
24	0xbd410cf1	-0.047131483
25	0xbd4d33c4	-0.050098196
26	0x3cc1ec47	0.023672236
27	0xbc3e3673	-0.011609661
28	0xbb8b8364	-0.0042576063
29	0xbbf889e9	-0.0075847995
30	0x3cbe9c73	0.02326796
31	0xbca586b4	-0.020205833
32	0x3bd1b54e	0.006399787
33	0xbe0b7e96	-0.13622507
34	0xbc83bfc8	-0.01608266
35	0x3c5cff70	0.013488635
36	0xbb7128d2	-0.0036798012
37	0x3cb62a97	0.022237105
38	0x3c467a61	0.012114138
39	0xbde9b398	-0.11411208
40	0xbc5036f0	-0.012708411
41	0xbb8911df	-0.0041830386
42	0xbdd9d466	-0.10636215
43	0xbdec3f1e	-0.11535476
44	0x3ae714e9	0.0017630133
45	0x3c8f47cd	0.017490292
46	0xbd16ff3c	-0.036864504
47	0xbce2f19e	-0.027703103
48	0xbbd92725	-0.006626981
49	0xbd2b4bb3	-0.04182024
50	0xbdc62df4	-0.096767336
51	0xbde1ed25	-0.1103156
52	0x3b8dbb2a	0.00432529
53	0xba132155	-0.0005612572
54	0x3d083f9c	0.033263788
55	0x3baaab6e	0.0052084243
56	0x3b52a1ba	0.0032139854
57	0x3ba3b756	0.0049962206
58	0xbd343eff	-0.04400539
59	0xbce54f21	-0.027991833
60	0x3babf202	0.0052473554
61	0xbca6e04c	-0.020370625
62	0x3c7ee61d	0.015557793
63	0xbdcbe1a3	-0.09955146
64	0xbd1d5943	-0.038415205
65	0x3c8188f9	0.015812384
66	0x3c934cc1	0.017980935
67	0xbd81bc6b	-0.06334766
68	0xbcb2aa7f	-0.021809814
69	0xbd1d4a65	-0.038401026
70	0xbca1bf8c	-0.019744657
71	0xbbd3f551	-0.006468453
72	0x398107d7	0.00024610639
73	0xbdc97073	-0.09835901
74	0x3c55c2bb	0.013046916
75	0x3ca86bd3	0.020559227
76	0xba4a0a46	-0.00077072193
77	0x3ce1223e	0.027482148
78	0x3868e37a	5.5524964e-05
79	0xbd192732	-0.037390895
80	0x3cd4845b	0.025942018
81	0x3c3e0551	0.011597947
82	0xbbbad96a	-0.0057021873
83	0xbb93739c	-0.0044998657
84	0xbd83a40c	-0.06427774
85	0xbd112419	-0.035434816
86	0xbcfe28a7	-0.031025244
87	0xbcc74ce7	-0.024328662
88	0xbd8b7c73	-0.06810846
89	0xbd4a9f66	-0.04946842
90	0x3ce9a187	0.028519405
91	0x3c5d4dad	0.013507289
92	0xbb8fdc48	-0.0043902732
93	0xbdf27f86	-0.118407294
94	0xbc710896	-0.01471152
95	0xbc99fce4	-0.018797345
96	0xbdd059fe	-0.10173415
97	0x3cd786c0	0.026309371
98	0xbdd77809	-0.10520942
99	0xbc6b45a7	-0.014359868
100	0xbcc8f61e	-0.02453142
101	0xbd68f8e5	-0.05687799
102	0xbc3ca282	-0.011513354
103	0x3ba0b6b7	0.004904594
104	0xbca5dcca	-0.020246882
105	0xbd103aba	-0.035212256
106	0xbd7d68d3	-0.061867546
107	0xba9fc836	-0.0012190405
108	0xbc08168d	-0.008306158
109	0x3c9d9d03	0.019239908
110	0xbd05c7aa	-0.032661118
111	0xbc997041	-0.018730285
112	0xbde0e1a8	-0.109805405
113	0x3cff0966	0.031132411
114	0xbd045d52	-0.03231556
115	0xbcfe5d88	-0.031050459
116	0xbcf276b1	-0.029597612
117	0xbc7ac619	-0.015306019
118	0xbb2a1995	-0.002595519
119	0xbbec463d	-0.0072105215
120	0x3c3b4f5e	0.011432497
121	0x3cdc6a6c	0.026906215
122	0x3a48172c	0.00076328474
123	0xbd441f6d	-0.047881532
124	0x3cb9437b	0.022615185
125	0xbdfcddb7	-0.12346976
126	0xbd0dc668	-0.034613043
127	0x3bb1ead1	0.0054296036
128	0x3c44e8eb	0.012018423
129	0x3c232c88	0.009959348
130	0xbcbe2644	-0.023211606
131	0x3c9f2705	0.019427786
132	0xbca9361f	-0.02065569
133	0xbdda727a	-0.10666366
134	0xbdc96be7	-0.09835034
135	0xbc270d96	-0.01019611
136	0xbb90be1a	-0.004417193
137	0xbd92fdcf	-0.071773164
138	0x3aace21f	0.0013189948
139	0xbd90d367	-0.07071572
140	0xbd4af855	-0.049553234
141	0xbde1bbda	-0.11022158
142	0x3c9f1560	0.019419372
143	0xbccfcaab	-0.025365194
144	0xbc7a8e30	-0.015292689
145	0xbda87d80	-0.08227062
146	0x3bf5a445	0.007496389
147	0xbc6b861c	-0.014375236
148	0xbce2bb83	-0.027677303
149	0x3cfc03d9	0.030763553
150	0xbd462a17	-0.048379984
151	0xbbd86373	-0.006603652
152	0xbd5717f1	-0.052513067
153	0xbc9b1ec8	-0.018935576
154	0xb9df9eb5	-0.0004265212
155	0xba820593	-0.0009919874
156	0xbc9d79f7	-0.019223196
157	0x3bddca84	0.0067685265
158	0xbd1f177f	-0.038840767
159	0xbcdb12a1	-0.026742281
160	0xbc662d80	-0.014048934
161	0x3c28b8cf	0.010297968
162	0x3c8aa56a	0.016924579
163	0xbb8f307f	-0.004369795
164	0xbd8aa42f	-0.06769597
165	0xbd0cebaa	-0.034404434
166	0xbc8a5a9e	-0.016888913
167	0xbbf949fd	-0.007607697
168	0xbcafd3eb	-0.021463355
169	0x3b4c3d7f	0.0031164584
170	0x3c66b33b	0.014080818
171	0x3c9cbb1f	0.019132195
172	0xbcad9f1e	-0.021194037
173	0xbc8e38e0	-0.017361104
174	0xbce7986f	-0.028270928
175	0x3d041230	0.032243907
176	0xbd1bb647	-0.03801563
177	0x3ca457d3	0.02006141
178	0xbc2345ed	-0.009965402
179	0x3bc1066b	0.0058906577
180	0xbc985eae	-0.018599834
181	0xbcb3fba4	-0.021970578
182	0xbd6f21f1	-0.05838198
183	0xbd9f4e22	-0.077785745
184	0xbd1b06ca	-0.03784827
185	0xbc3f4acf	-0.011675551
186	0xbcec9b15	-0.028882543
187	0xbc8eebc5	-0.017446408
188	0x3c46cca2	0.012133749
189	0xbcc704b4	-0.024294235
190	0x3c32c030	0.010910079
191	0xbced38d4	-0.028957762
192	0xbd1958eb	-0.037438314
193	0xbc9c4215	-0.01907448
194	0x3beef54a	0.0072924243
195	0xbc5a5665	-0.013326262
196	0x3c64bcac	0.0139609985
197	0xbc28ad83	-0.010295275
198	0xbc7bf8a0	-0.015379101
199	0xbc8ca960	-0.017170608
200	0x3bcdb78a	0.006277983
201	0xbc26d16f	-0.010181769
202	0xba9f03a5	-0.0012131823
203	0xbccfb123	-0.02535302
204	0xbca38f0f	-0.019965677
205	0xbdf81d93	-0.12115016
206	0xbd066e47	-0.032820012
207	0xbe02db55	-0.12778981
208	0xbcebaaa9	-0.0287679
209	0xbd978612	-0.07398619
210	0x3cd4944d	0.025949622
211	0x3c3a68b7	0.011377505
212	0x3c1b25f6	0.0094695
213	0x39dab4c9	0.00041714896
214	0xbd3a77ce	-0.04552441
215	0x3d409b93	0.047023367
216	0x3cc8b469	0.024500089
217	0x3d020a51	0.03174812
218	0x3d05db51	0.03267986
219	0x3d567433	0.05235691
220	0xbd73d306	-0.05952742
221	0xbe171bd1	-0.14756705
222	0xbcf9db18	-0.03049998
223	0xbd075648	-0.03304127
224	0x3ba0f108	0.0049115457
225	0xbd48bd7f	-0.049008843
226	0xbc66eee9	-0.014095047
227	0xbd131653	-0.035909962
228	0xbd1b45a4	-0.03790821
229	0xbbc71f4c	-0.006076729
230	0x3a41ee54	0.00073978794
231	0xbcd1c440	-0.025606275
232	0xbc8b417e	-0.016999003
233	0xbc5beb6e	-0.01342283
234	0x3d6c8f6c	0.057753965
235	0xbd02c578	-0.031926602
236	0xbdc59a6c	-0.09648594
237	0x3bbc7c47	0.0057521197
238	0xbcf1ac2e	-0.029501047
239	0xbdc4e8da	-0.096147254
240	0xbdc9ea19	-0.09859104
241	0x3bd5b0e3	0.0065213307
242	0x39c6a3e8	0.00037887623
243	0xbc8f0c07	-0.01746179
244	0xbc131adb	-0.008978571
245	0xbce3822a	-0.027772028
246	0xbca728c7	-0.020405186
247	0x3c9fd66e	0.019511428
248	0xbce36876	-0.027759772
249	0xbd643574	-0.05571504
250	0xbada4a47	-0.0016654216
251	0xbd3555fd	-0.044271458
252	0xbc4da5a4	-0.012551699
253	0xba8a72d6	-0.0010562788
254	0xbe059d6b	-0.13048331
255	0xbba7acec	-0.0051170494

action_model._continuous_distribution.log_sigma f4 [1, 2]
0	0xbee1ddc3	-0.44114503
1	0xbef6d21c	-0.48207176

action_model._continuous_distribution.mu.weight f4 [2, 256]
0	0x3c21172d	0.009832186
1	0xba3813aa	-0.0007021973
2	0x3c2fcbd7	0.010729752
3	0x3b63ce9b	0.0034760598
4	0xb9928ade	-0.00027950754
5	0xba267403	-0.00063496846
6	0x3a9d1c16	0.001198652
7	0x3bd07c92	0.006362506
8	0xbab1908d	-0.0013547108
9	0xbb383a68	-0.0028110985
10	0x3a20fc0c	0.00061410735
11	0x3b524655	0.0032085378
12	0x3c097266	0.008389091
13	0xbaed21a8	-0.0018091695
14	0x3b8ce1a2	0.0042993585
15	0xbcabee8b	-0.02098777
16	0x3c2e7e5e	0.0106502455
17	0x3a18167f	0.0005801692
18	0x39246207	0.00015676777
19	0xbcaabd78	-0.020842299
20	0xbc4e9772	-0.01260935
21	0xba179c10	-0.0005783448
22	0x3969db64	0.00022302341
23	0xba6065fc	-0.0008560119
24	0xbb840144	-0.004028471
25	0x3c22a022	0.009925874
26	0xb93a2a5e	-0.00017754125
27	0x3bc7e0f6	0.0060998155
28	0x3c2c031a	0.010498786
29	0xbd714323	-0.058901917
30	0x3b43a68e	0.0029853913
31	0x3c693d2d	0.014235777
32	0x3b8aec64	0.0042396057
33	0x3c0bc9d0	0.008532003
34	0xba1567f5	-0.000569939
35	0xba71b370	-0.00092201587
36	0xba48708d	-0.0007646166
37	0xb9cf1e1c	-0.0003950455
38	0x3c082b21	0.008311064
39	0x3b8feba1	0.004392103
40	0x3c4ec588	0.012620337
41	0x3a13274f	0.00056134624
42	0x3df3ac59	0.11898107
43	0x3b974c32	0.0046172375
44	0x39a0092a	0.00030524406
45	0xb8cfdbb7	-9.911454e-05
46	0xbb9903fb	-0.004669664
47	0xb812db8a	-3.5013574e-05
48	0x39780349	0.00023652347
49	0x3c765b31	0.01503639
50	0x3c3e5152	0.011616068
51	0xba233651	-0.00062260503
52	0x3aa1bcd6	0.0012339603
53	0xba649708	-0.0008720015
54	0xbd86ef11	-0.06588567
55	0x3c68fb47	0.014220065
56	0xb96029d3	-0.00021377885
57	0xbbd3ac87	-0.006459776
58	0x3b8c65e4	0.0042846072
59	0xba9bb8ea	-0.001188067
60	0xb9672d7a	-0.00022046818
61	0xba6dd30e	-0.0009072282
62	0xbbb2670c	-0.005444413
63	0xbb7ab115	-0.0038252522
64	0x3b5ee914	0.0034013437
65	0x38eb138d	0.00011209315
66	0xbc08e6f5	-0.008355846
67	0x3c6c369d	0.014417318
68	0x39152700	0.00014224276
69	0xbbe0b48b	-0.00685746
70	0x3af2de36	0.0018529359
71	0xba1b967e	-0.0005935206
72	0xbba06da1	-0.0048958813
73	0xbcacc82d	-0.021091545
74	0x39c41b1b	0.00037404228
75	0x3908a421	0.00013031113
76	0x3bbff833	0.005858445
77	0xb9959aa0	-0.000285347
78	0x3c66c41c	0.014084842
79	0x3bd99c64	0.0066409577
80	0x39874306	0.00025799143
81	0x3a5addc8	0.0008349088
82	0x39a62912	0.00031692587
83	0x3a135825	0.00056207395
84	0xbc2ea748	-0.01066
85	0x3936967d	0.00017412934
86	0xbb9410ad	-0.0045185895
87	0xbd2e72f5	-0.0425901
88	0xbb00b311	-0.0019637982
89	0xbbdee2f8	-0.006801959
90	0xbb83b984	-0.004019918
91	0xbadd4b92	-0.0016883484
92	0xbcfdf7ad	-0.03100189
93	0xbcb4bded	-0.02206322
94	0x3c6a428b	0.014298092
95	0xbd220295	-0.039553244
96	0x3bcab316	0.0061858995
97	0xbd280544	-0.041020647
98	0x3a3efd00	0.0007285625
99	0x39d27b9f	0.00040146426
100	0x38fe78c3	0.000121341574
101	0x3d05ee72	0.032698102
102	0xbb0b270a	-0.0021232986
103	0xba262282	-0.00063375395
104	0xba42c03e	-0.0007429159
105	0xbd10c660	-0.035345435
106	0x39cb4495	0.00038770275
107	0x3c0bc51a	0.008530879
108	0x3cae51bd	0.02127921
109	0xbb245636	-0.00250758
110	0x3b743447	0.0037262605
111	0x3c335216	0.010944864
112	0x3d585e24	0.052824154
113	0xbd20189c	-0.03908597
114	0x3d30556d	0.04305022
115	0xb9b0ff84	-0.0003375971
116	0xbb77736d	-0.0037758008
117	0x3cadef42	0.021232251
118	0x3b095eaa	0.0020960965
119	0x3c808ff9	0.015693652
120	0xbb8d2278	-0.0043070875
121	0x3b0c7c78	0.0021436494
122	0x3bc0f5f6	0.005888696
123	0xbcb321b4	-0.021866657
124	0xbd12b237	-0.03581449
125	0xbc2bbc19	-0.010481858
126	0x3ca3d6c0	0.019999862
127	0x39951a48	0.00028439076
128	0x3c86c841	0.01645291
129	0xba989c99	-0.001164335
130	0x393f62be	0.00018251964
131	0xbc15ac33	-0.009135294
132	0x3c29bb64	0.010359619
133	0x3a9071d7	0.0011020255
134	0x3bab7a64	0.005233096
135	0xbcd8822b	-0.026429256
136	0x3c0a50e0	0.008442134
137	0x3c3fc41c	0.011704471
138	0xba1a1c4c	-0.00058788504
139	0x3c499537	0.012303642
140	0xbb6d5806	-0.0036215796
141	0x3c86bd87	0.016447796
142	0x3c8945df	0.01675695
143	0x3cd12a7b	0.025532952
144	0xba16d11f	-0.00057532074
145	0xbc786e4f	-0.015163018
146	0xbd0fcc6d	-0.035107065
147	0x3b8309b2	0.0039989585
148	0x3769fa9b	1.3946231e-05
149	0x3ba72f04	0.0051020402
150	0x3b852efb	0.0040644384
151	0x3aca18b9	0.0015418745
152	0xbc0ae9ff	-0.008478641
153	0x3b38c0cb	0.0028191085
154	0xb9addf89	-0.00033163678
155	0x39b7d3e4	0.0003506235
156	0xbaf29b19	-0.0018509357
157	0xba269e92	-0.0006356026
158	0x3a6e9526	0.00091012043
159	0xbbd2bb61	-0.0064310287
160	0x3c086ad7	0.008326254
161	0xba18a73e	-0.0005823261
162	0xba0ffc99	-0.0005492657
163	0x37f57a5a	2.926325e-05
164	0x3c7f539b	0.015583898
165	0x39d09d30	0.00039789965
166	0xbce1d14f	-0.027565626
167	0x3a8770b3	0.001033327
168	0x3bc5f011	0.006040581
169	0x3b2fdce3	0.002683454
170	0x39ed71a1	0.00045288823
171	0xbbc88540	-0.0061194003
172	0x3aeb44af	0.0017949546
173	0x3b4ec273	0.0031549006
174	0xbad1669d	-0.0015976016
175	0xbd860aea	-0.065450504
176	0xbc8309af	-0.015995828
177	0xba49b4b2	-0.0007694467
178	0x3c095720	0.008382589
179	0xbabacbfd	-0.0014251467
180	0xbbf7d2f2	-0.0075629884
181	0x3b9f763b	0.004866389
182	0xbcd70f7e	-0.026252504
183	0xbd326ebb	-0.043562632
184	0xbd1406d6	-0.03613933
185	0x39941e0c	0.00028251146
186	0x3beac178	0.0071641766
187	0xbab2b905	-0.0013635462
188	0x3c08c58a	0.008347878
189	0xba05b862	-0.00051010225
190	0xbc31b49d	-0.010846284
191	0xb9314886	-0.00016907052
192	0x394178ae	0.00018450871
193	0x3af721a9	0.0018854636
194	0x3a9dc5cf	0.0012037101
195	0x3c111a5f	0.008856385
196	0xb975527a	-0.00023395746
197	0xba970ad8	-0.0011523617
198	0xbb088fd8	-0.002083769
199	0xb8b497d1	-8.611347e-05
200	0x3c3fc1f8	0.011703961
201	0xb8be9df0	-9.089324e-05
202	0xb992065d	-0.0002785203
203	0x3a9dc998	0.0012038229
204	0xb9a9c922	-0.00032384048
205	0xbb1ec357	-0.0024225318
206	0xbaf836db	-0.0018937247
207	0x39a9c7a3	0.00032382933
208	0xbcb049c6	-0.021519553
209	0x3ca60e3c	0.02027046
210	0x3c82a6d2	0.015948687
211	0x396b89d3	0.0002246269
212	0xbc17d2db	-0.00926658
213	0xb9d2885d	-0.0004015592
214	0xbb758016	-0.0037460378
215	0x3c0d95a4	0.008641634
216	0x3a9e7532	0.001208937
217	0xbbb4fd70	-0.005523376
218	0xb929650d	-0.0001615474
219	0xbd206f03	-0.03916837
220	0x3bf55cac	0.007487854
221	0x3bb9512d	0.005655429
222	0x3a4bd891	0.00077761064
223	0xbcc9914b	-0.024605414
224	0xbcabba39	-0.020962821
225	0x3a9688ce	0.0011484863
226	0x3bef0105	0.0072938227
227	0x394a5180	0.00019294582
228	0xbbb4419f	-0.0055009867
229	0xba890121	-0.0010452607
230	0xbac4bdf1	-0.001501022
231	0xba07b931	-0.0005177437
232	0x3c2ee18c	0.010673892
233	0x3c05714d	0.008144689
234	0xbda04f6a	-0.07827647
235	0x3acbd443	0.001555093
236	0xba831d33	-0.0010003209
237	0xba1d782a	-0.00060069805
238	0x3a05cf83	0.0005104469
239	0x3caf0a0e	0.0213671
240	0xbc42c4c7	-0.011887736
241	0xbb9f6c81	-0.0048652296
242	0xbba0a7f1	-0.0049028327
243	0xba8e0f23	-0.0010838251
244	0xb9440c8a	-0.00018696688
245	0x3b42ce3e	0.002972498
246	0x3c84a412	0.016191516
247	0xbc23154f	-0.009953811
248	0x3c7278e4	0.01479933
249	0x3b17cba1	0.0023162144
250	0x3c976de6	0.01848502
251	0x3b9f367e	0.004858791
252	0xba985dbc	-0.0011624615
253	0xbc79bf10	-0.015243307
254	0x3c6231ca	0.013805816
255	0x37f64848	2.9359144e-05

action_model._continuous_distribution.mu.bias f4 [2]
0	0xbdb5fb50	-0.08885825
1	0x3d267bd1	0.040645424
