MLAgents Jumper Exercise/Assets/results/J01/JumperAgent/JumperAgent-999856.onnx (onnx, 570158 bytes, 15 tensors)

network_body.observation_encoder.processors.0.normalizer.running_mean f4 [26]
0	0x3f33e869	0.70276505
1	0x3f3b7177	0.7322001
2	0x3f33e8af	0.7027692
3	0x3f3b9a19	0.7328201
4	0x3f33e8af	0.7027692
5	0x3f3b9a19	0.7328201
6	0x3f33eedb	0.7028634
7	0x3f3c1e69	0.734839
8	0x3f33eedb	0.7028634
9	0x3f3c1e69	0.734839
10	0x3f33f784	0.70299554
11	0x3f3d1f7c	0.73876166
12	0x3f33f784	0.70299554
13	0x3f3d1f7d	0.7387617
14	0x3f39d810	0.7259531
15	0x3f42b18f	0.7605218
16	0x3f39d810	0.7259531
17	0x3f42b18f	0.7605218
18	0x3f4579ec	0.77139163
19	0x3f4c8b14	0.79899716
20	0x3f4579ec	0.77139163
21	0x3f4c8b14	0.79899716
22	0x3f570424	0.83990693
23	0x3f5bbad9	0.8583198
24	0x3f570424	0.83990693
25	0x3f5bbad9	0.8583198

network_body.observation_encoder.processors.1.normalizer.running_mean f4 [2]
0	0x3e9c833d	0.30568877
1	0xbcfcefc3	-0.030876046

network_body._body_endoder.seq_layers.0.weight f4 [256, 28]
0	0xbe2316d7	-0.15926681
1	0x3dd41aaf	0.10356652
2	0xbdf3d823	-0.11906459
3	0x3e161b72	0.14658907
4	0x3ce484fa	0.02789544
5	0xbdade68c	-0.08491239
6	0x3e176332	0.14783934
7	0xbd8c6446	-0.06855063
8	0xbde1d909	-0.11027724
9	0x3e4b70b6	0.19867215
10	0x3d3ed90c	0.04659371
11	0xbdf76a6a	-0.12080844
12	0xbd809155	-0.0627772
13	0x3bbb584c	0.005717313
14	0xbd8091aa	-0.06277783
15	0x3eb8ee35	0.36119238
16	0xbe8cce37	-0.2750108
17	0x3e50da43	0.2039576
18	0xbe67f80e	-0.22653219
19	0x3ee645a9	0.4497502
20	0xbd250a84	-0.04029323
21	0xbea6da15	-0.32588258
22	0x3e0234fb	0.12715523
23	0x3db57eac	0.08862051
24	0x3dc46ec1	0.09591437
25	0xbe644403	-0.2229157
26	0x3e86e173	0.2634388
27	0x3e8e5d01	0.2780533
28	0xbe057385	-0.13032348
29	0xbe3dd5e3	-0.18538623
30	0x3e565f7a	0.20934859
31	0x3e108aa0	0.14115381
32	0x3d52185e	0.05129277
33	0x3da44ad7	0.08022087
34	0x3dd23407	0.1026383
35	0x3dd1eb88	0.10250002
36	0x3eb926ce	0.36162418
37	0x3e3d3ccd	0.18480225
38	0x3d45bd6f	0.04827636
39	0xbdefc09e	-0.11706661
40	0x3dc4fc52	0.09618439
41	0x3e7bdac0	0.24595165
42	0x3eab29db	0.3343037
43	0xbd68f42b	-0.05687348
44	0x3ebb70a4	0.36609375
45	0xbf17ed0b	-0.59346074
46	0x3da5a24a	0.08087595
47	0xbe25f72f	-0.16207574
48	0x3e461089	0.19342245
49	0x3e7a1c07	0.24424754
50	0xbd868629	-0.06568558
51	0xbeb00e06	-0.343857
52	0x3e600800	0.21878052
53	0x3e0f2e78	0.1398257
54	0x3e5665da	0.20937291
55	0x3e660725	0.22463663
56	0x3c496e79	0.012294405
57	0x3d51bdf5	0.051206548
58	0x3e66d6be	0.22542855
59	0xbdb5a20d	-0.08868799
60	0xbe8f4103	-0.27979288
61	0xbe957de3	-0.29197606
62	0x3dd25c0d	0.102714635
63	0x3f0ad961	0.54237944
64	0xbeb79686	-0.35857028
65	0xbdd0997b	-0.10185524
66	0x3ce52fd2	0.027976904
67	0xbc869c0e	-0.016431835
68	0x3df6ca1f	0.1205027
69	0x3e380418	0.17970312
70	0xbe205264	-0.1565643
71	0x3d41a215	0.047273714
72	0x3da1efff	0.07907104
73	0xbd147cb0	-0.036251724
74	0x3ce79f24	0.028274126
75	0xbe84879e	-0.25884718
76	0x3dc3540e	0.095375165
77	0x3e4196ba	0.18905154
78	0x3e81e745	0.25371757
79	0xbd761c3c	-0.06008552
80	0x3dd21c87	0.102593474
81	0x3dab1672	0.083538905
82	0xbdc4d435	-0.09610788
83	0x3d0df566	0.03465786
84	0x3d221d0f	0.039578494
85	0x3db00884	0.08595374
86	0xbd07147e	-0.032978527
87	0x3e6e8d6e	0.23296139
88	0x3d49efac	0.049300835
89	0x3f103fa3	0.563471
90	0x3ce123a6	0.027482819
91	0xbe1c11bc	-0.1524114
92	0x3c8d6c2e	0.017263498
93	0x3d99c8f9	0.075090356
94	0xbd65b01c	-0.056076154
95	0xbe158412	-0.14601162
96	0x3e3b0fc6	0.18267736
97	0xbc5498d5	-0.012975891
98	0x3d5069c5	0.05088212
99	0x3e46126d	0.19342966
100	0x3df6e8b2	0.12056102
101	0x3cfc4a9e	0.030797299
102	0xbdcde736	-0.100538656
103	0xbe728e6d	-0.23687144
104	0xbebaee33	-0.36509857
105	0x3e1d25a8	0.15346396
106	0xbed09c3b	-0.40744194
107	0xbe0566ca	-0.13027492
108	0xbd0e7882	-0.034782894
109	0x3ba91b51	0.005160727
110	0xbdfd2e05	-0.12362293
111	0x3e1d0132	0.15332487
112	0xbe2ed540	-0.17073536
113	0xbe2f3e8c	-0.17113703
114	0x3e4fc4b6	0.20289883
115	0xbdfc40c9	-0.12317044
116	0x3e3bb507	0.18330775
117	0x3e76d103	0.24103169
118	0xbebacf48	-0.36486268
119	0x3f25fcdb	0.6483895
120	0xbdd8bff9	-0.10583491
121	0xbe72adda	-0.23699132
122	0x3e1a5aa3	0.15073638
123	0xbe94ac21	-0.29037574
124	0x3b027454	0.0019905763
125	0x3d93f384	0.07224181
126	0xbe5a9630	-0.21346354
127	0x3e3088c3	0.1723967
128	0x3e332028	0.17492735
129	0xbe06d288	-0.13166249
130	0x3c245ae1	0.010031433
131	0xbe1d8c67	-0.1538559
132	0xbea8a567	-0.32938692
133	0x3e0f5d1e	0.14000365
134	0x3d0f686f	0.035011705
135	0x3e185456	0.14875922
136	0x3dbab018	0.091156185
137	0x3d99ced7	0.07510155
138	0x3dadc330	0.08484495
139	0x3c98493b	0.018589607
140	0xbd5b2b53	-0.053508114
141	0x3d83b52e	0.06431042
142	0xbdf7201a	-0.1206667
143	0x3e922730	0.28545523
144	0xbe613f2d	-0.21996756
145	0xbe0cb9ad	-0.13742705
146	0xbe8c88c2	-0.27448088
147	0xbc8197af	-0.015819399
148	0xbe1ce5a9	-0.15321983
149	0xbe0f431a	-0.13990441
150	0x3e3a24a2	0.18178037
151	0xbd9e0699	-0.07716102
152	0x3dca4f89	0.098784514
153	0x3e477773	0.1947916
154	0x3e2696ed	0.16268511
155	0x3e24178f	0.16024612
156	0xbed6d9f1	-0.4196315
157	0x3e2c082d	0.16799994
158	0x3e08118a	0.1328794
159	0x3c9cffca	0.019164938
160	0x3e788b2a	0.24271837
161	0x3ec4448b	0.38333544
162	0xbd259f94	-0.04043539
163	0x3e198e03	0.1499558
164	0x3e35958d	0.1773283
165	0x3dfc9e0c	0.123348325
166	0x3e2f7c1f	0.17137192
167	0x3e8d9333	0.27651367
168	0x3e6a73ff	0.22895811
169	0xbeab738d	-0.33486596
170	0xbe188b16	-0.14896807
171	0xbccb4e9a	-0.024817754
172	0x3e2dde92	0.16979435
173	0x3d2117eb	0.03932945
174	0xbd995416	-0.07486741
175	0x3d9d901b	0.076935016
176	0xbe5ef733	-0.21773987
177	0x3daea64f	0.085278146
178	0x3eb35ba6	0.3503086
179	0xbdfee280	-0.12445545
180	0xbc30fd5e	-0.010802595
181	0x3ed75183	0.42054376
182	0x3de1c3d7	0.110236816
183	0x3ed06889	0.40704754
184	0xbe0a529f	-0.1350808
185	0xbe094451	-0.13404967
186	0xbde7287c	-0.11287019
187	0xbe9d413e	-0.30713838
188	0xbcbb68dd	-0.022877151
189	0x3dda41e5	0.106571
190	0x3d814098	0.063111484
191	0xbda8ae59	-0.08236379
192	0x3d3ba0b0	0.04580754
193	0xbe9eb234	-0.30995333
194	0xbd15807e	-0.036499493
195	0x3e38177b	0.17977707
196	0xbde60317	-0.11231058
197	0xbe643ff2	-0.22290018
198	0xbdc7ffe3	-0.097656034
199	0xbde8e760	-0.11372256
200	0xbdd7d012	-0.10537733
201	0x3e0f68e4	0.14004856
202	0x3e2e48a6	0.170199
203	0xbcf81393	-0.030282771
204	0x3e82e49b	0.25565037
205	0xbe05b2e5	-0.13056524
206	0xbdb0bab2	-0.08629359
207	0xbcf2de99	-0.029647158
208	0xbe338e42	-0.17534736
209	0xbd344c1f	-0.044017907
210	0x3d42cce8	0.047558695
211	0xbe3b3183	-0.18280606
212	0x3dfa938f	0.12235176
213	0x3eecf310	0.46279192
214	0xbe87c167	-0.26514742
215	0x3e6e8320	0.23292208
216	0xbc8ea404	-0.017412193
217	0xbcb3629a	-0.021897603
218	0xbe16aa8e	-0.14713499
219	0x3dde7f33	0.10864105
220	0xbd148417	-0.036258783
221	0x3e734372	0.23756197
222	0x3de71be7	0.11284619
223	0x3d8c2c69	0.06844408
224	0xbe015dde	-0.12633464
225	0x3e8087f3	0.2510372
226	0xbe4d157b	-0.20027725
227	0x3d872b79	0.066000886
228	0x3e6d7f86	0.23193178
229	0xbd52b76c	-0.051444456
230	0xbe468d12	-0.19389752
231	0x3c733d45	0.014846151
232	0x3dd74cd3	0.105127
233	0xbd5dce2a	-0.05415169
234	0xbe8ebc96	-0.27878255
235	0x3e1b950f	0.1519358
236	0x3cebb0f8	0.028770909
237	0xbe2f1e37	-0.1710137
238	0xbea81356	-0.32827252
239	0x3bffe9ba	0.007809845
240	0x3c8ac31d	0.01693874
241	0x3e6a0117	0.22851978
242	0x3dc73f65	0.097288884
243	0x3e293d69	0.16527332
244	0xbd0bb339	-0.034106467
245	0xbe0406e2	-0.1289325
246	0xbcd9e585	-0.026598701
247	0x3e0d94ac	0.13826245
248	0xbe3359b1	-0.17514683
249	0x3eb0723d	0.34462157
250	0x3e9f01b3	0.31055984
251	0xbe766994	-0.24063712
252	0xbec18dc7	-0.3780348
253	0x3e022794	0.1271041
254	0x3e1fc0c1	0.15600874
255	0x3e1e10ea	0.1543614

network_body._body_endoder.seq_layers.0.bias f4 [256]
0	0x3cc7f16f	0.024407117
1	0xbc8645a2	-0.016390625
2	0xbd59863a	-0.053106524
3	0xbd3fc031	-0.046814147
4	0x3d4759bf	0.048669573
5	0xbd0c95a6	-0.034322403
6	0xbcbc6268	-0.022996143
7	0x3d736c98	0.059429735
8	0x3d45d121	0.048295144
9	0xbcd841bd	-0.026398534
10	0x3b2c3bcf	0.0026280766
11	0xbd33d4b2	-0.043904014
12	0xbd075e89	-0.03304914
13	0xbd19c941	-0.037545446
14	0x3d00d12b	0.031449478
15	0x3cff324a	0.03115191
16	0xbd3bab2d	-0.045817543
17	0xbd79a77c	-0.06095074
18	0xbc706d2b	-0.014674465
19	0x3cd425d4	0.025896944
20	0xbd99edfb	-0.07516094
21	0x3c757ae8	0.014982916
22	0xbd29f4a1	-0.041493062
23	0xbc814ca0	-0.015783608
24	0xbca52878	-0.020160899
25	0x3d027bd5	0.031856377
26	0x3d46ae07	0.04850581
27	0x3b97cd2f	0.004632614
28	0xbd4c9039	-0.04994223
29	0xbdfd4b11	-0.123678334
30	0xbcf6daec	-0.030133687
31	0x3d0ba078	0.03408858
32	0x3c1afda5	0.009459888
33	0xbd953feb	-0.07287582
34	0x3ca3ec64	0.02001018
35	0xbd3523e4	-0.04422368
36	0x3d743cd4	0.059628323
37	0xbd5e8d79	-0.054334138
38	0xbd0989e4	-0.03357877
39	0x3c580e9a	0.013187075
40	0xbd564199	-0.052308653
41	0x3b203f3c	0.0024451753
42	0xbb352f98	-0.0027646776
43	0x3cde7b1a	0.027158309
44	0xbd9a8cb7	-0.075463705
45	0xbd027a5d	-0.031854976
46	0xbc6de6f1	-0.014520393
47	0xbce30bc0	-0.027715564
48	0xbd33bd98	-0.043881983
49	0xbc19b459	-0.009381377
50	0xbd4e0679	-0.05029914
51	0xbd9a1743	-0.07523968
52	0x3cd15502	0.02555323
53	0xbd18cd2d	-0.037305046
54	0xbc95cb93	-0.018285548
55	0x39d66b1a	0.00040897058
56	0xbb9710ed	-0.004610172
57	0xbd16b943	-0.036797773
58	0xbd80f10e	-0.062959775
59	0xbc2f9f90	-0.010719195
60	0x3c86dd75	0.01646302
61	0xbd79eab0	-0.06101483
62	0xbb8c1776	-0.0042752577
63	0xbe045593	-0.12923269
64	0xbbc23759	-0.005927008
65	0x3d893b0b	0.06700715
66	0xbd0cc727	-0.034369614
67	0xbd096515	-0.033543665
68	0x3b97ee45	0.0046365582
69	0xbd6665c9	-0.056249414
70	0xbd61eee5	-0.05515947
71	0x3d792998	0.060830683
72	0xbdb4ed30	-0.088343024
73	0x3d84fc4e	0.06493436
74	0x3c9e4508	0.019320026
75	0xbd3ebc58	-0.046566337
76	0xbd3501bb	-0.044191103
77	0xbb01776d	-0.0019755021
78	0xbd1ebbe2	-0.038753398
79	0x3d03225f	0.0320152
80	0xbba40002	-0.0050048837
81	0x3c84e52a	0.016222555
82	0x3cd60f3a	0.026130307
83	0xbd27cdeb	-0.040967863
84	0xbd3bc7f2	-0.04584498
85	0x3cac3103	0.021019464
86	0xbb300dbd	-0.0026863657
87	0xbd840a0e	-0.0644723
88	0xbd45f8b0	-0.04833287
89	0x3d56e21d	0.052461732
90	0x3d6a78a0	0.057243943
91	0xbae4cd04	-0.0017456119
92	0xbb86e162	-0.004116223
93	0xbc84668f	-0.016162185
94	0xb7e0f609	-2.681745e-05
95	0xbb2b990f	-0.002618376
96	0x3d6aeb27	0.057353165
97	0x3d8200c6	0.06347804
98	0x3d6758fe	0.056481354
99	0x395de45e	0.00021161276
100	0x3d91b538	0.07114643
101	0xbd8158a1	-0.06315733
102	0xbcf4c95b	-0.02988117
103	0xbd170ecb	-0.036879342
104	0xbc2de98b	-0.010614763
105	0xbd73163b	-0.059347373
106	0x3c401d82	0.011725785
107	0xbd1efcf8	-0.03881547
108	0xbcf8291c	-0.03029304
109	0x3d8248c2	0.06361534
110	0xbd59fa39	-0.053217147
111	0x3ca56ab5	0.020192483
112	0xbd65e099	-0.056122396
113	0xbd6823f7	-0.056674924
114	0xbc7f8c8b	-0.015597473
115	0xbd2ecb71	-0.042674486
116	0x3d4e8e03	0.0504284
117	0x3d89da71	0.067311175
118	0x3d8d60d7	0.06903236
119	0x3d8d85f8	0.06910318
120	0xbd0c5622	-0.03426183
121	0xbd2b65a6	-0.041844986
122	0xbcdfaeac	-0.02730497
123	0x3d779d56	0.06045278
124	0xbd2c6f3a	-0.04209826
125	0xbc85ee25	-0.016348908
126	0x3c4c6ded	0.01247738
127	0xbd0d294d	-0.034463216
128	0xbce3dc23	-0.02781493
129	0x3b5a5a98	0.0033318158
130	0xbbab07f8	-0.005219456
131	0x3d3a774b	0.045523923
132	0xbd00a0f0	-0.031403482
133	0xbd1af13b	-0.03782771
134	0xbb2ba506	-0.002619089
135	0x3d90646a	0.070504025
136	0xbbf535ae	-0.0074832058
137	0x3b0e7ff7	0.0021743753
138	0x3c39aeb6	0.011333158
139	0x3c803c98	0.015653893
140	0x3c499efd	0.012305972
141	0xbd11d765	-0.035605807
142	0x3c99fe95	0.018798152
143	0x3cafecf6	0.021475296
144	0xbc31c1b1	-0.010849402
145	0xbd5db07f	-0.054123398
146	0xbd29fb0d	-0.041499186
147	0xbab95165	-0.0014138637
148	0x3d826329	0.063665695
149	0xbd93ea48	-0.0722242
150	0x3cd0e2d8	0.025498793
151	0x3d717d37	0.058957305
152	0x3b86df9c	0.004116012
153	0x3d3dbc16	0.04632195
154	0xbcbc50ec	-0.022987805
155	0xbd37fd12	-0.04491908
156	0xbd9bd89a	-0.07609673
157	0xbd187272	-0.03721852
158	0x3d731f3e	0.059355967
159	0xbd38249d	-0.044956792
160	0xbc4c043d	-0.012452182
161	0xbd8bade5	-0.06820277
162	0x3cb76475	0.022386769
163	0x3d255c69	0.040371332
164	0xbcf7a8cb	-0.030231854
165	0x3a1d177d	0.0005992575
166	0xbd18d363	-0.03731097
167	0x3d3fbb18	0.046809286
168	0xbcc421b2	-0.023941848
169	0xbd75cbcd	-0.060008813
170	0xbd81bf32	-0.06335296
171	0xbccab2a3	-0.024743384
172	0x3c5272c6	0.012844747
173	0xbb8471d8	-0.0040418915
174	0xbdc05f71	-0.09393204
175	0x3d55d85f	0.0522083
176	0xbd71e736	-0.05905839
177	0xbcc279e0	-0.023739755
178	0xbe368ad8	-0.17826402
179	0xbd2471a1	-0.040147427
180	0xbcc36f6e	-0.023856845
181	0xbb9bc9aa	-0.004754265
182	0xbd5baab7	-0.053629603
183	0xbcfec4b3	-0.031099653
184	0xbd41888c	-0.047249362
185	0x3d3a8356	0.045535408
186	0xbd465ffa	-0.048431374
187	0xbcd4be57	-0.025969667
188	0xbd672c6b	-0.056438845
189	0xbcc4b9f9	-0.02401446
190	0xbce5b398	-0.028039739
191	0x3cfdc75a	0.030978847
192	0xbd4ee1b7	-0.050508227
193	0x3d4c04f5	0.049809415
194	0x3cbc0f1b	0.022956422
195	0x3cf48afd	0.029851431
196	0x3c544647	0.012956209
197	0x3c82921a	0.015938807
198	0xbc6edb00	-0.014578581
199	0x3d4ab713	0.049491
200	0x3cee2414	0.029069938
201	0xbd45cd93	-0.048291754
202	0x3cd53e01	0.026030542
203	0xbcf91b75	-0.0304086
204	0xbd1a96ec	-0.037741587
205	0xbda03675	-0.07822887
206	0xbda49d19	-0.080377765
207	0xbd0636ea	-0.032767214
208	0xbcf0f5c5	-0.029414067
209	0xba99c72c	-0.0011732331
210	0xbd3f5788	-0.046714336
211	0xbc63470d	-0.01387192
212	0xbd63e393	-0.055636954
213	0x3d56321f	0.052293893
214	0x3d945683	0.07243063
215	0xbb914f7a	-0.004434523
216	0xbc61a83c	-0.01377302
217	0xbd6feb54	-0.058574036
218	0xbd06dac5	-0.03292348
219	0xbd16235f	-0.036654826
220	0xbc438f98	-0.011936091
221	0x3cde1e14	0.027113952
222	0xbd8b2e7c	-0.067959756
223	0xbc520e22	-0.012820752
224	0xbd5ea906	-0.054360412
225	0xbd8ff8f4	-0.07029906
226	0xbcd0f18d	-0.025505805
227	0x3ce9c27b	0.028535118
228	0xbcf8a693	-0.030352866
229	0xbbc0e790	-0.0058869794
230	0xbd993f55	-0.07482783
231	0xbc4e8867	-0.012605763
232	0xbc83e168	-0.016098693
233	0x3ab75405	0.0013986832
234	0xbcde36b2	-0.02712569
235	0x3c782d75	0.015147557
236	0xbd4b6ed6	-0.04966625
237	0xbd01dbf2	-0.031703897
238	0xbd24cafe	-0.04023265
239	0xbd72e599	-0.059300993
240	0x3cd7db42	0.026349667
241	0xbcc14fc7	-0.023597611
242	0xbd49d215	-0.049272615
243	0xbd8a3fdd	-0.06750462
244	0x3cba8122	0.022766653
245	0x3d91b49e	0.07114528
246	0x3bf7dda5	0.007564264
247	0x3bb99f07	0.0056647095
248	0x3d3cf5ab	0.046132725
249	0x3d81706b	0.0632027
250	0xbdb0e733	-0.08637848
251	0xbd4ea341	-0.05044866
252	0xbdd7266d	-0.10505376
253	0xbd220c8c	-0.039562747
254	0x3be43610	0.0069644526
255	0x3d64a5d2	0.0558222

network_body._body_endoder.seq_layers.2.weight f4 [256, 256]
0	0xbdfe95e1	-0.12430931
1	0x3cf38fd5	0.02973167
2	0xbc311063	-0.01080713
3	0xbcc3a9e5	-0.023884723
4	0x3c7674d8	0.015042506
5	0xbc5fa02a	-0.013649026
6	0xbd98a285	-0.07452873
7	0x3deb5e0a	0.11492546
8	0x3d694eb6	0.05695983
9	0xbe06c8a8	-0.13162482
10	0xbdc9389f	-0.09825253
11	0x3cd94f84	0.026527174
12	0xbda2f259	-0.079563804
13	0x3dd6c4dd	0.104867674
14	0x3d08222f	0.033235725
15	0xbd6c00bb	-0.057617884
16	0xbdf76f25	-0.12081746
17	0xbd6754b0	-0.05647725
18	0xbd46fa53	-0.04857857
19	0xbd8096b6	-0.06278746
20	0xbdf95a73	-0.12175455
21	0xbd974811	-0.073867925
22	0xbc29d7d4	-0.010366399
23	0x3cb3ef77	0.021964772
24	0xbdb0efec	-0.086395115
25	0x3d9dcab1	0.07704676
26	0xbca06316	-0.019578498
27	0x3ceb5ee3	0.028731769
28	0xbd16f4da	-0.036854602
29	0xbc2e96e9	-0.010656097
30	0x3d6ca4d3	0.057774376
31	0xbdc4c511	-0.096079
32	0xbdaf007d	-0.08545015
33	0xbcd13ac6	-0.02554072
34	0xbcd93e73	-0.026519036
35	0xbd195b2c	-0.037440464
36	0x3d738f53	0.059462857
37	0xbde357c0	-0.11100721
38	0xbd20ddc1	-0.03927398
39	0x3d8dd69c	0.06925699
40	0xbce88c2b	-0.02838715
41	0x3d3dd253	0.04634316
42	0x3dab0266	0.08350067
43	0xbdc1760a	-0.09446342
44	0xbddaf998	-0.106921375
45	0x3d1802f2	0.037112184
46	0xbde101fd	-0.10986707
47	0xbd65ad13	-0.05607326
48	0x3d0cc60f	0.03436857
49	0xbde29634	-0.11063805
50	0xbcd68ed8	-0.02619116
51	0xbd6dc879	-0.058052514
52	0x3d84326f	0.06454932
53	0x3dc93e9b	0.09826394
54	0xbd1094ec	-0.035298273
55	0xbbe57d48	-0.00700346
56	0x3d729935	0.05922814
57	0xbd41f7cd	-0.047355462
58	0xbc44783c	-0.011991557
59	0xbd6b517c	-0.057450756
60	0x3d3783e3	0.04480351
61	0xbd1cacb0	-0.038250625
62	0xbdc7e8a7	-0.09761172
63	0xbc6ca3c8	-0.014443345
64	0x3d84ba15	0.06480805
65	0x3d21383d	0.039360274
66	0xbe03c02b	-0.12866275
67	0xbcc3b435	-0.02388964
68	0xbcba0b03	-0.022710329
69	0xbdae6531	-0.085153945
70	0xbc5ba461	-0.01340589
71	0x3e1cb2e1	0.15302612
72	0x3c13d8f4	0.009023894
73	0x3dde8761	0.10865665
74	0x3e10469e	0.14089438
75	0x3d5bc31c	0.053652868
76	0xbd4b8eb3	-0.049696635
77	0xbbc70f06	-0.006074789
78	0xbc5d217a	-0.013496751
79	0xbda1972b	-0.07890161
80	0xbd59bdf7	-0.05315968
81	0xbd9e2b40	-0.07723093
82	0xbd543ec5	-0.051817674
83	0x3d853c33	0.06505623
84	0xbdeb1c83	-0.114800476
85	0xbc85d84b	-0.016338488
86	0xbcdff83e	-0.02734005
87	0xbd888640	-0.06666231
88	0x3d6a1f39	0.057158682
89	0x3d1c17d3	0.038108658
90	0x3d54c812	0.051948614
91	0xbdf78c02	-0.12087251
92	0x3d293306	0.041308425
93	0xbd36d554	-0.04463704
94	0x3de6d6c8	0.11271435
95	0xbd6289f7	-0.055307355
96	0xbd09961f	-0.033590432
97	0x3d0cfb26	0.0344192
98	0xbd3cf34c	-0.046130463
99	0xbd9224f2	-0.07135953
100	0xbcc3f016	-0.023918193
101	0x3c92b185	0.017906914
102	0xbd4d5c88	-0.050137073
103	0xbc06746a	-0.008206466
104	0xbccf547d	-0.025308842
105	0xbda58ebb	-0.08083864
106	0xbc7ea9a1	-0.015543372
107	0xbca900c8	-0.020630255
108	0xbc82e98b	-0.015980503
109	0x3d873db2	0.06603564
110	0x3d086940	0.0333035
111	0xbd6cf077	-0.057846513
112	0xbe23041e	-0.1591954
113	0x3ca33807	0.019924177
114	0x3d576d06	0.052594207
115	0x3d508ac1	0.050913576
116	0xbd035fc6	-0.03207376
117	0x3c7c49ac	0.015398424
118	0xbc476782	-0.012170674
119	0x3d7cc9bb	0.061715823
120	0xbd234207	-0.03985789
121	0xbd22869d	-0.03967916
122	0xbd5f8479	-0.054569695
123	0xbd5a49cd	-0.05329304
124	0xbca4c5bc	-0.020113818
125	0x3cfe05e0	0.03100866
126	0xbc0ec1e2	-0.008713217
127	0x39804f76	0.00024473266
128	0xbd3fe848	-0.04685238
129	0x3c2a397b	0.010389681
130	0x3df2aea7	0.118497185
131	0x3c3a4ac5	0.0113703655
132	0xbd0124bb	-0.03152917
133	0xbdc4a16e	-0.09601103
134	0xbd67b1e1	-0.056566123
135	0x3c6838ff	0.014173745
136	0xbda63860	-0.081162214
137	0xbc11bd93	-0.008895296
138	0x3ccf5cd2	0.025312815
139	0xbcd710cd	-0.026253128
140	0x3e113b28	0.14182723
141	0x3b50f78a	0.0031885826
142	0x3dff68c0	0.12471151
143	0xbd7ad967	-0.061242487
144	0xbdbdc4d2	-0.09266056
145	0xbd9fa78d	-0.0779563
146	0xbd97317a	-0.07382484
147	0x3b2fa1b6	0.0026799268
148	0x3cd31555	0.025767008
149	0xbb64b97a	-0.0034900592
150	0xbd374447	-0.04474285
151	0xbd28df33	-0.041228484
152	0x3dbb32df	0.09140562
153	0xbd8905ec	-0.06690583
154	0x3cb0ae81	0.021567585
155	0x3d2ddcac	0.042446777
156	0x3db0f139	0.086397596
157	0x3d8ecac0	0.06972265
158	0x3c89c7b5	0.01681886
159	0xbc4e31d1	-0.012585119
160	0xbcf22244	-0.029557355
161	0x3d64cfed	0.055862356
162	0xbdacbbf2	-0.08434285
163	0xbd940953	-0.07228341
164	0xbdaf8844	-0.085709125
165	0x3a71f3a4	0.00092297257
166	0x3d86d07a	0.065827325
167	0xbd9d64e6	-0.076852605
168	0x3dc27fa2	0.09497
169	0x3cd7f5fe	0.026362415
170	0xbdae4709	-0.08509643
171	0xbdc0bcad	-0.09410987
172	0x3d0b84a8	0.034062058
173	0xbd6a5a6a	-0.05721513
174	0x3cda290c	0.0266309
175	0x3dcc74b8	0.099832
176	0xbd54ba18	-0.051935285
177	0x3d5ecbf1	0.054393712
178	0x3cc88ac2	0.024480227
179	0x3ca4f331	0.020135494
180	0xbcb0a02b	-0.021560749
181	0xbe4d405c	-0.20044082
182	0xbabe8512	-0.0014535508
183	0xbd8231ab	-0.0635713
184	0xbdd98f61	-0.106230505
185	0xbd0099d5	-0.031396706
186	0xbd98f44b	-0.0746847
187	0xbd60fd22	-0.054928906
188	0xbba5725c	-0.005049033
189	0x3d1b0415	0.03784569
190	0xbd1f120a	-0.038835563
191	0xbda8d997	-0.08244627
192	0x3da869d8	0.08223313
193	0xbdd27a01	-0.10277177
194	0x3e1e87a9	0.15481438
195	0x39c6acd9	0.00037894284
196	0x3dbf7a3f	0.093494885
197	0x3c0f6c8f	0.00875391
198	0x3b50cc89	0.0031860194
199	0x3e06cce9	0.13164105
200	0x39dc22c5	0.00041987575
201	0xbdb0456f	-0.086069934
202	0x3da0eea5	0.07858018
203	0xbd6d8749	-0.057990346
204	0xbe03fd4a	-0.12889591
205	0xbd0d7fcc	-0.034545705
206	0xbddb0a77	-0.106953554
207	0xbc9c7a0e	-0.019101169
208	0x3d128c6f	0.03577846
209	0xbd147506	-0.036244415
210	0x3d8bd3d8	0.06827515
211	0x3daacad2	0.08339466
212	0x3bf0b847	0.0073461863
213	0x3dcb56a5	0.099286355
214	0x3dde6d1c	0.10860655
215	0xbd10c3f9	-0.035343144
216	0xbcadfbae	-0.021238174
217	0xbdc002b8	-0.093755186
218	0xbcc45a56	-0.023968857
219	0x3d932234	0.07184258
220	0xbcf7cad6	-0.030248087
221	0x3e155b65	0.14585645
222	0x3ba90e56	0.0051591797
223	0xbd5e1559	-0.054219577
224	0xbe11a3a4	-0.1422258
225	0xbd738b7b	-0.05945919
226	0x3d7bd6d6	0.06148418
227	0x3d09a3c1	0.033603434
228	0x3b46584f	0.0030265038
229	0x3d0c3bca	0.034236707
230	0x3de346f3	0.11097517
231	0xbe0ed14a	-0.13947025
232	0xbd3b063b	-0.04566024
233	0x3c24ebe5	0.010066007
234	0xbd89f726	-0.06736593
235	0xbd5c8d15	-0.053845484
236	0x3ddf1ada	0.108937934
237	0x3d75df4f	0.060027417
238	0x3d8fb0b0	0.07016122
239	0x3d288458	0.041141838
240	0x3e0cbe83	0.1374455
241	0x3d25e444	0.040500894
242	0x3db55ae3	0.08855226
243	0xbd2db10e	-0.04240518
244	0xbd046e89	-0.032331977
245	0xbd858d11	-0.06521047
246	0xbe204cb5	-0.15654261
247	0x3cc28af4	0.023747899
248	0xbc654977	-0.013994566
249	0xbdb1c259	-0.08679647
250	0x3be59590	0.0070063546
251	0xb9c1643c	-0.0003688651
252	0xbd1c7a76	-0.038202725
253	0xbd83a3d5	-0.06427733
254	0x3d27a42b	0.040928047
255	0x39836ed8	0.00025068852

network_body._body_endoder.seq_layers.2.bias f4 [256]
0	0x3ae8c2b3	0.001775822
1	0xbd3cca41	-0.04609132
2	0xbcd09bc0	-0.025464892
3	0xbccf4a84	-0.025304087
4	0xbba30ec0	-0.0049761236
5	0x3ca1d8fa	0.019756783
6	0x3ccd9183	0.0250938
7	0xbd7d98c7	-0.061913278
8	0x3aeac8eb	0.0017912661
9	0x3b7423b1	0.003725272
10	0xbc957ba6	-0.018247437
11	0xbd1a7caf	-0.037716564
12	0xbd18a077	-0.037262406
13	0xbd9ae8ac	-0.0756391
14	0xbd53877b	-0.051642876
15	0xbda15bb0	-0.07878816
16	0x3ba6284a	0.005070721
17	0xbcc5f5bd	-0.024165029
18	0xbc88d9fa	-0.016705502
19	0xbcf94a4b	-0.030430933
20	0x3c97dee4	0.0185389
21	0xbd0f9777	-0.035056558
22	0xbd81fffe	-0.06347655
23	0xbd0e469b	-0.034735303
24	0xbd6437d0	-0.05571729
25	0xbca37aa8	-0.019955948
26	0xbd9870cd	-0.0744339
27	0xbcab17b9	-0.020885335
28	0xbd66ef0e	-0.056380324
29	0xbd693e29	-0.056944046
30	0xbd1ee774	-0.03879495
31	0x3c529acb	0.012854288
32	0xbd0ad56d	-0.033894945
33	0xbd79a940	-0.060952425
34	0xbb713046	-0.0036802455
35	0x3cf57263	0.02996177
36	0x3c96bcf4	0.018400647
37	0xbd396e20	-0.04527104
38	0x3c0f12c5	0.008732502
39	0xbd119927	-0.035546448
40	0xbca34f55	-0.01993529
41	0xbd8d2719	-0.06892223
42	0xbd514a1b	-0.051096063
43	0x3d4cfb33	0.05004425
44	0xbd038a60	-0.032114387
45	0xba9a1fdf	-0.0011758766
46	0xbcd08e02	-0.02545834
47	0x3d3c26d4	0.045935467
48	0x3c0443b8	0.008072786
49	0x3c15c21a	0.009140516
50	0xbd8870d6	-0.06662147
51	0xbd3763e5	-0.044773
52	0xbc98e513	-0.018663919
53	0xbd8d0570	-0.06885803
54	0x3a66f9cf	0.0008811028
55	0xbd395a52	-0.04525215
56	0xbd539c40	-0.051662683
57	0x3c5a74ad	0.013333482
58	0xbd8ea087	-0.06964212
59	0x3d05bb7d	0.032649506
60	0x3c1bc96e	0.009508474
61	0xbc8e863b	-0.01739799
62	0xbc95f00c	-0.01830294
63	0xbd5f2590	-0.05447918
64	0xbc576e76	-0.0131488945
65	0xbd83c339	-0.0643372
66	0xbc82d158	-0.015968964
67	0xbc4295b5	-0.011876513
68	0xbd52e6d3	-0.051489662
69	0xba9980af	-0.0011711324
70	0x3d20e0b0	0.03927678
71	0xbd34b53a	-0.044118144
72	0x3ceebe84	0.02914358
73	0xbc8a171b	-0.01685672
74	0xbd90be9a	-0.07067604
75	0xbd73c2c8	-0.05951193
76	0xbd2743a9	-0.04083601
77	0xbd03c872	-0.03217358
78	0xbd4be4ea	-0.049778856
79	0x3bc3a463	0.005970524
80	0xbcaa5274	-0.02079127
81	0xbc99d368	-0.018777564
82	0xbc975d3f	-0.01847708
83	0xbd7b28e9	-0.06131831
84	0xbc915dbf	-0.017744897
85	0xbd178e84	-0.037001148
86	0x3d7ce223	0.0617391
87	0xbbd625ac	-0.0065352526
88	0x3c9702b2	0.018433902
89	0xbcc9ee8b	-0.024649879
90	0xbc0f2d11	-0.008738772
91	0xbd8e4dff	-0.0694847
92	0xbc1c04d3	-0.009522635
93	0xbd495fe0	-0.0491637
94	0xbd8a491c	-0.06752226
95	0xbb792f1f	-0.003802247
96	0xbd4c81f5	-0.049928624
97	0xbd26ee2d	-0.040754486
98	0xbcc30cc9	-0.023809807
99	0xbd62c6c0	-0.055365324
100	0xba9b12b7	-0.0011831139
101	0x3c034c81	0.008013845
102	0xbd0ddf62	-0.034636863
103	0xbd686502	-0.056736954
104	0xbd2b6fed	-0.041854788
105	0xbcec9b43	-0.028882628
106	0xbd28b965	-0.04119243
107	0xbcbdcf30	-0.023170084
108	0xb76e522b	-1.4205037e-05
109	0xbc50a1ad	-0.012733859
110	0x3c027b54	0.007963974
111	0xbcd06cdd	-0.025442535
112	0xbcf56abd	-0.029958123
113	0xbd403031	-0.04692096
114	0x3d268926	0.04065814
115	0x3c44ae6c	0.012004476
116	0xbd63489b	-0.055489164
117	0xbc311242	-0.010807576
118	0xbc7739f6	-0.015089503
119	0xbd382e26	-0.044965886
120	0xbcd9e6d0	-0.026599318
121	0xbc505464	-0.012715433
122	0xbca3285a	-0.019916702
123	0x3d143b26	0.03618922
124	0x3d3be46d	0.04587214
125	0x3d42161a	0.04738436
126	0x3ccfa723	0.025348252
127	0xbd67b725	-0.056571145
128	0x3cc1a2f2	0.023637269
129	0xbd28dc47	-0.041225698
130	0xbc8cc608	-0.017184272
131	0x3d43628b	0.0477014
132	0xbd29f888	-0.041496783
133	0xbd0c30aa	-0.034226097
134	0xbceac435	-0.028658012
135	0x3c8491da	0.016182829
136	0x3cbfea58	0.023427173
137	0xbd1fc378	-0.039004773
138	0xbba0f9e2	-0.004912601
139	0x3a8502cb	0.0010147927
140	0x3c3a9a28	0.011389293
141	0x3c509c72	0.012732612
142	0xbc009f3f	-0.007850467
143	0xbd1186f8	-0.035529107
144	0xbc835fba	-0.016036857
145	0xbd756419	-0.059909914
146	0xbcb96d88	-0.022635236
147	0xbd8e0822	-0.06935145
148	0xbcff1c41	-0.031141402
149	0xbd00ee9f	-0.031477567
150	0xbbf72bc8	-0.007543061
151	0xbccccc90	-0.024999887
152	0xbd01b09b	-0.031662565
153	0xbcd674e7	-0.02617879
154	0xbd33640a	-0.043796577
155	0xbd238c39	-0.03992865
156	0xbbfbf938	-0.0076896213
157	0xbd4014e8	-0.046894938
158	0x3ae92efb	0.001779049
159	0xbd1d0df1	-0.038343374
160	0xbaf606bd	-0.0018770319
161	0xbd4c5f71	-0.049895708
162	0x3c886eed	0.016654456
163	0xbd30dcb6	-0.043179236
164	0xbad49657	-0.0016219121
165	0xbc90e43f	-0.017686961
166	0x3d252179	0.040315125
167	0xbc084b81	-0.008318783
168	0xbd12e3db	-0.03586183
169	0x3b1eb093	0.0024214133
170	0xbd96fc64	-0.073723584
171	0xbdab4435	-0.08362619
172	0xbbfd7ac1	-0.0077355807
173	0xbbe3bdeb	-0.00695013
174	0xbb9195ae	-0.004442892
175	0xbd59e47f	-0.053196426
176	0xbd894a1d	-0.06703589
177	0xbd92df3f	-0.07171487
178	0xbccaf21a	-0.024773646
179	0xbc5053b0	-0.012715265
180	0x3b37e78f	0.0028061604
181	0x3d27f1ab	0.041001957
182	0xbcea9594	-0.028635778
183	0xbd8716d8	-0.06596154
184	0xbd5e97c8	-0.05434397
185	0xbd87ef58	-0.06637448
186	0xbd0ab82c	-0.033867046
187	0xbaa942ef	-0.0012913625
188	0x3cbfe87f	0.023426292
189	0xbd668c74	-0.05628629
190	0x3bfa27c7	0.0076341364
191	0xbd5a71c5	-0.053331155
192	0xbd7b88dc	-0.061409816
193	0xbd3be06a	-0.045868315
194	0x3c3d11fb	0.011539931
195	0x3b7419a3	0.0037246726
196	0xbb081a29	-0.0020767546
197	0xbd2d637d	-0.042331208
198	0xbd462546	-0.04837539
199	0xbd1cd937	-0.03829309
200	0xbd7cbb47	-0.06170204
201	0xbd375736	-0.044760905
202	0xbca55bde	-0.020185407
203	0x3c2cc16b	0.010544161
204	0xbd4ad8f3	-0.049523305
205	0xb9f7d01c	-0.00047266565
206	0xbc809e69	-0.015700536
207	0xbd24a3d4	-0.0401953
208	0x3d13f14d	0.036118794
209	0xbd2931b1	-0.041307155
210	0xbd6d33b8	-0.05791065
211	0x3caa25d9	0.02077
212	0xbd330998	-0.04371032
213	0xbd131101	-0.035904888
214	0xbd4d3d91	-0.050107542
215	0xbc04915b	-0.008091296
216	0xbd19487c	-0.037422642
217	0xbd09f4e1	-0.0336808
218	0x3c71cccd	0.014758301
219	0xbd5c660a	-0.05380825
220	0xba861774	-0.0010230378
221	0xbd88b15c	-0.066744536
222	0xbd1f30c5	-0.03886487
223	0xbd531bdf	-0.05154025
224	0xbd3085e6	-0.043096446
225	0xbd616c02	-0.055034645
226	0xbce9b888	-0.028530374
227	0xbd9db67c	-0.07700822
228	0x3c7bd5e2	0.015370818
229	0x3ce55b41	0.027997615
230	0xbce1e74a	-0.027576108
231	0xbc4e575f	-0.012594073
232	0x3c55e986	0.013056165
233	0xbcb73bb2	-0.022367332
234	0xbc3da6aa	-0.01157538
235	0xbcf86bde	-0.030324873
236	0xbc2679fc	-0.010160919
237	0x3c93f5dd	0.018061573
238	0xbda47303	-0.08029749
239	0xbc69e1ed	-0.014275056
240	0xbd20f3d3	-0.03929503
241	0x3cb9c078	0.022674784
242	0x3d48c307	0.049014118
243	0xbcb3f08c	-0.021965288
244	0xbc7c400d	-0.01539613
245	0xbd208020	-0.03918469
246	0xbc8901b0	-0.016724437
247	0xbc73b983	-0.014875772
248	0xbd1bb7ba	-0.038017012
249	0xbce9d63d	-0.02854454
250	0xbd087f33	-0.03332443
251	0xbc80b3ae	-0.015710678
252	0xbcf1b0dd	-0.02950328
253	0xbd44e699	-0.048071478
254	0xbd4efc72	-0.05053372
255	0xbd86780d	-0.065658666

network_body._body_endoder.seq_layers.4.weight f4 [256, 256]
0	0x3c1dc03b	0.009628351
1	0xbc8b6260	-0.017014682
2	0x3d863a6a	0.0655411
3	0x3d3e6a2f	0.046487983
4	0xbc2c775e	-0.010526506
5	0x3c1c73b4	0.00954907
6	0x3c3442e9	0.011002281
7	0x3dc1fab7	0.09471648
8	0x3d81d193	0.06338801
9	0x3d1c77a7	0.038200047
10	0x3c80cf07	0.015723718
11	0x3deabb06	0.11461453
12	0x3d5b8fc6	0.05360391
13	0xbde7871f	-0.11305069
14	0xbd2353d3	-0.039874863
15	0xbc44d138	-0.012012772
16	0x3d5a730b	0.05333237
17	0xbc844e97	-0.016150756
18	0x3b8eafdb	0.0043544597
19	0xbd82c32c	-0.06384882
20	0xbd5aebb3	-0.053447437
21	0xbd413ceb	-0.047177237
22	0x3d2fe85b	0.0429462
23	0xba48adb4	-0.00076552783
24	0xbbaf0f77	-0.0053424197
25	0xbb8bd71f	-0.004267588
26	0xbdadf471	-0.08493889
27	0x3dc58da6	0.09646158
28	0x3da5deb0	0.08099115
29	0xbd80cfe9	-0.06289656
30	0xbbce1c32	-0.0062899822
31	0xbca1c647	-0.019747866
32	0xbdfad20e	-0.12247096
33	0xbd2b39d7	-0.041803207
34	0x3db55076	0.08853237
35	0xbcde4879	-0.027134167
36	0xbb1a303e	-0.002352729
37	0x3df7b7c1	0.12095595
38	0x3cbd2112	0.023087058
39	0xbc416869	-0.0118046785
40	0xbb116c99	-0.0022189973
41	0xbdb5b544	-0.08872464
42	0x3cf19e54	0.029494442
43	0xbc501218	-0.012699626
44	0x3d060f33	0.03272934
45	0xbc800281	-0.015626194
46	0xbc6e03b8	-0.014527254
47	0xbd90a9d0	-0.07063639
48	0x3d80feab	0.06298574
49	0xbdc39e19	-0.09551639
50	0x3dcf8a6f	0.10133826
51	0xbd76fb3a	-0.060298182
52	0x3d8d2076	0.06890957
53	0xbdc32065	-0.09527663
54	0x3de67a47	0.11253791
55	0xbde1ef03	-0.11031916
56	0x3cdb811c	0.026794963
57	0x3c3ca007	0.011512763
58	0xbe225afb	-0.15855019
59	0xbc5b6f1d	-0.013393191
60	0xbca715c5	-0.020396123
61	0x3dbeab21	0.09309984
62	0x3d2b941f	0.041889306
63	0xbd072237	-0.032991614
64	0x3d870ef5	0.0659465
65	0x3be0cf6d	0.0068606646
66	0xbbfb8f7e	-0.0076770177
67	0xbc5d1cd3	-0.013495642
68	0xba151417	-0.00056868925
69	0x3d17ae77	0.037031617
70	0xbcba37c5	-0.022731671
71	0xbd3e4a88	-0.046457797
72	0xbdb7e443	-0.08979084
73	0xbd9efb55	-0.077627815
74	0x3c4dfcac	0.012572449
75	0xbd741706	-0.05959227
76	0xba552c46	-0.00081319024
77	0xbd3a1341	-0.04542852
78	0x3d09df61	0.033660296
79	0xbd4a9b56	-0.049464546
80	0x3d2b3d3f	0.041806456
81	0xbcd5b98d	-0.026089454
82	0x3c36291e	0.011118202
83	0xbcdd1822	-0.026989046
84	0x3ce04e06	0.027380954
85	0x3db6306f	0.08895957
86	0xbd9d1cb5	-0.07671491
87	0x3cf5c1b2	0.029999588
88	0x3ac6eff2	0.001517771
89	0xbdf02bce	-0.11727105
90	0x3d8eaf65	0.069670476
91	0xbb945d79	-0.0045277444
92	0x3d8ea23f	0.0696454
93	0x3e146477	0.1449145
94	0xbc2c25fe	-0.010507105
95	0xbcef74a9	-0.029230433
96	0xbc8f6e5f	-0.017508684
97	0x3d2ce3f2	0.042209573
98	0x3c20d1bd	0.0098156305
99	0xbda78781	-0.08180142
100	0xbd0f55aa	-0.034993805
101	0x3d1ba069	0.037994776
102	0xbe2978b6	-0.16549954
103	0xbc737bb9	-0.014861041
104	0xbdf582f8	-0.11987871
105	0xbd89723f	-0.06711244
106	0xbc700902	-0.014650585
107	0xbc81853f	-0.015810607
108	0x3d181526	0.037129544
109	0xbc657ed4	-0.014007289
110	0xbdc70573	-0.09717836
111	0xbb958926	-0.0045634685
112	0xbd944d25	-0.07241277
113	0x3da762c9	0.08173139
114	0xbdb41d73	-0.087946795
115	0x3c0bfec7	0.00854463
116	0x3d07dbc0	0.033168554
117	0xbdaefa7f	-0.08543872
118	0xbe1795e7	-0.14803277
119	0x3cc33de9	0.023833232
120	0xbd20c9dc	-0.039255008
121	0x3c45b36a	0.012066701
122	0xbc85dd28	-0.016340807
123	0x3d850523	0.064951204
124	0xbce5a6f0	-0.028033704
125	0x3c81c85a	0.015842605
126	0x3c77ebc1	0.015131892
127	0x3a74a074	0.00093317707
128	0xbd534640	-0.051580667
129	0xbc75bc60	-0.014998525
130	0x3d492c1a	0.049114324
131	0xbd2a2cf7	-0.041546788
132	0xbbc8fc7e	-0.006133615
133	0x3ccaa4e7	0.024736835
134	0xbd65edf7	-0.056135144
135	0xbd5cf2b2	-0.05394239
136	0x3c013d56	0.007888159
137	0xbcc6f30f	-0.024285821
138	0x3da334a7	0.07969027
139	0x3cea8372	0.028627131
140	0xbb83d545	-0.0040232264
141	0x3d9167cd	0.070998766
142	0x3bfe81ad	0.0077669234
143	0x3c4051ef	0.0117382845
144	0xbc696aa0	-0.014246613
145	0x3c8422f1	0.016129943
146	0x3c1a1892	0.009405272
147	0x3d62f2ac	0.05540721
148	0xbda3237f	-0.07965755
149	0x3df0813e	0.11743401
150	0x3cd4fbe9	0.025999026
151	0xbd04d658	-0.032430977
152	0xbd26f3aa	-0.04075972
153	0xbd7b9665	-0.061422724
154	0x3c875517	0.016520066
155	0xbe105e48	-0.14098465
156	0x3c25c78e	0.010118378
157	0x3b31a5fd	0.0027106993
158	0xbd0f51ce	-0.034990124
159	0x3d3b51da	0.045732357
160	0xbd95cb87	-0.073142104
161	0x3d06417d	0.0327773
162	0xbd115577	-0.035481896
163	0x3ccc2d44	0.024923928
164	0xbd81cf84	-0.063384086
165	0x3d8b20ab	0.0679334
166	0x3e117b1c	0.14207119
167	0xbcae7438	-0.021295652
168	0xbd7f9e31	-0.062406722
169	0x3c645081	0.013935209
170	0x3d027f55	0.031859715
171	0x3e13efbe	0.14446923
172	0xbd88ff43	-0.06689312
173	0xbd50dba4	-0.050990716
174	0x3e12fac9	0.1435348
175	0xbcce9444	-0.025217183
176	0xbdc8a3cc	-0.09796867
177	0xbdec49b4	-0.11537495
178	0xbce5c0df	-0.02804607
179	0xbdc71021	-0.09719873
180	0xbcbbbc98	-0.022917077
181	0x3d51c028	0.051208645
182	0xbca8f7d4	-0.020625986
183	0xbd953771	-0.07285965
184	0x3cdf327c	0.027245753
185	0xbdd06f66	-0.101774976
186	0xbc3472b2	-0.011013674
187	0x3c80994f	0.015698103
188	0xbc951510	-0.01819852
189	0x3d3ae815	0.045631487
190	0xbc277612	-0.010221021
191	0x3dcf7277	0.10129254
192	0xbdc798c7	-0.09745937
193	0xbd828a6c	-0.06374058
194	0x3d73ade2	0.059492
195	0xbc65c7cf	-0.014024689
196	0xbe0a78a3	-0.13522582
197	0xbc9b20d3	-0.01893655
198	0x3cc0ed7c	0.023550741
199	0xbd024988	-0.031808406
200	0x3db6835b	0.08911773
201	0xbc5edbf6	-0.013602247
202	0x3d63e17f	0.05563497
203	0xbd8d9a07	-0.06914144
204	0xbd34b49f	-0.044117566
205	0xbd05c4a6	-0.03265824
206	0x3c874506	0.016512405
207	0xbc501f8c	-0.012702834
208	0xbd560b47	-0.05225685
209	0xbe083d5e	-0.1330466
210	0x3e17b82e	0.14816353
211	0xbbfb01d3	-0.0076601296
212	0xbc34dbe1	-0.011038751
213	0x3d973af3	0.073842905
214	0x3db666c4	0.0890632
215	0x3e221e0b	0.15831773
216	0xb99b8eea	-0.00029670383
217	0x3ce8dbfb	0.028425207
218	0xbd68fa95	-0.0568796
219	0x3b44aa3b	0.0030008692
220	0x3e6299d7	0.22128998
221	0x3da15723	0.07877948
222	0xbbec18e1	-0.0072051142
223	0x3ce8cd3d	0.028418178
224	0xbc121d8a	-0.0089181755
225	0xbc7cb374	-0.015423644
226	0xbce49504	-0.027903087
227	0xbd07b579	-0.03313205
228	0xbd226d9a	-0.039655305
229	0xbcfb36f7	-0.030665858
230	0xbdc613cd	-0.096717454
231	0xbd9bb387	-0.076026015
232	0x3d981147	0.074251704
233	0xbd88d687	-0.06681543
234	0x3d42b49d	0.047535527
235	0xbc8f6009	-0.017501848
236	0xbcd5fe88	-0.026122347
237	0xbd37031b	-0.044680696
238	0x3db34eda	0.08755274
239	0x3c3beb8b	0.011469732
240	0x3cdf51bb	0.027260652
241	0x3b7860b8	0.0037899446
242	0x3d11f49a	0.03563366
243	0x3d3d972e	0.046286754
244	0xbcd2c080	-0.025726557
245	0xbdcc5e5a	-0.09978934
246	0x3b80289f	0.0039110924
247	0xbdc25127	-0.09488135
248	0xbcd8c8bf	-0.02646291
249	0x3cc06bc9	0.023488896
250	0x3d6ccd70	0.057813108
251	0xbd58b708	-0.052908927
252	0x3d234c02	0.03986741
253	0xbdaa0525	-0.083017625
254	0xbc9cbe76	-0.019133788
255	0x3d70dd29	0.058804665

network_body._body_endoder.seq_layers.4.bias f4 [256]
0	0xbc8d9c48	-0.017286435
1	0x3bfdc7ab	0.0077447495
2	0xbb7f8fab	-0.0038995545
3	0x3bd9be33	0.006644988
4	0xb991e53d	-0.0002782735
5	0xbd1a678d	-0.03769641
6	0xbd0c66b3	-0.03427763
7	0xbc9a2683	-0.018817192
8	0xbb5e351d	-0.003390617
9	0xbb493d39	-0.0030706658
10	0xbc74fb76	-0.014952531
11	0xbc47fa9d	-0.012205747
12	0xbc99edff	-0.018790243
13	0xbc9ab63b	-0.018885722
14	0xbc7f5fdd	-0.01558682
15	0xbd5b61df	-0.053560134
16	0xbbc00202	-0.0058596143
17	0xbaa664a4	-0.0012694788
18	0xbccdbe70	-0.025115222
19	0x3c1d0c97	0.009585521
20	0xbc168b3a	-0.009188468
21	0xbbd81f4c	-0.0065955278
22	0x3b440a80	0.0029913485
23	0x3c2b69e1	0.010462255
24	0xbd0d9986	-0.03457024
25	0xbcaf052f	-0.021364776
26	0x3cab352c	0.020899378
27	0x3b9d9993	0.0048095672
28	0x3bf6f2f7	0.007536288
29	0x3a012d92	0.000492775
30	0x3ceaf62f	0.028681843
31	0xbce7720f	-0.02825263
32	0x3c98f2cb	0.01867046
33	0xbd9c0841	-0.07618762
34	0xbb2f364b	-0.0026735242
35	0x3d015dfd	0.031583775
36	0xbb8985da	-0.0041968646
37	0x3cae361a	0.021266032
38	0x3caba12e	0.02095088
39	0xbda7b504	-0.08188823
40	0xbb81bc90	-0.003959246
41	0x3baa671e	0.005200281
42	0xbd769599	-0.06020126
43	0xbd7a4b56	-0.061107002
44	0xbbae2451	-0.005314388
45	0x3c2a692a	0.01040105
46	0xbc9a8df9	-0.018866526
47	0xbc9a9037	-0.018867595
48	0xb9106b02	-0.00013772774
49	0xbd1814b2	-0.03712911
50	0xbd85e6e5	-0.0653818
51	0xbd950290	-0.072758794
52	0x3c4d0217	0.012512705
53	0x3c2fa9a1	0.010721595
54	0x3cf04ecf	0.029334454
55	0x3c3271dc	0.010891404
56	0xbc085816	-0.008321783
57	0x3c3c1c6d	0.011481387
58	0xbca7d7b9	-0.020488607
59	0xbc6c9019	-0.014438652
60	0x3c2d2cca	0.010569761
61	0xbcf822c1	-0.03029001
62	0x3cff2c8e	0.031149175
63	0xbd30e94f	-0.04319125
64	0xbc572458	-0.013131224
65	0x3c6fbfb9	0.014633113
66	0x3c8ab040	0.016929746
67	0xbd5391b4	-0.051652625
68	0xbc8294c3	-0.015940076
69	0xbc7e510f	-0.015522256
70	0xbcc7dfdb	-0.024398735
71	0xbc0f416b	-0.008743624
72	0xbc175b0c	-0.009238016
73	0xbd7f1555	-0.062276203
74	0x3bcfeb75	0.0063452073
75	0x3a854cdc	0.0010170001
76	0x3b5363d0	0.0032255538
77	0x3cd7b28f	0.02633026
78	0xbb67bbb0	-0.0035359673
79	0xbcb53e05	-0.0221243
80	0x3cb56a66	0.022145461
81	0x3b926326	0.004467386
82	0x3ae79e03	0.0017670993
83	0xbb914055	-0.004432718
84	0xbd340374	-0.043948606
85	0xbd244ea4	-0.04011406
86	0xbc728517	-0.014802239
87	0xbcf30ab5	-0.029668191
88	0xbd4285c3	-0.047490846
89	0xbd0f55bc	-0.034993872
90	0x3ced38cc	0.028957747
91	0xbbde0d8e	-0.006776518
92	0x3cbba654	0.02290646
93	0xbd7a2e79	-0.061079476
94	0xbc765a10	-0.015036121
95	0xbc6d357a	-0.014478082
96	0xbd817d38	-0.06322712
97	0x3cd85813	0.026409185
98	0xbda7546c	-0.08170399
99	0xbcda9914	-0.026684321
100	0xbd356014	-0.04428108
101	0xbd525f00	-0.05136013
102	0xbcd26caa	-0.02568658
103	0x3add0514	0.0016862475
104	0xbcb7f823	-0.022457188
105	0xbd1bc1d2	-0.03802664
106	0xbd7ba4dc	-0.06143652
107	0xbcf0ba9d	-0.02938586
108	0xbc8c01d3	-0.017090714
109	0x3cce1a24	0.02515895
110	0xbd047d28	-0.03234592
111	0x3b13ac7f	0.0022533236
112	0xbd93b43b	-0.072121106
113	0x3d2f0c5f	0.042736407
114	0xbc4424ed	-0.011971694
115	0x3b4719fd	0.003038048
116	0xbd0292d6	-0.031878315
117	0xbd0245c6	-0.031804822
118	0x3d0aeecb	0.033919137
119	0xbc766981	-0.0150398025
120	0x3bf78c77	0.0075545865
121	0x3cfec28c	0.031098627
122	0xbc7e6c02	-0.015528681
123	0xbd3f0cda	-0.046643116
124	0x3d30339f	0.04301798
125	0xbd44b920	-0.04802811
126	0xbd1d3451	-0.03837997
127	0xbbd50d33	-0.0065018176
128	0xba0548d7	-0.00050844013
129	0xbb471d52	-0.0030382467
130	0xbca5f70e	-0.020259406
131	0x3cbca4e7	0.02302785
132	0xbce73cfb	-0.02822732
133	0xbda40610	-0.08008969
134	0xbda85cb4	-0.08220807
135	0x3c23e0c5	0.01000232
136	0x3caa865d	0.020816023
137	0xbd613e77	-0.05499121
138	0xbbbe0cc1	-0.00579986
139	0xbd5b4480	-0.053532124
140	0xbcf5c649	-0.030001776
141	0xbd5d4d49	-0.054028783
142	0x3be532f9	0.006994602
143	0xbcde54e6	-0.027140092
144	0xbc01a002	-0.007911684
145	0xbd089747	-0.033347394
146	0x3c87cbf2	0.01657674
147	0xbd00fc6c	-0.03149073
148	0xbcd5ee22	-0.026114527
149	0x3c927140	0.017876267
150	0xbd5148c5	-0.05109479
151	0xbc3f4235	-0.0116735
152	0xbd05fb63	-0.032710444
153	0xbd3e8d4d	-0.046521474
154	0x3b663df8	0.003513215
155	0x3c6e05e3	0.014527771
156	0xbb445795	-0.002995943
157	0xbd3bbf9e	-0.045837037
158	0xbd24ad8c	-0.04020457
159	0xbd2ba4eb	-0.041905325
160	0xbc2d7c8f	-0.010588779
161	0x3aea9684	0.001789764
162	0x3c460dd6	0.01208826
163	0xbc54ff10	-0.013000265
164	0xbd9b13e2	-0.07572152
165	0xbccc8733	-0.024966812
166	0xbc699594	-0.014256854
167	0xbc77faad	-0.015135449
168	0xbba47e26	-0.005019921
169	0x3c156520	0.009118348
170	0x3c043150	0.008068398
171	0xbbc02f29	-0.005864997
172	0xbbffee42	-0.007810385
173	0xbc119911	-0.0088865915
174	0xbcb3b25e	-0.021935638
175	0x3cd0d903	0.025494104
176	0xbbda4746	-0.0066613285
177	0x3c188c4f	0.009310796
178	0xb970c3fa	-0.0002296119
179	0x3bac9b93	0.0052675693
180	0xbabdf61f	-0.0014492905
181	0xba483911	-0.0007637898
182	0xbd1b2c39	-0.03788397
183	0xbd86d542	-0.065836444
184	0xbd0f8941	-0.035043005
185	0xbbe621d1	-0.007023074
186	0xbc87abd6	-0.01656143
187	0xbc4e16af	-0.01257865
188	0x3c91ace7	0.017782642
189	0xbc975d34	-0.01847706
190	0x3d3fbd59	0.046811435
191	0xbcc784e1	-0.024355354
192	0xbd2a2ae3	-0.041544806
193	0xbaef9767	-0.0018279374
194	0x3cb07f26	0.021545004
195	0x3c49ecc7	0.0123245185
196	0xbbb74ce0	-0.005593881
197	0xbc80de60	-0.015731037
198	0x3bb103d0	0.005402066
199	0xbc8a8eee	-0.016913857
200	0x3cd8af96	0.026450913
201	0xbc90a1fe	-0.017655369
202	0xbc2549e0	-0.010088414
203	0xbca030f0	-0.019554585
204	0xbbeccd9f	-0.0072266604
205	0xbdb0fc51	-0.086418755
206	0xbc87c732	-0.016574476
207	0xbda26ae5	-0.07930545
208	0xbc193d7a	-0.009353036
209	0xbd7b6177	-0.061372247
210	0x3c6b9531	0.014378832
211	0x3c03297c	0.008005496
212	0x3ca22fc0	0.01979816
213	0x3be6f852	0.007048645
214	0xbd4a057e	-0.049321644
215	0x3d09eecb	0.033674996
216	0x3b5bb97f	0.0033527312
217	0x3cac55b3	0.021036958
218	0x3c276f90	0.01021947
219	0x3d2faa05	0.042886753
220	0xbd0cadfe	-0.03434562
221	0xbdc6ada9	-0.09701092
222	0xbca91803	-0.020641332
223	0xbc6e6e3f	-0.014552652
224	0xbbcc4b1c	-0.0062345397
225	0xbc829569	-0.015940385
226	0xbc473487	-0.01215852
227	0xbc05da29	-0.008169689
228	0xbcadbd47	-0.021208419
229	0xbc22fef8	-0.009948485
230	0xbb380063	-0.0028076402
231	0xbc66ca3b	-0.014086301
232	0xbcda5572	-0.026652072
233	0xbd07b506	-0.03313162
234	0x3d499994	0.04921873
235	0xbcedc483	-0.029024368
236	0xbd985c39	-0.07439465
237	0x3bf4273e	0.007450967
238	0xbca47804	-0.02007676
239	0xbdb73192	-0.08945002
240	0xbd3ccbd5	-0.046092827
241	0x3bea53df	0.0071511115
242	0x3c251c96	0.010077616
243	0x3a63924e	0.0008681164
244	0xbc8b2a4d	-0.016987944
245	0xbd0566c4	-0.032568708
246	0xbc8337aa	-0.016017754
247	0x3d090d29	0.033459816
248	0xbafa24c6	-0.0019084446
249	0xbd0bd8c0	-0.034142256
250	0x3bddb5bf	0.0067660506
251	0xbc977f33	-0.01849327
252	0xbc019e30	-0.00791125
253	0x3aec1ad8	0.0018013371
254	0xbda75bb8	-0.08171791
255	0x3bdc610e	0.006725437

action_model._continuous_distribution.log_sigma f4 [1, 2]
0	0xbe27f1ec	-0.1640088
1	0xbe3505c3	-0.17677979

action_model._continuous_distribution.mu.weight f4 [2, 256]
0	0x3a76010f	0.0009384313
1	0x39f87d34	0.0004739553
2	0xbbafc50c	-0.005364066
3	0xba4df0a3	-0.0007855987
4	0xb903da3d	-0.00012574434
5	0xba13b84e	-0.00056350685
6	0x3c99770c	0.018733524
7	0xbaa23d2f	-0.0012377853
8	0xba102881	-0.00054991996
9	0x38960c8e	7.154896e-05
10	0xb9db34f9	-0.00041810403
11	0x3927e0eb	0.0001601015
12	0x3b3bf3aa	0.002867917
13	0xb93cf10b	-0.00018018873
14	0x3a7a09b1	0.00095381873
15	0x3c0927b3	0.008371281
16	0x3bea17c0	0.0071439445
17	0xb8b9eee9	-8.865988e-05
18	0xb85a65a4	-5.206991e-05
19	0xbc2c033e	-0.01049882
20	0xbb982907	-0.0046435627
21	0xba5b539c	-0.0008366646
22	0xba6d8ad2	-0.00090615184
23	0xbb813174	-0.003942663
24	0x3b8af113	0.004240164
25	0xbaa69a77	-0.0012710829
26	0xbaaa5b6c	-0.0012997217
27	0xbb8e9a99	-0.0043519256
28	0xba26be98	-0.0006360798
29	0xbd5398d5	-0.051659424
30	0xbbdc4bec	-0.006722918
31	0x3b7f79f0	0.0038982593
32	0x3a82dcb8	0.0009983992
33	0x3cc90b44	0.024541505
34	0xbb419033	-0.0029535412
35	0xbc85e649	-0.01634516
36	0xbb087a82	-0.0020824973
37	0xbca39059	-0.019966291
38	0xbc23a8da	-0.009988988
39	0x3cad0b6e	0.021123614
40	0x3b03f686	0.0020135953
41	0x3a92dc19	0.001120451
42	0x3dd0baa7	0.10191851
43	0x3cb567dd	0.022144252
44	0xba201b1f	-0.0006107557
45	0x3992ef4a	0.00028025574
46	0xbc837cce	-0.016050722
47	0xb8f10acf	-0.00011493789
48	0x3a7745b1	0.0009432687
49	0x3b0ab0fe	0.0021162624
50	0x3adffa01	0.0017088057
51	0xbb031a2f	-0.002000462
52	0xbb245293	-0.0025073632
53	0x39ed815c	0.00045300543
54	0xbd0c4080	-0.0342412
55	0xbc1d8770	-0.00961481
56	0x3a11070b	0.00055323605
57	0x3a54e8a2	0.0008121823
58	0x3b8fcb9b	0.0043882853
59	0xbad79d8c	-0.0016450151
60	0xba867d0d	-0.0010260657
61	0x3a87673e	0.0010330451
62	0xbc194d8d	-0.009356868
63	0x3ad1880e	0.0015985982
64	0xbb14a978	-0.002268402
65	0xb95ed2de	-0.00021250124
66	0xbbb5112c	-0.0055257287
67	0x3caab261	0.02083701
68	0x3a2b07ac	0.00065242755
69	0x39a136eb	0.0003074923
70	0x3ad666ff	0.00163576
71	0x3a243192	0.000626349
72	0x393f5edc	0.00018250517
73	0x3c37a45c	0.01120862
74	0xb9002100	-0.00012219325
75	0xb94b5a89	-0.00019393316
76	0xbcad38bb	-0.021145215
77	0x3a4740ad	0.0007600885
78	0x3b927a0f	0.004470117
79	0x39cd33a9	0.00039139137
80	0x38c2e841	9.2939015e-05
81	0x3a3b2a7b	0.0007139814
82	0xbab1fe45	-0.0013579807
83	0x3a797c14	0.0009517085
84	0x3a93f699	0.0011288702
85	0xba3705f2	-0.0006981782
86	0xbc22865c	-0.009919729
87	0x3c0cfe78	0.008605592
88	0xba8dd792	-0.0010821691
89	0xbbf7d598	-0.007563304
90	0xb958f02b	-0.00020688835
91	0x3aa791e4	0.0012784568
92	0xbd32cde6	-0.04365339
93	0xbc7147a8	-0.014726557
94	0x3c27f751	0.010251836
95	0xbc117f51	-0.008880452
96	0x3b2237ca	0.002475249
97	0xbcf5f6cb	-0.030024907
98	0x3bdf7beb	0.006820192
99	0x3af61c16	0.0018776681
100	0x3c141f4a	0.009040663
101	0x3d1f4995	0.038888533
102	0x3b316421	0.0027067738
103	0xb9475833	-0.00019010976
104	0x3b081d46	0.0020769401
105	0x3bbdc6d8	0.0057915263
106	0x3c0ccfd0	0.008594468
107	0xbc226907	-0.009912736
108	0x3bcb8f42	0.006212146
109	0x39f0e925	0.00045950073
110	0xba5fc89d	-0.00085366686
111	0xbb35e6bf	-0.0027755944
112	0x3d3e7cd9	0.046505783
113	0xbd1835c9	-0.03716067
114	0x3d111e19	0.035429094
115	0xb97de2e0	-0.00024212478
116	0xba32c4a9	-0.0006819466
117	0xb9c0bcea	-0.00036761846
118	0xbd04200a	-0.032257117
119	0x399af290	0.00029553892
120	0xbb669089	-0.0035181365
121	0xbb9377c9	-0.0045003635
122	0x3b028ab4	0.00199191
123	0xbc01d188	-0.007923491
124	0xbd41dafe	-0.047327988
125	0x38b2a202	8.517878e-05
126	0x3b91e238	0.004452016
127	0x39911b45	0.00027676873
128	0xbc6dc006	-0.014511114
129	0xb93d499d	-0.00018051868
130	0xb9970d8b	-0.00028811055
131	0xbc5aa6ea	-0.0133454595
132	0x3b2bf4af	0.0026238372
133	0x3cf9f915	0.03051428
134	0x3ba3d450	0.004999675
135	0xbd047ed3	-0.03234751
136	0xbb91b413	-0.0044465153
137	0x3c2502f7	0.010071508
138	0xbb797e9e	-0.0038069854
139	0x3c989b2c	0.01862868
140	0xbbcfb44b	-0.0063386313
141	0x3d05ebf3	0.03269572
142	0xbb8ad789	-0.0042371196
143	0xbb6491b0	-0.0034876876
144	0x38540e86	5.0558265e-05
145	0xbae33b99	-0.0017336487
146	0xba3a6e60	-0.0007111784
147	0x3b695fa1	0.0035609978
148	0xb9ff4d0f	-0.00048694803
149	0xbbff7c78	-0.0077968203
150	0xba1eedcd	-0.0006062657
151	0xb852c04c	-5.0246992e-05
152	0xbb651ab5	-0.0034958546
153	0xbbd445b9	-0.006478038
154	0xba5a04a0	-0.0008316729
155	0xba10b962	-0.0005520788
156	0xbb68e88d	-0.0035539002
157	0x3a9fc25d	0.0012188662
158	0xbbb6d6c0	-0.0055797994
159	0x3b898e98	0.0041979067
160	0xbbd239c9	-0.00641558
161	0x3a116dc7	0.0005547669
162	0x39747883	0.00023314547
163	0xba1d7cbf	-0.00060076633
164	0x3cc5b6e2	0.024135057
165	0x39ecf69b	0.00045197163
166	0x3bcd0ff0	0.0062580034
167	0x39e2b5a6	0.00043241418
168	0x3a0ed6c7	0.00054488744
169	0xb9e8cf4c	-0.00044404936
170	0xbb0b9b63	-0.0021302334
171	0xba43be1e	-0.00074669893
172	0xbad47204	-0.0016208296
173	0xbb0d64cf	-0.002157498
174	0xb9dc4271	-0.00042011173
175	0xbcc18932	-0.02362499
176	0xbbf341a2	-0.0074235955
177	0x39d723b3	0.00041034594
178	0x3999643d	0.00029257117
179	0x39af8389	0.00033476602
180	0xbc6d8bf4	-0.014498699
181	0x3963c1ce	0.00021720605
182	0x3a62983e	0.00086439017
183	0x39fdb8b6	0.0004839354
184	0x3c03493e	0.008013068
185	0xba0297bd	-0.0004981717
186	0x3c861624	0.01636798
187	0x3c332652	0.010934429
188	0xbbb83656	-0.0056217117
189	0xbacfb880	-0.0015847832
190	0xbcc67a46	-0.024228226
191	0xba4cd19b	-0.0007813216
192	0x3a646a9d	0.00087133964
193	0xbaac43ed	-0.0013142802
194	0xbcbd8174	-0.023133017
195	0xbcaa2eed	-0.02077433
196	0x3aac3b39	0.0013140208
197	0x3a5b1646	0.0008357506
198	0xbad0fb41	-0.001594402
199	0xb8a95a25	-8.075339e-05
200	0xbbcbecbc	-0.0062232893
201	0x3ada8809	0.0016672622
202	0x3aecb754	0.0018060007
203	0x380f2fbc	3.4138313e-05
204	0xb98ef7d0	-0.00027268985
205	0x3cf696d1	0.030101212
206	0xba4a631a	-0.0007720456
207	0x3b27cd93	0.002560471
208	0xbb92e137	-0.004482414
209	0x3cc32dab	0.023825487
210	0xba266eb1	-0.0006348892
211	0xb94c4675	-0.00019481203
212	0xbbd211d9	-0.006410819
213	0x3aa8a6db	0.001286711
214	0x3aed13f4	0.0018087612
215	0xbc009c1c	-0.007849719
216	0x38b18d16	8.466297e-05
217	0xbb83327c	-0.004003821
218	0xb95d5aaf	-0.00021109985
219	0xbd0d422c	-0.034486935
220	0x3b0662b5	0.0020505611
221	0x3cb8b44f	0.022546915
222	0x39753cf4	0.00023387728
223	0xbb996fa3	-0.0046824976
224	0xbc9b4d34	-0.018957712
225	0xbb75caae	-0.003750484
226	0xbbafd6cc	-0.005366182
227	0x3a31fbe4	0.0006789549
228	0xba3ad575	-0.00071271445
229	0xba87d6f2	-0.0010363741
230	0xba7a3ec4	-0.0009546096
231	0x38315844	4.2282292e-05
232	0x3964b098	0.0002180956
233	0xbb99f787	-0.004698697
234	0xbd2017ef	-0.039085325
235	0xbbfc898a	-0.0077068256
236	0x3a86f029	0.0010294962
237	0xba838b25	-0.0010035975
238	0x3a173b6d	0.0005769048
239	0x3ca23552	0.019800816
240	0xbb0d445d	-0.002155564
241	0xbc1b2b8c	-0.009470832
242	0xbbd3e12c	-0.0064660516
243	0xba065615	-0.00051245216
244	0x3b1e0c49	0.002411621
245	0xbb6cf895	-0.0036158909
246	0x3a019a12	0.0004943918
247	0xbceb6b1e	-0.0287376
248	0x3bd10951	0.0063792844
249	0xbb5ff12f	-0.0034170856
250	0x3ac713db	0.0015188413
251	0x3b68c412	0.0035517258
252	0xb843a63b	-4.6646437e-05
253	0xbb84f947	-0.0040580365
254	0x3ce1c31e	0.02755886
255	0xb72f8678	-1.0462121e-05

action_model._continuous_distribution.mu.bias f4 [2]
0	0xbd936a4c	-0.07198009
1	0x3d0bf441	0.034168486
