MLAgents Jumper Exercise/Assets/results/J01/JumperAgent/JumperAgent-1999968.onnx (onnx, 570158 bytes, 15 tensors)

network_body.observation_encoder.processors.0.normalizer.running_mean f4 [26]
0.7038956 0.7358562 0.703898 0.73652786 0.703898 0.73652786 0.70394707 0.7387096
0.70394707 0.7387096 0.7040115 0.74294174 0.7040115 0.7429418 0.7316473 0.76833844
0.7316473 0.76833844 0.77315843 0.8048872 0.77315843 0.8048872 0.8495204 0.87178975
0.84952134 0.8717905
00000000: 8132 343f 1261 3c3f a932 343f 178d 3c3f
00000010: a932 343f 178d 3c3f e035 343f 131c 3d3f
00000020: e035 343f 131c 3d3f 193a 343f 6e31 3e3f
00000030: 193a 343f 6f31 3e3f 3d4d 3b3f d4b1 443f
00000040: 3d4d 3b3f d4b1 443f b6ed 453f 160d 4e3f
00000050: b6ed 453f 160d 4e3f 2b7a 593f 9d2d 5f3f
00000060: 3b7a 593f aa2d 5f3f

network_body.observation_encoder.processors.1.normalizer.running_mean f4 [2]
0.37262517 -0.031990163
00000000: bac8 be3e 1e08 03bd

network_body._body_endoder.seq_layers.0.weight f4 [256, 28]
-0.15586549 0.10792122 -0.1156633 0.15096687 0.031296667 -0.08053563 0.15123582 -0.0641047
-0.10688241 0.2031174 0.04998013 -0.11622892 -0.05939104 0.010297189 -0.06188403 0.36439994
-0.27411667 0.20716222 -0.22906944 0.44909555 -0.04283068 -0.3265372 0.13474272 0.09946577
0.10348194 -0.21208781 0.28595886 0.39040297 -0.13427141 -0.19204949 0.2054007 0.13442828
0.047344387 0.073495075 0.09869417 0.09557359 0.35767925 0.17787543 0.0443385 -0.12438816
0.09224668 0.23863061 0.3324444 -0.063563064 0.36423445 -0.6001487 0.08324764 -0.16734771
0.19579515 0.23897552 -0.05704931 -0.35055122 0.22741927 0.13313225 0.20267074 0.24647549
-0.0009063379 0.034917053 0.21222791 -0.105051704 -0.29299295 -0.30833852 0.089518175 0.5257761
-0.37176666 -0.11845561 0.014787106 -0.033502784 0.10731332 0.16263156 -0.16266523 0.03534595
0.072970256 -0.048179302 0.027934898 -0.26662165 0.09503554 0.18127683 0.25376233 -0.0750767
0.10264461 0.06855242 -0.08872595 0.052800238 0.03474237 0.08394362 -0.037814595 0.23101413
0.044464774 0.56152475 0.022648113 -0.15415429 0.0124288695 0.07334778 -0.060908876 -0.14735378
0.17784378 -0.014317904 0.04482965 0.19197156 0.11450843 0.029338606 -0.10461882 -0.23488298
-0.3691787 0.15545239 -0.41045186 -0.12376978 -0.037845444 0.011621835 -0.120841645 0.2399555
-0.17317751 -0.16940188 0.20045596 -0.12134065 0.18086489 0.24286228 -0.3673093 0.6505263
-0.108283356 -0.2348562 0.14828007 -0.2876406 -0.00046639174 0.07497715 -0.22026725 0.17324476
0.16812365 -0.1308145 0.0017900394 -0.15460154 -0.33762693 0.13925798 0.026497187 0.15448797
0.08268706 0.08086802 0.07296326 0.03373524 -0.053170916 0.07036633 -0.12032922 0.2916518
-0.21963087 -0.13123083 -0.27414292 -0.009163829 -0.1528805 -0.13324921 0.18212402 -0.06958752
0.09912825 0.20236559 0.1559084 0.16487256 -0.426408 0.17262624 0.14331688 0.039186623
0.25315505 0.4033585 -0.017581299 0.18752158 0.20017663 0.16091004 0.17259453 0.3005641
0.23078898 -0.33696222 -0.14713715 -0.027000621 0.17162527 0.03714666 -0.07303379 0.07447009
-0.21590713 0.08281326 0.35214442 -0.12747169 -0.008965933 0.41752616 0.11551265 0.40540314
-0.12980403 -0.13569176 -0.10665007 -0.31053725 -0.016657175 0.10317251 0.07267345 -0.08880239
0.055363324 -0.31639767 -0.030821314 0.24284075 -0.11345211 -0.21818775 -0.098797716 -0.10888273
-0.10651901 0.1448878 0.16905603 -0.025033858 0.2545071 -0.12531783 -0.08743781 -0.023601478
-0.17649195 -0.037972137 0.043302827 -0.17758681 0.11809578 0.4680145 -0.27121603 0.23921448
-0.02348147 -0.01560506 -0.15448768 0.12022804 -0.043620504 0.24914122 0.10311786 0.06431838
-0.13200311 0.25172344 -0.2059457 0.06682518 0.22626333 -0.050620444 -0.19956695 0.01611495
0.09945778 -0.052882586 -0.28445444 0.15407051 0.023099964 -0.16887897 -0.33541596 0.010337769
0.009795981 0.2310482 0.088081956 0.16866897 -0.04331334 -0.12553695 -0.03758453 0.14667311
-0.18613724 0.35302433 0.31320414 -0.24364561 -0.35771564 0.14362954 0.17633067 0.17080225
00000000: 349b 1fbe cd05 dd3d e1e0 ecbd 0f97 1a3e
00000010: ef30 003d ddef a4bd 90dd 1a3e 5349 83bd
00000020: 2ae5 dabd 02fe 4f3e f7b7 4c3d 6e09 eebd
00000030: 0544 73bd 8ab5 283c 1c7a 7dbd a192 ba3e
00000040: 0559 8cbe 5522 543e 2e91 6abe daef e53e
00000050: 396f 2fbd e22f a7be fff9 093e b6b4 cb3d
00000060: 57ee d33d 8c2d 59be 3369 923e e6e2 c73e
00000070: 727e 09be 9fa8 44be 9054 523e 91a7 093e
00000080: 30ec 413d 9684 963d 2b20 ca3d 16bc c33d
00000090: bc21 b73e fa24 363e 499c 353d 38bf febd
000000a0: d4eb bc3d 955b 743e 2736 aa3e 5a2d 82bd
000000b0: f07c ba3e 58a3 19bf bd7d aa3d 335d 2bbe
000000c0: 867e 483e 00b6 743e 8aac 69bd 737b b3be
000000d0: 99e0 683e d253 083e eb88 4f3e 1264 7c3e
000000e0: 4f97 6dba 2f05 0f3d 4652 593e 5925 d7bd
000000f0: 2c03 96be 8cde 9dbe 4e55 b73d 4399 063f
00000100: 3358 bebe db98 f2bd 9e45 723c 373a 09bd
00000110: 16c7 db3d e388 263e b791 26be eac6 103d
00000120: 6e71 953d a957 45bd bad7 e43c a282 88be
00000130: fea1 c23d a2a0 393e 23ed 813e d0c1 99bd
00000140: 5637 d23d 3665 8c3d f3b5 b5bd 1045 583d
00000150: 044e 0e3d a2ea ab3d 7ae3 1abd f88e 6c3e
00000160: b220 363d 16c0 0f3f 8988 b93c 9fda 1dbe
00000170: 75a2 4b3c 5c37 963d 967b 79bd e9e3 16be
00000180: ae1c 363e a495 6abc 4c9f 373d 3194 443e
00000190: 6583 ea3d 8457 f03c 6442 d6bd 2a85 70be
000001a0: fe04 bdbe e92e 1f3e bf26 d2be 037b fdbd
000001b0: d303 1bbd 8269 3e3c d37b f7bd e5b6 753e
000001c0: 7255 31be b077 2dbe 5444 4d3e 7281 f8bd
000001d0: a534 393e e4b0 783e f70f bcbe e488 263f
000001e0: aac3 ddbd 257e 70be bbd6 173e a145 93be
000001f0: 0a86 f4b9 9f8d 993d bd8d 61be 1367 313e
00000200: 9b28 2c3e 3cf4 05be c19f ea3a de4f 1ebe
00000210: 70dd acbe a599 0e3e a110 d93c 1832 1e3e
00000220: d557 a93d 229e a53d c36d 953d f72d 0a3d
00000230: bfc9 59bd 391c 903d 2b6f f6bd 6253 953e
00000240: eae6 60be 6061 06be 765c 8cbe e223 16bc
00000250: b58c 1cbe 7b72 08be b87e 3a3e e783 8ebd
00000260: c003 cb3d ed38 4f3e 74a6 1f3e 5ad4 283e
00000270: 2652 dabe efc4 303e a9c1 123e 2782 203d
00000280: 8a9d 813e 0185 ce3e a806 90bc a805 403e
00000290: 1afb 4c3e 9ac5 243e 9fbc 303e 8ae3 993e
000002a0: f253 6c3e 5086 acbe 1fab 16be 6830 ddbc
000002b0: 89be 2f3e 1927 183d bd92 95bd c683 983d
000002c0: c216 5dbe 009a a93d 464c b43e f087 02be
000002d0: d9e5 12bc fdc5 d53e e591 ec3d 0091 cf3e
000002e0: 59eb 04be c8f2 0abe 5a6b dabd bdfe 9ebe
000002f0: a174 88bc 1c4c d33d d1d5 943d 07de b5bd
00000300: a7c4 623d e0fe a1be fb7c fcbc 3fab 783e
00000310: 9459 e8bd 9c6c 5fbe 7556 cabd e9fd debd
00000320: a426 dabd 785d 143e 061d 2d3e ce13 cdbc
00000330: c14e 823e 5153 00be 9812 b3bd e357 c1bc
00000340: 4eba 34be ac88 1bbd 4e5e 313d 51d9 35be
00000350: 33dc f13d 999f ef3e d4dc 8abe a4f4 743e
00000360: 365c c0bc 5eac 7fbc 0532 1ebe 1e3a f63d
00000370: 6aab 32bd e01e 7f3e 752f d33d 5bb9 833d
00000380: d32b 07be e5e1 803e 6ee3 52be a4db 883d
00000390: 93b1 673e 6257 4fbd 475b 4cbe 8003 843c
000003a0: 85b0 cb3d 699b 58bd 03a4 91be a9c4 1d3e
000003b0: 233c bd3c 9cee 2cbe a4bb abbe bf5f 293c
000003c0: 537f 203c e697 6c3e 5064 b43d 8fb7 2c3e
000003d0: 5469 31bd c28c 00be 3cf2 19bd 7a31 163e
000003e0: c39a 3ebe 9bbf b43e 4b5c a03e 3c7e 79be
000003f0: 8126 b7be 9f13 133e 0790 343e c9e6 2e3e

network_body._body_endoder.seq_layers.0.bias f4 [256]
0.059949826 -0.041668314 -0.08686242 -0.058535255 0.09745025 -0.041737113 -0.03851916 0.07365665
0.06576287 -0.039278083 0.0077232216 -0.062987 -0.052932475 -0.049196906 0.036083866 0.0415662
-0.06373164 -0.09470994 -0.031767387 0.026693786 -0.09493556 0.01857302 -0.06128103 0.002847743
0.029461037 0.08457879 0.06343218 -0.008283068 -0.08513347 -0.19599137 -0.02967297 0.06087591
0.00043195602 -0.080333024 0.04438432 -0.075801626 0.100926064 -0.10471912 -0.034041975 -0.015394712
-0.07199906 0.04057346 -0.007298858 0.04285342 -0.10083503 -0.0005700443 -0.0069845724 -0.040240716
-0.043750204 -0.035594482 -0.06662466 -0.14319885 0.09937734 -0.04541117 -0.04330959 -0.003087805
-0.003995018 -0.08948555 -0.09426705 -0.021392506 0.028676301 -0.1112829 -0.016208215 -0.09817062
0.009815438 0.11226684 -0.046071433 -0.0037481447 0.021838851 -0.07310627 -0.10034305 0.07776754
-0.17154934 0.08058279 0.040746156 -0.057169203 -0.059161704 0.012654272 -0.0701556 0.037879575
0.0077486807 -0.008978849 0.04119152 -0.05659749 -0.07511931 0.056728847 -0.0023007984 -0.10444775
-0.066104114 0.071227334 0.08072961 -0.017225558 -0.00811099 -0.037277803 -0.008046729 -0.025826124
0.08012589 0.07434772 0.06964348 -0.0075631207 0.08486467 -0.07508718 -0.041994583 -0.034278728
-0.006245787 -0.084085315 -0.012255591 -0.050501376 -0.031768844 0.107415974 -0.06609626 -0.0027014252
-0.082654886 -0.06369746 -0.03726935 -0.09179711 0.0682054 0.08385983 0.082839176 0.0959375
-0.08584565 -0.0663193 -0.002225063 0.07329306 -0.07105055 -0.024997529 0.031417485 -0.023358887
-0.031029288 0.03405838 0.03226755 0.065488614 -0.07249906 -0.024792477 0.0032339585 0.08859446
-0.018687254 -0.020528376 0.013245147 0.06444706 0.020793274 -0.044924233 0.038536478 0.05224936
0.023612194 -0.071449906 -0.07345704 -0.005087934 0.07454997 -0.09974161 0.04214052 0.0850654
0.026110161 0.05536268 -0.037153378 -0.05205711 -0.12527333 -0.04829801 0.068590045 -0.085133485
-0.031418364 -0.09259366 0.06438955 0.07182144 -0.048301935 -0.043982197 -0.06261751 0.056529082
-0.0054256083 -0.08268131 -0.08046863 -0.07704967 0.023500169 -0.003698852 -0.1052869 0.06433882
-0.07368258 -0.049113348 -0.26650688 -0.028061757 -0.026578227 -0.0013422548 -0.052358534 -0.03523294
-0.06079691 0.066324644 -0.06631356 -0.022663588 -0.10514791 -0.05244492 -0.07073118 0.038787816
-0.061380927 0.07432902 0.059991974 0.066366106 0.030399384 0.04790576 0.0052781124 0.07387787
0.06783607 -0.09073484 0.056926787 -0.04015345 -0.050703354 -0.08362453 -0.11860559 -0.04331329
-0.044873346 0.024971934 -0.083917804 -0.009763628 -0.06411375 0.07644765 0.090118 -0.0045926557
-0.039914064 -0.06996006 0.026619894 -0.07079236 -0.010856897 0.06090354 -0.080676295 -0.0016764118
-0.06713025 -0.13115284 -0.038099043 0.06260191 -0.049134 0.010944726 -0.10937403 -0.02348197
-0.04407471 -0.03932434 -0.061132103 0.04253856 -0.042949732 -0.028345622 -0.051628355 -0.07777348
0.054869708 -0.0014030832 -0.05148415 -0.084638275 0.048366826 0.08936469 0.015149134 0.055071253
0.060561854 0.07454318 -0.11184392 -0.041490965 -0.15564452 -0.056361146 0.01078132 0.0765275
00000000: f38d 753d 65ac 2abd ede4 b1bd aac2 6fbd
00000010: ff93 c73d 89f4 2abd 44c6 1dbd 4cd9 963d
00000020: afae 863d 0ee2 20bd 1413 fd3b 54ff 80bd
00000030: b9cf 58bd b282 49bd adcc 133d 5241 2a3d
00000040: bc85 82bd 49f7 c1bd 851e 02bd edac da3c
00000050: 936d c2bd 7226 983c d101 7bbd 33a1 3a3b
00000060: 4658 f13c a537 ad3d bbe8 813d b5b5 07bc
00000070: 755a aebd f6b1 48be ba14 f3bc 0559 793d
00000080: 2878 e239 a485 a4bd 55cc 353d e23d 9bbd
00000090: 53b2 ce3d fa76 d6bd 996f 0bbd 1a3a 7cbc
000000a0: 3e74 93bd 5b30 263d 422b efbb 1187 2f3d
000000b0: 9982 cebd 076f 15ba d7de e4bb 73d3 24bd
000000c0: 6a33 33bd 85cb 11bd 8272 88bd b8a2 12be
000000d0: 5986 cb3d 1001 3abd 6665 31bd c55c 4abb
000000e0: a4e8 82bb 3344 b7bd 150f c1bd 563f afbc
000000f0: 90ea ea3c 4ae8 e3bd 17c7 84bc ae0d c9bd
00000100: eed0 203c 28ec e53d 66b5 3cbd 6fa3 75bb
00000110: 64e7 b23c bdb8 95bd a880 cdbd 9744 9f3d
00000120: a1aa 2fbe 9708 a53d 71e5 263d 412a 6abd
00000130: 8b53 72bd dd53 4f3c bdad 8fbd 9d27 1b3d
00000140: a5e8 fd3b 061c 13bc 70b8 283d c5d2 67bd
00000150: 27d8 99bd 825c 683d fec8 16bb b4e8 d5bd
00000160: 9861 87bd a3df 913d 9155 a53d 9d1c 8dbc
00000170: f5e3 04bc 9cb0 18bd 6dd6 03bc 4f91 d3bc
00000180: 0b19 a43d 9e43 983d 3ea1 8e3d 0ed4 f7bb
00000190: 87cd ad3d 4fc7 99bd 8302 2cbd da67 0cbd
000001a0: 75a9 ccbb ec34 acbd adcb 48bc 88da 4ebd
000001b0: 0c20 02bd e8fc db3d 7a5d 87bd 650a 31bb
000001c0: f746 a9bd d073 82bd bfa7 18bd 2000 bcbd
000001d0: 46af 8b3d b4be ab3d 96a7 a93d e17a c43d
000001e0: d8cf afbd 6ad2 87bd 5dd2 11bb ac1a 963d
000001f0: f382 91bd 9ec7 ccbc 9faf 003d 235b bfbc
00000200: 2231 febc cd80 0b3d fa2a 043d e51e 863d
00000210: 637a 94bd 9819 cbbc d2f0 533b 0371 b53d
00000220: 0316 99bc 202b a8bc 2c02 593c d2fc 833d
00000230: a856 aa3c 7902 38bd 6dd8 1d3d 6d03 563d
00000240: 5c6e c13c 5454 92bd a570 96bd afb8 a6bb
00000250: a8ad 983d 5445 ccbd 8a9b 2c3d c536 ae3d
00000260: fae4 d53c fac3 623d 242e 18bd d639 55bd
00000270: a747 00be 22d4 45bd f078 8c3d 775a aebd
00000280: 8bb0 00bd bfa1 bdbd abde 833d 1e17 933d
00000290: 40d8 45bd ad26 34bd 9c3d 80bd 0a8b 673d
000002a0: 4dc9 b1bb d254 a9bd bdcc a4bd 38cc 9dbd
000002b0: 6d83 c03c 7068 72bb a9a0 d7bd 12c4 833d
000002c0: e4e6 96bd 142b 49bd 9773 88be c5e1 e5bc
000002d0: 95ba d9bc 99ee afba e775 56bd 6a50 10bd
000002e0: 2e06 79bd 37d5 873d 67cf 87bd fda8 b9bc
000002f0: ca57 d7bd 7cd0 56bd 82db 90bd f9df 1e3d
00000300: 916a 7bbd d039 983d 25ba 753d f4ea 873d
00000310: 2108 f93c d538 443d 04f4 ac3b 484d 973d
00000320: a3ed 8a3d 30d3 b9bd 102c 693d f277 24bd
00000330: 52ae 4fbd 5643 abbd 7de7 f2bd 4769 31bd
00000340: 1dcd 37bd f191 cc3c 19dd abbd a0f7 1fbc
00000350: 124e 83bd 9690 9c3d c98f b83d fd7d 96bb
00000360: ee7c 23bd 3847 8fbd f711 da3c 96fb 90bd
00000370: 20e1 31bc fe75 793d 9d39 a5bd 0cbb dbba
00000380: 967b 89bd ee4c 06be be0d 1cbd 6e35 803d
00000390: bc40 49bd 8251 333c 7eff dfbd 435d c0bc
000003a0: af87 34bd 8f12 21bd a865 7abd ea3c 2e3d
000003b0: 0fec 2fbd 1435 e8bc 4178 53bd b447 9fbd
000003c0: 0fbf 603d a9e7 b7ba 0be1 52bd d556 adbd
000003d0: 4b1c 463d d604 b73d 1334 783c 6592 613d
000003e0: b50f 783d 18aa 983d 6d0e e5bd 6ef2 29bd
000003f0: 4761 1fbe f2da 66bd 22a4 303c 73ba 9c3d

network_body._body_endoder.seq_layers.2.weight f4 [256, 256]
-0.13682425 0.038948737 -0.008491212 -0.019402796 0.007919912 -0.015728243 -0.085913576 0.09830261
0.05569651 -0.14178842 -0.07327078 0.034114674 -0.073506586 0.076783106 0.018582975 -0.061591495
-0.12408611 -0.036782783 -0.050258905 -0.08285451 -0.18493278 -0.047627516 -0.03387054 0.01749896
-0.092913605 0.09221775 -0.019281087 0.017924901 -0.06461605 -0.006978764 0.06916032 -0.10953587
-0.10174461 -0.022511318 -0.046663776 -0.045127183 0.054300696 -0.1214105 -0.05171742 0.045856822
-0.055815272 0.04145852 0.07206341 -0.124429405 -0.15091002 0.036077052 -0.14522526 -0.085123286
-0.004128643 -0.12679975 -0.04824263 -0.046009947 0.064400874 0.090011165 -0.035235655 0.00061515294
0.086416 -0.07018734 -0.014757646 -0.0779246 0.019619195 -0.022256419 -0.09257645 -0.022555172
0.088431135 0.019970892 -0.12304665 -0.022873744 -0.029642202 -0.09592534 -0.05033316 0.15123168
0.020739563 0.10093454 0.18259342 -0.0034221085 -0.08207241 -0.0027561455 -0.021890162 -0.10601765
-0.024528148 -0.062183764 -0.05628134 0.08763474 -0.11725029 -0.0251116 -0.022510264 -0.053306162
0.03241961 0.040006552 0.03407611 -0.1221343 0.057905674 -0.003117679 0.12147061 -0.08175818
-0.048053354 0.032816045 -0.066477016 -0.093502276 -0.03987596 0.012517534 -0.09267939 0.0033548002
-0.023075175 -0.0795471 -0.036752082 -0.06203776 -0.023605498 0.07551686 0.010616552 -0.057613045
-0.15876782 0.03634778 0.070012905 0.061340846 -0.03976441 0.002731953 -0.035443734 0.04294449
-0.05991998 -0.050539896 -0.0741894 -0.049424738 -0.022026448 0.021186182 -0.017196802 0.0018433286
-0.06150383 0.019396815 0.1345332 0.0026223427 -0.025159258 -0.123324215 -0.031089786 0.005990379
-0.064578705 -0.004251613 0.0038809492 -0.020013958 0.13022712 0.014868965 0.12785952 -0.05073928
-0.10330723 -0.101263136 -0.085438594 -0.007630719 0.02234753 -0.0047356593 -0.057866458 -0.0631258
0.055498485 -0.08048396 0.033003695 0.052293245 0.09702071 0.0774126 -0.007525111 -0.002431011
-0.047713563 0.05169465 -0.09542575 -0.08257134 -0.07665086 -0.014833373 0.0801622 -0.09683501
0.088491194 0.048802756 -0.13998368 -0.11067724 0.04425888 -0.05158735 0.025854088 0.06941549
-0.09803944 0.06397861 0.03397002 0.03383908 -0.02041269 -0.19087915 0.008794516 -0.08152381
-0.1222736 -0.039528266 -0.07181972 -0.06369179 0.0028842525 0.04697943 -0.02504744 -0.0934617
0.05693566 -0.11596236 0.15309545 -0.0025606863 0.059661433 0.027715193 0.013524919 0.16128679
0.0028944637 -0.09554021 0.087719485 -0.05567256 -0.17260987 -0.035430983 -0.120121434 -0.04496628
0.046120908 -0.020656347 0.090581186 0.09554321 0.007468465 0.08173627 0.10531591 -0.06204456
-0.007973101 -0.08140542 -0.02937739 0.067066096 -0.037922695 0.17063694 -0.0007115412 -0.043487813
-0.18087654 -0.08402428 0.043973107 0.028941061 -0.022187598 0.037038114 0.120266534 -0.17994748
-0.04428318 0.020593414 -0.07449664 -0.038084578 0.117913716 0.0707674 0.041814983 0.037896343
0.12436527 0.0370553 0.094472766 -0.05051844 -0.033522397 -0.0681368 -0.18943726 0.025038563
-0.01043646 -0.1023798 -0.015098722 0.021787748 -0.028923076 -0.04467674 0.042510558 -0.0038540673
00000000: a81b 0cbe b688 1f3d b91e 0bbc 9df2 9ebc
00000010: 85c2 013c 84d8 80bc 75f3 afbd e152 c93d
00000020: 0622 643d fc30 11be fe0e 96bd d4bb 0b3d
00000030: 9f8a 96bd 7640 9d3d 533b 983c 5d47 7cbd
00000040: dc20 febd 8ba9 16bd 48dc 4dbd a0af a9bd
00000050: 055f 3dbe 1215 43bd d6bb 0abd fb59 8f3c
00000060: 7d49 bebd a9dc bc3d 5ff3 9dbc 3ed7 923c
00000070: 6b55 84bd 1eae e4bb eda3 8d3d 5854 e0bd
00000080: 7a5f d0bd a869 b8bc 8422 3fbd 48d7 38bd
00000090: 686a 5e3d 11a6 f8bd a5d5 53bd 5dd4 3b3d
000000a0: 8e9e 64bd 69d0 293d fb95 933d d8d4 febd
000000b0: 2888 1abe 88c5 133d eeb5 14be 1e55 aebd
000000c0: 9149 87bb cbd7 01be 109a 45bd ed74 3cbd
000000d0: 9be4 833d c657 b83d 4353 10bd 3742 213a
000000e0: dffa b03d 61be 8fbd 0eca 71bc ef96 9fbd
000000f0: 6fb8 a03c 1853 b6bc b998 bdbd a0c5 b8bc
00000100: 621b b53d ff99 a33c e2ff fbbd b861 bbbc
00000110: 34d4 f2bc 8174 c4bd 252a 4ebd 7adc 1a3e
00000120: 04e6 a93c c5b6 ce3d c5f9 3a3e 7445 60bb
00000130: 9415 a8bd 73a0 34bb ff52 b3bc c81f d9bd
00000140: 41ef c8bc 67b4 7ebd 4387 66bd d879 b33d
00000150: ec20 f0bd d8b6 cdbc 7267 b8bc 9057 5abd
00000160: 6dca 043d e9dd 233d 6493 0b3d 8c21 fabd
00000170: 802e 6d3d f951 4cbb 95c5 f83d d570 a7bd
00000180: 98d3 44bd 1e6a 063d 1a25 88bd 1f7e bfbd
00000190: fa54 23bd 5816 4d3c b1ce bdbd 35dc 5b3b
000001a0: 2608 bdbc 97e9 a2bd 5a89 16bd 4e1b 7ebd
000001b0: 5160 c1bc 95a8 9a3d 0cf1 2d3c a8fb 6bbd
000001c0: 0894 22be 69e1 143d ed62 8f3d 8a40 7b3d
000001d0: 02e0 22bd 910a 333b 732d 11bd 90e6 2f3d
000001e0: a76e 75bd ec02 4fbd 9df0 97bd 9871 4abd
000001f0: cf70 b4bc a58e ad3c 4fe0 8cbc d89b f13a
00000200: 71eb 7bbd 12e6 9e3c 12c3 093e 9cdb 2b3b
00000210: ca1a cebc 6891 fcbd 02b0 febc f14a c43b
00000220: d741 84bd 1d51 8bbb 8657 7e3b 50f4 a3bc
00000230: 425a 053e f69c 733c 9bed 023e fed3 4fbd
00000240: be92 d3bd 0c63 cfbd 6efa aebd 1c0b fabb
00000250: 2b12 b73c 972d 9bbb 6105 6dbd 1948 81bd
00000260: 6152 633d c6d4 a4bd e22e 073d 7131 563d
00000270: cbb2 c63d 7f8a 9e3d 3595 f6bb 9951 1fbb
00000280: 4c6f 43bd c5bd 533d 936e c3bd 2a1b a9bd
00000290: 20fb 9cbd ad07 73bc 142c a43d 6f51 c6bd
000002a0: df3a b53d 66e5 473d e257 0fbe c0aa e2bd
000002b0: cd48 353d 424d 53bd f4cb d33c b529 8e3d
000002c0: e7c8 c8bd 3807 833d 2624 0b3d d99a 0a3d
000002d0: 8338 a7bc d375 43be e016 103c f5f5 a6bd
000002e0: 956a fabd 64e8 21bd 3816 93bd d770 82bd
000002f0: ba05 3d3b 816d 403d 4a30 cdbc d968 bfbd
00000300: 5e35 693d ac7d edbd 0ec5 1c3e 30d1 27bb
00000310: 8c5f 743d f90a e33c 9f97 5d3c 5d28 253e
00000320: 0bb1 3d3b 96aa c3bd 46a6 b33d e908 64bd
00000330: a4c0 30be 1420 11bd 3a02 f6bd 902e 38bd
00000340: 47e9 3c3d 8037 a9bc a182 b93d 29ac c33d
00000350: 06ba f43b 5865 a73d deaf d73d 7022 7ebd
00000360: 9ca1 02bc e3b7 a6bd daa8 f0bc f359 893d
00000370: d454 1bbd 73bb 2e3e b986 3aba 4720 32bd
00000380: b337 39be ec14 acbd 251d 343d ce15 ed3c
00000390: c4c2 b5bc 47b5 173d 4d4e f63d 2744 38be
000003a0: 4862 35bd 85b3 a83c b291 98bd 93fe 1bbd
000003b0: bf7c f13d 80ee 903d 3046 2b3d 3239 1b3d
000003c0: 38b3 fe3d 4cc7 173d f07a c13d 6cec 4ebd
000003d0: c84e 09bd 4e8b 8bbd d7fb 41be ac1d cd3c
000003e0: b0fd 2abc 80ac d1bd a160 77bc 387c b23c
000003f0: 16f0 ecbc f5fe 36bd 8d1f 2e3d 8594 7cbb

network_body._body_endoder.seq_layers.2.bias f4 [256]
-0.0011482282 -0.07223381 -0.019401858 -0.018691557 -0.028047856 0.01696393 0.040840365 -0.10830164
-0.03329093 -0.0064118383 -0.03314991 -0.046989616 -0.018914007 -0.08815072 -0.06659592 -0.11080116
0.0037590526 -0.02951809 -0.018708356 -0.0123506235 0.027094686 -0.07049638 -0.07501018 -0.046667702
-0.096550964 -0.042148758 -0.09231109 -0.05068469 -0.079217985 -0.06930454 -0.0396207 -0.0129641425
-0.042934444 -0.07075882 0.00062901806 0.03903803 0.026889263 -0.06651442 0.029715955 -0.040297423
-0.028555585 -0.085731104 -0.052254308 0.057889987 -0.042224303 -0.033776198 -0.040058546 0.07859857
-0.009905887 -0.0009756236 -0.07221675 -0.038211357 -0.031480443 -0.08829326 0.03369694 -0.037096884
-0.062796116 0.00037951677 -0.08674482 0.037678204 0.024441615 -0.02525113 -0.031189885 -0.06515835
-0.01438082 -0.07565586 -0.034890816 -0.00016839406 -0.06848597 0.0038019756 0.052586094 -0.029431019
0.038366504 -0.025399143 -0.093763806 -0.07003363 -0.05461089 -0.045791112 -0.06933951 0.0055957143
-0.023974441 -0.04002122 -0.015778944 -0.07433541 -0.02083355 -0.069292255 0.085233316 -0.011862729
0.011098265 -0.014968761 -0.037171323 -0.07964221 -0.032169916 -0.04775666 -0.10902426 -0.019314162
-0.051595367 -0.040493287 -0.01677177 -0.06437669 -0.008261936 0.0067176735 -0.05054045 -0.07208892
-0.05458339 -0.05773788 -0.040730685 -0.012833522 -0.0009417151 -0.025907414 -0.006925194 -0.029439615
-0.03397109 -0.058342356 0.0069981473 0.00766686 -0.06518164 0.012976122 -0.024760783 -0.0678766
-0.04301132 -0.014328112 -0.0066885725 0.062271234 0.055359256 0.05702581 0.0069238674 -0.07135749
0.057632055 -0.059019055 -0.03487442 0.06391637 -0.054156452 -0.039379206 -0.032115582 0.024414213
0.02877475 -0.047148664 -0.0034123135 -0.026493102 0.015709547 0.035603244 -0.017328585 -0.044127297
-0.028174084 -0.06799642 -0.021892266 -0.0881177 -0.057882488 -0.026445009 -0.005335845 -0.060833517
-0.028405147 -0.038051862 -0.049472373 -0.046530824 -0.02091984 -0.056130067 -0.0068206787 -0.05165875
0.021053242 -0.06954536 0.029920105 -0.051966317 -0.024295788 -0.030450406 0.044863537 -0.006309487
-0.036506057 -0.009862623 -0.120989956 -0.106500074 -0.030392893 -0.024911482 -0.01302141 -0.0654106
-0.0724736 -0.09025872 -0.03299823 -0.04949029 -0.00823917 0.06481811 -0.021133834 -0.09278929
-0.06111767 -0.080148764 -0.071840115 -0.019806935 0.01596776 -0.087369956 -0.014370763 -0.100695975
-0.0836874 -0.05590211 0.024989802 -0.0076321 0.0024399264 -0.050458673 -0.073241234 -0.037081353
-0.084920414 -0.057265893 -0.030247461 0.024308302 -0.062732615 0.012537009 -0.013981526 -0.019432962
0.039065387 -0.07204139 -0.06756921 0.036378782 -0.038860742 -0.044416554 -0.037883524 -0.013909846
-0.059216734 -0.056013115 0.017047517 -0.050937623 -0.009107457 -0.07730489 -0.059832256 -0.06518946
-0.06868576 -0.0558289 -0.045703758 -0.10436073 0.005340154 0.020789212 -0.034556754 -0.014624355
-0.021018082 -0.007974203 -0.02087807 -0.044931155 0.0012195274 0.03094391 -0.116213575 -0.027557801
-0.0520284 0.009323679 0.08515644 -0.057625156 -0.0037729638 -0.035359606 -0.03804119 -0.023500668
-0.040698983 -0.045652937 -0.028095657 -0.04476119 -0.05018524 -0.07394869 -0.074424244 -0.08732788
00000000: 2580 96ba 52ef 93bd a5f0 9ebc 091f 99bc
00000010: 9ec4 e5bc f1f7 8a3c 3a48 273d 40cd ddbd
00000020: 125c 08bd 661a d2bb 33c8 07bd 2f78 40bd
00000030: 8cf1 9abc 5d88 b4bd 7163 88bd b8eb e2bd
00000040: 705a 763b eccf f1bc 4442 99bc 455a 4abc
00000050: adf5 dd3c 6860 90bd f09e 99bd a226 3fbd
00000060: 83bc c5bd 2da4 2cbd 990d bdbd c09a 4fbd
00000070: 0a3d a2bd 8aef 8dbd 5149 22bd 8e67 54bc
00000080: 07dc 2fbd 00ea 90bd b0e4 243a 57e6 1f3d
00000090: df46 dc3c b638 88bd e06e f33c e90e 25bd
000000a0: 67ed e9bc ca93 afbd 9d08 56bd 0d1e 6d3d
000000b0: 64f3 2cbd e958 0abd 6e14 24bd 49f8 a03d
000000c0: 4d4c 22bc fec0 7fba 60e6 93bd 8383 1cbd
000000d0: a3f1 00bd 19d3 b4bd cd05 0a3d e7f2 17bd
000000e0: 409b 80bd e1f9 c639 45a7 b1bd 7654 1a3d
000000f0: c839 c83c 75db cebc ee81 ffbc be71 85bd
00000100: 889d 6bbc 76f1 9abd ace9 0ebd f092 30b9
00000110: 5f42 8cbd 912a 793b 8464 573d 5219 f1bc
00000120: 3226 1d3d dd11 d0bc 3d07 c0bd cb6d 8fbd
00000130: abaf 5fbd 768f 3bbd df01 8ebd 415c b73b
00000140: 0c66 c4bc 4aed 23bd d842 81bc 2a3d 98bd
00000150: 1fab aabc 19e9 8dbd ce8e ae3d e45b 42bc
00000160: 7fd5 353c 893f 75bc f540 18bd 741b a3bd
00000170: 9ac4 03bd 7d9c 43bd 1c48 dfbd bc38 9ebc
00000180: aa55 53bd 4adc 25bd f364 89bc edd7 83bd
00000190: 125d 07bc ee1f dc3b 8103 4fbd 5ba3 93bd
000001a0: d592 5fbd 8e7e 6cbd 38d5 26bd b143 52bc
000001b0: 6edd 76ba c93b d4bc bdec e2bb 592b f1bc
000001c0: 4525 0bbd 65f8 6ebd b750 e53b 483a fb3b
000001d0: f47d 85bd cd99 543c 20d7 cabc e302 8bbd
000001e0: a32c 30bd 75c0 6abc d02b dbbb 1f10 7f3d
000001f0: 63c0 623d e593 693d 9ce1 e23b e023 92bd
00000200: 970f 6c3d f7bd 71bd 7bd8 0ebd 96e6 823d
00000210: 28d3 5dbd 174c 21bd a18b 03bd 5100 c83c
00000220: 06b9 eb3c f51e 41bd 1fa1 5fbb 1008 d9bc
00000230: 4fb1 803c b5d4 113d adf4 8dbc d3be 34bd
00000240: 56cd e6bc b541 8bbd 6957 b3bc 0d77 b4bd
00000250: 3016 6dbd 34a3 d8bc 50d8 aebb 912c 79bd
00000260: e9b1 e8bc 45dc 1bbd 8ba3 4abd 1b97 3ebd
00000270: 1660 abbc a4e8 65bd 0080 dfbb 2098 53bd
00000280: d977 ac3c cc6d 8ebd 021b f53c a2da 54bd
00000290: f607 c7bc 2173 f9bc d4c2 373d d0bf cebb
000002a0: 6087 15bd d796 21bc 95c9 f7bd b61c dabd
000002b0: 84fa f8bc 2a13 ccbc c157 55bc fef5 85bd
000002c0: 0a6d 94bd 90d9 b8bd 2729 07bd 55b6 4abd
000002d0: 95fd 06bc 5bbf 843d dd20 adbc 5008 bebd
000002e0: 8656 7abd 0925 a4bd e920 93bd 2742 a2bc
000002f0: d2ce 823c 05ef b2bd 5973 6bbc b139 cebd
00000300: 4d64 abbd 9cf9 64bd 6ab7 cc3c b216 fabb
00000310: 2ce7 1f3b c1ad 4ebd 80ff 95bd 9ee2 17bd
00000320: c1ea adbd a48f 6abd 86c9 f7bc 3422 c73c
00000330: f579 80bd 0768 4d3c c512 65bc e031 9fbc
00000340: 0703 203d 708a 93bd ba61 8abd eb01 153d
00000350: 712c 1fbd 22ee 35bd c12b 1bbd 1fe6 63bc
00000360: 3f8d 72bd 026e 65bd 3ca7 8b3c f8a3 50bd
00000370: 7137 15bc 0752 9ebd ab12 75bd 0d82 85bd
00000380: 1fab 8cbd d8ac 64bd dd33 3bbd 14bb d5bd
00000390: 75fc ae3b 234e aa3c 628b 0dbd fe9a 6fbc
000003a0: 1d2e acbc 3ba6 02bc 7c08 abbc bb09 38bd
000003b0: 8dd8 9f3a 157e fd3c 6201 eebd e6c0 e1bc
000003c0: bb1b 55bd 58c2 183c 8066 ae3d 5b08 6cbd
000003d0: d443 77bb 3cd5 10bd 14d1 1bbd 7984 c0bc
000003e0: fab3 26bd 93fe 3abd dd28 e6bc 8257 37bd
000003f0: 0a8f 4dbd 6972 97bd bd6b 98bd f6d8 b2bd

network_body._body_endoder.seq_layers.4.weight f4 [256, 256]
0.009422888 -0.021181358 0.06561518 0.048351962 0.005814066 0.018053045 0.02800559 0.09829977
0.06766075 0.038332943 -0.0010724122 0.093405224 0.057888385 -0.110398345 -0.04352512 -0.034166217
0.085895844 -0.015785718 0.010810441 -0.060221653 -0.050629567 -0.03669757 0.05125496 0.012919915
-0.009515651 0.016053032 -0.071058564 0.09823654 0.09204471 -0.06072714 -0.015214342 -0.029908521
-0.11702524 -0.025783926 0.08368995 -0.036333825 0.0016284712 0.10997557 0.037920754 -0.021635545
0.0046402803 -0.089654505 0.017131504 -0.0104646245 0.03940371 -0.008044613 -0.010093914 -0.068491876
0.06958921 -0.122366995 0.12615012 -0.059719857 0.041283205 -0.103169985 0.11797296 -0.11967879
0.026312111 0.01737653 -0.15233812 -0.03287904 -0.018846767 0.09987654 0.043037105 -0.043003526
0.058735203 0.0027880983 0.0070726266 -0.03176571 -0.010799483 0.042431604 -0.0075799325 -0.04297203
-0.08824685 -0.074949056 0.021740686 -0.07568936 0.004049524 -0.046728704 0.05450217 -0.056996375
0.04438402 -0.01779514 0.0028342982 -0.028246652 0.042560343 0.101375066 -0.076637916 -0.007075187
0.012570552 -0.11918765 0.049705774 0.008077243 0.05896126 0.14319766 -0.0055633388 -0.019776024
0.0029066526 0.041851956 0.011326499 -0.061246295 -0.028034521 0.047706295 -0.16899575 -0.012604595
-0.11032238 -0.08848172 -0.011477463 -0.020613516 0.045184843 -0.008753092 -0.0747707 -0.0052009514
-0.062263925 0.07885415 -0.08407014 0.016157553 0.032588217 -0.08111465 -0.14390478 0.029566687
-0.026977504 -0.0022222057 -0.012830648 0.069816336 -0.01202783 -0.0019619293 0.012139068 -0.002673031
-0.046016015 -0.020959929 0.044954453 -0.049164195 0.0048970757 0.041429665 -0.04584893 -0.03759311
0.031550456 -0.012829615 0.08191749 0.038931157 -0.0064924266 0.08217333 0.013438143 0.0038376746
-0.0037325385 0.00830856 0.015209086 0.059561484 -0.07410813 0.12299235 0.046420913 -0.062926084
-0.023530522 -0.050985284 0.017370587 -0.116662726 0.023448687 0.018577864 -0.02833749 0.044005286
-0.07706795 0.037102975 -0.027827743 0.051557917 -0.04891139 0.04034131 0.15372588 -0.018941961
-0.059942663 0.025438497 0.043303285 0.1515096 -0.049879488 -0.07067599 0.12789738 -0.017098041
-0.09373112 -0.108274594 -0.014772378 -0.082235575 -0.021034895 0.03587248 -0.015102326 -0.046904374
0.039936963 -0.0962706 0.004698342 0.020009933 0.0022882053 0.065563634 0.00043392667 0.105142266
-0.08832917 -0.060786184 0.07174987 -0.0018314241 -0.14009927 -0.0118382815 -0.008111329 -0.048994698
0.092895046 -0.01127312 0.061186407 -0.06616023 -0.049861785 -0.025002837 0.012569928 -0.0033296172
-0.058959678 -0.15757628 0.14716505 -0.030357823 -0.00497453 0.07628029 0.07957153 0.16729763
0.0045147557 0.03469159 -0.048526112 0.011511702 0.19407372 0.08369336 0.0027871944 0.040247273
-0.010748637 -0.017260358 -0.018997837 -0.021096447 -0.035560377 -0.032387633 -0.10368167 -0.07945934
0.062966056 -0.050565273 0.0444711 -0.012166335 -0.009287056 -0.041978836 0.08935071 0.015139826
0.02748037 -0.0040426995 0.03640315 0.040132243 -0.022544002 -0.088367514 -0.0073863086 -0.09220676
-0.009319507 0.018435633 0.047511276 -0.040131267 0.033055507 -0.07230348 -0.031388227 0.075172275
00000000: 7562 1a3c 8784 adbc 4061 863d b50c 463d
00000010: ec83 be3b fbe3 933c fb6b e53c 6451 c93d
00000020: b891 8a3d 0103 1d3d 2f90 8cba 3d4b bf3d
00000030: 5f1c 6d3d 8718 e2bd 6547 32bd e0f1 0bbd
00000040: 29ea af3d 0d51 81bc 471e 313c fbaa 76bd
00000050: f360 4fbd 3150 16bd b9f0 513d 0dae 533c
00000060: 88e7 1bbc a681 833c 2787 91bd 3d30 c93d
00000070: f081 bc3d 06bd 78bd 9345 79bc b702 f5bc
00000080: eeaa efbd d038 d3bc a365 ab3d c7d2 14bd
00000090: 6d72 d53a df3a e13d cb52 1b3d 073d b1bc
000000a0: 7e0d 983b c89c b7bd 5e57 8c3c d173 2bbc
000000b0: c965 213d 8dcd 03bc f260 25bc 7845 8cbd
000000c0: ca84 8e3d 8c9b fabd 7f2d 013e cf9c 74bd
000000d0: 9418 293d c94a d3bd cf9b f13d 271a f5bd
000000e0: 7f8c d73c 3a59 8e3c 86fe 1bbe 2cac 06bd
000000f0: 8964 9abc 128c cc3d ad47 303d 7724 30bd
00000100: 5394 703d 87b8 363b 7ec1 e73b c31c 02bd
00000110: 51f0 30bc c3cc 2d3d 1561 f8bb 7003 30bd
00000120: c4ba b4bd e47e 99bd 8619 b23c 0603 9bbd
00000130: dfb1 843b 9966 3fbd ab3d 5f3d 0875 69bd
00000140: 05cc 353d 1dc7 91bc a2bf 393b 8665 e7bc
00000150: c153 2e3d bb9d cf3d 57f4 9cbd f8d6 e7bb
00000160: b7f4 4d3c a818 f4bd 4898 4b3d 6a56 043c
00000170: 5d81 713d 68a2 123e ab4c b6bb 5401 a2bc
00000180: 8a7d 3e3b f56c 2b3d c892 393c 65dd 7abd
00000190: a7a8 e5bc ad67 433d 390d 2dbe 8183 4ebc
000001a0: b3f0 e1bd e735 b5bd f80b 3cbc addd a8bc
000001b0: be13 393d 2169 0fbc 6121 99bd be6c aabb
000001c0: 7508 7fbd 497e a13d f72c acbd d85c 843c
000001d0: 397b 053d 701f a6bd c65b 13be d635 f23c
000001e0: edff dcbc 6da2 11bb a337 52bc defb 8e3d
000001f0: 6010 45bc b693 00bb f1e2 463c 052e 2fbb
00000200: 4a7b 3cbd 28b4 abbc 2922 383d 6560 49bd
00000210: a677 a03b 27b2 293d 16cc 3bbd 3cfb 19bd
00000220: 0d3b 013d 4e33 52bc 5bc4 a73d 4776 1f3d
00000230: 6cbe d4bb 7e4a a83d a82b 5c3c 7f81 7b3b
00000240: 9b9d 74bb a020 083c 882f 793c bef6 733d
00000250: 01c6 97bd 6ae3 fb3d db23 3e3d 64df 80bd
00000260: 15c3 c0bc f2d5 50bd c34c 8e3c deec eebd
00000270: 7617 c03c 9b30 983c 0624 e8bc e33e 343d
00000280: cdd5 9dbd 4af9 173d 02f7 e3bc 652e 533d
00000290: 4f57 48bd ee3c 253d 516a 1d3e 2c2c 9bbc
000002a0: 7086 75bd 6564 d03c c95e 313d 5525 1b3e
000002b0: 6f4e 4cbd 93be 90bd 88f7 023e 3111 8cbc
000002c0: 1af6 bfbd 12bf ddbd d807 72bc 206b a8bd
000002d0: 5f51 acbc 06ef 123d bf6f 77bc cd1e 40bd
000002e0: f194 233d 8529 c5bd 8df4 993b dfeb a33c
000002f0: b7f5 153b 3a46 863d a780 e339 d454 d73d
00000300: ede5 b4bd effa 78bd 99f1 923d 650c f0ba
00000310: 2f76 0fbe 5af5 41bc 61e5 04bc aaae 48bd
00000320: c23f be3d e4b2 38bc 999e 7a3d 047f 87bd
00000330: df3b 4cbd c0d2 ccbc 19f2 4d3c b535 5abb
00000340: b47f 71bd ad5b 21be 6fb2 163e f8b0 f8bc
00000350: 6201 a3bb d738 9c3d 66f6 a23d 1250 2b3e
00000360: 84f0 933b c518 0e3d 51c3 46bd 949b 3c3c
00000370: 43bb 463e 6d67 ab3d 5da9 363b 53da 243d
00000380: 0d1b 30bc 9865 8dbc 5aa1 9bbc 75d2 acbc
00000390: c2a7 11bd e5a8 04bd 0e57 d4bd 94bb a2bd
000003a0: 59f4 803d 881d 4fbd 5427 363d 4f55 47bc
000003b0: bc28 18bc 00f2 2bbd 81fd b63d 080d 783c
000003c0: 831e e13c 9f78 84bb 781b 153d b561 243d
000003d0: 33ae b8bc 07fa b4bd d908 f2bb e6d6 bcbd
000003e0: d8b0 18bc 5306 973c 2f9b 423d af60 24bd
000003f0: 3665 073d d913 94bd f190 00bd ecf3 993d

network_body._body_endoder.seq_layers.4.bias f4 [256]
-0.022497306 0.02789619 -0.003613207 0.013852542 -0.015215673 -0.044851672 -0.050526347 -0.043098316
0.000107657084 0.00012611755 -0.025904942 -0.010085695 -0.018107206 -0.015654184 -0.02484529 -0.076674476
-0.008164261 -0.0078095184 -0.020765977 -0.008373405 -0.010176358 -0.02257217 0.0009772108 -0.00070738327
-0.042954624 -0.028895926 0.014406037 -0.0042382814 0.0053706043 -0.0073682666 0.04024239 -0.007126391
-0.0017416797 -0.1118731 -0.006132297 0.02410115 -0.0077442992 0.006771014 0.029437497 -0.10617801
-0.0023905323 0.00219248 -0.09454097 -0.09103834 -0.014476734 0.011190342 -0.033806078 -0.018690491
-0.011254924 -0.031838566 -0.08616819 -0.10081021 0.002779997 -0.011893513 0.026125703 0.0108299665
-0.005660785 0.013657042 -0.026209116 -0.010111981 0.0067361104 -0.03713258 0.032190204 -0.09096539
-0.0148912575 0.016270906 0.025976682 -0.06578375 -0.014871868 -0.015427394 -0.04032204 -0.008379452
-0.011169833 -0.084482506 0.013992547 0.009093713 0.005685522 0.035953633 0.0050984477 -0.024806207
0.028439004 0.022006879 -0.007055633 -0.0035143653 -0.04383715 -0.046053175 -0.047792 -0.028501209
-0.07343557 -0.050880667 0.031530958 0.0015285009 0.006603144 -0.1119924 0.0016563066 -0.025082858
-0.0911569 0.024652956 -0.1070839 -0.020041367 -0.022917882 -0.059640046 -0.00949966 0.016068744
-0.020676168 -0.03194945 -0.051797286 -0.026164189 -0.0036214727 0.03658441 -0.046245195 0.0031885058
-0.105870254 0.03583111 -0.0062734606 -0.012970544 -0.020380711 -0.0038194244 0.012574813 -0.006084651
0.013060999 0.023568524 -0.014528169 -0.035821836 0.028790832 -0.104925096 -0.021041038 0.0045106886
0.021876654 0.00080325286 -0.01693216 0.007655821 -0.032630865 -0.087764345 -0.10064422 -0.0025844807
0.017593676 -0.076938905 -0.005870631 -0.07169799 -0.037649732 -0.095692486 0.029077679 -0.007978042
-0.0156648 -0.08683922 0.022649288 -0.005370856 -0.03177801 0.044451077 -0.049756087 -0.007056834
-0.048299946 -0.026743973 0.004590264 0.020911254 -0.0027571616 -0.0076398165 -0.042905964 -0.030440073
-0.0034552428 -0.0011928283 0.003618666 -0.014299631 -0.07296 -0.015589817 -0.0032995273 0.0065799262
-0.002326404 -0.004778825 0.011063863 1.6078295e-06 -0.00654004 -0.008710816 -0.018767959 0.024793016
-0.010052199 0.0135538215 0.008532388 0.012188911 -0.030818067 -0.0022706173 -0.046112437 -0.06349025
-0.031775594 -0.0014437712 -0.020365177 -0.008675724 0.023760615 -0.021388615 0.031674705 -0.032391086
-0.03823112 -0.018914403 0.017227149 -0.005026881 -0.0004986405 -0.010093095 0.012679782 -0.014481161
0.013622771 -0.004142037 -0.008191396 -0.014426737 -0.002849336 -0.11697129 -0.017713312 -0.12854269
-0.010487148 -0.073051974 0.035502505 -0.0047664745 0.024452385 0.003062793 -0.053482633 0.045422785
0.0035135592 0.042299356 0.018941069 0.046382308 -0.047462743 -0.116981596 -0.015067041 -0.016922062
-0.00021949272 -0.01276429 -0.001645703 -0.021794084 -0.02352646 0.010227058 -0.0042822245 -0.018063413
-0.015081797 -0.03602469 0.049987145 -0.026539845 -0.09616958 0.004697474 -0.026867136 -0.095806725
-0.11291555 0.00714769 -0.014408332 -0.009294801 0.0026579613 -0.048795745 -0.007987351 0.024112416
-0.0027654795 -0.06315699 0.010171174 -0.026871763 0.0026859143 -0.0006759172 -0.113213204 -0.0034534715
00000000: 454c b8bc 8d86 e43c 8ecb 6cbb c6f5 623c
00000010: 284b 79bc 63b6 37bd b7f4 4ebd dc87 30bd
00000020: f5c5 e138 6c3e 0439 9a36 d4bc 793e 25bc
00000030: 9055 94bc 343d 80bc 5a88 cbbc 8207 9dbd
00000040: 64c3 05bc fde6 ffbb 691d aabc 9b30 09bc
00000050: bdba 26bc 45e9 b8bc c115 803a b06f 39ba
00000060: 30f1 2fbd 26b7 ecbc 4c07 6c3c 48e1 8abb
00000070: e5fb af3b 8071 f1bb 34d5 243d 8084 e9bb
00000080: 1349 e4ba b91d e5bd 70f1 c8bb c66f c53c
00000090: e4c3 fdbb 62df dd3b e826 f13c db73 d9bd
000000a0: 7aaa 1cbb b6af 0f3b b29e c1bd 4f72 babd
000000b0: d32f 6dbc b257 373c 3e78 0abd cd1c 99bc
000000c0: 9366 38bc 2869 02bd f378 b0bd 9575 cebd
000000d0: 9c30 363b 02dd 42bc 9205 d63c 2c70 313c
000000e0: 1b7e b9bb c9c1 5f3c 80b4 d6bc b9ac 25bc
000000f0: 97ba dc3b 5518 18bd e0d9 033d 104c babd
00000100: 76fa 73bc 904a 853c 0dcd d43c a1b9 86bd
00000110: 23a9 73bc 2ec3 7cbc b928 25bd f849 09bc
00000120: ad01 37bc 2a05 adbd ff40 653c ccfd 143c
00000130: 9e4d ba3b 1e44 133d e110 a73b 6336 cbbc
00000140: eaf8 e83c c547 b43c f032 e7bb 4451 66bb
00000150: 958e 33bd 41a2 3cbd 8bc1 43bd 5e7b e9bc
00000160: 6365 96bd 3f68 50bd 9b26 013d fb57 c83a
00000170: 305f d83b 455c e5bd 6d18 d93a 917a cdbc
00000180: 78b0 babd fff4 c93c ce4e dbbd cb2d a4bc
00000190: 48be bbbc 1f49 74bd 76a4 1bbc 99a2 833c
000001a0: 1161 a9bc 6ddd 02bd 6429 54bd 4856 d6bc
000001b0: 3b56 6dbb 89d9 153d 9a6b 3dbd 40f6 503b
000001c0: 81d2 d8bd a4c3 123d 9a91 cdbb 6882 54bc
000001d0: 73f5 a6bc 4f4f 7abb 9706 4e3c c161 c7bb
000001e0: cdfd 553c c712 c13c 8f07 6ebc ebb9 12bd
000001f0: c0da eb3c f8e2 d6bd 415e acbc 66ce 933b
00000200: ab36 b33c 6391 523a 50b5 8abc aedd fa3b
00000210: f1a7 05bd cbbd b3bd 8f1e cebd 6460 29bb
00000220: 9d20 903c 2592 9dbd 6c5e c0bb 65d6 92bd
00000230: 9b36 1abd 6cfa c3bd 5034 ee3c 55b6 02bc
00000240: 7753 80bc c3d8 b1bd 008b b93c 01fe afbb
00000250: a929 02bd 5512 363d 0acd 4bbd 043d e7bb
00000260: 2ad6 45bd 2d16 dbbc ed69 963b 144e ab3c
00000270: 7fb1 34bb 6d57 fabb 2abe 2fbd 765d f9bc
00000280: 5b71 62bb ad58 9cba 2427 6d3b 0049 6abc
00000290: 0d6c 95bd 6f6c 7fbc e23c 58bb 6c9c d73b
000002a0: 9576 18bb b197 9cbb 3445 353c 9acc d735
000002b0: d54d d6bb cfb7 0ebc 43bf 99bc b91a cb3c
000002c0: fab1 24bc d910 5e3c 6ecb 0b3c 00b4 473c
000002d0: 2c76 fcbc a3ce 14bb 65e0 3cbd 2d07 82bd
000002e0: 2027 02bd ec3c bdba dfd4 a6bc a024 0ebc
000002f0: 9fa5 c23c 2d37 afbc 56bd 013d 84ac 04bd
00000300: 3c98 1cbd 61f2 9abc f31f 8d3c 89b8 a4bb
00000310: 33b7 02ba 825d 25bc dcbe 4f3c 6442 6dbc
00000320: 0b32 5f3c edb9 87bb 3435 06bc 1f5e 6cbc
00000330: edbb 3abb a58e efbd 821b 91bc b2a0 03be
00000340: 49d2 2bbc 469c 95bd 136b 113d 1630 9cbb
00000350: 5e50 c83c 24b9 483b 9b10 5bbd 3e0d 3a3d
00000360: be43 663b 1742 2d3d 4d2a 9b3c 60fb 3d3d
00000370: 4b68 42bd 0c94 efbd c0db 76bc 23a0 8abc
00000380: a127 66b9 5021 51bc a1b4 d7ba 8289 b2bc
00000390: 90ba c0bc 648f 273c e751 8cbb b9f9 93bc
000003a0: a419 77bc a08e 13bd 52bf 4c3d 176a d9bc
000003b0: 8ff4 c4bd 45ed 993b 7818 dcbc 5136 c4bd
000003c0: 4540 e7bd 2b37 ea3b ed10 6cbc 3949 18bc
000003d0: 3131 2e3b 0cde 47bd 61dd 02bc 6787 c53c
000003e0: 0c3d 35bb 7458 81bd ffa4 263c 2c22 dcbc
000003f0: 2a06 303b 0930 31ba 53dc e7bd a353 62bb

action_model._continuous_distribution.log_sigma f4 [1, 2]
-0.35203564 -0.36209404
00000000: 043e b4be 6464 b9be

action_model._continuous_distribution.mu.weight f4 [2, 256]
-2.5762152e-05 0.00061502814 -0.0041258004 -0.00021332668 0.00058819324 0.00033637666 0.00026634548 -0.009604222
-0.00065051997 0.0004357907 -0.00020379848 0.0009128878 -0.00075477693 0.00041545834 -0.0011768624 -0.011929089
0.005776644 -1.6023214e-05 -7.7536664e-05 -0.015408206 -0.01200687 -0.00013105558 0.00022403542 0.00045048696
-0.001307899 0.0093098525 -0.00015727221 -0.005068336 0.00013676845 -0.05254775 -0.0015886725 0.002466287
0.0012600042 0.014442873 -0.00017918105 -0.007502312 0.002460555 -0.011958547 -0.0048783873 0.0039037187
0.0021364787 7.326605e-05 0.115721256 0.0047098994 0.001159971 -0.00015689808 -0.012200386 -0.00056458235
0.00012856052 0.0023578384 0.007179228 0.0012904801 -0.0005855135 0.001337194 -0.051714137 0.006181443
-0.0001699939 -0.0002784055 0.010074071 -0.0105451085 -0.0002691437 -0.0002561999 -0.006927931 -0.011639873
-0.0020562941 -8.085631e-05 -0.025885323 0.020713229 -0.0006973805 -0.013265922 0.0008254537 -0.0001400957
-0.002580307 -0.0042624315 -0.00013241917 -0.00016748652 -0.006229497 -0.0002425375 0.002314563 -0.00016523161
-0.000109319815 -0.0005365281 -0.0002849287 0.00012686354 -0.007703034 -9.011838e-05 -0.011102712 -0.010217337
-0.01157332 -0.0011286834 0.00096367137 1.6424943e-05 -0.03626741 -0.018699532 0.012786542 -0.026763592
0.009207013 -0.030643102 0.008227086 0.0004854594 -0.0013050102 0.027210174 -8.9456546e-05 -0.00027275144
-0.0003139088 -0.0021930202 -0.000611449 0.00031001787 0.008449536 -0.0057171797 -0.00022769369 0.004873394
0.050504617 -0.04183709 0.03144 0.00022995952 -0.0003692718 0.008925063 -0.010649367 -0.0010866886
-0.02475068 -0.00034391016 0.0005742774 -0.016820494 -0.040229734 -0.018102394 0.011023771 -0.00024420102
0.008541127 3.0331787e-05 3.5661502e-05 -0.018424956 0.001075845 0.014818632 0.008401402 -0.028100722
-0.005591027 0.013055911 -0.00014535051 0.017509945 -0.013053079 0.027874546 0.016618343 0.008621246
-5.891849e-05 -0.010374334 -0.0073468313 -0.000733254 -0.00013098906 0.010695548 0.00011599902 0.00023727462
-0.0051599494 -0.0018045417 -0.00016864287 -0.00026304513 -0.0050605745 0.00021132326 -0.00026638675 -0.0014648822
-0.00027343188 0.00022091763 3.8460716e-05 0.00036264444 0.01838895 0.00012388581 0.0010553927 -0.00058637385
0.00016523484 1.964395e-05 0.00071254116 -7.097195e-06 -0.00054162147 -0.010159361 0.0001886208 -0.045692377
-0.0039798794 -0.00017302553 0.012839918 7.180071e-05 -0.02148553 0.00089594733 -0.010253845 -0.016650623
-0.008079955 -0.00021017868 0.0061908932 0.00024062596 -0.0008523666 -0.0015091558 -0.015825322 0.00018329208
-0.00037923895 -0.00028162883 -0.00834871 -0.012786836 -0.00014974228 0.0010975788 -0.00048811437 -0.00012656777
-0.00056358485 8.8577704e-05 0.00049001694 -0.0005147388 -0.00020561229 0.007121028 -0.0007229744 0.0008300581
-0.015223064 0.019187244 0.0035905503 0.00072792155 -0.012105818 -0.00029813725 0.000115379305 -0.012483291
-4.1510077e-05 -0.0071695396 0.0010168244 -0.030596867 -0.0048534498 -0.006371315 -0.0006319124 -0.0025491754
-0.0084961755 -0.0023282962 0.005852901 0.0004945259 -0.008307123 0.000107975386 -0.00031286638 -3.0195502e-05
-0.010901807 0.00014042619 -0.063621126 -0.011104479 0.0011651448 0.0034065414 -0.00015723846 0.022608519
-0.024306996 -0.0015162834 -0.010528866 0.00027881894 0.00026700573 -0.00028359625 0.009656574 -0.017708965
-0.0018453373 -0.006794115 0.0021471235 -0.004448446 0.0004488446 -0.026826812 0.016097182 9.800517e-05
00000000: cd1b d8b7 d739 213a b931 87bb 72b0 5fb9
00000010: fb30 1a3a b65b b039 49a4 8b39 075b 1dbc
00000020: a887 2aba d67a e439 bdb2 55b9 dd4e 6f3a
00000030: 39dc 45ba e0d1 d939 f340 9aba 3a72 43bc
00000040: 014a bd3b 9769 86b7 2e9b a2b8 b372 7cbc
00000050: 76b8 44bc f76b 09b9 0deb 6a39 562f ec39
00000060: cf6d abba 5a88 183c 70e9 24b9 4914 a6bb
00000070: 8069 0f39 4f3c 57bd 013b d0ba 6ea1 213b
00000080: ba26 a53a cda1 6c3c 8ce2 3bb9 f4d5 f5bb
00000090: 4341 213b c8ed 43bc e1da 9fbb 88d5 7f3b
000000a0: 2a04 0c3b 69a6 9938 44ff ec3d 8055 9a3b
000000b0: 2b0a 983a 0285 24b9 21e4 47bc 7b00 14ba
000000c0: 34ce 0639 f785 1a3b bb3f eb3b 5425 a93a
000000d0: 257d 19ba c944 af3a 34d2 53bd b48d ca3b
000000e0: 6440 32b9 f4f6 91b9 b70d 253c 64c5 2cbc
000000f0: db1b 8db9 9252 86b9 b303 e3bb 2ab5 3ebc
00000100: e4c2 06bb 6791 a9b8 750d d4bc caae a93c
00000110: 6ad0 36ba 4f59 59bc 4363 583a a7e6 12b9
00000120: 5e1a 29bb deab 8bbb 00da 0ab9 529f 2fb9
00000130: cf20 ccbb aa51 7eb9 ecaf 173b 0642 2db9
00000140: a142 e5b8 cba5 0cba 7c62 95b9 ac06 0539
00000150: bc69 fcbb f0fd bcb8 26e8 35bc 9e66 27bc
00000160: 069e 3dbc 55f0 93ba e49e 7c3a 4cc8 8937
00000170: 238d 14bd c32f 99bc a57e 513c 523f dbbc
00000180: 03d9 163c 3e07 fbbc e6ca 063c 4285 fe39
00000190: e00c abba dfe7 de3c 9e9a bbb8 1400 8fb9
000001a0: 2094 a4b9 c6b8 0fbb a649 20ba e589 a239
000001b0: ec6f 0a3c 2e57 bbbb 0fc1 6eb9 feb0 9f3b
000001c0: eedd 4e3d 5e5d 2bbd 3bc7 003d 4a21 7139
000001d0: d29a c1b9 6d3a 123c af7a 2ebc 386f 8eba
000001e0: f0c1 cabc d74e b4b9 1b8b 163a 22cb 89bc
000001f0: efc7 24bd 794b 94bc 0c9d 343c 1b08 80b9
00000200: 15f0 0b3c 0471 fe37 3f93 1538 efef 96bc
00000210: 5e03 8d3a d9c9 723c 09a6 093c 7c33 e6bc
00000220: ef34 b7bb 76e8 553c 3b69 18b9 0471 8f3c
00000230: 95dc 55bc 2959 e43c 3123 883c 2040 0d3c
00000240: 3f1f 77b8 1cf9 29bc b0bd f0bb d837 40ba
00000250: 1c5a 09b9 613c 2f3c 8044 f338 eccc 7839
00000260: cb14 a9bb 5f86 ecba bad5 30b9 52e9 89b9
00000270: 2dd3 a5bb a896 5d39 d3a9 8bb9 4a01 c0ba
00000280: 685b 8fb9 20a6 6739 e150 2138 5021 be39
00000290: 6ca4 963c 58e7 0139 1a55 8a3a e2b6 19ba
000002a0: e442 2d39 10c9 a437 d4c9 3a3a 7124 eeb6
000002b0: 9afb 0dba 7373 26bc 83c8 4539 ee27 3bbd
000002c0: a669 82bb 306e 35b9 855e 523c b693 9638
000002d0: 6c02 b0bc 02de 6a3a beff 27bc e366 88bc
000002e0: ca61 04bc 6963 5cb9 fadc ca3b 8a50 7c39
000002f0: 5b71 5fba dece c5ba 1ba4 81bc 1832 4039
00000300: 97d4 c6b9 95a7 93b9 07c9 08bc e17f 51bc
00000310: 2304 1db9 a2dc 8f3a 9ae9 ffb9 47b7 04b9
00000320: 8abd 13ba cbc2 b938 7b74 003a 89ef 06ba
00000330: a199 57b9 8357 e93b fe85 3dba 4298 593a
00000340: 296a 79bc 912e 9d3c 704f 6b3b fdd1 3e3a
00000350: 7b57 46bc 4e4f 9cb9 cbf7 f138 b886 4cbc
00000360: 1b1b 2eb8 75ee eabb f746 853a 48a6 fabc
00000370: b009 9fbb 77c6 d0bb eca6 25ba 1110 27bb
00000380: 8b33 0bbc 5496 18bb b1c9 bf3b 12a3 013a
00000390: 991a 08bc d870 e238 3708 a4b9 594c fdb7
000003a0: 7e9d 32bc 5e3f 1339 cb4b 82bd 90ef 35bc
000003b0: c6b7 983a 4840 5f3b 61e0 24b9 8035 b93c
000003c0: 771f c7bc 07be c6ba 4481 2cbc 722e 9239
000003d0: e7fc 8b39 a5af 94b9 9b36 1e3c 6412 91bc
000003e0: 3fdf f1ba 2ba1 debb c1b6 0c3b 45c4 91bb
000003f0: e752 eb39 e7c3 dbbc 3dde 833c 2088 cd38

action_model._continuous_distribution.mu.bias f4 [2]
-0.07608962 0.032048002
00000000: e0d4 9bbd c444 033d
