MLAgents Jumper Exercise/Assets/results/beta_1/JumperAgent.onnx (onnx, 570158 bytes, 15 tensors)

network_body.observation_encoder.processors.0.normalizer.running_mean f4 [26]
00000000: 0151 403f 54ff 443f 5c51 403f 8b18 453f
00000010: 5c51 403f 8b18 453f 1a59 403f 096b 453f
00000020: 1a59 403f 096b 453f 825f 403f d20a 463f
00000030: 825f 403f d10a 463f e90a 443f 0d82 493f
00000040: d90a 443f ff81 493f e410 4c3f 5829 503f
00000050: cf10 4c3f 5329 503f f241 573f 9b8f 593f
00000060: f241 573f 9b8f 593f
0.751236 0.769521 0.75124145 0.76990575 0.75124145 0.76990575 0.7513596 0.7711645
0.7513596 0.7711645 0.75145733 0.7736026 0.75145733 0.77360255 0.7657915 0.78714067
0.7657905 0.78713983 0.79713273 0.81313086 0.7971315 0.81313056 0.84085 0.8498475
0.84085 0.8498475

network_body.observation_encoder.processors.1.normalizer.running_mean f4 [2]
00000000: b37d 0c3e 81c7 c6bc
0.13719825 -0.024265053

network_body._body_endoder.seq_layers.0.weight f4 [256, 28]
00000000: 6d2a 4d3d b977 5ebe d3ec 743e ee9f 37be
00000010: ad66 4d3e 7991 8c3e 0e5f a0bc 626c 8bbe
00000020: 4044 8e3d 199b 0d3e bfbb 35be 584b deb7
00000030: 9051 d33c 569b 91bd 6490 0fbc 9d0d 8ebd
00000040: 0105 923d 0370 20be 23ef f53d 8157 553e
00000050: a077 48be 8831 673d 2f80 85be a684 ae3c
00000060: aeab 98bd 5be8 18be 432f c8bc 9744 313e
00000070: 16e6 0c3e 5665 ad3d bb65 37be fbab 8c3e
00000080: 066d 823d b7b9 e63d 62e5 0d3e 7885 b43d
00000090: 7956 13be aa97 98bc 4061 103c 9a2d 2d3c
000000a0: 2179 13be ff6f 253d d2b6 323e 5b2d 3f3e
000000b0: f160 c03b 9e11 8bbd 75e9 7e3e ce7a 5cbe
000000c0: dc13 05be d1f3 e4be 7419 8c3d 44b5 2dbe
000000d0: b1bb 27be eeaf 19be 9ac0 5ebd 373c e8bd
000000e0: ee7c 153e 7e0b 33bc 6909 a03e e68f 0e3e
000000f0: dd3e 23be 7604 e6bd 8ccb 823e 6187 02be
00000100: 846b 193d c74f f7bd 247a 243e 052b b7bd
00000110: 7c24 2fbd 43cd 21be 2f00 3a3e 774f 0a3e
00000120: bd4b 6a3b 422e 55bb 49c9 9c3e 743b 643d
00000130: e730 ddbc 6db6 6e3d fce8 bf3b 2f06 bf3d
00000140: eac8 463d 30bf c43d 0c63 a13e 101a 893e
00000150: ebe3 1e3c f870 d0bd e371 93be 6a4a b7bd
00000160: 78c1 2e3e c0a4 513d 6aec 85be dbb4 4abe
00000170: ff47 b03e 965a 45be 6d54 263e 3c66 bebd
00000180: c143 19be ca4e 6d3e 594d c3bd 489f 8abb
00000190: 4e3f 2ebd 7e7f 593e d726 b43c f631 8b3c
000001a0: 0ed4 d0bd ef73 6fbe b6d9 46be f2e2 8f3e
000001b0: 2d5e b6bd a66d d8bd d7af ecbe e41d a03d
000001c0: 4e19 2c3e a51f babd 144e 07bd 93c4 413e
000001d0: 60a8 8b3d 3f2e 4ebb 92d1 81be 1505 9c3c
000001e0: ff0e cb3d 86d4 1abe d3fa 58be 665c d43d
000001f0: d287 7abe 3ec3 ccbd bc0d 033e bfea 983d
00000200: a8a4 333d b7c3 963e 0a17 96be 22c8 e03d
00000210: 9fb5 43be 92f9 8c3e 641a ad3d d20a cf3d
00000220: d711 8fbb 7abc dabd d31a bc3e d40e 843d
00000230: 9799 823e 8095 cbbe ce59 203e 4af1 2abd
00000240: f09c d2bd 4ac6 133e 3cfc 2e3e e532 efbd
00000250: dba1 5bbb 2cd5 b6bd 88f0 c53c b48a 033c
00000260: 798a 14be 56a6 603d 7d64 d5bc 7874 14bd
00000270: 809a 8ebe 3d2c 00be 9622 283e ef8d e23c
00000280: 5e18 25be b42e a73e 3a56 993e a1c9 bdbc
00000290: 0529 37bd c643 343d ea3b d53c 2e95 2cbd
000002a0: 4b2a 1b3e 0e94 013e e68d 163e 0467 38be
000002b0: 27b9 74be d915 023e 11b5 b6bc 5659 0d3e
000002c0: 1793 3b3d 0809 0f3e 257b cfbc ffa0 c7bd
000002d0: 2c49 88be ec3e 673c 0e2a 8d3e 3638 363e
000002e0: 5690 53bd 61c7 a8be da4a afbe bc5b 3ebe
000002f0: c691 af3d 9b15 81be 322c e4be 6a9e 163e
00000300: 189b 263e 64ae 353e 3f6d 373d 636e f33e
00000310: 594d 813e eee2 6cbe 2463 d6bd f30d 47be
00000320: 277c 953e f472 2c3e d9b0 913e e51d d6bc
00000330: c073 9b3d b2a7 85be fe05 64be 3e08 6ebe
00000340: 6c60 a5bc e99a b6bd bc62 803e e049 eb3c
00000350: 1473 9d3d ae15 31bd 5cb8 603e 7725 a8bd
00000360: 97ae 53be 2e3a cd3d 08d6 653d d2b4 c3be
00000370: 7f58 bb3d 8a7f 56bc 3351 a93e 52af 8ebe
00000380: 05a5 2bbe 6e2d 513e dfd4 8fbd 2498 f1bd
00000390: c5e1 243e 88d8 9f3e c5ed b63d 9d1e 40bd
000003a0: 3e11 89be 1abd 52bc b11b 71be bd11 c0bd
000003b0: e657 993e 9f52 613e 715e fe3d 9a79 99bd
000003c0: dd01 783c 3015 443e 5787 543c fa17 ffbd
000003d0: 6d27 4abe cda0 c6bd 848c 87be 0c42 58be
000003e0: a908 cd3d d41e afbc 17a0 2fbe dd00 08bf
000003f0: 4be0 5d3e fde2 973e 5725 523e e783 58bd
0.05008929 -0.21725358 0.23918466 -0.17932102 0.20058699 0.27454737 -0.019576576 -0.27231127
0.069466114 0.13828696 -0.177474 -2.6499547e-05 0.025795728 -0.07109706 -0.008762453 -0.0693619
0.07129861 -0.15667729 0.12008502 0.20834161 -0.19576883 0.05644372 -0.2607436 0.021303486
-0.0745462 -0.14932387 -0.024436599 0.17311321 0.13759646 0.08466594 -0.17909901 0.2747496
0.06368451 0.11265891 0.13857034 0.0881452 -0.14388455 -0.018627007 0.008812249 0.010569954
-0.14401676 0.04039001 0.17452553 0.18669645 0.0058709313 -0.067904696 0.24893744 -0.21531221
-0.12995857 -0.44717267 0.06840792 -0.16963679 -0.16380192 -0.15008518 -0.054382898 -0.1133961
0.14598438 -0.010928033 0.3125718 0.1392208 -0.15941949 -0.112313196 0.2554592 -0.12746955
0.03745605 -0.12075763 0.16062218 -0.08943752 -0.042759404 -0.15800957 0.18164133 0.13506876
0.003575071 -0.0032528793 0.30622318 0.05572076 -0.027000858 0.058279444 0.0058566313 0.09327351
0.04853145 0.096067786 0.3152088 0.26777697 0.009697895 -0.10177797 -0.28797826 -0.0894974
0.1706599 0.05118251 -0.26156932 -0.19795553 0.3442993 -0.19272837 0.16243143 -0.092968434
-0.14967252 0.23174587 -0.09536237 -0.0042304136 -0.04254084 0.2124004 0.021991177 0.016991597
-0.10196696 -0.23384069 -0.19418988 0.28102833 -0.08904681 -0.10567789 -0.46227905 0.07818201
0.16806528 -0.09088067 -0.033033445 0.18922643 0.06819224 -0.003146067 -0.25355202 0.019045392
0.0991497 -0.15120134 -0.21189432 0.10369186 -0.24465874 -0.09998177 0.12798208 0.07466649
0.0438582 0.29446194 -0.29314452 0.10975672 -0.19112252 0.27534157 0.08452299 0.10109486
-0.0043661403 -0.1068048 0.36739215 0.06448141 0.25507805 -0.39762497 0.15659258 -0.041734017
-0.1028384 0.1443111 0.17088407 -0.11679629 -0.0033513221 -0.08927378 0.024162546 0.008028675
-0.14505948 0.05484613 -0.026048893 -0.036243886 -0.2785225 -0.12516876 0.16419443 0.02765557
-0.16122577 0.3265282 0.29948598 -0.023167433 -0.044716854 0.044009946 0.026029546 -0.042134456
0.15152852 0.12654135 0.14702567 -0.18008047 -0.23898755 0.12703647 -0.022303136 0.1380361
0.045794573 0.13968289 -0.025327275 -0.097475044 -0.26618326 0.014114123 0.27571148 0.1779488
-0.05165132 -0.32964614 -0.34236795 -0.18589681 0.08572726 -0.25211796 -0.44564968 0.14708868
0.16270101 0.17742306 0.04478192 0.47545156 0.25254324 -0.23133442 -0.10468128 -0.19438915
0.29196283 0.16840726 0.28455237 -0.026137302 0.07590437 -0.26104504 -0.22267911 -0.23245332
-0.02018758 -0.089162655 0.25075328 0.02872175 0.07687965 -0.043233566 0.21945328 -0.08210271
-0.2067207 0.100208625 0.05611232 -0.38223892 0.09147739 -0.013091931 0.33069763 -0.27868134
-0.16762169 0.20427486 -0.07023024 -0.11796597 0.16101749 0.31219888 0.0893207 -0.046904195
-0.26770967 -0.012862468 -0.2354572 -0.09378383 0.29949874 0.22004174 0.12420357 -0.07493897
0.015137163 0.19148707 0.012971721 -0.12455745 -0.19741602 -0.09698639 -0.26474392 -0.21118945
0.100114174 -0.021377005 -0.17150913 -0.5312632 0.21667592 0.29665366 0.20522057 -0.052860167

network_body._body_endoder.seq_layers.0.bias f4 [256]
00000000: 50b2 90bc 7f0a 07bd afa4 1d3b d721 0c3d
00000010: 5075 f13c da8f f7bc 4a40 253d 5ef9 5dbc
00000020: 1fdc f3bc cd55 4ebd 5eda ccbc 086d 033d
00000030: 4c83 cbbd 7631 aebb 01ea 09bd c470 4db9
00000040: 89c9 e4bc 19f9 36bd 3d60 dabc afeb 1a3c
00000050: f4e2 d8bc a9a7 9c3c beaa 0cbc 21e5 283d
00000060: dbc7 00bd d29a 80ba 949f 753c 5d5c 2bbd
00000070: 9c85 c0bc 9dff a6bc f82b adbc 2262 21bd
00000080: bf91 293d dda9 e63c ac21 01bd 00d4 45bc
00000090: 3a11 053d 462e c03c e26f cf3b 4792 86bc
000000a0: 393c 86bb 9f78 0cbd 00ad d1bc f44f c4bb
000000b0: a9e8 2b3d 8fae 473b cea1 eb3c 97b3 09bd
000000c0: 8022 c93c 5fe5 22bd 92bd d13c b5ee 013d
000000d0: 5b95 45bc e9bc 92ba 3688 02bd 83cd 1b3c
000000e0: bdf1 a4bc c5cb 06bd a560 23bc 842e 22bd
000000f0: b173 d8bc 96be c1bc 8013 0d3d 0ade 42bc
00000100: 9cfe ed3c 1fdf c2bb a57b 84bd 8b37 bcbc
00000110: de3f e8ba 251f 893b dc62 21bd cbe3 50bd
00000120: 6c4f 68bd 75fc e3bb 8b15 e0bb 71e2 49bd
00000130: aac4 29bd 1799 86bc 01b6 01bd d312 2c3c
00000140: 0e29 a3bc 64ac 05bd 748c 08bc 82fb c13c
00000150: 4498 80bc db3a 18bd 45ff 91bc 9767 8fbc
00000160: a832 94bb 762e 08bd ca38 ebbc f705 af3b
00000170: 19ca 44bd e2bd 3abd d2e7 f2bc 6492 9fbc
00000180: 18f6 febc 4532 29bc fdf2 02bd dfab aabc
00000190: 02f3 d23c e154 66bd 64da d23c d174 373b
000001a0: d318 88bc d582 073d e138 21bd 1173 66bc
000001b0: f53d f73c da2b 9ebc 3fd8 5dbd 5183 abbc
000001c0: 6309 993c 3a97 d9bc 0654 01bd e26f 86bc
000001d0: c717 76bc 831b cfbc 3231 753b e1c3 0a3d
000001e0: e58f acbc 6443 f33c 1491 24bd ed75 123d
000001f0: fdd8 b8bc fac9 9d3c 82f1 133b 4bbd 4c3c
00000200: 65b7 9d3c 0a2d 173d 1f58 1ebd f242 8c3b
00000210: 1e2a 553b 5c86 cabc db86 42bd 24da 463c
00000220: 2125 aebc 907b 1fbd af3d 0abd 2c82 d1bc
00000230: 484b 08bd 8cd2 0abd eecb 063c 78fb c0ba
00000240: fcb7 13bc f903 d5bc 2c16 8bbc 9e64 223c
00000250: 68b1 13bd 981b 82bc 4999 013c 3f21 37bd
00000260: bbe7 72bc 1959 80bb bf1d 2abd 047a c1bb
00000270: 23f2 04bd a92d 9b3c fc27 123c 6a15 883c
00000280: 3812 d63b 65b1 11bd efb0 13bd 5a98 d0b9
00000290: a4ad 253d cc03 463d 54e5 28bd 463c 70bd
000002a0: 45a6 f5ba b0d6 8cbc 68e4 e2bc ccec aabc
000002b0: 03c2 2bbd 5dd6 74bb 3dae 403d 276e 9cbc
000002c0: de0b cb3b 2586 303d 6e98 2e3c 21cd 5f3c
000002d0: aebe 23bd 26ca 2ebd ab72 6fbc 8f01 b0bc
000002e0: 385a cfbc e770 3cbd e193 71bc 085e 69bd
000002f0: cf51 bbbc 17ea c23c a8ca d53c d2f8 8dbc
00000300: d236 30bd 6084 bebc 2024 20bb 773b 2e3d
00000310: 2f15 6eba 0e6d d53c b635 8c3c db41 22bc
00000320: 0425 913c 3e26 3dbd 0b6f 65bb b3db 033d
00000330: 823c 07bd 66de 01bd 1a67 13bd 4e58 abbc
00000340: 696f bfbc 159f ab3c dbe3 e73c 258e bbbc
00000350: 3d69 bebc 922c 0bbd 6f08 a8bc 2816 adbc
00000360: 09cf bfbc 194d 803b df1f 3bbc 7fb3 8ebc
00000370: 5eb6 06bd 2f60 b53b 3a84 f3bc 9317 9cbc
00000380: a5f3 083b 2ed8 f33c 8a79 1cbd 4b96 113d
00000390: f6a8 e3bb 3f21 54bc 324e d2bc bcc8 b53c
000003a0: 43da a93c 3954 4fbd 0aa5 5139 9f8b e5bc
000003b0: 1a5a b6bc a74b 3fbd 1249 20bd fa81 693c
000003c0: e310 91bd 78be 903c acb8 9e3b 29b0 57bc
000003d0: 9b76 c03c cead 0c3d 9d7c bdbc 38f1 d3bc
000003e0: e7c1 333d bebc 20bb 760d 43bc dfda 9cbc
000003f0: 2a3c 23bd 1b60 a53c 7aae 97bc c2e3 f6bc
-0.017663151 -0.032968994 0.0024054458 0.03421196 0.029474884 -0.030219961 0.040344514 -0.013548223
-0.029768048 -0.050374795 -0.02500647 0.032086402 -0.09937152 -0.005315955 -0.03367043 -0.00019592332
-0.02792813 -0.04467115 -0.026657218 0.009455605 -0.026475407 0.019122915 -0.00858563 0.04123414
-0.031440597 -0.0009811765 0.01499166 -0.04183613 -0.02350121 -0.020385558 -0.02113913 -0.039400227
0.04139876 0.028157169 -0.031526253 -0.0120744705 0.03248713 0.023459565 0.006330476 -0.016427172
-0.0040965346 -0.03429472 -0.025595188 -0.0059909765 0.04196993 0.0030469035 0.028763678 -0.033618536
0.024552584 -0.039769527 0.02560309 0.03172179 -0.012059535 -0.0011195216 -0.031868182 0.009509447
-0.020134801 -0.032909174 -0.009971772 -0.039595142 -0.026422353 -0.023650449 0.034442425 -0.011893759
0.029052071 -0.0059470083 -0.06468896 -0.022975704 -0.0017719229 0.004184621 -0.03940092 -0.05099849
-0.056716368 -0.0069575855 -0.0068385056 -0.049288217 -0.04144732 -0.01643042 -0.031667713 0.010502535
-0.019917037 -0.032635108 -0.008334268 0.023679499 -0.015697606 -0.037165504 -0.017821917 -0.01750545
-0.0045226403 -0.033247434 -0.028713603 0.0053412872 -0.048044298 -0.045591243 -0.029651556 -0.019478984
-0.031123206 -0.010326927 -0.031970013 -0.020833908 0.02575064 -0.05623329 0.025738902 0.0027993212
-0.0166134 0.033083756 -0.039360885 -0.01406552 0.03018091 -0.01930802 -0.054161306 -0.02093664
0.018681234 -0.026561368 -0.03157427 -0.016410772 -0.015020317 -0.025281673 0.0037413356 0.03387821
-0.021064708 0.02969522 -0.04017742 0.035756994 -0.022564406 0.019261349 0.002257437 0.012496303
0.019252488 0.036908187 -0.038658258 0.0042804414 0.0032526325 -0.02472227 -0.04749189 0.01213697
-0.021257939 -0.038936198 -0.033750232 -0.025574766 -0.03327492 -0.0338922 0.008227332 -0.0014723381
-0.009016033 -0.02600287 -0.016978346 0.009911684 -0.03605786 -0.015882298 0.007910081 -0.04470944
-0.014825757 -0.0039168713 -0.041532274 -0.005904438 -0.032457482 0.01894267 0.008920666 0.016611774
0.0065329336 -0.035569567 -0.03605741 -0.00039786362 0.0404488 0.048343465 -0.04123433 -0.05865123
-0.0018741569 -0.017192215 -0.027696803 -0.020864867 -0.04193307 -0.0037359216 0.047041167 -0.019095493
0.006196483 0.04309668 0.010656459 0.013659746 -0.03997677 -0.042673253 -0.014614741 -0.021485118
-0.025311574 -0.04600611 -0.01474473 -0.05697444 -0.022866158 0.023793263 0.02609761 -0.01733056
-0.04302103 -0.02325648 -0.0024435595 0.04253718 -0.0009082136 0.026052978 0.017115455 -0.0099033965
0.017717846 -0.04617905 -0.0035008814 0.032191943 -0.03301669 -0.031706236 -0.035986997 -0.02091613
-0.023368554 0.02094988 0.028306892 -0.022894928 -0.02324354 -0.033978052 -0.020511834 -0.021128729
-0.023414152 0.0039154408 -0.011421173 -0.017419575 -0.032888763 0.0055351476 -0.029726136 -0.01905421
0.0020897177 0.029766168 -0.038201846 0.03554372 -0.006947632 -0.01294738 -0.025672052 0.022190444
0.020733958 -0.05061743 0.00019993275 -0.028020678 -0.02225976 -0.046703007 -0.039132185 0.01425218
-0.07083299 0.017668948 0.004843792 -0.013164558 0.023494055 0.03434544 -0.02313071 -0.025871858
0.04388609 -0.0024526562 -0.011905065 -0.019147335 -0.0398523 0.020187428 -0.018515814 -0.0301379

network_body._body_endoder.seq_layers.2.weight f4 [256, 256]
00000000: 9476 7cbc 8858 90bd b7f9 0ebb 8baf 12be
00000010: c6f7 963d 8eb7 ac3d e1c0 5d3d 8fb4 003e
00000020: 20b3 0c3d 0b61 5cbc dd9d 89bc 0871 1c3d
00000030: 7d6b 2b3d 9c4d 9abc 6ddb 853c 5e54 87bd
00000040: 1164 913c 4652 58bc 94e1 9d3d 27b4 ac3b
00000050: fcf2 a3bd aedd 483c 6839 b1bc b54b f1b9
00000060: 9ed4 243d 6ec8 94bc b692 d1bc 1f80 e9bd
00000070: 1786 6f3d b346 5abd 2103 163c 151b 183d
00000080: e73e 3bbd 1343 a2bc 3289 13bd 2211 f73c
00000090: 843a 603d 675f 163d e119 1bbe 6a85 fa3d
000000a0: eb4d 02bd 8eeb 40bd 6b59 233d 8e00 863d
000000b0: 429c 273c bd46 80bd 0c86 f83d a73d f93c
000000c0: 5caa d0bd 8a0e d63c 2a32 d83b 377c 8fbd
000000d0: acaf 92bd 2e6d 073d 906b 363d 15e8 c03c
000000e0: 6304 8e3d 2a61 423d bd99 e4bd be04 b03d
000000f0: 42df 50bc f2a5 2e3d bb89 d3bd 2ba6 c33d
00000100: 4794 c7bc cfcf bf3d aac7 3cba 622c 7cbd
00000110: 8af3 efbd 1908 f0bd cdfe 2dbd 8773 9c3b
00000120: d11f 78bb b7b5 293c 1d39 62bd eb03 09bd
00000130: 5a72 c3bd ae3d c2ba 6625 0dbd 7a2f 72b9
00000140: c711 b1bb e7c6 193d d76b 75bd dc8c 46bd
00000150: ca99 a7bd 8191 79bd 3d43 1fbd 2692 70bd
00000160: e511 213e f3dd 793d aa18 8a3d 4a29 82bd
00000170: 18ec c4bc 34d5 b1bd 5447 91bb ca54 3c3d
00000180: 4205 9fbc b3dc 783d 817e c2bb 1de4 51bc
00000190: 424f 613a b54a dd3c bb56 773d 3ffe ff3d
000001a0: 6225 8d3c 6a2a b6ba d322 2dbc fbe1 9fbc
000001b0: 4512 06be 7f1d fabd 9f0b 213d 34e4 b3bd
000001c0: 5d0a 843c 05a5 e23d ee4f f23d e99e 573d
000001d0: 82e0 41bd 0c12 24be 8ede 9dbd 7063 15be
000001e0: cfdc a1bd 724b 9ebc ee07 4b3d 850a ecbd
000001f0: a121 233d e39b a53d 71e1 8fbc 6e99 863d
00000200: 98bd b8bd e1c1 133d 0c43 7ebd dbef 003e
00000210: e98e 8fbd 73e1 b73d 9f72 b0bc d0a1 c63d
00000220: e832 5a3d 04f2 b1bd 2baf 0f3d 5e0e 123c
00000230: 9233 8c3c 89d3 46bd 9c43 35bd 5c90 c4bc
00000240: 4c88 22bd e447 b6bc 5a9b 273a 1914 b83c
00000250: 1f93 8abd 7fa6 823c b299 cf3c b536 3abd
00000260: f90d 8ebd 683b ecbc 8f9b df3b dbea 15bc
00000270: 0005 393c 3cae 58bc d072 0bbd d31b 65bc
00000280: 0536 113d a234 e03d 2486 a6bc 2c05 133c
00000290: 0432 6cbc 7b6f cdbd 8f22 a5bc edad f73c
000002a0: 1b4c 5dbc ddbd cdbd 6619 5fbc 9eb1 f4bd
000002b0: 2673 9a3d 71af 8abd 26e2 c53a fd39 613d
000002c0: e16f a53b 13b2 3bbd e826 893c ef67 2dbd
000002d0: af8c 043d a56a 18be 723b e13a fd27 5fbd
000002e0: 7771 1c3a 01a0 c33c c4a1 8f3d 3c40 903c
000002f0: c726 46bc 036a 84bd 191b f3bd 2f28 5a3d
00000300: 1a36 bf3c 5510 033e 6780 333d 4cf5 923d
00000310: 8d26 4cbd c177 523c 57c8 7e3d 1a0b 403c
00000320: d445 81bd 8916 0f3d 343d 5e3d d40a 36bc
00000330: 7d04 0a3d 8b9b bf3d 0f34 6f3d b871 28bc
00000340: 12d9 73bd a891 cb3b cec5 4b3c 20b3 26bc
00000350: 4bdd c1bc f0a2 583d e907 973d 3a1a acbc
00000360: 858b 193d a3f4 1e3d d9e5 11bc 1178 09bc
00000370: 133d 6dbd 319c 033c fca3 333d 1a24 bc3d
00000380: 5328 63bd 2089 f53d eb73 123e 159f 55bc
00000390: b2b7 c6bd b814 b3bc 087e 113e 5362 97bc
000003a0: a841 723d 92fd 9b3b 510e 5d3d 639e b73d
000003b0: 629e cbbc 5b91 c13c 9ab4 cd3c c090 c9bc
000003c0: 36c4 7cbd 36a5 42bc 332b d9bc fc8e 5ebd
000003d0: 7061 213d 50e2 90bc 5678 6dbd b801 b53c
000003e0: 9ade ed3d cb45 1a3d 7407 ee3b 8efb c83c
000003f0: f412 2c3e dcf8 2ebd 1b7f 61bd 4f91 12bc
-0.015409131 -0.07048136 -0.0021816322 -0.14324777 0.07371478 0.08433448 0.05413902 0.12568878
0.034350514 -0.013450871 -0.016798908 0.038193733 0.041850556 -0.018835835 0.016339982 -0.06607889
0.01774791 -0.013203209 0.07709041 0.0052704993 -0.0800533 0.012259884 -0.021633819 -0.00046023508
0.04024183 -0.018161979 -0.025582653 -0.1140139 0.058477487 -0.05329008 0.009156019 0.037135202
-0.045714285 -0.019807374 -0.03601951 0.030159537 0.054743305 0.036712077 -0.15146591 0.12232478
-0.03181259 -0.047099642 0.039880197 0.065430745 0.010230126 -0.06263492 0.121349424 0.030424906
-0.101887435 0.02612998 0.006597777 -0.07006114 -0.07162413 0.033063106 0.044536173 0.023548165
0.069344305 0.047455944 -0.11162136 0.085946545 -0.012748541 0.042638727 -0.103290044 0.095531784
-0.024362696 0.09365808 -0.0007201383 -0.061565764 -0.11716373 -0.117202945 -0.042479325 0.004774514
-0.003786076 0.010358266 -0.05523025 -0.033451002 -0.09543295 -0.0014819407 -0.034459494 -0.00023096605
-0.0054037306 0.037543204 -0.059917297 -0.048474178 -0.0818363 -0.06092978 -0.038882483 -0.058733128
0.15729482 0.061002683 0.067429855 -0.063555315 -0.02403836 -0.086832434 -0.004433552 0.0459793
-0.019411687 0.06075735 -0.0059354906 -0.012810734 0.0008594879 0.027013162 0.060385447 0.124996655
0.01722974 -0.0013898138 -0.010567385 -0.019516936 -0.13092907 -0.12212657 0.039317723 -0.08783761
0.016118223 0.11066631 0.11831652 0.052641783 -0.047333248 -0.1602251 -0.077084646 -0.14588714
-0.07903444 -0.019323085 0.04956811 -0.11525444 0.039826993 0.08086374 -0.017563554 0.06572233
-0.09020537 0.03607357 -0.06207566 0.12591498 -0.0700968 0.08978548 -0.02153903 0.09698832
0.053271204 -0.08688739 0.035079163 0.008914558 0.017114434 -0.04854158 -0.04425393 -0.023994617
-0.039680764 -0.022251077 0.00063936936 0.02247052 -0.06766342 0.015948532 0.025341842 -0.04546233
-0.06936259 -0.02883692 0.006823964 -0.009150232 0.011292696 -0.013225134 -0.03404504 -0.013983685
0.035451908 0.10947539 -0.020327635 0.008973401 -0.0144162215 -0.10031029 -0.02015808 0.030234301
-0.0135069145 -0.10045979 -0.013616895 -0.1194794 0.07541494 -0.06771744 0.0015097305 0.054986943
0.0050487374 -0.04582412 0.016742185 -0.042335447 0.03236073 -0.14884432 0.0017183854 -0.054481495
0.00059678353 0.023880007 0.07013276 0.017608754 -0.012094206 -0.06465533 -0.11870403 0.05326098
0.023341227 0.12799199 0.043823626 0.07175693 -0.049841452 0.012845934 0.062202778 0.011721397
-0.06312147 0.0349336 0.054257587 -0.01111098 0.033695687 0.09355839 0.058399256 -0.010281019
-0.059533186 0.006212432 0.012437297 -0.010174543 -0.023665091 0.052889764 0.073745556 -0.0210086
0.03748657 0.038807523 -0.008904898 -0.0083904425 -0.057919573 0.008032844 0.04385756 0.09186573
-0.055458378 0.11989045 0.14302032 -0.013038416 -0.09703006 -0.021860465 0.14208233 -0.018479502
0.059144646 0.0047604525 0.05396873 0.08965757 -0.024855796 0.023628881 0.025110532 -0.024605155
-0.06171056 -0.01188021 -0.026509857 -0.05433558 0.039399564 -0.01768604 -0.05797609 0.022095546
0.116147235 0.037664216 0.007264072 0.024534013 0.16804105 -0.0427178 -0.055052858 -0.008945777

network_body._body_endoder.seq_layers.2.bias f4 [256]
00000000: f762 14bc 5fbc 1dbd 54f6 e8bb 5589 5c3b
00000010: b8f8 a43c e368 a1bc f3fc edbc 0c48 7dbc
00000020: 7604 b3bc 6391 423c bbd1 5dbc 2105 a2bc
00000030: c2b4 d13c afd3 44bc 21b3 983c 8cdc 07bd
00000040: 3869 063d c9cb 11bb 7fb0 a13b 54cf 4bbc
00000050: db18 c0bc 0b10 b2bc 5298 edbb 546b 06bd
00000060: 56d7 8fbc f9ed a8bb 44a2 53bc 7268 033d
00000070: 02c8 873c 8a25 84bc 8e93 91bc 6ac7 c03b
00000080: 27d4 a03c ae75 553c 7bce b43c 16a0 e4bc
00000090: f90c 923c 3592 e83c 6cbf 0dbc 000a d73c
000000a0: 8650 dcbc 4539 8ebc 3119 2bbd 4f13 a1bc
000000b0: fc58 363c 2e3d 08bd 3779 723c 4c61 43bc
000000c0: c70c 6bba eece 0cbd ee5e 8dbc e3a0 f83b
000000d0: 5912 9fbc debe a5bc eb63 ae3c 833a c93b
000000e0: ad0e 04bd 3a1f aebc 89f4 52bc 5148 42bb
000000f0: 91c6 c9bc f1b1 f1bc cdc1 dbbc 16a0 2cbd
00000100: 53eb a738 1f64 ddbc aee0 debc 3143 0a3c
00000110: 6e0f 9cbc 745f eb3b bd3a 0e3c 32be a5bc
00000120: 3246 503b 6f0d 81bb 5a76 f1bc 2352 0cbd
00000130: 6306 b4bc 0dda 05bd e591 d1bc 9c5c c8ba
00000140: d336 aebb f608 9abc 4bfc 253c 2dc2 263b
00000150: 99ac 9cbb 85eb 7cbc d9e5 04bd fdad d6bc
00000160: 4985 fcbc f370 8dbc 94e9 27bd 208f 033c
00000170: 00f2 a4bc d041 773c 152b e2bc f11d b4ba
00000180: 0b96 6e3c aff8 0fbd fe17 d8bc ce6a 563c
00000190: fe27 f53b 48cf 723c 95a4 03bc 87e0 19bd
000001a0: e3c0 ddbc 8fcd bdbc d57a aebc dcbf 713c
000001b0: 1ba5 173c 851b 17bc 574e 90bc f157 c6bc
000001c0: 8e09 7e3c 3d57 32bb 6165 5abc 4a85 7c3b
000001d0: 4619 4e3c 367b acbc 9318 05bd d0ad b1bc
000001e0: fbbf 39bd c9bf 08bc 3a9c 64bc 4ee4 213b
000001f0: 02d7 d63c d442 f5bc d8b1 00bd e580 ba3b
00000200: 0818 eabb e291 0fbd cbce 953c 1ade 89bc
00000210: 318e 20bd e217 a73b db0f b4bc 92de debc
00000220: 66e8 3a3d 9e9f 27bd c0af a13c d26f 3bbd
00000230: 85d7 b5bc cc7d d33c ba2e 303d 2ccb 013d
00000240: fa21 dabc 0a2c 483c 09c8 61bc 703a 98bc
00000250: 6912 623c c1b3 40bc 60f3 f13b b751 423b
00000260: bb5c ffbc 54f7 25bc 410b f8bc e638 50bc
00000270: ab7b 84ba e18f 9ebc 05d6 023d 90c5 21bc
00000280: c464 96bc f0c2 3c3c 8fbc b6ba 1182 9d3c
00000290: 2387 46bc d6d4 83bc 7e95 343d d808 18bd
000002a0: 332c 183d b492 153c 8b8f f8bc 542f 2ebd
000002b0: a110 17bd b2b4 3b3d 572c de3c c9d1 84bb
000002c0: 13d1 d3bb 2fea 303c bae0 4bbc 284a 9b3c
000002d0: 057f 3f3a 8637 1bbc 380c 69bc d4b2 af3c
000002e0: 5dad 85bc b7c3 e9bc ec98 223d 85f2 64bc
000002f0: e428 b6bc f97d 9cbc e2f4 18bd cc1f 41bd
00000300: 474e 03bd 5df7 c1bb 14d2 a33b d63a 0cbd
00000310: f08e 08bc e441 b0bc 1fe1 efbc ad1c f8bc
00000320: bf1d 2abd 5f80 1abd 28ff f4bc 9294 b0bc
00000330: 68f8 ecbc c494 d7bc 3b19 f2bc 0348 183b
00000340: 8b5d 1aba f267 fa3c 36b6 40bd bff2 313b
00000350: b21e 02bd 08a4 37bc 0587 01bd 9fb0 adbc
00000360: 73dc 363d f1b6 14bd 0cc0 ccbc 93a3 8c3b
00000370: c91b 6ebc 3573 0fbc c219 c3bc bb5e cbbb
00000380: d1b1 16bd dc95 acbc 0618 04bd 9f3e 15bd
00000390: 210e fc3c cd84 95bc ccb5 18bb 25b4 b2bb
000003a0: 9e93 51ba 955a d7bc f9a2 fcbc c95b 93bc
000003b0: 6659 663c e939 a2bc 88ed c2bc 59df 00bd
000003c0: f1d7 b7bc a66c fcbb 9123 aabc 3078 513a
000003d0: 7e9d aa3b 5d5b 0b3d bf93 0cbc 52cc 73bc
000003e0: 1e7b 82bc 9aa2 0cbd 5408 01bd 69fa c6bc
000003f0: 1f00 3abc fec2 ebbc 9f2a b7ba 7081 243b
-0.009056798 -0.038509723 -0.0071094427 0.0033651192 0.02013813 -0.019703334 -0.02905128 -0.015459072
-0.021852713 0.011875483 -0.013538773 -0.019777836 0.025598887 -0.01201336 0.018640103 -0.033169314
0.03281519 -0.002224671 0.00493437 -0.012439568 -0.023449352 -0.021736166 -0.007250824 -0.0328172
-0.017558735 -0.0051553217 -0.012917105 0.03208203 0.016574863 -0.016131181 -0.017770555 0.005883147
0.019632412 0.013028545 0.022071114 -0.027908366 0.017828451 0.02839003 -0.008651596 0.026249886
-0.026893865 -0.017361293 -0.04177207 -0.019662527 0.011129614 -0.03326147 0.014799408 -0.011925053
-0.00089664425 -0.03437703 -0.01725718 0.0075875386 -0.019417929 -0.020232614 0.021287879 0.0061410083
-0.03224056 -0.021255124 -0.012875685 -0.0029645155 -0.024630817 -0.029503794 -0.02682581 -0.042144857
8.007013e-05 -0.02702528 -0.027206745 0.008438871 -0.019050326 0.0071830098 0.0086809965 -0.020232294
0.003178012 -0.003938369 -0.02947538 -0.03425802 -0.021975702 -0.032678653 -0.025582263 -0.0015286389
-0.005316594 -0.018803101 0.010130952 0.0025445328 -0.0047813174 -0.015437012 -0.032445762 -0.026206011
-0.030825274 -0.017265772 -0.04099424 0.008029729 -0.020134926 0.0150913745 -0.027608434 -0.0013741833
0.01456214 -0.035149273 -0.026378628 0.013086988 0.007481574 0.0148199275 -0.008034845 -0.03756764
-0.027069515 -0.023169307 -0.021298805 0.0147552155 0.009255673 -0.00922287 -0.01761548 -0.024211856
0.015505208 -0.0027212643 -0.013329835 0.0038531595 0.012579268 -0.021054845 -0.03249414 -0.021689326
-0.045349102 -0.008346506 -0.013953263 0.002470273 0.02622557 -0.029939093 -0.031419605 0.005691635
-0.007143978 -0.035051234 0.018287083 -0.01682954 -0.039198104 0.0050992826 -0.021980217 -0.02720574
0.04563179 -0.040923707 0.019737124 -0.045760937 -0.022197494 0.02581682 0.043013312 0.0316879
-0.02662753 0.012217531 -0.013780602 -0.018582553 0.013798335 -0.011761607 0.007383749 0.0029650757
-0.031172147 -0.010129768 -0.030278804 -0.012708878 -0.0010107657 -0.019355716 0.031942386 -0.009873763
-0.018358596 0.011521086 -0.0013941693 0.01922706 -0.01211718 -0.016092699 0.04408788 -0.03711781
0.037151527 0.009129215 -0.030341884 -0.042525604 -0.036881093 0.04582662 0.027120752 -0.0040533287
-0.0064641326 0.010798021 -0.012443716 0.018956259 0.0007304999 -0.009473687 -0.014224105 0.021447577
-0.016318018 -0.028535707 0.03969662 -0.013973837 -0.022236295 -0.019103037 -0.037342913 -0.047149464
-0.032057073 -0.0059193806 0.0049994085 -0.034235798 -0.00833486 -0.021515794 -0.02928215 -0.030287111
-0.041532274 -0.03772008 -0.029906824 -0.021555219 -0.028927043 -0.026316054 -0.029553046 0.0023236282
-0.0005888573 0.030567143 -0.04704877 0.0027152745 -0.031767555 -0.011208542 -0.031622905 -0.021202384
0.04464383 -0.03630728 -0.024993919 0.0042919605 -0.014532992 -0.008755495 -0.023815993 -0.006206361
-0.036790673 -0.021067552 -0.032249473 -0.036436673 0.030768456 -0.0182518 -0.0023301719 -0.005453604
-0.0007994714 -0.02628831 -0.03083943 -0.017988103 0.0140594 -0.019803004 -0.023794904 -0.031463
-0.022441836 -0.0077033816 -0.020768913 0.00079906266 0.005206763 0.034022678 -0.008580147 -0.014880257
-0.015927847 -0.034334756 -0.031502083 -0.024289327 -0.011352568 -0.028779503 -0.0013974494 0.0025101565

network_body._body_endoder.seq_layers.4.weight f4 [256, 256]
00000000: 8e54 4ebd 08c8 653d f5d9 32bd 93cc 46bb
00000010: 91b4 81bb 4644 493d f21d a7bd 9ce4 e2bc
00000020: d698 0bbc a8d3 8f3c f9ae cf3d d585 d93b
00000030: 2c27 e83c a220 b73c 6200 0a39 fd7f 0a3d
00000040: dc8f 40bd ea94 7fbc 7e17 19bd da1e e9bc
00000050: 43ba 01bd f4b6 a639 e0b1 1b3d 4d94 4d3d
00000060: a80b 7bbd d4e7 55bc 9409 8e3d 7a2b 853c
00000070: 4ced 183c 04bb c63c b396 d4bc 981e 98bd
00000080: cad1 423d 1717 323d 5b44 803d c3df 2abd
00000090: 4b15 52be b44a 95bd a859 d63d 7b17 22bd
000000a0: 28d7 4abd 3ecb bbbb 9332 b6bc f321 923d
000000b0: 3058 e0bc 4f61 563d 23dc 073c 3a1d 163d
000000c0: 705b 8f3d 73e2 a6bc 1d85 81bd a0de 7bbd
000000d0: 405d 8a3b d387 223c d9f3 05be 85bf dfbc
000000e0: 3eda 97bd b87b 263d ff2a 17bd 1d05 f83c
000000f0: 4192 703c 6152 913c 85a7 a53a 1d0f eb3d
00000100: 87de 19be 4975 043e 3060 313d abdb 8b3d
00000110: 399c d93d b247 343e 1a31 d0bd 4b7c 153e
00000120: e772 583d 1204 90bd 6673 d33c fa20 043d
00000130: 9571 b13d c2a6 673d 796d f0bc ef62 da3c
00000140: 1460 c33a 772e 953d a212 013d 8ae3 1a3c
00000150: e7c5 703d 5edb 67bd aaed 573c 5e87 8c3b
00000160: 8b54 20bc 127a abbd e1f5 ed3a aa43 b6bd
00000170: 1d50 80bb a517 8abd 5dca f73b 0968 6d3d
00000180: b50e 6d3b 7374 1bbd 5ff8 113d de65 493d
00000190: 340c e23a cc70 4a3e 450b f63d fdf2 9c3d
000001a0: 4382 a5bc 0a08 213d 25f5 8c3c b461 383c
000001b0: 6718 ba3c 5b31 ee3c a8a5 523e 0b2a 60bd
000001c0: 28e0 f23d 10c8 03bb fb74 d6bc a6e8 a8bd
000001d0: e7b3 813b 4239 3f3c 4f24 6f3d 2f2b 77bd
000001e0: 83a5 123d 1fdb 583c e59d 203d 9086 8c3b
000001f0: b67d b63c 7f12 9cbd 790d 04be 8a85 ffbc
00000200: 0ff5 49bd a5fc b13d 6c92 f53d c9d4 ac3b
00000210: 3b18 40bc 5839 5cbc 4755 5abe d42a d7bc
00000220: b9fa 493d 3f34 8ebc cde4 4b3d 4496 65bd
00000230: 0732 a83d e1be 05bd 4919 1cbd 35e8 8ebd
00000240: 3c8a 16bd 55f9 07be fb6b b63c 68b6 e4bd
00000250: a2f9 9dbd 4146 5dbd 6f6b 3bbd 01b0 edbd
00000260: a240 6cbd 34f4 913c cf22 04bb 713c 0f3d
00000270: bf61 89bc d661 323d 637b 083d 957f c1bb
00000280: 44f2 9fbd 6b9f 3b3d 1f17 72bd f412 083c
00000290: f29a edbd 978c ae3d ff7d 0ebd 43dc 8c3d
000002a0: 9fdc 1dbc bae9 5b3d 43b2 0b3c 7e7a b1bc
000002b0: 5008 b1bc 4634 113d 0f1e b3bc 7ff9 9cb9
000002c0: 6f56 fb3c 4815 39bd 19d3 e5bd 5175 ba3d
000002d0: 7a29 a0bd 3e6e 10be a284 05bc e119 db3b
000002e0: f47f 39bd 1c6c 80bd f56a cf3d b0fd ce3c
000002f0: e199 583b d7c2 923b 0358 033d dc90 1dbc
00000300: add3 e13c 9aec 8d3d 3870 b73c cc1c 0f3d
00000310: c653 a8bc a691 7cbd afbd 803d e68f 953c
00000320: 4eaf 05bd 38f2 dabd 013b d13c c14e d7bc
00000330: 4b87 37bd d15a 15bd 7c49 81bd ae40 553c
00000340: cbd7 6dbe 16a9 a83d b0be 1e3d ab65 283c
00000350: deb4 4b3e d986 9d3b 1f87 13bd bbce c1bb
00000360: 3744 223d 41a4 843d ba1d 38bc 8b81 68bc
00000370: 0c4f 7c3d d97f 0fbd e553 8d3d 962c f23c
00000380: 4993 9a3c d15b af3d a2ad ebbc 3d09 a4bd
00000390: 84a9 b83b 2711 64bd 9564 31bd 994d 2c3d
000003a0: d201 4b3a 6993 423c 73f7 20be 6719 5abd
000003b0: 352c c13c d6f8 273d 736d 5f3d f92d 40bc
000003c0: e6f1 cebd 8c39 abbc 3d5e 48bd e3d3 153d
000003d0: 61db 143d b389 13bd bf7c 5fbd 89d5 9fba
000003e0: dac9 cc3d 4ffc c6bc 2bc1 8fbd 25b3 1fbb
000003f0: c1dd b23c 0f0f 97bd 22ab 20bc 9044 8538
-0.050373606 0.056098968 -0.04366489 -0.0030334338 -0.003958293 0.049137376 -0.081600085 -0.0276969
-0.008520326 0.01755698 0.10140795 0.0066382685 0.028338991 0.022354428 0.00013160848 0.033813465
-0.047012195 -0.015599469 -0.03737592 -0.028457094 -0.031671774 0.00031798298 0.03801143 0.05019026
-0.061290413 -0.01305576 0.06935421 0.016256083 0.00933392 0.024259098 -0.025950765 -0.0742771
0.04756335 0.04347905 0.06263038 -0.041717302 -0.20515935 -0.07289639 0.10466319 -0.039573174
-0.049521595 -0.0057310155 -0.022240913 0.071353815 -0.027385801 0.052338894 0.008292231 0.036648966
0.06999862 -0.020371651 -0.063242175 -0.06149161 0.004222542 0.009920078 -0.13081302 -0.027313003
-0.07414673 0.04064533 -0.03690624 0.030275876 0.014683307 0.017739477 0.0012638426 0.11477492
-0.15026294 0.12935366 0.043304622 0.06829008 0.106255 0.17605475 -0.101656154 0.14598195
0.052843954 -0.07032026 0.025811862 0.03225801 0.08664242 0.056555517 -0.029349076 0.026658503
0.0014905953 0.07284253 0.03151191 0.009453664 0.058782484 -0.05660569 0.013179222 0.004288598
-0.009785782 -0.083728924 0.0018154943 -0.08899625 -0.0039158002 -0.06742791 0.0075619654 0.057960544
0.0036172096 -0.03795285 0.035637256 0.049169414 0.0017246068 0.19769591 0.12013868 0.07663534
-0.020203715 0.039314307 0.017206738 0.011253763 0.022716714 0.029076269 0.20571005 -0.054727595
0.11859161 -0.002010826 -0.026178828 -0.08247499 0.0039582136 0.011671366 0.058384236 -0.060343917
0.035802376 0.013235836 0.03921308 0.004288502 0.02227674 -0.07620715 -0.12895764 -0.031191606
-0.04930597 0.08690766 0.119908184 0.0052743894 -0.011724527 -0.013441406 -0.21321593 -0.02626554
0.049311373 -0.017358897 0.04977875 -0.056051508 0.08212667 -0.03265274 -0.03811005 -0.06977884
-0.036752924 -0.13278706 0.022268286 -0.11167604 -0.07713629 -0.054022077 -0.045756754 -0.11605836
-0.057678826 0.01781664 -0.002016235 0.03496975 -0.016770242 0.043550335 0.033320796 -0.0059051015
-0.078098804 0.04580633 -0.05910408 0.0083053 -0.11601819 0.08522909 -0.034788128 0.06877949
-0.00963512 0.053689696 0.008526388 -0.021664854 -0.021610409 0.035450242 -0.021864919 -0.00029940528
0.030680863 -0.04518631 -0.11221904 0.091044076 -0.07820411 -0.14104554 -0.008149298 0.0066864346
-0.04528804 -0.0627062 0.10127822 0.025267452 0.0033050703 0.004478793 0.032066356 -0.009617057
0.027566755 0.06929894 0.022392377 0.034939572 -0.020547759 -0.06166234 0.06286179 0.018257093
-0.032637887 -0.10690731 0.02554083 -0.02628267 -0.04480676 -0.036463562 -0.06312844 0.013015909
-0.2322685 0.082353756 0.038756073 0.010278146 0.19893214 0.004807335 -0.036017533 -0.005914537
0.039615836 0.064766414 -0.011237556 -0.014191042 0.061598822 -0.035034034 0.06900767 0.029562276
0.01886906 0.085624345 -0.028769318 -0.080095746 0.005635442 -0.05568042 -0.043308813 0.04206619
0.00077441067 0.011875966 -0.15719394 -0.05324688 0.02358065 0.041008793 0.05454774 -0.011729711
-0.10104732 -0.020901464 -0.048917998 0.036579024 0.03634203 -0.036019992 -0.054562327 -0.0012194376
0.09999438 -0.024290232 -0.07019266 -0.0024368253 0.021834256 -0.07375919 -0.009806426 6.354705e-05

network_body._body_endoder.seq_layers.4.bias f4 [256]
00000000: 80e6 11bd 2e55 fd3b 38b0 8ebc 90df fabc
00000010: f15a d9bc d104 39bd feca 2fbd 5dc7 c3ba
00000020: 954b 35bc 4746 57ba e5da a23b d21e 0cbd
00000030: 1af7 303c 79ad 13bd 8e35 143c 3b6f 563b
00000040: 2fa8 c0bc 9a4e 4abd 1b4f ddbc 7123 afbc
00000050: c4af fabb 43c1 b03c 3b87 cabb d806 ca3c
00000060: 0957 2ebc 0cba 633c 76c7 f6bc 35a9 0dbd
00000070: abab 6fba 68c8 bb3c 9279 40bc 0a89 33bc
00000080: c63a ca39 dd81 b43c 9b09 bebc 1328 03bd
00000090: 5c4e 8ebc 4a9c 04bb e9dc cc3b 0413 113c
000000a0: 6292 1f3b 46fb 0cbd 0dc3 973c 639a 90bb
000000b0: 97f8 c5bc f86a c5bc 089a aebc 39c9 b3bc
000000c0: 6210 88bc 1151 7639 ddba 02bd 8196 9e3b
000000d0: ea79 39bd dd64 853c cc27 94ba 649f df3c
000000e0: 9bba 50bc 6c27 e2bc b24b 80bd d45b 92bc
000000f0: f50c 15bd fbe5 8cbb a003 de3c b7fb a4bc
00000100: e878 12bd 5837 23ba 607c 1dbd 7ed1 8abb
00000110: 6dab d9bc b118 023c 7bc4 33bd b491 f2bc
00000120: f99d c13b edaa ccba 2018 ceba 9123 08bd
00000130: 7989 0ebd 4576 9f3c d401 81bc 9c89 c73c
00000140: fe77 193c 12d1 523c 15a7 aebc cb2e 06bd
00000150: 7641 56bd d3d2 21bc 20b9 13bc bd66 8b3c
00000160: db4b 2c3c edba 16bc dac3 503c d84c 51bd
00000170: daca a938 1a24 0ebd 0131 0fbb b715 0ebd
00000180: 03a8 f33b 6038 a7ba 3080 f8bc e09b 84bc
00000190: afdd 9dbc dc50 65bc d6e0 00bd 8e18 013c
000001a0: 8186 5dbb 7ba0 8f3c bb2d 06bd d958 263a
000001b0: 1ad6 363c b0e8 50bd 351b 44bc 0b70 c1bb
000001c0: a842 5c39 a9b8 313c 2615 0dbd 66f5 a8bc
000001d0: a57d 68bc 6d6f 16bc b8fd 0fbd 41b1 f4bc
000001e0: 7516 0e3c f7be 24bd 17d4 e13b a03f 593c
000001f0: 53f4 53bc 1516 72bd c7ef a63b 89f1 6f3a
00000200: 3ff7 afbc b10a 633b 0154 d7bc e4f7 da3a
00000210: 7b86 30bc 0a1b 883a 9956 7bba e0e6 cfbc
00000220: ffc4 94bc 17eb f2bc b7a9 f8bb af91 813c
00000230: 098d 63bd 7087 003c f8e5 023c 1838 a7bb
00000240: 5ef1 813c 23fb 5ebc 9a1c 95bb d542 aa3b
00000250: 7a70 d5bc f8a8 d2bc 8b4e e4bc cf2b 823c
00000260: 69a8 05bb 7e16 debb d860 163c 5fc9 85bc
00000270: 23eb 4fbc 94b7 e2bc 7e34 e3bc b80e 19bd
00000280: ef4a 60bc 10b1 e3bc fe7c 41bd 38b2 c63c
00000290: 6e4b d83b 34f4 913c 2a67 94bc 8c80 873c
000002a0: cceb 863c 6851 6e3c eafd a23c d161 febb
000002b0: 30a3 1abd a9af 67bc 3c31 2cbd 1adf 22bd
000002c0: e17b cb3b 7f0e d93c a60d 9b3c 690f ddbc
000002d0: 81de d6bb d46d cd3b 770e ac3b 5f8b 7a3c
000002e0: 9079 01bd a0c3 e03b ff62 90bc 4361 323c
000002f0: 0433 27bd 7d8c 97bc c26b 17bd 41dc d53c
00000300: bdb4 1fbd 6436 0abd 0131 eebc 4c1d f1bc
00000310: 1b28 8e39 fc9f b4bb cf73 b6bc cceb 88ba
00000320: 8177 6fbc ea00 08bd 249e f8bb 2591 e23b
00000330: 97a6 e3bc ad15 dabc 1f0c d23b 8074 31bd
00000340: 2128 0a3b c8ba 8fba 4e08 0dbd 0b5b 34bc
00000350: 5ad0 513c 067d 00bb 7691 39bd 0e74 05bc
00000360: 6a39 b4bc 8de8 51bd 82a7 893c ea58 9dbc
00000370: 33a4 d13c 2918 58bc e078 c9bc 52a3 95bc
00000380: d742 b8bc 456f 3abc bc18 6f3b aeb4 82bb
00000390: d4cc 3cbc dd9c 70bc 1d0c 18bd b249 c4bc
000003a0: d9a1 45bc f662 483c 4d79 6e3c 0d05 9ebc
000003b0: 9b33 f23b cce4 b7bb d34f 60bd 41f9 afbc
000003c0: 89a6 1fbd f8aa 92bc eeea 93bc a803 cf3b
000003d0: b104 5bbd 8f46 f0bc 6704 8a3c 42f7 de3b
000003e0: c31c b7bc 1fa5 2d3c f252 a2bc 5965 6abc
000003f0: 30f8 33bd 88a2 bcb9 0e83 aebb 2767 14bc
-0.035620213 0.0077311015 -0.017418012 -0.030624181 -0.026532622 -0.04517061 -0.042918198 -0.0014936734
-0.011065383 -0.0008212071 0.004969942 -0.03420908 0.010801101 -0.03605411 0.009045972 0.0032720107
-0.023517696 -0.049391367 -0.02701526 -0.021379204 -0.0076503474 0.02157653 -0.0061806715 0.024661466
-0.010640868 0.0138993375 -0.030124407 -0.034585197 -0.0009142707 0.02292271 -0.011747735 -0.010957966
0.00038572232 0.02203458 -0.02319794 -0.03202064 -0.017371349 -0.0020234757 0.0062519205 0.008854631
0.0024348726 -0.03441932 0.018525625 -0.0044129356 -0.024166388 -0.024098858 -0.021313682 -0.021946536
-0.016609374 0.00023490588 -0.031916488 0.004839719 -0.045282282 0.016283447 -0.0011303364 0.027297683
-0.012739803 -0.027606688 -0.06264438 -0.017866053 -0.03638931 -0.0042998767 0.027101338 -0.020139558
-0.035759836 -0.00062262034 -0.03844869 -0.004236399 -0.026571 0.007940457 -0.04388855 -0.029610492
0.0059087244 -0.0015614905 -0.0015723743 -0.033237044 -0.034799073 0.019465575 -0.015747942 0.02435761
0.009366987 0.012867229 -0.021319905 -0.03275947 -0.052308522 -0.009876925 -0.009016305 0.017016763
0.010516132 -0.00919984 0.012742007 -0.051098675 8.096332e-05 -0.034702398 -0.0021849277 -0.034688678
0.0074358 -0.001275789 -0.030334562 -0.016187608 -0.019270746 -0.013996329 -0.03146442 0.007879389
-0.0033802094 0.017532578 -0.032758456 0.0006345637 0.011159444 -0.051003158 -0.011969377 -0.005903249
0.00021005666 0.010847249 -0.034443997 -0.020624828 -0.014190112 -0.009181839 -0.035154074 -0.029869677
0.008672346 -0.04022118 0.006891738 0.013259798 -0.012936669 -0.05910309 0.0050945017 0.0009153118
-0.0214802 0.0034643824 -0.026285173 0.0016705957 -0.01077425 0.0010384035 -0.0009587794 -0.025378644
-0.018160341 -0.029653115 -0.007588591 0.015816538 -0.055554423 0.007844791 0.007989399 -0.0051031224
0.015862163 -0.01360968 -0.0045505287 0.0051959553 -0.02605461 -0.025715336 -0.027869483 0.01589003
-0.002039457 -0.0067775836 0.009178363 -0.016331373 -0.012690338 -0.027675427 -0.027734991 -0.037367553
-0.013689741 -0.02779439 -0.047238342 0.024254903 0.006600789 0.01781664 -0.018115599 0.016540788
0.016469859 0.014545776 0.019896466 -0.0077631255 -0.037753284 -0.014141002 -0.04203914 -0.039763547
0.006209836 0.02649617 0.018927407 -0.026984887 -0.0065572863 0.006269196 0.005250748 0.015292018
-0.03161007 0.006859258 -0.01762533 0.010887447 -0.040820137 -0.018499607 -0.036968 0.026106002
-0.038990725 -0.033743277 -0.029076101 -0.029432915 0.00027114231 -0.0055122357 -0.022272019 -0.001044625
-0.014615894 -0.033203997 -0.007587211 0.006914275 -0.027789397 -0.026621664 0.0064101364 -0.043323994
0.0021081048 -0.0010965699 -0.034431748 -0.011008034 0.012806023 -0.001960577 -0.045304738 -0.008145345
-0.022000033 -0.05124717 0.016803507 -0.019207437 0.025590992 -0.013189354 -0.02459377 -0.018266354
-0.02249281 -0.011379068 0.0036483249 -0.003988824 -0.011523444 -0.014685837 -0.037120927 -0.023960922
-0.012062513 0.012230625 0.014555288 -0.019289518 0.0073914058 -0.0056119915 -0.054763626 -0.021481158
-0.03897718 -0.01790379 -0.01805636 0.0063175745 -0.05347127 -0.02933052 0.016847802 0.006804378
-0.022352582 0.01059845 -0.019814942 -0.01430639 -0.043937862 -0.0003597925 -0.0053256815 -0.009057797

action_model._continuous_distribution.log_sigma f4 [1, 2]
00000000: dff7 47bd 0733 91bb
-0.048820373 -0.0044311318

action_model._continuous_distribution.mu.weight f4 [2, 256]
00000000: 023c 093b 06fe 5cbb 666c 243c e6f9 313b
00000010: 3193 2a3a 2570 f5b8 3c79 8b3b f9aa 483a
00000020: fe16 44bc 5fef 04ba 6e2d 8bbb 0be8 ef3b
00000030: b053 b73b c9aa 753b 7231 75bb 0ceb 8cbb
00000040: 8b2c 283c e29b e63b 5966 40bb 0d8e 4bbb
00000050: d8ae ca3a 4259 b1bb 752a 553a 8db1 543c
00000060: 1754 91bb 6143 a8bb e1b0 223a 06c4 9e3b
00000070: e53a 9e3a 3baf e5bb ac69 f939 e0ac 5339
00000080: 5345 30bc 4d3e 9dbb f478 e7ba 2dfa 0dbb
00000090: e336 d23b c87f 8db7 633d a8b8 5da5 be3c
000000a0: 4314 713c 0bcd a2ba 4a5e 14bb 1a2b b6ba
000000b0: 6372 1539 57bd 273c 7419 d63c 4770 9c3a
000000c0: 6d4b 33bc 254c 5a3b 518e ea3a 37b0 5cbb
000000d0: 6b92 1f3c dc9f 76bb f83b 15b9 d3ac edbb
000000e0: 7f46 05bb 5a7f 86bc 0a14 0f3a 2832 e93b
000000f0: 78f5 443c abb4 013c ed7a 493c 86ea 9739
00000100: 6e77 40bb 1273 3fbb 9b48 2c3b 373f 023b
00000110: e6e9 053c c1a3 853a 8aaf bfb9 5b6e e139
00000120: c486 4639 11e3 aa3a f913 0a3c 5ffe 91bc
00000130: 8099 bfbb 1717 b73b fdee fc3b 9a24 fa3a
00000140: 605e abbb 1bb7 a8bb c7cd 653c 2126 173b
00000150: a774 0c3b 17ad 2f3b 001c 683c ba22 4938
00000160: 8541 4c3a 7b80 c9ba f69a 4cbc e107 8cbc
00000170: 99aa 5e3c 8a4d a9bb e8e5 b9ba 5d7d 8abc
00000180: b6f1 90bb 4f19 8abb 545b 1a3c a41c b7b9
00000190: ec18 d2b9 3acb b13a f6a8 cdba 3c70 f73a
000001a0: b6da f1ba dab2 113b 8db0 6bbc afba 5a3b
000001b0: 7a8a 96bb 837a 5cbb e118 b13b 3e0c 3cba
000001c0: 2252 493b b4e9 e8b9 1f0a 8ebb 1972 26bc
000001d0: cf02 6a3c 1d58 47bb f4e4 a63a 4bca a03b
000001e0: 44fb 29bb f525 2b3c 0d93 d13b 77ab 51ba
000001f0: f224 be3c c889 27bc 1536 613a 7afb 46bb
00000200: efe4 9e39 9fc6 2ebb d6d1 453b 317d 913b
00000210: 5e39 afbc c479 85bb 9240 a4bb f11d c53b
00000220: f9ad e3bb fa43 623b bf34 723b a0b6 69bb
00000230: 3c46 5f3c 991f f0bb a8c8 453b d30e 9cba
00000240: 49b5 473d 8d13 05bb e0fd 8f3c ed3d 8d3b
00000250: 8ba6 e43b 8ffd e2ba 7cfd 8c3b 5083 afbb
00000260: a1b0 0cbc 2fa5 b6bb fa75 d8ba c072 913a
00000270: 7c0c 733b d0b5 1d3a e0bd 293b 692a 843b
00000280: c98e 673c da71 803b 6a2f b73b afd2 8d3a
00000290: 70ae 39ba 5f9d 2cb9 b153 db39 0a1f 323b
000002a0: a9b3 eb3a a487 443b c641 f6bb 5312 983c
000002b0: 20e4 933c 90c0 31bb f4b3 aaba 982d 19bb
000002c0: 799d a0bb c97f 8f3b 9984 4d3b ec40 e03a
000002d0: 3f84 14bb 0dcd 2eb9 1c53 c53a a1c6 503b
000002e0: 0553 753b 0bde 37bb 9cb9 84bb b06b 7f3c
000002f0: 5f77 123b 5cfa 7cbc febe 0b3c 4762 57bb
00000300: 1f70 643b 97b5 2b3b 5f01 393b 594f 593a
00000310: e966 0abc f175 5e3b b688 fb39 6376 81ba
00000320: d027 8ebc 5e38 e53b 5472 3a3b a024 e6ba
00000330: bd39 86bb aa83 813a ce6d 203c 2aaa b13b
00000340: 42f6 84bb d90a 0ebc 3954 443c a8f1 2b3b
00000350: 2feb deba ba0f 6e3b e644 773b 152e c3b9
00000360: d00b 14bb b12d d73a 67d9 3939 3f79 fbba
00000370: fdf1 f73c afaa 9e3a 6eb4 213c 80e4 303a
00000380: b86d f4b8 4c56 5d3a 9fc3 66ba a680 a9bb
00000390: 3fbc d7ba 7ffb 7d3c 160f f83a 1b5f a13c
000003a0: fbe5 f239 f925 db38 f7cf 84ba 9b72 95ba
000003b0: 27ac dabc 8d81 f0bb 429a e33b 3743 31bb
000003c0: fe2a d03b cf66 8ebb 7de0 16bb 8ef6 78bb
000003d0: 588b 04bc ad63 373b feb0 3339 78a5 b93a
000003e0: 1c39 873c 6ebc 813b be6f 8e3b fe92 033c
000003f0: 8bcb 04bc d1d5 beba 36b7 6f3b 7f55 813c
0.0020940308 -0.0033720746 0.01003561 0.0027157008 0.00065069186 -0.00011703399 0.0042563956 0.00076548714
-0.011968372 -0.00050710695 -0.004247359 0.007321363 0.005594693 0.003748583 -0.0037413505 -0.0043004807
0.010264526 0.0070376256 -0.002935788 -0.003106001 0.0015463484 -0.0054122517 0.0008131632 0.0129817845
-0.004435073 -0.0051349853 0.00062061666 0.004845145 0.0012071995 -0.0070094145 0.00047571713 0.00020186929
-0.010758716 -0.0047986866 -0.0017659948 -0.002166401 0.0064152344 -1.6868013e-05 -8.0222984e-05 0.02327221
0.014714303 -0.0012420727 -0.0022639208 -0.0013898343 0.0001425236 0.010238013 0.026135184 0.0011935317
-0.010943276 0.0033309546 0.0017895197 -0.0033674368 0.009739499 -0.0037631905 -0.00014232087 -0.0072532683
-0.0020336208 -0.016418148 0.0005458003 0.007116575 0.012021415 0.00791661 0.012297374 0.00028975698
-0.002936806 -0.0029212874 0.0026288393 0.0019874105 0.0081734415 0.0010195897 -0.00036561146 0.00042997565
0.00018932956 0.0013037642 0.008427613 -0.017821489 -0.005847156 0.0055874693 0.0077189193 0.0019084394
-0.0052297562 -0.005148781 0.014026112 0.0023063498 0.0021431835 0.002680605 0.014166832 4.7954476e-05
0.00077917456 -0.0015373373 -0.012488117 -0.0170936 0.013590478 -0.005166714 -0.0014182897 -0.016905481
-0.0044233454 -0.004214443 0.009421188 -0.0003492582 -0.0004007289 0.0013564595 -0.0015690613 0.0018878053
-0.0018452022 0.0022231848 -0.014385355 0.0033375432 -0.0045941444 -0.0033642359 0.005404577 -0.0007173455
0.003071912 -0.0004442461 -0.0043347026 -0.010159039 0.014282896 -0.003041751 0.0012733028 0.0049069277
-0.002593712 0.010446061 0.0063957036 -0.00079982675 0.023210976 -0.010225721 0.00085911277 -0.0030362294
0.00030306677 -0.002666868 0.0030184886 0.004439973 -0.02138966 -0.0040733535 -0.00501258 0.006015532
-0.0069482294 0.003452538 0.0036957709 -0.0035661831 0.013627585 -0.0073279855 0.0030179415 -0.0011906273
0.04875687 -0.0020305843 0.017577112 0.0043103606 0.0069778613 -0.0017317998 0.0043026786 -0.00535623
-0.0085870335 -0.0055738906 -0.0016514652 0.001109682 0.0037086299 0.0006016167 0.0025900528 0.004033376
0.014133164 0.003919822 0.005590369 0.0010820235 -0.0007083183 -0.00016461824 0.0004183329 0.0027179145
0.001798262 0.0029988075 -0.007515165 0.018563425 0.018053114 -0.0027122833 -0.0013023601 -0.0023373123
-0.0049015847 0.004379247 0.0031359552 0.0017109192 -0.0022661833 -0.0001667032 0.0015054676 0.0031856673
0.0037433517 -0.0028055932 -0.0040504467 0.01558964 0.0022348983 -0.01544055 0.008529423 -0.0032864974
0.0034856868 0.0026200765 0.0028229577 0.0008289717 -0.008447387 0.003394481 0.00047976308 -0.0009877201
-0.017352968 0.006995245 0.0028449493 -0.0017558523 -0.0040962384 0.0009881158 0.0097918045 0.0054218965
-0.0040576765 -0.0086695785 0.011982971 0.0026236568 -0.0017007346 0.0036325292 0.0037730276 -0.00037227632
-0.0022590049 0.0016416815 0.00017723964 -0.0019185914 0.030266756 0.0012105311 0.009869678 0.00067479163
-0.000116552634 0.000844334 -0.00088029535 -0.005172807 -0.00164593 0.015501856 0.0018925394 0.01969867
0.00046329186 0.00010449807 -0.0010132779 -0.0011401953 -0.026693417 -0.0073396624 0.006945879 -0.002704812
0.0063527813 -0.004345752 -0.002302199 -0.0037988755 -0.008089863 0.0027982995 0.00017136705 0.0014163693
0.016506724 0.00395923 0.004346817 0.008030651 -0.008105169 -0.0014559572 0.0036577708 0.015787838

action_model._continuous_distribution.mu.bias f4 [2]
00000000: 77a4 743c 8ea3 c73c
0.01493179 0.024369981
