MLAgents Jumper Exercise/Assets/results/Jump1/JumperAgent/JumperAgent-999800.onnx (onnx, 570158 bytes, 15 tensors)

network_body.observation_encoder.processors.0.normalizer.running_mean f4 [26]
0	0x3f369c05	0.71331817
1	0x3f3eda0b	0.7455146
2	0x3f369c16	0.7133192
3	0x3f3f0687	0.74619335
4	0x3f369c16	0.7133192
5	0x3f3f0687	0.74619335
6	0x3f36a075	0.7133859
7	0x3f3f96c7	0.7483944
8	0x3f36a075	0.7133859
9	0x3f3f96c7	0.7483944
10	0x3f36a53b	0.7134587
11	0x3f40ae53	0.75266
12	0x3f36a53b	0.7134587
13	0x3f40ae53	0.75266
14	0x3f3bc135	0.73341686
15	0x3f45eca4	0.7731421
16	0x3f3bc135	0.73341686
17	0x3f45eca5	0.77314216
18	0x3f50ce30	0.8156462
19	0x3f563942	0.8368112
20	0x3f50ce30	0.8156462
21	0x3f563942	0.8368112
22	0x3f61d83c	0.8822057
23	0x3f63de9a	0.8901154
24	0x3f61d83c	0.8822057
25	0x3f63de9a	0.8901154

network_body.observation_encoder.processors.1.normalizer.running_mean f4 [2]
0	0x3e8882ff	0.26662442
1	0xbcd33ddf	-0.025786338

network_body._body_endoder.seq_layers.0.weight f4 [256, 28]
0	0x3e0f62d8	0.1400255
1	0x3e2d595f	0.16928624
2	0xbd285125	-0.04109301
3	0xbd991026	-0.07473783
4	0xbdb8f3d5	-0.09030882
5	0xbe5a3811	-0.2131045
6	0xbe230f25	-0.15923746
7	0xbe43f248	-0.19135392
8	0x394de1c8	0.00019634434
9	0xbe9b5b6c	-0.30343187
10	0xbea43c93	-0.32077464
11	0x3e6f357f	0.23360251
12	0x3db6a9b5	0.08919088
13	0xbe4b5380	-0.19856071
14	0x3c756654	0.01497801
15	0xbe59fee8	-0.21288645
16	0x3ddeaffe	0.108734116
17	0xbd952bf9	-0.07283778
18	0xbe074697	-0.13210522
19	0x3caf8284	0.02142454
20	0xbd078a65	-0.033090968
21	0xbe139bba	-0.14414874
22	0x3cbd50f3	0.023109889
23	0x3e82957c	0.25504673
24	0xbcdfc1bb	-0.027314058
25	0x3d446666	0.047949217
26	0xbcc234b3	-0.02370677
27	0x3d90afcc	0.070647806
28	0xbe513746	-0.20431241
29	0x3d09d5bb	0.033651095
30	0xbe9758ed	-0.29560032
31	0x3ea7ee27	0.32798883
32	0xbd73af93	-0.059493612
33	0x3c994a4a	0.018712182
34	0x3e10bede	0.1413531
35	0x3d1cc85a	0.038277008
36	0xbcd2023c	-0.025635831
37	0xbd15a6fb	-0.036536198
38	0x3e77d0dd	0.24200769
39	0xbdb65980	-0.089037895
40	0xbcc5080c	-0.024051689
41	0x3e796ee3	0.24358706
42	0x3e0c3fbc	0.13696188
43	0xbe09b03c	-0.13446134
44	0x3d0402d3	0.032229256
45	0xbe638287	-0.22217761
46	0xbe236d95	-0.15959771
47	0xbb8c7cd5	-0.004287342
48	0x3c87e5db	0.016589096
49	0x3d5fe537	0.054661956
50	0xbda06cea	-0.07833274
51	0x3e128224	0.14307457
52	0x3e932428	0.28738523
53	0xbe6a6d5f	-0.22893284
54	0xbd2d6211	-0.04232985
55	0xbeac2e0e	-0.33628887
56	0xbe573888	-0.21017659
57	0x3da6a75d	0.08137391
58	0xbedb2af3	-0.42806205
59	0x3dd0efc8	0.10201985
60	0xbda741d1	-0.0816685
61	0x3ecb3f0f	0.39696547
62	0xbe6d6081	-0.23181345
63	0x3e3d5358	0.18488824
64	0xbdc964fe	-0.09833716
65	0xbdf58fc1	-0.119903095
66	0x3df63df1	0.12023533
67	0x3e8adecc	0.27123106
68	0x3d8f3ea1	0.069943674
69	0x3de68d61	0.11257435
70	0x3d56fedb	0.052489143
71	0x3c71e1f1	0.014763341
72	0xbd86ad59	-0.06576032
73	0x3e90b515	0.28263155
74	0xbe62d010	-0.22149682
75	0xbea2bca6	-0.31784552
76	0x3dd33c86	0.10314278
77	0xbd1d2549	-0.038365636
78	0x3eb8fbf8	0.36129737
79	0xbce18d1b	-0.027533105
80	0xbdc3145b	-0.09525367
81	0xbe9e19da	-0.30879098
82	0xbd8781fa	-0.06616588
83	0xbd4412e2	-0.04786957
84	0xbee4d5c0	-0.44694328
85	0x3e9e5f44	0.30932057
86	0x3ea85b9a	0.32882386
87	0x3e284b29	0.16434921
88	0xbd16f6b3	-0.036856364
89	0xbd921875	-0.07133571
90	0x3db97665	0.09055785
91	0x3c8180e0	0.015808523
92	0x3df057d9	0.117355056
93	0xbcc1e1fd	-0.02366733
94	0xbbf127f9	-0.0073595014
95	0xbd19e95f	-0.037576076
96	0xbe56c711	-0.20974375
97	0x3ef6d411	0.4820867
98	0xbeb07b06	-0.3446886
99	0x3e803d05	0.25046554
100	0xbe5fe60b	-0.21865098
101	0x3e3bae27	0.18328153
102	0xbdd68675	-0.104748644
103	0x3d0f08c0	0.034920454
104	0x3ed72891	0.42023137
105	0x3d81bf2e	0.06335293
106	0x3d8e25ad	0.0694078
107	0x3e3bfc83	0.18358044
108	0x3e53e80b	0.20693986
109	0x3e6de83e	0.23233125
110	0xbcaa4262	-0.020783607
111	0x3e47dd99	0.19518127
112	0x3e67509e	0.22589347
113	0xbcee3c0c	-0.029081367
114	0x3e8355fa	0.25651532
115	0xbeafe265	-0.34352413
116	0x3e18172a	0.14852586
117	0xbe3b16d7	-0.18270431
118	0x3e200f00	0.15630722
119	0x3ed0ef92	0.40807778
120	0xbd8f38ef	-0.06993281
121	0xbd28c56f	-0.041203912
122	0x3e05f7c1	0.13082792
123	0xbdce8d4f	-0.10085546
124	0x3d284173	0.041078042
125	0xbeef8365	-0.46779934
126	0x3ebd0424	0.36917222
127	0x3beb7bd7	0.0071863937
128	0xbe1a54c8	-0.15071404
129	0x3d031c7c	0.032009587
130	0x3d6ad870	0.057335317
131	0xbde18340	-0.11011362
132	0x3d9e29e0	0.07722831
133	0xbd9ffbdb	-0.078117095
134	0x3c3484df	0.011018007
135	0x3e56ed47	0.20988952
136	0x3e93c613	0.28862056
137	0x3e81d6f8	0.2535932
138	0x3d1a681a	0.037696935
139	0x3d873121	0.066011675
140	0x3e8a476b	0.27007613
141	0x3d0f4203	0.034975063
142	0xbdd50f7d	-0.10403345
143	0x3e4524ad	0.19252272
144	0xbeb4981a	-0.35272294
145	0x3e18a06a	0.14904943
146	0xbd9bffa4	-0.07617119
147	0x3da9dacd	0.08293686
148	0x3e6c987c	0.23105043
149	0x3e954d52	0.29160553
150	0x3d79b260	0.060961127
151	0xbdb6d90a	-0.08928116
152	0x3dae755b	0.085184775
153	0x3e0914a0	0.13386774
154	0xbbef2bb3	-0.0072989105
155	0xbe03057a	-0.12795058
156	0x3e47f472	0.19526842
157	0xbc647b93	-0.013945478
158	0x3e797a3a	0.24363032
159	0x3dee51f5	0.11636726
160	0xbe3652df	-0.1780505
161	0xbecb16eb	-0.39665923
162	0xbcdfb5cb	-0.027308365
163	0x3ea61836	0.32440346
164	0xbe3d4e6c	-0.18486947
165	0xbcf3eb99	-0.029775428
166	0x3d837aae	0.06419884
167	0x3d42653c	0.047459826
168	0xbe6c0232	-0.23047712
169	0xbe305610	-0.1722033
170	0xbd7ebb4f	-0.06219035
171	0x3de5c938	0.1122002
172	0xbe19b1d6	-0.15009245
173	0xbe903e80	-0.28172684
174	0x3eb91358	0.3614757
175	0x3e04330d	0.129101
176	0x3df9fab4	0.12206021
177	0x3d415461	0.04719961
178	0x3e4fb82c	0.202851
179	0x3e17ac00	0.14811707
180	0xbe61445c	-0.21998733
181	0xbe737430	-0.23774791
182	0x3e93d3ef	0.2887263
183	0x3e29e663	0.16591792
184	0x3e120140	0.1425829
185	0x3dc206e6	0.09473972
186	0x3e11a5bd	0.1422338
187	0xbe01a0b7	-0.12658964
188	0x3ecfb238	0.40565658
189	0xbe30d06a	-0.17267004
190	0xbd3137fa	-0.043266274
191	0x3cbd3207	0.023095144
192	0xbdb25386	-0.08707337
193	0x3d4090a1	0.04701293
194	0x3d809131	0.06277693
195	0x3e432d20	0.19060183
196	0xbd78127e	-0.06056451
197	0xbe45ab59	-0.19303645
198	0x3da72b44	0.08162549
199	0xbdacc465	-0.08435897
200	0xbdeae567	-0.11469536
201	0x3d93d421	0.07218195
202	0xbe507df7	-0.20360552
203	0x3df0cd8c	0.11757955
204	0xbdb8b4b6	-0.09018843
205	0x3df99392	0.1218635
206	0x3e442c49	0.19157518
207	0x3e1f6e77	0.15569483
208	0x3ea6e8e5	0.3259956
209	0x3d8915f0	0.06693637
210	0xbe33d5e4	-0.17562062
211	0xba7a655c	-0.0009551847
212	0xbd0f8bd2	-0.035045452
213	0x3e0da174	0.1383112
214	0xbea3f67f	-0.32024
215	0x3db7d9ba	0.08977075
216	0x3d40caf2	0.047068544
217	0xbd2d5ebd	-0.042326678
218	0x3bc138dd	0.005896671
219	0xbe1fdc28	-0.15611327
220	0x3ebfeaf1	0.37483934
221	0xbda3721b	-0.07980748
222	0x3e82f959	0.25580862
223	0x3da60ccb	0.08107909
224	0xbe5acf11	-0.21368052
225	0xbc70e2cb	-0.014702509
226	0xbe83ebf1	-0.25765947
227	0x3eca5304	0.3951646
228	0xbed07d1b	-0.40720448
229	0x3cd09073	0.025459504
230	0xbe92a61e	-0.28642362
231	0xbe2542e3	-0.16138797
232	0x3ec9f05e	0.39441198
233	0xbe15f480	-0.1464405
234	0xbd5dddf2	-0.05416674
235	0xbd9949b5	-0.074847616
236	0xbe5d2320	-0.2159543
237	0xbe6e99ec	-0.23300904
238	0xbd4519d4	-0.048120335
239	0x3e2752f9	0.16340245
240	0xbeb184be	-0.34671587
241	0x3e4995b9	0.19686021
242	0x3d742948	0.05960968
243	0x3eab0b7b	0.33407196
244	0x3e47d57c	0.19515032
245	0xbd34addc	-0.044111118
246	0x3e9c681c	0.3054818
247	0xbc48317b	-0.012218828
248	0xbe4331d0	-0.1906197
249	0x3d1ebc37	0.038753714
250	0xbe574214	-0.210213
251	0x3eadef85	0.339718
252	0x3cda6283	0.026658302
253	0xbe68f76c	-0.22750634
254	0x3dff9713	0.12479987
255	0x3daa8279	0.08325667

network_body._body_endoder.seq_layers.0.bias f4 [256]
0	0xb91d468c	-0.00014998968
1	0xbc677acc	-0.014128398
2	0xbb165ec4	-0.0022944668
3	0x3c6ab602	0.014325621
4	0x3c76cec5	0.015063946
5	0x3c194ccb	0.009356688
6	0x3b66d3a6	0.0035221367
7	0x3c54d3f2	0.012989985
8	0x3c699b64	0.014258239
9	0x3be214cf	0.0068994532
10	0x3a80ee55	0.0009836653
11	0x3c893aba	0.016751636
12	0x3a8439e4	0.0010088054
13	0x3bdb28a3	0.006688194
14	0x3a9aee43	0.0011820275
15	0xbc2a7b48	-0.010405369
16	0x3c16914b	0.009189914
17	0x3c426b99	0.011866474
18	0x3c6ed008	0.014575966
19	0xbb310447	-0.0027010606
20	0x3c4a9b65	0.0123661505
21	0x3c1128fc	0.008859869
22	0x3c2c3745	0.010511224
23	0x3b70d7d2	0.0036749733
24	0xbbaa9c61	-0.00520663
25	0x3a762eb7	0.00093911163
26	0x3c6133cb	0.013745259
27	0x3c163ee6	0.00917027
28	0x3c3457ff	0.011007308
29	0x3c5e1cd1	0.013556675
30	0x3c28c3d1	0.0103005925
31	0xbc01980e	-0.007909788
32	0x3ae2cbc3	0.0017303157
33	0x3bc084e1	0.0058752154
34	0x3c32d4c0	0.010914981
35	0xbc1bf069	-0.0095177675
36	0x3c1f93b0	0.009739801
37	0x3c57438d	0.013138664
38	0x3c39899a	0.011324311
39	0x3c566c9e	0.01308742
40	0x3c88df21	0.016707959
41	0xbbdb48d4	-0.0066920314
42	0x3c61db91	0.013785259
43	0xbb65c701	-0.0035061243
44	0xbc1bf503	-0.009518865
45	0xbb5a5707	-0.0033316032
46	0x3c97f155	0.018547693
47	0xbbec3699	-0.007208657
48	0x3c4b7fc5	0.012420599
49	0xb9c32598	-0.00037221308
50	0xbc0a15a9	-0.008428016
51	0x3c641546	0.013921088
52	0x3b872cf4	0.004125232
53	0x3c211e8a	0.009833941
54	0x3c85cde8	0.016333535
55	0x3bc56648	0.0060241558
56	0x3c7e5624	0.015523467
57	0x3c4e6998	0.012598418
58	0x3c17f6cc	0.00927515
59	0xbba40123	-0.0050050183
60	0x3c64e8ce	0.013971521
61	0x3c1e7aac	0.009672802
62	0xbaf51996	-0.0018699642
63	0x3c7ecf30	0.015552327
64	0x3b92d286	0.0044806628
65	0x3b36128d	0.0027782053
66	0x3cbe0c7f	0.023199318
67	0xbb261778	-0.0025343578
68	0x3c8b1859	0.016979383
69	0x3c919874	0.01777289
70	0x394c3e9a	0.00019478277
71	0x3bd742a1	0.006569222
72	0x3bcb7014	0.006208429
73	0x3ba63867	0.0050726417
74	0xbb0137d1	-0.0019717107
75	0x3bab5596	0.0052287085
76	0x3c6a9138	0.014316849
77	0xbb3dc2ce	-0.0028955224
78	0x3b899169	0.0041982424
79	0x3c5593f2	0.013035761
80	0xbb24c19b	-0.0025139812
81	0x3c138f10	0.009006277
82	0x3c5b1c22	0.013373407
83	0x3c885ad3	0.01664487
84	0x3bcf54b1	0.0063272347
85	0x3c3e2b1f	0.011606961
86	0x3c3280c9	0.010894963
87	0x3bdece40	0.0067994893
88	0xbbc277c1	-0.005934686
89	0xbc458cbb	-0.012057479
90	0xbc270151	-0.010193185
91	0x3b1189ef	0.002220746
92	0x3a1153a5	0.0005543775
93	0xbbe8d8f1	-0.0071059396
94	0x3a752364	0.0009351282
95	0x3c781eb3	0.015144038
96	0xbc15a14c	-0.009132694
97	0xbb87876b	-0.004136016
98	0x3c3a7d27	0.011382378
99	0x3c6272c4	0.013821308
100	0x383ce8f6	4.5039655e-05
101	0x3c8880c1	0.016662957
102	0x39577547	0.00020547687
103	0x3c3f51f0	0.01167725
104	0x3c34b045	0.011028354
105	0xbc1bc93a	-0.009508425
106	0xbb29f079	-0.0025930686
107	0xbb76c73a	-0.003765537
108	0x3c49dd34	0.012320805
109	0xbb5274c1	-0.0032113048
110	0xbb6e6b2c	-0.0036379797
111	0x3c85d919	0.016338872
112	0x3c6a35d6	0.014295062
113	0x3b9f2fc4	0.004857989
114	0x3b9730d4	0.004613975
115	0xbb9967c5	-0.0046815597
116	0xbaeb3437	-0.0017944638
117	0x3c4de673	0.01256715
118	0xbc25bd75	-0.010115971
119	0x3ca66574	0.020312048
120	0xbbe42c89	-0.006963317
121	0x3c02b7c2	0.007978382
122	0x3bd28029	0.0064239693
123	0xba4db36e	-0.00078468665
124	0xbc1d3cd7	-0.009597025
125	0xbc2bf9a4	-0.010496531
126	0x3c9a06ea	0.018802125
127	0x3b69b170	0.003565874
128	0x3be857dd	0.0070905522
129	0xbc64fa29	-0.013975658
130	0x3c1ea3ca	0.009682605
131	0x3c15255c	0.009103145
132	0xbbf00fc6	-0.007326099
133	0xbc09447e	-0.008378146
134	0xbb16e196	-0.0023022643
135	0xbc17597e	-0.009237645
136	0x3cab540c	0.0209141
137	0x3c87e496	0.01658849
138	0x3c429f78	0.011878841
139	0x3c338b3b	0.010958488
140	0x3b32e01c	0.0027294224
141	0x3c770e52	0.015079098
142	0x3c77abb1	0.015116618
143	0x3c536fbd	0.012905058
144	0x3ba0bccb	0.0049053184
145	0x3c774fb8	0.01509469
146	0x3bfa6811	0.0076418
147	0xbbcbc61a	-0.006218684
148	0x3c7cc55c	0.0154279135
149	0x3b1da0c6	0.0024052127
150	0x3c4ce61f	0.012506037
151	0xbc0e7e13	-0.008697051
152	0x3aa3b482	0.0012489709
153	0x3c478707	0.012178189
154	0x3c598f27	0.013278759
155	0xbc2d49c8	-0.010576673
156	0x3cc6a44a	0.024248261
157	0x3c745cb9	0.014914685
158	0x3b32d38f	0.0027286743
159	0x3c429ca0	0.011878163
160	0x3c2e72d8	0.010647498
161	0x3c0d7018	0.008632682
162	0xbbe4ab7d	-0.006978451
163	0x3bf0d945	0.0073501193
164	0x3c236c69	0.009974577
165	0x3c0450d1	0.008075909
166	0xbb0ffc69	-0.0021970517
167	0xbba1737f	-0.0049270983
168	0x3c3d8033	0.01156621
169	0x3be70f7b	0.007051406
170	0x39b73dcd	0.00034950525
171	0x3c4573c9	0.012051531
172	0x3ac61dd3	0.001511509
173	0x3c51d76b	0.012807707
174	0x3c14ffaa	0.009094158
175	0xbb142250	-0.002260346
176	0x3c6c99b8	0.014440946
177	0x3c593b61	0.013258786
178	0x3c97d870	0.018535823
179	0x3cc7d886	0.024395239
180	0x3c87196f	0.01649162
181	0x3b821a55	0.003970424
182	0x3b977dba	0.004623142
183	0x3c708096	0.014679095
184	0xbb6deec9	-0.0036305657
185	0x3c4cfc86	0.012511378
186	0x3ca69539	0.020334827
187	0xbb432bcf	-0.002978075
188	0x3c7ac2b3	0.015305209
189	0x3c4ed7d7	0.012624702
190	0x3c58b79d	0.013227371
191	0xbb8a5fcd	-0.004222846
192	0xbc3e0c19	-0.011599564
193	0x3b48680a	0.003057959
194	0x3c403fbe	0.011733947
195	0xbaec5c99	-0.0018032967
196	0xbc128ac7	-0.00894422
197	0xbb7b1f09	-0.003831806
198	0xba01b2b1	-0.00049475866
199	0xbc1fa67d	-0.009744284
200	0xbb97457c	-0.0046164375
201	0xbc01b5e6	-0.007916903
202	0xbc0fb615	-0.008771439
203	0xbb75698f	-0.003744695
204	0xbc7094de	-0.01468393
205	0xba55ee20	-0.00081607886
206	0x3c83fc24	0.016111441
207	0x3c5232b7	0.012829474
208	0x3b843ef0	0.004035823
209	0x3bf6754b	0.0075213066
210	0x3c6aefaa	0.014339367
211	0xbb9c8fa6	-0.0047778664
212	0x3c6190ef	0.013767465
213	0x3c5c34a9	0.01344029
214	0x3c48e486	0.0122615155
215	0x3c5e525a	0.013569439
216	0x3c42ee11	0.01189758
217	0x3bcb48d4	0.00620375
218	0x3c8ca3c0	0.017167926
219	0xbac6b1c8	-0.0015159184
220	0xbc0616c6	-0.008184141
221	0xbb1ec802	-0.00242281
222	0x3c950973	0.018192982
223	0x3c914c71	0.017736645
224	0x3c673e44	0.014113966
225	0xbc215ae7	-0.009848333
226	0x3c8fa487	0.017534507
227	0xbc30cac2	-0.010790529
228	0x3c25fb06	0.010130649
229	0x3b53788e	0.00322679
230	0x3c13db11	0.0090243975
231	0x3c2e45c5	0.010636752
232	0x3c24ddd6	0.010062655
233	0x3c79cdf9	0.015246862
234	0x3c29720f	0.010342135
235	0xbb59d4eb	-0.0033238481
236	0xbc2d8aa8	-0.01059214
237	0x3c2566fc	0.010095354
238	0xbbd74f0c	-0.0065707024
239	0x3c23c4d6	0.00999566
240	0x3bd7ac9f	0.0065818573
241	0x3a1bcad5	0.0005943005
242	0x3c762fda	0.015026057
243	0x3bc03a67	0.005866337
244	0x3c8fa52a	0.017534811
245	0x3ba842f9	0.005134937
246	0xbba09166	-0.0049001453
247	0xbb26093a	-0.002533509
248	0x3c4bd2f4	0.012440432
249	0xbc48c215	-0.012253304
250	0x3c1321a8	0.008980192
251	0xbc24ce2e	-0.010058923
252	0x3c7fdd6d	0.015616757
253	0x3c3afe45	0.011413162
254	0xbbbca1da	-0.005756599
255	0x3c94b854	0.0181543

network_body._body_endoder.seq_layers.2.weight f4 [256, 256]
0	0xbc96572c	-0.018352114
1	0xbd82fef0	-0.06396282
2	0x3de7f94c	0.113268465
3	0x3d787e39	0.06066725
4	0x3db7d873	0.08976831
5	0xbc8fba83	-0.01754499
6	0x3d05d91f	0.032677766
7	0xbdc14596	-0.094371006
8	0x3c937030	0.017997831
9	0x3d0dd8cb	0.034630578
10	0x3b811c08	0.003940109
11	0x3db16fa3	0.08663871
12	0x3d4b6169	0.049653444
13	0x3d0f2471	0.034946863
14	0xbd43c8a9	-0.047798786
15	0x3c92685b	0.017872026
16	0x3d2ffabf	0.04296374
17	0xbe206ee5	-0.15667303
18	0x3c9909c5	0.018681416
19	0x3d32e6ae	0.043677025
20	0x3c8413a4	0.016122647
21	0x3b4d915e	0.0031367163
22	0x3d1def08	0.038558036
23	0xba42596b	-0.0007413837
24	0x3de9bb8c	0.11412725
25	0xbd3699a2	-0.04458011
26	0xbdc31e2a	-0.09527238
27	0x3c53b547	0.012921638
28	0x3aaac1e1	0.0013027751
29	0xbda936de	-0.08262418
30	0xbb119a95	-0.0022217382
31	0xbdf62ff2	-0.120208636
32	0x3ba9b170	0.005178623
33	0x3d0625ed	0.032751013
34	0xbda93c2c	-0.0826343
35	0xbd854b1a	-0.06508465
36	0x3ce0feb6	0.027465206
37	0x3c9b6a18	0.018971488
38	0x3d721214	0.059099272
39	0x3ce9b363	0.028527921
40	0xbb0522a6	-0.0020314842
41	0x3ba612a0	0.0050681382
42	0x3bf51638	0.0074794553
43	0x3bafdda7	0.005366999
44	0xbdaaa663	-0.08332517
45	0xbb649068	-0.0034876112
46	0xbd06de42	-0.032926805
47	0xbd4e396a	-0.050347723
48	0xbce54c04	-0.027990349
49	0xbd83eba4	-0.06441429
50	0xbd711ca2	-0.058865197
51	0x3cf5f8e6	0.03002591
52	0x3c8b601d	0.017013604
53	0x3d24ccbb	0.04023431
54	0xbbb3d647	-0.0054881903
55	0x3d532623	0.051550042
56	0x3d9d0368	0.07666665
57	0x3da4e702	0.08051874
58	0x3dc54c87	0.09633737
59	0xbd392b7a	-0.045207478
60	0xbddc611a	-0.10760708
61	0x3e2a2445	0.16615398
62	0xbd02e870	-0.03195995
63	0xbc26cc63	-0.0101805655
64	0xbc77f9af	-0.015135213
65	0x3d085849	0.03328732
66	0x3d37f744	0.044913545
67	0x3d63631b	0.055514436
68	0xbb736187	-0.0037136988
69	0x3de0c1b9	0.1097445
70	0xbdc4e6d7	-0.09614342
71	0xba051a6b	-0.0005077484
72	0xbc8bb2d2	-0.017053042
73	0x3d34e0d0	0.04415971
74	0xbc3ec6f0	-0.01164411
75	0x3d2a710d	0.04161172
76	0x3aa2c568	0.0012418451
77	0x3dce799e	0.100817904
78	0x3c2b369d	0.010450033
79	0x3c04069c	0.008058216
80	0x3ca9ef55	0.020744005
81	0xbdb7ddb9	-0.08977837
82	0x3e56400c	0.2092287
83	0x3cb605ba	0.022219528
84	0x3d27bd1b	0.04095183
85	0xbc7eba40	-0.015547335
86	0xbd50ac96	-0.05094584
87	0x3b59a05f	0.003320716
88	0xbd080365	-0.033206362
89	0xbd7f3625	-0.062307496
90	0xbd48c000	-0.04901123
91	0xbd31ea77	-0.043436494
92	0xbccb38ff	-0.024807451
93	0xbceb3d18	-0.028715655
94	0x3bf3353e	0.0074221184
95	0x3dbd88af	0.09254586
96	0x3c9b872e	0.018985357
97	0xbd3d8961	-0.046273593
98	0x3d93215d	0.07184098
99	0x3d048309	0.032351527
100	0xbd0481bc	-0.032350287
101	0x3d174096	0.03692683
102	0xbc9af337	-0.018914802
103	0x3c97113e	0.018440839
104	0xbd8d6003	-0.069030784
105	0x3e449639	0.1919793
106	0xbd8a1948	-0.06743103
107	0x3ddde339	0.10834355
108	0x3b9d5cc5	0.0048023188
109	0x3d8f89fa	0.07008739
110	0xbdbcd12f	-0.09219586
111	0xbcf7e846	-0.030262124
112	0x3c6e3f55	0.014541467
113	0xbdc83ec7	-0.09777599
114	0xbdbeed9e	-0.09322666
115	0xbd6e0c2b	-0.058117073
116	0x3983b793	0.0002512304
117	0xbd5a678c	-0.053321406
118	0xbc7a6108	-0.015281923
119	0x3d9cf63c	0.07664153
120	0xbd307e13	-0.043088984
121	0x3caa6033	0.020797824
122	0xbc8504d2	-0.01623765
123	0x3d95e651	0.0731932
124	0x3cabe9f3	0.02098558
125	0xbd9e4ab2	-0.07729091
126	0x3d260314	0.04053028
127	0xbcd3e654	-0.025866665
128	0x3e20cd21	0.1570325
129	0xbd98762e	-0.07444416
130	0xbd02ed7f	-0.031964775
131	0xbccba304	-0.024858005
132	0xbbb1f440	-0.005430728
133	0xbd6029ec	-0.05472748
134	0x3d620c0f	0.05518728
135	0xbddc38f4	-0.107530504
136	0x3d0effff	0.034912106
137	0x3c4bea68	0.0124460235
138	0xbda10372	-0.07861985
139	0x3c84b405	0.016199121
140	0xbddae20d	-0.10687647
141	0x3d281a39	0.041040633
142	0x3cb2922f	0.021798221
143	0x3d658362	0.0560335
144	0x3dcce7d9	0.10005159
145	0x3dabcdf2	0.0838889
146	0x3bc44982	0.005990208
147	0x3d35c420	0.044376493
148	0x3c006174	0.007835735
149	0x3d943d75	0.072382845
150	0xbe0cc263	-0.13746028
151	0xbd965bf3	-0.07341757
152	0x3de3989f	0.111130945
153	0xbb8293a4	-0.0039848853
154	0xbd232270	-0.039827764
155	0x3d03fc42	0.032222994
156	0x3c8743f5	0.016511897
157	0xbd9a02ee	-0.0752009
158	0xbc227050	-0.009914473
159	0xbd1c3dfb	-0.038145047
160	0xbd4afd64	-0.04955806
161	0x3ae4df47	0.0017461561
162	0xbd21706a	-0.039413847
163	0x3ca3c247	0.0199901
164	0x3d23db6c	0.04000418
165	0x3d678922	0.056527264
166	0x3a5698e3	0.0008186234
167	0xbcd4e5a4	-0.025988407
168	0x3d5d1f45	0.0539849
169	0xbcdb1548	-0.026743546
170	0x3ceee9d1	0.029164227
171	0xbcea80e6	-0.028625917
172	0x3c3b59c9	0.011434981
173	0x3d66bb95	0.056331236
174	0xbdbe492f	-0.092913024
175	0x3d6a113a	0.057145335
176	0x3cd07422	0.025446001
177	0x3bc4a9ef	0.006001703
178	0xbb5839fd	-0.0032993548
179	0x3bd67137	0.006544258
180	0x3ca6185c	0.020275287
181	0xbbd1e3db	-0.0064053363
182	0x3cd0d8f3	0.025494074
183	0xbcad4d3f	-0.021154998
184	0xbdca3cd3	-0.098748825
185	0x3c95cbeb	0.018285712
186	0x3d199dfc	0.03750418
187	0xbdbd8262	-0.09253384
188	0x3cb5c25b	0.022187402
189	0x3cb24e44	0.021765836
190	0x3cb09f60	0.02156037
191	0xbb901e81	-0.0043981676
192	0xbd9c1422	-0.076210275
193	0x3d06be59	0.032896373
194	0x3c8ee8b0	0.017444938
195	0xbdcabe18	-0.09899539
196	0xbcd8e5ca	-0.02647676
197	0x3de6f105	0.112764396
198	0x3c20ee2d	0.0098224105
199	0xbe1baf93	-0.15203695
200	0x3c15407a	0.009109611
201	0xbd5561a2	-0.052095063
202	0x3c851e10	0.016249686
203	0x3d92209e	0.071351275
204	0xbbd492c4	-0.0064872224
205	0x3cce31bd	0.025170201
206	0x3cd171fc	0.025567047
207	0xbcc122d5	-0.02357618
208	0xbcd34c8d	-0.025793338
209	0x3d356302	0.044283874
210	0x3d102e49	0.03520039
211	0x3d9e69e7	0.07735043
212	0x3d525d6b	0.05135862
213	0xbd75032d	-0.05981748
214	0xbc6f1726	-0.014592921
215	0xbca81127	-0.020515991
216	0x3de8c6e9	0.11366064
217	0x3c9f8b9a	0.019475747
218	0x3cf39967	0.029736234
219	0x3d864322	0.06555773
220	0xbc276f4c	-0.010219406
221	0xbd6187de	-0.055061214
222	0xbd7ec953	-0.062203716
223	0xbd5eb993	-0.054376196
224	0x3d923f90	0.0714103
225	0xbd56d56e	-0.052449636
226	0x3de49c1f	0.1116259
227	0x3d5b74ba	0.053578116
228	0xbc5d1874	-0.0134946
229	0x3d7b7f05	0.061400432
230	0x3cf1f1c3	0.029534226
231	0x3d8bad6e	0.068201885
232	0x3baa5e99	0.005199265
233	0xbd57765a	-0.052603103
234	0x3d612772	0.05496926
235	0x3b65a2fd	0.0035039776
236	0xbc50ee5a	-0.01275214
237	0x3c4c740c	0.01247884
238	0xbd9b0f5a	-0.075712875
239	0xbd70b229	-0.058763657
240	0x3ccedcef	0.025251834
241	0x3c7ed90a	0.015554676
242	0x3d7675dd	0.060170997
243	0xbd35f4d4	-0.04442294
244	0xbdffd6e9	-0.12492163
245	0xbc13a867	-0.009012318
246	0x3d61abaa	0.055095352
247	0xbd9970dd	-0.0749223
248	0x3b70601d	0.0036678382
249	0xbce068ce	-0.027393725
250	0x3c116163	0.008873316
251	0xbce454e1	-0.027872505
252	0xba3cda82	-0.0007204191
253	0x3cacf868	0.021114543
254	0x3d8e6792	0.06953348
255	0xbd6215eb	-0.055196684

network_body._body_endoder.seq_layers.2.bias f4 [256]
0	0x3ba49772	0.0050229365
1	0x3c8aa637	0.01692496
2	0xbc419a51	-0.011816577
3	0x3c91d8ab	0.01780351
4	0x3c7fa11c	0.015602376
5	0x3c91c85d	0.017795736
6	0x3c0afbaa	0.008482853
7	0xbc4440dd	-0.011978355
8	0xbbfcc3c6	-0.0077137677
9	0xbbd2941e	-0.0064263484
10	0x3bb49c4c	0.005511796
11	0x399be459	0.00029734036
12	0xbb3cf946	-0.0028835102
13	0x3c16e243	0.009209218
14	0x3bde6531	0.0067869653
15	0xbb04a349	-0.0020238927
16	0x3ca8f176	0.02062295
17	0x3ad6f1f9	0.0016399018
18	0xbb395386	-0.0028278544
19	0xbba43496	-0.0050111515
20	0xbb6b4527	-0.0035899372
21	0x3c20327a	0.00977766
22	0xbb10676c	-0.00220343
23	0xbbc4264f	-0.005986012
24	0x3aa58812	0.0012629053
25	0x3c33bac9	0.010969826
26	0x3ca351cd	0.019936467
27	0xbaa17277	-0.0012317438
28	0x3b19ca81	0.002346665
29	0x3c1fc758	0.009752117
30	0xba79d913	-0.0009530943
31	0xbc10eacc	-0.008845042
32	0xbb8925bb	-0.004185406
33	0x3c960abb	0.018315664
34	0xbbc3e0f5	-0.0059777447
35	0x3be404fd	0.0069586025
36	0xbb3c6362	-0.002874576
37	0xbbb9963b	-0.005663661
38	0x3c19b4d5	0.009381493
39	0xbbb13c00	-0.005408764
40	0xbbc90350	-0.006134428
41	0xbc1841ad	-0.009293002
42	0x3bba1811	0.0056791385
43	0xbbca25ef	-0.006169073
44	0xbbf220ae	-0.0073891496
45	0xbbac1233	-0.005251193
46	0x3acc0ec8	0.001556837
47	0x3c537a61	0.012907595
48	0xbb57603d	-0.003286376
49	0x3c3fd7a8	0.011709131
50	0xbc1ae2bc	-0.009453472
51	0xbc1f7c34	-0.009734202
52	0x3b7a30d5	0.0038176079
53	0x3c199d13	0.009375828
54	0xbc04de2e	-0.008109612
55	0x3bce2051	0.0062904735
56	0xbb45a43f	-0.0030157713
57	0x3c0969d9	0.008387052
58	0xbad57107	-0.0016284295
59	0xbae09f0b	-0.0017137242
60	0x3c0b6696	0.008508345
61	0x3c191f00	0.00934577
62	0xbac7abf3	-0.001523374
63	0x3c48d9fa	0.012259001
64	0x3bc77661	0.00608711
65	0xbb27efa9	-0.0025625026
66	0x3c1e723d	0.009670791
67	0xba52fb97	-0.0008048354
68	0xbb963528	-0.0045839734
69	0x3b1f5fa3	0.0024318479
70	0xbbdcaa50	-0.00673417
71	0xbc6ac17b	-0.014328356
72	0x3a8fb231	0.0010963139
73	0x3c0fdf7f	0.008781313
74	0x3bdb3162	0.0066892365
75	0xb9b7a3f4	-0.00035026635
76	0x3bc7695c	0.006085558
77	0xbbbce4d5	-0.0057645836
78	0xbbc81436	-0.006105925
79	0x3c09b8fd	0.008405921
80	0xbbea4c64	-0.0071502198
81	0x3c2ff1d3	0.010738808
82	0x3c0365f9	0.008019918
83	0x3bf8de02	0.007594825
84	0xbc2823d0	-0.010262445
85	0x3c45810a	0.012054691
86	0xbbf17787	-0.007368985
87	0x3c676cd8	0.0141250715
88	0xbc38e32c	-0.011284631
89	0xbc29503d	-0.010334072
90	0xbb8b8532	-0.0042578215
91	0x3c762bbe	0.015025077
92	0xbc18b013	-0.009319323
93	0x3c811b7e	0.01576018
94	0xbbb3b378	-0.005484041
95	0x3b901548	0.004397068
96	0x3c4586f9	0.012056106
97	0x3bb8a3b1	0.005634748
98	0x3c9336a0	0.017970383
99	0xbbca76dc	-0.00617872
100	0x3a88828f	0.0010414886
101	0xba1812fd	-0.00058011693
102	0x3bb436ac	0.0054996815
103	0xba7bc58a	-0.0009604326
104	0xbbdc6158	-0.0067254715
105	0xbbf32e75	-0.0074213096
106	0x3a05581e	0.0005086678
107	0x3c73df9d	0.0148848565
108	0x3b37508a	0.002797159
109	0x3c2ad57a	0.010426873
110	0xbc5280ce	-0.012848092
111	0x3c86e53c	0.01646673
112	0x3b216b67	0.0024630667
113	0x3c1b1de1	0.009467573
114	0x3c730b4a	0.0148342345
115	0x3c40256a	0.01172767
116	0xba26805f	-0.0006351526
117	0xb796fa8b	-1.7998062e-05
118	0x3c1f7021	0.009731323
119	0xbc1b1165	-0.009464596
120	0x3c477849	0.012174674
121	0x3b8b0659	0.0042427
122	0x3c5deac7	0.013544745
123	0xbbbe1562	-0.005800889
124	0xbbc24db3	-0.0059296726
125	0xbc3d2237	-0.011543802
126	0x3c48643f	0.012230932
127	0x3c82996c	0.015942298
128	0xbc03327c	-0.008007642
129	0xbb0a7d11	-0.0021131674
130	0xbc484d53	-0.012225467
131	0xbb2c63fc	-0.0026304713
132	0xbba48156	-0.005020301
133	0x3c4ccfe0	0.012500733
134	0xb9326eef	-0.00017016729
135	0x3c7cf3b9	0.015438967
136	0xbc10db59	-0.008841359
137	0x3c5716c8	0.01312799
138	0xbc235663	-0.009969327
139	0xbb882fe4	-0.0041560996
140	0x3c73a3c2	0.014870586
141	0xbc120a2e	-0.00891356
142	0x3bc7ec35	0.006101156
143	0xbc050e48	-0.008121081
144	0x3bf4f1df	0.0074751223
145	0x3c002520	0.007821351
146	0x3c66ddef	0.014090999
147	0xba1e69e7	-0.00060430024
148	0x3bb2b483	0.0054536476
149	0xbc448330	-0.011994168
150	0x3b4e0373	0.0031435161
151	0x3c926127	0.017868591
152	0xbc1d2029	-0.009590187
153	0x3ba38b63	0.0049909814
154	0x3c837e64	0.016051479
155	0xbb97d224	-0.004633205
156	0x3ca6eecb	0.020377537
157	0x3c7cc4e8	0.0154278055
158	0x3c20bc48	0.009810515
159	0xbb76a040	-0.0037632138
160	0xbc196830	-0.009363219
161	0x3c8b2f3f	0.016990302
162	0xbc0fa5f3	-0.008767593
163	0xbb0fa86e	-0.002192046
164	0xbb782276	-0.0037862337
165	0xbb5458b2	-0.00324015
166	0xbc2d953c	-0.010594662
167	0x3b9f6605	0.0048644566
168	0x3c7e9886	0.015539294
169	0xbab5ca16	-0.001386943
170	0x3ae94e17	0.0017799762
171	0x3c1bf814	0.009519596
172	0x3c1a2024	0.009407077
173	0xbbe2ad0b	-0.006917601
174	0x3b6c78fc	0.0036082854
175	0xbb9efa67	-0.0048516276
176	0xbb106413	-0.0022032305
177	0x3b8076d9	0.0039204177
178	0x3bf57b38	0.0074914955
179	0x3c1999be	0.009375034
180	0xbc014aff	-0.007891416
181	0x3c762db2	0.015025543
182	0xbb9110c3	-0.004427047
183	0xbc24944a	-0.0100451205
184	0xbb0a7f72	-0.0021133092
185	0xbbdbd29b	-0.0067084557
186	0x3c141e52	0.009040432
187	0x3c0d26af	0.00861518
188	0xbbb27d72	-0.005447083
189	0x3c209fb6	0.009803703
190	0xbbc65f2f	-0.0060538272
191	0xbbcd2ce1	-0.0062614535
192	0x3ba786f0	0.0051125214
193	0xbb90e3e4	-0.004421698
194	0x3bc7d13a	0.00609794
195	0x3aef0dff	0.0018238424
196	0xbaae5367	-0.0013300002
197	0x3a07dca5	0.000518272
198	0x3c4a5963	0.012350413
199	0xbc53621b	-0.012901808
200	0x3b779378	0.0037777107
201	0xbb887274	-0.0041640345
202	0x3c3cdf23	0.011527809
203	0x3981b7f9	0.00024741868
204	0xbb9b9780	-0.004748285
205	0x3c3266dc	0.010888781
206	0x3c1ce865	0.009576892
207	0x3c89e328	0.01683195
208	0xbbe3e2cf	-0.006954528
209	0x3c238d3c	0.009982403
210	0x3c874bbc	0.016515605
211	0xbbf34535	-0.0074240216
212	0x3c3efa59	0.011656367
213	0xbb3133df	-0.0027038974
214	0xbc33c259	-0.010971629
215	0xbc49ab4f	-0.01230891
216	0x3c14c650	0.0090804845
217	0xbbd8dc4f	-0.0066180597
218	0x3c43264d	0.011910987
219	0xb9c40609	-0.0003738853
220	0x3c34b236	0.011028817
221	0xbb1978f4	-0.002341804
222	0x39809c26	0.00024530402
223	0xbbf41392	-0.007448622
224	0x3c785cd7	0.0151588535
225	0x3ba9f293	0.005186388
226	0x3b8a9b3b	0.0042299307
227	0xba1b34a3	-0.0005920624
228	0xbbceac01	-0.0063071256
229	0x3c53fc6f	0.012938603
230	0x39777f83	0.00023603257
231	0xbb9ad077	-0.004724558
232	0x3ba5c6a7	0.0050590816
233	0x3c1a62d9	0.009422981
234	0xbb58b768	-0.0033068303
235	0xbba90f70	-0.005159311
236	0x3c7290ed	0.014805061
237	0x39d4d897	0.00040597163
238	0x39558b50	0.00020365161
239	0x3ab7061a	0.001396361
240	0xbb474c06	-0.0030410304
241	0xbbc97304	-0.006147744
242	0xba2c3f41	-0.0006570705
243	0x3c48e329	0.01226119
244	0xbbb52bab	-0.0055288873
245	0x3b2cb8fd	0.0026355379
246	0xbb5b6081	-0.003347427
247	0x3c63623e	0.013878403
248	0xbaed2b6d	-0.0018094607
249	0x3c53a6e9	0.012918212
250	0x3c5f6f06	0.01363731
251	0xbb925447	-0.004465613
252	0x3afe6372	0.0019408299
253	0xbb403193	-0.0029326424
254	0x3c64c5a4	0.013963137
255	0xbbb4fcec	-0.0055233147

network_body._body_endoder.seq_layers.4.weight f4 [256, 256]
0	0x3de57485	0.11203865
1	0x3dc37db6	0.09545462
2	0xbd5d162b	-0.05397622
3	0xbd2f1c37	-0.042751517
4	0x3cf058a5	0.029339144
5	0xbc4f61bf	-0.012657582
6	0x3cd1f48c	0.025629304
7	0x3c2066c5	0.009790127
8	0x3d9626d7	0.07331627
9	0x3d8baa59	0.068196006
10	0x3c8cc278	0.017182574
11	0xbdb3e530	-0.087839484
12	0x3c15fbb6	0.009154251
13	0xbdbb49fb	-0.0914497
14	0x3d594183	0.053040992
15	0xbce487a2	-0.027896706
16	0x3cc8a047	0.024490489
17	0xbdb87e4c	-0.09008464
18	0xbd7fc8df	-0.062447425
19	0x3bee539a	0.0072731497
20	0xbd8909ab	-0.06691297
21	0xbca7d350	-0.020486504
22	0xbd60cdfb	-0.05488394
23	0x3c840f37	0.016120536
24	0xbc9493a2	-0.018136803
25	0x3bbe4a75	0.005807216
26	0xbdc7cf0d	-0.09756289
27	0x3cb90514	0.02258543
28	0x3df394dc	0.11893627
29	0x3c28217b	0.010261889
30	0x3da27d05	0.07934002
31	0xbd9f2f78	-0.07772726
32	0xbb8ef879	-0.0043631163
33	0xbd1abcbe	-0.037777655
34	0x3d2f5eae	0.042814903
35	0x3d4ac9c0	0.04950881
36	0x3d69c06d	0.057068277
37	0x3c874c45	0.01651586
38	0x3d155b7a	0.036464192
39	0x3d688cc8	0.056774884
40	0x3d026181	0.03183127
41	0xbd0ab861	-0.033867244
42	0xbd8acf5c	-0.06777832
43	0x3d97a111	0.07403768
44	0xbdac9bf5	-0.08428184
45	0x3ca9b5d5	0.020716587
46	0xbca501ed	-0.02014252
47	0xbceb0ca0	-0.028692544
48	0xbda3ac58	-0.07991856
49	0x371524a2	8.889621e-06
50	0x3d5d35da	0.054006435
51	0xbba419a6	-0.0050079403
52	0xbd3b326b	-0.04570238
53	0x3bb67fcb	0.0055694333
54	0xbd1d6331	-0.038424674
55	0x3cfb50e8	0.030678228
56	0x3d6a1989	0.05715326
57	0x3d449a5a	0.047998764
58	0xbcf72849	-0.030170577
59	0xbd82a0ee	-0.06378351
60	0x3dcca2ef	0.099920146
61	0x3d3117df	0.043235656
62	0x3ca6eb8a	0.020375986
63	0xbd6d2d2a	-0.0579044
64	0xbd9bcb05	-0.07607082
65	0x3d02f730	0.031974018
66	0x3c6dbcd5	0.014510353
67	0x3d77932b	0.060443085
68	0xba6f2683	-0.0009122865
69	0x3c5760e9	0.013145664
70	0xbe0108e4	-0.12601048
71	0x3ce82348	0.028337136
72	0x3d9b1cb1	0.07573832
73	0xbd5ef15c	-0.054429397
74	0xbcbc5ff4	-0.022994973
75	0xbcb3d8d6	-0.021953981
76	0x3d933e96	0.07189672
77	0x3c66f9ef	0.014097675
78	0x3c777cdd	0.015105453
79	0x3d6f59ce	0.058435254
80	0xbcaf4f7e	-0.02140021
81	0x3cc840a8	0.024444893
82	0x3d47027b	0.04858635
83	0xbc89977e	-0.01679587
84	0x3dd39437	0.10331004
85	0xbd4101ef	-0.047120985
86	0x3c1a8086	0.009430056
87	0xbb062bf8	-0.0020472985
88	0x3d124a3f	0.035715338
89	0x3d092255	0.033480007
90	0x3d13c2fb	0.03607462
91	0x3ddbbb5a	0.10729094
92	0x3e003e8f	0.12523864
93	0x3d5fbf11	0.054625574
94	0xbd8e66b3	-0.06953182
95	0x3c2d94b4	0.010594536
96	0x3d2918e2	0.041283496
97	0x3c539989	0.012915024
98	0xba909bcb	-0.0011032758
99	0xbdcb9dc6	-0.09942202
100	0x3cc78857	0.024357004
101	0x3c9dc14c	0.01925721
102	0xbde43695	-0.11143223
103	0x3e03c1d6	0.12866911
104	0xbdfac62e	-0.12244831
105	0xbb8c2668	-0.0042770393
106	0x3d99c565	0.07508353
107	0xbd75f366	-0.060046576
108	0xbe008d88	-0.1255399
109	0x3b94dd15	0.0045429566
110	0x3d6e10c9	0.058121476
111	0xbcd5cb4d	-0.026097918
112	0xbcf87887	-0.03033091
113	0x3c24e39b	0.010064031
114	0xbcb3342b	-0.021875462
115	0x3da88582	0.082285896
116	0x3ce430ad	0.027855242
117	0xbd6e9aa3	-0.05825294
118	0xbdb78277	-0.08960431
119	0x3db722d8	0.08942193
120	0xbdad48fa	-0.08461185
121	0xbc665858	-0.014059149
122	0xbc80f7be	-0.015743133
123	0x3da67934	0.081285864
124	0x3d1006df	0.035162803
125	0x3d3e0f26	0.046401165
126	0x3d62315f	0.055222865
127	0xbbf4e688	-0.0074737705
128	0x3c615653	0.013753491
129	0x3d51f9fe	0.0512638
130	0xbcf9379d	-0.030422026
131	0x3d16d26d	0.03682177
132	0x3cadf7e0	0.02123636
133	0x3d4a2f1b	0.04936133
134	0xbdd68325	-0.104742326
135	0x3b63e5c0	0.0034774393
136	0x3d5ae2c0	0.053438902
137	0x3d1e420e	0.038637213
138	0x3c94dce5	0.018171737
139	0xbd00dfd1	-0.031463448
140	0x3c043170	0.008068427
141	0xbd898222	-0.06714274
142	0xbb16462e	-0.0022930014
143	0xbd5cdda1	-0.0539223
144	0x3ce655ad	0.028117025
145	0xbabd82be	-0.001445852
146	0xbbb24874	-0.005440766
147	0xbc9e8d2d	-0.019354427
148	0xbc1a2f47	-0.009410686
149	0x3d6b3d24	0.057431355
150	0xbd6cfbab	-0.057857197
151	0xbc90e4b5	-0.017687181
152	0x3d8ac373	0.0677556
153	0x3d023192	0.031785555
154	0x3d3764cd	0.044773865
155	0x3e07f12b	0.13275592
156	0xbcec1d3c	-0.028822534
157	0xbd3a519c	-0.045487985
158	0x3cb35849	0.021892684
159	0x3ce7bd14	0.028288402
160	0x3c35a206	0.011085993
161	0x3c335b7e	0.010947106
162	0xbd1d086d	-0.038338114
163	0xbd689d60	-0.05679071
164	0xbda53713	-0.08067145
165	0x3d299489	0.04140142
166	0xbde90fe0	-0.11379981
167	0xbd2b21dd	-0.04178034
168	0x3c193a3b	0.009352262
169	0xbbe806c0	-0.007080883
170	0x3daa8271	0.08325661
171	0x3d6bc38f	0.057559546
172	0xbdec8479	-0.11548705
173	0x3d52ffa5	0.051513333
174	0xbc094ea5	-0.008380567
175	0xbd918535	-0.07105485
176	0xbd195fa8	-0.03744474
177	0xbda8c22d	-0.08240161
178	0xbd0cd0b4	-0.034378722
179	0x3da8c65f	0.08240961
180	0xbd52b58e	-0.051442675
181	0xbda7d1d4	-0.081943184
182	0xbdb6a3ba	-0.08917947
183	0x3d3d0973	0.04615159
184	0x3d5f8ad0	0.05457574
185	0x3d146370	0.036227643
186	0xbb597ba1	-0.003318526
187	0xbd0ea022	-0.034820683
188	0xbe1e5a11	-0.15464045
189	0x3be6a031	0.0070381393
190	0x3d519882	0.051170833
191	0x3d206e3b	0.039167624
192	0x3bab56e6	0.005228865
193	0x3d7c6ed2	0.061629124
194	0xbd788d03	-0.060681354
195	0x3dac8fa7	0.08425837
196	0x3d0ef354	0.034900025
197	0xbbd25379	-0.006418642
198	0xbc22cb4a	-0.009936163
199	0x3d4bf038	0.049789637
200	0x3ddc5221	0.10757852
201	0xbd779af7	-0.06045052
202	0x3dac4a22	0.08412577
203	0x3d4fcca6	0.050732277
204	0x3d8696e1	0.065717466
205	0xbc87f01b	-0.016593983
206	0x3c9605cd	0.018313313
207	0xbd9535e6	-0.07285671
208	0xbcafcdab	-0.021460375
209	0x3d5292b9	0.051409457
210	0x3defb312	0.11704077
211	0xbd5ef58f	-0.0544334
212	0x3d38d933	0.045129012
213	0x3cf7c040	0.03024304
214	0xbd59089e	-0.052986734
215	0xbd8ba031	-0.068176635
216	0xbdb8c646	-0.09022193
217	0x3d1bfb8e	0.038081698
218	0xbdd9b2b2	-0.106297866
219	0x3daf344e	0.08554898
220	0x3da524b4	0.08063641
221	0x38d6b605	0.00010238219
222	0xbdbf8d2c	-0.09353098
223	0x3d46966a	0.04848329
224	0x3cda4ab3	0.026646947
225	0xbd35ea5e	-0.044412963
226	0x3e0b90c9	0.1362945
227	0x3ddaa75e	0.10676454
228	0x3e0c1c4d	0.13682671
229	0x3c99d7b7	0.018779619
230	0x3c0521a7	0.008125699
231	0x3df0011f	0.11718964
232	0xbd6be16a	-0.05758802
233	0xbd274023	-0.04083265
234	0x3cea19f4	0.028576829
235	0xbd3ac601	-0.045598987
236	0xbc4037e4	-0.011732075
237	0x3d1e56cd	0.038657
238	0x3d056c24	0.032573834
239	0xbc6463fb	-0.013939853
240	0xbe15b1fc	-0.14618677
241	0x3dc740c1	0.09729148
242	0x3d94badc	0.07262203
243	0xbda63f54	-0.08117548
244	0xbcaac5c6	-0.020846259
245	0x3bb63c93	0.00556142
246	0xbab06e71	-0.0013460648
247	0x3d23e908	0.040017158
248	0xbd3782e6	-0.04480257
249	0x3cb01a6e	0.021496978
250	0xbd26cc9e	-0.040722482
251	0xbbed76e1	-0.0072468375
252	0xbdb0ff41	-0.08642436
253	0xbd087ae3	-0.03332032
254	0x3d6d914f	0.057999905
255	0xbd353161	-0.044236545

network_body._body_endoder.seq_layers.4.bias f4 [256]
0	0xbaa6497f	-0.0012686698
1	0x3b418a0c	0.0029531745
2	0xbaaa23d9	-0.0012980654
3	0x3c0b1c62	0.008490654
4	0x3c1f146e	0.009709461
5	0x3b5ee14b	0.0034008797
6	0xbb0b79c8	-0.0021282304
7	0xbb78f43e	-0.0037987377
8	0x3beab9b5	0.0071632513
9	0xbbe83c48	-0.007087264
10	0xb9d0779f	-0.00039761976
11	0xbb871fd3	-0.004123667
12	0xbc119999	-0.008886718
13	0x3ad57b28	0.0016287314
14	0x3c680d2e	0.0141632985
15	0x3c5467d6	0.01296421
16	0xb9c20efd	-0.0003701373
17	0x3c9a8d03	0.018866068
18	0x3b494798	0.003071284
19	0x3b77fc60	0.0037839636
20	0x3bae9d52	0.0053288126
21	0xba25af5c	-0.0006320381
22	0xbaee3585	-0.0018173909
23	0xbb063dad	-0.002048354
24	0x3bb6d195	0.0055791833
25	0x3b6e2cf0	0.0036342703
26	0xbc01c19a	-0.007919693
27	0xbb8d6520	-0.0043150336
28	0x3c4b47db	0.012407268
29	0xbbbbcb62	-0.005731032
30	0x3baaa73a	0.0052079232
31	0x3a449213	0.00074985734
32	0xbbb5ba3c	-0.0055458825
33	0xbbab3684	-0.0052250046
34	0xbb2db7d6	-0.002650728
35	0x3ad84675	0.001650049
36	0x3b41cc33	0.0029571175
37	0xbbc41f18	-0.005985152
38	0x3c5beeaf	0.013423606
39	0x3b812627	0.0039413157
40	0x3c18dca6	0.00932995
41	0x3c28907d	0.010288355
42	0x39a2cfdb	0.00031053912
43	0x3c81752e	0.015802946
44	0x3b7449e8	0.0037275497
45	0x3c83f126	0.0161062
46	0x3ba52a1a	0.0050404193
47	0x3c143523	0.009045872
48	0x3b8ad873	0.0042372285
49	0x3c132800	0.008981705
50	0x395a0ec3	0.00020795599
51	0x3ad458a8	0.0016200738
52	0x3ba9cb80	0.00518173
53	0xba6ffd29	-0.000915485
54	0xbc08c0fd	-0.008346793
55	0xbbc6ea7f	-0.0060704346
56	0xbbd4dc8a	-0.006496017
57	0x3c0e8867	0.008699513
58	0x3c85e57f	0.016344784
59	0xbbb353b9	-0.005472627
60	0x3a8f20ce	0.0010919811
61	0xbbc8c622	-0.006127135
62	0x3c565faa	0.0130843315
63	0x3a72f3a9	0.00092678756
64	0xbbbbb978	-0.0057288967
65	0x3c6361c2	0.013878288
66	0x3ba47f3b	0.00502005
67	0x3bc884a0	0.0061193258
68	0x3bddffca	0.006774877
69	0x3a1a983b	0.0005897318
70	0xbbc80db8	-0.006105151
71	0xba0559e8	-0.00050869444
72	0x3c287efd	0.010284183
73	0xbb8e2e7e	-0.0043390384
74	0x3c072e5c	0.008250799
75	0xbc09f426	-0.008420026
76	0xbaf569e2	-0.0018723572
77	0xbb02d35c	-0.0019962406
78	0x3c6ef108	0.0145838335
79	0x3c4cc0a9	0.012497106
80	0xbb5db7c2	-0.0033831452
81	0x3bf51202	0.0074789533
82	0x3b0b211d	0.0021229454
83	0x38c28373	9.275125e-05
84	0x3bf7fdec	0.0075681116
85	0x3c194bcf	0.009356453
86	0x3c55aaff	0.013041257
87	0x3c159176	0.009128919
88	0xbb971493	-0.004610607
89	0x3be65306	0.00702894
90	0x3c96ee0f	0.018424062
91	0xbb90b2fd	-0.0044158683
92	0x3c19dea6	0.009391462
93	0x3c4e20e8	0.012581088
94	0x3c69f530	0.014279649
95	0x3c15a05d	0.009132472
96	0xbbc14a10	-0.0058987215
97	0x39683872	0.00022146272
98	0x3c3a7baa	0.011382023
99	0x3b0eaaab	0.0021769207
100	0x3a6521c6	0.00087406894
101	0x3aa0e9f9	0.001227676
102	0x3b7184b5	0.0036852781
103	0xbbb3cd1c	-0.0054870974
104	0xbbb10778	-0.0054025017
105	0xb9fadcba	-0.0004784817
106	0xbc3ab820	-0.011396438
107	0xbb74d656	-0.00373592
108	0x3c53e828	0.012933768
109	0x3c309832	0.010778474
110	0x3b64a698	0.0034889337
111	0x3c0a1d95	0.0084299045
112	0xbc29618e	-0.0103382
113	0x3c552db7	0.013011388
114	0xbc047243	-0.008083883
115	0x3bcc3fe4	0.0062332023
116	0x3bbbad9e	0.005727484
117	0x3aa4d58b	0.0012575848
118	0xba21807c	-0.0006160808
119	0xbba236ff	-0.0049504037
120	0x3c38c510	0.011277452
121	0x3c42d4c1	0.011891545
122	0xbb84e4d6	-0.0040555997
123	0xbba709bb	-0.0050975955
124	0x39ea1985	0.00044650972
125	0xbb9258b2	-0.0044661397
126	0xbb2e1983	-0.00265655
127	0x3b422101	0.0029621723
128	0xbc042c44	-0.008067194
129	0xba16c091	-0.00057507405
130	0x3b886bfa	0.0041632624
131	0xbbadd13f	-0.005304485
132	0x3a984755	0.0011617938
133	0x3a914cc0	0.0011085495
134	0xbbb5ade7	-0.0055444124
135	0x3c07710e	0.0082667
136	0xbb4f43ef	-0.0031626185
137	0xbb1a53da	-0.0023548515
138	0x3c69e485	0.014275675
139	0xbb7d048f	-0.0038607453
140	0x3c577069	0.013149359
141	0xbb60857b	-0.0034259248
142	0x3c15d274	0.009144414
143	0xbb7d072b	-0.0038609009
144	0x3bfb3dca	0.007667278
145	0xbbd95080	-0.006631911
146	0x3c1d4c81	0.0096007595
147	0xbb06741b	-0.0020515982
148	0xbbda31aa	-0.0066587524
149	0xbb46a76a	-0.003031219
150	0xbc1cba6d	-0.009565932
151	0xbaae7e7d	-0.0013312843
152	0x3c659e37	0.014014772
153	0xbb609b2d	-0.003427218
154	0x3b7211d4	0.0036936896
155	0x3be6193a	0.00702205
156	0x3c777908	0.01510454
157	0x3b68f5fc	0.0035547009
158	0x3b81fe8f	0.0039671133
159	0x396f22b9	0.00022805751
160	0x398a1dff	0.0002634376
161	0xbaf94629	-0.0019018102
162	0x3b1b9c01	0.0023744109
163	0xbbe3c6a2	-0.006951169
164	0x3c3b77c6	0.01144213
165	0x3ba5a4cd	0.005055046
166	0xbb02c388	-0.0019952971
167	0x3a86251e	0.001023445
168	0xbbbf383b	-0.0058355606
169	0x3b7e7a27	0.0038830133
170	0x3c6c7873	0.014433014
171	0x3b0ef0ac	0.0021810932
172	0x3c0aad28	0.008464135
173	0x3ca4528d	0.020058895
174	0x3c0cc539	0.008591943
175	0xbb9b91d6	-0.0047476096
176	0x3beb2090	0.0071755126
177	0x3c1c8efe	0.009555576
178	0xbba35a27	-0.004985112
179	0x3c3a83ee	0.011383994
180	0x39dd9889	0.00042266052
181	0xbb6b3159	-0.0035887568
182	0x3b62fdc6	0.0034636124
183	0xbbaf98cd	-0.0053587914
184	0xbb20e4ec	-0.002455051
185	0xb986fa7e	-0.00025745103
186	0x3bf61528	0.0075098462
187	0x3ad20088	0.0016021887
188	0x3c69e677	0.0142761385
189	0x3bc106da	0.0058907093
190	0xbaded2b7	-0.0017000054
191	0xbbdcbb74	-0.0067362133
192	0xbba273ef	-0.004957668
193	0x37f5f83c	2.9321869e-05
194	0x3a4f3556	0.0007904371
195	0x3af6db00	0.0018833578
196	0xbb903c49	-0.004401718
197	0x3a5edb6b	0.0008501324
198	0x3c641657	0.013921342
199	0xbbfada4e	-0.0076554185
200	0xbbdeba59	-0.0067971167
201	0x3c6a37d4	0.014295537
202	0x3a9303f0	0.0011216383
203	0x3a562bea	0.0008169996
204	0xbb353f01	-0.0027655961
205	0xbb8438d8	-0.0040350966
206	0x3b8c4493	0.0042806356
207	0xbb8747ab	-0.0041284165
208	0xbbb77125	-0.0055982047
209	0x3ae8a8fe	0.0017750559
210	0x3c041b6d	0.008063179
211	0x3c2d35d8	0.010571919
212	0x3c90291f	0.017597733
213	0x3b8aaec7	0.004232261
214	0x3be4fec6	0.006988379
215	0x3b662892	0.0035119397
216	0xbb21e7f4	-0.0024704905
217	0xba4c2176	-0.00077869685
218	0x3b19e6bb	0.0023483473
219	0xbbc66c13	-0.006055364
220	0xbbbf76ff	-0.005843043
221	0xb9f51d47	-0.00046751855
222	0xbb8ce924	-0.0043002535
223	0x3c2f2a7f	0.010691284
224	0xbaf4413f	-0.0018635168
225	0x3a0fa57e	0.00054796773
226	0xbbbefedd	-0.005828722
227	0x3b25cd41	0.0025299343
228	0xbbe387f6	-0.006943698
229	0xba6ff241	-0.0009153225
230	0x3c0de3c0	0.008660257
231	0xbba50a65	-0.0050366395
232	0x3ca047d7	0.019565506
233	0xbafdb7f0	-0.0019357186
234	0xbb503a14	-0.0031772899
235	0x3a43f9f6	0.0007475907
236	0x3bb06333	0.005382919
237	0x3a9c3020	0.0011916198
238	0xbba6793c	-0.00508037
239	0xbb9b0c9d	-0.004731728
240	0x3c4e6be6	0.012598967
241	0xbb2707fa	-0.0025486932
242	0x3b14941e	0.0022671293
243	0x3bf195a8	0.0073725767
244	0xba724ebd	-0.00092433003
245	0x3b61c6bb	0.0034450728
246	0x3b2e2846	0.0026574298
247	0x3c524e61	0.01283607
248	0xbbb99739	-0.005663779
249	0xbb452445	-0.0030081433
250	0x3c43fe24	0.011962447
251	0x3b2c6534	0.002630544
252	0x3b3cb6d4	0.0028795497
253	0xbbf96d2d	-0.0076118917
254	0xba6b78f4	-0.0008982562
255	0xbbb6a71c	-0.00557412

action_model._continuous_distribution.log_sigma f4 [1, 2]
0	0x3b1bff41	0.0023803266
1	0xbaec1dfc	-0.0018014307

action_model._continuous_distribution.mu.weight f4 [2, 256]
0	0x3c66a00a	0.014076242
1	0xbbbd657d	-0.0057799206
2	0xbb8787f9	-0.0041360823
3	0xbb17a1e7	-0.0023137273
4	0xbbaaf15b	-0.00521676
5	0x3c9f66fc	0.019458286
6	0xbb1507dc	-0.002274028
7	0xbb1d43ef	-0.002399679
8	0x3c4b41ad	0.012405795
9	0x3bf6c1d7	0.0075304317
10	0xbb9f731b	-0.0048660166
11	0xbbd11e5d	-0.0063817934
12	0x3bb8471a	0.0056237103
13	0x3c9ab587	0.018885387
14	0xbacd7047	-0.001567372
15	0x395c9587	0.00021036538
16	0x3c699af5	0.014258136
17	0x3a46a0d4	0.0007577066
18	0x3b35b7ca	0.0027727955
19	0x3cc46991	0.02397612
20	0x3c092968	0.008371688
21	0xbb12e33d	-0.0022413277
22	0xbcadea5c	-0.021229915
23	0xbb89b6a0	-0.004202679
24	0x3bb0ed1f	0.005399361
25	0x3b3917b1	0.002824288
26	0x3c0244f7	0.007951013
27	0x3c90dd06	0.017683517
28	0x3c038f33	0.008029747
29	0x3c596dce	0.013270808
30	0x3aadebbf	0.001326911
31	0xbc8ad641	-0.016947867
32	0x3c503ed1	0.012710289
33	0x3c78169e	0.015142111
34	0x3c99e978	0.018788084
35	0x3b5c4ea8	0.0033616219
36	0x3c8e5f97	0.017379565
37	0x3c84cb38	0.016210184
38	0xbb1f2610	-0.0024284162
39	0xbbb56e67	-0.0055368426
40	0x3b850072	0.004058891
41	0xbb471bc1	-0.0030381533
42	0x3b874aeb	0.004128804
43	0x3bec6a68	0.007214833
44	0xbbd0e0c2	-0.0063744495
45	0xbbd381ab	-0.0064546666
46	0xbbecf0cb	-0.007230853
47	0x3bdcda08	0.0067398585
48	0x3936d7da	0.00017437284
49	0xbb8ba4a7	-0.0042615714
50	0x3c8056f7	0.015666468
51	0xbc8949f6	-0.0167589
52	0xb95f7ca1	-0.00021313365
53	0x3c3e7bfa	0.011626238
54	0xbc0843a3	-0.008316907
55	0xbbc0596b	-0.0058700345
56	0x3a95efec	0.00114393
57	0xbc82bf83	-0.01596046
58	0xbbc9e34b	-0.0061611286
59	0x3bc16408	0.005901817
60	0xbc6bc51f	-0.014390259
61	0xbb992f46	-0.004674825
62	0x3c29b134	0.01035719
63	0x3c8e6723	0.017383164
64	0xbb89f31c	-0.004209889
65	0xbb6542f3	-0.0034982532
66	0xbbbb1b84	-0.005710067
67	0x3c8c9bd3	0.017164147
68	0xba681969	-0.0008853884
69	0xbd0e63d6	-0.03476318
70	0x3ca33b97	0.019925876
71	0xbc89da04	-0.01682759
72	0xbc189335	-0.009312441
73	0xbbdb92b8	-0.00670084
74	0x3c76bbad	0.015059394
75	0x3b06d836	0.002057565
76	0xbc894789	-0.016757743
77	0x3b69e846	0.0035691424
78	0x3c3c35dc	0.01148745
79	0x3c036281	0.008019091
80	0xbba97604	-0.0051715393
81	0xbc86c6e2	-0.016452257
82	0x3bdf0494	0.0068059657
83	0xbcb36cb9	-0.021902429
84	0xbb84045b	-0.0040288395
85	0x3bf3f4fc	0.007444976
86	0x3c1eb457	0.009686551
87	0x3c411b09	0.011786231
88	0x3aaf64dc	0.0013381499
89	0xbc99568c	-0.018718027
90	0x39641a07	0.0002175347
91	0x3c89fd0d	0.016844297
92	0x3c52fd0c	0.012877714
93	0x3bba1f3e	0.005679994
94	0x3af6766f	0.0018803607
95	0x3c81f738	0.015864953
96	0xbc0bed3a	-0.008540446
97	0xbc052b69	-0.008128026
98	0x3c84123b	0.016121974
99	0xbcbd9dc2	-0.023146514
100	0xbc329d91	-0.010901825
101	0x3c42a92b	0.011881153
102	0xbccaeb00	-0.02477026
103	0xbc460491	-0.01208605
104	0xbcae801a	-0.021301318
105	0xbce9b0a5	-0.028526613
106	0x3b3684eb	0.0027850221
107	0x3b9dddff	0.0048177238
108	0xbb4d1fce	-0.0031299475
109	0xbc4798c3	-0.012182417
110	0x3c9007d4	0.017581858
111	0x3ccfb68d	0.025355602
112	0x3b3b0399	0.002853608
113	0xbb486ac7	-0.0030581222
114	0x3bb0cdb3	0.005395615
115	0xbd0c4854	-0.034248665
116	0xbc173137	-0.009228042
117	0x3c7af062	0.015316101
118	0xbc7f112d	-0.01556806
119	0x39da8313	0.00041677858
120	0xbc416d88	-0.011805899
121	0xbae33229	-0.0017333674
122	0x3c50ceb0	0.012744591
123	0x3b2849ae	0.0025678682
124	0x3bec0b2a	0.0072034793
125	0x3caf0919	0.021366643
126	0xbc3d0895	-0.011537691
127	0x3ccdac3b	0.02510654
128	0xba2ebdc0	-0.0006665848
129	0x3c6ad1f5	0.014332284
130	0xbc729a36	-0.014807275
131	0xbc2f03df	-0.010682075
132	0xbbb0b9c3	-0.0053932383
133	0xbc983820	-0.01858145
134	0xbb2fdb34	-0.0026833536
135	0xbc7c2a60	-0.015390962
136	0xba49e89d	-0.00077022036
137	0xbc73f3b8	-0.01488965
138	0x3bca2c95	0.0061698654
139	0xbc8e682a	-0.017383654
140	0x3c50b1c9	0.0127377
141	0xbc72aa6e	-0.014811141
142	0x3caf51e7	0.021401359
143	0x3be122c0	0.0068705976
144	0x3b971f92	0.004611918
145	0xbb030490	-0.0019991733
146	0xbc51d9ef	-0.012808307
147	0xbc245515	-0.010030051
148	0xbb023521	-0.0019868093
149	0x3bd487ed	0.00648593
150	0x3b9b47db	0.0047387904
151	0xba34c476	-0.000689573
152	0x3c1d3793	0.009595769
153	0xbc1c1524	-0.009526525
154	0xbc1a517a	-0.00941884
155	0xbbfa485b	-0.00763802
156	0x3b26e727	0.0025467367
157	0xbc5cfb13	-0.013487595
158	0x3a8a1a82	0.0010536464
159	0x39b98423	0.000353844
160	0xbced19f9	-0.028943049
161	0xbbfe1d12	-0.0077549303
162	0x3a2bb1a3	0.0006549602
163	0xbb8834fb	-0.0041567064
164	0x3c7940f8	0.015213244
165	0xbbb31f5c	-0.005466385
166	0xbc67ba97	-0.014143608
167	0x3cbfda43	0.023419505
168	0x3b7ba8a3	0.0038400076
169	0xbc59aa05	-0.013285165
170	0xbb51bff7	-0.003200529
171	0x3b076a57	0.0020662749
172	0x3c2e8bd6	0.010653457
173	0x3a472327	0.00075964857
174	0xbc0eaa6f	-0.008707627
175	0xbc050cfa	-0.00812077
176	0x3c2df28d	0.010616911
177	0x3bea5419	0.0071511385
178	0x3bf4dc13	0.007472524
179	0x3caff54d	0.021479273
180	0x3ca6ce85	0.020362148
181	0xbc5d56f6	-0.013509503
182	0xbbf8ee16	-0.0075967414
183	0x3b60ac46	0.003428237
184	0x3cad060a	0.021121044
185	0xbcf0dd49	-0.029402392
186	0xbbef766b	-0.0073078177
187	0xbc3d57b5	-0.0115565555
188	0x3c250ee9	0.010074356
189	0x3bf92fd5	0.007604579
190	0x3ccf2397	0.025285525
191	0xbb89fde7	-0.0042111757
192	0xbc554471	-0.013016806
193	0x3c9079b6	0.017636161
194	0xbc59a4c5	-0.013283913
195	0xbbf6f3cb	-0.0075363866
196	0xbbb086e4	-0.005387174
197	0x3c563681	0.013074518
198	0x3bc632ab	0.0060485206
199	0xbb1c7125	-0.002387115
200	0x3c1fe01c	0.009758022
201	0xba85b15d	-0.0010199953
202	0xbc5a4206	-0.013321405
203	0xbbcec3e2	-0.006309972
204	0x3bbbc00f	0.0057296823
205	0x3c262909	0.0101416195
206	0xbc2dbef5	-0.01060461
207	0xbc1b4903	-0.009477857
208	0xbbb59dd0	-0.0055424944
209	0xbbb94061	-0.0056534265
210	0x39a29b05	0.00031014546
211	0xbc7b944c	-0.015355181
212	0xbb81144b	-0.0039391867
213	0x3d221193	0.03956754
214	0xbc66c366	-0.014084673
215	0x3c84e0e9	0.016220527
216	0xbba4b973	-0.00502699
217	0xbcc84092	-0.024444852
218	0x3a0d04ec	0.00053794566
219	0xbc63b517	-0.013898156
220	0xbbc09cd5	-0.005878071
221	0xbcf8e9a8	-0.030384853
222	0x3c4a3a6c	0.01234303
223	0xbc95ac66	-0.018270683
224	0xbcb9eb3e	-0.02269518
225	0xba0d9411	-0.0005400787
226	0xbbe12188	-0.0068704523
227	0x3997b38f	0.00028934746
228	0xbc1d4692	-0.009599345
229	0x3ade01ee	0.0016937831
230	0x3c27ec23	0.0102491705
231	0xbbb74faa	-0.0055942135
232	0x39fb5eda	0.0004794512
233	0x3c84315a	0.016136814
234	0xbb52669e	-0.0032104622
235	0xbc1a8bbe	-0.009432731
236	0x3ad674a9	0.0016361672
237	0x3c580c49	0.013186523
238	0x3c09bc03	0.008406642
239	0x3c6e16c0	0.014531791
240	0x3c508eb8	0.012729339
241	0x3cea82ef	0.028626887
242	0x3c38f758	0.01128944
243	0x3bdd7161	0.0067579006
244	0x3ca16317	0.01970057
245	0xbc18224a	-0.009285519
246	0x3be0d40d	0.006861216
247	0x3b001622	0.0019544442
248	0xbb73f231	-0.0037223215
249	0xbc20eaaf	-0.009821578
250	0xbc1681e3	-0.009186241
251	0x3c8a7cf4	0.016905285
252	0xbc9f7558	-0.019465134
253	0x3bcd5fb1	0.006267511
254	0x3c1f386c	0.009718042
255	0xbba94560	-0.005165741

action_model._continuous_distribution.mu.bias f4 [2]
0	0xb96abb43	-0.0002238574
1	0xbb9fe66c	-0.0048797633
