MLAgents Jumper Exercise/Assets/results/Jump1/JumperAgent/JumperAgent-499800.onnx (onnx, 570158 bytes, 15 tensors)

network_body.observation_encoder.processors.0.normalizer.running_mean f4 [26]
0.81995565 0.8359588 0.81995565 0.83629656 0.81995565 0.83629656 0.8200424 0.837403
0.8200424 0.837403 0.82014495 0.8395437 0.82014495 0.8395437 0.829908 0.84960747
0.829908 0.8496075 0.8676705 0.87937737 0.8676705 0.87937737 0.897792 0.9045895
0.897792 0.9045895
00000000: 9de8 513f 6501 563f 9de8 513f 8817 563f
00000010: 9de8 513f 8817 563f 4cee 513f 0b60 563f
00000020: 4cee 513f 0b60 563f 05f5 513f 56ec 563f
00000030: 05f5 513f 56ec 563f da74 543f e07f 593f
00000040: da74 543f e17f 593f a71f 5e3f e01e 613f
00000050: a71f 5e3f e01e 613f b2d5 653f 2d93 673f
00000060: b2d5 653f 2d93 673f

network_body.observation_encoder.processors.1.normalizer.running_mean f4 [2]
0.10382937 -0.030317504
00000000: 7ea4 d43d 6a5c f8bc

network_body._body_endoder.seq_layers.0.weight f4 [256, 28]
0.14227684 0.17093365 -0.03884168 -0.073103994 -0.088057555 -0.21146992 -0.1569822 -0.18976112
0.0024517004 -0.30183804 -0.31851414 0.23511438 0.091451705 -0.19704884 0.01689804 -0.21174687
0.11065418 -0.07169761 -0.13077152 0.021965127 -0.03175729 -0.14360839 0.02207635 0.2534243
-0.028347597 0.046328217 -0.02960907 0.062135242 -0.20317361 0.035336804 -0.2944649 0.329686
-0.05835787 0.02041022 0.142471 0.040005315 -0.024518387 -0.03480789 0.24310997 -0.087239124
-0.022949612 0.24538589 0.13858084 -0.13215706 0.0338476 -0.21987332 -0.15765098 -0.0016391603
0.018535515 0.057310242 -0.07233522 0.1491566 0.2933824 -0.22285081 -0.03761687 -0.33153698
-0.21208218 0.0800675 -0.42997065 0.10072632 -0.08357808 0.39567292 -0.23369938 0.18365048
-0.100224115 -0.12114008 0.118368074 0.27007997 0.06807642 0.11142315 0.05129713 0.014205133
-0.06695231 0.28207284 -0.22251268 -0.3181354 0.10212727 -0.038655523 0.36253306 -0.025818229
-0.09401777 -0.30707562 -0.061863024 -0.040577658 -0.4503798 0.30573314 0.32538947 0.16075803
-0.040290948 -0.07492709 0.08711063 0.012212419 0.11390784 -0.02726347 -0.010775985 -0.041177925
-0.21316017 0.47848406 -0.3485753 0.24645239 -0.22253875 0.17926772 -0.10961175 0.030215992
0.41536888 0.058648504 0.06519413 0.17955382 0.20272636 0.22830462 -0.026034577 0.19759957
0.22508241 -0.030062582 0.25570846 -0.34450892 0.1477177 -0.18368949 0.15550765 0.4070848
-0.07073276 -0.04219666 0.1300363 -0.10187072 0.04028593 -0.46881276 0.36756074 0.0055008205
-0.15232441 0.030324204 0.0565779 -0.11119295 0.07647073 -0.07919642 0.0067927735 0.2060279
0.28439337 0.24973072 0.03360584 0.068188444 0.26465625 0.029527519 -0.10944937 0.18707448
-0.3581391 0.1436012 -0.08159446 0.07749036 0.2256269 0.28615823 0.055540033 -0.094730124
0.079763845 0.12841874 -0.012752509 -0.13342854 0.18981507 -0.01942346 0.23815198 0.11087098
-0.18352884 -0.40215454 -0.032963693 0.3187884 -0.19052479 -0.0353899 0.062393606 0.0481179
-0.22810143 -0.1701468 -0.059813127 0.11424881 -0.14771551 -0.27967817 0.3637991 0.13111998
0.12438154 0.049218815 0.20524448 0.15012805 -0.21759385 -0.23573692 0.2884967 0.16585304
0.14235431 0.094674684 0.14243267 -0.12619005 0.40585554 -0.17227039 -0.041028965 0.025114557
-0.084835894 0.049032312 0.053444944 0.19413494 -0.05905683 -0.19199142 0.083137095 -0.08332469
-0.11318376 0.07321624 -0.20210367 0.11857995 -0.08868677 0.122863896 0.19311139 0.15664226
0.3275319 0.067883484 -0.17477724 -0.0006797863 -0.034202244 0.13858786 -0.31885025 0.090378314
0.048458498 -0.041718636 0.0028873282 -0.16001983 0.37182868 -0.0837151 0.24781618 0.08218493
-0.2076314 -0.009370945 -0.25161 0.40047872 -0.40115502 0.030774422 -0.28037044 -0.15612443
0.40046516 -0.14117697 -0.048096016 -0.069683634 -0.20988345 -0.22784548 -0.043511115 0.16731948
-0.3421068 0.20077723 0.06357016 0.3373403 0.19911169 -0.04084447 0.3056965 -0.012328291
-0.19040386 0.03864438 -0.2152586 0.33661073 0.03365832 -0.22101419 0.13180017 0.089737065
00000000: 05b1 113e 3b09 2f3e 7418 1fbd 8cb7 95bd
00000010: 8557 b4bd 928b 58be f1bf 20be bd50 42be
00000020: b5ac 203b 848a 9abe 4914 a3be d3c1 703e
00000030: 084b bb3d 2cc7 49be c26d 8a3c 2cd4 58be
00000040: a99e e23d 32d6 92bd f8e8 05be 36f0 b33c
00000050: ef13 02bd 140e 13be 76d9 b43c d4c0 813e
00000060: 3839 e8bc a8c2 3d3d b88e f2bc 8681 7e3d
00000070: be0c 50be 53bd 103d 1ac4 96be 9acc a83e
00000080: a908 6fbd 5533 a73c ebe3 113e 9ddc 233d
00000090: c9da c8bc b892 0ebd d2f1 783e 6daa b2bd
000000a0: d300 bcbc 7046 7b3e 23e8 0d3e 2e54 07be
000000b0: c8a3 0a3d 7926 61be 426f 21be 18d9 d6ba
000000c0: cbd7 973c 25be 6a3d 7d24 94bd 82bc 183e
000000d0: 3836 963e 0133 64be 2614 1abd 37bf a9be
000000e0: 122c 59be 6efa a33d 1d25 dcbe 9a49 ce3d
000000f0: fc2a abbd a495 ca3e e44e 6fbe df0e 3c3e
00000100: 4d42 cdbd 4a18 f8bd f66a f23d ec47 8a3e
00000110: a66b 8b3d d231 e43d f01c 523d a5bc 683c
00000120: 4b1e 89bd da6b 903e 5dda 63be a5e2 a2be
00000130: 1a28 d13d 4155 1ebd ef9d b93e c080 d3bc
00000140: 638c c0bd 0439 9dbe 1564 7dbd c234 26bd
00000150: 2e98 e6be 0e89 9c3e 7399 a63e c19d 243e
00000160: 1f08 25bd 6073 99bd 0f67 b23d 9916 483c
00000170: 8348 e93d a457 dfbc c28d 30bc 2faa 28bd
00000180: a946 5abe ddfb f43e 7678 b2be 045e 7c3e
00000190: 33e1 63be f591 373e 207c e0bd 8787 f73c
000001a0: 3bab d43e 6a39 703d 8084 853d f5dc 373e
000001b0: 8097 4f3e b0c8 693e 7746 d5bc 8b57 4a3e
000001c0: 017c 663e ce45 f6bc 38ec 823e 7963 b0be
000001d0: 4f43 173e 1919 3cbe 663d 1f3e 6b6d d03e
000001e0: 56dc 90bd 68d6 2cbd 3c28 053e 99a1 d0bd
000001f0: dc02 253d 3a08 f0be ec30 bc3e 3a40 b43b
00000200: eefa 1bbe 776a f83c 3abe 673d 21b9 e3bd
00000210: b09c 9c3d bc31 a2bd ea95 de3b faf8 523e
00000220: 029c 913e 69b9 7f3e 47a6 093d 62a6 8b3d
00000230: 0681 873e b2e3 f13c fe26 e0bd 7490 3f3e
00000240: 025e b7be 310c 133e ff1a a7bd 44b3 9e3d
00000250: bd0a 673e 5583 923e f27d 633d de01 c2bd
00000260: 3a5b a33d 3480 033e e6ef 50bc 7ea1 08be
00000270: e25e 423e f31d 9fbc 1dde 733e 5310 e33d
00000280: fcee 3bbe 33e7 cdbe f004 07bd 3c38 a33e
00000290: ee18 43be 00f5 10bd 7090 7f3d 4617 453d
000002a0: 6c93 69be f63a 2ebe 9cfe 74bd 48fb e93d
000002b0: bc42 17be fa31 8fbe e043 ba3e 5144 063e
000002c0: c0bb fe3d ab99 493d 9c2b 523e 2bbb 193e
000002d0: ecd0 5ebe 0565 71be d7b5 933e 61d5 293e
000002e0: 54c5 113e cde4 c13d dfd9 113e f737 01be
000002f0: 4ccc cf3e a667 30be fd0d 28bd 0bbd cd3c
00000300: 71be adbd 1bd6 483d 16e9 5a3d 4fcb 463e
00000310: 93e5 71bd 6699 44be c843 aa3d 23a6 aabd
00000320: e3cc e7bd 65f2 953d 44f4 4ebe 0bda f23d
00000330: 69a1 b5bd 11a0 fb3d febe 453e d466 203e
00000340: 43b2 a73e 7f06 8b3d cef8 32be b033 32ba
00000350: a717 0cbd fae9 0d3e 5740 a3be 4418 b93d
00000360: 6b7c 463d 29e1 2abd 5439 3d3b 3ddc 23be
00000370: 5460 be3e d372 abbd 86c3 7d3e 9350 a83d
00000380: 539d 54be 9888 19bc 07d3 80be 8c0b cd3e
00000390: 3164 cdbe a41a fc3c b78c 8fbe 15df 1fbe
000003a0: c509 cd3e b290 10be 5400 45bd 4bb6 8ebd
000003b0: b0eb 56be 5350 69be b638 32bd cc55 2b3e
000003c0: 9f28 afbe 8c98 4d3e 1231 823d deb7 ac3e
000003d0: efe3 4b3e 884c 27bd 4084 9c3e 9afc 49bc
000003e0: 3bf9 42be 9249 1e3d c06c 5cbe 3e58 ac3e
000003f0: 4edd 093d 8b51 62be a0f6 063e 11c8 b73d

network_body._body_endoder.seq_layers.0.bias f4 [256]
-0.0014479762 -0.009617315 -0.00034502594 0.010518467 0.010192572 0.004448972 0.0014371086 0.005763698
0.007250811 -0.00032708127 0.00030754058 0.008360964 -0.0020687252 0.0031173462 -0.0012830279 -0.0056811627
0.005384508 0.0063837706 0.009568029 -0.0015854671 0.007243512 0.0020675187 0.0052477107 -0.0011698643
-0.002446861 0.0004294801 0.0063234717 0.0042387913 0.0026627444 0.008796934 0.0042198976 -0.0036853824
0.00066913763 0.003857745 0.0053237583 -0.0066712094 0.00695653 0.008258661 0.006426409 0.008224364
0.011915658 -0.005125073 0.008748751 -0.0032195204 -0.005338843 -0.0030256545 0.010914293 -0.0027253889
0.002647236 -0.0027830834 -0.005027661 0.008928226 -0.00061030773 0.005116516 0.006428995 0.0038822654
0.010558006 0.008011114 0.0048395037 -0.0040273224 0.0065353126 0.0059664105 0.00029197658 0.0109031135
0.0038497227 0.0005659241 0.013524027 -0.0012434152 0.011913063 0.012343452 0.00029763658 0.0030214586
0.0039600586 -0.003267874 -0.0009637467 -0.00012899915 0.00785778 -0.0011385283 0.0010531086 0.008994055
-0.001770525 0.0020553984 0.009157179 0.0092353355 0.0026830167 0.008195738 0.0030327258 0.0022338713
-0.0042400425 -0.0072905975 -0.005720721 0.0005632545 -0.0012202975 -0.0054474287 -0.001313727 0.010462234
-0.0049925433 -0.0014681172 0.008275436 0.008770589 -0.0037100608 0.008968048 -0.0016576954 0.0067295996
0.007562585 -0.0044520693 -0.0025497065 -0.001231715 0.0068922015 -0.0021342784 -0.0028538888 0.010526629
0.009684835 -0.00041586155 0.00012970777 -0.0032080102 -0.00052400056 0.007180638 -0.0029958927 0.013460843
-0.0046876394 0.0038606618 0.0039001545 -0.0017384755 -0.0052025514 -0.01044267 0.013619397 -0.0025695532
0.0028574385 -0.008879213 0.0053017475 0.003126945 -0.0053339917 -0.0036158792 -0.002595625 -0.005122326
0.011725514 0.009601306 0.0058074957 0.005725658 0.0017394141 0.0065569165 0.008478391 0.0067947307
0.0012178612 0.00848528 0.0037538628 -0.0040160497 0.010087758 -0.00022206767 0.0068444586 -0.00516796
-0.0019955968 0.007499296 0.008350535 -0.0066064326 0.013561651 0.008345104 0.00068179163 0.0044493796
0.0026414606 0.0039148056 -0.002649635 0.0024300418 0.005062091 0.0016880675 0.0019326004 -0.0031540326
0.0067448583 0.0030109542 0.0002151016 0.006264474 0.00018079764 0.008544505 0.0024158312 -0.0014915682
0.009410708 0.009274415 0.011562856 0.013699366 0.009351878 -0.0020245041 -0.0014912313 0.010377132
-0.0037678669 0.0091620805 0.009903994 -0.002514816 0.00813649 0.008250621 0.008431588 -0.0023985535
-0.0068142386 -0.00046348947 0.0077405046 -0.0012651678 -0.004144347 -0.0018958382 -0.0016371586 -0.008751251
-0.00016746514 -0.0048043747 -0.003969229 -0.003156987 -0.008627287 -0.0017072322 0.0073180357 0.0081616
0.004838773 0.0028502117 0.009893869 -0.003042182 0.00882454 0.008945176 0.0090387175 0.0076011904
0.0070371744 0.0015573155 0.008166984 -0.00047661943 -0.0050730137 0.00014618385 0.012184184 0.012772266
0.01000547 -0.012167526 0.011038988 -0.0067529967 0.0032426806 0.00073431747 0.0053655603 0.006614534
0.006404036 0.009301732 0.0065936716 -0.0024071345 -0.0060887607 0.006133011 -0.00433331 0.0069580893
0.003056876 -0.0003001988 0.008325999 0.002827485 0.010743055 -0.0005253279 -0.0031397345 -0.0020017165
0.007927191 -0.007048097 0.005201126 -0.0068432144 0.010840438 0.0058242125 -0.003932876 0.011693268
00000000: 05ca bdba f191 1dbc 99e4 b4b9 a655 2c3c
00000010: bffe 263c afc8 913b 5d5d bc3a 67dd bc3b
00000020: 3698 ed3b 1b7c abb9 663d a139 6dfc 083c
00000030: 7393 07bb 644c 4c3b 462b a8ba 0c29 babb
00000040: 8770 b03b f32e d13b 39c3 1c3c 73cf cfba
00000050: fc5a ed3b 357f 073b fdf4 ab3b 2256 99ba
00000060: 845b 20bb d82b e139 2035 cf3b 8fe5 8a3b
00000070: 7081 2e3b 0421 103c 1147 8a3b 7586 71bb
00000080: 1169 2f3a 39d2 7c3b ec72 ae3b 299a dabb
00000090: 9af3 e33b 564f 073c a094 d23b 7cbf 063c
000000a0: e439 433c 3af0 a7bb ec56 0f3c 97fe 52bb
000000b0: 76f1 aebb 0f4a 46bb ddd1 323c 709c 32bb
000000c0: 407d 2d3b 6464 36bb 14bf a4bb b247 123c
000000d0: 0ffd 1fba 72a8 a73b 52aa d23b 9b6d 7e3b
000000e0: 7dfb 2c3c 0c41 033c b394 9e3b a1f7 83bb
000000f0: 2d26 d63b e181 c33b 6f14 9939 f9a2 323c
00000100: a14b 7c3b 865a 143a e193 5d3c 17fa a2ba
00000110: 022f 433c 313c 4a3c 1b0c 9c39 aa03 463b
00000120: 61c3 813b d429 56bb f2a3 7cba f243 07b9
00000130: ebbd 003c ac3a 95ba 7608 8a3a cd5b 133c
00000140: f610 e8ba ddb3 063b fe07 163c ce4f 173c
00000150: 8dd5 2f3b 6b47 063c b2c0 463b 2466 123b
00000160: 0ef0 8abb f7e5 eebb e374 bbbb 5fa7 133a
00000170: 64f2 9fba 5880 b2bb 5d31 acba ca69 2b3c
00000180: 7d98 a3bb d76d c0ba b295 073c 84b2 0f3c
00000190: 7e24 73bb b8ee 123c 0747 d9ba f983 dc3b
000001a0: 90cf f73b aae2 91bb fa18 27bb 7f71 a1ba
000001b0: fad7 e13b 40df 0bbb 4f08 3bbb e277 2c3c
000001c0: 24ad 1e3c fe07 dab9 2a02 0839 7b3d 52bb
000001d0: 155d 09ba 8f4b eb3b bd56 44bb de8a 5c3c
000001e0: c59a 99bb 2803 7d3b bc99 7f3b 8fdd e3ba
000001f0: 2a7a aabb bc17 2bbc e423 5f3c f365 28bb
00000200: dd43 3b3b 1e7a 11bc 48ba ad3b 6fed 4c3b
00000210: c4c8 aebb 63f8 6cbb 5c1b 2abb 2fd9 a7bb
00000220: 5f1c 403c cc4e 1d3c ce4c be3b 4d9e bb3b
00000230: 0dfd e33a 67db d63b f3e8 0a3c 55a6 de3b
00000240: a4a0 9f3a d805 0b3c 5e03 763b 1199 83bb
00000250: 2047 253c d6da 68b9 7b47 e03b fe57 a9bb
00000260: 8fc8 02bb a8bc f53b afd0 083c c67a d8bb
00000270: b031 5e3c e7b9 083c 43ba 323a 1acc 913b
00000280: 5b1c 2d3b c547 803b 80a5 2dbb 5641 1f3b
00000290: e6df a53b 2542 dd3a 4f4f fd3a e3b3 4ebb
000002a0: f903 dd3b 6e53 453b e58c 6139 3746 cd3b
000002b0: 7f94 3d39 40fe 0b3c ec52 1e3b b980 c3ba
000002c0: 5f2f 1a3c b7f3 173c 2272 3d3c 4e73 603c
000002d0: 9f38 193c 8bad 04bb 6b75 c3ba d904 2a3c
000002e0: 51ee 76bb 8d1c 163c 5d44 223c 9ccf 24bb
000002f0: ea4e 053c 9d2d 073c a524 0a3c 0d31 1dbb
00000300: fa49 dfbb 8100 f3b9 0fa4 fd3b fdd3 a5ba
00000310: 4dcd 87bb c67d f8ba ed95 d6ba 6861 0fbc
00000320: 9599 2fb9 046e 9dbb 4e10 82bb 74e5 4ebb
00000330: 7759 0dbc 35c5 dfba 22cc ef3b 3bb8 053c
00000340: 928e 9e3b 9eca 3a3b e519 223c 585f 47bb
00000350: ce94 103c ca8e 123c 2117 143c 6813 f93b
00000360: 1998 e63b d61e cc3a d0ce 053c c7e2 f9b9
00000370: 863b a6bb ee48 1939 2ca0 473c c442 513c
00000380: fced 233c 4e5a 47bc dfdc 343c 3e48 ddbb
00000390: 2783 543b 367f 403a 95d1 af3b bcbe d83b
000003a0: f3d8 d13b 4b66 183c ba0f d83b 04c1 1dbb
000003b0: 3a84 c7bb 6df7 c83b 70fe 8dbb af00 e43b
000003c0: de55 483b 0064 9db9 c569 083c 544d 393b
000003d0: a303 303c 29b6 09ba 01c4 4dbb 3b2f 03bb
000003e0: 0de1 013c b9f3 e6bb 356e aa3b 0b3d e0bb
000003f0: 189c 313c 09d9 be3b 5bdf 80bb 1f95 3f3c

network_body._body_endoder.seq_layers.2.weight f4 [256, 256]
-0.018361678 -0.06590062 0.11356896 0.062189016 0.09012897 -0.017607557 0.033638235 -0.10089848
0.021349967 0.034344573 0.006818167 0.08018593 0.05041444 0.030446902 -0.0471483 0.020068727
0.04530349 -0.15972258 0.017796075 0.044025607 0.013859612 0.0055906354 0.03690596 -0.0014037081
0.11640103 -0.04589474 -0.097631216 0.013800097 -0.0009492765 -0.0836284 -0.0024553307 -0.11683789
0.007839372 0.03608364 -0.08329624 -0.06340336 0.030052707 0.018418401 0.059151318 0.028621921
-0.002581772 0.0041197175 0.006966545 0.0038804747 -0.08588177 -0.0034155808 -0.036910377 -0.04966817
-0.029733613 -0.063298166 -0.061171502 0.032206375 0.017311363 0.040651172 -0.007967757 0.050752953
0.07549544 0.07517375 0.0977885 -0.045742884 -0.10586666 0.16849267 -0.032826535 -0.009292513
-0.00968178 0.03434029 0.045093242 0.057638243 -0.0038484663 0.105998516 -0.09803454 -0.0015706167
-0.016224088 0.039790347 -0.011178704 0.035295434 -0.0019066337 0.09814103 0.010218994 0.0093615
0.01813394 -0.096588105 0.20950693 0.019814234 0.043727115 -0.01534217 -0.05484581 0.0034175958
-0.034361046 -0.059585486 -0.04914291 -0.044604957 -0.025773017 -0.030886872 0.006483799 0.089829564
0.017213304 -0.042922135 0.07730395 0.03277373 -0.03394842 0.032212473 -0.014755823 0.01933081
-0.06638477 0.19155401 -0.06779957 0.109742 0.0039662463 0.06963149 -0.0883367 -0.03366577
0.016583676 -0.10055743 -0.09888992 -0.0579342 0.0013724645 -0.05514028 -0.010867139 0.073649846
-0.044748984 0.022276334 -0.01806804 0.07525929 0.018630072 -0.07329208 0.038855407 -0.029250793
0.15453401 -0.07509943 -0.031280268 -0.02375773 -0.0056314175 -0.054396573 0.054437533 -0.10461258
0.032820117 0.011077428 -0.081752 0.014743948 -0.10783139 0.0367378 0.02103352 0.056122415
0.09880946 0.08337264 0.008765382 0.04196025 0.006608108 0.07570816 -0.13937117 -0.07682219
0.10620865 -0.0031120023 -0.036530025 0.031928312 0.013812408 -0.073357545 -0.011081274 -0.038985953
-0.059084684 0.00070223934 -0.037733234 0.021966964 0.04030312 0.05258166 0.0018320417 -0.027503733
0.053911854 -0.02081507 0.029601434 -0.030375142 0.010953968 0.054760862 -0.10340143 0.05847167
0.022968529 0.009040028 -0.0032990905 0.0010286393 0.021789161 -0.013671782 0.02418708 -0.021716136
-0.100554205 0.023756418 0.035915166 -0.09297236 0.021638986 0.020876767 0.021664802 -0.0043371823
-0.07548039 0.03383306 0.017575856 -0.098556824 -0.027013168 0.112431765 0.00816133 -0.15274405
0.012862742 -0.053375833 0.015787888 0.07557317 -0.009847764 0.026232108 0.02296115 -0.0236463
-0.020177243 0.041949213 0.035977352 0.078017935 0.050585542 -0.05850275 -0.014091712 -0.023020195
0.11444831 0.022282861 0.028179739 0.06474246 -0.009761346 -0.053765733 -0.06735588 -0.055686034
0.07073606 -0.059601333 0.10980713 0.052597433 -0.014468668 0.06007443 0.02975669 0.06819602
0.0074805785 -0.049241327 0.054798458 0.0023250547 -0.007907665 0.015251933 -0.07913021 -0.05717442
0.027583009 0.015221492 0.053422146 -0.043079115 -0.122695535 -0.012074768 0.05348924 -0.07564508
0.0034173047 -0.029194077 0.011524561 -0.02619329 0.0010761572 0.016787285 0.06944226 -0.057833895
00000000: 3b6b 96bc e7f6 86bd d896 e83d e9b9 7e3d
00000010: 8a95 b83d b93d 90bc 3fc8 093d dda3 cebd
00000020: 20e6 ae3c e5ac 0c3d ee6a df3b 8538 a43d
00000030: 5f7f 4e3d c86b f93c 931e 41bd 2c67 a43c
00000040: 2790 393d 518e 23be 13c9 913c 3254 343d
00000050: 6d13 633c a631 b73b b42a 173d a1fc b7ba
00000060: aa63 ee3d 1ffc 3bbd e0f2 c7bd cd19 623c
00000070: ded8 78ba 5e45 abbd 9de9 20bb b448 efbd
00000080: b670 003c 70cc 133d 3897 aabd 9fd9 81bd
00000090: 1831 f63c 30e2 963c a748 723d 8578 ea3c
000000a0: f232 29bb b2fe 863b 9d47 e43b 904f 7e3b
000000b0: c8e2 afbd f0d7 5fbb 562f 17bd da70 4bbd
000000c0: e893 f3bc 78a2 81bd f88e 7abd d5ea 033d
000000d0: 8fd0 8d3c d881 263d 328b 02bc 54e2 4f3d
000000e0: 5a9d 9a3d b2f4 993d 5645 c83d e45c 3bbd
000000f0: 9fd0 d8bd 5889 2c3e 1e75 06bd a03f 18bc
00000100: 54a0 1ebc 67a8 0c3d b1b3 383d 1416 6c3d
00000110: 8d36 7cbb c015 d93d 55c6 c8bd 27dd cdba
00000120: 61e8 84bc 34fb 223d e226 37bc f291 103d
00000130: 03e8 f9ba 2afe c83d 916d 273c fa60 193c
00000140: a18d 943c fccf c5bd fc88 563e 7651 a23c
00000150: 341b 333d ba5d 7bbc 00a6 60bd bef9 5f3b
00000160: 2bbe 0cbd e90f 74bd 134a 49bd b0b3 36bd
00000170: ef21 d3bc 7706 fdbc 0c76 d43b 90f8 b73d
00000180: ea02 8d3c 1fcf 2fbd 8951 9e3d bf3d 063d
00000190: 800d 0bbd 3af1 033d 68c2 71bc a65b 9e3c
000001a0: bdf4 87bd bc26 443e 80da 8abd 6ac0 e03d
000001b0: 49f7 813b f49a 8e3d dfe9 b4bd 1ee5 09bd
000001c0: 7dda 873c 0ef1 cdbd cc86 cabd 694c 6dbd
000001d0: 44e4 b33a c6da 61bd 160c 32bc bbd5 963d
000001e0: b64a 37bd dc7c b63c 6d03 94bc 8b21 9a3d
000001f0: 189e 983c 281a 96bd d926 1f3d 5c9f efbc
00000200: 2a3e 1e3e bbcd 99bd bd1f 00bd 929f c2bc
00000210: c187 b8bb f1ce 5ebd e4f9 5e3d 1f3f d6bd
00000220: 636e 063d 1a7e 353c 986d a7bd 9a90 713c
00000230: b4d6 dcbd 607a 163d 7d4e ac3c 9ee0 653d
00000240: 9d5c ca3d 46bf aa3d ad9c 0f3c 83de 2b3d
00000250: d488 d83b e10c 9b3d 51b7 0ebe f454 9dbd
00000260: ec83 d93d bcf2 4bbb 82a0 15bd 43c7 023d
00000270: 704d 623c 7b3c 96bd 3b8e 35bc bcaf 1fbd
00000280: c802 72bd 7c16 383a 2a8e 1abd 10f4 b33c
00000290: e214 253d de5f 573d 1e21 f03a 824f e1bc
000002a0: add2 5c3d 5e84 aabc b57e f23c 4ad5 f8bc
000002b0: 4678 333c ed4c 603d 21c4 d3bd fd7f 6f3d
000002c0: 7f28 bc3c a01c 143c 8e35 58bb 68d3 863a
000002d0: 2f7f b23c 9cff 5fbc fc23 c63c 0ae6 b1bc
000002e0: 5def cdbd d29c c23c c81b 133d 4b68 bebd
000002f0: 3e44 b13c c105 ab3c 627a b13c ec1e 8ebb
00000300: 7695 9abd 8994 0a3d 3efb 8f3c 29d8 c9bd
00000310: b84a ddbc a042 e63d 19b7 053c f068 1cbe
00000320: 40be 523c 9ea0 5abd 9a55 813c 1bc6 9a3d
00000330: 8458 21bc b8e4 d63c 0619 bc3c e3b5 c1bc
00000340: bf4a a5bc f0d2 2b3d fd5c 133d dec7 9f3d
00000350: c932 4f3d 94a0 6fbd ede0 66bc d994 bcbc
00000360: e063 ea3d 8c8a b63c 32d9 e63c b297 843d
00000370: 0dee 1fbc 7539 5cbd e1f1 89bd 0a17 64bd
00000380: 11de 903d 8720 74bd 90e2 e03d 6870 573d
00000390: fe0d 6dbc 9b10 763d 4dc4 f33c 5baa 8b3d
000003a0: a41f f53b 46b1 49bd 5974 603d f25f 183b
000003b0: 278f 01bc 3ee3 793c 050f a2bd ba2f 6abd
000003c0: c3f5 e13c 9163 793c 2ed1 5a3d ba73 30bd
000003d0: cc47 fbbd 3fd5 45bc 8917 5b3d cfeb 9abd
000003e0: dcf4 5f3b 6b28 efbc 83d1 3c3c 4f93 d6bc
000003f0: d80d 8d3a 7d85 893c be37 8e3d 3ce3 6cbd

network_body._body_endoder.seq_layers.2.bias f4 [256]
0.0051454348 0.009637124 -0.0076816264 0.0110221915 0.008386792 0.012059528 0.0024352313 -0.008039221
-0.005872855 -0.0038352646 0.0011774411 -0.0006475311 -0.00486227 0.0060991845 0.0036333231 -0.0015164816
0.012647368 0.0006250648 -0.00037691902 -0.00424129 -0.0011733905 0.0066639944 -0.0017043378 -0.003347272
0.00028946358 0.0064903665 0.013674671 -0.0018047969 0.001288861 0.0065279743 4.0899267e-05 -0.0077147167
-0.0024933454 0.009652557 -0.0024693115 0.002781253 -0.0039796256 -0.0024270678 0.0041630426 -0.0032152766
-0.0045416127 -0.0039096465 0.001516984 -0.004780941 -0.0028929973 -0.00414358 0.00018482609 0.00839055
-0.0034862275 0.005405132 -0.005664409 -0.0071169734 0.0019195718 0.0046393224 -0.0037292892 0.0022568326
-0.0011271391 0.0026785946 0.00086464814 -0.0013486654 0.0032706435 0.0057794233 0.00082768034 0.007210308
0.0036887669 -0.00026977484 0.005829797 -0.002968108 -0.0016379599 0.00056285714 -0.0043967287 -0.009595915
0.00012323417 0.004850332 0.0035650355 -0.0017267547 0.0020083436 -0.00081447064 -0.0042744726 0.004254422
-0.0030981454 0.005379298 0.006084942 0.003454131 -0.0060901083 0.007093221 -0.005115459 0.007996109
-0.0066134115 -0.005169138 -0.003143424 0.009160028 -0.0048048086 0.00949573 1.8297525e-05 0.0013637568
0.0073346538 0.0026852314 0.010343836 -0.0055426518 -0.00057396037 -0.00084377214 0.004180102 -0.0012588311
-0.0031017612 -0.0052175294 0.0006531198 0.008959828 -0.0018421784 0.0036985374 -0.008547059 0.011338966
0.0010882367 0.0064236056 0.009942641 0.0067303353 -0.0025267669 0.0023435375 0.004452003 -0.0062315264
0.0075241067 0.0032885314 0.008367354 -0.0029429083 -0.0031049615 -0.006803235 0.009170284 0.011891537
-0.0049984427 -0.0030075752 -0.008108663 -0.0024781537 -0.0050866297 0.009123601 -0.001435028 0.008386435
-0.0061627673 0.0067089447 -0.006880995 0.00135075 0.0075836647 -0.005816209 0.0024027766 -0.004898851
0.0045794314 0.00404233 0.007345535 0.0016790327 0.0026163924 -0.0055240537 0.001495596 0.009931124
-0.0065413406 0.0023897672 0.009940661 -0.0026545806 0.013534004 0.010078058 0.005018004 -0.002773953
-0.004594511 0.011041794 -0.006575521 -0.002369962 -0.002860397 -0.001194742 -0.0074314787 0.002495895
0.009901394 -0.0027383296 -0.0008587173 0.0047468906 0.004462333 -0.0033416115 -0.00058718916 -0.0036475218
-0.0011816057 0.0013433284 0.0026189443 0.005066021 -0.004933017 0.010357331 -0.0042318115 -0.00696813
-0.0023029337 -0.006389146 0.0030477503 0.004578575 -0.0022167894 0.0034052536 -0.0033212232 -0.0040942975
0.0012371013 -0.0039500957 0.004335553 -0.0004362837 -0.0012021888 -0.001193346 0.0051719295 -0.007584231
0.0018712215 -0.0016440171 0.0069899578 0.00043205713 -0.003428829 0.0045054187 0.0057792543 0.011906778
-0.0024101424 0.005280948 0.01005163 -0.0044650007 0.0054226723 -0.0033950645 -0.0073267277 -0.0072569083
0.0049504517 -0.0048513827 0.0054766578 -0.0006364734 0.005745655 0.00046054635 -0.0016924584 -0.0027825623
0.010550571 0.0019899618 0.0038814968 -6.8692476e-05 -0.0055510947 0.008035575 -0.00243843 -0.0052696206
0.005273611 0.0055066897 -0.0032136515 -0.004290614 0.010418294 -0.00090522453 -0.0022740709 0.0026415635
-0.0016280916 -0.0027875958 0.0017066163 0.004187222 -0.0036818355 0.00015854447 -0.0032594402 0.009517183
-0.0018832188 0.007861553 0.007615432 -0.0025184348 -0.0018007171 -0.0023953242 0.008441708 -0.0032615275
00000000: 099b a83b 07e5 1d3c 27b6 fbbb 6c96 343c
00000010: c168 093c 5495 453c 6798 1f3b f0b6 03bc
00000020: 1471 c0bb 1059 7bbb 5e54 9a3a 14bf 29ba
00000030: ad53 9fbb abdb c73b 0c1d 6e3b aec4 c6ba
00000040: e836 4f3c 63db 233a 379d c5b9 85fa 8abb
00000050: 74cc 99ba a35d da3b 1664 dfba e85d 5bbb
00000060: 25c3 9739 24ad d43b ba0b 603c ef8e ecba
00000070: 00ef a83a 9ee8 d53b 418b 2b38 bccb fcbb
00000080: 6567 23bb c225 1e3c 2cd4 21bb af45 363b
00000090: 8567 82bb 710f 1fbb 226a 883b 64b7 52bb
000000a0: cfd1 94bb 7e1c 80bb 89d5 c63a 71a9 9cbb
000000b0: 7198 3dbb dec6 87bb e0cd 4139 8478 093c
000000c0: 3179 64bb 891d b13b 829c b9bb 8035 e9bb
000000d0: 249a fb3a 7505 983b 1767 74bb 5ee7 133b
000000e0: 83bc 93ba 5c8b 2f3b 8ea9 623a b4c5 b0ba
000000f0: 4b58 563b 5161 bd3b b0f8 583a 7344 ec3b
00000100: 3dbf 713b 9170 8db9 e207 bf3b 9784 42bb
00000110: d0b0 d6ba b48c 133a 6f12 90bb 2f38 1dbc
00000120: 6c38 0139 89ef 9e3b 5fa3 693b 4654 e2ba
00000130: 6a9e 033b 3382 55ba e010 8cbb ae68 8b3b
00000140: 410a 4bbb d244 b03b 3164 c73b b45e 623b
00000150: 888f c7bb 406e e83b 959f a7bb 1d02 033c
00000160: 51b5 d8bb df61 a9bb e701 4ebb f113 163c
00000170: a871 9dbb fa93 1b3c a37d 9937 16c0 b23a
00000180: 8957 f03b b5fa 2f3b 3179 293c 229f b5bb
00000190: d475 16ba 9730 5dba 3df9 883b 5dff a4ba
000001a0: eb46 4bbb cff7 aabb 2136 2b3a 3ecc 123c
000001b0: 4075 f1ba 2963 723b f708 0cbc 12c7 393c
000001c0: 2aa3 8e3a 1c7d d23b 75e6 223c 258a dc3b
000001d0: 1d98 25bb 0996 193b 1ce2 913b d531 ccbb
000001e0: c88c f63b 6784 573b 3a17 093c cfdd 40bb
000001f0: 9c7c 4bbb aced debb f53e 163c b9d4 423c
00000200: fac9 a3bb bd1a 45bb 33da 04bc 8568 22bb
00000210: bead a6bb 287b 153c 8d17 bcba 4267 093c
00000220: 0af1 c9bb b5d6 db3b f879 e1bb a60b b13a
00000230: 6480 f83b e695 bebb e777 1d3b 8a86 a0bb
00000240: 0e0f 963b 8675 843b d0b2 f03b fd12 dc3a
00000250: c877 2b3b 1f03 b5bb e007 c43a 27b6 223c
00000260: be58 d6bb a49d 1c3b 27de 223c 79f8 2dbb
00000270: babd 5d3c 701e 253c 126e a43b 35cb 35bb
00000280: 8d8d 96bb a4e8 343c 7877 d7bb 5d51 1bbb
00000290: 8075 3bbb e498 9cba c383 f3bb 2b92 233b
000002a0: 7539 223c 8c75 33bb 8b1b 61ba ce8b 9b3b
000002b0: c338 923b f0fe 5abb 99ed 19ba 430b 6fbb
000002c0: 1ce0 9aba 9f12 b03a 98a2 2b3b dd00 a63b
000002d0: 25a5 a1bb cbb1 293c 02ab 8abb e954 e4bb
000002e0: d1ec 16bb 0b5c d1bb c4bc 473b df07 963b
000002f0: 8e47 11bb ad2a 5f3b e1a8 59bb 7529 86bb
00000300: 3b26 a23a ce6f 81bb 4111 8e3b 02bd e4b9
00000310: c392 9dba 0c6a 9cba 4a79 a93b 2485 f8bb
00000320: c643 f53a 0f7c d7ba 040c e53b ba85 e239
00000330: 34b6 60bb 31a2 933b e65f bd3b a614 433c
00000340: 7bf3 1dbb cd0b ad3b 98af 243c 244f 92bb
00000350: acb0 b13b bb7f 5ebb 0c15 f0bb 5ccb edbb
00000360: 6637 a23b 59f8 9ebb 8975 b33b 02d9 26ba
00000370: 0c46 bc3b 7c75 f139 7bd5 ddba a65b 36bb
00000380: 4ddc 2c3c 056a 023b b660 7e3b fe0e 90b8
00000390: f5e5 b5bb a5a7 033c 11ce 1fbb c8ac acbb
000003a0: 41ce ac3b 7671 b43b 209c 52bb 4798 8cbb
000003b0: 7eb1 2a3c 974c 6dba 9408 15bb 151e 2d3b
000003c0: b065 d5ba 19b0 36bb 8ab0 df3a f734 893b
000003d0: f34a 71bb f53e 2639 559c 55bb f5ed 1b3c
000003e0: 56d6 f6ba becd 003c e08a f93b 530c 25bb
000003f0: 0a06 ecba dffa 1cbb 174f 0a3c 5abf 55bb

network_body._body_endoder.seq_layers.4.weight f4 [256, 256]
0.11224514 0.095085874 -0.053956013 -0.042907134 0.028713997 -0.011916693 0.027638024 0.01043683
0.07316312 0.0684823 0.01704883 -0.086482696 0.008776963 -0.089749694 0.05319383 -0.02775215
0.023192428 -0.08993143 -0.061777405 0.0045602513 -0.06645808 -0.020706663 -0.056156266 0.015829265
-0.018020295 0.0065802503 -0.09815762 0.022605626 0.119405575 0.011078453 0.07785942 -0.07720594
-0.005741485 -0.04046442 0.042196985 0.049449477 0.0573926 0.014925533 0.03737493 0.057382632
0.03221803 -0.033769235 -0.067908585 0.07475688 -0.08398104 0.02157786 -0.01752752 -0.027732547
-0.07979812 -0.0020806452 0.054834887 -0.0051158657 -0.04585436 0.005825787 -0.037271906 0.030375266
0.057077814 0.046084173 -0.028969213 -0.06317188 0.10060964 0.043613728 0.021393921 -0.056124583
-0.07586112 0.032154724 0.016236495 0.061730646 -0.0019451486 0.0127391685 -0.12552951 0.028712323
0.07612497 -0.05646118 -0.0219331 -0.021238744 0.072387196 0.0139634935 0.01536556 0.058409303
-0.021471662 0.024808275 0.048311602 -0.015234058 0.104040734 -0.046472196 0.009012832 -0.0019837879
0.03577878 0.03281014 0.03652394 0.10757198 0.1251921 0.053329837 -0.06999486 0.009326202
0.042510312 0.015119783 -0.0030533755 -0.098669015 0.024278173 0.020600166 -0.11198409 0.12845348
-0.12189044 -0.0054366305 0.076013125 -0.060162652 -0.12559582 0.003987254 0.0583989 -0.025275799
-0.033161253 0.011694787 -0.02034008 0.08343825 0.0286254 -0.059650477 -0.090416364 0.08884857
-0.08486305 -0.013028255 -0.017584037 0.08159991 0.034417227 0.04606365 0.055115774 -0.006412041
0.012476889 0.051138528 -0.029584935 0.037381783 0.02207466 0.050374698 -0.10495177 0.0029574407
0.053784084 0.037316628 0.018472979 -0.031817928 0.007970036 -0.066084065 -0.0015036992 -0.053807646
0.029202377 0.000591564 -0.007166662 -0.019409511 -0.0102060195 0.056672834 -0.056506306 -0.018922351
0.06817623 0.033951852 0.042891104 0.13343252 -0.029875785 -0.045947984 0.0224401 0.02889286
0.011449494 0.010240407 -0.0379934 -0.054198157 -0.081073046 0.042305093 -0.11412925 -0.041718584
0.008435611 -0.0071850866 0.084152356 0.056431547 -0.11514027 0.051752277 -0.011658945 -0.07053595
-0.036722403 -0.083309524 -0.034852896 0.08221196 -0.050981086 -0.080775164 -0.0914715 0.04693991
0.054628707 0.034400076 -0.0032235654 -0.034225423 -0.15432884 0.0043438263 0.051442318 0.03965641
0.0050831083 0.06269597 -0.0597764 0.0862545 0.034783833 -0.0055199102 -0.012173642 0.049267307
0.10792546 -0.06008455 0.084699154 0.051125646 0.066644326 -0.018022476 0.017161123 -0.07138114
-0.019945834 0.05230793 0.11480075 -0.053663123 0.045532778 0.031116668 -0.05334185 -0.06850924
-0.09036442 0.038147807 -0.10637202 0.08618394 0.08132649 -0.00031723717 -0.09292655 0.04893503
0.027904721 -0.044665877 0.13816094 0.1073122 0.13656054 0.020091198 0.0061892616 0.114558086
-0.05672304 -0.03919762 0.029310623 -0.044602614 -0.010547232 0.039001513 0.031139279 -0.013651721
-0.14611255 0.098542646 0.07363151 -0.082600825 -0.02043393 0.0064608525 -0.00034478892 0.04152894
-0.044346537 0.019357676 -0.040341396 -0.006763105 -0.08655123 -0.033055846 0.05832187 -0.043586195
00000000: c8e0 e53d 62bc c23d fb00 5dbd 64bf 2fbd
00000010: 9e39 eb3c 3c3e 43bc 2369 e23c 3dff 2a3c
00000020: 8cd6 953d 7340 8c3d fda9 8b3c d71d b1bd
00000030: 40cd 0f3c b0ce b7bd c6e1 593d 7a58 e3bc
00000040: 0cfe bd3c f82d b8bd 4e0a 7dbd 296e 953b
00000050: 2d1b 88bd 05a1 a9bc 1d04 66bd 60ac 813c
00000060: 4c9f 93bc 249f d73b dd06 c9bd 6f2f b93c
00000070: e98a f43d 6682 353c c274 9f3d 261e 9ebd
00000080: 1123 bcbb 05be 25bd bfd6 2c3d 898b 4a3d
00000090: 8114 6b3d 398a 743c 7416 193d 0d0a 6b3d
000000a0: 0ef7 033d 9c51 0abd a813 8bbd 231a 993d
000000b0: 40fe abbd 0dc4 b03c e095 8fbc 5e2f e3bc
000000c0: 326d a3bd 6f5b 08bb 8c9a 603d fea2 a7bb
000000d0: c8d1 3bbd 3ee6 be3b 6daa 18bd 8dd5 f83c
000000e0: 6dca 693d c2c2 3c3d d850 edbc 4260 81bd
000000f0: 6d0c ce3d 4fa4 323d 4e42 af3c e4e2 65bd
00000100: 135d 9bbd acb4 033d 6602 853c 46d9 7c3d
00000110: 5bf4 feba f2b7 503c cf8a 00be 1b36 eb3c
00000120: 69e7 9b3d d743 67bd 0bad b3bc e0fc adbc
00000130: bd3f 943d 23c7 643c d4bf 7b3c 983e 6f3d
00000140: 57e5 afbc b93a cb3c 63e2 453d 4598 79bc
00000150: 4f13 d53d a159 3ebd 8faa 133c 7002 02bb
00000160: c58c 123d ed63 063d 209a 153d b34e dc3d
00000170: 5c32 003e 6370 5a3d 7759 8fbd edcc 183c
00000180: 4b1f 2e3d f7b8 773c 241b 48bb fb12 cabd
00000190: 05e3 c63c aec1 a83c ea57 e5bd 4f89 033e
000001a0: b2a1 f9bd c325 b2bb c5ac 9b3d 1d6d 76bd
000001b0: 319c 00be 83a7 823b af33 6f3d 310f cfbc
000001c0: 18d4 07bd 7e9b 3f3c 3da0 a6bc ace1 aa3d
000001d0: d17f ea3c 0f54 74bd 372c b9bd 3df6 b53d
000001e0: aecc adbd 7674 55bc 660c 90bc db1d a73d
000001f0: 14f9 0c3d 3dad 3c3d 14c1 613d 191c d2bb
00000200: de6b 4c3c a276 513d 1b5c f2bc a41d 193d
00000210: ebd5 b43c b355 4e3d f4f0 d6bd 9fd1 413b
00000220: b34c 5c3d 52d9 183d a554 973c 8453 02bd
00000230: c194 023c 1557 87bd c617 c5ba 6865 5cbd
00000240: d339 ef3c 3013 1b3a 51d6 eabb b200 9fbc
00000250: 2637 27bc c621 683d 2873 67bd 0c03 9bbc
00000260: fb9f 8b3d 1911 0b3d 95ae 2f3d 89a2 083e
00000270: 10be f4bc f433 3cbd 4dd4 b73c b8b0 ec3c
00000280: a996 3b3c 61c7 273c f89e 1bbd e3fe 5dbd
00000290: a009 a6bd 1b48 2d3d 99bc e9bd 1be1 2abd
000002a0: 8435 0a3c e070 ebbb 1258 ac3d c424 673d
000002b0: a9ce ebbd 32fa 533d 2905 3fbc 2775 90bd
000002c0: 3b6a 16bd 2f9e aabd e9c1 0ebd be5e a83d
000002d0: 8bd1 50bd 736d a5bd 6955 bbbd 1044 403d
000002e0: 5ac2 5f3d 18e7 0c3d 7442 53bb f52f 0cbd
000002f0: 6108 1ebe a856 8e3b 2eb5 523d c36e 223d
00000300: 3490 a63b bf66 803d 19d8 74bd 33a6 b03d
00000310: 7e79 0e3d 5de0 b4bb f573 47bc 84cc 493d
00000320: 0608 dd3d 381b 76bd c076 ad3d 2069 513d
00000330: d27c 883d dfa3 93bc 7c95 8c3c 4630 92bd
00000340: 7265 a3bc d740 563d a81c eb3d ddcd 5bbd
00000350: 9480 3a3d 62e8 fe3c fc7c 5abd 934e 8cbd
00000360: fb10 b9bd e040 1c3d 93d9 d9bd 3581 b03d
00000370: 818e a63d da52 a6b9 4650 bebd 1970 483d
00000380: 7198 e43c 91f3 36bd 107a 0d3e 80c6 db3d
00000390: 87d6 0b3e 4c96 a43c 4acf ca3b 6e9d ea3d
000003a0: 6b56 68bd af8d 20bd d51c f03c 3bb1 36bd
000003b0: 4cce 2cbc 0dc0 1f3d cd17 ff3c 78ab 5fbc
000003c0: 879e 15be bad0 c93d 1ecc 963d 9f2a a9bd
000003d0: 0f65 a7bc 8fb5 d33b c9c4 b4b9 401a 2a3d
000003e0: b7a4 35bd fd93 9e3c 053d 25bd 099d ddbb
000003f0: c541 b1bd 9165 07bd eae2 6e3d 7087 32bd

network_body._body_endoder.seq_layers.4.bias f4 [256]
-0.0006490463 0.00079372624 -0.002007983 0.0041548684 0.008408359 0.00072812237 0.00041672774 -0.0036656887
0.0027626217 -0.0045455066 0.0018861234 -0.0024314173 -0.0062807333 0.00065039203 0.009757967 0.0066708317
-0.00013259059 0.012246725 -9.8645214e-05 0.00041927726 0.002673428 -0.0015121532 -0.00021230918 -0.0006658932
0.0010326024 0.0010824185 -0.005836331 -0.00185075 0.0068922974 -0.005201665 0.0017613127 0.0025183696
-0.004731083 -0.0043005277 -0.0027357754 -0.00022518261 -0.00027522148 -0.0043763653 0.008973463 0.0014654313
0.0042660073 0.0045687007 0.0013792373 0.008623515 0.0013760836 0.011616689 0.0020987408 0.0046171956
0.0037914212 0.004485695 0.00096786174 0.00078350306 0.004094249 -0.0028120235 -0.003956289 -0.0036156666
-0.006479134 0.0075146705 0.011393608 -0.004134096 0.0024805123 -0.0038354693 0.0066450336 0.00023509476
-0.0024971329 0.010407385 0.0022884428 0.003060052 0.0028567906 0.0020691373 -0.0039660917 0.00082805357
0.007435612 -0.0004724537 0.0041571027 -0.005201786 -0.0017227838 -0.0028165292 0.00898396 0.006921774
-0.002796737 0.0052315 -8.7027554e-05 0.0015399464 0.0035426042 0.0046325726 0.007739345 0.0044737617
-0.0024713357 0.004696214 0.011935234 -0.0036147905 0.004268083 0.00843403 0.008138417 0.004692267
-0.0030798304 0.0028307529 0.0074429857 0.0015727549 -0.00054661365 -0.0016299018 0.0035030039 -0.002576382
-0.0032453411 0.00023848953 -0.0073653017 -0.00016529989 0.008769043 0.007435428 -0.00017600096 0.003742683
-0.006412328 0.008573329 -0.0048451573 0.005337104 0.0035473327 1.5836447e-05 -0.0005229617 -0.003387965
0.008388372 0.0076238876 -0.004643737 -0.00284392 -0.0021391064 -0.0045778835 -0.0007175817 -0.0004943326
-0.006566217 -0.0018618712 0.0022413004 -0.0027301009 -0.00025194173 0.0014737505 -0.00256655 0.006010765
-0.0035052393 -0.00089629815 0.009191888 -0.0021910726 0.0070962994 -0.0017252731 0.005271029 -0.0029727595
0.001552248 -0.0035563563 0.0051724836 -0.0019354522 -0.0038281423 -0.0032052777 -0.0067658015 0.00069046905
0.008184321 -0.002275284 0.0027170628 0.0034373705 0.008012104 0.0035474845 -3.256964e-05 -0.00056908303
0.0011302438 -0.0023563076 0.00021937472 -0.0045876508 0.006671222 0.0017005971 0.0005129136 -0.0012970853
-0.005153492 0.002210706 0.009731094 0.0025071132 0.0031791762 0.013824503 0.004363556 -0.0027880315
0.00230756 0.0026176416 -0.005121973 0.0055532577 -0.0014835297 -0.0029831128 0.0034110039 -0.0014200271
-0.0035707126 0.00014737374 0.006830095 0.002873479 0.00827488 0.004379935 -0.0027282692 -0.0056285947
-0.0025692862 -0.0005010474 0.002611915 0.0011068524 -0.0022094913 -0.00019186568 0.0071048 -0.005497969
-0.004393899 0.00866137 0.0025615317 -0.00074658945 -0.0035338395 -0.002854958 0.0025131798 -0.0019870892
-0.0031428651 0.00027105067 0.008400052 0.008290081 0.012067896 0.0005439009 0.0042849733 8.359659e-05
-0.002404423 0.0010117417 -3.2680753e-05 -0.0030781406 -0.003958357 0.0010101094 -0.0036707013 0.008228001
0.001667856 -0.0009794637 -0.003886642 0.00056481065 -0.0021896581 -0.0024959317 0.0035156386 -0.00042750404
0.013228064 -0.0016930351 0.00012340758 -6.5428896e-05 0.0037763028 -0.000980914 -0.0037483363 -0.002355083
0.005951831 -0.0036277673 -0.00045317365 0.005415338 -0.0011153967 0.0015087232 0.0006879883 0.008171297
-0.0032053515 -0.0009309292 0.009529483 0.0008428112 0.0034336566 -0.0049506314 -0.00039881456 -0.0031809942
00000000: c324 2aba 1112 503a 5d98 03bb 9025 883b
00000010: 37c3 093c 77df 3e3a 407c da39 0d3c 70bb
00000020: 1a0d 353b 79f2 94bb cd37 f73a 6a58 1fbb
00000030: 9cce cdbb 127f 2a3a e1df 1f3c fe96 da3b
00000040: 0408 0bb9 7da6 483c bfdf ceb8 71d2 db39
00000050: ae34 2f3b 7133 c6ba 509f 5eb9 568f 2eba
00000060: 6358 873a f0df 8d3a b13e bfbb dd94 f2ba
00000070: c8d8 e13b bb72 aabb d9db e63a 3b0b 253b
00000080: 3307 9bbb 71eb 8cbb b24a 33bb ff1e 6cb9
00000090: 9a4b 90b9 9d67 8fbb 6f05 133c b713 c03a
000000a0: ddc9 8b3b 0ab5 953b 86c7 b43a a549 0d3c
000000b0: b45d b43a ed53 3e3c 078b 093b d84b 973b
000000c0: 7e79 783b bdfc 923b 1ab8 7d3a 0064 4d3a
000000d0: 0d29 863b ed49 38bb c2a3 81bb d2f4 6cbb
000000e0: ea4e d4bb a03d f63b 41ac 3a3c 5077 87bb
000000f0: 1790 223b 7f5c 7bbb 95be d93b c583 7639
00000100: f0a6 23bb bd83 2a3c b3f9 153b 278b 483b
00000110: fe38 3b3b 5d9a 073b fdf5 81bb bc11 593a
00000120: 6fa6 f33b aab3 f7b9 4e38 883b be73 aabb
00000130: 08cf e1ba 8595 38bb 7631 133c 0cd0 e23b
00000140: 7649 37bb 016d ab3b 9082 b6b8 07d8 c93a
00000150: 092b 683b d6cc 973b 559a fd3b a298 923b
00000160: 22f6 21bb b3e2 993b 008c 433c 1fe6 6cbb
00000170: 46db 8b3b e32e 0a3c ff56 053c 97c1 993b
00000180: fbd6 49bb 2784 393b 4ae4 f33b e624 ce3a
00000190: 9f4a 0fba 6ea2 d5ba a792 653b 84d8 28bb
000001a0: caaf 54bb 0c13 7a39 a158 f1bb 5a54 2db9
000001b0: 08ac 0f3c e4a4 f33b e68c 38b9 cd47 753b
000001c0: 821e d2bb 2677 0c3c 20c4 9ebb e0e2 ae3b
000001d0: 5e7a 683b 83d8 8437 5e17 09ba 9f08 5ebb
000001e0: 626f 093c ced1 f93b 7d2a 98bb 0f61 3abb
000001f0: 4030 0cbb 1202 96bb 181c 3cba 1996 01ba
00000200: 6c29 d7bb 080a f4ba c8e2 123b 7eeb 32bb
00000210: 0c17 84b9 dc2a c13a 9033 28bb f4f5 c43b
00000220: 28b8 65bb 8df5 6aba 9399 163c 1998 0fbb
00000230: 1388 e83b 8f22 e2ba 99b8 ac3b a1d2 42bb
00000240: cd74 cb3a c211 69bb f07d a93b 00af fdba
00000250: 92e1 7abb a30f 52bb a8b3 ddbb 9800 353a
00000260: 8817 063c ee1c 15bb c010 323b 8245 613b
00000270: 3345 033c ea7c 683b 629b 08b8 842e 15ba
00000280: b024 943a 486c 1abb f407 6639 0154 96bb
00000290: 449a da3b 92e6 de3a 0d75 063a f602 aaba
000002a0: a0de a8bb 7ee1 103b 2b6f 1f3c 614e 243b
000002b0: ba59 503b 2b80 623c 29fc 8e3b 68b7 36bb
000002c0: 6f3a 173b bd8c 2b3b 39d6 a7bb 1af8 b53b
000002d0: ff72 c2ba 5480 43bb 268b 5f3b 3420 baba
000002e0: 9e02 6abb 5688 1a39 fdce df3b fa50 3c3b
000002f0: 5d93 073c 8f85 8f3b c3cc 32bb 1370 b8bb
00000300: 7861 28bb b958 03ba aa2c 2b3b ce13 913a
00000310: 1dcd 10bb 8d2f 49b9 62cf e83b 4f28 b4bb
00000320: b2fa 8fbb 6be8 0d3c 5fdf 273b c5b6 43ba
00000330: fd97 67bb 3f1a 3bbb 29b4 243b d339 02bb
00000340: 87f8 4dbb ce1b 8e39 5fa0 093c 1fd3 073c
00000350: 6db8 453c 9294 0e3a f668 8c3b 9450 af38
00000360: 8693 1dbb 6b9c 843a b112 09b8 a1ba 49bb
00000370: 1bb5 81bb a665 843a 2690 70bb bdce 063c
00000380: f69b da3a 5961 80ba 08b7 7ebb cd0f 143a
00000390: 5e80 0fbb c992 23bb a166 663b 9f22 e0b9
000003a0: 86ba 583c d5e8 ddba f866 0139 df36 89b8
000003b0: d97b 773b 0392 80ba a6a6 75bb bc57 1abb
000003c0: 9407 c33b d6bf 6dbb f097 edb9 2673 b13b
000003d0: 8132 92ba 5ac0 c53a 1d5a 343a e7e0 053c
000003e0: e010 52bb 9a09 74ba 8c21 1c3c 1af0 5c3a
000003f0: 3307 613b e838 a2bb fc17 d1b9 3a78 50bb

action_model._continuous_distribution.log_sigma f4 [1, 2]
0.0007264962 -0.00022206001
00000000: 5672 3e3a c8d8 68b9

action_model._continuous_distribution.mu.weight f4 [2, 256]
0.01424245 -0.0064949687 -0.0036643697 -0.0031802598 -0.007054883 0.020224752 -0.003122659 -0.0018503256
0.011614374 0.0097224545 -0.0052090585 -0.0058286637 0.006604236 0.016959082 -0.003693008 -0.0011059726
0.012531149 -0.0008307939 0.0029802918 0.02225546 0.0077084405 -0.0016008739 -0.021759676 -0.004782266
0.0042342036 0.0031585647 0.007838901 0.018949296 0.006992088 0.013806189 -0.00023464982 -0.015865216
0.014131658 0.016088283 0.018537715 0.003680155 0.015485522 0.016823627 -0.0031908236 -0.0057724607
0.0025765516 -0.003849744 0.004268835 0.0055910824 -0.00582004 -0.0077829394 -0.00884155 0.0057366644
-0.0014213494 -0.0051056896 0.015390139 -0.016872304 -0.0016468667 0.010826815 -0.006470416 -0.006025025
0.0012223816 -0.016803969 -0.007906193 0.0059839105 -0.015411741 -0.002863153 0.008316359 0.016323391
-0.005097712 -0.0050672367 -0.0056197806 0.016542384 -0.0021264974 -0.035344504 0.021910544 -0.017087527
-0.010450645 -0.0046552983 0.015126558 0.0021419998 -0.0163049 0.0038327908 0.009884166 0.0070105395
-0.0047028186 -0.017105531 0.0067674075 -0.022033721 -0.004203025 0.004630151 0.00805605 0.010674048
0.0017463318 -0.019566728 -0.0010778448 0.017837662 0.011246393 0.0052226763 0.0005345826 0.013344736
-0.0068365913 -0.009037473 0.013842491 -0.022827147 -0.009614833 0.010096822 -0.025270512 -0.012322193
-0.019893147 -0.028040847 0.004073268 0.006523237 -0.005121479 -0.012610455 0.016889228 0.0243685
0.004176731 -0.0043727504 0.0058510914 -0.035518114 -0.009895529 0.014904935 -0.015152162 0.0010006188
-0.013361825 -0.001964684 0.013288469 0.0035738593 0.0075222696 0.021884985 -0.011857825 0.022983044
-0.00032666244 0.014239431 -0.016131178 -0.010315366 -0.004686571 -0.015780572 -0.0028118934 -0.01544184
-0.00061495154 -0.014834386 0.0046178647 -0.017316148 0.011077296 -0.014573211 0.02034322 0.0077055255
0.0027402402 -0.0016173322 -0.015142038 -0.009968292 -0.0009454076 0.006262384 0.0057033976 -0.0017022794
0.008168789 -0.009291797 -0.009805491 -0.008357391 0.00067374983 -0.014462793 0.0009124496 0.00079877255
-0.028907357 -0.00676883 0.0016440068 -0.0022911604 0.014667658 -0.0066493168 -0.014217793 0.0236288
0.0046475697 -0.013618246 -0.004202059 0.0018067425 0.0092335325 -0.00067222025 -0.011467471 -0.007968084
0.008409864 0.0047170673 0.0065956647 0.018900633 0.018041095 -0.013330806 -0.007721597 0.0039777644
0.02090648 -0.029113049 -0.008870977 -0.013504633 0.0088502625 0.0059899283 0.02493004 -0.0037451542
-0.012780802 0.016568862 -0.015025001 -0.007736097 -0.005056096 0.013687492 0.0047590183 -0.0022594524
0.010912092 -0.0022961874 -0.014063213 -0.006072968 0.0061079618 0.010903948 -0.01096283 -0.008924055
-0.005270509 -0.0050949156 -7.1275346e-05 -0.016025439 -0.0053343093 0.038403027 -0.015400166 0.015660381
-0.002969964 -0.02452573 0.00030678496 -0.012541375 -0.005054688 -0.031074924 0.012597695 -0.0196228
-0.023119451 -0.00068094995 -0.0061050924 5.2831325e-05 -0.0070994496 0.0012319358 0.008988628 -0.0035209558
-0.001331971 0.017188787 -0.0024694921 -0.009419595 -0.00072166976 0.013162009 0.009419244 0.01602658
0.01071202 0.02935507 0.013185638 0.005629101 0.021462059 -0.008779159 0.007832169 0.0015064476
-0.0034886303 -0.010228479 -0.010717587 0.01665101 -0.021037996 0.0063480237 0.008597513 -0.0044556656
00000000: 2a59 693c bfd3 d4bb ec25 70bb e86b 50bb
00000010: a62c e7bb 61ae a53c 86a5 4cbb a086 f2ba
00000020: 374a 3e3c ee4a 1f3c c0b0 aabb 60fe bebb
00000030: 5968 d83b c6ed 8a3c 6506 72bb 48f6 90ba
00000040: 734f 4d3c a3c9 59ba 0051 433b 1551 b63c
00000050: 1697 fc3b 6ad4 d1ba 5941 b2bc 8eb4 9cbb
00000060: 13bf 8a3b ecff 4e3b bc6e 003c 8e3b 9b3c
00000070: e31d e53b 5b33 623c 550c 76b9 c5f7 81bc
00000080: 7888 673c 93cb 833c 68dc 973c c12e 713b
00000090: fdb6 7d3c b4d1 893c 231d 51bb e926 bdbb
000000a0: 5ddb 283b fd4b 7cbb 95e1 8b3b 6635 b73b
000000b0: 09b6 bebb 0708 ffbb 26dc 10bc a1fa bb3b
000000c0: 924c baba a14d a7bb ec26 7c3c c937 8abc
000000d0: addb d7ba f462 313c c905 d4bb 936d c5bb
000000e0: 5238 a03a 7aa8 89bc fa88 01bc ae14 c43b
000000f0: 8781 7cbc bca3 3bbb 5641 083c a2b8 853c
00000100: b50a a7bb 100b a6bb 2326 b8bb e583 873c
00000110: b55c 0bbb 66c5 10bd be7d b33c 24fb 8bbc
00000120: 2f39 2bbc 798b 98bb 62d5 773c cb60 0c3b
00000130: db91 85bc 8f2f 7b3b 32f1 213c abb8 e53b
00000140: 1a1a 9abb e620 8cbc 21c1 dd3b 1080 b4bc
00000150: 87b9 89bb 86b8 973b 86fd 033c 34e2 2e3c
00000160: 2ce5 e43a 674a a0bc 7846 8dba 4a20 923c
00000170: cb42 383c fc22 ab3b 3b23 0c3a e1a3 5a3c
00000180: 7c05 e0bb e911 14bc 9ecb 623c ffff babc
00000190: 8887 1dbc 246d 253c 1b04 cfbc 06e3 49bc
000001a0: f4f6 a2bc ebb5 e5bc 0c79 853b e1c0 d53b
000001b0: 14d2 a7bb 159c 4ebc 475b 8a3c 73a0 c73c
000001c0: f6dc 883b 4a49 8fbb 83ba bf3b 717b 11bd
000001d0: db20 22bc d433 743c c640 78bc 3227 833a
000001e0: 8eeb 5abc eec1 00bb e1b7 593c 6937 6a3b
000001f0: 5f7d f63b 2448 b33c 5347 42bc f046 bc3c
00000200: e443 abb9 814c 693c 8825 84bc c801 29bc
00000210: cf91 99bb 4246 81bc be47 38bb c5ff 7cbc
00000220: b334 21ba ed0b 73bc 7551 973b 98da 8dbc
00000230: 8c7d 353c 7ac4 6ebc d3a6 a63c a27e fc3b
00000240: 9a95 333b aafc d3ba 5016 78bc 0c52 23bc
00000250: 3bd5 77ba af34 cd3b 91e3 ba3b 051f dfba
00000260: 62d6 053c 9f3c 18bc 36a7 20bc 70ed 08bc
00000270: 969e 303a 5af5 6cbc 7531 6f3a b864 513a
00000280: 1fcf ecbc 10cd ddbb b77b d73a 4b27 16bb
00000290: 9e50 703c 83e2 d9bb bff1 68bc 2f91 c13c
000002a0: a44a 983b 101f 5fbc 6db1 89bb 38d0 ec3a
000002b0: 3e48 173c f037 30ba 0fe2 3bbc 918c 02bc
000002c0: 87c9 093c a191 9a3b 7220 d83b 80d5 9a3c
000002d0: ebca 933c 7469 5abc 7305 fdbb e857 823b
000002e0: 1144 ab3c 7d7e eebc 9357 11bc 8942 5dbc
000002f0: b100 113c 2947 c43b 153a cc3c 4371 75bb
00000300: 9266 51bc 6cbb 873c 6c2b 76bc 167f fdbb
00000310: 9bad a5bb 8141 603c 8af1 9b3b 5213 14bb
00000320: a2c8 323c a27b 16bb 6469 66bc bfff c6bb
00000330: 4c25 c83b 79a6 323c 719d 33bc 3336 12bc
00000340: 3cb4 acbb 40f3 a6bb a979 95b8 c847 83bc
00000350: 6ecb aebb 7e4c 1d3d fa50 7cbc 334a 803c
00000360: baa3 42bb 2fea c8bc fbd7 a039 577a 4dbc
00000370: cca1 a5bb d790 febc 9066 4e3c ffbf a0bc
00000380: 0165 bdbc c781 32ba 3a0d c8bb 3497 5d38
00000390: 80a2 e8bb e878 a13a 0a45 133c d6bf 66bb
000003a0: 8895 aeba 80cf 8c3c 34d7 21bb a554 1abc
000003b0: 702e 3dba 78a5 573c 2c53 1a3c 2d4a 833c
000003c0: 7881 2f3c 0b7a f03c 9308 583c 5274 b83b
000003d0: 33d1 af3c 76d6 0fbc 7f52 003c fe73 c53a
000003e0: 81a1 64bb 5a95 27bc d198 2fbc b367 883c
000003f0: e057 acbc 1503 d03b 95dc 0c3c d500 92bb

action_model._continuous_distribution.mu.bias f4 [2]
-0.001492077 -0.0016196545
00000000: cc91 c3ba 964a d4ba
