MLAgents Jumper Exercise/Assets/results/Jump1/JumperAgent/JumperAgent-1317600.onnx (onnx, 570158 bytes, 15 tensors)

network_body.observation_encoder.processors.0.normalizer.running_mean f4 [26]
0.6592877 0.69876134 0.6592884 0.699593 0.6592884 0.699593 0.65934366 0.7022862
0.65934366 0.7022862 0.6594181 0.70751286 0.6594181 0.70751286 0.6826316 0.73182005
0.6826316 0.7318201 0.7842261 0.8105591 0.7842261 0.8105591 0.86950314 0.87849426
0.86950314 0.87849426
00000000: 14c7 283f 06e2 323f 20c7 283f 8718 333f
00000010: 20c7 283f 8718 333f bfca 283f 07c9 333f
00000020: bfca 283f 07c9 333f a0cf 283f 901f 353f
00000030: a0cf 283f 901f 353f f2c0 2e3f 8f58 3b3f
00000040: f2c0 2e3f 9058 3b3f 0bc3 483f cd80 4f3f
00000050: 0bc3 483f cd80 4f3f c297 5e3f 00e5 603f
00000060: c297 5e3f 00e5 603f

network_body.observation_encoder.processors.1.normalizer.running_mean f4 [2]
0.33555642 -0.023098705
00000000: 0dce ab3e 7f39 bdbc

network_body._body_endoder.seq_layers.0.weight f4 [256, 28]
0.1387591 0.16856764 -0.04235977 -0.07544476 -0.09157569 -0.21381147 -0.16050446 -0.1920226
-0.0010709815 -0.3041018 -0.3220403 0.23300864 0.087925054 -0.19915459 0.013849295 -0.21327157
0.10760559 -0.07322278 -0.13327539 0.021141602 -0.034260217 -0.14443164 0.02269246 0.25578782
-0.027731486 0.0486902 -0.019104809 0.075813934 -0.20447896 0.03296881 -0.29576725 0.32729563
-0.059660133 0.018018808 0.1411885 0.03754817 -0.025800338 -0.037265033 0.24184978 -0.08983374
-0.024209755 0.24279068 0.13660692 -0.13550425 0.03187487 -0.22322051 -0.15989509 -0.005393347
0.016291939 0.05355581 -0.07985904 0.14063132 0.28585702 -0.23137611 -0.048761576 -0.34287715
-0.21022484 0.08094251 -0.42811185 0.10158034 -0.08171701 0.39652556 -0.23186964 0.18441936
-0.09839367 -0.1203719 0.120185524 0.27071613 0.06989387 0.11205926 0.052290708 0.014068298
-0.065958776 0.28193673 -0.22178425 -0.31871507 0.102855735 -0.03923518 0.3610507 -0.028619641
-0.09550007 -0.30987802 -0.06953554 -0.050521135 -0.44594887 0.31034303 0.32981825 0.16537242
-0.0358622 -0.070312575 0.091544434 0.016831646 0.11834164 -0.022644209 -0.0063755508 -0.036548816
-0.20876046 0.48311362 -0.34346765 0.25168613 -0.21742952 0.18450041 -0.10304433 0.036345225
0.42193496 0.064777486 0.07151797 0.1849585 0.20904973 0.2337093 -0.02080871 0.19497845
0.22549425 -0.029519401 0.2561163 -0.3439623 0.14812669 -0.18314305 0.15590572 0.4076349
-0.07033437 -0.041646298 0.1304247 -0.101303875 0.040675268 -0.46824837 0.36901256 0.00690644
-0.15087467 0.031729702 0.05708202 -0.1105714 0.07697487 -0.07857487 0.011591028 0.20981592
0.289193 0.2535208 0.03911473 0.06577418 0.27040654 0.03531445 -0.10370414 0.1928622
-0.3523925 0.14938891 -0.07584607 0.083276555 0.23137571 0.29194504 0.06128016 -0.0889424
0.085503675 0.13420624 -0.0069326432 -0.12756956 0.19563432 -0.013564558 0.24420445 0.116908
-0.17747638 -0.39611915 -0.026446132 0.32507187 -0.18400724 -0.029108053 0.06615114 0.048362568
-0.23124067 -0.17268914 -0.06295378 0.11172096 -0.15085602 -0.28220528 0.360703 0.12864022
0.12128791 0.046738897 0.20208785 0.147704 -0.22075048 -0.23816097 0.28851405 0.16600527
0.14237033 0.094827496 0.14184526 -0.12648433 0.40526757 -0.17256473 -0.044422932 0.023015246
-0.08822984 0.046932925 0.064942084 0.1885728 -0.060565732 -0.19276696 0.08162399 -0.08408329
-0.11469687 0.07245763 -0.20361096 0.11787456 -0.09019382 0.12215851 0.19156516 0.15602982
0.325986 0.06727124 -0.1754488 -0.00040539485 -0.034873262 0.13886152 -0.3200236 0.09048452
0.047283616 -0.041612722 0.0049834847 -0.15596908 0.37392604 -0.07966254 0.25789934 0.08110181
-0.21569817 -0.016274525 -0.2596783 0.39360264 -0.40922332 0.023897374 -0.28844416 -0.1629183
0.39239144 -0.14797084 -0.056188986 -0.07631624 -0.21797653 -0.2344772 -0.04975462 0.16230705
-0.34834883 0.19576481 0.058007628 0.33309817 0.1935489 -0.045085315 0.30421898 -0.012581739
-0.19188266 0.038390737 -0.20623718 0.3408135 0.023152765 -0.23048656 0.121294655 0.08028864
00000000: de16 0e3e ff9c 2c3e 7081 2dbd c882 9abd
00000010: 098c bbbd 65f1 5abe 485b 24be 93a1 44be
00000020: 2d60 8cba 3bb3 9bbe 77e2 a4be d199 6e3e
00000030: 0d12 b43d 2eef 4bbe 27e8 623c dd63 5abe
00000040: 5260 dc3d d3f5 95bd 5879 08be 2731 ad3c
00000050: 7154 0cbd e3e5 13be 8ae5 b93c 9ff6 823e
00000060: 242d e3bc 606f 473d b081 9cbc 5644 9b3d
00000070: ef62 51be 4e0a 073d ce6e 97be 4b93 a73e
00000080: 2f5e 74bd 2e9c 933c b893 103e 1ccc 193d
00000090: 3b5b d3bc 38a3 18bd 78a7 773e c0fa b7bd
000000a0: 8953 c6bc 1f9e 783e afe2 0b3e a0c1 0abe
000000b0: 398f 023d eb93 64be 8abb 23be acba b0bb
000000c0: ac76 853c 565d 5b3d 238d a3bd a801 103e
000000d0: da5b 923e dced 6cbe 38ba 47bd 988d afbe
000000e0: 2e45 57be 30c5 a53d 7a31 dbbe 5a09 d03d
000000f0: 3f5b a7bd 6605 cb3e 3c6f 6dbe 6ed8 3c3e
00000100: 9f82 c9bd 8b85 f6bd d423 f63d 4e9b 8a3e
00000110: 8424 8f3d 537f e53d c82e 563d b87e 663c
00000120: 6515 87bd 035a 903e 691b 63be 9f2e a3be
00000130: 07a6 d23d 11b5 20bd a3db b83e bd73 eabc
00000140: 8a95 c3bd 55a8 9ebe a668 8ebd 40ef 4ebd
00000150: 6953 e4be 48e5 9e3e f0dd a83e 6357 293e
00000160: 3ee4 12bd 0a00 90bd a67b bb3d 85e2 893c
00000170: 1a5d f23d 5980 b9bc ffe9 d0bb 36b4 15bd
00000180: 4dc5 55be ab5a f73e feda afbe 01dd 803e
00000190: d8a5 5ebe aded 3c3e e808 d3bd bbde 143d
000001a0: dc07 d83e 0faa 843d 0378 923d c365 3d3e
000001b0: 2211 563e 7e51 6f3e 0777 aabc 6ea8 473e
000001c0: f7e7 663e acd2 f1bc ad21 833e d41b b0be
000001d0: 86ae 173e da89 3bbe c0a5 1f3e 86b5 d03e
000001e0: 770b 90bd 4f95 2abd 0d8e 053e 6878 cfbd
000001f0: 1c9b 263d 40be efbe 37ef bc3e 6b4f e23b
00000200: e47e 1abe 01f7 013d d6ce 693d 4273 e2bd
00000210: 00a5 9d3d ddeb a0bd 4ce8 3d3c fcd9 563e
00000220: 1b11 943e 7acd 813e c436 203d 9db4 863d
00000230: ba72 8a3e e2a5 103d d662 d4bd ab7d 453e
00000240: ca6c b4be 68f9 183e 2f55 9bbd e68c aa3d
00000250: c1ed 6c3e d279 953e e800 7b3d 6f27 b6bd
00000260: 8d1c af3d 5c6d 093e 3a2b e3bb 98a1 02be
00000270: 5d54 483e e13d 5ebc bb10 7a3e 766d ef3d
00000280: 5ebc 35be 21d0 cabe 8fa5 d8bc d26f a63e
00000290: 656c 3cbe 0374 eebc 407a 873d d417 463d
000002a0: 5bca 6cbe 6cd5 30be e9ed 80bd f5cd e43d
000002b0: 007a 1abe 367d 90be 10ae b83e 43ba 033e
000002c0: cc65 f83d 4971 3f3d 1ef0 4e3e b83f 173e
000002d0: 6a0c 62be 78e0 73be 1db8 933e 49fd 293e
000002e0: 87c9 113e eb34 c23d e23f 113e 1c85 01be
000002f0: 3b7f cf3e cfb4 30be d2f4 35bd 788a bc3c
00000300: d9b1 b4bd bd3c 403d 5b00 853d 3a19 413e
00000310: c613 78bd b464 45be 7a2a a73d dc33 acbd
00000320: 31e6 eabd aa64 943d 647f 50be 3868 f13d
00000330: 8ab7 b8bd 3e2e fa3d a829 443e 48c6 1f3e
00000340: a3e7 a63e 81c5 893d daa8 33be 2d8b d4b9
00000350: 44d7 0ebd b731 0e3e 22da a3be f34f b93d
00000360: 77ac 413d 1a72 2abd 804c a33b 5cb6 1fbe
00000370: 3c73 bf3e 1d26 a3bd 620b 843e b518 a63d
00000380: fbdf 5cbe 2752 85bc 8ef4 84be 4986 c93e
00000390: b885 d1be 6dc4 c33c f4ae 93be 0ed4 26be
000003a0: 88e7 c83e ab85 17be 6c26 66bd b04b 9cbd
000003b0: 3d35 5fbe cb1a 70be 80cb 4bbd d233 263e
000003c0: c75a b2be 9276 483e 6899 6d3d d88b aa3e
000003d0: af31 463e 61ab 38bd 97c2 9b3e a323 4ebc
000003e0: e37c 44be 9b3f 1d3d d72f 53be 1b7f ae3e
000003f0: deaa bd3c ab04 6cbe 5569 f83d 5f6e a43d

network_body._body_endoder.seq_layers.0.bias f4 [256]
0.0012752941 -0.014765302 -0.0020849693 0.014821201 0.015510629 0.009251967 0.005755952 0.014099196
0.01639866 0.010500187 0.0012053428 0.018603422 0.002670577 0.007029215 0.0046348386 -0.011924338
0.009217013 0.0126112215 0.014605674 -0.0015437234 0.012624308 0.010977227 0.010413259 0.0061703655
-0.0070137433 0.0001343902 0.014586815 0.011684047 0.014923074 0.01375781 0.012333547 -0.0092799915
0.0038234703 0.0058478285 0.013046134 -0.0084868735 0.0098409075 0.013277158 0.0112547185 0.013130531
0.016625537 -0.0065816557 0.015441281 -0.0030303176 -0.010066317 -0.0018516831 0.020247143 -0.009964585
0.015106729 0.00087472773 -0.008884597 0.01629238 0.0037070948 0.009936357 0.01960297 0.008123889
0.015666652 0.013801872 0.009926628 -0.004073626 0.013996856 0.009187865 -0.0010255749 0.015738526
0.006860315 0.001721908 0.026783658 -0.0020604874 0.017133486 0.018256802 0.0020362684 0.009775232
0.0052686683 0.007489318 -0.0025630048 0.0068678665 0.016234234 -0.002021653 0.0055831308 0.013046723
-0.003178121 0.012213614 0.014225426 0.018737983 0.007274276 0.012123626 0.012898767 0.0064293277
-0.007036067 -0.012935478 -0.011261625 0.004745686 0.0032526313 -0.0078111216 0.0036900865 0.015538372
-0.009459312 -0.0040573785 0.011732556 0.013230639 0.0028441765 0.020228865 0.0016250663 0.011498405
0.010982673 -0.011057546 -0.000851401 -0.0027097715 0.0124438945 -0.0043874946 -0.004723336 0.017079556
0.014599588 0.0065950043 0.005941888 -0.0031471464 -0.0014483307 0.012926141 -0.010083865 0.02195309
-0.005809265 0.00956862 0.009116915 0.000572354 -0.010362827 -0.012491841 0.018911533 0.007933154
0.008162667 -0.014211712 0.009135504 0.011404792 -0.006442051 -0.008977817 -0.002384994 -0.010426673
0.024046227 0.018879108 0.014181861 0.010996198 0.0031227102 0.017434442 0.017270776 0.012914518
0.008158041 0.016860854 0.007970461 -0.0070585734 0.015379488 0.003577037 0.013048261 -0.009477641
0.0038847155 0.012099208 0.013327538 -0.010218252 0.028906832 0.017697474 0.0040231063 0.014793066
0.013270441 0.009190282 -0.008121347 0.0072593186 0.009781521 0.0098523535 -0.0022258996 -0.004608314
0.010999287 0.0065395474 0.0017357703 0.011875047 0.0031642742 0.013686332 0.012981654 -0.0013233083
0.015196806 0.012938737 0.021258062 0.028277917 0.020237252 0.004307412 0.006471668 0.016002685
-0.0018444043 0.012627156 0.024759846 -0.0028533544 0.017331894 0.012971595 0.01312796 -0.0048088063
-0.013182399 0.00393741 0.012236378 -0.0011597093 -0.010119446 -0.0033258658 0.00054541277 -0.009346875
-0.0043281233 -0.008493316 -0.008985679 -0.0054038754 -0.016717412 0.0020216813 0.018095253 0.012518461
0.0035734286 0.009923602 0.014356534 -0.0047583715 0.013555095 0.013382849 0.012939498 0.014391682
0.012013521 0.007931466 0.020904317 -0.000577754 -0.008126254 -0.003023581 0.019146832 0.018396175
0.014555428 -0.009177789 0.018416552 -0.011312583 0.010972229 0.0040466306 0.009372804 0.011036443
0.011202599 0.015039098 0.011446908 0.0005199025 -0.0117646465 0.010400516 -0.005467728 0.009863514
0.007806847 0.0015846774 0.016311832 0.005029025 0.018360082 0.0088845035 -0.0024391506 0.00030160538
0.012420727 -0.013259468 0.008536057 -0.009749775 0.015475415 0.012132376 -0.008123901 0.018816357
00000000: c527 a73a 2aea 71bc fba3 08bb 9fd4 723c
00000010: 4b20 7e3c 9095 173c 6d9c bc3b 5000 673c
00000020: 7c56 863c fa08 2c3c 98fc 9d3a 3466 983c
00000030: d904 2f3b 5455 e63b d8df 973b 4c5e 43bc
00000040: f402 173c 4c9f 4e3c a34c 6f3c c356 caba
00000050: 2fd6 4e3c d4d9 333c 609c 2a3c c730 ca3b
00000060: 8bd3 e5bb 18eb 0c39 89fd 6e3c 726e 3f3c
00000070: e97f 743c 7068 613c a512 4a3c 1b0b 18bc
00000080: 3093 7a3b 249f bf3b 74bf 553c 870c 0bbc
00000090: c23b 213c 7088 593c b665 383c 7021 573c
000000a0: 4732 883c eeaa d7bb 6dfd 7c3c 4b98 46bb
000000b0: 32ed 24bc 2db4 f2ba 56dd a53c 8042 23bc
000000c0: 3782 773c fc4d 653a b390 11bc 9977 853c
000000d0: bbf2 723b 1acc 223c 6896 a03c 0f1a 053c
000000e0: 5a57 803c 3f21 623c 4ca3 223c 0d7c 85bb
000000f0: 1253 653c b388 163c 956c 86ba 15ee 803c
00000100: 7ecc e03b a5b1 e13a 6769 db3c 3e09 07bb
00000110: 865b 8c3c 4a8f 953c ea72 053b 4b28 203c
00000120: cba4 ac3b f468 f53b 16f8 27bb d70b e13b
00000130: a8fd 843c b67d 04bb b2f2 b63b ecc1 553c
00000140: 0648 50bb 9c1b 483c c311 693c 6680 993c
00000150: 0d5d ee3b 2ca2 463c 5a55 533c 1cad d23b
00000160: cf8e e6bb 54ef 53bc ae82 38bc b381 9b3b
00000170: 192a 553b 70f4 ffbb 61d5 713b a894 7e3c
00000180: 3bfb 1abc c2f3 84bb e839 403c 52c5 583c
00000190: 5d65 3a3b 01b7 a53c 2d00 d53a ce63 3c3c
000001a0: abf0 333c b62a 35bc 8e30 5fba 6c96 31bb
000001b0: 7ae1 4b3c f9c4 8fbb 37c6 9abb 6dea 8b3c
000001c0: 1c33 6f3c e81a d83b 2bb4 c23b 5b40 4ebb
000001d0: ead5 bdba 2ac8 533c cc36 25bc f7d6 b33c
000001e0: a65b bebb b3c5 1c3c 1d5f 153c 070a 163a
000001f0: d9c8 29bc 94aa 4cbc 5cec 9a3c 0ffa 013c
00000200: b5bc 053c 3ed8 68bc 15ad 153c 2adb 3a3c
00000210: d717 d3bb b217 13bc 8f4d 1cbb a3d4 2abc
00000220: 98fc c43c 5ca8 9a3c 095b 683c 6629 343c
00000230: 62a6 4c3b add2 8e3c 717b 8d3c 6a97 533c
00000240: 4ea9 053c c61f 8a3c 8996 023c 9b4b e7bb
00000250: 3ffa 7b3c b96c 6a3b 60c8 553c 1c48 1bbc
00000260: b696 7e3b c23b 463c bf5b 5a3c 756a 27bc
00000270: 05ce ec3c 4bfa 903c 43d4 833b 9e5e 723c
00000280: 446c 593c d692 163c 660f 05bc 94df ed3b
00000290: ac42 203c c46b 213c 66e0 11bb 5701 97bb
000002a0: 5a36 343c b349 d63b c982 e33a 8f8f 423c
000002b0: b65f 4f3b a33c 603c 01b1 543c dc72 adba
000002c0: 06fc 783c fffc 533c 6325 ae3c 17a7 e73c
000002d0: 98c8 a53c 3125 8d3b 4910 d43b 1018 833c
000002e0: f0bf f1ba 22e2 4e3c 29d5 ca3c 58ff 3abb
000002f0: 9efb 8d3c d086 543c a816 573c 3193 9dbb
00000300: fdfa 57bc 6405 813b 177b 483c 6301 98ba
00000310: 08cc 25bc c5f6 59bb 08fa 0e3a a323 19bc
00000320: eed2 8dbb 8d27 0bbc ab38 13bc fe12 b1bb
00000330: f4f2 88bc 2f7e 043b 7f3c 943c 3b1a 4d3c
00000340: 2f30 6a3b 9b96 223c ab37 6b3c 1dec 9bbb
00000350: 3016 5e3c bd43 5b3c 3000 543c 17cb 6b3c
00000360: 5cd4 443c fbf2 013c 883f ab3c 6a74 17ba
00000370: fb23 05bc 4627 46bb d1d9 9c3c 93b3 963c
00000380: e479 6e3c 705e 16bc 4fde 963c 6a58 39bc
00000390: ddc4 333c 9999 843b 6490 193c 32d2 343c
000003a0: 1b8b 373c 8d66 763c d08b 3b3c 114a 083a
000003b0: 81c0 40bc ed66 2a3c a02a b3bb 949a 213c
000003c0: 94d0 ff3b f3b4 cf3a 64a0 853c 85ca a43b
000003d0: e267 963c 4f90 113c 28da 1fbb ca20 9e39
000003e0: 4e80 4b3c 3d3e 59bc d1da 0b3c 85bd 1fbc
000003f0: 988c 7d3c e0c6 463c 1c1a 05bc c324 9a3c

network_body._body_endoder.seq_layers.2.weight f4 [256, 256]
-0.01793768 -0.059994753 0.11710963 0.06219091 0.09143627 -0.015914682 0.03243158 -0.097503684
0.016690215 0.036780354 0.0070495056 0.08811749 0.04883143 0.03464168 -0.046855513 0.019161906
0.04412545 -0.15363899 0.021363357 0.04428338 0.01889757 0.0013522017 0.041850183 -0.0022900202
0.11638733 -0.042637844 -0.094921775 0.012563773 0.0013689928 -0.079648666 -0.002242729 -0.11811088
0.0033624019 0.034053773 -0.08199602 -0.0660458 0.028209453 0.022451518 0.06265819 0.03140489
0.00076596247 0.0056333942 0.008697098 0.008408793 -0.07871053 -0.004393335 -0.032031253 -0.05041365
-0.029310014 -0.064971924 -0.055264093 0.027546508 0.020406198 0.042668782 -0.0059546274 0.05101058
0.078389585 0.08009081 0.09575887 -0.045136213 -0.10737859 0.16828598 -0.031373955 -0.0077477847
-0.017578255 0.03208325 0.04237068 0.05925182 -0.0007325938 0.112680785 -0.09283195 0.002059404
-0.01358805 0.043871846 -0.010003743 0.0412793 -0.00071572047 0.10563386 0.010215133 0.010840687
0.023634093 -0.09037188 0.21042661 0.022306481 0.039686065 -0.011413349 -0.053856976 0.004104436
-0.030931525 -0.058995876 -0.048964046 -0.04158003 -0.023725329 -0.026720013 0.009490205 0.095381625
0.019358765 -0.046161294 0.072491094 0.035874095 -0.033620484 0.036190357 -0.02031822 0.02124153
-0.06687031 0.19290233 -0.06693675 0.10861708 0.007050606 0.07078612 -0.09473818 -0.029617447
0.015356485 -0.09622157 -0.0942021 -0.05650128 0.0048024342 -0.050873 -0.014173058 0.07560722
-0.041263282 0.020210313 -0.013211307 0.07292339 0.023040853 -0.075062856 0.043496475 -0.026294662
0.15921912 -0.07189971 -0.029531194 -0.024165522 -0.0049289 -0.052968577 0.055041764 -0.108052135
0.03377425 0.012197366 -0.07663603 0.018931614 -0.10353934 0.04143341 0.022923676 0.05671598
0.10000229 0.082160346 0.0077351676 0.0486861 0.010828478 0.07170445 -0.13366947 -0.071151085
0.11112341 -0.0019048753 -0.039271798 0.032470483 0.016441692 -0.07362814 -0.008459215 -0.038892977
-0.04676689 0.003517693 -0.039731745 0.02110641 0.04331521 0.058353506 0.0034723273 -0.023864606
0.05768189 -0.02568199 0.028804604 -0.027382897 0.012849667 0.058854114 -0.09155272 0.05668311
0.028789245 0.008357678 -0.006181581 0.0048317597 0.018924242 -0.003956775 0.025082024 -0.018174255
-0.09733001 0.01682923 0.03626113 -0.093279175 0.022344796 0.024790019 0.024232911 -0.0042767026
-0.07845048 0.03256419 0.020036241 -0.0986421 -0.025823388 0.11410801 0.0117147695 -0.15065466
0.0060795816 -0.048928887 0.01775056 0.06805527 -0.0062559294 0.025838835 0.02363525 -0.021664105
-0.023521539 0.045213796 0.03764085 0.07756435 0.05432501 -0.057173654 -0.011600956 -0.016806057
0.11612932 0.0174288 0.028423235 0.06756475 -0.00895847 -0.053602513 -0.06291548 -0.05226983
0.07231964 -0.053034853 0.11361348 0.05412839 -0.010300422 0.06272249 0.03006674 0.06521759
0.004034938 -0.05015632 0.055187203 0.0041095573 -0.015208736 0.011717793 -0.075108394 -0.056048743
0.024893943 0.016569199 0.06116511 -0.04255082 -0.12303845 -0.006758123 0.05555682 -0.07402146
0.0068600914 -0.024362503 0.01036871 -0.025454545 0.0008821945 0.021972097 0.07247234 -0.053038508
00000000: 0bf2 92bc 0fbd 75bd 2cd7 ef3d e5bb 7e3d
00000010: f042 bb3d 825f 82bc fad6 043d 03b0 c7bd
00000020: ebb9 883c ffa6 163d 8aff e63b f176 b43d
00000030: 7703 483d 6fe4 0d3d 91eb 3fbd 6ef9 9c3c
00000040: e3bc 343d 8a53 1dbe 3502 af3c 7d62 353d
00000050: 14cf 9a3c 5c3c b13a 196b 2b3d 2a14 16bb
00000060: 7b5c ee3d 05a5 2ebd 5966 c2bd 49d8 4d3c
00000070: c76f b33a d71e a3bd c0fa 12bb 1ee4 f1bd
00000080: be5b 5c3b f87b 0b3d 88ed a7bd 0543 87bd
00000090: 8317 e73c 3fec b73c f052 803d 6aa2 003d
000000a0: dfca 483a 5698 b83b 467e 0e3c 09c5 093c
000000b0: fd32 a1bd f7f5 8fbb 3433 03bd 8b7e 4ebd
000000c0: 8e1b f0bc 0010 85bd 9a5c 62bd 37a9 e13c
000000d0: e62a a73c 76c5 2e3d 091f c3bb 78f0 503d
000000e0: b88a a03d a706 a43d 3a1d c43d c0e0 38bd
000000f0: 4ee9 dbbd 2953 2c3e fa81 00bd 21e1 fdbb
00000100: 4600 90bc ba69 033d e18c 2d3d 09b2 723d
00000110: 8a0b 40ba 2fc5 e63d ad1e bebd 11f7 063b
00000120: 6aa0 5ebc f7b2 333d bde6 23bc 7c14 293d
00000130: 309f 3bba 9156 d83d 605d 273c 239d 313c
00000140: 499c c13c e414 b9bd 137a 573e 15bc b63c
00000150: db8d 223d 0eff 3abc 2299 5cbd 817e 863b
00000160: 1c64 fdbc a9a5 71bd 868e 48bd d24f 2abd
00000170: 9f5b c2bc eee3 dabc ce7c 1b3c 7157 c33d
00000180: 4696 9e3c a013 3dbd 3676 943d b7f0 123d
00000190: a2b5 09bd 573c 143d 6572 a6bc b802 ae3c
000001a0: 4df3 88bd 3088 453e 2316 89bd a272 de3d
000001b0: c508 e73b 50f8 903d 1706 c2bd 4aa0 f2bc
000001c0: c499 7b3c d10f c5bd 08ed c0bd e36d 67bd
000001d0: bd5d 9d3b 3560 50bd 1d36 68bc f5d7 9a3d
000001e0: b003 29bd 1990 a53c 3d74 58bc dc58 953d
000001f0: 2cc0 bc3c 8eba 99bd 5c29 323d e767 d7bc
00000200: 560a 233e 2840 93bd 67eb f1bc c6f6 c5bc
00000210: 9c82 a1bb 94f5 58bd 7973 613d 704a ddbd
00000220: de56 0a3d 76d7 473c 5af3 9cbd 7916 9b3c
00000230: 6f0c d4bd 14b6 293d 6fca bb3c 044f 683d
00000240: 00ce cc3d af43 a83d 4a77 fd3b 136b 473d
00000250: ee69 313c c8d9 923d a6e0 08be a9b7 91bd
00000260: ac94 e33d 02ad f9ba 77db 20bd c5ff 043d
00000270: bab0 863c 5aca 96bd 8598 0abc 3e4e 1fbd
00000280: a38e 3fbd 1889 663b c1bd 22bd 5ae7 ac3c
00000290: 4a6b 313d 1604 6f3d fc8f 633b b57f c3bc
000002a0: d843 6c3d 0963 d2bc a2f7 eb3c 1952 e0bc
000002b0: 6987 523c 0311 713d fe7f bbbd 8c2c 683d
000002c0: 6cd7 eb3c a4ee 083c dc8e cabb bd53 9e3b
000002d0: 0307 9b3c d6a7 81bb d178 cd3c 2de2 94bc
000002e0: f554 c7bd 74dd 893c 8d86 143d 2709 bfbd
000002f0: 6f0c b73c 7014 cb3c 1984 c63c 9523 8cbb
00000300: a5aa a0bd 0762 053d 0b23 a43c df04 cabd
00000310: 928b d3bc 76b1 e93d 4eef 3f3c 3745 1abe
00000320: 3a37 c73b a869 48bd 9f69 913c 9060 8b3d
00000330: 8afe ccbb f7ab d33c b69e c13c ec78 b1bc
00000340: 3eb0 c0bc 1a32 393d 4b2d 1a3d 0fda 9e3d
00000350: e783 5e3d ec2e 6abd f011 3ebc dbac 89bc
00000360: 35d5 ed3d d8c6 8e3c d8d7 e83c 635f 8a3d
00000370: 8cc6 12bc 4f8e 5bbd d5d9 80bd e418 56bd
00000380: 521c 943d 133b 59bd 2fae e83d bbb5 5d3d
00000390: 1ac3 28bc a674 803d 864e f63c cd90 853d
000003a0: 8337 843b b770 4dbd fa0b 623d 77a9 863b
000003b0: 102e 79bc fcfb 3f3c 6ed2 99bd 5e93 65bd
000003c0: 62ee cb3c 21bc 873c 4488 7a3d c549 2ebd
000003d0: 95fb fbbd 3f73 ddbb 8c8f 633d 9098 97bd
000003e0: 9eca e03b df93 c7bc 86e1 293c 0d86 d0bc
000003f0: 1243 673a d4fe b33c 616c 943d e83e 59bd

network_body._body_endoder.seq_layers.2.bias f4 [256]
0.007951771 0.018025395 -0.013086588 0.019155601 0.017489377 0.018736653 0.008427023 -0.012743078
-0.009485176 -0.007130906 0.00744725 -0.0004375589 -0.0034300557 0.010032471 0.009650548 -0.0023776158
0.022687009 0.0035561714 -0.0025923771 -0.007513285 -0.003791519 0.013556064 -0.0019809343 -0.0077914125
0.003689529 0.010194416 0.021770183 -0.00048201033 0.0035548618 0.011070477 -0.0014581253 -0.00846132
-0.006506293 0.020631872 -0.007377413 0.0057079415 -0.0042027356 -0.0073953504 0.0086236 -0.0065034796
-0.005149341 -0.00927377 0.005672453 -0.006835816 -0.0068508564 -0.0053936914 0.00014223464 0.01430343
-0.0014504392 0.013044838 -0.009377523 -0.010832133 0.0053109596 0.008652124 -0.008283718 0.0064719254
-0.0033436525 0.01149673 -0.0007547142 -0.00021362022 0.009937211 0.0109999925 -0.0010089873 0.012012539
0.008408561 -0.001795811 0.009855867 -0.0024881568 -0.0064599626 0.0033162984 -0.0071200174 -0.0152942715
0.002149834 0.010844753 0.005635425 -0.0018095946 0.006776687 -0.0064411587 -0.007236085 0.010551558
-0.0066465572 0.010768534 0.010305661 0.0059568323 -0.010957642 0.012997443 -0.008051082 0.014272486
-0.011583115 -0.011287737 -0.0043073073 0.01676045 -0.010947427 0.018591663 -0.005816624 0.0055880044
0.012334228 0.0057416474 0.020220242 -0.008035095 0.00064784975 -0.0022551469 0.006445906 -7.292385e-05
-0.007202377 -0.008738452 0.00034276783 0.014998114 0.005201859 0.012215041 -0.013722961 0.017386094
0.0026481852 0.009966487 0.0146987345 0.012677697 -0.0021826637 4.9515937e-05 0.011192998 -0.011002904
0.014657636 0.0052959705 0.015857344 -0.005370818 -0.007186 -0.0113630565 0.012936804 0.016177667
-0.010829369 -0.0023077002 -0.0127599025 -0.0018217515 -0.006565814 0.013051029 -0.002064774 0.016471876
-0.009855675 0.015307788 -0.01009328 -0.0045376047 0.016516978 -0.009603081 0.004931688 -0.008569955
0.007535429 0.008192114 0.016520755 -0.002177725 0.007984058 -0.013689383 0.0031535258 0.01983046
-0.010014538 0.0046316935 0.018317198 -0.0052192155 0.022746626 0.015694594 0.011225879 -0.0050740913
-0.009849556 0.018916717 -0.009475108 -0.0039766636 -0.0032872998 -0.0018702067 -0.012162776 0.005223327
0.018187532 -0.0016521148 0.001118227 0.011522872 0.010669135 -0.00849775 0.0077659697 -0.004620765
-0.002381783 0.005611739 0.0065871095 0.008928716 -0.009179166 0.0150250085 -0.0044078594 -0.010086621
-0.0034229285 -0.0070855394 0.010834364 0.009061689 -0.005729621 0.011623411 -0.006842936 -0.006601995
0.0063399845 -0.0065636374 0.006593992 0.00058819854 -0.0016266417 0.00024335146 0.014524658 -0.013874787
0.0060356166 -0.004330468 0.011876782 0.0028023727 -0.0046897833 0.011656628 0.013589041 0.01659527
-0.0060147545 0.0094204 0.018881023 -0.0069161323 0.011837108 -0.0034484284 -0.011023473 -0.013937253
0.009199452 -0.006134249 0.015223712 -0.00015305559 0.010699316 -0.0013890926 -0.0011135609 -0.007876279
0.015295742 0.005424296 0.0051330198 0.0006911533 -0.007857679 0.012219243 -0.00041219578 -0.0037008945
0.006315118 0.008725235 -0.0046133474 -0.0044609183 0.015121783 0.0022795615 0.00016563309 0.0014940593
-0.002908386 -0.0068018166 -0.0010034561 0.014951963 -0.006845189 0.0026539946 -0.003667798 0.013678951
-0.0018722683 0.014752114 0.016085811 -0.0032320737 0.00082574633 -0.0036724126 0.01440945 -0.0064536463
00000000: 2548 023c fea9 933c 2169 56bc 35ec 9c3c
00000010: e245 8f3c 9c7d 993c 7f11 0a3c 58c8 50bc
00000020: b667 1bbc 60aa e9bb 1008 f43b 2968 e5b9
00000030: c9ca 60bb 3c5f 243c 551d 1e3c c6d1 1bbb
00000040: 1bda b93c a80e 693b dfe4 29bb 0132 f6bb
00000050: 227b 78bb 411a 5e3c 90d2 01bb 1b4f ffbb
00000060: 06cc 713b 7b06 273c 6257 b23c 55b6 fcb9
00000070: aff8 683b f260 353c 911e bfba 59a1 0abc
00000080: be32 d5bb 2c04 a93c 3abe f1bb af09 bb3b
00000090: 1ab7 89bb b254 f2bb 004a 0d3c 241b d5bb
000000a0: cebb a8bb 03f1 17bc fcdf b93b fbfe dfbb
000000b0: 267d e0bb 90bd b0bb d224 1539 ef58 6a3c
000000c0: aa1c beba 04ba 553c 2fa4 19bc 4279 31bc
000000d0: 8f07 ae3b a3c1 0d3c 6eb8 07bc 7212 d43b
000000e0: 2e21 5bbb c85c 3c3c 03d8 45ba 3eff 5fb9
000000f0: afcf 223c 5039 343c ff3f 84ba 3ed0 443c
00000100: 10c4 093c 6b61 ebba 817a 213c 5810 23bb
00000110: 18ae d3bb 4156 593b 094f e9bb d394 7abc
00000120: 3be4 0c3b 31ae 313c 5fa9 b83b eb2f edba
00000130: f90e de3b 5b10 d3bb ae1c edbb 71e0 2c3c
00000140: 5dcb d9bb 816e 303c 13d9 283c 8831 c33b
00000150: af87 33bc 3af3 543c afe8 03bc 25d7 693c
00000160: 1bc7 3dbc 33f0 38bc 5024 8dbb 364d 893c
00000170: d65c 33bc 8b4d 983c 6199 bebb 941b b73b
00000180: 8015 4a3c 6e24 bc3b eca4 a53c a2a5 03bc
00000190: 76d4 293a 16cb 13bb 2e38 d33b b2ee 98b8
000001a0: eb01 ecbb b92b 0fbc 85b5 b339 a6ba 753c
000001b0: 5b74 aa3b 9821 483c 45d6 60bc 486d 8e3c
000001c0: 2d8d 2d3b 7a4a 233c f6d2 703c 1eb6 4f3c
000001d0: 050b 0fbb 55af 4f38 d662 373c 8645 34bc
000001e0: 9526 703c d289 ad3b 43e7 813c b0fd afbb
000001f0: 8978 ebbb 1d2c 3abc e4f4 533c 0787 843c
00000200: aa6d 31bc c93c 17bb e90e 51bc d6c7 eeba
00000210: 0a26 d7bb fcd3 553c 2951 07bb 07f0 863c
00000220: b279 21bc 84cd 7a3c 495e 25bc 30b0 94bb
00000230: 9d4e 873c 3e56 1dbc ff99 a13b ff68 0cbc
00000240: c3eb f63b 3738 063c 8956 873c 2ab8 0ebb
00000250: 91cf 023c 6f49 60bc 62ab 4e3b 7d73 a23c
00000260: 0414 24bc 76c5 973b f30d 963c f405 abbb
00000270: 2257 ba3c f391 803c c0ec 373c 9044 a6bb
00000280: 0860 21bc 3bf7 9a3c 7c3d 1bbc ac4e 82bb
00000290: bd6f 57bb b921 f5ba 6146 47bc 7128 ab3b
000002a0: 05fe 943c c68b d8ba 7991 923a 6eca 3c3c
000002b0: 98cd 2e3c 263a 0bbc ad79 fe3b c969 97bb
000002c0: b017 1cbb aee2 b73b aed8 d73b c049 123c
000002d0: 3664 16bc 742b 763c ce6f 90bb 5b42 25bc
000002e0: 3653 60bb d02d e8bb 9e82 313c 7a77 143c
000002f0: 8bbf bbbb 1f70 3e3c b53a e0bb 8c55 d8bb
00000300: a5bf cf3b c813 d7bb 6a12 d83b 5631 1a3a
00000310: 0a35 d5ba 292c 7f39 d5f8 6d3c 1353 63bc
00000320: 6cc6 c53b 99e6 8dbb d696 423c 03a8 373b
00000330: c1ac 99bb 71fb 3e3c 92a4 5e3c cef2 873c
00000340: 6b17 c5bb 0558 1a3c 60ac 9a3c b9a0 e2bb
00000350: 6ef0 413c 07ff 61bb cc9b 34bc 1359 64bc
00000360: 4cb9 163c cf01 c9bb e06c 793c 8c7d 20b9
00000370: 2f4c 2f3c 3712 b6ba e7f4 91ba 820b 01bc
00000380: fe9a 7a3c 4bbe b13b e432 a83b 832e 353a
00000390: 7fbd 00bc 3833 483c fb1b d8b9 b58a 72bb
000003a0: 0def ce3b 4af4 0e3c 902b 97bb e52c 92bb
000003b0: 5bc1 773c b264 153b cbad 2d39 50d4 c33a
000003c0: 9f9a 3ebb c6e1 debb 6686 83ba 14f9 743c
000003d0: 9b4d e0bb a4ee 2d3b 705f 70bb ae1d 603c
000003e0: e666 f5ba dab2 713c 64c6 833c 33d1 53bb
000003f0: e676 583a dcac 70bb 9d15 6c3c 1c79 d3bb

network_body._body_endoder.seq_layers.4.weight f4 [256, 256]
0.11309029 0.09429913 -0.052474998 -0.042493843 0.027746985 -0.011931058 0.027150057 0.008828598
0.074410774 0.066789396 0.015210767 -0.08798735 0.008762568 -0.09072105 0.051381942 -0.02894646
0.022465093 -0.09198153 -0.0635538 0.005951218 -0.06804119 -0.019621281 -0.056299992 0.017391326
-0.019939724 0.00623683 -0.09769791 0.020992845 0.118048444 0.011140129 0.07738855 -0.07704105
-0.0059579853 -0.03959068 0.043821715 0.050664533 0.056059226 0.017726433 0.03750195 0.056876443
0.03048098 -0.03210131 -0.06926346 0.07307333 -0.082538016 0.019915381 -0.01830959 -0.028044716
-0.081368774 -0.0017390989 0.053241555 -0.0061355457 -0.047429185 0.0065109655 -0.039192908 0.028924217
0.05609476 0.047053333 -0.028156064 -0.06477968 0.09931755 0.0442925 0.021367852 -0.057157613
-0.07755084 0.030526416 0.015650446 0.062401146 -0.00021634882 0.011294335 -0.12695782 0.026972113
0.07459051 -0.056386918 -0.022870462 -0.0228451 0.0706479 0.015586043 0.013662344 0.056841698
-0.023046339 0.024948964 0.047250412 -0.0155771375 0.10231761 -0.048407473 0.008912253 -0.0020304034
0.03675964 0.03457748 0.03481267 0.10543971 0.12412493 0.05304992 -0.068445124 0.008508607
0.042303305 0.013980012 -0.0027758128 -0.10030077 0.022577161 0.019681752 -0.11050547 0.12690109
-0.12319636 -0.003223763 0.07421096 -0.0594553 -0.12729168 0.0021254318 0.05963749 -0.02567318
-0.032530617 0.011681451 -0.020646239 0.08300772 0.02759405 -0.05928817 -0.09115916 0.089925446
-0.086371414 -0.013380615 -0.017319212 0.079807416 0.03631372 0.04478971 0.05537192 -0.0067093293
0.013358316 0.0496074 -0.031325124 0.03574079 0.020423384 0.049916103 -0.106011525 0.0043380633
0.052133184 0.03672832 0.016952785 -0.029766839 0.0061974875 -0.067816995 -0.001708156 -0.05532309
0.028526736 -0.00022553143 -0.0076975347 -0.018050287 -0.011136144 0.058461018 -0.05876455 -0.01963821
0.0674003 0.032364946 0.04281017 0.13194783 -0.029685168 -0.044411626 0.02090219 0.027589766
0.010604965 0.011198438 -0.039314277 -0.054832153 -0.08289499 0.043237463 -0.11248962 -0.041010506
0.008093604 -0.008673307 0.082192644 0.055384863 -0.1143239 0.050054893 -0.010970656 -0.0723858
-0.038400814 -0.08477386 -0.03345343 0.08410392 -0.05243044 -0.08107499 -0.09138744 0.04511434
0.052890103 0.034587678 -0.0049698446 -0.03448486 -0.15297872 0.00549093 0.049692616 0.038051367
0.003578118 0.062338732 -0.058908504 0.08586497 0.033243027 -0.0074235974 -0.012156562 0.05073143
0.10585194 -0.06199496 0.08494958 0.049108136 0.06513764 -0.016828064 0.017365467 -0.07233626
-0.019148212 0.052209653 0.11495047 -0.05527632 0.04704792 0.029488884 -0.05479947 -0.06710921
-0.089710616 0.036489755 -0.10804749 0.08468996 0.08189984 0.0010858497 -0.09284225 0.049927525
0.0271589 -0.04629859 0.13782245 0.10557915 0.13594612 0.019317066 0.0059761303 0.11482437
-0.056797795 -0.039211027 0.027545378 -0.04719884 -0.011041133 0.03713054 0.030753117 -0.0123553965
-0.14615399 0.097104885 0.074738905 -0.08324954 -0.022027414 0.0046793655 -0.0019560035 0.04078372
-0.04581075 0.020609502 -0.04043457 -0.008512302 -0.08543182 -0.03464827 0.058370233 -0.045212705
00000000: e29b e73d e71f c13d 06f0 56bd 060e 2ebd
00000010: a54d e33c 7c7a 43bc cc69 de3c d3a5 103c
00000020: ad64 983d e1c8 883d 9536 793c b632 b4bd
00000030: e090 0f3c f5cb b9bd df75 523d 2021 edbc
00000040: b708 b83c d060 bcbd 7f28 82bd 6f02 c33b
00000050: 2e59 8bbd cfbc a0bc d29a 66bd 4178 8e3c
00000060: a258 a3bc 525e cc3b d815 c8bd 30f9 ab3c
00000070: 62c3 f13d 1685 363c e37d 9e3d b3c7 9dbd
00000080: 343b c3bb d629 22bd 667e 333d 9d85 4f3d
00000090: 5c9e 653d 0637 913c a59b 193d 46f7 683d
000000a0: 40b3 f93c aa7c 03bd 00da 8dbd 78a7 953d
000000b0: b109 a9bd 9525 a33c fefd 95bc 08be e5bc
000000c0: aca4 a6bd 7af2 e3ba d113 5a3d b00c c9bb
000000d0: 1b45 42bd f059 d53b be88 20bd 7bf2 ec3c
000000e0: 9ec3 653d ffba 403d 8ca7 e6bc 35ab 84bd
000000f0: 0067 cb3d 0d6c 353d a20b af3c 1a1e 6abd
00000100: fad2 9ebd 8912 fa3c 5d35 803c 5898 7f3d
00000110: b2db 62b9 e00b 393c 3b01 02be 9ff4 dc3c
00000120: e9c2 983d f8f5 66bd d65a bbbc a625 bbbc
00000130: d9af 903d 9a5c 7f3c 06d8 5f3c d7d2 683d
00000140: adcb bcbc c561 cc3c a689 413d 4037 7fbc
00000150: e58b d13d ea46 46bd b304 123c 8410 05bb
00000160: 4791 163d 1ea1 0d3d bb97 0e3d c6f0 d73d
00000170: 3635 fe3d df4a 593d f52c 8cbd af67 0b3c
00000180: 3b46 2d3d 6c0c 653c 69ea 35bb 7d6a cdbd
00000190: bdf3 b83c a03b a13c b150 e2bd 5cf2 013e
000001a0: 604e fcbd c545 53bb eafb 973d 6787 73bd
000001b0: c058 02be d44a 0b3b 7146 743d 9050 d2bc
000001c0: d33e 05bd 8f63 3f3c 4d22 a9bc f4ff a93d
000001d0: eb0c e23c 27d8 72bd a7b1 babd d52a b83d
000001e0: 7fe3 b0bd 5e3a 5bbc 05e1 8dbc 1272 a33d
000001f0: b2bd 143d 6a75 373d abcd 623d efd9 dbbb
00000200: d7dc 5a3c 2131 4b3d c64e 00bd ef64 123d
00000210: f14e a73c d474 4c3d 921c d9bd 5026 8e3b
00000220: 9b89 553d 6f70 163d 91e0 8a3c 96d9 f3bc
00000230: 4b14 cb3b a3e3 8abd 34e4 dfba 779a 62bd
00000240: e7b0 e93c a27c 6cb9 9a3b fcbb 32de 93bc
00000250: 6074 36bc d274 6f3d 19b3 70bd 50e0 a0bc
00000260: 2b09 8a3d 1b91 043d b859 2f3d 551d 073e
00000270: 4f2e f3bc f7e8 35bd 123b ab3c ef03 e23c
00000280: 72c0 2d3c a779 373c 0208 21bd ae97 60bd
00000290: d9c4 a9bd c419 313d f560 e6bd a2fa 27bd
000002a0: 099b 043c 7c1a 0ebc 9e54 a83d 3ddb 623d
000002b0: a622 eabd 5c06 4d3d 44be 33bc 023f 94bd
000002c0: 2c4a 1dbd eb9d adbd 7706 09bd ad3e ac3d
000002d0: 4dc1 56bd a50a a6bd 5729 bbbd d0c9 383d
000002e0: 4ba3 583d cfab 0d3d 14da a2bb ff3f 0dbd
000002f0: 74a6 1cbe 42ed b33b 7c8a 4b3d c0db 1b3d
00000300: dc7e 6a3b e656 7f3d 0b4a 71bd f9d9 af3d
00000310: d729 083d a641 f3bb 512c 47bc c3cb 4f3d
00000320: e7c8 d83d 6dee 7dbd 0cfa ad3d 9d25 493d
00000330: e266 853d 02db 89bc 0642 8e3c 0825 94bd
00000340: b6dc 9cbc cad9 553d 276b eb3d 6c69 62bd
00000350: 52b5 403d ac92 f13c 6975 60bd 8e70 89bd
00000360: 33ba b7bd 4876 153d 0148 ddbd ee71 ad3d
00000370: 1abb a73d 1253 8e3a 1424 bebd ce80 4c3d
00000380: 577c de3c 97a3 3dbd 5421 0d3e e239 d83d
00000390: 7635 0b3e d33e 9e3c 6ad3 c33b 0a29 eb3d
000003a0: cea4 68bd be9b 20bd d8a6 e13c 9253 41bd
000003b0: dee5 34bc 3116 183d f6ed fb3c 4a6e 4abc
000003c0: 64a9 15be edde c63d b610 993d bc7e aabd
000003d0: d672 b4bc 5d55 993b 4b30 00bb d40c 273d
000003e0: 0ea4 3bbd 42d5 a83c b89e 25bd 2f77 0bbc
000003f0: e1f6 aebd 58eb 0dbd a015 6f3d f530 39bd

network_body._body_endoder.seq_layers.4.bias f4 [256]
-0.002319764 0.0031594587 -0.001256001 0.008003827 0.013038469 0.0020363515 -0.0016565009 -0.0038645486
0.0065158727 -0.007629761 0.0011542989 -0.004423005 -0.010730166 0.00031828994 0.014722646 0.014761471
-0.00056973484 0.02105357 0.0019895781 0.003496646 0.005175511 -0.00095304666 -0.00033760825 -0.00055620226
0.0047645695 0.0033816644 -0.009248701 -0.0048673837 0.01222227 -0.007810116 0.00447764 0.0024554906
-0.006295792 -0.006105209 -0.004365728 0.00103926 0.002245162 -0.0068406356 0.012909264 0.003952995
0.009072798 0.01130433 0.00016949564 0.016761549 0.0036178608 0.017622566 0.0051811817 0.009114308
0.0062078284 0.008299855 0.0009841609 0.002503452 0.0074758595 -0.0013392058 -0.008511516 -0.0064943926
-0.0070256833 0.009936604 0.020452082 -0.0074561727 0.0032393506 -0.006330509 0.013893902 5.878281e-05
-0.0058706277 0.016536642 0.0058064014 0.005942473 0.006709123 0.0019507158 -0.008967123 0.00093328994
0.012692138 -0.002816026 0.00766503 -0.009506302 -0.0012185642 -0.0023472013 0.015856612 0.012258578
-0.003149717 0.007882438 0.0012798135 0.0015196626 0.0068142475 0.010423052 0.014537779 0.008310269
-0.005394172 0.009283099 0.021185732 -0.0052456176 0.008614564 0.012102256 0.01471769 0.009464263
-0.006103892 0.0023479026 0.012522924 0.0036457921 -0.00015298034 -0.00013390726 0.004141103 -0.00490787
-0.004931461 0.00059407763 -0.011625538 -0.0025253745 0.015974311 0.011087562 0.0020701264 0.007470772
-0.011059512 0.013079928 -0.009005067 0.008084148 0.006488801 0.00048992137 2.0294457e-05 -0.0051932577
0.014171659 0.011159415 -0.0044816383 -0.0059903106 -0.00070777786 -0.005017992 -0.0019912475 0.0019802107
-0.00852383 -0.0018261372 0.0047667115 -0.0050034667 0.0013990261 0.0006991221 -0.005944609 0.0098067075
-0.0030466432 -0.001017459 0.015920365 -0.0029364252 0.013590902 -0.0034558934 0.0087530585 -0.004871621
0.009690756 -0.006800808 0.010391694 -0.0013312766 -0.0070592263 -0.0046742423 -0.010536896 -0.0005770588
0.014190896 -0.002688422 0.004747057 0.0063792607 0.016411962 0.005251779 0.004623749 4.6543715e-05
0.002078362 -0.0015767448 0.0019384937 -0.006952862 0.011545095 0.0042267884 -0.00020463049 -0.00045149226
-0.006103464 0.0052371994 0.014563762 0.0022474497 0.008663389 0.022300102 0.009538487 -0.004478225
0.0063038627 0.009987373 -0.0047458913 0.011515042 -0.0004364918 -0.0028543498 0.00559115 -0.00505243
-0.0035689042 0.0007105193 0.010080196 0.003839782 0.014326812 0.00750135 -0.0033811647 -0.0068143704
-0.0046519507 2.4893841e-05 0.0027106358 0.00356461 -0.0044864523 -0.00112591 0.015202204 -0.007887278
-0.0075844643 0.015027294 0.002888074 0.0009834096 -0.0032015333 -0.0057284366 0.0074644187 -0.0035243942
-0.005306758 0.0015003604 0.009658141 0.0118787065 0.020320414 0.003078809 0.008500927 0.002021537
-0.0025081527 0.00050961284 0.0020750475 -0.0058959033 -0.0062319757 0.00096849573 -0.0057217423 0.013041958
-0.00051210774 0.00041557808 -0.0050642258 0.0025843715 -0.006253345 -0.00088886946 0.00814738 -0.0048345807
0.022019614 -0.003467737 -0.003837472 0.001733016 0.008027498 -0.0005217598 -0.0064676683 -0.0065968307
0.013229006 -0.003522937 7.040307e-05 0.009129615 -0.0028623026 0.0030648226 0.0006877075 0.012271765
-0.006391446 -0.0015947671 0.0151815 0.0018906142 0.0040945155 -0.008975244 -0.0018957198 -0.005905532
00000000: 2f07 18bb ec0e 4f3b 66a0 a4ba 7c22 033c
00000010: 4d9f 553c 4f74 053b f21e d9ba 5e44 7dbb
00000020: 1a83 d53b 1303 fabb d84b 973a dbee 90bb
00000030: 94cd 2fbc 27e0 a639 4137 713c 19da 713c
00000040: 425a 15ba 8978 ac3c 9563 023b fc27 653b
00000050: 5597 a93b e1d5 79ba 0301 b1b9 1ace 11ba
00000060: 1b20 9c3b ea9e 5d3b dd87 17bc 937e 9fbb
00000070: ea3f 483c 00ec ffbb 2bb9 923b 4cec 203b
00000080: ee4c cebb 340e c8bb 610e 8fbb c737 883a
00000090: 9123 133b 6927 e0bb 6181 533c 2088 813b
000000a0: 13a6 143c cc35 393c a4ba 3139 844f 893c
000000b0: a219 6d3b 335d 903c e7c6 a93b 2e54 153c
000000c0: 0a6b cb3b 1dfc 073c f6fe 803a f410 243b
000000d0: 0ef8 f43b 4a88 afba e373 0bbc eace d4bb
000000e0: b437 e6bb 23cd 223c 208b a73c e952 f4bb
000000f0: 494b 543b 2970 cfbb 40a3 633c 908d 7638
00000100: 655e c0bb da77 873c a043 be3b 14b9 c23b
00000110: 34d8 db3b 29af ff3a d7ea 12bc 07a8 743a
00000120: aff2 4f3c 148d 38bb ef2a fb3b 52c0 1bbc
00000130: 3bb8 9fba 81d3 19bb bae5 813c 34d8 483c
00000140: 7c6b 4ebb 5725 013c 6abf a73a 6a2f c73a
00000150: 0d4a df3b 73c5 2a3c dd2f 6e3c cb27 083c
00000160: 98c1 b0bb 2418 183c b38d ad3c 6ee3 abbb
00000170: 1a24 0d3c 8a48 463c 7722 713c ff0f 1b3c
00000180: 2803 c8bb 45df 193b f32c 4d3c 3eee 6e3b
00000190: 5969 20b9 7569 0cb9 17b2 873b 33d2 a0bb
000001a0: 1898 a1bb e0bb 1b3a 0a79 3ebc c180 25bb
000001b0: 8fdc 823c 9ba8 353c f5aa 073b 61cd f43b
000001c0: f532 35bc 324d 563c fd89 13bc 6073 043c
000001d0: 02a0 d43b 116e 003a 043e aa37 342c aabb
000001e0: 3f30 683c fbd5 363c b5da 92bb 5e4a c4bb
000001f0: 2b8a 39ba f86d a4bb 977f 02bb 6cc6 013b
00000200: 89a7 0bbc ff5a efba 1332 9c3b 1ff4 a3bb
00000210: 875f b73a 4a45 373a ffca c2bb 50ac 203c
00000220: 31aa 47bb 425c 85ba 6d6b 823c 0a71 40bb
00000230: 60ac 5e3c 457c 62bb fd68 0f3c 1ea2 9fbb
00000240: fac5 1e3c 50d9 debb ec41 2a3c 3b7e aeba
00000250: 1551 e7bb 632a 99bb f2a2 2cbc c345 17ba
00000260: ef80 683c 3d30 30bb 338d 9b3b 1e09 d13b
00000270: 6172 863c 1e17 ac3b d182 973b ef37 4338
00000280: 2135 083b c7aa ceba 0e15 fe3a d5d4 e3bb
00000290: a327 3d3c df80 8a3b 1492 56b9 44b6 ecb9
000002a0: 91ff c7bb d09c ab3b d89c 6e3c f349 133b
000002b0: e3f0 0d3c b4ae b63c 5047 1c3c 13be 92bb
000002c0: a290 ce3b 14a2 233c 6c83 9bbb 96a9 3c3c
000002d0: f0d8 e4b9 0b10 3bbb f735 b73b db8e a5bb
000002e0: 47e4 69bb 2542 3a3a 6827 253c daa4 7b3b
000002f0: 01bb 6a3c e2cd f53b 8896 5dbb 154b dfbb
00000300: 646f 98bb 1ed3 d037 eca4 313b 3b9c 693b
00000310: 1703 93bb 4593 93ba aa12 793c a439 01bc
00000320: 1987 f8bb 0a35 763c d745 3d3b c0e5 803a
00000330: d1d0 51bb 9cb5 bbbb 1598 f43b 86f9 66bb
00000340: 50e4 adbb bea7 c43a 2e3d 1e3c e89e 423c
00000350: ff76 a63c d8c5 493b 7947 0b3c c37b 043b
00000360: d25f 24bb 8a97 053a 85fd 073b 6c32 c1bb
00000370: 9a35 ccbb a6e2 7d3a 747d bbbb f0ad 553c
00000380: f83e 06ba f2e1 d939 cef1 a5bb 8f5e 293b
00000390: dce8 ccbb 0503 69ba 977c 053c 676b 9ebb
000003a0: 7a62 b43c f942 63bb 197e 7bbb 5e26 e33a
000003b0: c485 033c b5c6 08ba bcee d3bb 3a2a d8bb
000003c0: 79be 583c 13e1 66bb 5ca5 9338 6194 153c
000003d0: 7895 3bbb 31db 483b 4547 343a 830f 493c
000003e0: 566f d1bb 8107 d1ba d4bb 783c 7cce f73a
000003f0: 492b 863b e70c 13bc cd79 f8ba 3183 c1bb

action_model._continuous_distribution.log_sigma f4 [1, 2]
0.0027066544 -0.005333967
00000000: 2062 313b 8fc8 aebb

action_model._continuous_distribution.mu.weight f4 [2, 256]
0.013797482 -0.007218776 -0.0044617616 -0.0024856608 -0.005892523 0.02135589 -0.0025620505 -0.0028639515
0.011957166 0.008904644 -0.004350816 -0.0061020995 0.0072995196 0.017824966 -0.001806332 -0.0012393023
0.013720881 -0.00075343915 0.0030663735 0.022136552 0.008248993 -0.0026914782 -0.022343747 -0.00638813
0.0047464725 0.0028607273 0.007887512 0.019199057 0.0073842998 0.012858968 0.0013086563 -0.016426848
0.013419395 0.01575663 0.017816784 0.0028998815 0.01619976 0.016759412 -0.0028475937 -0.0061917356
0.0032310192 -0.0047895005 0.0048884093 0.0062120417 -0.0066193314 -0.006981222 -0.007703406 0.0066016465
-0.0012437176 -0.0046050246 0.016273482 -0.01727428 -0.0020969936 0.011727766 -0.006871081 -0.007385743
0.001312197 -0.016147258 -0.007664365 0.0047089295 -0.016186357 -0.0041132485 0.009399862 0.016854307
-0.004495567 -0.00527934 -0.007263923 0.016430229 -0.00205337 -0.034864735 0.02134799 -0.01817941
-0.011117031 -0.0051083793 0.016368523 0.001071301 -0.01701685 0.0032962249 0.009612798 0.0070978
-0.0053200442 -0.01659974 0.006657149 -0.021857802 -0.0045544733 0.0063810404 0.008032655 0.011437269
0.00088158704 -0.020424496 -0.001518028 0.017621452 0.012139698 0.0051241065 0.00074105617 0.014374073
-0.006986083 -0.008582126 0.014632458 -0.023981944 -0.009339322 0.011604181 -0.024795284 -0.01266026
-0.019835893 -0.028719172 0.004125614 0.006465373 -0.004675765 -0.01259354 0.01620252 0.02488541
0.0043773395 -0.0033801305 0.006420714 -0.03491244 -0.009943815 0.015950821 -0.015631171 0.0011962871
-0.012968122 -0.0024157835 0.01371918 0.0026881793 0.0063721556 0.021929396 -0.009958532 0.023626117
-0.0009013005 0.013675121 -0.01566222 -0.010205366 -0.005030456 -0.0167415 -0.0018807544 -0.01600222
-0.00079583103 -0.015772419 0.0047697364 -0.017762922 0.011570561 -0.0154538285 0.019968772 0.006960127
0.003913157 -0.001609119 -0.01349394 -0.0105406735 -0.0013827414 0.005541201 0.004406557 -0.0009881457
0.008877552 -0.009994845 -0.009622734 -0.007980357 0.0012003016 -0.013655985 -0.00090615364 0.000771913
-0.030186545 -0.00712375 0.00053214317 -0.0032351592 0.014297593 -0.005370834 -0.013975304 0.025031913
0.0042475206 -0.015178194 -0.0033618007 0.00021329656 0.008783701 -0.00079064735 -0.009590047 -0.008719332
0.010333635 0.0058486853 0.006371033 0.02021426 0.018917913 -0.013492616 -0.009581108 0.0049567344
0.022042774 -0.029909696 -0.008325893 -0.013366605 0.008749505 0.0060993796 0.02381202 -0.004311672
-0.013651148 0.015685981 -0.014400736 -0.008877355 -0.005720529 0.0133463275 0.0045589907 -0.002416453
0.0107980035 -0.0017111949 -0.014961061 -0.0070779272 0.0057680006 0.010104767 -0.012655881 -0.0095444415
-0.0059257993 -0.0051322957 0.0011297535 -0.015695257 -0.0054697543 0.038126927 -0.015438286 0.015785782
-0.003591069 -0.025405375 -0.00067737245 -0.012297087 -0.005043373 -0.031178338 0.0119844815 -0.020003395
-0.022623096 -0.0016086578 -0.005230147 -0.00086907245 -0.0082058115 0.00054891966 0.009262821 -0.0040615587
-0.0007281595 0.016742665 -0.002556719 -0.010461727 0.0002574394 0.0142827565 0.008412955 0.015861645
0.011085705 0.029184522 0.012706886 0.0063274316 0.020579023 -0.007540126 0.008485255 0.0014868624
-0.0024182051 -0.011921308 -0.010370629 0.016665444 -0.019683296 0.0053631575 0.008301026 -0.0053057424
00000000: d50e 623c 7b8b ecbb f833 92bb 78e6 22bb
00000010: 1116 c1bb 8cf2 ae3c 13e8 27bb 22b1 3bbb
00000020: fde7 433c c9e4 113c 4a91 8ebb 1ff4 c7bb
00000030: cf30 ef3b aa05 923c 72c2 ecba 1670 a2ba
00000040: 8ccd 603c 7282 45ba 36f5 483b b757 b53c
00000050: c926 073c 8363 30bb 3c0a b7bc 8553 d1bb
00000060: 4c88 9b3b 0a7b 3b3b a03a 013c 5747 9d3c
00000070: fff7 f13b 6cae 523c 3887 ab3a 9991 86bc
00000080: 06dd 5b3c 0c14 813c 81f4 913c f00b 3e3b
00000090: 5cb5 843c 094b 893c b29e 3abb 0be4 cabb
000000a0: 82bf 533b 3ef1 9cbb f32e a03b 628e cb3b
000000b0: fae6 d8bb bcc2 e4bb da6c fcbb a052 d83b
000000c0: 3d04 a3ba bfe5 96bb f74f 853c ca82 8dbc
000000d0: b76d 09bb d125 403c ce26 e1bb 1a04 f2bb
000000e0: 06fe ab3a 4147 84bc 5b25 fbbb 5d4d 9a3b
000000f0: 4099 84bc 6ec8 86bb e101 1a3c 0b12 8a3c
00000100: 8d4f 93bb 50fe acbb 3406 eebb b098 863c
00000110: d591 06bb 53ce 0ebd fbe1 ae3c fcec 94bc
00000120: 3524 36bc 3164 a7bb 4817 863c e66a 8c3a
00000130: ec66 8bbc 7a05 583b ff7e 1d3c a994 e83b
00000140: c453 aebb 2efc 87bc 3724 da3b 220f b3bc
00000150: b13d 95bb 0c18 d13b 669b 033c 6263 3b3c
00000160: 4e1a 673a 4651 a7bc 91f8 c6ba dd5a 903c
00000170: 95e5 463c 1fe8 a73b 7043 423a 3b81 6b3c
00000180: 83eb e4bb 0c9c 0cbc fabc 6f3c c875 c4bc
00000190: f503 19bc 761f 3e3c 7b1f cbbc fb6c 4fbc
000001a0: e27e a2bc 7844 ebbc 2930 873b 7bdb d33b
000001b0: 2937 99bb 2355 4ebc 26bb 843c 7ddc cb3c
000001c0: c96f 8f3b 2e85 5dbb da64 d23b 5900 0fbd
000001d0: 62eb 22bc 4cab 823c f10c 80bc bccc 9c3a
000001e0: 3f78 54bc 1f52 1ebb 69c6 603c 2a2c 303b
000001f0: 84cd d03b 47a5 b33c 1c29 23bc 8f8b c13c
00000200: 4145 6cba 9d0d 603c 0e4e 80bc 6834 27bc
00000210: 86d6 a4bb 7825 89bc a583 f6ba 1617 83bc
00000220: 519f 50ba 2935 81bc 734b 9c3b 8c83 91bc
00000230: 7392 3d3c 0e32 7dbc 8d95 a33c c711 e43b
00000240: f139 803b 13e9 d2ba b015 5dbc cab2 2cbc
00000250: 1a3d b5ba f792 b53b e164 903b ab84 81ba
00000260: 2773 113c 6bc1 23bc aca8 1dbc 0bc0 02bc
00000270: 7053 9d3a 5abd 5fbc f18a 6dba 345a 4a3a
00000280: c649 f7bc 596e e9bb 867f 0b3a f704 54bb
00000290: 7440 6a3c d2fd afbb acf8 64bc ba0f cd3c
000002a0: c92e 8b3b f6ad 78bc a851 5cbb 5ca8 5f39
000002b0: 83e9 0f3c 7243 4fba 931f 1dbc 87db 0ebc
000002c0: 684e 293c 54a6 bf3b 19c4 d03b 6098 a53c
000002d0: bdf9 9a3c 2210 5dbc 14fa 1cbc 1a6c a23b
000002e0: 0c93 b43c 2e05 f5bc 5469 08bc 9bff 5abc
000002f0: 155a 0f3c 4edd c73b 6d11 c33c ed48 8dbb
00000300: 11a9 5fbc e37f 803c 11f1 6bbc 5372 11bc
00000310: 4673 bbbb 8eaa 5a3c 9663 953b 5b5d 1ebb
00000320: 1cea 303c 2c4a e0ba 3d1f 75bc f5ed e7bb
00000330: 7f01 bd3b 778e 253c 9d5a 4fbc 4a60 1cbc
00000340: 352d c2bb d12c a8bb 3d14 943a 5793 80bc
00000350: a03b b3bb fb2a 1c3d ddf0 7cbc 2f51 813c
00000360: 2458 6bbb ef1e d0bc b291 31ba b979 49bc
00000370: e142 a5bb b769 ffbc 8f5a 443c 29de a3bc
00000380: 1254 b9bc 99d9 d2ba a761 abbb 77d2 63ba
00000390: ab71 06bc 60e5 0f3a 16c3 173c d316 85bb
000003a0: f5e1 3eba ea27 893c a08e 27bb aa67 2bbc
000003b0: eef8 8639 3902 6a3c 7ed6 093c 48f0 813c
000003c0: d1a0 353c 6114 ef3c 8b30 503c 5856 cf3b
000003d0: 5795 a83c 2913 f7bb bd05 0b3c d3e2 c23a
000003e0: c07a 1ebb 9751 43bc 92e9 29bc f885 883c
000003f0: dd3e a1bc 6dbd af3b 0701 083c cbdb adbb

action_model._continuous_distribution.mu.bias f4 [2]
-0.0016924973 -0.0044962596
00000000: c9d6 ddba 5c55 93bb
