MLAgents Jumper Exercise/Assets/results/Jumper_4/JumperAgent/JumperAgent-40590.onnx (onnx, 570158 bytes, 15 tensors)

network_body.observation_encoder.processors.0.normalizer.running_mean f4 [26]
0.8360724 0.8555741 0.8362204 0.8559831 0.8362204 0.8559831 0.8392004 0.85777897
0.8392004 0.85777897 0.8411476 0.86088735 0.8411476 0.86088735 0.8479952 0.86904776
0.8479952 0.86904776 0.88255954 0.89726484 0.88255954 0.89726484 0.9202532 0.9289591
0.9202532 0.92895913
00000000: d708 563f e706 5b3f 8a12 563f b521 5b3f
00000010: 8a12 563f b521 5b3f d6d5 563f 6797 5b3f
00000020: d6d5 563f 6797 5b3f 7355 573f 1d63 5c3f
00000030: 7355 573f 1d63 5c3f 3716 593f ea79 5e3f
00000040: 3716 593f ea79 5e3f 6cef 613f 26b3 653f
00000050: 6cef 613f 26b3 653f b795 6b3f 43d0 6d3f
00000060: b795 6b3f 44d0 6d3f

network_body.observation_encoder.processors.1.normalizer.running_mean f4 [2]
0.13264015 -0.018133793
00000000: d2d2 073e 528d 94bc

network_body._body_endoder.seq_layers.0.weight f4 [256, 28]
-0.11675614 0.04444297 0.38437238 0.42822126 0.05161599 -0.011027001 -0.15961705 0.06641872
-0.22738221 -0.084102705 0.1114837 -0.08922252 -0.4139022 -0.060656775 0.1693451 0.05446529
0.20647375 0.084673 0.37477282 0.029205581 0.051534824 -0.13827485 -0.13256134 -0.0069102547
-0.15239461 -0.06906719 -0.0036736226 0.1649029 0.041224033 0.039865512 -0.18599316 0.025167955
0.03145733 0.087743394 -0.18441819 -0.025572538 -0.097068876 0.42581922 -0.13130885 0.33034143
0.08494514 -0.26153272 -0.3603954 0.21641397 0.24162364 0.25359553 0.20621978 0.09255877
-0.090433605 0.67325526 -0.1377196 0.56104887 -0.33023855 -0.15416402 0.15662506 0.056908112
-0.35738733 -0.23575327 -0.011549036 0.10038055 -0.19071218 -0.062112898 -0.12495368 0.013383942
0.15308744 -0.26583046 0.061232597 0.009979005 0.17025234 -0.28351042 0.18348671 -0.051545337
-0.24319623 -0.2786722 -0.03570184 -0.23913765 -0.2345261 0.09730338 -0.06427966 0.29850253
0.111760065 -0.091314495 -0.018450031 0.17576571 0.068009295 -0.20783015 -0.07198912 -0.1760712
0.071877584 0.04455246 0.046073392 0.026527688 0.08171404 -0.063847914 -0.075534694 0.28235224
0.26293358 0.30508646 0.10294203 -0.01318553 -0.20258534 -0.25613692 0.022815917 -0.082546405
-0.26903427 0.1770229 -0.20666313 -0.043673202 0.04938397 -0.450463 0.046720613 -0.050550714
-0.115058914 0.04379586 -0.00509803 -0.37627053 0.08387267 0.13109045 -0.1040141 -0.10395036
-0.097091176 0.04874065 -0.10779842 -0.18626386 0.14521502 0.025011752 -0.11961594 0.0059176655
-0.07941271 0.09669989 -0.14550032 0.47926906 0.14940232 -0.16042675 -0.27457651 -0.13273817
0.4516383 -0.08119606 0.031533167 0.1363785 -0.06621177 -0.114062645 -0.118784 0.06255786
0.0043361126 -0.23589295 0.14158219 0.36194417 0.0029283601 0.08038372 -0.030771164 0.008912421
-0.11093589 0.09188951 0.055109113 -0.48381114 0.1706226 0.17046304 0.024510713 -0.20172262
-0.30109254 0.06298492 0.18651944 -0.009057738 -0.25129002 0.16556317 -0.117187835 0.17892645
0.18810344 -0.046054933 -0.37720594 -0.126499 0.45589393 0.11366841 -0.24807584 -0.13530274
0.1254855 0.17590392 0.115790814 -0.021288358 0.20385104 0.10626684 0.011843737 -0.06384726
-0.060855173 0.3060196 -0.14822584 0.054340247 -0.1553423 0.23941675 -0.5083845 -0.0425825
-0.091711104 -0.46592766 -0.013191773 -0.030361583 -0.3421985 -0.053128928 -0.15082902 0.12608139
0.14561717 -0.17581858 -0.3150079 -0.20397097 -0.08310107 0.25000784 0.07571766 0.24472499
0.122785114 -0.0028209363 0.10254006 -0.15090872 -0.07583395 0.054431494 0.44856384 0.27750525
0.48618248 -0.07109132 -0.060058285 0.09413386 -0.017449748 0.3380114 0.10190385 0.017395344
-0.11387776 -0.13058078 -0.0030276696 -0.26357758 0.13652109 0.11089802 0.0049199145 -0.20298308
0.030636815 -0.17353942 -0.19614278 0.1433428 -0.052932214 0.107242055 -0.050060883 -0.120085075
-0.4029206 0.0075725093 0.1715242 -0.028590597 0.025711382 0.1331632 -0.25203106 0.36389643
-0.3820336 -0.030488718 -0.35489175 -0.21182063 -0.2025312 -0.039341852 -0.009679719 -0.20972209
00000000: d81d efbd d509 363d 75cc c43e d13f db3e
00000010: 4a6b 533d 98aa 34bc a772 23be 8a06 883d
00000020: e2d6 68be 0a3e acbd 9151 e43d 4cba b6bd
00000030: fdea d3be 3d73 78bd cd68 2d3e ff16 5f3d
00000040: db6d 533e 0a69 ad3d 39e2 bf3e 8b40 ef3c
00000050: 2e16 533d ec97 0dbe 29be 07be 6b6f e2bb
00000060: 550d 1cbe 1973 8dbd 29c1 70bb 4edc 283e
00000070: 88da 283d 054a 233d fe74 3ebe 072d ce3c
00000080: 67d9 003d cfb2 b33d 1fd8 3cbe 807d d1bc
00000090: 0ccc c6bd fa04 da3e d475 06be 8322 a93e
000000a0: b8f7 ad3d 9ee7 85be bf85 b8be a09b 5d3e
000000b0: 306c 773e 46d7 813e 472b 533e 748f bd3d
000000c0: 4135 b9bd 755a 2c3f 5e06 0dbe e6a0 0f3f
000000d0: 0715 a9be 2cdd 1dbe 5262 203e 7b18 693d
000000e0: 79fb b6be 4e69 71be 2b38 3dbc 5194 cd3d
000000f0: 0e4a 43be 186a 7ebd b7e7 ffbd 5248 5b3c
00000100: f4c2 1c3e ee1a 88be 08cf 7a3d fb7e 233c
00000110: a156 2e3e 4728 91be f1e3 3b3e 3421 53bd
00000120: 6f08 79be 1fae 8ebe 183c 12bd 80e0 74be
00000130: 9c27 70be ff46 c73d 0ea5 83bd 53d5 983e
00000140: 76e2 e43d 1803 bbbd 8524 97bc edfb 333e
00000150: 7548 8b3d 6dd1 54be 086f 93bd 024c 34be
00000160: 8e34 933d a47c 363d 74b7 3c3d 9850 d93c
00000170: b159 a73d b2c2 82bd efb1 9abd 7990 903e
00000180: 3b9f 863e 4b34 9c3e 45d3 d23d 1f08 58bc
00000190: 8872 4fbe 6124 83be 72e8 ba3c 170e a9bd
000001a0: dcbe 89be 7e45 353e 809f 53be ace2 32bd
000001b0: d946 4a3d 16a3 e6be 1d5e 3f3d 440e 4fbd
000001c0: 02a4 ebbd 4a63 333d 600d a7bb 88a6 c0be
000001d0: 6fc5 ab3d 933c 063e 5805 d5bd ede3 d4bd
000001e0: bdd7 c6bd 47a4 473d 6bc5 dcbd f4bb 3ebe
000001f0: 3fb3 143e 72e5 cc3c 34f9 f4bd fae8 c13b
00000200: 22a3 a2bd 980a c63d 09fe 14be c162 f53e
00000210: ecfc 183e e946 24be 4b95 8cbe 84ec 07be
00000220: 233d e73e 1f4a a6bd ec28 013d cea6 0b3e
00000230: 099a 87bd ad99 e9bd 0745 f3bd 561e 803d
00000240: f315 8e3b ec8d 71be ecfa 103e bf50 b93e
00000250: bbe9 3f3b 38a0 a43d cf13 fcbc 6705 123c
00000260: 5b32 e3bd 9130 bc3d 18ba 613d 18b6 f7be
00000270: b1b7 2e3e dd8d 2e3e b1ca c83c 6090 4ebe
00000280: cd28 9abe 3dfe 803d f4fe 3e3e e866 14bc
00000290: 16a9 80be 6489 293e 2d00 f0bd 7f38 373e
000002a0: 309e 403e 19a4 3cbd 2321 c1be f488 01be
000002b0: ee6a e93e fcca e83d 9807 7ebe cd8c 0abe
000002c0: 457f 003e 2820 343e bc23 ed3d ec64 aebc
000002d0: 54be 503e 6ea2 d93d 3c0c 423c 5ac2 82bd
000002e0: 4643 79bd 9aae 9c3e 84c8 17be e193 5e3d
000002f0: 0d12 1fbe aa29 753e 7d25 02bf fd6a 2ebd
00000300: 08d3 bbbd 128e eebe 4e22 58bc dbb8 f8bc
00000310: a434 afbe b89d 59bd ec72 1abe 7b1b 013e
00000320: ab1c 153e c909 34be b748 a1be c4dd 50be
00000330: e530 aabd 0701 803e dc11 9b3d 3099 7a3e
00000340: c376 fb3d 75df 38bb 8600 d23d d187 1abe
00000350: d44e 9bbd 8ff3 5e3d 29aa e53e 2b15 8e3e
00000360: e9ec f83e 5398 91bd adff 75bd 41c9 c03d
00000370: c6f2 8ebc d50f ad3e f7b2 d03d ae80 8e3c
00000380: be38 e9bd f8b6 05be de6b 46bb a4f3 86be
00000390: 2fcc 0b3e 801e e33d 3c37 a13b ccda 4fbe
000003a0: 0ffa fa3c 51b4 31be a7d9 48be 74c8 123e
000003b0: 73cf 58bd b9a1 db3d a40c 4dbd 2aef f5bd
000003c0: 9c4b cebe d022 f83b 0aa4 2f3e d436 eabc
000003d0: ada0 d23c ef5b 083e 370a 81be a250 ba3e
000003e0: e899 c3be 7ac3 f9bc 5fb4 b5be 82e7 58be
000003f0: 5764 4fbe ec24 21bd af97 1ebc 63c1 56be

network_body._body_endoder.seq_layers.0.bias f4 [256]
1.8250543e-05 0.00030275073 -1.8653001e-05 0.00013704033 0.00045601805 -0.0006539747 0.0005087014 -0.0001814069
0.00022454285 0.00082450995 -0.0009292723 -0.0006968852 -0.0011564179 -0.00040047723 -0.00025290842 0.00075578864
-0.00040880032 -0.0007186757 0.00048326526 -0.0007825517 -0.00015641922 -0.00074093085 0.00061173714 -8.580526e-05
0.00045330223 0.0003291542 0.0003190167 -0.00019713063 0.00036995884 0.00019827727 0.00038993795 0.0005325944
0.00047940554 -0.0004719998 0.00046617936 -0.00058656436 0.0002722323 -0.00031625511 -0.00025780813 -3.3786495e-05
4.3628706e-06 -0.0001578208 -0.0002578768 -0.0002647523 -0.00029315383 0.0004151841 0.0002357581 -0.00017539294
0.00035510736 0.0002743125 -0.00044225808 -7.638556e-05 3.004923e-05 -0.0002561027 0.00011204443 -0.00020899346
-0.0003527649 -0.00028789302 -0.00034861098 7.9442245e-05 -5.868475e-05 -0.00030973222 0.0010612224 0.00012760665
-0.0006063874 -0.00049665896 0.00031596597 -0.00014522638 0.0004183877 0.00020071455 -5.67012e-05 -0.000741594
-0.00022580003 0.0005505677 -0.0006009451 0.00018227556 -0.0004928389 0.0008712951 -0.00010965089 0.00037363812
0.00039627426 0.00055246183 0.00069190667 -9.911349e-05 0.00055672886 -0.0005673006 0.0004851899 0.00037727115
-0.0007171495 4.731206e-05 -0.000498715 0.00042832014 6.888349e-05 -0.00058507256 -0.0005451532 0.00014223237
0.0002304356 -0.00012941891 0.00013779599 0.00019472826 0.00017327722 8.8028806e-05 2.4269944e-05 0.00022243684
0.00011405081 7.6814395e-05 0.00039695384 -0.00025396928 -0.00037681864 0.0004068467 -0.00017605716 8.2922474e-05
3.5471778e-05 0.00014152245 0.00044420446 -2.110973e-05 -1.4758646e-05 -0.00047278806 -0.000105257015 -4.0947365e-05
0.00037589396 0.0005608945 -0.00027391812 4.520769e-05 0.00043564246 -0.0003886857 -0.00034020882 0.0003567667
0.00039394727 -0.0004110822 -0.000748734 0.0001032511 -7.780316e-05 -0.0004767062 -0.0007355642 -0.0001570241
0.00017490043 0.00021767542 0.000587555 -0.00053478446 -0.000121587495 0.0008365776 -0.00024409416 0.00022432196
-0.0004348991 0.00014046326 -0.00011396075 1.1443184e-06 0.0003812147 0.00039382075 0.00015420023 -3.349339e-05
-0.0003963776 0.0002390806 0.00026563744 1.8720906e-05 0.00044921634 -0.00023886444 0.00029703125 0.0001731867
0.0007217543 0.0003499859 -0.00046527945 -0.00028668044 -0.0006174869 -0.0004184136 0.00079788174 -0.00013303588
0.00023010865 -8.22266e-05 -0.0006162721 0.00020754029 -0.00013291022 -0.00069056114 0.00040146752 0.00020114599
3.0024521e-05 0.00059058523 -0.00069320976 -1.6438515e-06 0.0007149652 -0.0008960011 0.0002196631 -0.00022700735
-8.6484775e-05 0.00041213378 0.0004198346 -0.00013391649 0.0002125624 0.00049633614 0.00030538408 -0.0007128793
-9.811411e-05 0.00033355725 0.00093495246 5.1721876e-05 0.00040884365 7.488025e-05 -4.563139e-05 -0.00041529693
-0.0004383226 -0.00017563583 -0.000102723825 -0.00015794521 0.00031728618 -0.00030055628 -0.0003011038 0.00069517846
0.00017412598 -0.00024436653 0.00073886465 -0.00021840209 0.00051170914 -0.00014098604 -0.0006418825 -0.0003424935
0.00014031706 -0.0007883904 -0.00075015746 0.00028129728 0.0005651567 -0.00025931417 2.1149686e-05 -3.4793077e-06
0.00014956671 -5.825045e-05 -0.0001963942 0.0002763294 6.281737e-05 0.00049332215 0.00031750058 -0.00043138463
-0.00019014934 0.00033123526 0.00024382607 -2.5054444e-06 -7.520083e-05 0.00010774566 0.00028771505 -0.00025661167
-0.0004600457 0.0003248098 0.00049156527 -0.00012608829 0.0007788524 0.00013250962 0.00019295426 -2.1444237e-06
0.00012888786 0.00038734404 -0.00033458427 -0.00024500664 0.00044744828 0.00026886718 -0.0002147888 -0.00029529535
00000000: be18 9937 84ba 9e39 0479 9cb7 7cb2 0f39
00000010: b515 ef39 806f 2bba 605a 053a 0b38 3eb9
00000020: 4373 6b39 ed23 583a 699a 73ba 2daf 36ba
00000030: f292 97ba 25f7 d1b9 cb98 84b9 1e20 463a
00000040: 4054 d6b9 8365 3cba c45e fd39 2824 4dba
00000050: 7704 24b9 073b 42ba fc5c 203a 59f2 b3b8
00000060: 32a9 ed39 5492 ac39 b241 a739 dab4 4eb9
00000070: 09f7 c139 a6e8 4f39 9670 cc39 ce9d 0b3a
00000080: b958 fb39 be76 f7b9 8969 f439 abc3 19ba
00000090: 67ba 8e39 0bcf a5b9 6c2a 87b9 f9b5 0db8
000000a0: c664 9236 b37c 25b9 a333 87b9 74ce 8ab9
000000b0: 71b2 99b9 11ad d939 d535 7739 afe9 37b9
000000c0: b42d ba39 9ad1 8f39 e0de e7b9 2f31 a0b8
000000d0: 3b12 fc37 8645 86b9 65f9 ea38 4125 5bb9
000000e0: 4ef3 b8b9 59f0 96b9 c6c5 b6b9 3b9a a638
000000f0: 4524 76b8 8e63 a2b9 b718 8b3a 26ce 0539
00000100: f8f5 1eba 3832 02ba 3ca8 a539 e947 18b9
00000110: 0c5b db39 e776 5239 73d2 6db8 8867 42ba
00000120: bcc4 6cb9 f953 103a be88 1dba 3921 3f39
00000130: dc31 01ba a067 643a 60f4 e5b8 dce4 c339
00000140: 08c3 cf39 16d3 103a 1261 353a 26db cfb8
00000150: 71f1 113a e6b6 14ba 1661 fe39 7acc c539
00000160: 17ff 3bba f070 4638 32bc 02ba 2890 e039
00000170: 8b75 9038 8e5f 19ba 9de8 0eba 3624 1539
00000180: 16a1 7139 a0b4 07b9 547d 1039 f82f 4c39
00000190: c0b1 3539 1b9c b838 4f97 cb37 ef3d 6939
000001a0: 902e ef38 6a17 a138 3e1e d039 2e27 85b9
000001b0: be8f c5b9 0a4e d539 fc9b 38b9 aae6 ad38
000001c0: 88c7 1438 a565 1439 1de4 e839 cd14 b1b7
000001d0: e79b 77b7 8ae0 f7b9 6ebd dcb8 e6be 2bb8
000001e0: a213 c539 fe08 133a ab9c 8fb9 639d 3d38
000001f0: f166 e439 83c8 cbb9 0e5e b2b9 6a0c bb39
00000200: b58a ce39 8586 d7b9 b046 44ba 8388 d838
00000210: 412a a3b8 6cee f9b9 e1d2 40ba d6a6 24b9
00000220: 7a65 3739 cd3f 6439 2606 1a3a c730 0cba
00000230: cafc feb8 c64d 5b3a 87f3 7fb9 f837 6b39
00000240: 2b03 e4b9 5249 1339 36fe eeb8 7b96 9935
00000250: c5dd c739 ba79 ce39 cfb0 2139 417b 0cb8
00000260: e7d0 cfb9 b6b1 7a39 4145 8b39 d70a 9d37
00000270: cc84 eb39 af77 7ab9 dcba 9b39 7399 3539
00000280: 1c34 3d3a 507e b739 c0f0 f3b9 994d 96b9
00000290: d8de 21ba 865e dbb9 f028 513a 8c7f 0bb9
000002a0: 5249 7139 1271 acb8 528d 21ba 2c9f 5939
000002b0: d15d 0bb9 c606 35ba 0f7c d239 b7ea 5239
000002c0: 2bdd fb37 81d1 1a3a 85b8 35ba 4fa2 dcb5
000002d0: 816c 3b3a 9ee1 6aba 5d55 6639 d208 6eb9
000002e0: 295f b5b8 a913 d839 3f1d dc39 ef6b 0cb9
000002f0: 49e3 5e39 8e1c 023a f51b a039 85e0 3aba
00000300: 9dc2 cdb8 4ce1 ae39 9917 753a f1ef 5838
00000310: 115a d639 0709 9d38 5564 3fb8 36bc d9b9
00000320: aace e5b9 e22a 38b9 6f6d d7b8 189e 25b9
00000330: 6e59 a639 fb93 9db9 78dd 9db9 a33c 363a
00000340: 9695 3639 521e 80b9 5eb0 413a dd02 65b9
00000350: 3824 063a a7d5 13b9 0144 28ba b390 b3b9
00000360: 1322 1339 fcab 4eba 37a6 44ba 157b 9339
00000370: 0627 143a 8ff4 87b9 9b6a b137 0d7e 69b6
00000380: 02d5 1c39 f251 74b8 2bef 4db9 4ee0 9039
00000390: d2bc 8338 4a52 013a 3576 a639 772b e2b9
000003a0: d362 47b9 a5a9 ad39 90ab 7f39 3523 28b6
000003b0: 23b5 9db8 83f5 e138 76d8 9639 d689 86b9
000003c0: 4a32 f1b9 3c4b aa39 63dc 003a 9136 04b9
000003d0: e62b 4c3a 48f2 0a39 c453 4a39 ebe8 0fb6
000003e0: 1226 0739 7014 cb39 246b afb9 3c74 80b9
000003f0: 7e97 ea39 bef6 8c39 ee38 61b9 dfd1 9ab9

network_body._body_endoder.seq_layers.2.weight f4 [256, 256]
-0.10049915 -0.015851375 -0.014786565 -0.02268894 -0.059795793 0.031648863 0.052649684 -0.06279537
0.15366341 -0.011879284 0.012029213 -0.07659902 0.024131402 -0.029442018 0.027516915 -0.036567762
0.055870384 0.07177069 0.050724033 0.03256271 -0.08262951 0.057900183 -0.006767842 0.04578865
-0.023255717 -0.06390955 -0.0075174803 -0.06539295 0.01315465 0.102720395 -0.025408765 0.06289423
-0.025643537 0.0015069944 -0.018995553 -0.04541848 -0.11092092 -0.0070678513 -0.056088876 -0.02045588
0.11203765 -0.021475174 0.122180656 0.1477046 -0.0973197 -0.055910356 0.015204321 0.104843885
0.028488943 -0.055496275 -0.0015234315 0.003405182 0.08396367 -0.04243493 0.0378331 0.01623621
0.18248184 0.12604941 0.1022367 -0.10446895 0.041600943 0.06611588 0.043783825 0.15935484
0.0016819878 -0.041409668 -0.04255211 0.029573677 0.015138413 -0.025762442 -0.07598801 -0.014878399
-0.03681796 -0.13657968 0.035442926 -0.0025561627 -0.009158886 0.10720761 0.12514767 0.023668408
0.09294425 -0.057733007 0.053216033 0.0054330467 0.03607001 -0.0584457 0.019392958 0.11479049
-0.0724688 -0.044678655 -0.052248012 -0.022913048 -0.0779689 -0.07122825 0.038447693 0.014457735
0.03952458 0.063951 0.035225812 -0.11613335 -0.055362657 0.0722045 -0.0042269835 -0.06803492
-0.08541085 -0.042567916 -0.15041183 -0.06516012 -0.03844616 -0.028208861 -0.009716499 -0.012269353
0.039184928 0.061722346 -0.032767355 0.0007773106 0.101354524 -0.09423297 0.08222239 0.08205414
0.08812108 -0.048763484 -0.013215436 0.12557918 -0.03472864 -0.03338009 0.058576744 0.00014694904
0.030588308 -0.04829342 0.03563854 -0.019416915 0.10264237 0.029424815 0.020267991 0.010897168
0.016067348 -0.044990145 0.008481987 0.011557257 -0.060022295 0.08351787 0.030307427 0.010974318
-0.020278303 -0.11258392 0.040193975 0.027783094 -0.053714037 0.07378862 0.008281559 -0.039461367
0.10623024 0.026280832 0.11403868 0.08561371 0.011346499 -0.04682793 -0.11604306 0.039742034
0.084642485 -0.047713522 0.012174121 -0.20891759 0.009628723 -0.017277423 -0.08179183 -0.030270679
-0.02369425 0.072246104 -0.019205203 -0.058898274 -0.056702975 -0.034835305 -0.19333002 -0.0071407654
0.13820317 -0.17439024 -0.012823523 0.033606928 0.12973848 -0.047276106 0.032268677 0.08106625
0.04516312 0.04417715 -0.011387221 -0.019597353 0.03564675 -0.042890403 -0.022321226 0.048566386
0.072612405 -0.11363774 0.036398545 -0.036986627 0.024203433 0.01836138 0.056258056 -0.05922779
0.044010404 0.03875626 0.07556121 0.09481357 0.05192062 0.0030006683 -0.03952513 -0.029548937
0.0087198615 0.020656915 0.022309486 -0.04495717 0.017117413 0.010668113 0.02137835 -0.019120522
0.021254081 0.022918867 0.044424262 -0.004130741 -0.13973193 0.019266585 0.036115013 0.13566075
0.10502858 0.049687542 0.09894071 0.061948247 -0.028656648 -0.049845487 -0.0058788555 0.0938108
-0.13714129 -0.08034998 0.14840233 0.0052708285 0.029910311 0.09157331 -0.10174969 -0.0021116498
-0.010636999 -0.031475674 0.105743185 0.014980535 -0.07455356 -0.04266888 -0.04026175 -0.0037008056
-0.07862848 0.092277415 0.037545245 -0.029650763 0.06255115 0.036394022 -0.010017328 0.0038126567
00000000: 80d2 cdbd beda 81bc 5943 72bc 28de b9bc
00000010: 6fec 74bd 3da2 013d 32a7 573d dc9a 80bd
00000020: f159 1d3e 54a1 42bc 2d16 453c f2df 9cbd
00000030: 38af c53c 6330 f1bc 276b e13c 14c8 15bd
00000040: 58d8 643d 83fc 923d 01c4 4f3d 7a60 053d
00000050: a939 a9bd be28 6d3d c6c4 ddbb e18c 3b3d
00000060: c682 bebc 03e3 82bd 3255 f6bb bdec 85bd
00000070: 9a86 573c 125f d23d 0b26 d0bc b1ce 803d
00000080: 6512 d2bc 5786 c53a 909c 9bbc ba08 3abd
00000090: 822a e3bd 6f99 e7bb 73bd 65bd 1793 a7bc
000000a0: ff73 e53d b4ec afbc da39 fa3d e03f 173e
000000b0: 8d4f c7bd 4202 65bd 8b1b 793c 64b8 d63d
000000c0: a561 e93c 1050 63bd e1ad c7ba 7929 5f3b
000000d0: 25f5 ab3d 40d0 2dbd e1f6 1a3d cd01 853c
000000e0: 85dc 3a3e 1913 013e 7a61 d13d d1f3 d5bd
000000f0: c065 2a3d c367 873d ab56 333d ea2d 233e
00000100: 2576 dc3a 2f9d 29bd 1f4b 2ebd 7f44 f23c
00000110: 1b07 783c c20b d3bc 9a9f 9bbd 87c4 73bc
00000120: 6ece 16bd 8bdb 0bbe 9a2c 113d 4b85 27bb
00000130: 270f 16bc aa8f db3d b626 003e 40e4 c13c
00000140: 8e59 be3d 7279 6cbd 0ef9 593d b307 b23b
00000150: 26be 133d c264 6fbd fbdd 9e3c 4717 eb3d
00000160: 866a 94bd f700 37bd 0302 56bd 25b4 bbbc
00000170: 29ae 9fbd 1ee0 91bd 547b 1d3d 23e0 6c3c
00000180: 87e4 213d bef8 823d f148 103d 52d7 edbd
00000190: f4c3 62bd f4df 933d 8282 8abb e455 8bbd
000001a0: e2eb aebd b25b 2ebd 8f05 1abe ab72 85bd
000001b0: b879 1dbd 4516 e7bc f331 1fbc 6505 49bc
000001c0: 6080 203d 92d0 7c3d 1037 06bd 6ec4 4b3a
000001d0: f692 cf3d 37fd c0bd 3664 a83d 000c a83d
000001e0: d378 b43d 38bc 47bd 8e85 58bc d497 003e
000001f0: 9e3f 0ebd 90b9 08bd 2bee 6f3d 5516 1a39
00000200: 5594 fa3c 52cf 45bd b8f9 113d 3910 9fbc
00000210: 2a36 d23d 4f0c f13c 0f09 a63c 098a 323c
00000220: ac9f 833c 9647 38bd 08f8 0a3c a65a 3d3c
00000230: f0d9 75bd 6b0b ab3d 4847 f83c a0cd 333c
00000240: af1e a6bc 6692 e6bd 70a2 243d 5f99 e33c
00000250: 4003 5cbd 7d1e 973d 60af 073c 3ea2 21bd
00000260: 3d8f d93d e64a d73c 1d8d e93d 3e56 af3d
00000270: abe6 393c a5ce 3fbd fca7 edbd 8bc8 223d
00000280: 0a59 ad3d 416f 43bd f775 473c 7eee 55be
00000290: cbc1 1d3c 6289 8dbc 7a82 a7bd 37fa f7bc
000002a0: 721a c2bc c4f5 933d 3b54 9dbc 513f 71bd
000002b0: 6141 68bd 77af 0ebd 4ef8 45be 15fd e9bb
000002c0: 2285 0d3e 5b93 32be c119 52bc 6ba7 093d
000002d0: 2ada 043e 97a4 41bd 292c 043d 1006 a63d
000002e0: f7fc 383d 19f3 343d 7791 3abc a18a a0bc
000002f0: 5402 123d d9ad 2fbd 01db b6bc 8ced 463d
00000300: d0b5 943d e7ba e8bd a416 153d 4a7f 17bd
00000310: 4746 c63c 9b6a 963c d96e 663d d798 72bd
00000320: 4144 343d e2be 1e3d d6bf 9a3d 9e2d c23d
00000330: b7aa 543d dca6 443b 1ae5 21bd 9d10 f2bc
00000340: c0dd 0e3c b138 a93c 62c2 b63c 0225 38bd
00000350: d139 8c3c 4fc9 2e3c a621 af3c a4a2 9cbc
00000360: 0a1d ae3c 59c0 bb3c 37f6 353d 2b5b 87bb
00000370: e315 0fbe f5d4 9d3c 56ed 133d a7ea 0a3e
00000380: 3919 d73d 2a85 4b3d 6da1 ca3d 72bd 7d3d
00000390: 59c1 eabc c82a 4cbd 6aa3 c0bb e01f c03d
000003a0: c46e 0cbe 888e a4bd c8f6 173e eab6 ac3b
000003b0: 7806 f53c ca8a bb3d 2462 d0bd 9b63 0abb
000003c0: cf46 2ebc a3ec 00bd e28f d83d eb70 753c
000003d0: 89af 98bd 90c5 2ebd 81e9 24bd 3789 72bb
000003e0: f807 a1bd f1fb bc3d 0bc9 193d 28e6 f2bc
000003f0: d11a 803d e611 153d b81f 24bc c4dd 793b

network_body._body_endoder.seq_layers.2.bias f4 [256]
-0.00012516545 0.00038708688 0.00046066084 -0.0004095691 -0.0007031487 0.00023722324 0.0004170872 0.0006940952
-0.00024278557 -0.00043501312 0.000519839 0.00037718582 -0.00014860166 0.00015673751 0.0003168983 2.947397e-05
0.000263705 0.00072534394 -8.7042245e-05 0.00018574047 0.0002365858 -0.0001788256 -0.00010058807 -0.000106048894
0.00010978653 -2.9676132e-05 0.00018462869 0.00066998723 -0.00014426002 -0.00028786185 0.00016785577 0.00022848694
-5.017245e-05 7.549126e-05 -4.2529093e-05 -0.00014486874 -0.00040164945 -0.00020823718 0.0002015618 0.0004334277
-0.00011874741 -1.1035207e-05 4.92698e-06 0.00024400807 -0.00022518722 -0.00020254334 0.00032422162 0.00037533307
-0.0007835837 0.0010411855 0.0004386759 -8.191988e-05 0.00024743113 0.00015164513 0.0002485652 0.0009904378
6.273688e-06 -0.00044546777 -0.0005758005 0.000485243 -0.00027677114 -0.0003098333 0.0004347615 3.1338383e-05
2.5728792e-05 0.00019220938 -0.00032892966 0.0006088111 -0.00011462685 -0.0004043322 -0.00042351414 0.000114314724
-0.00024205456 5.9870404e-06 0.0006107917 -0.00011881123 0.0004898412 -0.00029753978 0.00018164628 0.00018782765
-0.0003207072 0.0002860504 -0.00048266794 0.0005087583 0.00013081168 -0.00032193534 0.00063508423 -0.0003277516
-3.4492125e-06 -0.0006551197 -0.00033097772 -0.00025751573 0.0005553578 0.0007954326 0.00013946633 -0.0005768899
-1.6211316e-05 -6.9374146e-05 0.0004326392 0.00092248886 0.0002638601 -0.00068135175 0.00020480443 -0.00029591811
0.00080731366 0.00020372942 -0.0001522481 -0.0001295911 -0.00067920884 -0.000121720725 -0.0011163441 -0.00029479293
-0.00029612196 -3.6995416e-06 0.0005704042 -0.00014039488 0.00018568331 7.7712175e-05 -0.00012430928 0.00029503438
0.00068232714 0.00017893876 0.0006328235 0.0005706979 -0.0005589813 8.038873e-05 0.00073796604 -0.00043392013
0.0003215072 -5.483971e-05 0.00063759286 8.936097e-05 0.00020099853 8.009938e-05 0.00018799759 -0.0004645206
-7.874541e-05 -0.0006467161 -0.0005038076 0.0005724508 -3.9034276e-05 5.3562402e-05 5.530855e-05 -0.00057764305
0.00038203836 -0.00083860464 -3.8258826e-05 -0.0002508439 0.00071354036 0.0003693078 0.0006108068 8.864269e-05
-0.00038222322 0.0004630984 0.00010842934 0.0005967338 -8.999533e-05 0.0002693893 -0.00030813878 0.0005232377
-0.00042860702 0.00023136775 0.0004647852 -0.0002638623 -0.00026544963 0.0001477109 1.4992993e-05 -0.000148904
-0.00042452163 0.000666432 0.00056294084 0.0003313383 0.00015741728 -0.0005530869 0.0003025501 0.0005842277
0.00020199506 -0.0001520379 -0.00032717836 -0.00022112798 0.00017041263 5.7570902e-05 -0.0002522611 0.00034870775
-0.00035344175 0.0001639694 7.142558e-05 -0.00044258698 -6.638265e-05 -0.00058688415 -0.0004222655 -0.0003027229
-0.00014015951 -6.755158e-05 0.00037385421 -0.0005733528 0.00026455385 -0.0006875368 -0.00028127036 -0.00045060212
-0.00036624845 0.0005488317 0.00051552244 0.00030330077 -0.00019089658 0.0004058306 0.00016298106 -8.859172e-05
1.549307e-05 0.000414532 0.00024290095 -0.00022222023 -0.00040810657 -7.046281e-05 -0.00043963947 -0.0005123334
0.000176939 0.00039318306 -0.00010361376 6.3829815e-05 -0.000116480354 0.0002902491 4.8114485e-05 -3.148705e-05
-4.962099e-05 -4.9998085e-05 -0.00013643589 -0.00038269634 0.00021850313 0.0006013044 0.00022911327 0.00024894616
-0.00026608817 -0.00016376552 0.0008762549 -0.0003201656 0.00012251803 0.0002435601 -8.756264e-05 -0.00014935232
0.0005465106 0.0002380341 0.00029720698 -0.0003600115 0.0005133959 0.00035971883 -0.00064152665 3.884587e-05
-0.00087688747 0.00027582565 -0.00040128003 0.00082023564 -0.0004691797 0.000459655 0.0003122724 4.237995e-05
00000000: d83e 03b9 ecf1 ca39 da84 f139 6fbb d6b9
00000010: 8353 38ba 21bf 7839 7fac da39 f1f3 353a
00000020: 4194 7eb9 7912 e4b9 ce45 083a 06c1 c539
00000030: f4d1 1bb9 e859 2439 5f25 a639 de3e f737
00000040: e341 8a39 0225 3e3a 738a b6b8 54c3 4239
00000050: 0414 7839 2283 3bb9 cff2 d2b8 9166 deb8
00000060: 323d e638 02f1 f8b7 e398 4139 15a2 2f3a
00000070: 8144 17b9 2aec 96b9 7102 3039 ff95 6f39
00000080: 4270 52b8 1051 9e38 4461 32b8 e8e7 17b9
00000090: 7a94 d2b9 3e5a 5ab9 555a 5339 ae3d e339
000000a0: 0808 f9b8 da23 39b7 7052 a536 6bdc 7f39
000000b0: 3c20 6cb9 d061 54b9 4afc a939 5ac8 c439
000000c0: 6969 4dba 6378 883a 15fe e539 67cc abb8
000000d0: a5b9 8139 ee02 1f39 db51 8239 94d1 813a
000000e0: 9282 d236 ac8d e9b9 51f1 16ba 3768 fe39
000000f0: 981b 91b9 1f71 a2b9 b3f0 e339 5571 0338
00000100: 29d4 d737 d08b 4939 3174 acb9 9f98 1f3a
00000110: d263 f0b8 8dfc d3b9 1b0b deb9 40bc ef38
00000120: 07d0 7db9 49e4 c836 8a1d 203a 4b2a f9b8
00000130: b068 003a 1dff 9bb9 4d78 3e39 9af3 4439
00000140: 9724 a8b9 09f9 9539 980e fdb9 315e 053a
00000150: 7e2a 0939 6ec9 a8b9 c87b 263a 13d6 abb9
00000160: 0579 67b6 57bc 2bba 1487 adb9 2d03 87b9
00000170: 6e95 113a 9484 503a b53d 1239 6d3a 17ba
00000180: 89fd 87b7 f67c 91b8 dad3 e239 2ed3 713a
00000190: b456 8a39 be9c 32ba c5c0 5639 7525 9bb9
000001a0: e7a1 533a 33a0 5539 caa4 1fb9 d9e2 07b9
000001b0: ef0c 32ba 5144 ffb8 4b52 92ba 708e 9ab9
000001c0: d140 9bb9 a445 78b6 2e87 153a f736 13b9
000001d0: fcb3 4239 68f9 a238 0559 02b9 d8ae 9a39
000001e0: 33de 323a 82a1 3b39 11e4 253a e39a 153a
000001f0: 9a88 12ba 5f96 a838 1074 413a c67f e3b9
00000200: f78f a839 b103 66b8 2224 273a 4e67 bb38
00000210: 22c3 5239 07fb a738 3821 4539 e68a f3b9
00000220: 1f24 a5b8 6288 29ba f511 04ba 8610 163a
00000230: bcb8 23b8 31a8 6038 1afb 6738 f86c 17ba
00000240: 524c c839 ced5 5bba 1a78 20b8 b383 83b9
00000250: e20c 3b3a a79f c139 8d1e 203a afe5 b938
00000260: 2265 c8b9 04cc f239 8f64 e338 216e 1c3a
00000270: e0bb bcb8 d23c 8d39 b08d a1b9 e329 093a
00000280: a9b6 e0b9 4f9b 7239 6aae f339 0057 8ab9
00000290: 0c2c 8bb9 d8e2 1a39 6a8a 7b37 1d23 1cb9
000002a0: 5492 deb9 7fb3 2e3a 5292 133a 79b7 ad39
000002b0: 6110 2539 09fd 10ba 969f 9e39 db26 193a
000002c0: a3ce 5339 5d6c 1fb9 2389 abb9 97de 67b9
000002d0: cbb0 3239 4978 7138 e941 84b9 c3d2 b639
000002e0: 264e b9b9 33ef 2b39 51ca 9538 050b e8b9
000002f0: ea36 8bb8 21d9 19ba 8463 ddb9 c8b6 9eb9
00000300: c8f7 12b9 7aaa 8db8 dd01 c439 0e4d 16ba
00000310: d1b3 8a39 d03b 34ba 7877 93b9 cb3e ecb9
00000320: 0905 c0b9 79df 0f3a 2024 073a 5704 9f39
00000330: 692b 48b9 a9c5 d439 e5e5 2a39 51ca b9b8
00000340: 1df7 8137 8b55 d939 3ab3 7e39 ca03 69b9
00000350: 23f7 d5b9 6fc5 93b8 697f e6b9 1d4e 06ba
00000360: b388 3939 2324 ce39 374b d9b8 5fdc 8538
00000370: ea46 f4b8 932c 9839 89ce 4938 f610 04b8
00000380: 2220 50b8 09b5 51b8 3b10 0fb9 a2a4 c8b9
00000390: fd1d 6539 dba0 1d3a 203e 7039 fd84 8239
000003a0: c081 8bb9 79b8 2bb9 79b4 653a e6db a7b9
000003b0: 2f78 0039 2b64 7f39 d6a1 b7b8 759b 1cb9
000003c0: b543 0f3a cb98 7939 72d2 9b39 edbf bcb9
000003d0: 6a95 063a a598 bc39 202c 28ba 6fee 2238
000003e0: ecde 65ba b19c 9039 e562 d2b9 1505 573a
000003f0: 3cfc f5b9 dafd f039 7eb8 a339 20c1 3138

network_body._body_endoder.seq_layers.4.weight f4 [256, 256]
-0.0013174111 -0.0006107286 0.0017888483 0.074903116 0.06418538 0.06577078 -0.052054666 -0.020033434
-0.015321672 -0.0216642 -0.029544165 -0.021225024 0.04101257 0.042030968 0.06204495 -0.024855893
0.057127435 0.066411704 0.12496605 0.030089747 0.039958287 -0.043564983 -0.08473236 0.017702242
0.060045253 0.048904292 0.12119035 -0.02807775 -0.06837235 -0.01013861 0.13203162 0.08046771
0.043050066 -0.08056283 0.0669579 0.030728403 -0.015721193 -0.04847858 -0.05246667 0.0019982678
-0.034403663 -0.022102078 -0.06764702 0.045278877 0.04385016 -0.05291891 0.11592543 0.05952247
0.12904343 0.020713823 -0.0183965 0.054006796 -0.0755823 0.06096119 0.06854203 0.17282978
0.0023182232 -0.029969808 0.048938975 -0.06043633 -0.0414918 -0.108898446 -0.0124463765 0.13326494
-0.005271449 0.045548372 0.048015736 -0.026788969 -0.003282094 0.008079006 -0.09607757 0.07308852
-0.016338274 0.062132254 -0.002820316 0.07298548 -0.19579726 -0.111536965 -0.0105478605 -0.038528863
0.03707491 0.02589929 -0.053887043 0.026174458 0.040922828 -0.07767754 -0.002489916 -0.031345077
0.022412837 -0.035277646 0.031629857 0.0722884 -0.08563543 0.025967173 0.034833577 -0.100265995
0.0019519526 0.07117788 0.020136636 0.011655249 -0.020656811 0.037324637 -0.019350316 -0.010610418
0.057671916 -0.074841216 -0.15306956 -0.040546976 0.00255721 -0.019147405 0.052939747 0.02459446
-0.012596401 -0.025615565 -0.014986499 0.009185221 0.034343068 0.05995814 0.015230239 0.093797624
-0.15264513 -0.032868214 0.028686775 0.0953716 -0.028459959 0.008248903 0.13682914 0.010697781
0.05671704 0.020684969 -0.031157285 -0.052476432 0.090305544 0.09800411 -0.010202987 0.006609612
-0.18579784 -0.072905414 0.037159763 -0.0023898731 -0.025115829 0.09587815 -0.039318673 0.040782906
-0.1033779 -0.00877574 0.032309767 -0.10386407 0.14632171 -0.022243023 0.13273391 0.03696521
-0.010664785 0.091854654 -0.0739383 0.0337891 -0.17604432 0.056575377 0.044710364 0.008273444
-0.015605512 -0.07309624 -0.038967818 -0.1472591 -0.044182863 -0.055751562 0.008055038 0.017487716
-0.020392038 0.049841173 0.08475751 0.03142002 -0.10041776 -0.020431105 -0.075972594 0.023704145
-0.06808477 0.05973433 0.063813604 0.09905415 -0.16789408 0.004280722 -0.016137693 -0.026739364
0.012499092 0.056710143 0.055544443 0.022862937 -0.07997662 -0.12813096 0.013239958 -0.05144239
-0.083779424 0.016342746 0.016057208 -0.009282343 0.06408002 -0.007167541 0.002495493 -0.014735918
-0.047107786 0.124017164 -0.013189755 0.03892063 -0.05288872 -0.036329184 0.006808127 0.061202653
-0.114335544 -0.08402294 -0.011006446 0.008284373 -0.006406754 -0.06697682 -0.066878214 -0.03327101
-0.04972999 -0.031113014 0.06574914 0.061479505 -0.07715291 0.1639943 -0.11454439 -0.033308957
0.075623535 -0.024514493 0.07105208 0.07476174 -0.045309827 -0.007967671 0.08986786 0.060794186
-0.09482126 -0.14184134 -0.06889559 0.06056173 0.1029398 0.043079644 -0.008713853 0.033831198
0.008586301 -0.0021525722 0.024973782 -0.012821014 0.15782376 0.056985024 -0.057198547 -0.022231396
0.021008065 -0.013865888 0.036848713 -0.07448585 0.03465998 0.09231121 -0.09177981 -0.08454402
00000000: fbac acba 4d19 20ba ca77 ea3a ce66 993d
00000010: a073 833d d5b2 863d 4637 55bd 281d a4bc
00000020: c007 7bbc 1f79 b1bc 9b06 f2bc 1ae0 adbc
00000030: ccfc 273d aa28 2c3d d822 7e3d 969e cbbc
00000040: 75fe 693d dc02 883d 33ee ff3d c67e f63c
00000050: 4dab 233d 3271 32bd 2988 adbd 4b04 913c
00000060: 03f2 753d de4f 483d a532 f83d 4f03 e6bc
00000070: cd06 8cbd 6a1c 26bc 4c33 073e 41cc a43d
00000080: 4455 303d 20fe a4bd 3921 893d 22ba fb3c
00000090: bbc9 80bc 7a91 46bd 4ae7 56bd 5ff5 023b
000000a0: dbea 0cbd 6b0f b5bc 858a 8abd 5876 393d
000000b0: 3a9c 333d 80c1 58bd 506a ed3d d5cd 733d
000000c0: f623 043e 09b0 a93c 42b4 96bc 3b36 5d3d
000000d0: e5ca 9abd 71b2 793d c45f 8c3d 4afa 303e
000000e0: 55ed 173b 3e83 f5bc 3c74 483d 168c 77bd
000000f0: 4ef3 29bd 2606 dfbd e3eb 4bbc 9b76 083e
00000100: 1fbc acbb ee90 3a3d 26ac 443d 8a74 dbbc
00000110: 6618 57bb cf5d 043c 51c4 c4bd 6faf 953d
00000120: d8d7 85bc 647e 7e3d 0dd5 38bb 6979 953d
00000130: 147f 48be 7e6d e4bd efd0 2cbc 71d0 1dbd
00000140: dcdb 173d bf2a d43c a9b8 5cbd d16b d63c
00000150: b29e 273d 6715 9fbd dc2d 23bb b263 00bd
00000160: 209b b73c 4b7f 10bd 4f8e 013d f10b 943d
00000170: a161 afbd 1cb9 d43c a7ad 0e3d 4258 cdbd
00000180: a9d8 ff3a b5c5 913d 96f5 a43c a8f5 3e3c
00000190: 7938 a9bc b8e1 183d 8e84 9ebc 52d7 2dbc
000001a0: 6339 6c3d 5a46 99bd 44be 1cbe 9614 26bd
000001b0: dd96 273b 05db 9cbc 59d7 583d 527a c93c
000001c0: 2361 4ebc bcd7 d1bc ef89 75bc 9c7d 163c
000001d0: 51ab 0c3d ab96 753d 4188 793c f818 c03d
000001e0: 014f 1cbe d2a0 06bd 8700 eb3c 2f52 c33d
000001f0: dc24 e9bc 6826 073c f01c 0c3e bf45 2f3c
00000200: 2050 683d 8673 a93c 903d ffbc 87f1 56bd
00000210: 1df2 b83d 61b6 c83d 6e2a 27bc 7295 d83b
00000220: ca41 3ebe 6f4f 95bd d634 183d 6b9f 1cbb
00000230: b6bf cdbc c35b c43d 9e0c 21bd fa0b 273d
00000240: cbb7 d3bd 1fc8 0fbc 3f57 043d afb6 d4bd
00000250: 5cd5 153e 0037 b6bc 66eb 073e d568 173d
00000260: 5abb 2ebc 4b1e bc3d f76c 97bd 7066 0a3d
00000270: f644 34be 95bb 673d 3722 373d 578d 073c
00000280: 43ae 7fbc 7bb3 95bd b89c 1fbd 17cb 16be
00000290: 17f9 34bd c05b 64bd 47f9 033c 6642 8f3c
000002a0: 340d a7bc 4226 4c3d 5895 ad3d 47b2 003d
000002b0: d4a7 cdbd 225f a7bc 8597 9bbd 322f c23c
000002c0: 0770 8bbd fcab 743d b5b0 823d e7dc ca3d
000002d0: 6dec 2bbe 4c45 8c3b 3233 84bc 830c dbbc
000002e0: fec8 4c3c e548 683d 9282 633d 0e4b bb3c
000002f0: c8ca a3bd c334 03be 69ec 583c 41b5 52bd
00000300: 8c94 abbd 39e1 853c 688a 833c f814 18bc
00000310: 633c 833d b1dd eabb 6d8b 233b eb6e 71bc
00000320: 18f4 40bd b6fc fd3d d819 58bc 3d6b 1f3d
00000330: d8a1 58bd e9cd 14bd b516 df3b a2af 7a3d
00000340: c128 eabd 3814 acbd 6154 34bc 2ebb 073c
00000350: bfef d1bb 252b 89bd 72f7 88bd 2f47 08bd
00000360: adb1 4bbd b8e0 febc 7ca7 863d efd1 7b3d
00000370: 5802 9ebd 1fee 273e 4096 eabd f96e 08bd
00000380: 83e0 9a3d 9ed2 c8bc c183 913d af1c 993d
00000390: cc96 39bd d68a 02bc a40c b83d 5303 793d
000003a0: a631 c2bd db3e 11be 2219 8dbd 940f 783d
000003b0: 1ad2 d23d 4874 303d 8cc4 0ebc 9592 0a3d
000003c0: 8ead 0c3c 2b12 0dbb d195 cc3c 3b0f 52bc
000003d0: 8d9c 213e 2169 693d 0649 6abd 9e1e b6bc
000003e0: 1b19 ac3c c02d 63bc adee 163d 0a8c 98bd
000003f0: a0f7 0d3d a90d bd3d 0ef7 bbbd 6a25 adbd

network_body._body_endoder.seq_layers.4.bias f4 [256]
0.0004917584 -0.0001574486 -1.2220014e-05 0.0006135205 -9.916494e-05 0.00023041842 0.00037888697 -0.0004596741
0.00041044987 0.00038091853 -0.00029878182 0.000110307185 0.00069592276 -4.020798e-05 -0.0003685534 0.0005284207
-0.00014050328 0.00064731523 -0.0005612171 -0.00037594975 -2.1891332e-05 0.0008601084 0.00017551894 -0.00084116025
0.00042316262 0.00031148677 -0.00025759032 0.00037242027 0.0007240839 0.0002542086 -0.00020771836 -0.0001779822
-0.00042821394 -8.255682e-05 0.00032539314 -0.0005644258 -6.8910645e-05 -2.2674867e-05 -6.693471e-05 -0.00018404509
-0.00021631923 0.00022577067 -1.7737679e-05 0.0006521598 0.0002128314 -0.00044926547 -0.00028047807 0.00014513482
9.696178e-05 0.0002106363 0.00066552963 -0.00071375264 1.809052e-05 0.0008470746 -0.00016057187 -0.00014416766
0.0008061421 -4.5536694e-05 -3.7539967e-06 -6.843476e-05 -9.9074445e-05 -0.00037597236 0.00029009738 4.6669957e-05
-3.499075e-05 0.00022609302 -0.00042193272 3.019243e-05 0.00027354993 2.6584903e-05 -0.00028034495 0.000110957204
0.0002804587 0.00061584404 0.00014678815 -0.00028788365 0.00015643798 -8.058514e-05 0.00015274718 -0.00015596174
0.00023839674 4.8324273e-05 0.0004904837 0.00027052825 0.00015644802 0.00015849643 6.96263e-05 -0.000105096784
0.00019665153 -0.0002702053 0.00038596647 -0.0004274739 9.247069e-05 0.00046983673 0.00015387259 3.2737316e-05
0.00018142097 0.00052463426 -0.00041356447 9.9062694e-05 0.0003949042 0.0006079505 0.00015853066 -0.0003979066
0.00039844748 -0.00020708649 0.00017913654 -2.247915e-05 0.0005346954 6.706113e-05 -0.0005818961 -0.00016892236
-0.00029014575 -0.00021562184 -0.00010292793 0.00019629835 -0.00016471003 -0.00027943638 -0.000604338 -4.1933406e-05
-0.00012202348 -0.00053710677 0.00038550657 0.00020827043 0.0001115533 0.00014503492 0.00069368444 0.0009968637
8.951242e-05 0.00040166115 0.00022790267 -0.0008076374 7.898004e-05 0.00019973931 0.0001119906 -0.0005668525
-0.0004035678 -0.00045446248 -0.00038254418 -0.00032107148 -0.0007728487 0.0005122327 -0.00050068035 -0.0004997136
0.00032686768 -0.0008757162 0.00031782154 0.0001820826 -0.00023485295 -0.00033089297 0.00078134116 -0.0006145242
0.00044083266 0.00018840413 -0.00051922054 0.0004248182 0.0005734002 0.00030912829 2.833168e-05 2.8913542e-05
0.0002125323 -5.7902336e-05 -0.00024026803 -0.00068014924 0.000499667 0.00017961186 -0.0002578811 -1.8177998e-05
0.00032893455 0.00041181565 -0.00016662918 0.00011403481 -0.00043762938 0.0009164427 0.00032093146 0.00032142433
-0.0006690523 -0.0008996355 -0.00053479115 -0.0005155259 -0.0003140654 0.000435517 2.5486368e-05 0.00033501594
0.00030074577 2.3885963e-05 -9.60493e-05 0.00010553301 -5.5017143e-05 0.0002360348 0.00020859996 -0.0003596376
-0.0003097963 0.00014042403 0.00014827568 0.00034578145 8.663069e-08 -0.00013859237 0.0003163821 -0.0002946245
-0.00027253132 -0.00066825247 0.00061903946 -0.0003165079 6.179654e-05 1.2305908e-05 0.0003676713 -0.0003192978
-0.00019788241 -0.00023801903 0.00036355745 0.0007143801 -0.0005904424 0.00033893442 0.00033729337 0.00037547908
0.00034943933 0.0006322828 2.6368494e-05 0.00015818422 -0.00023238387 -9.895345e-06 -0.0006784427 0.00014526317
0.00038261188 0.00033388217 -0.00039937647 -0.000864185 -0.0002521761 0.0003362655 -0.00042787576 0.00040006803
0.00058695726 0.0002778243 0.00015312701 -0.0002895644 -0.00035134132 -8.517826e-06 -0.00049224927 0.00039265494
-0.0003727836 -0.00030380642 -0.00023254231 -0.00030211543 -0.00031777722 0.00033845787 -0.0006949549 0.0005217833
0.00022354971 0.000119988064 -0.0006336524 0.00015825534 -0.00013637482 0.00022056837 -0.00036031104 -0.00044329822
00000000: 59e9 003a c918 25b9 8f04 4db7 aad4 203a
00000010: c6f6 cfb8 799c 7139 59a5 c639 6a00 f1b9
00000020: a631 d739 05b6 c739 d1a5 9cb9 b854 e738
00000030: 966e 363a fda4 28b8 663a c1b9 b785 0a3a
00000040: 1054 13b9 97b0 293a a41e 13ba 1f1b c5b9
00000050: 47a3 b7b7 e678 613a 820b 3839 4f81 5cba
00000060: eddb dd39 0c4f a339 300d 87b9 6741 c339
00000070: 73d0 3d3a 4d47 8539 f9ce 59b9 bca0 3ab9
00000080: e781 e0b9 5b22 adb8 8799 aa39 f9f5 13ba
00000090: 1f84 90b8 e835 beb7 4c5f 8cb8 3afc 40b9
000000a0: c0d3 62b9 dabc 6c39 60cb 94b7 b4f5 2a3a
000000b0: 7e2b 5f39 648b ebb9 210d 93b9 552f 1839
000000c0: f657 cb38 40de 5c39 f076 2e3a 211b 3bba
000000d0: 19c1 9737 370e 5e3a 2f5f 28b9 b62b 17b9
000000e0: 4853 533a a7fe 3eb8 2ced 7bb6 a284 8fb8
000000f0: 30c6 cfb8 281e c5b9 3618 9839 7cbf 4338
00000100: 08c3 12b8 6213 6d39 da36 ddb9 c045 fd37
00000110: 406b 8f39 a502 df37 43fb 92b9 b2b1 e838
00000120: 880a 9339 9870 213a 25eb 1939 17ef 96b9
00000130: 8009 2439 d1ff a8b8 c22a 2039 a989 23b9
00000140: 23fa 7939 cbaf 4a38 ce93 003a b0d5 8d39
00000150: 320c 2439 1032 2639 5604 9238 6867 dcb8
00000160: 3e34 4e39 57aa 8db9 8b5b ca39 931e e0b9
00000170: d3ec c138 6b54 f639 dc58 2139 6d4f 0938
00000180: d23b 3e39 9c87 093a afd3 d8b9 e1bf cf38
00000190: 250b cf39 de5e 1f3a 403b 2639 1f9e d0b9
000001a0: b7e6 d039 5b25 59b9 99d6 3b39 9b91 bcb7
000001b0: cd2a 0c3a 2ca3 8c38 638a 18ba c020 31b9
000001c0: b41e 98b9 8c18 62b9 03db d7b8 70d5 4d39
000001d0: 03b6 2cb9 5181 92b9 706c 1eba a7e1 2fb8
000001e0: dbe6 ffb8 a0cc 0cba d11d ca39 2b63 5a39
000001f0: b9f1 e938 8414 1839 60d8 353a 32a9 823a
00000200: 9db8 bb38 0c96 d239 28f9 6e39 a1b7 53ba
00000210: 16a2 a538 1d71 5139 7fdc ea38 d498 14ba
00000220: f495 d3b9 ec44 eeb9 3690 c8b9 7c55 a8b9
00000230: 0099 4aba 5b47 063a 1740 03ba 36ff 02ba
00000240: 705f ab39 5290 65ba 49a1 a639 6ded 3e39
00000250: dc42 76b9 b47b adb9 ebd2 4c3a 0518 21ba
00000260: 8f1f e739 598e 4539 4d1c 08ba 22ba de39
00000270: 3c50 163a 7f12 a239 d2a9 ed37 5c8b f237
00000280: 34db 5e39 29dc 72b8 75f0 7bb9 0b4c 32ba
00000290: 16fc 023a 3156 3c39 3734 87b9 f47c 98b7
000002a0: d974 ac39 f6e8 d739 2eb9 2eb9 f925 ef38
000002b0: 9f71 e5b9 6e3d 703a b142 a839 d884 a839
000002c0: 5763 2fba 84d5 6bba 3a31 0cba 5c24 07ba
000002d0: 25a9 a4b9 1a56 e439 8fcb d537 14a5 af39
000002e0: 6aad 9d39 b75e c837 136e c9b8 9a51 dd38
000002f0: 35c2 66b8 1c80 7739 a0bb 5a39 be8d bcb9
00000300: 286c a2b9 ca3e 1339 737a 1b39 004a b539
00000310: ba09 ba33 1b53 11b9 16e0 a539 d577 9ab9
00000320: 89e2 8eb9 aa2d 2fba 0947 223a f9f0 a5b9
00000330: c498 8138 7975 4e37 02c4 c039 6d67 a7b9
00000340: a87e 4fb9 bf94 79b9 db9b be39 3d45 3b3a
00000350: ebc7 1aba 02b3 b139 c0d6 b039 f3db c439
00000360: f434 b739 c8bf 253a e931 dd37 41de 2539
00000370: 12ac 73b9 2f04 26b7 85d9 31ba c951 1839
00000380: 4c99 c839 e80c af39 6763 d1b9 798a 62ba
00000390: 8136 84b9 cb4c b039 8354 e0b9 39c0 d139
000003a0: 09de 193a f2a8 9139 b890 2039 add0 97b9
000003b0: 3c34 b8b9 c9e7 0eb7 4a0a 01ba 41dd cd39
000003c0: 2b72 c3b9 3548 9fb9 9ad6 73b9 3f65 9eb9
000003d0: 569b a6b9 0c73 b139 a22d 36ba 49c8 083a
000003e0: ab68 6a39 1aa2 fb38 b11b 26ba 58f1 2539
000003f0: d6ff 0eb9 5f48 6739 21e8 bcb9 7b6a e8b9

action_model._continuous_distribution.log_sigma f4 [1, 2]
6.787675e-05 0.00013651935
00000000: 0d59 8e38 a226 0f39

action_model._continuous_distribution.mu.weight f4 [2, 256]
0.031602893 0.006239269 -0.0074873976 0.00023626839 0.0002106204 0.02514044 0.00028171984 -0.021029511
0.019613734 -0.006426139 -0.0028466387 0.00069094845 0.015390285 -0.013882071 -0.020586653 0.00095099956
0.008663019 0.009960771 -0.0037226584 -0.004740045 0.0022087994 -0.004487359 0.007134351 -0.005708066
0.003351886 0.0029034002 -0.009688245 0.020798577 0.012201494 0.0155225815 -0.016363183 -0.006344984
-0.01015903 -0.0006764503 0.013664995 -0.013212067 0.0030867802 -0.007994201 -0.009322759 -0.007192364
0.010220033 0.0015448838 -0.0020034823 0.014364782 0.005600329 -0.014549782 -0.016675258 0.012070602
0.013048123 0.014518605 0.0044262325 -0.006926243 -0.0017180117 0.004528546 -0.0117972065 -0.014016067
0.015794525 0.0031522398 -0.009976123 0.007841432 -0.0029675544 -0.0033278596 0.008027163 -0.0008474282
0.008296399 0.0074513424 -0.01327754 0.017249407 0.008901768 0.0012447647 0.0015549959 0.0043950113
0.041702475 0.0036837147 0.0058283606 0.0020419115 0.014380328 0.001527589 0.0035173367 -0.018824972
0.010183138 -0.004452652 0.0071821595 0.031480975 0.00705186 0.0076054204 -0.0030911865 0.004277228
-0.0011783536 0.008380819 0.02504603 -0.014235968 -0.006805442 0.010423948 -0.0022829126 -0.007705893
-0.0067779953 0.016752921 -0.0021146908 -0.0035893824 0.017219959 0.0049538664 -0.0056867073 -0.017517518
0.015667278 -0.0005238053 0.0075647747 0.0015053975 -0.0024819283 -0.009847008 -0.0036014337 -0.029269941
-0.0137294475 -0.010947456 -0.00407195 0.014234927 -0.01738874 -0.019392604 -0.017240128 -0.007255639
-0.00672836 -0.0074478895 0.0024942458 0.010328132 0.0025033704 0.0041092737 0.009523123 0.0073210606
0.0004929248 0.0069616856 -0.002647746 -0.0028463544 -0.003958907 0.010372245 0.0036704254 -0.03020322
-0.014411116 -0.029342098 -0.015598063 -0.010138304 -0.005267222 0.013979629 -0.0020700858 -0.0021161435
0.011341396 -0.0029769926 0.009020868 -0.00827481 -0.006115563 -0.023329578 0.002426799 -0.025102047
0.01557221 -0.0009557514 -0.012743415 0.020418258 0.019715104 0.0058203693 0.0070113554 -0.008507314
0.009670964 0.0029627308 -0.005134574 -0.01345989 0.021593045 -0.0021836488 -0.014735104 -0.007903568
0.0053833732 0.0066460613 0.01067836 -0.0033318605 0.00024416557 0.0005706871 0.017074417 0.0036260695
-0.008676902 -0.003923733 -0.0052613663 -0.0062822094 -0.0062113972 0.017141882 0.00031978698 0.018632615
0.004430004 -0.011050499 -0.0071381573 0.0078885965 -0.00613059 0.0021000085 0.0011790633 -0.021927986
-0.008636006 0.0049374686 -0.011953831 0.021860814 0.0052968147 -0.018446429 -0.00090645754 -0.018860914
-0.004656452 0.0032027587 0.004642508 -0.0026833676 -0.0026716923 0.000535898 0.01468062 -0.015010803
-0.010510118 -0.0145310145 0.013332887 0.010320096 -0.016199082 0.016663644 0.018165167 0.011037719
0.010096049 0.014162585 0.0005482178 0.0045525245 0.0032752901 0.0064310054 -0.0077134497 0.004972394
0.016633015 0.012886058 -0.018327307 -0.004916923 -0.0051968354 0.0111464895 -0.0029792315 0.014173894
0.0016314859 0.014660534 0.017421937 -0.0051458497 -0.024612369 -0.01659591 -0.013602257 0.011381209
-0.024757957 -0.0129291145 -0.010172018 -0.0067824195 -0.011495638 0.00019338788 -0.002966523 0.010248078
-0.0017378232 0.008247889 -0.0075286524 -0.0013336985 -0.0016940517 -8.680347e-05 -0.0084677115 -0.016392257
00000000: 0972 013d c872 cc3b d858 f5bb d0be 7739
00000010: fcd9 5c39 53f3 cd3c ccb3 9339 1546 acbc
00000020: fbac a03c 5c92 d2bb ac8e 3abb c420 353a
00000030: 8927 7c3c a071 63bc 57a5 a8bc 804c 793a
00000040: 56ef 0d3c 8032 233c d8f7 73bb 6152 9bbb
00000050: 81c1 103b b20a 93bb 46c7 e93b ba0a bbbb
00000060: 51ab 5b3b f946 3e3b 72bb 1ebc c761 aa3c
00000070: c6e8 473c 6d52 7e3c 150c 86bc 95e9 cfbb
00000080: 0f72 26bc d053 31ba 25e3 5f3c 6d77 58bc
00000090: 944b 4a3b 1cfa 02bc 7cbe 18bc ecad ebbb
000000a0: ed71 273c b37d ca3a db4c 03bb 435a 6b3c
000000b0: f782 b73b 3562 6ebc 8d9a 88bc c6c3 453c
000000c0: cbc7 553c 71df 6d3c ee09 913b 8af5 e2bb
000000d0: e82e e1ba 3264 943b 1249 41bc a5a3 65bc
000000e0: 8563 813c cf95 4e3b e572 23bc 5979 003c
000000f0: 4d7b 42bb 3818 5abb 5d84 033c f225 5eba
00000100: 9fed 073c 642a f43b 0a8a 59bc a14e 8d3c
00000110: b9d8 113c 5f27 a33a 01d1 cb3a 0704 903b
00000120: 37d0 2a3d 7a6a 713b d5fb be3b 97d1 053b
00000130: 789b 6b3c 6239 c83a 1e83 663b d436 9abc
00000140: 2dd7 263c 8de7 91bb 5258 eb3b 32f2 003d
00000150: 4a13 e73b e436 f93b 8195 4abb fd27 8c3b
00000160: fc72 9aba b44f 093c 552d cd3c fa3d 69bc
00000170: 2f00 dfbb 35c9 2a3c eb9c 15bb b781 fcbb
00000180: f219 debb 6c3d 893c a096 0abb d83b 6bbb
00000190: df10 8d3c 0b54 a23b 8f57 babb e680 8fbc
000001a0: aa58 803c fb4f 09ba eee1 f73b c250 c53a
000001b0: d9a7 22bb 5855 21bc 0806 6cbb 84c7 efbc
000001c0: 7af1 60bc f55c 33bc fe6d 85bb 9c39 693c
000001d0: d572 8ebc 3ddd 9ebc 2b3b 8dbc b6c0 edbb
000001e0: 9379 dcbb 6d0d f4bb 8076 233b 5337 293c
000001f0: 960f 243b 16a7 863b df06 1c3c 82e5 ef3b
00000200: a037 013a da1e e43b ce85 2dbb e789 3abb
00000210: b8b9 81bb 59f0 293c 858b 703b be6c f7bc
00000220: 9a1c 6cbc d75e f0bc 058f 7fbc 211b 26bc
00000230: a998 acbb d00a 653c 47aa 07bb ffae 0abb
00000240: 43d1 393c a619 43bb 43cc 133c 1293 07bc
00000250: 1065 c8bb ac1d bfbc ee0a 1f3b cfa2 cdbc
00000260: 9522 7f3c 648b 7aba c2c9 50bc 3144 a73c
00000270: 9281 a13c ccb8 be3b 83bf e53b 4362 0bbc
00000280: f772 1e3c 602a 423b ee3f a8bb df86 5cbc
00000290: e6e3 b03c 8c1b 0fbb 816b 71bc f87d 01bc
000002a0: 0267 b03b 34c7 d93b 4af4 2e3c 585b 5abb
000002b0: 5903 8039 2a9a 153a a6df 8b3c 5aa3 6d3b
000002c0: 9129 0ebc a892 80bb 8a67 acbb feda cdbb
000002d0: fa88 cbbb 226d 8c3c 15a9 a739 6da3 983c
000002e0: 9129 913b 270d 35bc 34e7 e9bb 2c3f 013c
000002f0: 1ee3 c8bb 4ca0 093b cd8a 9a3a 52a2 b3bc
00000300: 097e 0dbc 7dca a13b 00da 43bc 7315 b33c
00000310: e790 ad3b f71c 97bc 569f 6dba 3482 9abc
00000320: 2795 98bb 60e5 513b 2e20 983b 70db 2fbb
00000330: 8f17 2fbb 827b 0c3a fc86 703c dfef 75bc
00000340: a132 2cbc 7e13 6ebc 2e72 5a3c 9f15 293c
00000350: f0b3 84bc 3282 883c 1ecf 943c 8dd7 343c
00000360: e669 253c 300a 683c 46b6 0f3a 582d 953b
00000370: 40a6 563b 2fbb d23b 1bc1 fcbb 77ef a23b
00000380: f641 883c 0b20 533c 2623 96bc 241e a1bb
00000390: 374a aabb c49f 363c 363f 43bb 9f39 683c
000003a0: 95d7 d53a bd32 703c 73b8 8e3c 849e a8bb
000003b0: e19f c9bc 25f4 87bc 00dc 5ebc 4078 3a3c
000003c0: 33d1 cabc a3d4 53bc 89a8 26bc 0f3f debb
000003d0: 3358 3cbc 2ac8 4a39 ff69 42bb 8ee7 273c
000003e0: acc7 e3ba 2722 073c eab2 f6bb 7fcf aeba
000003f0: f10a deba 420a b6b8 28bc 0abc 0e49 86bc

action_model._continuous_distribution.mu.bias f4 [2]
0.00038951126 -7.980436e-06
00000000: 5137 cc39 b6e3 05b7
