MLAgents Jumper Exercise/Assets/results/Jumper_3/JumperAgent/JumperAgent-10187.onnx (onnx, 568283 bytes, 12 tensors)

network_body.observation_encoder.processors.0.normalizer.running_mean f4 [26]
00000000: b33c 4c3f a74e 533f 2543 4c3f d274 533f
00000010: 2543 4c3f d274 533f 7332 4e3f 9e49 543f
00000020: 7332 4e3f 9e49 543f 2afb 4f3f 5acc 553f
00000030: 2afb 4f3f 5acc 553f 36c5 523f 7e91 583f
00000040: 36c5 523f 7f91 583f 8aa6 5d3f b33b 613f
00000050: 8aa6 5d3f b33b 613f 5f4b 663f b2a7 683f
00000060: 5f4b 663f b2a7 683f
0.7978012 0.8254189 0.79789954 0.8260013 0.79789954 0.8260013 0.8054573 0.8292483
0.8054573 0.8292483 0.8124262 0.8351494 0.8124262 0.8351494 0.8233217 0.84597003
0.8233217 0.8459701 0.86582243 0.8798172 0.86582243 0.8798172 0.8995876 0.9088088
0.8995876 0.9088088

network_body.observation_encoder.processors.1.normalizer.running_mean f4 [2]
00000000: bf6c 223e 92d3 8dbc
0.15861796 -0.017312799

network_body._body_endoder.seq_layers.0.weight f4 [256, 28]
00000000: 179d 13be 7612 e73d 2e4e ad3d e904 ecbb
00000010: e083 c23e eda3 88be 3fdb 9ebe f444 75bc
00000020: 89ac 00bc 2135 53bd 962b 253e 1210 bd3e
00000030: 17c0 b1be af63 9dbe 3ace 36be 6278 8b3e
00000040: 43db c6be c91a 9c3e d00e f63d b9fb 4dbe
00000050: 9d5f ef3c a1c1 ce3d 661b fcbd 003b d23d
00000060: d036 5ebe 1a20 03bd e77f f3bd b09a 663d
00000070: 8594 bc3e 879d 2bbe c1c4 97be 885e 233e
00000080: 97e8 963d c148 353e 9f47 063e 54ee 22be
00000090: 2136 0dbd 1670 4abe a55c e03d c757 0cbe
000000a0: d3dc 7fbe 9d34 c4be 4f7b 8e3d b8e1 86be
000000b0: 8d3e ecbd 5347 8abd 5c93 6fbd cd80 07be
000000c0: 1df9 283d 17ef 903e e183 2f3e 69e7 9dbd
000000d0: 6d0d c0bd f1dd 003e 89b0 fc3d 20ea 01be
000000e0: b558 bc3c 3390 cbbd dd4a 9a3e 13f3 96be
000000f0: 0236 953d 41ae 39bd 90e7 6bbe bed0 963d
00000100: 3248 00bd 1366 6abd 0820 fc3c 2ea1 4c3d
00000110: 3a7f 813e 950c 7d3d a28b c53b 266e f6be
00000120: adeb 8a3a 8538 5d3e aaf6 503d 8126 acbd
00000130: 04aa 6bbe 5215 143d e597 bfbe ad6b fa3d
00000140: c36b 463d d84a a73e fdbb c6be 82ba 8f3d
00000150: b308 37be cbc7 2b3e 7314 0e3f 3a6b 79bd
00000160: b16f 863e 4bd0 823e 0cda 813d c461 fdbd
00000170: 4e7e 8d3d 777c 7e3e 4f30 e33e 03ae 643e
00000180: ad71 e23d b265 82b9 6de5 18bd 5de9 babe
00000190: ee9c 89be d4b7 613d c613 133e 505a ebbc
000001a0: 56ff 0239 d269 05bd 4d31 6ebe cd25 7bbd
000001b0: a7f4 7abe e2ee bd3e b7d7 b53d d0ce 8a3e
000001c0: a223 3b3d 7a26 09be 083c 9fbd 018c 233e
000001d0: 17ca abbd 62ef 103e df9a bdbd b4b9 0ebe
000001e0: bfa2 083f 8de9 f53d 96d1 17bb 81d1 95bc
000001f0: 49be 93be c0e6 f7be 6570 90bd d387 dabc
00000200: 484f 93be 72a3 07bd f38a 063d 1443 703e
00000210: 21f3 f0be 53fc 753e 843f e0bd 76ef 67bc
00000220: 2ffa 3ebe aca6 423e 9e24 26bd 5299 943e
00000230: 422d 99bd 38dc 82ba b7f6 52be 4179 76be
00000240: 5084 2bbe 0203 d53c 9f2b 23be afd3 493d
00000250: 0305 06be 0181 d93d a69e 433e 42cf afbe
00000260: b5b7 83be 5b67 003e 1fad 813d 7bc7 113e
00000270: 52a9 8fbe d21a 123e 0592 e5be 2a06 a5bd
00000280: fa6c a6bc ca4f eebe 1b23 2c3e 3ebf bf3e
00000290: 73e1 303b 7a51 4d3d fe24 8fbe 9ac7 be3d
000002a0: 79cf 10be 3f3b 5f3e 6a7d e83d c1fe 8dbe
000002b0: d498 1cbe a10e 623e 50ec d93d eb20 59bd
000002c0: 5221 01be fd1e 95bd da84 bcbe 87b4 123d
000002d0: 269e 5d3e 122f 14bd 7200 aab8 6d38 01be
000002e0: 5c8c c43d 2f17 71bd 41c4 a0be a3f2 e8bd
000002f0: ccd0 e1bd c9ca aebb e655 4d3d 537e 76bc
00000300: 73d1 1a3e 52ba ca3e 4d7e f43d efbd 54bd
00000310: 2b9a 18be cb47 843e 2beb 88be ec7c c53d
00000320: 5d2b 213e c76c c2be 53d4 edbb fbce 91bd
00000330: 5389 a93d 73cc ea3e 89da 3c3c 2c51 ffbd
00000340: 5626 eb3c bcf2 213d d97a 363e 5142 423e
00000350: 3b45 f03d a451 183d 68dc 493e 1244 ed3d
00000360: bbe6 5d3d a7aa 3fbe 05ad cd3e 896c 153f
00000370: 5b71 5abe bcaf 1f3e 7598 e73d 6868 b33e
00000380: fc2f cb3c ff98 b13e f2ee 8cbd b568 92be
00000390: e23a 913e 0e8d 643d beab b7bd 6751 8fbe
000003a0: 96c7 86be 3af7 b1be 218b 053e 2b33 88bd
000003b0: f3b9 03be 87e0 d7bd 2e82 00be 2fde 513a
000003c0: 3ea4 25be 4370 6bbd b0aa 5abe 699c c8be
000003d0: 1554 86bc 07fe 343e f1f9 9fbd 933f 5a3e
000003e0: 49e3 92bd 37c3 ed3c caab 4d3e 0fa9 383e
000003f0: 206a 54bd 109e f13d ccd4 82be 7bee 03bf
-0.14415394 0.11282818 0.08462177 -0.007202734 0.37991238 -0.26687565 -0.31026646 -0.014970053
-0.007853636 -0.05156434 0.16129908 0.36926323 -0.34716865 -0.30740115 -0.17852107 0.27240282
-0.38839158 0.30489185 0.12014544 -0.20115556 0.029220397 0.100955255 -0.12309913 0.102651596
-0.21700597 -0.032013036 -0.1188963 0.056299865 0.3683206 -0.1675931 -0.296423 0.1595403
0.07368582 0.17703535 0.13113259 -0.15911227 -0.03447545 -0.1976932 0.109551705 -0.1370536
-0.24986582 -0.3832139 0.06957113 -0.26344085 -0.11535368 -0.06751885 -0.058490142 -0.13232727
0.041253198 0.2830741 0.17140152 -0.077101536 -0.09377561 0.12584664 0.12338359 -0.12686968
0.022991518 -0.09939613 0.3013524 -0.29482326 0.07285692 -0.045332197 -0.23037553 0.07364033
-0.03131885 -0.05722625 0.030776992 0.0499584 0.2529238 0.061779577 0.0060286084 -0.48130912
0.0010598801 0.21603592 0.051016487 -0.084057815 -0.23014075 0.036153145 -0.37420574 0.12227569
0.048442613 0.3267429 -0.388153 0.070179954 -0.17874412 0.16775434 0.55499953 -0.060893275
0.2625709 0.2554954 0.06340417 -0.12372163 0.06908856 0.24852167 0.44372794 0.22332005
0.11056838 -0.000248713 -0.037328172 -0.36506167 -0.2687754 0.055106953 0.14363012 -0.028729588
0.00012492886 -0.03257162 -0.23260994 -0.061315347 -0.2450739 0.37096316 0.08879035 0.2711091
0.04568828 -0.13393584 -0.07775122 0.15971376 -0.08388155 0.14153817 -0.09258055 -0.13938028
0.5337333 0.12007437 -0.0023165694 -0.018288376 -0.28856114 -0.48418236 -0.070526876 -0.026676094
-0.28771424 -0.033114858 0.032847356 0.23463088 -0.47060493 0.24022035 -0.10949615 -0.014156213
-0.18650125 0.19008893 -0.040562265 0.29023224 -0.07479335 -0.0009983843 -0.20601927 -0.24069692
-0.16749692 0.02600241 -0.15934609 0.049274143 -0.1308785 0.10620309 0.19103488 -0.34337813
-0.25726095 0.12539427 0.06331848 0.14236252 -0.2805887 0.14268044 -0.44837967 -0.08057816
-0.020315636 -0.4654525 0.16810267 0.37450594 0.0026989847 0.05012653 -0.2795791 0.09315415
-0.14141645 0.21799944 0.11352046 -0.27733424 -0.15292674 0.22075893 0.10640776 -0.05300991
-0.12610367 -0.07281301 -0.36820108 0.035816696 0.2164236 -0.036177702 -8.1063146e-05 -0.12619181
0.09597084 -0.05886 -0.3139973 -0.11374404 -0.11026153 -0.0053342325 0.050130747 -0.0150447665
0.15118961 0.39595276 0.119381525 -0.051938947 -0.1490256 0.25836024 -0.2674192 0.096429676
0.15739198 -0.37973616 -0.007257977 -0.071195565 0.08278146 0.45859107 0.011526712 -0.12466654
0.028704803 0.03953813 0.178203 0.1897061 0.11731955 0.037187234 0.19712985 0.11585249
0.05417512 -0.18717442 0.40171066 0.58368737 -0.21332304 0.15594381 0.11308376 0.35040593
0.024803154 0.3468704 -0.06881513 -0.2859551 0.28365237 0.055798583 -0.08968304 -0.27991793
-0.26324147 -0.3475893 0.13041355 -0.066503845 -0.12863903 -0.10540872 -0.1254966 0.0008005825
-0.16175935 -0.057480108 -0.21354175 -0.3918183 -0.016397515 0.17675029 -0.078113444 0.21313314
-0.071722575 0.02902375 0.20085064 0.1803324 -0.05185902 0.11797726 -0.25552976 -0.5153577

network_body._body_endoder.seq_layers.0.bias f4 [256]
00000000: 0000 0000 0000 0000 0000 0000 0000 0000
00000010: 0000 0000 0000 0000 0000 0000 0000 0000
00000020: 0000 0000 0000 0000 0000 0000 0000 0000
00000030: 0000 0000 0000 0000 0000 0000 0000 0000
00000040: 0000 0000 0000 0000 0000 0000 0000 0000
00000050: 0000 0000 0000 0000 0000 0000 0000 0000
00000060: 0000 0000 0000 0000 0000 0000 0000 0000
00000070: 0000 0000 0000 0000 0000 0000 0000 0000
00000080: 0000 0000 0000 0000 0000 0000 0000 0000
00000090: 0000 0000 0000 0000 0000 0000 0000 0000
000000a0: 0000 0000 0000 0000 0000 0000 0000 0000
000000b0: 0000 0000 0000 0000 0000 0000 0000 0000
000000c0: 0000 0000 0000 0000 0000 0000 0000 0000
000000d0: 0000 0000 0000 0000 0000 0000 0000 0000
000000e0: 0000 0000 0000 0000 0000 0000 0000 0000
000000f0: 0000 0000 0000 0000 0000 0000 0000 0000
00000100: 0000 0000 0000 0000 0000 0000 0000 0000
00000110: 0000 0000 0000 0000 0000 0000 0000 0000
00000120: 0000 0000 0000 0000 0000 0000 0000 0000
00000130: 0000 0000 0000 0000 0000 0000 0000 0000
00000140: 0000 0000 0000 0000 0000 0000 0000 0000
00000150: 0000 0000 0000 0000 0000 0000 0000 0000
00000160: 0000 0000 0000 0000 0000 0000 0000 0000
00000170: 0000 0000 0000 0000 0000 0000 0000 0000
00000180: 0000 0000 0000 0000 0000 0000 0000 0000
00000190: 0000 0000 0000 0000 0000 0000 0000 0000
000001a0: 0000 0000 0000 0000 0000 0000 0000 0000
000001b0: 0000 0000 0000 0000 0000 0000 0000 0000
000001c0: 0000 0000 0000 0000 0000 0000 0000 0000
000001d0: 0000 0000 0000 0000 0000 0000 0000 0000
000001e0: 0000 0000 0000 0000 0000 0000 0000 0000
000001f0: 0000 0000 0000 0000 0000 0000 0000 0000
00000200: 0000 0000 0000 0000 0000 0000 0000 0000
00000210: 0000 0000 0000 0000 0000 0000 0000 0000
00000220: 0000 0000 0000 0000 0000 0000 0000 0000
00000230: 0000 0000 0000 0000 0000 0000 0000 0000
00000240: 0000 0000 0000 0000 0000 0000 0000 0000
00000250: 0000 0000 0000 0000 0000 0000 0000 0000
00000260: 0000 0000 0000 0000 0000 0000 0000 0000
00000270: 0000 0000 0000 0000 0000 0000 0000 0000
00000280: 0000 0000 0000 0000 0000 0000 0000 0000
00000290: 0000 0000 0000 0000 0000 0000 0000 0000
000002a0: 0000 0000 0000 0000 0000 0000 0000 0000
000002b0: 0000 0000 0000 0000 0000 0000 0000 0000
000002c0: 0000 0000 0000 0000 0000 0000 0000 0000
000002d0: 0000 0000 0000 0000 0000 0000 0000 0000
000002e0: 0000 0000 0000 0000 0000 0000 0000 0000
000002f0: 0000 0000 0000 0000 0000 0000 0000 0000
00000300: 0000 0000 0000 0000 0000 0000 0000 0000
00000310: 0000 0000 0000 0000 0000 0000 0000 0000
00000320: 0000 0000 0000 0000 0000 0000 0000 0000
00000330: 0000 0000 0000 0000 0000 0000 0000 0000
00000340: 0000 0000 0000 0000 0000 0000 0000 0000
00000350: 0000 0000 0000 0000 0000 0000 0000 0000
00000360: 0000 0000 0000 0000 0000 0000 0000 0000
00000370: 0000 0000 0000 0000 0000 0000 0000 0000
00000380: 0000 0000 0000 0000 0000 0000 0000 0000
00000390: 0000 0000 0000 0000 0000 0000 0000 0000
000003a0: 0000 0000 0000 0000 0000 0000 0000 0000
000003b0: 0000 0000 0000 0000 0000 0000 0000 0000
000003c0: 0000 0000 0000 0000 0000 0000 0000 0000
000003d0: 0000 0000 0000 0000 0000 0000 0000 0000
000003e0: 0000 0000 0000 0000 0000 0000 0000 0000
000003f0: 0000 0000 0000 0000 0000 0000 0000 0000
0.0 0.0 0.0 0.0 0.0 0.0 0.0 0.0
0.0 0.0 0.0 0.0 0.0 0.0 0.0 0.0
0.0 0.0 0.0 0.0 0.0 0.0 0.0 0.0
0.0 0.0 0.0 0.0 0.0 0.0 0.0 0.0
0.0 0.0 0.0 0.0 0.0 0.0 0.0 0.0
0.0 0.0 0.0 0.0 0.0 0.0 0.0 0.0
0.0 0.0 0.0 0.0 0.0 0.0 0.0 0.0
0.0 0.0 0.0 0.0 0.0 0.0 0.0 0.0
0.0 0.0 0.0 0.0 0.0 0.0 0.0 0.0
0.0 0.0 0.0 0.0 0.0 0.0 0.0 0.0
0.0 0.0 0.0 0.0 0.0 0.0 0.0 0.0
0.0 0.0 0.0 0.0 0.0 0.0 0.0 0.0
0.0 0.0 0.0 0.0 0.0 0.0 0.0 0.0
0.0 0.0 0.0 0.0 0.0 0.0 0.0 0.0
0.0 0.0 0.0 0.0 0.0 0.0 0.0 0.0
0.0 0.0 0.0 0.0 0.0 0.0 0.0 0.0
0.0 0.0 0.0 0.0 0.0 0.0 0.0 0.0
0.0 0.0 0.0 0.0 0.0 0.0 0.0 0.0
0.0 0.0 0.0 0.0 0.0 0.0 0.0 0.0
0.0 0.0 0.0 0.0 0.0 0.0 0.0 0.0
0.0 0.0 0.0 0.0 0.0 0.0 0.0 0.0
0.0 0.0 0.0 0.0 0.0 0.0 0.0 0.0
0.0 0.0 0.0 0.0 0.0 0.0 0.0 0.0
0.0 0.0 0.0 0.0 0.0 0.0 0.0 0.0
0.0 0.0 0.0 0.0 0.0 0.0 0.0 0.0
0.0 0.0 0.0 0.0 0.0 0.0 0.0 0.0
0.0 0.0 0.0 0.0 0.0 0.0 0.0 0.0
0.0 0.0 0.0 0.0 0.0 0.0 0.0 0.0
0.0 0.0 0.0 0.0 0.0 0.0 0.0 0.0
0.0 0.0 0.0 0.0 0.0 0.0 0.0 0.0
0.0 0.0 0.0 0.0 0.0 0.0 0.0 0.0
0.0 0.0 0.0 0.0 0.0 0.0 0.0 0.0

network_body._body_endoder.seq_layers.2.weight f4 [256, 256]
00000000: 554f 6c3d 5e14 2cbc a567 8ebd 3bbf 603c
00000010: 2a38 1abd 6924 1c3d 48e2 3fbd 02f2 853d
00000020: 3172 c03c bcaa 80bd 8556 bb3b 726e f33c
00000030: 1402 9abb d347 7c3d 64e8 b9bd d9fe 59bc
00000040: 5798 18bc d497 80bc 84f8 873d ab98 88bc
00000050: acd9 24bc 37e4 e0bc 096d 643d cba6 77bc
00000060: 4503 ce3c 048d 3dbd 6bf9 063e 6575 c0bd
00000070: 7e3b ccbd 701a 153b e07f 983c 9735 413d
00000080: b2fc 623d 3c24 8cbb 0fa7 fe3c e19d fbbc
00000090: 5fad f13b 3bac b4bd 6c61 29bd 629f a3bd
000000a0: 65b9 e1bc 7e03 8ebc cc7a 583d 451e 90bd
000000b0: 1748 793c 3840 7cbd 828b a0bc 5c3a 4e3d
000000c0: d719 b8bd e60f 9abb b3b8 5c3d 7d0a 7dbc
000000d0: 9748 443b fdcf 99bd c792 cc3c c639 90bb
000000e0: 97b3 393d 41ae cf3c d047 283d 78a9 163d
000000f0: 0a53 95bc 6179 9c3d d02e 8bbc 6db5 183d
00000100: 879e 9e3d f5bb 853c 0287 42bc 6bb4 70bc
00000110: 4017 cfbc b0a0 9d3d cfcc 103e 812d 02bd
00000120: 87b4 203d 984a 243c e860 a23b 12c6 98bd
00000130: 174d 14bd 6224 f4b9 184c 7d3b 6769 a33d
00000140: aff0 683d 3bda e73d 92d5 be3d 9fca 25bc
00000150: dd31 a0bd a59e 25bc 1240 163d c44d 90bd
00000160: 5c11 fe3b 7f6e 8fbc 3540 db3d e24f 173d
00000170: b689 b0bc 86ba 963c 7e2f 133d 0ee0 a9bb
00000180: 512f 2e3c a54d 16bd bb5a 793d 7d8c bf3d
00000190: 8b49 58bc febb 553c 8443 94bd d401 81bd
000001a0: f4f9 d7bb 78af 93bd eed1 5b3c b9c7 693d
000001b0: e545 5c3d 7bd7 61bd 1964 a2bc bafb 763d
000001c0: 62cb 2fbd 463d 323d 274c 31bd 75d4 b5bc
000001d0: 737d 4d3c 7e11 bebc 3ad5 a73c c577 783d
000001e0: 6343 49bd 9010 4b3d bad7 4ebc fea4 ba3c
000001f0: 8c6d d53d e171 babc 8fde 62bd 91df a139
00000200: 59c6 e03c 45f2 dabd 4f17 f03c 8e0a 923d
00000210: 963b aebd adaf 8ebc a1a3 093d 8886 d2bd
00000220: 856a d8bb d8e7 a13d 56f4 093d 8bc1 ffbd
00000230: 202b f8bb e546 18bd 6387 2b3d 8e63 6fba
00000240: 4fbd d03d 01f1 68ba 69a1 173e e4fc 343d
00000250: 059f 3d3d fa3a 0cbd 352e e6bd 095c 84bd
00000260: 8d0a 1a3c 0937 8b3d bc07 2f3d 90b6 563d
00000270: 0c0f b4bb 231f e8bd 242c 983b 015d d3bd
00000280: ed50 983d 1028 1fbe 0132 e4bc f261 1dbd
00000290: 1017 9dbd eb75 483d 99f6 3c3d 19d4 a13c
000002a0: d62f 11bd d842 07bd 601f fc3c 54d1 983d
000002b0: 903c 30bd f954 793d f09b 02be 04d1 01be
000002c0: 9bcf b13c 8b16 a03b 44ff 343d b2a5 83bd
000002d0: 9e2e c73c 8c89 0d3d cf06 dfbd 0c7f 573d
000002e0: 632e 703c 4ecf 233d 8646 093e 8642 063e
000002f0: 4096 b93d 6366 b13d 5b4e 243d a6bf d8bb
00000300: 9968 423d edc0 d6bb f4bc 023b f3e6 93bd
00000310: 5879 c6bd d9f5 c8bd 79b5 c03d 0016 90bd
00000320: c582 7ebc bd50 c13d e832 033d d1f4 57bd
00000330: 1098 a53d b597 aebd 9437 723d cf07 0d3c
00000340: 60c9 80bd a512 3cbd 54b5 e4bd a4b0 72bc
00000350: 3104 92b9 5dd2 313b d78f a33d a588 cdbd
00000360: ca67 41bd b1d3 f8bd 4c44 3cbc 04f3 42bc
00000370: cee1 ab3d 4395 da3c 4511 5abd 4c0c ce3c
00000380: f2be 76bd 7f14 92bc 7ff1 09be 1c3f dd3b
00000390: 8a69 aa3c 01cc 1b3d 443a 9bbd cd8e 6dbd
000003a0: 2b09 3b3d d088 10bd c24c 7a3c b388 023e
000003b0: 1d01 e0bc d506 d93d 6a82 b2bd 7a92 3d3d
000003c0: dd86 3c3d 3b4f 65bd 9125 aabc 5b96 a63b
000003d0: 554c f0bd 82f8 6abc 9652 a8ba 9d84 87bc
000003e0: c4d1 903c 5ab2 23bd c0e1 d53c f88a 063d
000003f0: e773 073d 8ae3 49bd 885e 233d 5b2c d63c
0.057692844 -0.010502903 -0.069533624 0.013717468 -0.03765122 0.03812066 -0.046846658 0.065403
0.02349195 -0.06282565 0.005717101 0.02971575 -0.0046999548 0.061591934 -0.09077528 -0.013305389
-0.009313664 -0.015697397 0.066391975 -0.01667436 -0.010061663 -0.027452571 0.055768047 -0.01511545
0.025148043 -0.04627706 0.13181083 -0.09397391 -0.09972285 0.0022751354 0.018615663 0.047170248
0.05541677 -0.0042767804 0.03108552 -0.030714931 0.007375404 -0.08821913 -0.041352674 -0.07989384
-0.027554223 -0.01733565 0.052851483 -0.070370235 0.015214941 -0.06158468 -0.019597773 0.050348625
-0.089893036 -0.0047016023 0.05388708 -0.015444395 0.0029950493 -0.07510374 0.024972333 -0.0044014184
0.045337286 0.025351645 0.04108411 0.03678271 -0.018228073 0.07640339 -0.016990095 0.037282396
0.077450804 0.016324976 -0.011873009 -0.0146914525 -0.025279641 0.07696664 0.14140628 -0.031781677
0.039234664 0.01002755 0.0049554 -0.07459654 -0.03620633 -0.00046566414 0.0038650092 0.07979088
0.05687016 0.11320921 0.09318079 -0.010119109 -0.07822011 -0.010108625 0.036682196 -0.070460826
0.0077535342 -0.017508743 0.10705606 0.036941417 -0.02155004 0.018399488 0.035933964 -0.00518418
0.010631398 -0.03669514 0.060877543 0.09352968 -0.013201128 0.013045309 -0.0723944 -0.06299177
-0.006591076 -0.072112024 0.01341675 0.057075236 0.053777594 -0.05513714 -0.01982312 0.06029866
-0.04291857 0.043515466 -0.043285515 -0.022196034 0.012542116 -0.0232017 0.020487417 0.060661096
-0.04913653 0.049576342 -0.012624675 0.022783753 0.10421285 -0.02275938 -0.05538803 0.00030874883
0.02743833 -0.106907405 0.02930799 0.071309194 -0.08507459 -0.017417753 0.033603314 -0.10279566
-0.006604495 0.07905549 0.033680283 -0.12488087 -0.0075735003 -0.037176985 0.04187716 -0.0009131961
0.10192358 -0.000888601 0.14807667 0.044186488 0.04629423 -0.034235932 -0.11239282 -0.06462867
0.00940193 0.067976065 0.042731985 0.0524202 -0.005494958 -0.11334064 0.004643934 -0.103204735
0.0743731 -0.15542626 -0.027855875 -0.038423486 -0.076704144 0.04894058 0.04613361 0.019754456
-0.03544601 -0.03302273 0.03077668 0.07461801 -0.043026507 0.060872052 -0.12754798 -0.1267739
0.02170544 0.0048855 0.044188753 -0.06428088 0.024314221 0.034555003 -0.108899705 0.052611396
0.014659497 0.039992623 0.13405809 0.13111314 0.09061861 0.08662107 0.040113788 -0.006614643
0.047463033 -0.0065537603 0.001994905 -0.072217844 -0.09691113 -0.09812517 0.09409613 -0.07035446
-0.015534108 0.09439228 0.03203097 -0.05272371 0.08085644 -0.085250296 0.059135035 0.008607819
-0.06288409 -0.04591622 -0.11167398 -0.014812622 -0.00027850413 0.0027133443 0.0798642 -0.100358285
-0.04721812 -0.12149752 -0.011490893 -0.01189876 0.08392678 0.026682502 -0.053239126 0.025152348
-0.060240693 -0.017832039 -0.1347103 0.006751908 0.020802278 0.03803635 -0.07579473 -0.057997514
0.04566304 -0.035286725 0.01527709 0.12747459 -0.02734428 0.10597006 -0.08716281 0.04628227
0.046027053 -0.055983763 -0.020769866 0.0050838417 -0.11733309 -0.014341475 -0.0012841995 -0.016542727
0.017678149 -0.03996501 0.026108623 0.032847375 0.033069517 -0.049289264 0.039885074 0.026144197

network_body._body_endoder.seq_layers.4.weight f4 [256, 256]
00000000: 3d6e a63c 5fa3 7cbd 0225 b1bd 902c 7dbd
00000010: 1e0a 1e3e d15a 11bd be61 1dbd ddd8 4d3d
00000020: 10bb a93c f2c9 20be 6a9d d13b 9a54 e3bc
00000030: e117 b7bb ccfa e13c ef11 81bc e889 9dbd
00000040: 3d19 63ba ab21 b43c bc52 b63d fd77 d33d
00000050: 165a 90bd 8be1 7dbd 5952 4ebd 5e20 a63d
00000060: d551 873d e82b 09bd c628 b43d 4d2f c93b
00000070: fb69 d53c ad67 e63c ab38 65bc 4af4 7f3d
00000080: e148 63bd e091 103d cd24 8cbd 2909 e03d
00000090: 468a 843c 6267 8e3c 79cb 0dbc 1796 bcbc
000000a0: e334 20bd b164 973d 6d1b febc 6938 e9bb
000000b0: b69c 4a3d 71b7 07bd 61b2 073d 312d e33c
000000c0: ee15 6ebd d0ba 0b3d ba01 2a3d 6fca e83c
000000d0: c4a2 963c a026 57bd d869 11bd 913e abbd
000000e0: a066 373d 3f32 043d 2748 22bc 263a 8bbc
000000f0: c1a1 bbbd 0292 1ebe 4613 df3d ec1b 8f3d
00000100: 2c10 3f39 cb5e abbc 539e debd 97f3 c5bc
00000110: 97b4 59bc aed8 263c 46bd e43d 2d79 a73d
00000120: e9fa eabc 3875 9f3d 37d3 6c3d b75f d1bd
00000130: 257b a1bc e733 7fbc 09fe 5f3d 6aa6 01bd
00000140: 18ab 883d cc61 a8bc 0a6e cbba d4a9 eb3c
00000150: 5a80 4e3d 4640 773c ea35 1f3c 72df dd3d
00000160: c595 263d 7a19 94bd 6050 983d 9c65 d9bb
00000170: 6341 b33d dd3d 413d 5da4 b23d af00 533c
00000180: 017e f43d 7a7d c1bc 15e5 2d3d c36d 7f3d
00000190: 73d7 dbbd b9b7 153e 31e1 cdbd 9556 01be
000001a0: 1a61 b73c 3aa0 ddbd 183b ffbd 3ca2 af3d
000001b0: d5b9 2e3d 7152 543d da2c 7dbd bac7 69bd
000001c0: d499 cf3d 5b9c ad3c ccd6 0b3d a545 cebd
000001d0: a20c 0f3d 6773 9fbc ca8e 28ba 6fd9 d63c
000001e0: a6a7 0dbe 7de0 8bba db5a 423c eb04 11bd
000001f0: 858c 00bd 61cd bcbc 0b94 6fbc de3d 0c3c
00000200: 0be1 39bc a9e8 943c 3b05 0f3c a018 943d
00000210: 3a92 81bc 1aaa 173d 33bc 853a 4861 9cbd
00000220: 2aba 1d3d 695b 873d dce7 d73b 4600 883c
00000230: 019f 273c d8ee b6bc 8fc5 20be ba9a e3bc
00000240: 28b8 c1bd 1d23 903d 17c6 113c 68a4 e7bd
00000250: 211e b2bc ab29 7dbd 75c8 abbd e1a5 dbbb
00000260: 252a 8a3d faf9 8bbd c0fe df3d c379 6dba
00000270: 931d f03d 3ff1 a93b be0c 14bd d7b4 833d
00000280: 1955 a53c d409 2fbd 10a8 35bc f1ff 3dbd
00000290: 30ca 183c d9bc 2e3e 1608 d33c 04bd a4bd
000002a0: 1919 b33c 3def b3bd 7a1e 693d 13b0 5c3d
000002b0: c860 c3bd 7961 bcbc b0b4 363c c8f6 edbb
000002c0: 1c52 d43b 9701 0e3d 28f8 d7bc b996 743b
000002d0: 6cf6 b5bd c6d1 4bbd 6461 3cbd f038 a83c
000002e0: 6796 b7bd 28ae babc 2fb5 96bd 9439 3fbd
000002f0: 32e5 a93d beaa d23b a9dd 3c3d b9ae e2bc
00000300: 54aa 3d3c 3eb7 afbc a3d1 fa3c 7704 f13b
00000310: c110 b0bc f6b0 cebc a7d3 bfbc 8a91 433c
00000320: 179e 6ebd 5d15 edbc 28c5 663c 708c 70bd
00000330: 6afb dbbd 5d32 a53d c1ab 84bd 1ecd 61bd
00000340: d7d7 3bbc 555b 3d3c 7901 89bd 0954 8cbd
00000350: 995c 20bd aa1b 223d ab0b d13c 3711 b1bc
00000360: 20b2 ea3c 698f 58bd 213b 80bc b28c 69bd
00000370: e20a e8bb 82bb 38bd 7d59 593c f8fe ccbd
00000380: 586b dabc fc21 403d 9ed9 f03b a84c 843d
00000390: c298 983c 9ee1 a73c 2e43 56bd 6930 2fbd
000003a0: 1543 de3d fe67 1fbd 851b a13c 6d39 073d
000003b0: fb0c 1abd eeeb c9bc 693d ec3b 68d8 32bd
000003c0: 7f11 613d b7d7 92bd 40f7 fe3d f63b 48bd
000003d0: 362d 013e 2095 a83d 89cf d73d d871 323e
000003e0: 7cca 11bd be23 1f3d 30a3 38bd 1965 52bc
000003f0: 77d2 e63d b66d 32be fd14 16bd 1b4f 9abc
0.020316238 -0.06167924 -0.08649637 -0.061810076 0.15433547 -0.035487 -0.038423292 0.050255645
0.020719081 -0.15702036 0.006396939 -0.027750302 -0.0055875634 0.02758541 -0.015755622 -0.07692319
-0.00086631236 0.02198871 0.08902499 0.1032562 -0.070484325 -0.061982673 -0.0503715 0.08111642
0.06607405 -0.033489138 0.087968394 0.006139672 0.026051512 0.028125608 -0.0139905615 0.06248883
-0.055489425 0.035295367 -0.06842957 0.10939247 0.016179215 0.017383281 -0.008654469 -0.023020787
-0.039112937 0.07392252 -0.031018937 -0.0071173203 0.049465857 -0.033133928 0.0331291 0.02773151
-0.058126383 0.034113705 0.041505553 0.02841684 0.01838816 -0.05252707 -0.03550133 -0.08361543
0.044775605 0.03227448 -0.009904898 -0.0169955 -0.091617115 -0.15485385 0.10892348 0.069877476
0.00018221204 -0.020919224 -0.10870042 -0.024164004 -0.013287685 0.010183496 0.111689135 0.08177409
-0.028684096 0.077860296 0.057818618 -0.10223334 -0.01971204 -0.015576339 0.054685626 -0.031652845
0.066732585 -0.020554446 -0.0015520465 0.028767504 0.050415374 0.015091008 0.009717444 0.108336344
0.040670175 -0.07231422 0.07437205 -0.0066344272 0.08752706 0.047178138 0.08722756 0.012878581
0.11938096 -0.023619402 0.042454798 0.062360536 -0.10734453 0.14620866 -0.100527175 -0.12630685
0.022385169 -0.108215764 -0.12462443 0.085758656 0.042657692 0.051836435 -0.061810352 -0.05707524
0.10136762 0.02119272 0.034140393 -0.100718774 0.034924157 -0.019464208 -0.00064299686 0.026226727
-0.13833484 -0.0010671761 0.011862482 -0.03540508 -0.03138401 -0.023047151 -0.014622699 0.008559672
-0.011345158 0.018177347 0.008729274 0.07231259 -0.015816797 0.037027456 0.0010203182 -0.076357424
0.038507618 0.06609232 0.006588919 0.016601693 0.010230781 -0.022330686 -0.15700363 -0.02778374
-0.09458953 0.07037947 0.008897326 -0.11310655 -0.021742882 -0.061807316 -0.083878435 -0.006703124
0.0674632 -0.068347886 0.109372616 -0.00090589764 0.11724391 0.0051862295 -0.036144964 0.06430977
0.02018218 -0.042733982 -0.0110874325 -0.046386663 0.009325549 0.17064227 0.025760692 -0.08043864
0.021862553 -0.087858655 0.05691383 0.053878855 -0.09539944 -0.022995697 0.011151478 -0.0072620846
0.0064795148 0.034669485 -0.026363447 0.0037321283 -0.08884892 -0.049760602 -0.045991316 0.020534962
-0.08964234 -0.022788122 -0.07358777 -0.04668577 0.08295669 0.0064290455 0.04610983 -0.027671205
0.011576254 -0.021449681 0.03061754 0.0073552686 -0.021492364 -0.025230866 -0.023416353 0.011936555
-0.058256235 -0.02894085 0.014085092 -0.05872768 -0.10741313 0.08066247 -0.06478072 -0.055127256
-0.011465034 0.01155742 -0.06689734 -0.06851966 -0.039150808 0.039577164 0.025518259 -0.021614654
0.02864939 -0.05287114 -0.015653195 -0.057018943 -0.0070813755 -0.045100696 0.013265965 -0.10009569
-0.026662514 0.04690741 0.0073501607 0.064599335 0.018627528 0.020493325 -0.05231016 -0.042770777
0.10852639 -0.038917534 0.019666443 0.03301375 -0.037610035 -0.024648633 0.007209469 -0.043663412
0.054948326 -0.071700506 0.12449503 -0.04888531 0.12614903 0.08231568 0.10537631 0.1742624
-0.035593495 0.038852446 -0.045077503 -0.012841486 0.11270612 -0.17424664 -0.03664111 -0.018836549

action_model._continuous_distribution.log_sigma f4 [1, 2]
00000000: 0000 0000 0000 0000
0.0 0.0

action_model._continuous_distribution.mu.weight f4 [2, 256]
00000000: 280b 9a3c 753a 53bc 7340 eb3b fa63 6bbc
00000010: bdb0 0d3b b96e 9abc 89a7 84ba b406 263b
00000020: f88b 6e3b ea00 e5bb 7c86 12bc 3dbc 9a3c
00000030: 673f 873c 77fd 233c 87a0 5a3b 5c76 843c
00000040: b232 d23b 6775 e33b 2a09 1b3b daf4 aebc
00000050: 2a5d d3bc ef50 2abc 653c f4bb 501e 5dbc
00000060: 670d 67bb 9699 b6bc d6ed c9bc 0b0c d03c
00000070: a4d2 183c aa77 da3a e1b8 0abc b3b2 6a3c
00000080: 9736 8f3b 1466 973c 6f36 443c 6b38 8abc
00000090: bd4b 703a 838a 8e3b 7fbd 1c3c fdce 01bb
000000a0: 4f6f 083b df63 0abc f78b 1fba 5d16 4dbc
000000b0: c019 cfbc ee23 a8bc a082 0a3c c698 233c
000000c0: af1c 113d 5bef 69bc 2444 843c 57fe 533c
000000d0: 8a8b 55bc ffd0 cabb af7c ab3c a7e5 0e3c
000000e0: 72fb c2bc ffbf 92ba f7ec e5ba 0a44 e43b
000000f0: f638 1abc 2715 023c 3fe6 c6bb 7201 d93b
00000100: 701a 27bc a150 c73b 10bb 79ba 981e 7e3c
00000110: f8bb 513b 8292 a1bc ae0b 34bb 899e 06bc
00000120: 19a6 0ebc a1fc aa3b 00cb 2e3b 2d3e 69bc
00000130: 5e67 04bc ca6f f4bb c0b3 b2bc beb9 42bc
00000140: e825 3abb ab43 03bc 5386 a1ba 0835 a0bb
00000150: 05ec d9bb 514e 0a3b 53ce 31bc 3284 ad3c
00000160: ae56 33bb ea5c d73c 0063 783c 578d 3dbc
00000170: abb2 4b3c f588 073d 6f25 aa3b 1813 45bc
00000180: d744 96bb 0d17 6dbb 7faf 8d3b 92c1 0fbb
00000190: 2336 aa3c 55cb f03a 7cc5 1e3b b8e9 af3c
000001a0: 7bdc f5bb 1c4f b33c 1beb cfbb 75b7 4dbc
000001b0: 33df 07bb 7f42 d23a c848 fa3c 27db c6bb
000001c0: b147 053c 8ad2 8abb 301f 133a 8bff e33b
000001d0: d3ae ef3a 9bff b0bb 889c 65bc 5662 833c
000001e0: 6bcd a6bc 4dbf af3c 5b0e 97bb b817 4dbc
000001f0: 0b44 053c a19f a0bc b365 493a b056 5d3b
00000200: 5272 04bc e480 c83b 06d4 ae3c 9dcc d6bc
00000210: 6091 3a3b b882 f43b 16aa 333c 67cb b43c
00000220: df94 353c b724 95bb 313e 47bb f065 a2bc
00000230: 3176 43ba b79e f23b 3bca 063c 4512 703a
00000240: e3c5 173c 5511 70bc 3be4 5439 eeeb 2a37
00000250: 573c 3bbb 48c0 5bbb c39e cc3a 8c78 48bc
00000260: 2fa4 92bc 0f32 d03a 49e1 243a cb57 043c
00000270: 51ec a23b eb1c db3b 0370 8f3c 2956 303c
00000280: 2ad2 b3ba da97 123c 1a85 51bc 1f2d ec3b
00000290: 76b8 06bc d59e 48bc fd65 2eba 3f42 9c3c
000002a0: 4ca4 36bc c01d 4cbc 0f2b b73b c676 c2bc
000002b0: b1d2 94bb de55 05bb a7b5 90bb 4911 3abc
000002c0: aa99 8e39 9f6c b03c 179f 483b 866b 033a
000002d0: e6e8 a33c 78e6 1c3c 21bf a53c 8a40 a13b
000002e0: 520a 903b fee6 423b 2ab5 ae3c d8d7 5abb
000002f0: c818 613c 947e b83b 6345 02bc 68a9 713c
00000300: df55 143c 73ec 0fbc 0f0c b83b 9aed 20bc
00000310: d7f9 c23c 3278 163c 7278 db3b 6815 603a
00000320: 7d6a 53bc c7e2 b83b 7243 893b f891 8cb9
00000330: 22b9 5ebb 277f 66bc 23a5 5b3c 232c 0fbc
00000340: 3a4a 0f3c 08ff e3bb 79dd 9c3b f544 983b
00000350: 007d fe3b 21e0 423c 18ce 67bb 7314 d63b
00000360: 34f3 a239 f820 5e3c 3a5c 75bc 455d 82bc
00000370: 63f8 12bc 28f5 6dbb 3a16 b63b 4857 013a
00000380: f099 563c 719d 123b ac19 423c 1f93 aebc
00000390: ae39 333c e23f 893c aa6a 18bc 399e adbb
000003a0: 00ea 6e3b d550 73bc c3ef a5bc 4095 7f3c
000003b0: c731 8aba 670f 643c cba1 ee3b 6017 093c
000003c0: e85d 6d3b 179b 16bd abdb 0a3c 5294 f2bb
000003d0: 968e b8bb f569 edbb 83ab cd3c 2769 08bc
000003e0: 5306 b5ba d866 72bb 2d4b 4d3a 38a8 153c
000003f0: 6700 e0bc d532 033c 7274 cc3b 0f62 283c
0.018804148 -0.012892355 0.007179314 -0.014367098 0.0021620237 -0.018851625 -0.001012073 0.0025333585
0.0036399346 -0.0069886344 -0.008943196 0.018888587 0.016509725 0.010009161 0.0033359842 0.01616972
0.0064147348 0.0069414857 0.0023656585 -0.021356989 -0.02580126 -0.010395273 -0.0074534887 -0.013495997
-0.003525579 -0.022290032 -0.024649542 0.025396368 0.009327564 0.0016667743 -0.00846693 0.014324832
0.0043705213 0.018481292 0.011975869 -0.016872605 0.00091665593 0.004350008 0.009566664 -0.0019807213
0.0020818298 -0.008446663 -0.0006086225 -0.012517539 -0.025280833 -0.020524945 0.008453995 0.0099851545
0.035427745 -0.014278258 0.016145773 0.012939057 -0.013033757 -0.006189465 0.020933477 0.008721746
-0.02380154 -0.0011196135 -0.0017541935 0.0069661187 -0.009412995 0.007939613 -0.006069928 0.0066224867
-0.010199174 0.0060826098 -0.00095264707 0.015510224 0.0032002907 -0.01972318 -0.0027472782 -0.008216509
-0.008706593 0.005218104 0.002667129 -0.014236015 -0.008081285 -0.0074596154 -0.021814227 -0.011885105
-0.0028403942 -0.008011739 -0.0012323357 -0.0048891343 -0.00665045 0.002110381 -0.010852414 0.0211812
-0.0027364898 0.026289422 0.015160322 -0.011569343 0.0124327345 0.033089597 0.0051924507 -0.012028478
-0.004585843 -0.003617707 0.0043238993 -0.0021935445 0.020777768 0.0018371145 0.0024226597 0.02147375
-0.00750309 0.021888308 -0.0063451654 -0.012555947 -0.0020732402 0.0016041546 0.030552283 -0.0060686055
0.008134768 -0.004236524 0.0005612252 0.0069579533 0.0018286355 -0.0054015643 -0.014014371 0.016038101
-0.020361623 0.021453524 -0.0046098656 -0.012517862 0.0081338985 -0.019607367 0.0007682696 0.0033773594
-0.008083897 0.0061188806 0.021341335 -0.026220614 0.0028467998 0.007461872 0.010965845 0.022069646
0.011082857 -0.004551496 -0.003040206 -0.019823998 -0.00074562716 0.007404174 0.008226926 0.0009157996
0.009263488 -0.01465257 0.00020302918 1.0187721e-05 -0.00285699 -0.0033531357 0.001561128 -0.012235772
-0.017900554 0.0015884059 0.00062896736 0.008077572 0.0049720188 0.006686797 0.017509466 0.01076273
-0.001371925 0.008947337 -0.012788082 0.0072075273 -0.00822269 -0.0122449 -0.00066527707 0.019074557
-0.01114757 -0.012458265 0.00558985 -0.023738276 -0.004541718 -0.002034537 -0.004416186 -0.01135666
0.0002719884 0.02153617 0.0030612403 0.00050132757 0.020008516 0.009576432 0.020232739 0.0049210237
0.0043957615 0.0029739733 0.02132662 -0.0033392813 0.0137388185 0.0056303237 -0.007951113 0.014749862
0.009053676 -0.008784401 0.005616672 -0.009822274 0.023800774 0.00918393 0.006697708 0.00085481117
-0.012903807 0.0056422683 0.0041889483 -0.00026811636 -0.003398486 -0.014068401 0.013406071 -0.00873855
0.008745724 -0.0069578923 0.004787144 0.004646892 0.007766366 0.011894257 -0.0035370644 0.0065331995
0.00031080248 0.013557665 -0.014975602 -0.015913615 -0.008970353 -0.0036309455 0.005556849 0.00049339654
0.013098225 0.0022371674 0.011846941 -0.021310387 0.010939045 0.016754095 -0.009302774 -0.0052984026
0.0036455393 -0.014850815 -0.020255929 0.015599549 -0.0010543399 0.013919688 0.007282471 0.008367389
0.0036219303 -0.036769 0.0084752245 -0.007402935 -0.005632232 -0.007245297 0.025106197 -0.0083258515
-0.0013811089 -0.003698757 0.00078313315 0.009134345 -0.027343942 0.008007725 0.0062394673 0.010277285

action_model._continuous_distribution.mu.bias f4 [2]
00000000: 0000 0000 0000 0000
0.0 0.0

action_model._discrete_distribution.branches.0.weight f4 [2, 256]
00000000: 1e6d 343c 1264 b23b 4271 d4ba 219c 093c
00000010: f7f6 6db9 42e3 dab7 fb3f 7a3b d431 3cbb
00000020: 56e8 0c3c 88ea c13a f9f3 07bb 10fc a539
00000030: 4060 d4bb a1d8 1ebc b7f7 93bb cdec 1f3c
00000040: 1205 4fbc 047d 0cbb cd98 d53b 238d 983b
00000050: 8215 7fba aafb 003c 44e8 b5bb 3638 b6ba
00000060: 72a8 9a3b 7bb8 46bb 1f5a f63b f79d d4ba
00000070: 6b2e afba 0396 ec3b 6770 173b d5dc 90bc
00000080: 1893 6b3a 681e 5b3b a5ee b43b 696f a43b
00000090: 603a 7538 ac83 2a3c a321 78bb 90c2 d2ba
000000a0: cdb0 4839 4e4b 3f39 db9a 58bb 3277 443b
000000b0: b5dd 1639 a44d ae3b 4318 95ba d344 b43b
000000c0: db69 da3a 63e4 b4ba 7e9f a93a 2092 b03b
000000d0: b0d7 15bc b7be 903b 7c4a a4bb 095a 8b3c
000000e0: 0021 8c3b cd18 7eba 031c 7a3a 9fe3 1e3b
000000f0: 6d73 d139 a2ed 753c fd67 1ebc 0151 953a
00000100: 6519 0a3c b50d 213b c914 24bc 8fe0 ac3b
00000110: f881 043b 642a 39bc 0097 d3bb 8985 8d39
00000120: a9fc ca3b 5d93 c33a 6532 f2bb 8e2e a73b
00000130: 9748 d03b 57b7 f83b 0a34 41bc 954b 65bb
00000140: 7b09 063b 857a 29bb 6b13 663b 847a 0537
00000150: eaf0 f53b a20c 163c fde7 243c 5314 d63b
00000160: c209 92ba 9240 e1ba 3023 633a e09c bfbb
00000170: 13e9 073c 703a 1d3b 7442 163c a98b 1cb9
00000180: c5e1 2dba e842 01bc 87fe 09ba 8240 1b3c
00000190: 6737 b6bb 5cbe 4a3c 43a8 20bc cd7d b43b
000001a0: 2ba6 02bb 381e 10bb 5323 b23a af55 96bb
000001b0: fbc4 57ba 559c f43a 0b98 2e3c 4f8e 523b
000001c0: 1d1e 6eba 25c0 6fbb f409 9abc f55f a1bb
000001d0: e9ab 063b ef08 03b9 cd11 f43a 7ae9 ad3a
000001e0: ebbd d5bb 107e 9b3c 570b 7fbb adbd 693b
000001f0: 457f 97ba a2e4 a3ba 7bc6 233b 705f ea3b
00000200: 43ec e83b 3f74 f5bb d9e1 36bc bbf4 feb9
00000210: 82a1 88bb 5220 f7bb a2e1 303b 442c aabb
00000220: 2014 833b fbdc 3d3b bdb5 f13a 6a30 4fbb
00000230: bb06 973a a36e 063c 87ef 863b c194 9cbb
00000240: 8f99 673b 9daf 3bbc 97c1 53bc 08c4 ee3a
00000250: ca46 1f3b 3dac 52ba e744 403c 2fa9 153b
00000260: e9cb 80bb b8fc eebb 213f 26bb e0e7 a1bb
00000270: bb22 03bb b745 d23b 2860 7bba d5f7 7c3b
00000280: ac29 1c3c a34f 4dbb bb60 d6ba 1a47 9e3b
00000290: 1aef 323a 8907 43bc adba cabb 7313 113c
000002a0: 72d4 d03b 739f de3b f5aa fa3b 968a a13b
000002b0: 0f28 503b 672f 8d39 7732 d7bb 357c 53bb
000002c0: aa78 673b 2771 0abc 68a0 6f3c 96c8 96bb
000002d0: 8262 1c3b 9d38 bdbb f638 a039 0bf8 41bb
000002e0: 3440 bbbb 7b5b fabb 1f95 e4bb 6d5b c23a
000002f0: eb5d f0bb 4e0c 003a 37c7 d5bb 5674 8ebb
00000300: f617 4bbb c717 063c 3d65 44bc 5269 9d38
00000310: 460f 08bb b2c0 803a 3fed 5e3b 5c2c 85ba
00000320: 1184 bdbb 4acf 10bb fb40 8f3b 8aec 8cb9
00000330: 9c64 bebb 3a01 ab3a b2a4 0a3c 47a2 903a
00000340: 5f47 903b cdb0 06bb b334 eebb 79ec 053a
00000350: d596 f63b eafd ed3b 2bc2 9f3b 1dfe d3b9
00000360: 71fc 3c39 098a 183b 30f3 dcbb cdd3 02bc
00000370: 76a9 96ba 678f f23b 04e8 05bc e22d e6bb
00000380: 921a 173a bffd 03bb 622a 5dba 9bb1 323c
00000390: 885b 6abc 96e4 8f3a f3f6 a6bb c07e ecbb
000003a0: c755 223c 60c9 90bc f0fa e33b 4d69 5ebc
000003b0: 24bf 10bc 5356 d7bb a26d 063c 82ac 783c
000003c0: 04f1 c0b8 608a 81bb c477 c73b 142f 873b
000003d0: 7ac7 66b9 8305 8d3a 516a 36bc cb27 393b
000003e0: b8aa 893b 6817 243c 4b33 85bb 3fa8 703c
000003f0: 9b99 96bb 36d0 3337 dde3 1a3c 62e2 07bb
0.011012344 0.005444058 -0.001620807 0.00839904 -0.00022694083 -2.609345e-05 0.0038185108 -0.0028716223
0.008600315 0.0014794627 -0.0020744784 0.00031659054 -0.0064812005 -0.009695203 -0.004515614 0.009761048
-0.012635486 -0.002143682 0.0065184594 0.0046554967 -0.0009730683 0.007872501 -0.00555137 -0.001390225
0.0047197873 -0.0030322361 0.0075180675 -0.0016221394 -0.0013365274 0.007220031 0.0023107769 -0.017683426
0.0008986457 0.0033434872 0.0055216127 0.005018164 5.8466918e-05 0.01040737 -0.0037861846 -0.0016079713
0.0001913935 0.00018243233 -0.0033051285 0.0029978273 0.00014387707 0.005319314 -0.0011375028 0.0055013685
0.0016663627 -0.0013800975 0.0012941209 0.005388513 -0.009145662 0.004417266 -0.005013762 0.017010706
0.004276395 -0.00096930267 0.0009540917 0.002424456 0.00039949585 0.015010269 -0.009668347 0.0011391939
0.008428906 0.002457482 -0.010014721 0.005275793 0.002021907 -0.011301611 -0.0064572096 0.00026993107
0.00619467 0.0014921237 -0.0073912614 0.0051019853 0.0063563096 0.007590215 -0.011792192 -0.0034987677
0.0020452428 -0.002586038 0.003510679 7.955943e-06 0.007505526 0.009158285 0.010065076 0.0065331846
-0.0011141824 -0.0017185381 0.0008664606 -0.0058475584 0.008295315 0.002399113 0.009171117 -0.00014929347
-0.00066330686 -0.007889487 -0.0005264063 0.009475829 -0.0055608037 0.012374487 -0.009805742 0.0055081607
-0.001993547 -0.0021990668 0.001359085 -0.004587851 -0.00082309515 0.0018662313 0.010656367 0.003212828
-0.0009083467 -0.0036583033 -0.018803574 -0.004924769 0.0020549244 -0.00012496462 0.0018621028 0.0013268434
-0.006522884 0.01898101 -0.0038916671 0.0035666034 -0.0011558315 -0.0012504051 0.002499013 0.0071524903
0.0071082427 -0.0074906643 -0.011162245 -0.00048628994 -0.004169644 -0.0075416947 0.0026989956 -0.005193265
0.004000202 0.0028970826 0.0018441003 -0.003161455 0.0011522392 0.008205089 0.0041179094 -0.004778475
0.003533933 -0.011455444 -0.012924573 0.0018216381 0.0024303668 -0.000803653 0.011735178 0.0022836437
-0.003930558 -0.00729331 -0.0025367218 -0.0049409717 -0.0020009715 0.006417002 -0.00095892185 0.0038599868
0.00953142 -0.0031327985 -0.0016355732 0.0048302533 0.000682579 -0.011903652 -0.0061868043 0.008854735
0.0063729817 0.00679391 0.007649774 0.004929851 0.0031762158 0.00026928933 -0.006567295 -0.0032270078
0.0035319724 -0.008449829 0.014625646 -0.0046015484 0.0023862426 -0.005774571 0.00030560017 -0.0029597308
-0.0057144407 -0.0076403 -0.0069757844 0.0014828272 -0.0073354146 0.0004884646 -0.0065239924 -0.0043473644
-0.0030989624 0.00818438 -0.011987028 7.505961e-05 -0.0020761057 0.0009823053 0.0034015921 -0.0010160315
-0.005783566 -0.002209621 0.00437176 -0.00026879116 -0.0058103334 0.001304663 0.008462118 0.001103469
0.0044030393 -0.0020552159 -0.007269466 0.00051087845 0.007525305 0.007262935 0.0048754415 -0.00040434385
0.00018023119 0.0023275635 -0.0067428574 -0.007985068 -0.0011494595 0.007402349 -0.008172993 -0.0070245126
0.0005764152 -0.0020140258 -0.00084367965 0.010906602 -0.014304049 0.0010978158 -0.0050953566 -0.007217258
0.009908146 -0.017674148 0.0069574043 -0.01357491 -0.008834634 -0.00657157 0.008204849 0.015177848
-9.200166e-05 -0.003953263 0.006087275 0.004125485 -0.0002200882 0.0010759089 -0.011133746 0.0028252478
0.0042012595 0.010015346 -0.0040649525 0.0146885505 -0.004595948 1.0717709e-05 0.009453741 -0.00207343

onnx::Div_85 f4 [26]
00000000: bbb3 cd3e df8d b53e 2eaa cd3e 1224 b53e
00000010: 2eaa cd3e 1224 b53e ddbc ca3e 85ec b33e
00000020: ddbc ca3e 85ec b33e 3def c73e 8a34 b13e
00000030: 3def c73e 8a34 b13e 3e57 c33e 1fd3 ab3e
00000040: 3e57 c33e 1dd3 ab3e d395 ae3e 0648 9d3e
00000050: d395 ae3e 0648 9d3e f4f6 993e 565a 8c3e
00000060: f4f6 993e 555a 8c3e
0.40176186 0.35459802 0.401689 0.35379082 0.401689 0.35379082 0.39597216 0.35141388
0.39597216 0.35141388 0.39049712 0.34610397 0.39049712 0.34610397 0.38152498 0.3355951
0.38152498 0.33559504 0.34098682 0.30719012 0.34098682 0.30719012 0.30071223 0.2741267
0.30071223 0.27412668

onnx::Div_88 f4 [2]
00000000: c11c bb3e 6883 013f
0.36545375 0.50591135
