MLAgents Jumper Exercise/Assets/results/beta_2/JumperAgent.onnx (onnx, 570158 bytes, 15 tensors)

network_body.observation_encoder.processors.0.normalizer.running_mean f4 [26]
000000 66 08 5e 3f ca 37 62 3f 66 08 5e 3f 5b 4e 62 3f
       0.86731565 0.8836638 0.86731565 0.8840081
000010 66 08 5e 3f 5b 4e 62 3f 66 08 5e 3f 34 97 62 3f
       0.86731565 0.8840081 0.86731565 0.8851197
000020 66 08 5e 3f 34 97 62 3f 66 08 5e 3f 54 24 63 3f
       0.86731565 0.8851197 0.86731565 0.8872731
000030 66 08 5e 3f 54 24 63 3f c5 a8 5f 3f a6 2e 65 3f
       0.86731565 0.8872731 0.87366897 0.89524305
000040 c5 a8 5f 3f a6 2e 65 3f 6c 3d 6a 3f 4a 98 6d 3f
       0.87366897 0.89524305 0.9149997 0.928105
000050 6c 3d 6a 3f 4b 98 6d 3f 44 9d 73 3f 2c 46 75 3f
       0.9149997 0.92810506 0.95161843 0.958102
000060 44 9d 73 3f 2c 46 75 3f
       0.95161843 0.958102

network_body.observation_encoder.processors.1.normalizer.running_mean f4 [2]
000000 f9 d6 e1 3d 5f 53 1f bd
       0.11027331 -0.03889787

network_body._body_endoder.seq_layers.0.weight f4 [256, 28]
000000 a9 da 2a bc 01 20 e3 3e e5 b4 d0 3d f9 20 09 3e
       -0.010428109 0.44360355 0.10190753 0.13391484
000010 ae 26 81 bc 3b 71 52 3d ad 97 26 3e f5 a2 e3 bd
       -0.015765514 0.051377516 0.16268797 -0.11115066
000020 07 bd e0 3d de eb 36 bd 1b b7 7d bd 9a 0b ae 3d
       0.10973554 -0.044658534 -0.0619422 0.084983066
000030 42 df 9c be dd 31 ed 3c 4e 7f 0d 3e 2a d9 f4 bd
       -0.30639082 0.02895444 0.13818094 -0.11955483
000040 27 65 0e 3e 65 73 9c bc 9c 66 24 3d 3f 0e e5 3d
       0.13905774 -0.019097993 0.04013692 0.11184358
000050 4e a4 8f 3d 55 9a 13 3d 99 dc 6c be 62 cf bc 3d
       0.070137605 0.036035854 -0.23131026 0.09219243
000060 30 7f 2d be 65 fe b9 be 51 0b bd 3d d5 d8 1a b9
       -0.1694305 -0.363269 0.09230674 -0.0001476736
000070 82 de 6b 3d 00 6f 23 3e 07 a3 46 be a9 42 97 be
       0.057585247 0.15960312 -0.19398127 -0.29543045
000080 9b 8c 00 3d 1b 40 8d bd 8e 51 62 be d3 c3 90 be
       0.03138409 -0.06896993 -0.22101423 -0.28274402
000090 10 d2 1b be f2 1c c1 3c f9 5a fc bc 64 13 b8 3e
       -0.15216851 0.023573373 -0.030805098 0.35952294
0000a0 ec 7b 03 bf 90 94 1a be 40 89 d1 bc a8 d2 0f 3e
       -0.51360965 -0.15095735 -0.025578141 0.14045203
0000b0 48 76 71 be 3c 97 8b be 67 ee 5c bd 83 5f f4 3e
       -0.23580277 -0.2726382 -0.053938296 0.4772912
0000c0 b8 be 0f 3e 3b d2 d5 3d 33 0c 0b be 31 4a 69 bd
       0.14037597 0.10440489 -0.13578872 -0.05695552
0000d0 11 9a 46 bc 04 9f 8c 3e ae f9 13 3e 85 3e 45 3e
       -0.012121693 0.2746507 0.14450714 0.1926213
0000e0 65 a4 b9 3e b5 43 f7 3d 27 0b 9c bd 33 04 15 bd
       0.36258236 0.12073461 -0.07619315 -0.036380958
0000f0 9b 15 42 be b0 df e2 bd 06 bf 1d be 06 87 79 bd
       -0.18953554 -0.11077821 -0.15404901 -0.060919784
000100 92 5f a1 be 59 6d 49 3d a4 e6 89 be 8d bb de bd
       -0.31518227 0.049176548 -0.26933777 -0.10875616
000110 f9 09 c0 bc 09 eb 20 bd 43 d9 12 bd ee 31 f7 bd
       -0.023442255 -0.039286647 -0.03585173 -0.1207007
000120 2a 65 9b 3d 24 16 88 bd 71 fd 28 bc 19 12 eb 3d
       0.07587655 -0.06644848 -0.010314331 0.11478061
000130 36 a6 eb bc 59 1f 52 3d 25 d4 cf 3e 6b a0 06 3e
       -0.028765779 0.051299427 0.4059154 0.13147132
000140 45 04 98 3e d0 1e f5 bd 5c 61 08 be 54 b0 0d bd
       0.29690757 -0.11968768 -0.1331839 -0.034591988
000150 90 bd a8 3e fc 25 a4 bd 5a b1 38 be 90 c5 67 be
       0.32957125 -0.080150574 -0.18036404 -0.22633958
000160 8a d3 53 3c c3 bc 84 be 91 c0 75 3e 6a a2 63 be
       0.012928853 -0.25925264 0.2399924 -0.22229925
000170 b6 d1 2a 3e 1e 2c 7b 3d 57 2c a1 be 0b ea a9 3d
       0.16681561 0.06132137 -0.3147914 0.08296593
000180 b0 c6 b0 3d da 9c b5 3d c2 df 2e be c5 28 28 3e
       0.08631647 0.08867808 -0.17077544 0.16421802
000190 e9 6f b1 bb 86 45 25 3e c7 74 a3 be a2 c6 89 bd
       -0.005414952 0.16139802 -0.31925032 -0.06727339
0001a0 c8 64 6f 3e 7a 48 f7 3e 2d 6b 0d 3e 46 cd 75 3e
       0.23378289 0.48297483 0.13810416 0.24004087
0001b0 ed 40 d6 3e f1 1c d0 bc f9 c1 94 bc 81 eb a7 be
       0.4184641 -0.025404425 -0.0181589 -0.32796863
0001c0 b3 d2 ce bd f2 52 e1 3e ab 22 b7 3c 41 31 18 3e
       -0.100987814 0.44008595 0.022355398 0.14862539
0001d0 f9 77 9d 3e bc 88 cb 3e 1b 8d ea 3d 2d 2a 76 bd
       0.30755594 0.39752758 0.11452695 -0.060098816
0001e0 f2 e5 87 3e 2e bd 88 3d a2 b6 42 3e c8 f4 a4 be
       0.26542622 0.06676708 0.19014981 -0.32218003
0001f0 e6 b6 be 3e 65 c4 27 be 32 d5 ff 3d ad 74 92 3e
       0.37248915 -0.16383512 0.12491836 0.28604642
000200 90 23 a8 bc e1 d7 e2 bd 10 b2 6e 3d c7 57 af 3c
       -0.02052477 -0.11076332 0.058275282 0.02140416
000210 8f 40 8a 3d cb c7 23 3e e1 5c 8d be 18 76 70 3e
       0.06750595 0.15994184 -0.27609923 0.23482549
000220 52 72 3d be d3 eb 20 3e 16 d2 01 3e e0 3c b3 bd
       -0.18500641 0.1571496 0.12677798 -0.08751845
000230 24 d0 ed bc 17 ea f8 3d 86 ed 77 3e 4c ff 4e be
       -0.029029913 0.12154024 0.24211702 -0.20214576
000240 4e 43 2b 3d ef e7 4c bd 63 02 83 3e 8a 54 0d 3b
       0.041812234 -0.050025877 0.25587758 0.0021565282
000250 a5 0e 3b 3e 92 54 f2 3e 7e ae 77 3e c9 36 9c 3e
       0.18267305 0.47330147 0.24187657 0.30510548
000260 66 0a e6 3d 99 c3 e9 3d 24 7b c0 be e4 42 f9 bd
       0.11232452 0.114142604 -0.3759395 -0.121709615
000270 5b f1 85 3e 0c 29 bd 3c 77 2a a5 be 9a c5 55 3e
       0.26160702 0.023090862 -0.3225896 0.2087616
000280 2d 86 fc bd f1 a5 03 3e 75 dc 0c be 48 a7 e7 be
       -0.123302795 0.1285627 -0.13755973 -0.45244813
000290 7a 94 92 3c 14 2a d1 3e 6d 2c 41 3e 7c 5e 5c bd
       0.017893065 0.40852416 0.18864603 -0.053801045
0002a0 6e 53 85 3e 58 64 44 be d7 17 34 be b9 67 f4 3d
       0.26040214 -0.19178903 -0.17587219 0.11933846
0002b0 44 d4 b0 be a1 62 20 3e be b7 3e be 11 00 91 bd
       -0.34536946 0.15662624 -0.1862478 -0.07080091
0002c0 bc 16 06 be ee fc 2f 3d cc 86 a5 be c8 0f 04 be
       -0.1309461 0.042965822 -0.32329404 -0.12896645
0002d0 14 d7 eb bd 1e 0e 73 be be f7 ad 3e 95 03 b3 3d
       -0.11515632 -0.23735854 0.33978075 0.087409176
0002e0 2c a3 9d 3e 71 e3 12 be 9a ff 06 be bc 5a 40 3d
       0.30788553 -0.14344575 -0.13183442 0.04696153
0002f0 7f 0a db 3e a5 3e bd 3e a3 f3 65 bd ba 11 f2 3c
       0.42781445 0.36961856 -0.056140553 0.029549468
000300 82 1d 13 3e 22 c6 e2 bd 73 89 28 3e c6 39 a8 3d
       0.14366725 -0.11072947 0.16458683 0.082141444
000310 31 e5 e5 bd 0c d2 b8 3d ca 3d 86 3e e8 c8 20 3c
       -0.112253554 0.09024438 0.26219016 0.009813525
000320 4f c9 a2 3d 77 72 aa bc e4 ec e2 bd 7f 08 8c be
       0.07948553 -0.020806534 -0.110803396 -0.27350232
000330 4f e5 0f 3e 28 43 3d bd 36 7b b1 bd 18 c2 26 3d
       0.14052318 -0.046206623 -0.08666079 0.040712446
000340 59 73 72 3e cc fc 22 be cf a6 9c bd 37 b3 0e be
       0.23676814 -0.15916747 -0.07649004 -0.13935553
000350 08 a4 37 3d a6 61 43 3e 27 01 9e 3e 99 09 49 3d
       0.044834167 0.19080219 0.30860254 0.04908142
000360 32 6d 0e 3e 2f c9 0f bd 5c 1d 4d be a1 2c c2 bd
       0.13908842 -0.035103973 -0.20030731 -0.094811685
000370 71 04 f5 bd a6 a2 be bc 8b 04 2f 3e c3 3b 67 3d
       -0.11963738 -0.023270916 0.17091577 0.056453478
000380 8e 7d 17 3e 52 55 c6 be bb 69 5c 3e f9 94 b5 bd
       0.14793989 -0.3873697 0.21524708 -0.08866305
000390 1e f8 32 be 5b e2 c9 bc 6f 80 47 be 80 2f bd bd
       -0.17477462 -0.024644068 -0.19482587 -0.092375755
0003a0 aa fa 39 3d a0 c2 38 be f3 38 b4 b9 27 79 8a be
       0.045405068 -0.18042994 -0.00034374706 -0.27045557
0003b0 24 88 87 3e b4 61 8c 3e f8 2e 1a be 72 d0 1d 3e
       0.26471055 0.27418292 -0.1505698 0.15411547
0003c0 cd d9 ce 3c 01 a6 be bd 1b dd 1a be 81 f1 c8 be
       0.02525034 -0.093090065 -0.15123408 -0.39246753
0003d0 c8 3b b1 3d ee ee 44 be 53 64 c7 bd 06 f1 8a 3d
       0.086539805 -0.1923177 -0.09735932 0.06784253
0003e0 b2 ad 9c 3e 6a 80 d8 bc 6f 11 5d be 6d b6 23 3e
       0.3060127 -0.02642842 -0.21588682 0.15987559
0003f0 fb 1e 20 3d fa 0e 91 bd 18 2a 0b be 2e 6d 12 bd
       0.039092045 -0.07082935 -0.13590276 -0.035748653

network_body._body_endoder.seq_layers.0.bias f4 [256]
000000 42 1f e6 ba 95 53 b2 ba 4c 9d b4 3a df ce 2c bc
       -0.0017556923 -0.0013605232 0.0013779788 -0.010547369
000010 72 4a 09 3c 3e ae 1d ba 8c d0 f7 bb aa 0f d4 3a
       0.008379566 -0.0006015039 -0.0075627025 0.0016178985
000020 33 e6 f1 39 95 96 56 3b c0 4f 8f 3b dd 68 94 bb
       0.00046138614 0.0032743562 0.0043735206 -0.0045291022
000030 33 d0 95 bb dd 0f 87 3b 4d 1f 11 bb de b7 26 3b
       -0.0045719384 0.004121764 -0.00221439 0.0025439183
000040 48 89 5f ba 4a 2d 6c 3b 34 2d b8 ba 46 44 90 38
       -0.00085272314 0.0036037737 -0.0014051558 6.879172e-05
000050 9d b9 0a bc 7f fc a8 3b 9f 4e 21 bb 35 0f ee bb
       -0.008467105 0.005157053 -0.0024613512 -0.0072649964
000060 30 b1 5f 3b 31 e9 e3 bb 50 a7 26 bb 74 0f 9d 3b
       0.0034132712 -0.006955289 -0.0025429316 0.004793102
000070 52 af 05 3b 83 7b b4 3b 25 58 11 39 06 8d 6f 3a
       0.0020398689 0.005507888 0.00013861114 0.00091381406
000080 c6 8b ca bb ba ee 13 ba 47 df 8c 3b 43 cb 2e 3b
       -0.006181213 -0.0005643178 0.0042990777 0.0026671446
000090 61 fe a6 39 cb c2 88 bb 42 cf 23 bb 30 d5 8c bb
       0.00031851514 -0.0041736118 -0.0024995361 -0.004297875
0000a0 e1 92 59 bb d8 6d cd 39 53 9b a2 3a f2 4e 04 3b
       -0.003319912 0.00039182487 0.0012405909 0.0020188657
0000b0 d8 c9 e7 bb 8f 62 da 3a c1 8e 57 3b 67 bc db 3b
       -0.007073622 0.0016661453 0.0032891484 0.006705809
0000c0 2d 96 52 ba 1d 22 8a bb e7 28 bd bb 76 e5 4b bb
       -0.0008033242 -0.0042154924 -0.005772698 -0.0031112111
0000d0 80 9e 41 bb 49 d9 5e 3b e8 66 1f ba 88 65 c5 3b
       -0.0029543936 0.0034004024 -0.0006080703 0.0060240664
0000e0 fb a6 63 3a 17 44 8b 3b bf d7 4a 3a 83 72 b5 3b
       0.0008684245 0.0042500603 0.0007737837 0.0055373325
0000f0 d2 18 51 3b a8 c9 3e 3b 12 9a 50 3a 5e 1b 0b bc
       0.0031905663 0.0029111896 0.00079575286 -0.008490412
000100 65 eb 9a ba 45 5d 38 3a ae cf 9f ba ba 41 4a 3b
       -0.0011819421 0.0007032941 -0.0012192631 0.003086193
000110 41 11 03 bc 8a 22 33 39 5a 4b e9 3b e6 0d cd bb
       -0.007999719 0.00017083637 0.0071195783 -0.0062577603
000120 83 dd 35 bb a5 aa 98 ba ea 18 8a bb a0 6f c2 3a
       -0.002775044 -0.0011647536 -0.004214396 0.0014834292
000130 dc 84 1c bc 28 be 47 bb 5a 16 32 bb c9 47 ba 3b
       -0.0095531605 -0.0030478332 -0.0027173967 0.005684827
000140 59 fd 17 bc 40 2b 8d 3b 1d 74 d7 bb 0f 01 ae 3a
       -0.009276711 0.0043081343 -0.006575121 0.0013275462
000150 ab 28 75 bb c4 75 af 3b 7e 61 0b 3a 46 35 a5 3a
       -0.0037408273 0.005354615 0.00053169567 0.0012604378
000160 67 4b cc 3b fd af 17 3b 72 82 24 ba 13 3e a2 bb
       0.0062345746 0.0023145669 -0.00062755414 -0.0049512475
000170 50 fc 9f 3b 02 fe 0b 3c 82 47 0e bb 43 6e a9 bb
       0.004882373 0.008544447 -0.0021710102 -0.005170615
000180 e2 61 00 3c fa e8 60 3a b1 70 cd ba e2 ec 4a bb
       0.007835837 0.0008579638 -0.0015673843 -0.0030963947
000190 1e 04 cb 39 a5 80 11 3b be 54 bf 3a 13 85 29 ba
       0.00038722245 0.0022201922 0.0014597399 -0.0006466668
0001a0 c8 91 34 ba d8 97 35 bb 8c d9 85 bb a0 1a f4 bb
       -0.0006888178 -0.0027708914 -0.0040847715 -0.007449463
0001b0 9e 98 a6 3b a4 5b 32 ba 2a f5 96 bb 80 3b 01 bb
       0.0050841114 -0.00068038167 -0.0046068626 -0.0019719303
0001c0 84 38 82 3b 9d 20 7d bb c7 66 08 3b bc 76 91 3b
       0.0039740223 -0.0038624175 0.0020813213 0.004439203
0001d0 17 41 9e bb 48 a9 f1 3a ee 96 81 bb 87 f9 3a bb
       -0.0048295367 0.001843729 -0.00395476 -0.0028530078
0001e0 f2 f9 91 3b a5 50 b6 bb 8c ac bd 3b db 06 70 bb
       0.0044548446 -0.005563813 0.0057883915 -0.003662518
0001f0 8c 8e 15 bc 18 07 25 ba a4 d9 84 ba a7 ca 41 ba
       -0.009128224 -0.00062953075 -0.0010135663 -0.0007392563
000200 a7 3f d4 bb 96 71 c3 3b ce 4b 04 3b 77 2e 1e bb
       -0.0064773145 0.0059644682 0.0020186785 -0.0024136582
000210 07 d9 ed 3b e5 77 83 bb b8 42 47 bb 5c a3 29 bb
       0.0072585377 -0.0040120953 -0.0030404758 -0.0025884723
000220 c1 aa 1a 3b b6 78 61 3b 6f 89 dd ba cc 4c 32 3c
       0.0023600312 0.0034404225 -0.001690192 0.010882568
000230 81 b2 15 bc 13 1b a1 3b a8 f7 e4 bb ca 44 2e 38
       -0.009136797 0.0049165576 -0.0069875307 4.1548898e-05
000240 a2 d0 74 bb 1e dd da 37 6c 49 c0 3b fe f1 92 ba
       -0.00373558 2.609059e-05 0.0058681276 -0.0011211035
000250 15 a4 31 bb d0 12 0c bb b4 07 ce ba 7c e7 a1 3b
       -0.0027105857 -0.0021373518 -0.0015718848 0.004940925
000260 86 f4 af bb e3 92 8e b9 cc f5 84 3b fe cc f8 ba
       -0.0053697256 -0.0002719379 0.0040576216 -0.0018981991
000270 f4 02 e1 39 03 36 c9 ba 58 79 d9 ba 26 66 7f 38
       0.00042917544 -0.001535118 -0.0016591949 6.089187e-05
000280 37 6c d5 3a 65 9e 88 3b f1 54 f3 3b 0e 13 21 bb
       0.0016282861 0.0041692727 0.0074258973 -0.0024578008
000290 c9 55 90 3a 4f 97 e1 3b d3 f9 2c 3a 6c ed 3b ba
       0.0011011894 0.0068844925 0.0006598506 -0.00071688625
0002a0 2a 41 57 b9 91 46 ce ba 1f 42 63 3a dd 9c 2f bb
       -0.00020528273 -0.0015737583 0.00086692156 -0.0026796379
0002b0 09 b3 a8 3b 7d b6 60 3b 24 d6 25 ba 90 bc ae bb
       0.005148296 0.003428846 -0.000632616 -0.005332537
0002c0 07 b1 00 3c 16 06 c0 ba 2b 8f c0 ba 65 9c aa 3b
       0.007854707 -0.0014650251 -0.0014691105 0.005206632
0002d0 d6 43 bc bb 02 ed 64 3b 7d cc b2 3b b1 a2 25 bb
       -0.0057453914 0.0034931307 0.005456506 -0.0025273974
0002e0 8b b1 34 bb c0 b5 a9 bb fe b9 c4 bb c7 ea 49 3b
       -0.0027571644 -0.005179137 -0.0060036173 0.0030810104
0002f0 f8 b7 b2 bb 3b 3a a3 bb 54 fd 2c bb f9 b3 0f bc
       -0.0054540597 -0.004981307 -0.0026396113 -0.008770936
000300 1f 8b c6 ba d5 6c b5 bb 5c 37 f6 3a 55 93 a1 3a
       -0.0015147662 -0.0055366554 0.0018784809 0.0012327234
000310 f3 d5 e3 ba 84 04 e1 3a 16 8e a2 bb 6f 44 d9 bb
       -0.0017382487 0.0017167483 -0.0049607856 -0.0066304724
000320 72 8d 98 bb 48 2d 05 3c e1 28 31 bb e9 86 df bb
       -0.0046555335 0.008128472 -0.0027032422 -0.0068215025
000330 c1 7e 73 bb 4b 42 3f 3a da 5c 8e b9 1e 2c fe ba
       -0.0037154409 0.000729595 -0.0002715353 -0.001939181
000340 04 b3 ba 3a 44 1d 89 3b 6d cf d6 bb 25 33 e4 bb
       0.0014244025 0.004184397 -0.006555489 -0.0069641047
000350 ef 48 a4 bb 51 23 e6 ba 3d 80 ee b9 a0 69 58 3b
       -0.005013577 -0.0017558133 -0.00045490442 0.0033021942
000360 d3 94 4e 3a 88 a4 9f 3b ca 10 3b 3b 45 25 29 ba
       0.0007880453 0.0048719086 0.0028543943 -0.0006452392
000370 fc 37 47 ba 6e 34 e7 3a 0d 41 6c bb b0 04 cb 3a
       -0.000759959 0.0017639527 -0.0036049515 0.0015489068
000380 93 a7 43 bb 1d c3 18 3b 61 cd 01 3b 5a db 92 3b
       -0.002985452 0.0023309656 0.0019806253 0.004481715
000390 3b 4d 83 3b 10 3c cd 3b cb 4c be 3b 74 0d 91 3b
       0.0040070093 0.0062632635 0.0058074943 0.0044266526
0003a0 84 20 77 ba 2d 73 3f 3b 39 2b 4c 3b d9 f8 7d 36
       -0.00094271475 0.0029212937 0.0031153692 3.7844786e-06
0003b0 fe 39 0e bb 28 cc b3 3b c0 c9 43 ba e1 0c a5 3a
       -0.0021702047 0.005486984 -0.0007468723 0.0012592339
0003c0 95 05 fb bb 9a b6 b2 38 74 e4 3a 3b 34 52 ed b9
       -0.0076605775 8.5217136e-05 0.0028517516 -0.0004526541
0003d0 53 60 86 3b 1d f2 68 3a af 01 6d bb a6 c7 a9 3a
       0.004100838 0.00088861753 -0.0036164334 0.0012953177
0003e0 c1 0a 53 3a 97 b9 65 bb 2e 64 96 3b d6 a4 be 3b
       0.00080506137 -0.0035053247 0.004589579 0.00581799
0003f0 fe 0a 68 bb 53 21 d3 ba 20 a0 d6 3b 04 5a af bb
       -0.0035406942 -0.0016107954 0.00654985 -0.005351307

network_body._body_endoder.seq_layers.2.weight f4 [256, 256]
000000 3a 7a 19 bc 69 12 61 bd 6d 2a 20 3d 9f db 1a bd
       -0.00936752 -0.054949198 0.03910296 -0.037807103
000010 b8 31 ed bc 0f f7 44 bd d8 24 06 bd 8e c1 ed bd
       -0.028954372 -0.048087176 -0.03274998 -0.11609183
000020 e1 83 9c 3b 3c b0 d5 3b 2c da cd 3d 25 2a 11 bd
       0.0047764634 0.006521253 0.100513786 -0.035440583
000030 51 a9 51 3d 73 63 30 3e ec 86 4d bd ec b8 e1 3c
       0.051186863 0.17225437 -0.0501775 0.027553998
000040 a5 ee 0a 3e cc 42 54 3d ce 17 72 3d 41 76 cc bd
       0.13567598 0.051821515 0.059104733 -0.09983493
000050 42 f8 82 bd 7c 16 39 bd 00 93 71 3d 17 80 8a 3c
       -0.06395008 -0.04518746 0.05897808 0.016906781
000060 b0 ad 2b bc a5 df 18 3d 08 68 da 3c f8 9e dd bc
       -0.010478422 0.03732266 0.026660934 -0.027053341
000070 70 37 94 bc 5a af 3d 3c e9 77 6d 3d d3 23 f2 3d
       -0.01809284 0.011577452 0.057975683 0.11823239
000080 9d 5c 52 3d 22 0e 4d 3d 2b c5 1d bd 60 a2 3e be
       0.051357854 0.050062306 -0.038518112 -0.18616629
000090 3d 9d b3 3b 37 c4 af bd 3d f7 3c bd a0 9e 8f 3d
       0.0054813907 -0.08582347 -0.046134222 0.07012677
0000a0 6e d2 ee 3c 97 10 c8 bc 18 b7 4f 3d 31 c7 91 bd
       0.029153075 -0.024421973 0.05071172 -0.07118071
0000b0 a0 f9 07 3e 45 5c 89 3c 9a 71 05 bc e2 06 34 3d
       0.13278818 0.01676763 -0.0081447605 0.043951876
0000c0 42 20 50 3b ea 83 ed bd 3b f8 3a bd 03 0a 2e bc
       0.0031757508 -0.11597426 -0.045646887 -0.010622504
0000d0 cd 0c 07 3d 30 59 99 3d ec c1 54 3d aa a1 17 bd
       0.032971192 0.07487714 0.05194275 -0.03701941
0000e0 82 a7 8d bd cf b0 88 bd ba 5b 2c 3d 37 f9 87 3d
       -0.06916715 -0.066743486 0.042079665 0.06639331
0000f0 d6 f6 74 3d 3c 0d 09 bc 01 fa 78 3d 48 6b b0 bc
       0.059805714 -0.008364972 0.060785297 -0.02153553
000100 b2 2d ec 3c 63 fb 82 3d ab ec 96 bd 97 d2 63 3d
       0.028830383 0.063956045 -0.073693596 0.055620756
000110 b8 70 9a 3d 74 9d a5 3c 3f 01 dc bd a3 d0 29 3c
       0.07541031 0.020216681 -0.10742425 0.010364684
000120 8e 24 f8 3b 26 4b 0f bd 5b 1d 6b 3c ac eb e0 bd
       0.007572717 -0.034983777 0.014350261 -0.10982451
000130 d9 45 b9 bd 13 57 71 3d 70 cf 01 be a6 9c a2 3d
       -0.090465255 0.05892093 -0.12676787 0.079400346
000140 b3 d6 5c 3d e3 72 5a 3d a0 0b b5 3d 40 37 01 be
       0.05391569 0.05333222 0.08840108 -0.12618732
000150 82 91 16 3e 9d 9c 86 3d ff 42 dd bc 71 9b 62 3d
       0.14703944 0.0657284 -0.027009485 0.05532402
000160 1f 2d d1 3c 1e 76 2d bd 56 19 8f 3d a1 16 b9 3d
       0.02553421 -0.042348973 0.06987254 0.09037519
000170 b2 f5 a2 3d cb 40 9d bc f8 87 18 bc db aa 46 bd
       0.07957019 -0.019195935 -0.009309761 -0.048502784
000180 50 7c a7 3d 44 98 ef 3d f0 cc 0b 3d fc fd 6b 3d
       0.081780076 0.11698964 0.03413099 0.057615265
000190 7f f7 1d 3e 63 21 35 bd 15 20 ce 3a 5c da 20 3d
       0.15426444 -0.044221293 0.0015726114 0.039270744
0001a0 ae ab ed 3d 43 a4 15 3c 59 66 bb bc 55 b8 82 bd
       0.11605011 0.009133401 -0.022875952 -0.06382815
0001b0 52 fe 48 bc 3f b4 11 3b a6 97 b7 bc 92 a3 c7 3d
       -0.012267666 0.002223268 -0.022411179 0.097479954
0001c0 af a8 9e bd c8 00 fd bc 09 ed 7e 3c 67 c8 b5 3c
       -0.077470176 -0.030884162 0.015559443 0.022190286
0001d0 16 25 7f 3c 33 e7 8b 3d cd 71 14 bd d0 67 14 bd
       0.015572807 0.06831207 -0.03624134 -0.036231816
0001e0 c4 2e ec bc fa e2 f3 3d b4 44 43 bc db 19 a2 bc
       -0.028830893 0.11908527 -0.011918236 -0.01978772
0001f0 a8 15 65 3d 4e 32 f9 bc 0a 67 1a be 02 63 66 3d
       0.055928856 -0.030419495 -0.15078369 0.056246765
000200 7a 04 c8 3c 02 51 82 bd bf c0 8d 3d 3f 72 26 3d
       0.024416197 -0.06363107 0.06921529 0.040636297
000210 9f 86 8f 3c 80 4d a9 b9 ff 18 3a 3d 16 90 cd ba
       0.017520247 -0.00032291934 0.045433994 -0.00156832
000220 53 28 7d 3d c0 a6 38 3d 24 b8 6d 3c 32 41 5b bd
       0.061806034 0.0450809 0.014509235 -0.053528972
000230 67 81 15 3d ec ff 5a 3d 34 19 24 bd 69 13 dc bc
       0.03650036 0.053466722 -0.040063098 -0.026864724
000240 f6 3c 69 bd 4b 28 46 bd bf a6 47 bb a2 8f 12 bd
       -0.056942903 -0.04837827 -0.0030464379 -0.03578151
000250 8a 28 aa bd 88 1c 27 bc 79 02 1f bd d3 8f 49 3d
       -0.083085135 -0.0101996735 -0.038820717 0.049209427
000260 46 e3 1d 3d d1 84 ca 3c bd e4 17 3d 74 0a 0e bd
       0.038546823 0.024721535 0.037083376 -0.034677938
000270 51 76 ff 3c 4b 43 95 3c 0b 79 b2 bc 10 9b 28 3e
       0.031184347 0.018220564 -0.021786233 0.16465402
000280 a6 3d 00 bd 16 5d 0e 3e f9 82 0f be 48 b4 6a 3a
       -0.031308793 0.13902697 -0.14014806 0.00089532556
000290 48 0d d1 bc b7 b6 1e 3d 0b b1 72 bd 19 c3 26 be
       -0.025519028 0.03874847 -0.059250873 -0.16285361
0002a0 88 14 67 bd b1 79 5c 3c fa bc ca bc 90 39 8d bd
       -0.056416065 0.013456748 -0.024748314 -0.06895745
0002b0 7b 89 cd 3d 87 cf 52 3d 66 80 a4 bd 87 03 c5 bd
       0.10035988 0.051467445 -0.080323026 -0.096198134
0002c0 b2 95 ff 3c a1 4b e1 bc 9e 7b 67 bd 86 e7 78 bc
       0.03119931 -0.027501883 -0.056514375 -0.015191918
0002d0 e9 d1 6d bd 51 b3 77 bd 7f cc e0 3c 6f 19 08 3e
       -0.058061514 -0.060473744 0.027441261 0.13290952
0002e0 b8 a3 22 3d 64 55 e6 3c e8 d5 4a bd 5c 52 8f bd
       0.039706916 0.02811689 -0.049520403 -0.06998131
0002f0 b1 f6 da 3c 0c 53 a7 3c d7 fe f4 bd cb bb 38 bd
       0.02672896 0.020425342 -0.11962669 -0.04510097
000300 3c 21 19 bd 1e 18 96 bc af 6f 25 bd 95 4f c6 bd
       -0.03738521 -0.018322047 -0.040389713 -0.09683148
000310 65 02 cd 3d 42 3b 73 3c c9 c1 dc 3d 85 fd d6 3c
       0.10010222 0.014845671 0.10779149 0.026243934
000320 d2 00 b0 bc 1f bd b2 bd 96 45 5f bc e6 b8 04 3d
       -0.021484766 -0.08727478 -0.01362743 0.032402895
000330 8c 8a c4 bd 8d 74 44 3d 48 6c 07 3c d2 63 28 bc
       -0.09596738 0.047962714 0.008265562 -0.010277705
000340 75 3f 18 3d 08 9e fc 3d 19 14 6f bd ff f6 ef 3d
       0.037169892 0.123348296 -0.058368776 0.11717033
000350 5e eb 86 bd 85 54 5d bd 68 df f9 3c f3 15 aa bc
       -0.065878615 -0.054035682 0.030502036 -0.02076242
000360 5d bd dd bc 5f 0e b9 bc 38 e0 9f bd e5 0c a5 bd
       -0.027067835 -0.02258986 -0.07806438 -0.080591
000370 c9 2a 9c 3c c2 68 81 3d ce 7b 12 3d 7a e5 91 bd
       0.01906337 0.06318809 0.0357626 -0.07123847
000380 f5 66 12 bc f1 d4 d2 3c c3 16 cd ba e4 1a b6 bd
       -0.00893568 0.025736304 -0.0015647042 -0.08891848
000390 17 ff 7e 38 11 5e 07 bd c5 81 03 bd e1 77 9f 3b
       6.079589e-05 -0.033048693 -0.03210618 0.0048665856
0003a0 7b 2c c8 3c 82 94 00 be 06 7d 8e bb c5 e6 cd 3d
       0.024435272 -0.12556651 -0.0043484 0.100537814
0003b0 18 b7 b3 bc fc 83 00 3e 07 69 87 bd e6 a1 a9 bd
       -0.021937892 0.12550348 -0.06611829 -0.08282833
0003c0 b4 ae 26 bd f3 1e b0 bc ea 07 9d bc 06 fe 6b bc
       -0.040693954 -0.021499133 -0.019168813 -0.014403826
0003d0 ad 10 f6 bc f3 b6 e1 bd e5 d7 e8 3d 85 8a 65 3c
       -0.030037249 -0.11021223 0.113693036 0.014010076
0003e0 e3 43 b9 3d ba cc b0 bd 27 f1 4c 3d fb 96 e2 bc
       0.090461515 -0.086327985 0.05003467 -0.027659884
0003f0 69 26 a7 bc 8a d5 f7 3d e7 4a 0d 3c fd 9a ab 3c
       -0.020404058 0.12101276 0.008623815 0.020947928

network_body._body_endoder.seq_layers.2.bias f4 [256]
000000 5b 6f 47 3a 5c 15 f5 3a 4e f6 46 bb 83 76 2f bb
       0.0007607841 0.0018698382 -0.0030359211 -0.002677352
000010 f1 3c 53 3b 16 f3 a5 bb ce 82 d4 ba b6 ae 08 ba
       0.0032232369 -0.0050643785 -0.0016213299 -0.0005214022
000020 73 2b 8c bb 3d d5 09 bc 74 d4 95 3b 3a 0f 37 bb
       -0.0042776405 -0.008412656 0.0045724455 -0.002793266
000030 fe 8c b3 bb 04 e7 25 bb bf 3e 0f ba 1b 8b f4 3b
       -0.005479454 -0.0025314698 -0.0005464367 0.0074628717
000040 57 a6 e4 bb 35 c8 87 bb 57 c4 1b bc 4f 4b f6 bb
       -0.006977837 -0.0041437396 -0.00950726 -0.0075163017
000050 f4 a9 93 bb f7 3f 31 bb 72 ba 21 3b 2c ba be 3b
       -0.004506344 -0.0027046183 0.002467778 0.0058205333
000060 40 fc 2b 3b 54 00 ed bb 12 a6 b4 39 11 51 16 3b
       0.0026242882 -0.007232705 0.00034456007 0.0022936503
000070 00 23 d1 38 cb 68 b2 bb d7 60 97 3a 9f 19 09 bb
       9.972416e-05 -0.005444621 0.0011549246 -0.0020919812
000080 f8 1f d1 b7 46 4e b7 bb dd 35 17 3b f4 2c 4a ba
       -2.4929628e-05 -0.0055940477 0.0023072877 -0.0007712387
000090 76 ce 45 bb ad 0a 19 3b 40 7c db 3b 8b 7a b0 ba
       -0.0030182875 0.002335231 0.0066981614 -0.0013464255
0000a0 25 d8 0a 3c db 8f 45 3a 82 28 7c b8 7a 27 c0 bb
       0.008474384 0.000753639 -6.0119208e-05 -0.005864081
0000b0 9d ac bc 3b f3 2a bd bb b0 e4 6d b9 58 34 ea 3a
       0.005757882 -0.005772942 -0.00022687274 0.0017868383
0000c0 0e f2 d1 38 02 27 07 bb 76 3e d4 3a 06 ca 3f 3b
       0.00010010983 -0.0020622616 0.0016192931 0.0029264702
0000d0 c5 67 b4 ba 3a a1 83 3b cb e8 56 ba e0 6e 7d bb
       -0.0013763836 0.0040170224 -0.0008198141 -0.0038670823
0000e0 9d 50 ce bb 11 dd 74 b9 fd 61 44 bb 8c d1 d1 3a
       -0.006296231 -0.00023352007 -0.0029965632 0.0016007884
0000f0 0e 98 04 3c 6e 6c 0c bb 3c 23 be 3b df 4d d1 3b
       0.008092893 -0.0021426934 0.00580254 0.006387457
000100 d1 b5 e8 bb 73 d7 0c 3c ab b2 42 bb b7 f0 8c 3b
       -0.0071017523 0.008596289 -0.0029708545 0.0043011564
000110 2d a2 7b bb bc 4f 97 3b 11 3e cd bb 97 4e bb 3b
       -0.0038396225 0.0046176594 -0.0062635024 0.0057161557
000120 c0 ec 98 bb bc 46 9c bb e4 21 60 3b 7c 31 ba bb
       -0.0046668947 -0.0047691744 0.0034199888 -0.0056821685
000130 b6 8d bb bb d4 d5 a1 bb 59 1c 52 3b e2 79 9e ba
       -0.0057236804 -0.0049388204 0.0032060354 -0.0012090767
000140 3f 21 36 ba d3 28 ab bb 75 0b 05 bc d6 f7 25 3b
       -0.0006947703 -0.0052233725 -0.008120407 0.0025324724
000150 12 1b 02 bb 1c 92 d0 b7 c4 d5 91 bb 65 2c aa 3b
       -0.001985256 -2.486357e-05 -0.0044505317 0.0051932805
000160 f5 0c 39 3b 23 be b3 bb 43 98 88 3a 54 77 e4 bb
       0.0028236483 -0.0054853125 0.0010421354 -0.006972233
000170 60 97 20 3b f3 5f 53 3a 61 f5 a4 bb d6 5d d5 bb
       0.002450429 0.0008063309 -0.0050341343 -0.0065114303
000180 c2 bc d9 b9 80 0e ba 3b 8a 7f a2 3a 2e f2 ae 3b
       -0.000415301 0.005677998 0.0012397629 0.0053389287
000190 d6 f5 81 3b ac 5f 81 3b d2 b9 b0 ba 12 8e f9 ba
       0.0039660735 0.0039481726 -0.0013483113 -0.0019039533
0001a0 4d ba b8 bb de 44 7a ba 77 15 a3 bb 0e 09 51 3b
       -0.005637443 -0.0009547005 -0.004976924 0.0031896266
0001b0 7d 45 86 ba ff 3a 98 bb bf d6 f9 ba 79 21 b3 bb
       -0.0010244098 -0.0046457048 -0.0019061192 -0.0054666367
0001c0 7e 36 90 bb 0c 8a 0b bb 02 e7 f9 b9 7d 35 57 3b
       -0.004401027 -0.0021292 -0.00047665095 0.0032838278
0001d0 a0 28 6a 3b e9 a9 55 b9 5d 8c a6 3b d6 3e 8f 3b
       0.003572978 -0.0002037656 0.0050826506 0.0043715043
0001e0 41 61 a7 3b dd d1 73 ba 2b 5a d3 3b d7 9e 1e 3b
       0.005108029 -0.00093009864 0.006449958 0.0024203563
0001f0 22 5e f4 3a c1 11 aa bb 6b 82 05 3b ee bb d4 bb
       0.0018643776 -0.0051901047 0.0020371925 -0.0064921295
000200 cd d2 93 3b 14 f5 95 bb 1b e8 ba bb 15 6d db 3b
       0.0045112134 -0.0045763347 -0.0057039387 0.006696353
000210 86 7d 59 bb 88 5a 8f 3b af fe 94 3a 72 a9 a2 3b
       -0.003318639 0.004374806 0.0011367406 0.004964047
000220 87 86 82 bb e7 b5 8c bb a6 72 c6 bb 84 39 94 ba
       -0.003983322 -0.0042941454 -0.0060561476 -0.0011308645
000230 a2 67 94 bb 4f 7b 92 ba e7 a7 37 3a aa 4c 66 bb
       -0.0045289556 -0.0011175665 0.00070059154 -0.003514091
000240 fb c9 9c ba e3 a1 dd 3b 0e 45 c1 bb c7 71 86 bb
       -0.001196205 0.006763683 -0.0058981245 -0.004102919
000250 a8 c9 00 3b 33 4e 31 3a 6e d9 6b bb 16 23 01 bb
       0.0019651446 0.0006763667 -0.0035987752 -0.001970475
000260 db d6 b4 3b e0 f0 19 bc 37 45 4c bb 35 55 2a 3c
       0.005518777 -0.009395808 -0.0031169185 0.0103962915
000270 a8 a5 f3 3b e0 7f e8 ba a0 3a d9 3b 2d 15 bc 3b
       0.0074355192 -0.0017738305 0.006629303 0.005739829
000280 71 59 13 3b 89 40 09 bb ec 6e 07 3b bf 38 c1 bb
       0.002248373 -0.0020943007 0.002066548 -0.0058966572
000290 bf 5d 28 bc ea 6d 52 3a 91 05 c2 bb 8f a5 ad bb
       -0.010276257 0.0008027243 -0.0059210737 -0.005299277
0002a0 e7 bd 8d 39 a0 7e 15 bc 38 34 27 ba 57 87 00 b9
       0.00027035104 -0.009124428 -0.00063783256 -0.00012257449
0002b0 55 cf 90 3b c7 a5 96 bb 05 32 d2 bb 21 c5 c0 ba
       0.004419247 -0.004597399 -0.006414654 -0.0014707186
0002c0 78 79 18 bc ca 31 a5 bb bf ed 4a bb f9 1b 57 ba
       -0.009306304 -0.0050413357 -0.0030964462 -0.00082057674
0002d0 55 7b a6 3b 16 48 8a 3a 30 96 a6 b9 9e 5a e8 bb
       0.0050806203 0.0010550048 -0.00031773886 -0.0070908805
0002e0 c0 2b 2f 3b dd 70 0e 3a 66 41 dc ba da 7c fb 3a
       0.0026728958 0.0005433688 -0.0016804158 0.0019186989
0002f0 55 89 32 bb 8a a6 0c bb 39 83 84 ba e6 c4 e7 ba
       -0.00272425 -0.002146157 -0.0010109908 -0.0017682582
000300 2e eb 99 ba a2 27 59 bb 8e c8 ec bb a0 a9 21 bb
       -0.0011743063 -0.0033135195 -0.0072260564 -0.0024667755
000310 e3 bd 3d bb 64 0a b9 bb 8c fc 97 3b 8c e9 8e 3a
       -0.0028952293 -0.0056469906 0.00463826 0.0010903343
000320 2d df 0f ba 34 9a b7 3b e2 4f 63 3b 8d 36 ba ba
       -0.0005488273 0.0056030992 0.0034685065 -0.0014206931
000330 96 90 ae 3a ea 58 e1 3b 24 d7 61 3b 5f 67 4f bb
       0.0013318236 0.0068770545 0.003446051 -0.0031647307
000340 bc ea 0c bc 75 73 80 bb 33 66 9c 3b 2d d4 be 3a
       -0.008600887 -0.0039200136 0.0047729253 0.0014559083
000350 60 6c f8 39 83 1e 3c 38 66 71 49 3b 56 99 0a 3b
       0.00047382992 4.485111e-05 0.0030737757 0.0021148524
000360 f6 0e 15 bb 4e 12 68 bb a1 45 b7 3b 8c 7a d5 3b
       -0.0022744513 -0.00354113 0.005593017 0.006514853
000370 09 0e 90 3a 64 ff 2e 3b dc ed ef ba 78 93 9c bb
       0.0010990511 0.0026702518 -0.001830514 -0.004778322
000380 9e ad 0c 3a 58 bf 2f ba 3c 27 e6 bb dc d0 f0 3a
       0.0005366447 -0.00067042327 -0.00702372 0.0018372792
000390 8c 6f 18 bb 79 22 a3 b8 79 76 e1 bb ea db 43 bb
       -0.0023259846 -7.778867e-05 -0.006880578 -0.0029885718
0003a0 0a 89 b9 3b 7b 56 e8 ba 43 20 2e ba a3 55 78 3a
       0.0056620883 -0.0017725969 -0.00066423806 0.000947321
0003b0 e3 a1 dd 3a 82 74 05 bb ff 99 88 39 13 20 52 bb
       0.0016909208 -0.0020363634 0.00026054677 -0.0032062575
0003c0 14 40 8e bb d1 f2 9c ba 72 85 5b bb e8 7a 69 ba
       -0.004341135 -0.001197422 -0.0033496288 -0.0008906559
0003d0 05 86 dd bb 61 58 2c 3b 0b 3d 67 bb 3b b7 6f 3b
       -0.006760361 0.0026297795 -0.0035284187 0.003657772
0003e0 77 52 e7 ba 38 e2 1b 3b 6c 4d 9c 39 36 f6 f1 3a
       -0.0017648478 0.002378596 0.00029812322 0.0018460217
0003f0 57 f6 39 b9 67 42 b9 ba d6 fd 16 3b 0c ed ec b9
       -0.00017734744 -0.0014134169 0.0023039482 -0.0004519004

network_body._body_endoder.seq_layers.4.weight f4 [256, 256]
000000 c0 f8 0b bd 08 37 1e bd 3f bb d9 3d d8 c3 fc bd
       -0.034172773 -0.0386267 0.106314175 -0.12342042
000010 4a de 19 3d 24 dc ed 3d 5f 6c a6 3c 2d 67 ad bd
       0.037565507 0.11614254 0.020315347 -0.08466945
000020 1c 59 04 3c 05 55 35 bd 0b 4d 44 3d 72 cd d7 bd
       0.008077886 -0.044270534 0.047925036 -0.105372325
000030 dd 14 f7 3c 42 12 8d 3d d9 37 a1 bc df 6b cd bd
       0.030161316 0.06888248 -0.01967995 -0.100303404
000040 c1 07 1c 3d c3 c5 6f bc 18 27 46 bd b1 08 cc bc
       0.038093332 -0.014634552 -0.048377126 -0.024906488
000050 e1 c2 ac 3b 4f de 35 bd f7 fc 2e 3d bd b0 39 bd
       0.005272255 -0.044401463 0.042721715 -0.045334566
000060 38 ce 00 3d 03 c4 5a bd fe a0 13 3d c3 5f 10 bc
       0.031446666 -0.053409588 0.036042206 -0.008811894
000070 9e a1 3c bc 2e 99 dc bc ba f1 16 3d 26 3d 19 bc
       -0.011513142 -0.02692851 0.036851622 -0.009352958
000080 6b f8 2f 3d a5 2a af bd ff a6 dd 3c 90 b1 58 b7
       0.04296152 -0.08553056 0.027057169 -1.2915945e-05
000090 7a 19 a8 bd e2 62 1d bc bb 1a 02 3c 27 25 34 3d
       -0.08207984 -0.009606095 0.007940943 0.043980744
0000a0 4b 75 ae bc 0b f5 52 3d cf 4a a9 bd eb 8b 1a bd
       -0.021296164 0.051503222 -0.08266222 -0.037731092
0000b0 71 3e 80 3b 8c 9f 44 bd 90 79 f5 bc d8 eb 52 3c
       0.0039136936 -0.04800372 -0.029965192 0.012873612
0000c0 bf b3 07 3d c7 a0 1b be 3f b4 a6 bd 38 e4 1e bb
       0.033130404 -0.1519805 -0.08139848 -0.0024244916
0000d0 44 97 e6 bc 95 27 5d bd 0f 6f 14 be d7 a1 cc bb
       -0.028148301 -0.053992826 -0.1449549 -0.0062448788
0000e0 8e e3 c9 3b ce 28 91 bc a2 8e 57 bd fe a0 00 bd
       0.00616116 -0.017719653 -0.05262626 -0.031403534
0000f0 08 53 82 bd 86 25 93 3d 5d 72 ae bd 76 b3 64 3d
       -0.06363493 0.071848914 -0.08517907 0.05583521
000100 0a d2 97 bc e5 0f 91 bd 3e 6d 1d 3d 11 2b 8d 3d
       -0.018532772 -0.0708311 0.03843426 0.0689298
000110 77 3f d9 3b e1 f4 83 3c 9f 2b 91 bb 47 73 9f 3d
       0.00662988 0.016107978 -0.004430249 0.07785659
000120 01 35 92 bc b3 18 9e bd 31 40 19 3e 5d b8 6b bd
       -0.01784754 -0.07719555 0.14965893 -0.05754887
000130 c9 6b 12 bd de 6f 99 3c e2 4e 87 3d 02 eb 9a bd
       -0.035747323 0.0187301 0.066068426 -0.075643554
000140 b1 3f 07 3b f5 94 79 bd 65 40 61 bd 1b 37 23 bd
       0.0020637328 -0.060933072 -0.054993052 -0.039847475
000150 0a ac a1 bd ec eb 9c 3a da d1 52 bd 37 e5 91 bd
       -0.07894142 0.0011972166 -0.05146966 -0.071237974
000160 09 e2 6c 3d 30 67 32 bd 7b 6a a3 3d 9a fa eb 3d
       0.05783275 -0.04355544 0.07979294 0.11522408
000170 7e 2e be 3d b9 fb 8b bd 45 36 13 3d cb d7 5d bd
       0.092862114 -0.06835122 0.035940427 -0.054160874
000180 34 fa ff 3c 43 67 1d 3d 9a 84 80 bd 72 71 f9 bb
       0.031247236 0.038428556 -0.06275292 -0.0076124007
000190 72 6e b8 3d a5 6d e6 bd eb a0 33 bd fa a4 9a 3d
       0.09005441 -0.11251382 -0.043854635 0.07550998
0001a0 3d 69 a6 3d 83 a5 c4 bc 7a b6 a8 b9 f9 23 01 3d
       0.08125541 -0.024004703 -0.00032179413 0.031528447
0001b0 bd 61 50 bb 66 76 8d 3d cc 07 80 bd 6d 74 e4 3c
       -0.0031796538 0.06907348 -0.06251487 0.027887547
0001c0 68 16 59 bd 02 12 3b 3d 3c d6 f1 3c 61 4d 13 3d
       -0.052999884 0.04567147 0.0295211 0.035962466
0001d0 3f c1 64 bd cc d7 d6 3d 3f 9c b4 3d 0d 9f 4b 3d
       -0.055848356 0.10490379 0.08818864 0.04971223
0001e0 86 82 a1 bd 42 eb 30 bc 33 71 62 bd 33 88 26 3d
       -0.078862235 -0.010798277 -0.055283736 0.040657233
0001f0 0a 38 0c bd 6f 92 20 3d 80 da 24 bc 9f fe 2e bc
       -0.03423313 0.03920215 -0.01006186 -0.010680824
000200 dd 33 0b 3c a6 29 d4 39 e6 3f 70 3d 18 08 5a 3d
       0.008496252 0.00040466822 0.05865469 0.053230375
000210 07 f2 e7 3b 87 47 07 be 22 d2 d5 bd 32 0c e4 bc
       0.0070784125 -0.1321088 -0.1044047 -0.027837846
000220 b8 b6 37 bc 27 1a 44 be 88 74 bb 3d d6 7b 89 bd
       -0.011212997 -0.19150601 0.09153086 -0.06713073
000230 65 04 2d bd 27 87 be 3c 99 29 48 bd a1 97 0c be
       -0.04224052 0.023257805 -0.048867796 -0.13729717
000240 38 d3 19 ba 1e d2 6a bd 1c 1a b5 3d aa 30 53 3e
       -0.0005867961 -0.05732929 0.088428706 0.20624033
000250 81 d6 43 3b db 42 6a 3d 72 eb 10 bd 9d 16 17 bd
       0.0029882493 0.057192665 -0.03538079 -0.0368868
000260 21 d8 99 3d b1 39 45 3c 44 b6 a8 bd b1 1f 2b bd
       0.075119264 0.0120376805 -0.082378894 -0.04177827
000270 2d ce a5 bc e6 6a e9 3b 06 f0 ec 3c f6 08 1a 3e
       -0.020239914 0.007123339 0.028923046 0.15042481
000280 b0 ac e1 bc 4f 28 98 3d 51 c5 d9 3d 4f a6 89 bd
       -0.027548164 0.07429563 0.10633338 -0.06721174
000290 db 14 33 3e c7 16 c6 3d a7 19 0d be cf b8 42 3d
       0.17488424 0.09672313 -0.13779317 0.04753953
0002a0 23 f3 7e bd 5c 80 b0 3d 51 91 37 bc 98 e0 9b 3d
       -0.062243592 0.086182326 -0.01120408 0.07611197
0002b0 fa ed 44 bd 5b 70 a4 3d 15 87 f6 3d 97 65 84 bc
       -0.048078515 0.080292426 0.120374836 -0.016161723
0002c0 2d 9e cf 3c 1c ae 18 3e 90 cd a7 bd c0 2d 13 bd
       0.025343979 0.14910167 -0.08193505 -0.035932302
0002d0 b8 99 14 bd b4 89 e9 3c 26 b6 ea bd ad 69 e6 3b
       -0.03627941 0.028508045 -0.11460523 0.0070316405
0002e0 b0 4f 83 bd c8 c8 91 3d 13 d1 09 3d 5b ba 94 3d
       -0.064116836 0.07118374 0.033646654 0.07262107
0002f0 ff 37 d2 3c d3 9e 97 3b f4 61 d8 bd 6a f2 5e 3c
       0.025661467 0.0046270876 -0.10565558 0.013607601
000300 47 3b a9 3d 23 d1 54 bd 33 41 1f 3d 27 96 b8 bd
       0.082632594 -0.05195726 0.03888054 -0.09013014
000310 46 55 17 bd 1e 24 aa 3d c0 39 b5 bd f1 f9 85 bd
       -0.036946557 0.0830767 -0.088489056 -0.06541813
000320 71 12 8a bd 1d e1 2b 3d c9 d9 e1 bd 52 23 ac 3c
       -0.06741799 0.04196273 -0.11027867 0.021012936
000330 9b 7e 46 bc bb 5d cd bd 2e dd 1e 3c e9 f4 8b 3d
       -0.012115146 -0.10027643 0.009696288 0.06833822
000340 e0 e0 9a bd 1a 96 90 bd af f9 ba bd 99 2c 97 3d
       -0.07562423 -0.070598796 -0.091296546 0.07381553
000350 4d 2f dd 3d c8 e3 62 3d d1 d6 84 bc 32 72 0a bc
       0.108000375 0.05539301 -0.016215714 -0.008450078
000360 0f 3d d3 bc d8 24 62 3c 18 d3 78 bd 59 13 07 bc
       -0.025785951 0.01380273 -0.06074819 -0.008244359
000370 0d 37 54 3d c9 99 65 bc 4f e1 70 bd 5a 29 34 bd
       0.051810313 -0.014013716 -0.05880862 -0.04398475
000380 c7 85 24 bd df 48 2c 3d 48 ee 86 3d 22 b7 5d 3c
       -0.040166643 0.042061683 0.06588417 0.013532432
000390 7c 5a c6 bc ee ea 81 3d 0e 04 3a bc 35 7c 71 3c
       -0.024213068 0.063436374 -0.011353506 0.014739086
0003a0 95 ac 27 bc 2b 22 e9 bc 60 c8 44 bc 5b 10 d0 3c
       -0.010234018 -0.028458675 -0.012010664 0.025398424
0003b0 1b a5 59 bd b9 c7 c9 bd c9 09 0e 3d 10 9b 16 3e
       -0.053135972 -0.09852547 0.0346773 0.14707589
0003c0 d0 7b d7 bb e6 8d bb 3d 72 fb ec 3c aa c6 d3 3d
       -0.006576039 0.09157924 0.028928492 0.103406265
0003d0 21 6d f4 3d 6b 39 2e 3d 56 c5 dc bb d2 40 9d bb
       0.11934877 0.042535227 -0.0067373915 -0.004798987
0003e0 bb 5b 83 bd 0c 96 fb 3c ce 65 cc bc 59 60 2a 3c
       -0.064139806 0.030711196 -0.024950888 0.010398948
0003f0 ac 20 2b bd 3a 9b 25 ba 69 f0 07 bc 9f b9 c6 bd
       -0.041779205 -0.0006317381 -0.008297064 -0.09703373

network_body._body_endoder.seq_layers.4.bias f4 [256]
000000 94 f6 1e bb af 58 ae 3b 11 a5 59 bb 1e d9 d0 ba
       -0.0024255859 0.0053206305 -0.003320996 -0.0015933847
000010 e6 99 07 bc 93 36 02 bc 90 55 93 39 0e a3 ea b9
       -0.008276438 -0.007947582 0.00028101774 -0.00044753443
000020 31 9f e6 3a b7 70 ae bb 21 ea cb ba 0b c1 79 3b
       0.001759505 -0.0053234953 -0.0015557447 0.0038109447
000030 06 3d 91 ba 6f 3b 45 bb 1c f9 53 3b 70 c7 d6 3b
       -0.0011080808 -0.003009524 0.0032344526 0.0065545365
000040 29 a9 12 bb 33 fc 3a 3b ae 38 0c bb 23 32 27 ba
       -0.002237866 0.002853167 -0.0021396088 -0.00063780154
000050 05 48 88 ba 21 e9 c9 bb 47 af 4f bb 81 c8 2e bb
       -0.001039744 -0.0061618243 -0.0031690167 -0.0026669803
000060 c6 a0 d6 bb cf 9f a2 3b 94 31 57 3a 55 48 1b bb
       -0.0065499274 0.0049628983 0.0008208987 -0.0023694236
000070 99 1a 48 3b b6 b9 a8 3a 68 42 94 3b 3d 7b 3c 3b
       0.0030533432 0.0012872729 0.004524518 0.002875998
000080 8b 68 19 3b 98 e7 fe ba 36 b0 8d bb 54 da 90 3a
       0.002340826 -0.0019447682 -0.0043239845 0.0011051395
000090 6f 6f 5b bb ee 80 76 ba 32 3b a1 3a 2f 49 05 bc
       -0.0033483168 -0.00094033673 0.0012300967 -0.008135124
0000a0 de 7c d1 3b 9c c3 86 ba 80 51 f8 3a 97 51 38 39
       0.006393059 -0.0010281685 0.0018945187 0.00017578002
0000b0 0f 6e da bb 14 71 63 38 1a ec e2 ba b5 f3 6f 3a
       -0.006665952 5.422633e-05 -0.0017312795 0.00091534416
0000c0 38 80 0b b9 89 fb 50 ba 2c 40 9e ba 8e 57 ae ba
       -0.00013303838 -0.0007972052 -0.0012073568 -0.001330124
0000d0 d5 6f 90 3b 2a 41 ca 3a 00 7f a3 bb 92 f4 73 38
       0.0044078627 0.0015430797 -0.004989505 5.816349e-05
0000e0 83 2a 54 bb 63 8b bc bb e2 b4 87 b7 a4 7c 76 bb
       -0.0032373972 -0.005753921 -1.6177484e-05 -0.0037610913
0000f0 b1 84 f3 3a 6c 70 6b 3a b3 c7 1a 3b 26 de 12 bc
       0.0018578974 0.0008981291 0.0023617565 -0.008964097
000100 2d 40 77 3b 33 15 ad bb 29 17 d2 3a 30 07 51 3b
       0.003772746 -0.005282068 0.0016028631 0.0031895153
000110 ce 54 f7 3b 3b 64 d7 ba 72 d8 01 3c 59 6b af 3b
       0.0075479513 -0.0016433069 0.00792514 0.005353373
000120 fe 62 cd bb bd b2 41 ba c8 82 cd 3a 21 5b 2d 3a
       -0.0062679043 -0.0007389 0.0015679235 0.00066130055
000130 01 09 f3 ba 12 97 7c 3b a8 ca a4 bb 4d bd a2 3a
       -0.0018542112 0.0038542193 -0.0050290413 0.0012416035
000140 bb cf 90 3b a4 ef 77 bb 7c 14 08 bc a2 b6 47 ba
       0.0044192947 -0.0037832046 -0.008305665 -0.0007618462
000150 76 7a 5e bb da 95 93 b9 65 ef ac 3a 5c eb 25 bb
       -0.0033947504 -0.00028149673 0.0013193904 -0.0025317287
000160 d8 68 66 3b a3 5f 26 bb 39 8b bc b9 2f 9e de 3a
       0.0035157707 -0.0025386594 -0.00035961883 0.0016984398
000170 36 3c a0 bb d3 e3 7d ba 8c 3d 3a bb fb 76 fd 3b
       -0.00488999 -0.00096851325 -0.0028418032 0.007735131
000180 82 5a 4c ba 1a 30 21 bc b6 08 8e 3a e9 b1 fb ba
       -0.0007795469 -0.009838128 0.0010836336 -0.0019202802
000190 71 82 95 bb a6 1f c6 bb 27 d0 b9 3b 89 ec a6 b9
       -0.004562669 -0.0060462533 0.0056705656 -0.0003183822
0001a0 4e 2f 01 3b 0e e6 f2 bb a8 f3 6c 3b a4 c4 90 3a
       0.0019712034 -0.0074126786 0.0036155973 0.0011044932
0001b0 6e 87 bd 3a 64 b5 cb ba de c4 00 bb 04 32 0b bb
       0.0014459917 -0.001554173 -0.0019648592 -0.0021239528
0001c0 2f 86 b1 3a 1f f5 c5 ba e3 10 04 3c 71 c2 cd 3b
       0.0013544018 -0.0015102959 0.008060667 0.0062792827
0001d0 63 36 3a 3c 26 c0 21 bc d3 f7 4d bb a9 bf 69 3b
       0.011365506 -0.009872472 -0.0031428232 0.0035667217
0001e0 13 7b 20 3b f0 71 1e 3c 6c ca b8 3b d1 0f 09 bb
       0.002448742 0.0096707195 0.005639365 -0.0020913968
0001f0 a8 d1 fb ba 28 1d 19 3b 0f 0f 9a 3b f9 59 2e ba
       -0.0019212263 0.0023363326 0.004701502 -0.000665098
000200 c7 93 d8 bb 27 a9 f6 39 29 cf e7 3a 75 64 3c bb
       -0.0066094133 0.00047046805 0.001768564 -0.00287464
000210 67 67 c7 bb 11 c9 a3 bb 47 b7 b6 bb 85 24 71 3b
       -0.0060853246 -0.004998334 -0.0055760476 0.003679545
000220 10 ce e4 3b 97 76 29 bb e8 5d 04 bb c6 43 a4 bb
       0.0069825724 -0.0025858039 -0.0020197574 -0.005012962
000230 2f 72 0e 3c ca 57 73 bb 79 07 4d bb 05 63 92 b7
       0.008694216 -0.0037131184 -0.0031284972 -1.7450666e-05
000240 46 d9 84 39 41 98 4e bb 58 d5 99 b9 17 8f ed bb
       0.00025338883 -0.0031523856 -0.00029341388 -0.0072497237
000250 67 c4 4f 3b ab d7 be 3b 43 cf 09 3b d6 b8 2e bb
       0.0031702758 0.0058240495 0.0021028079 -0.0026660464
000260 3c 67 22 bb 11 61 f8 ba 09 2a 83 bb 77 52 0d bb
       -0.002478077 -0.0018949826 -0.0040028137 -0.0021564045
000270 b0 ce b7 bb 11 32 7b bb 1e 93 11 bc 80 2a 25 bc
       -0.005609356 -0.0038329402 -0.008885173 -0.010080934
000280 23 2a 94 38 2d 5d 4c bb b7 97 fc 3a ba 7c ae bb
       7.0650385e-05 -0.0031183467 0.0019271289 -0.005324927
000290 51 2a c5 3b d1 c2 06 3b ce ff 9d bb 86 37 8b bb
       0.0060170074 0.0020562897 -0.004821754 -0.0042485623
0002a0 a7 2b c0 bb f4 15 83 3a ef 8b d6 3a c2 23 0c 3a
       -0.0058645788 0.0010001049 0.0016368608 0.00053459045
0002b0 26 b4 bf 3a 90 1a 7f ba 9c df 27 bc 48 4f ec 3b
       0.0014625832 -0.0009731436 -0.010246184 0.0072115995
0002c0 93 51 57 bb fc 27 02 bb 3f bb a5 bb 63 eb c3 bb
       -0.0032855019 -0.0019860258 -0.005057722 -0.005978988
0002d0 4e f5 e2 bb ec ba db 39 77 1b 21 bb d3 ff b6 ba
       -0.0069262153 0.00041910203 -0.002458302 -0.001396174
0002e0 6b c8 14 bb ba 67 bc bb e9 c2 21 bc ca bb e3 3a
       -0.0022702466 -0.00574967 -0.00987313 0.0017374691
0002f0 c6 c5 c7 3b 32 b4 5a bb 3f 36 cb 3b dc 08 4b b9
       0.0060965745 -0.0033371565 0.006201535 -0.00019362889
000300 8b 13 e4 bb e0 a7 06 bc c1 5d ab 3b 43 83 90 bb
       -0.0069603375 -0.008218735 0.005229682 -0.004410179
000310 9e 93 84 bb 89 1f 4e 3b 76 64 46 bb da 1c 07 bb
       -0.0040459177 0.0031451902 -0.0030272282 -0.0020616562
000320 cc c6 d6 bb 7e 37 3a bb e5 46 56 3a b8 d6 2c bc
       -0.00655446 -0.0028414424 0.0008174016 -0.01054924
000330 99 7e 77 3b 2b 39 90 3a e6 8a 28 3b 60 df 23 3a
       0.0037764667 0.0011003366 0.0025717556 0.0006251242
000340 ea 09 84 3b 3f 3e eb bb 6d c6 82 ba f4 50 94 39
       0.004029502 -0.007179051 -0.0009977348 0.00028289075
000350 ef af 0b 3b 78 e0 66 3b bc dc ef 3a 81 32 69 bb
       0.0021314581 0.0035229009 0.0018300037 -0.0035583081
000360 1a 40 0a 3c d3 ef 7f bb 5e 0d c6 3a 06 a2 bd bb
       0.008438135 -0.0039052858 0.0015110185 -0.005787137
000370 46 07 4e 3b 98 6d 33 3c 5b e4 8e bb 7e 9c 3d 3b
       0.003143744 0.010951422 -0.004360718 0.0028932388
000380 3f fd a1 3b 1a c2 65 bb c3 5f 92 bb 82 4e 73 ba
       0.0049435194 -0.003505832 -0.004466982 -0.0009281413
000390 f0 9b 10 3b ee ad 42 bb 0c 28 d0 ba d7 dd 87 3a
       0.0022065602 -0.002970572 -0.0015881076 0.0010365796
0003a0 88 2d 39 3b 92 82 86 ba a6 11 49 3c 18 2c 20 3b
       0.0028255899 -0.0010262302 0.012272274 0.0024440344
0003b0 95 17 c4 ba ae 12 92 bb 60 4d c3 3a b5 bf 93 3a
       -0.0014960641 -0.004457793 0.0014900379 0.0011272343
0003c0 66 2a 0b bb 08 b4 c2 ba e3 e0 d7 3a c8 91 22 bc
       -0.0021234988 -0.0014854679 0.001647022 -0.009922452
0003d0 19 8e 50 39 2e 7d b5 3b 2c 85 f1 ba 28 02 16 bc
       0.00019889361 0.005538604 -0.0018426529 -0.0091557875
0003e0 ca ce ba bb b1 cf 00 bc 51 04 bf bb b2 e1 b8 3b
       -0.0057009207 -0.0078620175 -0.005829372 0.0056421394
0003f0 94 3d 50 38 34 77 a8 bb 23 cf ab bb e9 59 92 3b
       4.9648414e-05 -0.0051411632 -0.0052431985 0.0044662845

action_model._continuous_distribution.log_sigma f4 [1, 2]
000000 e1 d2 1b bb e5 4c db ba
       -0.0023776817 -0.001673129
