MLAgents Jumper Exercise/Assets/results/JumperAgent_4/JumperAgent.onnx (onnx, 570158 bytes, 15 tensors)

network_body.observation_encoder.processors.0.normalizer.running_mean f4 [26]
000000 3d 44 37 3f ae b6 40 3f 1b 45 37 3f c3 e9 40 3f
       0.715885 0.7527875 0.7158982 0.7535669
000010 1b 45 37 3f c3 e9 40 3f 91 4c 37 3f 18 8f 41 3f
       0.7158982 0.7535669 0.71601206 0.7560897
000020 91 4c 37 3f 18 8f 41 3f 20 53 37 3f 70 cf 42 3f
       0.71601206 0.7560897 0.71611214 0.76097775
000030 20 53 37 3f 70 cf 42 3f 8c 01 3a 3f fa c3 46 3f
       0.71611214 0.76097775 0.7265861 0.77642787
000040 8c 01 3a 3f fb c3 46 3f 7e 1d 4c 3f 2d 67 56 3f
       0.7265861 0.7764279 0.797325 0.83751184
000050 7e 1d 4c 3f 2d 67 56 3f 24 d9 6e 3f dc 01 72 3f
       0.797325 0.83751184 0.9330008 0.9453409
000060 24 d9 6e 3f dc 01 72 3f
       0.9330008 0.9453409

network_body.observation_encoder.processors.1.normalizer.running_mean f4 [2]
000000 c4 e2 6d 3e fe 0b 2b bd
       0.23231035 -0.041759484

network_body._body_endoder.seq_layers.0.weight f4 [256, 28]
000000 2b 9d 91 3e 2d 68 a2 bb b6 14 b5 3e e4 5c ee bd
       0.28440222 -0.0049562664 0.35367364 -0.11638811
000010 fe b2 3a 3e 56 44 4a 3d 9b 0c 49 3e bc e1 22 3d
       0.18232343 0.049381576 0.19633715 0.03976606
000020 d5 b7 b0 3c d9 b8 06 bd 3e 35 4c 3e ea b7 5a be
       0.021572033 -0.03289113 0.19942185 -0.2135922
000030 e4 b8 31 bd 13 23 04 be 5b 9f b4 3d b5 e8 9c be
       -0.043389216 -0.12904005 0.08819457 -0.3064629
000040 85 41 08 3e ba 35 79 bd 16 9b 3c 3d aa df 32 be
       0.13306244 -0.060842253 0.04604634 -0.17468134
000050 24 19 ba bc c4 d5 0e be 01 c2 ba 3d c8 1b f8 bd
       -0.022717066 -0.13948733 0.091190346 -0.12114674
000060 ed 97 22 3e f0 9a e1 bc 62 ad 43 3c a9 ff 57 3d
       0.15878268 -0.0275397 0.011943193 0.05273405
000070 fa 5d d8 3d 38 02 f1 3d 6f fd ad bd 8a 00 9f be
       0.105647996 0.11768001 -0.08495604 -0.310551
000080 06 2e c2 bd e0 cf 11 be 81 9e 3e be 71 70 c4 3e
       -0.094814345 -0.14239454 -0.18615152 0.38367036
000090 8d 61 01 be 29 0c d9 3c dd 15 06 3f df c8 50 be
       -0.12634869 0.026495056 0.5237711 -0.20389126
0000a0 75 ca c4 bd 0f 3d 58 be 2d a5 f2 bd bd a3 3f 3e
       -0.09608928 -0.21117042 -0.11847911 0.18714805
0000b0 97 ab 12 be 4b 12 9b bd f5 ab 4e 3e 55 ee a1 be
       -0.14323269 -0.075718485 0.20182784 -0.31627145
0000c0 d6 47 37 3d 90 9b a5 3d 4f 59 bf 39 1e 07 16 be
       0.044746242 0.08086312 0.000364969 -0.14651152
0000d0 74 64 a1 bb ea 0b 72 3e 3e 5e 06 3e a9 28 cc bd
       -0.004925305 0.23637357 0.13121888 -0.09968693
0000e0 75 08 c2 3d 85 59 94 3d e0 f5 eb 3d e7 71 8d bd
       0.09474269 0.07243637 0.11521506 -0.06906491
0000f0 de 80 34 3e a8 ab ff bd a4 18 3b 3e f7 34 13 3e
       0.17627284 -0.12483913 0.18271118 0.14375673
000100 e7 c3 6f bd 5f 1a 97 3e 99 9a 48 bd 83 b7 91 3d
       -0.058536436 0.29512307 -0.04897556 0.0711508
000110 07 72 21 3e e1 ab 33 3e 95 35 a8 3e 4f 39 0b bd
       0.15766154 0.17546035 0.3285338 -0.0339902
000120 cf fa 30 3e 44 91 87 bc 60 65 b3 bb 9e 6a 6c be
       0.17283176 -0.01654876 -0.0054747313 -0.23087546
000130 6c 0b 62 3e 53 e3 2a 3e f6 ec b0 bd 98 e6 23 3c
       0.2207467 0.1668828 -0.08638947 0.010003708
000140 ac 8d b1 3e b8 e9 71 3e 22 55 80 be 9b 3d 46 bd
       0.346784 0.23624313 -0.2506495 -0.048398595
000150 d9 2c 50 3e ca e8 6f 3e 88 ed 4b bd db b2 55 3e
       0.20329608 0.23428646 -0.049787074 0.20869009
000160 82 7a b9 3d 8f 17 7e bd 8a bc b6 3d 02 d3 0b 3e
       0.0905657 -0.062034186 0.0892268 0.13654712
000170 1c 8e 4f be d2 5e 6c bd 45 7d 3d be 39 02 d7 3c
       -0.20269054 -0.057707615 -0.18504818 0.026246177
000180 ea da ae be 79 1c 44 3d 39 0f e2 bc 70 d6 61 be
       -0.34151393 0.047878716 -0.02759515 -0.22054458
000190 1c f9 a3 be ba 70 87 3e 03 78 4a bc 0e 5c 8c be
       -0.32025993 0.2645319 -0.012357715 -0.27413982
0001a0 b9 48 53 bd 32 d6 1c bd 2b 58 45 3e 8e aa 9d 3e
       -0.051583026 -0.03829021 0.19271915 0.30794185
0001b0 f8 b2 66 bc f6 9f 3f 3d cc 44 f0 bd 0c 75 d2 bd
       -0.014080755 0.04678341 -0.11731872 -0.10276231
0001c0 15 f6 78 be f2 6a d2 bd 4d 62 3b be 95 b6 b3 3c
       -0.24312623 -0.102743044 -0.18299218 0.021937648
0001d0 50 5e 3b 3d 11 4b a1 3d eb 3f d9 bd e9 54 b2 3c
       0.04574424 0.07875646 -0.106078945 0.021769004
0001e0 a2 a1 ca bb f0 11 f1 3d db c6 1d bc b1 1c 44 bd
       -0.006183819 0.117709994 -0.00962993 -0.047878925
0001f0 0a c4 f4 3d fc a0 ec 3d 13 e9 ce 3d b0 bf f5 3d
       0.11951454 0.11554143 0.10103049 0.11999452
000200 bf f7 ba bd f1 c3 7f 3d cc 6c 3f be 90 d1 18 3e
       -0.09129285 0.062442724 -0.18693846 0.14923692
000210 53 e2 ff bd d9 9e 7a 3e 90 e7 92 be 16 2a 8b bd
       -0.1249434 0.24474658 -0.28692293 -0.06795137
000220 77 04 0e 3c 2b 43 cd bd 99 df 33 3e e8 a7 d3 3d
       0.008668057 -0.10022577 0.17565764 0.1033476
000230 28 43 b0 bd f4 37 a0 bd 02 06 02 3e b9 c3 e8 3c
       -0.08606559 -0.07823172 0.12697604 0.02841364
000240 5e 81 8b 3e 30 ac 9f 3e 2a 74 66 3d 2e 8c 10 bd
       0.27247137 0.31186056 0.056263126 -0.035289936
000250 96 2b 33 be 67 5e 8a be 5d 97 1e 3d fa e2 91 3d
       -0.17497095 -0.27025148 0.03871857 0.071233705
000260 05 e4 99 3e 0f a4 a1 3d 9f ae c4 bc 56 44 71 3d
       0.30056778 0.0789262 -0.024009047 0.05890306
000270 f6 2e 18 be 67 a8 cc bc 09 b7 a1 3e d3 53 4f 3b
       -0.14861664 -0.024982644 0.31584957 0.0031635656
000280 ba ea 1e bd c6 92 17 3e 89 63 a7 bd 3c 08 09 3e
       -0.03879807 0.14802083 -0.08173282 0.13382047
000290 77 a1 20 be e4 ba 5a 3d 05 6c 12 be 46 89 37 3e
       -0.15686594 0.05340089 -0.14299019 0.1792346
0002a0 2d 0a ab be b1 69 8b bd ee 4d 0b 3d 9b 25 9e 3e
       -0.334062 -0.068072684 0.034009866 0.30888066
0002b0 b5 41 43 3d 8f 06 9a 3c d6 54 02 be da 31 7c 3e
       0.047670085 0.018801956 -0.12727675 0.24628392
0002c0 6c 04 29 bb d5 1e 90 3c 1c 10 63 3e c3 80 bf bc
       -0.002578999 0.017592827 0.22174114 -0.023376828
0002d0 0f 80 0c 3e 4d 15 fb be 58 b7 10 bc 30 fe 00 3d
       0.13720725 -0.4903969 -0.008832775 0.031492412
0002e0 3c ab 1d bc 72 c9 40 bc b7 e6 8f 3d 7c 58 bd bd
       -0.009623345 -0.011766778 0.07026427 -0.09245393
0002f0 bf bd 85 3d 84 cf f8 3b 8d 0b 54 3d ea 53 06 be
       0.06530332 0.007593097 0.05176883 -0.13117948
000300 38 65 7c be 33 1d e0 3d 0b 43 29 3d ed a7 da 3e
       -0.24647987 0.10943069 0.041323703 0.42706242
000310 0f f8 9d 3e 27 ae d8 3d b3 bf 01 3e 6e f4 07 3d
       0.30853316 0.10580092 0.12670784 0.03319209
000320 e0 84 d8 bc 8d 46 89 3d bf 77 6c be 4a 6e 64 bd
       -0.026430547 0.067029096 -0.23092555 -0.055769242
000330 d1 44 ab 3e c4 cb 45 be 31 6f 49 bd 73 79 af bd
       0.3345094 -0.19316012 -0.049178306 -0.085680865
000340 1f 1b 0d 3d 73 ed 14 3e 0a 6c 2f be 89 e8 06 3e
       0.034449693 0.14543705 -0.17131057 0.13174643
000350 ce a3 72 be 54 df 87 be 64 0b ae 3d c2 61 40 be
       -0.23695299 -0.26537573 0.08498266 -0.18787292
000360 e1 a0 89 be b0 16 04 3e cf 9d 83 3e 98 2d 96 3e
       -0.26880553 0.1289928 0.25706336 0.2933166
000370 78 37 ff 3d 4d bc 57 3d 23 34 c3 be a8 65 0d bf
       0.12461752 0.052669812 -0.38125715 -0.5523324
000380 03 1e 0e be 82 94 bd bd 60 e4 ac bc 64 de b7 bd
       -0.13878636 -0.09256841 -0.021104991 -0.089779645
000390 d0 56 ba 3c 9e 8e fa bd 64 19 9f 3e ed 02 66 bd
       0.022746474 -0.12234233 0.3107406 -0.056155134
0003a0 07 2a c1 be 02 ef e9 3e 9a 3a 8a 3d 9f 51 38 be
       -0.37727377 0.4569016 0.067494586 -0.17999886
0003b0 54 46 a5 be 85 23 1c 3e c2 31 1e 3d 93 a4 2f 3e
       -0.3228022 0.15247925 0.03862167 0.17152624
0003c0 60 e9 41 be 52 8c eb bc 97 49 26 3e 8e f0 57 3e
       -0.18936682 -0.028753433 0.1623901 0.21087858
0003d0 d0 42 95 be 99 22 7b 3e 8f b2 a4 3c 2e 18 d1 bd
       -0.29152536 0.24524917 0.020104675 -0.1020969
0003e0 c5 1e 37 3e a6 fb a6 3d 9e c4 ad bd cd 3f 5b be
       0.17882831 0.08153467 -0.084847674 -0.21411057
0003f0 6b 0a da 3d b7 1a 8a 3d 6b b2 36 bc 8a f4 7f 3e
       0.10646518 0.06743377 -0.011150937 0.24995628

network_body._body_endoder.seq_layers.0.bias f4 [256]
000000 c1 c0 28 bb dd 72 1c 3b f9 5f e3 3b 93 f5 01 3c
       -0.0025749656 0.0023872175 0.006938931 0.007932085
000010 af c4 17 39 b8 d3 a3 bb 66 89 5f bb 95 e4 c8 3b
       0.00014473753 -0.004999604 -0.0034108995 0.0061307647
000020 aa 8a 89 3c 1a fa c5 3b e4 7d c8 3a 72 d4 b1 39
       0.016789753 0.0060417773 0.0015296307 0.00033918355
000030 c2 99 32 3c c9 89 f6 ba a0 3a b8 bb fa b9 5b 3c
       0.0109009165 -0.0018809374 -0.005622223 0.0134110395
000040 a3 8f c5 3b 15 d4 da 3b d6 5f 9d bb 9c 24 a8 bb
       0.0060290857 0.006678114 -0.0048026843 -0.0051313173
000050 7a dd 05 3c 33 04 37 3b 5f 16 6c 3a 51 65 2a 3c
       0.00817048 0.0027926087 0.0009006019 0.010400132
000060 fd 95 c9 3b 1f b8 c2 3b 37 47 0d bc 6b 2a 00 3c
       0.006151913 0.005942359 -0.008622936 0.007822613
000070 b6 a4 a5 3a 08 fa ee 3a aa a1 a0 3c c9 27 b1 3b
       0.0012637589 0.0018232474 0.019608337 0.005406354
000080 80 09 80 ba 43 0d 21 3c 2c e7 08 3c ae 35 82 3c
       -0.0009768456 0.009829822 0.008355897 0.015894737
000090 bb 54 6b 3b c3 3b 63 bb a3 e7 3b bb 0a 51 1c 3c
       0.0035908658 -0.0034673072 -0.0028672002 0.009540806
0000a0 8c cd dc bb ef 56 33 3a 0e be 57 bb 1d 2e 4a 3b
       -0.0067383703 0.0006841262 -0.0032919678 0.003085024
0000b0 e7 99 24 3b c1 1b b8 bb 88 17 35 bb fd 9c a9 bb
       0.0025116147 -0.005618543 -0.0027632434 -0.005176185
0000c0 07 2e 13 ba 2b 51 62 39 f5 01 43 bb 2a 8e ea 39
       -0.00056144636 0.00021583277 -0.0029755805 0.00044737878
0000d0 94 a6 c7 3b cf 37 e1 bb db f6 58 bb c5 75 46 bb
       0.0060928557 -0.006873108 -0.0033106122 -0.0030282598
0000e0 bd b5 d1 3a 39 3f 80 bb 65 7c ae bb 15 b4 10 3c
       0.0015999597 -0.0039137867 -0.0053248876 0.008831997
0000f0 f5 f2 c9 3b 72 2c 79 3b 61 be 21 3b be 98 9d 3b
       0.006162996 0.0038020876 0.0024680125 0.004809468
000100 f7 5e 47 3b 96 13 91 bb 1c 70 ea 3b c4 45 10 3c
       0.0030421594 -0.0044273837 0.0071544778 0.008805696
000110 70 5b 22 3a 31 ea dd 3b 7c dc 5b bb f5 c7 73 3c
       0.0006193435 0.0067723026 -0.0033548167 0.014879216
000120 e2 2c 03 3b 89 53 89 bb c0 95 c4 3b 7a f6 94 3c
       0.0020015766 -0.0041908664 0.005999297 0.018183935
000130 10 bf 9e bb 8b a5 bb bb 67 c1 e2 3b 84 14 72 bb
       -0.004844554 -0.0057265214 0.006920028 -0.0036938498
000140 69 3e 2d 3b c2 8e 3f 3a 59 60 42 3c fa 98 97 bb
       0.0026434904 0.00073073443 0.011863791 -0.0046263905
000150 05 82 38 37 f9 50 f8 bb e1 1a 36 3b 19 46 74 3a
       1.0997527e-05 -0.007578012 0.0027787017 0.00093183067
000160 85 b2 be 3a 37 2d 6f bb 3e e8 00 3c 7d 89 52 3c
       0.0014549053 -0.0036495456 0.007867871 0.012850163
000170 07 de 9c 3b cf 56 98 3a 4b 0c 9d bb e2 4e 7d 3b
       0.00478721 0.0011622551 -0.004792725 0.0038651754
000180 5d fd 61 3b 6d 04 b8 bb 2b 4f 0b 3c 83 04 af 3b
       0.0034483292 -0.005615762 0.008502762 0.005341114
000190 4e 9f 96 3c 3e 77 1c bb 95 f2 90 3c 8b e8 a9 3a
       0.01838651 -0.0023874785 0.017693797 0.001296298
0001a0 5c e7 26 3c fb 8f b3 3b 78 74 09 3c 66 76 33 3c
       0.010186996 0.0054798103 0.008389585 0.010953521
0001b0 9b a2 05 3c fd 43 40 3b 1a 31 b3 b9 7b bf 07 3c
       0.008156444 0.00293374 -0.00034178124 0.008285399
0001c0 4a 16 fc ba 57 95 89 ba a8 56 15 3a ab 55 60 3c
       -0.0019232717 -0.0010496777 0.0005696812 0.0136923
0001d0 97 34 32 ba 6a d9 00 3b bb fc e0 3b 94 11 41 3c
       -0.00067979976 0.001966084 0.0068660653 0.011783976
0001e0 51 d1 93 bb 41 02 83 3a 05 67 19 3c 8b ec cb 3b
       -0.0045110364 0.0009995179 0.009362941 0.0062232665
0001f0 a3 eb 05 3b 2c d1 ae 39 44 f7 d6 3b 62 49 21 37
       0.002043464 0.0003334371 0.006560238 9.613434e-06
000200 06 66 83 3c 30 16 85 3b d9 a3 44 3a 00 9e b4 3a
       0.01603986 0.004061483 0.0007501222 0.0013779998
000210 ba aa 1c b9 dc 53 f4 3b 30 2a 85 bb 9c 59 a9 ba
       -0.0001494092 0.007456286 -0.004063867 -0.0012920382
000220 71 bb 37 3c fc 01 95 3c 03 e9 66 3c c7 c9 c9 3b
       0.011214123 0.018189423 0.01409364 0.006158087
000230 1b ec c8 ba e8 eb 34 3c b2 f7 af 3b d6 6c e3 3b
       -0.0015329154 0.011042573 0.0053701038 0.0069404645
000240 ed 97 ea 3b b5 fc 1c 3b ae c6 92 3b 50 66 bd 3b
       0.0071592242 0.0023954336 0.004479251 0.005780019
000250 a6 ee 08 bc b5 09 b6 3a d4 7a 0d bb 24 11 4c 3c
       -0.0083576795 0.0013888391 -0.0021588104 0.0124552585
000260 dc a6 82 3c ac 39 01 3b 29 85 fe bb c9 41 35 3c
       0.015948705 0.0019718213 -0.007767339 0.011063048
000270 53 f3 4e 3b 34 30 af ba d9 e4 87 bb e2 fc 1e 3c
       0.0031578138 -0.0013365806 -0.004147154 0.009703847
000280 5c c0 96 39 37 9d 2f 3c fc 1a 35 bb 01 be b5 3b
       0.00028753548 0.010718635 -0.0027634492 0.005546332
000290 2a 5d 23 bc 61 1b 06 bb 61 eb d8 3b c3 1e 31 3c
       -0.0099709425 -0.0020463096 0.006619856 0.010810557
0002a0 c3 21 fe bb 62 6c 5b 3c 56 2f cd 3b 8f 0a bb bb
       -0.0077554896 0.01339254 0.0062617464 -0.005708046
0002b0 35 ab 8c 3b 9d 72 5f 3b 45 75 b4 3b ed 47 06 ba
       0.0042928704 0.0034095414 0.0055071437 -0.0005122412
0002c0 67 a7 d3 bb b8 bb 82 bb 6a f2 2f 3a c2 52 f3 3b
       -0.006459165 -0.003989663 0.0006711843 0.007425637
0002d0 a3 0e 35 3b 1a 47 d9 bb b7 e9 a7 3b 0a 60 7a bb
       0.0027627132 -0.0066307904 0.0051242965 -0.0038204216
0002e0 51 e9 dd bb 72 f3 b6 3b 31 a6 34 3c 33 94 bd 3a
       -0.0067721982 0.00558322 0.011025951 0.0014463722
0002f0 bf a7 b1 ba 38 d2 2c b9 94 4a 44 bb 9c c8 9d 3b
       -0.001355402 -0.00016481511 -0.0029951679 0.0048151743
000300 42 a0 84 bb 64 fe ae 3b 39 91 dc 3b e3 2e b1 3b
       -0.0040474245 0.0053403843 0.006731179 0.0054072007
000310 65 24 72 3c cd 68 50 3c f9 0d dd 3b 30 cd f7 3b
       0.014779185 0.012720299 0.0067460504 0.007562302
000320 99 e3 09 3c 97 79 80 bb dd 56 07 3b ce 91 44 bb
       0.00841608 -0.0039207446 0.002065114 -0.0029994133
000330 80 e8 84 ba 2a 64 f2 3b d0 0c ed 3b 48 1b ad bb
       -0.0010140091 0.0073971944 0.0072341934 -0.005282793
000340 83 d8 1d 3c f9 15 57 bb 8e 0d 2a bb c8 94 f0 3b
       0.00963414 -0.0032819493 -0.002594802 0.007341955
000350 56 c4 08 3b 76 68 be bb a4 67 e7 3b 58 ce 80 ba
       0.0020868978 -0.0058107926 0.0070619155 -0.000982712
000360 73 dc 9b 3b 67 f0 a3 3b 31 04 54 3b e5 e1 d1 bb
       0.004756504 0.0050030234 0.003235113 -0.0064051026
000370 7c 2d 40 3b 35 3b 0c 3a cf 44 bb 3a a8 3f 94 3a
       0.0029323986 0.00053493987 0.0014287474 0.0011310475
000380 f2 45 52 b8 14 94 f3 3b 7a dc 66 3a f6 d9 96 bb
       -5.0133043e-05 0.007433424 0.0008806657 -0.0046036197
000390 dc c8 5b 3c a8 a7 56 3c 71 16 ca 3a 28 61 ae 3b
       0.013414588 0.013101496 0.0015418065 0.0053216405
0003a0 26 23 a0 bb 62 a7 d4 3b 94 36 d8 bb b6 eb 29 3b
       -0.0048870025 0.00648968 -0.006598303 0.0025927848
0003b0 1e 63 1d 3a 0a d2 a6 3b 19 a8 3e ba 51 06 d6 3b
       0.00060038443 0.0050909566 -0.00072729733 0.0065315147
0003c0 a0 22 57 bb 5f 3f a9 3b 29 bd 03 3c a6 73 07 3c
       -0.0032827035 0.005165025 0.008040705 0.008267319
0003d0 3e b3 c0 3b 87 8b ec bb 71 5d 29 bb f6 e5 d4 ba
       0.0058807423 -0.0072187814 -0.002584305 -0.001624285
0003e0 37 b1 d7 38 2f fe b8 3b d2 e2 6b 3c 21 f6 1d bb
       0.00010285008 0.0056455354 0.01439734 -0.0024103003
0003f0 37 c8 c2 3b 75 f6 80 3c 7c 08 af 3b 78 2f ba 3b
       0.0059442776 0.01574252 0.0053415876 0.0056819282

network_body._body_endoder.seq_layers.2.weight f4 [256, 256]
000000 f9 6e 51 bd b8 d0 9b 3c 57 13 39 bd 85 b7 e8 bd
       -0.051131222 0.019020423 -0.04518446 -0.113631286
000010 b4 3c 73 3d f8 10 25 39 5d 94 8e bc 22 05 8d bd
       0.059384063 0.00015741948 -0.01740473 -0.06885745
000020 39 20 a3 bd ef 98 62 bd 69 61 56 bd 0a 92 29 bd
       -0.0796513 -0.05532163 -0.05233899 -0.04139904
000030 2e 13 28 3d b0 e3 3a 3d 79 56 89 bd 1e db fa 3d
       0.041033916 0.045627296 -0.067059465 0.122488245
000040 34 e1 48 3d 29 1b 20 3d 76 2a 8c 3d fa ce 21 3c
       0.049042895 0.039088402 0.06844036 0.009876007
000050 50 ca 6d bd fd 56 e5 bc 91 a1 54 bd c3 1b 27 bd
       -0.05805427 -0.02799558 -0.051911894 -0.04079796
000060 22 b3 e3 bd 38 75 e2 bb 52 74 79 3d c4 42 39 3b
       -0.11118151 -0.006910946 0.060901947 0.0028268555
000070 a1 68 e3 3c fb 93 dc bb b5 05 70 3c f1 6a be bc
       0.027759852 -0.006731508 0.014649798 -0.023244353
000080 7f 17 55 bd 2a ad 8d bc 1e 76 ef 3c 6a a2 2e bd
       -0.05202436 -0.017294485 0.029231127 -0.04263536
000090 bf 56 45 bd 0a d9 4d 3d e6 7d 8f 3c 4f 6d 0b 3e
       -0.04817843 0.050255813 0.017516088 0.13615917
0000a0 ab 13 f9 3c 5f c8 9d bd 81 3b 88 bd ad 9f ab 3c
       0.030404886 -0.077042334 -0.066519745 0.020950163
0000b0 69 a1 fb 3d 11 dd f9 3c 7a 1f e3 bc 04 ea 6c 3d
       0.12286646 0.03050092 -0.02772497 0.057840362
0000c0 89 55 92 bd d4 a6 ed bc 45 7c 82 3d 31 37 7e 3d
       -0.07145221 -0.029010214 0.06371359 0.062064353
0000d0 01 35 86 bd a6 e7 ca 3d 25 de 5d bd 95 df 8f bd
       -0.065530784 0.09907465 -0.05416693 -0.07025067
0000e0 5c 02 fa bc 86 9c 8b 3b dd 98 83 3b b3 5d 69 bc
       -0.030518703 0.0042606024 0.0040160255 -0.014243531
0000f0 2d 6c e8 3c 0d 79 6b bc c7 9a 61 bc ff 4e 72 3d
       0.028371895 -0.0143721225 -0.013769812 0.059157368
000100 6d c4 94 bd d1 e0 31 bd fb 29 5c bd 1f 23 ab bd
       -0.07264028 -0.043427292 -0.053750973 -0.08356308
000110 26 7c 22 3d de dc 10 bd 57 09 b3 bd 23 c3 2f 3d
       0.03966918 -0.035366885 -0.08742016 0.042910706
000120 7c 63 2f 3d ea 88 0c bd dc 6a 10 3a 8d 70 ab bd
       0.042819485 -0.03431026 0.00055090874 -0.08371077
000130 3f f1 61 3d 96 19 6b 3c 6e 8a c0 bd 43 0b 78 3d
       0.05516171 0.014349362 -0.09401403 0.060557615
000140 55 65 11 bc 5a cd f5 ba 7b b8 9b 3d 93 69 9f 3c
       -0.008874257 -0.0018753216 0.07603546 0.019459521
000150 7b 4e ed 3b 18 57 f5 bc ef 4e dd 3d 91 ff d9 39
       0.0072420216 -0.029948756 0.10806071 0.00041579877
000160 e8 39 c9 bc 2a 50 5c bb 1a be da bd 19 f6 20 3a
       -0.024563745 -0.0033617117 -0.1068079 0.0006140187
000170 3b b8 e7 3c cf ff 7c bc 7b f3 5b 3e a4 be a6 3d
       0.02828609 -0.015441849 0.21479599 0.081418306
000180 bf d6 92 bd 26 83 ee 3d 4c 52 cc 3d 3e 6f 05 bd
       -0.07169866 0.11646108 0.099766344 -0.032576792
000190 0b fe 69 3c 78 05 9e 3d 6c da b1 3c 16 f7 a8 3b
       0.01428176 0.07715887 0.021710597 0.005156408
0001a0 a0 ad 4c bd 1e b3 0f bb 92 58 55 3b 50 2d 7d bd
       -0.04997027 -0.002192683 0.0032554013 -0.06181079
0001b0 29 44 3f bd 41 f9 c5 bc 5e 27 a2 bd 36 60 21 bd
       -0.046695862 -0.024166705 -0.07917665 -0.039398395
0001c0 de a0 8b bb 77 8d 4b 3c 32 17 83 bc d5 56 93 3a
       -0.00426112 0.012423865 -0.016002271 0.0011241088
0001d0 69 8d ea 3b 28 49 dc bc 7f ea 0f bd 8e ad fc 3d
       0.0071579707 -0.026890352 -0.035135742 0.123377904
0001e0 b8 6b 3d bd e8 ea a9 3c b1 9b d2 3d c8 dc f7 3c
       -0.046245307 0.020741895 0.10283602 0.030256644
0001f0 c5 51 ab 3b e2 e1 be bd fa 4a 52 3d 16 09 2a 3e
       0.0052282535 -0.093204275 0.051341034 0.16605029
000200 9b 83 c3 bd 74 15 34 bd 7f 9a 75 bc aa 88 b4 bc
       -0.09546586 -0.04396577 -0.014990448 -0.022037823
000210 6d 82 12 3d 4c 9e 89 3c d6 e9 95 bd 5b a3 a2 3d
       0.035768915 0.016799115 -0.07319991 0.07941314
000220 19 26 94 bd 1d 81 64 bc 65 13 2d 3d 74 ba 78 3d
       -0.07233829 -0.013946799 0.042254824 0.06072469
000230 dd 29 c2 3d 56 fa d7 3d 44 a1 29 be 09 3a fd bd
       0.09480641 0.10545795 -0.16565424 -0.12364585
000240 cc de 30 bd b1 51 6b bc 80 44 96 bc 0a fe b5 3d
       -0.043181226 -0.0143627385 -0.01834321 0.08886345
000250 f9 9f 0e 3d fd 8b 5d 3d 43 36 0c 3d 53 08 17 bd
       0.03482053 0.05408858 0.034231436 -0.036873173
000260 f3 d3 c6 bd 9b 06 ec 3c 92 15 a1 bd 22 5e 7d 39
       -0.09708395 0.028811743 -0.07865442 0.00024163027
000270 4f 46 f0 bd 9d 44 03 3d ec 8e e6 bd 52 08 81 3d
       -0.1173216 0.032047857 -0.11257729 0.06300415
000280 44 ac b2 bd 24 d8 cb bc af 51 42 bc c6 ed 95 3d
       -0.08724263 -0.024883337 -0.011860295 0.07320742
000290 a0 27 0d be 9c 32 0c bc 67 e9 80 3d d8 ac 85 bb
       -0.13784647 -0.008556988 0.06294518 -0.0040794425
0002a0 ea 91 3b 3d 95 77 aa bd ea 94 a3 3c a5 0e af 3c
       0.04579345 -0.0832359 0.019968469 0.021369288
0002b0 69 f6 a0 bc 7c 61 74 bc 60 f4 c1 bc 55 c7 1f bc
       -0.019648748 -0.01491582 -0.023676097 -0.009752114
0002c0 c9 55 24 ba c3 3c 9f 3d 4d b2 3b 3d 5f af 86 bb
       -0.00062688865 0.07775261 0.045824338 -0.0041102613
0002d0 0d 45 17 3e 8a 41 3a 3d 11 42 cf 3d f7 9e 21 3d
       0.14772435 0.04547266 0.10120023 0.03945824
0002e0 29 5b 7c 3d 75 9d a5 bd 2f 67 35 bd ca c5 85 3d
       0.061610375 -0.08086673 -0.044287857 0.06531866
0002f0 ce 78 26 3c 9a 0f 0c 3e ee f3 15 3d 6d b2 d7 3c
       0.010160638 0.13677827 0.036609583 0.026330197
000300 86 dd d5 bd e2 91 5a bd c2 a2 18 3d c8 48 a8 bc
       -0.10442643 -0.05336178 0.037264593 -0.020542517
000310 79 64 c7 bc b1 6c 05 bd 02 2c 30 3b 8d 80 c4 3d
       -0.024339901 -0.03257436 0.00268817 0.095948316
000320 da ff 45 3d 92 8c 42 3d 5b c5 74 bc ed a1 17 3d
       0.048339702 0.04749734 -0.014939631 0.03701966
000330 59 40 2b bc f9 e9 32 3e 43 23 77 3c 33 7f 76 3c
       -0.010452353 0.17472066 0.015084091 0.015044975
000340 ea dd 60 3d 7d d7 f7 bc 8f a5 4a 3d c2 fe 7c 3d
       0.054899134 -0.03025412 0.049474295 0.061766393
000350 ce 87 18 bd fb ca c3 3d 69 eb f7 bc bc 7e 64 bc
       -0.03723889 0.095602 -0.03026362 -0.013946231
000360 de 61 fb bc 1e 26 e1 3b 63 90 26 bd 2a 2f 41 3d
       -0.030686315 0.006870999 -0.04066504 0.04716412
000370 9c 5d fe 3d 53 9d 10 bd 73 5e a7 bd 51 aa ad 3b
       0.12420198 -0.035306286 -0.08172312 0.0052998443
000380 d7 e2 a6 3d fb 54 00 bd 41 7a 32 bc 34 ff d8 3d
       0.08148735 -0.031331044 -0.010893405 0.10595551
000390 77 18 8d bc e5 39 7e bd 11 39 b4 3d 99 ce 06 3d
       -0.01722358 -0.06206693 0.08799947 0.03291187
0003a0 3f 70 bc bc 58 c6 31 bc 20 87 10 3e be 36 93 3d
       -0.023002742 -0.0108505115 0.14114046 0.071881756
0003b0 98 75 14 3d 51 a1 34 39 cc 8b cb 3c ed b8 48 3d
       0.03624496 0.00017226233 0.024846934 0.049004484
0003c0 83 26 8d bc 12 c3 e4 bc 92 97 8f bd 15 ee d3 3d
       -0.017230278 -0.027925048 -0.070113316 0.10348145
0003d0 f2 fb d9 bc f7 c0 46 3d 60 eb c7 bd ee 0e 8f 3d
       -0.026609395 0.04852387 -0.09761691 0.069852695
0003e0 de f9 22 3a a8 20 75 3c 18 68 83 3c 16 23 08 3e
       0.00062170427 0.014961399 0.016040847 0.13294634
0003f0 13 50 8d 3d dd 83 aa bd 41 27 8b bb ba e6 a6 bd
       0.069000386 -0.08325932 -0.004246623 -0.08149476

network_body._body_endoder.seq_layers.2.bias f4 [256]
000000 4d 03 16 bb 1b c4 d6 3b 38 52 57 3a 66 2a 32 3b
       -0.002289015 0.0065541393 0.00082138507 0.0027185916
000010 7d e2 97 bb 9a f5 04 3b 1a 3c a8 b9 87 0b 1e 3b
       -0.004635154 0.0020287992 -0.00032088236 0.0024115758
000020 79 08 24 ba 94 3e 50 3c aa 27 04 3b fd 56 68 3c
       -0.0006257366 0.012710232 0.0020165243 0.014180896
000030 3a d9 8c 3b f7 8e f2 3a 1c 0f 7e ba b7 46 33 3b
       0.0042983564 0.0018505742 -0.00096915825 0.0027355382
000040 87 17 0f 3c 19 8b ba 3b c4 98 80 3a 85 ea 43 bb
       0.008733637 0.0056928513 0.0009811153 -0.0029894423
000050 5c 36 47 3c 80 b2 af 3b c2 32 f3 39 4b 84 9e 3b
       0.012158956 0.005361855 0.0004638639 0.004837548
000060 05 a8 9a 3b 8f 14 3b 3b ad 62 5f bb cb 2d cb 3b
       0.0047197365 0.002854619 -0.0034085915 0.0062005273
000070 9f e0 b7 bb b7 19 0e 3c 31 28 f1 3a ce bc 19 3c
       -0.0056114937 0.008673123 0.0018398819 0.009383393
000080 e2 af c1 ba 83 56 44 39 b7 59 d8 3a ef 47 e8 3a
       -0.0014777149 0.00018724245 0.0016506229 0.0017721633
000090 ad 0a 06 39 83 99 10 ba 83 fa b0 bb 46 d1 9e ba
       0.00012783213 -0.0005516039 -0.005400957 -0.0012116812
0000a0 0a df c1 ba 15 5b 24 3c 76 54 ad 3b 37 b5 80 ba
       -0.0014791202 0.010031481 0.0052896095 -0.0009819631
0000b0 b5 03 69 3c 23 3c 1a bb 87 b4 4b 3b d0 03 e1 3b
       0.014222075 -0.002353438 0.0031082944 0.0068669096
0000c0 eb 75 6f bb 2d 30 9a bb 3a 9c 35 bb 9a 55 05 3c
       -0.003653879 -0.00470545 -0.0027711526 0.008138085
0000d0 46 4c b0 bb 5a 82 66 bb d3 a0 db ba 99 5b 98 3b
       -0.0053801863 -0.003517291 -0.0016756303 0.004649591
0000e0 1d bd 01 3c a3 54 fa bb 5e 6c 43 bb 2e 0b ef 3a
       0.007918623 -0.007639484 -0.002981923 0.0018237585
0000f0 ea 8c 9b 37 9f a2 d1 3b 45 18 00 3a b9 c5 bc 3a
       1.8543058e-05 0.00639756 0.0004886429 0.0014402188
000100 12 39 0a bc d5 c6 27 3b ab b0 e8 3a ef cd bf b9
       -0.008436458 0.002560069 0.0017752846 -0.0003658379
000110 2f 91 3e ba 24 5c fb 3b 54 e7 80 ba 39 c5 bf ba
       -0.0007269559 0.007670896 -0.0009834566 -0.001463092
000120 97 2d 3e 3b 92 8c af 3b 04 df 4f 3c 2c f1 d7 bb
       0.0029018873 0.0053573335 0.012687448 -0.006590029
000130 7d 0c 06 3b 99 dd 06 bb 8a db 4b ba 42 d4 61 3c
       0.002045422 -0.002057886 -0.00077765493 0.013783516
000140 e4 37 e7 ba 33 81 a0 3b 95 32 15 3b c7 cb df 3a
       -0.0017640558 0.0048982142 0.0022765745 0.001707428
000150 1a 1c 75 bb 7e 23 a0 b7 18 22 3c 3b 03 e8 62 bb
       -0.0037400783 -1.9090014e-05 0.0028706845 -0.0034623153
000160 5f 93 2b 3b 83 23 21 ba df 47 6f bb 88 1e f2 3b
       0.002618037 -0.0006146954 -0.0036511344 0.0073888935
000170 05 11 ea 37 f7 e6 2e 3c 7b ef f9 3b 7b ba 78 3a
       2.79029e-05 0.0106751835 0.0076274252 0.0009488237
000180 94 bf 19 3a b0 fc 34 3b f2 da 6f ba 11 e0 42 ba
       0.0005865034 0.0027616434 -0.0009149752 -0.0007433901
000190 29 62 8c bb 1d 2d 3b 3b 38 92 d7 3b 32 30 84 bb
       -0.0042841625 0.0028560825 0.00657871 -0.0040340656
0001a0 da 54 71 bb 0f 66 8e 3b 23 5c 2e bb 33 75 ef bb
       -0.0036824257 0.0043456624 -0.002660521 -0.0073076724
0001b0 6c 02 c2 3a 67 e6 10 3b 36 f3 4e 3c 20 11 d2 ba
       0.0014801747 0.0022109987 0.012631228 -0.0016026832
0001c0 14 2d 30 3c 01 8b 29 3c 58 30 21 bb 5f 0c d5 3b
       0.010752935 0.0103480825 -0.0024595466 0.006501719
0001d0 d6 be 4d 3c b9 44 c1 3b 50 ab 33 3c 77 6d 31 b8
       0.012557706 0.005898085 0.010966137 -4.2302036e-05
0001e0 c2 6f d2 3a c6 01 1a bb 95 1e c4 b8 c5 38 7f bb
       0.0016055035 -0.0023499592 -9.351705e-05 -0.003894375
0001f0 52 f6 e1 3a 1b 15 40 bb 3b 5a d5 3b fc 95 08 bb
       0.0017239547 -0.0029309455 0.0065110005 -0.002084135
000200 01 d2 75 ba c1 73 8e ba 42 d3 78 bb 34 5a 85 bb
       -0.00093773013 -0.0010868238 -0.0037967716 -0.004069591
000210 82 6d 90 bb 47 30 19 3c aa 05 84 3b bf 97 3d 3c
       -0.0044075856 0.009349889 0.0040289955 0.011571824
000220 b9 4e 91 bb 83 09 cf bb 45 b6 cb 3b 2e 39 97 bb
       -0.0044344333 -0.0063182726 0.0062167966 -0.0046149706
000230 ac a1 b4 bb 25 16 a3 3b cb 7c 7a 3b 75 5a ab 3b
       -0.005512437 0.004977005 0.0038221355 0.005229289
000240 e1 ee f8 3b 63 a1 85 bb 88 81 96 bb a6 0e 88 3b
       0.007596836 -0.0040780767 -0.004593078 0.004152137
000250 99 06 e0 3a e4 ae 31 3c 34 d7 ce 39 67 d7 2f 3c
       0.001709181 0.01084492 0.0003945172 0.010732508
000260 ce 62 53 3c 92 d1 f8 b9 54 3e 1d bb d4 20 7c bb
       0.012901975 -0.00047458388 -0.002399345 -0.0038471716
000270 e2 88 e5 3b 0d 27 db ba 18 cb 9d bb e8 11 fd ba
       0.007004843 -0.0016720012 -0.0048154704 -0.0019307705
000280 41 35 b5 3b 3d c9 86 3b 3f 5c 1a bb 3d 76 9a 3b
       0.00553003 0.004113345 -0.0023553518 0.004713802
000290 35 d8 eb ba fc 6d 15 bb 85 6f 3b ba 15 41 80 38
       -0.0017993512 -0.0022801151 -0.00071501016 6.115638e-05
0002a0 a1 1a 18 3a c8 a6 de 3b 09 4e fe ba 4c 11 6d 39
       0.0005802308 0.006794784 -0.0019401918 0.00022608525
0002b0 f7 af 8f ba 6d 67 97 bb 1b 1a a6 3b 50 91 33 bb
       -0.0010962476 -0.0046204836 0.00506903 -0.0027399845
0002c0 c3 df 3b bb 07 37 36 3c 78 d7 46 bb e6 00 89 3a
       -0.0028667308 0.011121518 -0.0030340832 0.0010452538
0002d0 25 dd ed ba cb 5a 97 bb 22 7c 06 3a c2 ca 7a bb
       -0.0018147571 -0.0046189777 0.00051301916 -0.0038267826
0002e0 1d 00 11 bb 55 c9 9d bb 71 ee 29 bb f9 33 10 3c
       -0.0022125312 -0.0048152604 -0.0025929476 0.008801454
0002f0 aa 2a 15 3c 04 5c b0 3b e2 8b b8 3b 81 6c 31 3c
       0.00910441 0.005382063 0.0056319097 0.010829092
000300 e7 ef 56 3c 8c 84 29 3c 7a 27 35 38 27 c8 87 bb
       0.013118721 0.010346543 4.319053e-05 -0.004143733
000310 00 fd f1 3a 53 27 d6 b9 1d fe 03 3a 88 fe e6 bb
       0.0018462241 -0.0004084656 0.0005035119 -0.0070493855
000320 a3 ae 58 3c 09 14 de 3b 25 ce a5 3b f8 9d 72 bc
       0.01322523 0.0067772907 0.0050599747 -0.0148081705
000330 6d 5f 3c bb 2b ef 89 3c 4e e7 c5 3a 28 12 ef ba
       -0.0028743402 0.016837677 0.0015098841 -0.0018239664
000340 92 a1 e5 3b 4b 6a 4b bb a0 cd b6 3b 60 f4 ab 3b
       0.007007786 -0.0031038697 0.0055787116 0.0052476376
000350 7a ef 01 b9 f4 f7 d0 3b 07 21 17 3c e5 ac 74 3b
       -0.0001239161 0.0063772146 0.009224183 0.0037334498
000360 bd 4e 15 3b 0e d5 21 b9 2a ec 2e 3c 42 95 05 bb
       0.0022782527 -0.00015433526 0.010676423 -0.0020383154
000370 9a 77 27 3c d9 53 ba bb 23 6c b8 bb bb 59 f9 3b
       0.010221386 -0.005686265 -0.0056281253 0.0076095737
000380 50 0d c3 3b c8 8a ed 3a 0b 4c d7 bb 3c a4 b3 3b
       0.0059525147 0.0018123025 -0.0065703443 0.0054822247
000390 ca d0 f1 3b 08 a4 a5 38 80 a4 97 b6 e6 0c ad 3b
       0.007379626 7.898366e-05 -4.519301e-06 0.0052810786
0003a0 65 25 4d 3c 3b a1 c1 3b 02 5a 02 3a d5 58 0e 3b
       0.012521123 0.0059091127 0.00049725187 0.0021720428
0003b0 ed e6 1d 3c 03 7f 9c bb 4b 43 f4 3a cc 61 41 bb
       0.0096375765 -0.004775883 0.0018635778 -0.0029507754
0003c0 ee 13 4c 3b bd 36 5d bb bb bb 17 bb e4 bf f7 ba
       0.0031139809 -0.003375455 -0.0023152668 -0.0018901792
0003d0 21 4c 52 3b 30 d9 2a 3b 22 1e 98 bb ed 35 93 bb
       0.0032088833 0.0026069395 -0.004642264 -0.0044925124
0003e0 27 c7 7a b9 f3 cb 09 ba eb e4 58 bb 8f 65 16 bb
       -0.00023916048 -0.0005256526 -0.003309543 -0.0022948717
0003f0 d2 39 5e 3b 2d 42 89 bb 37 87 2a 3c cc c8 d2 3b
       0.0033908975 -0.004188797 0.010408214 0.0064326283

network_body._body_endoder.seq_layers.4.weight f4 [256, 256]
000000 89 ce 58 3d 1f 77 fc bc 06 d4 22 bd 2c e0 1a bd
       0.052931342 -0.03081852 -0.039752983 -0.037811443
000010 85 20 b5 3d 1a 3d 48 3d 92 91 c3 3d b9 a7 6b 3b
       0.08844093 0.048886396 0.0954925 0.0035958125
000020 5e 5e af bd 9b 08 c3 3c 91 f7 b7 3d a7 f7 43 3b
       -0.08562921 0.023807814 0.089827664 0.002990225
000030 d1 52 92 3d 1b 45 d1 3a fb f9 0f 3d 45 c0 db bd
       0.07144702 0.001596603 0.03515051 -0.10730032
000040 80 60 e2 bc f1 fc a1 3d 3e eb 1b bd 36 6e 5a 3d
       -0.027633905 0.07909573 -0.03806614 0.05332776
000050 29 91 9a bc 91 3e 13 bd e0 bc e0 3d 4e 6b 1e bd
       -0.018868046 -0.03594834 0.10973525 -0.038676552
000060 37 d5 a5 bd 02 31 f2 3c c3 74 48 3d 83 3e e8 bd
       -0.08097308 0.029564384 0.048939478 -0.11340048
000070 81 e9 a2 bd 89 49 90 bc b2 34 a0 3d 81 b7 50 3c
       -0.079546936 -0.01761319 0.07822551 0.012739063
000080 fa 7e c8 3c 8f 4a 87 bd ae e3 75 bd a5 b1 41 bc
       0.02447461 -0.06606018 -0.060031585 -0.011822139
000090 2b b1 be 3d c9 f8 80 3d 02 b3 59 3d 67 93 68 bd
       0.09311136 0.06297452 0.05314923 -0.0567812
0000a0 ee 31 c1 3c d6 96 72 bc 31 d6 53 bc 9c 7e ab 3b
       0.023583379 -0.01480647 -0.012929485 0.005233599
0000b0 a4 62 52 bb 8f 3a de bc 07 de 3c 3d ac 1f b7 3d
       -0.0032102251 -0.027127532 0.04611018 0.08941588
0000c0 72 7d 9c bc bd 99 5f bb 39 67 0a be e9 ed 5d 3d
       -0.019102786 -0.0034118735 -0.13515939 0.054181967
0000d0 9e af eb bc 01 64 0b 3d 3c 41 de bd 25 b2 87 3d
       -0.028770264 0.034030918 -0.10852286 0.06625775
0000e0 f7 15 ef 3d a6 77 49 3c d0 3a 09 3e 2d a1 39 3d
       0.11674111 0.012296593 0.13401341 0.045319725
0000f0 b0 92 4a 3e 9e 88 1c 3d 35 64 61 bc 14 e1 56 3d
       0.1978252 0.038216226 -0.013756801 0.052460745
000100 c5 f6 b1 3d 5b 04 81 3d d2 34 db bd e7 84 67 bd
       0.08689646 0.06299659 -0.10703434 -0.05652323
000110 26 00 b1 bc 7b 93 96 bc d0 01 76 3d 6b 19 84 3d
       -0.021606516 -0.018380871 0.060060322 0.064501606
000120 fb 75 52 3d 60 c9 0e 3d f9 55 46 bd a0 83 fb 3b
       0.051382046 0.034860015 -0.048421834 0.007675603
000130 42 37 96 3d 87 9f 33 3d 63 a0 5a 3d 70 75 44 39
       0.07334758 0.04385331 0.053375613 0.00018735765
000140 a0 12 95 3c 4b d8 0f bd 65 8b f7 3c 9c 1c 0a bd
       0.018197358 -0.035118382 0.030217836 -0.03371869
000150 32 cb 24 bd 45 40 f6 3c 9b 48 d5 3d 66 65 94 bd
       -0.040232845 0.030059943 0.10414239 -0.07245903
000160 61 a5 28 3d c8 8b 68 3d f8 23 da 3c 90 95 04 bd
       0.041173343 0.05677393 0.02662848 -0.032369196
000170 d8 1b d7 3c 2c 67 ba bc 94 6f d9 bd e3 73 17 bd
       0.026258394 -0.022754274 -0.10616985 -0.036975753
000180 4a 45 8b 3d db 72 45 bd b3 87 08 bd f0 e2 7d bd
       0.06800325 -0.048205238 -0.033332538 -0.061984003
000190 e2 08 12 3c b2 61 29 bb 1b f4 17 3e 8b b8 ba 3d
       0.008913251 -0.0025845584 0.14839213 0.0911723
0001a0 d9 da 03 bd a8 2e 64 bd 17 50 b9 3b 58 a4 71 3d
       -0.03219113 -0.055708557 0.0056552994 0.05899462
0001b0 6f 9e 3d bd 64 b2 75 bd d8 4b 28 bc 60 60 b5 3d
       -0.046293672 -0.05998458 -0.010271989 0.08856273
0001c0 a4 83 5b bd 86 d5 88 bd 2f a9 90 3d 98 72 4e 3c
       -0.05359234 -0.06681351 0.07063519 0.0126005635
0001d0 25 48 04 bd 5a a5 ac 3c 73 cb a1 bd c3 8e 9f bb
       -0.032295365 0.02107494 -0.07900133 -0.0048693134
0001e0 de e0 86 3d 37 d8 82 3d 5c da ea 3b e9 17 d0 bd
       0.06585859 0.06388896 0.0071671437 -0.101608105
0001f0 dd 69 f8 bc da f7 3b bd f2 3c 23 3d 24 c2 79 bd
       -0.030323917 -0.045890667 0.039853044 -0.060976163
000200 8f f2 8b bd a3 18 a0 bd c2 ff 74 bd 00 d3 b3 3c
       -0.06833374 -0.07817199 -0.059814222 0.021951199
000210 a0 9a ad bd 5e 38 42 bd 4d f3 86 bc 82 81 da 3d
       -0.08476758 -0.047417037 -0.016473437 0.10669233
000220 50 84 aa 3d f1 ba a2 bd d8 e0 6e 3c 86 10 b5 bd
       0.08326018 -0.079458125 0.014579974 -0.08841042
000230 cd 87 a8 bd b1 89 a7 3c 62 ea aa bc 5e 26 d2 bb
       -0.08229027 0.020451399 -0.020863716 -0.006413265
000240 44 fd dd bb a0 55 8c bc 0e d9 32 3d 9e 66 df bd
       -0.0067745764 -0.017130673 0.04366403 -0.109082446
000250 4f 22 c6 bb 1f f7 df ba 61 02 86 bd 8a ce 87 3a
       -0.0060465704 -0.0017087198 -0.065434225 0.0010361236
000260 fd b6 53 bc 92 74 30 3d 61 9c 38 3d fe f7 5d bd
       -0.012922046 0.04307992 0.04507101 -0.054191582
000270 37 e3 9c bd 0e a4 3a 3c 60 97 a8 bc e7 3e f9 bd
       -0.07660525 0.011391653 -0.020579994 -0.12170201
000280 55 b2 fc 3d 33 25 b9 3d 8e 3d a0 bd f0 0e 68 3d
       0.12338702 0.09040298 -0.078242406 0.05665487
000290 95 6c 31 3d 69 dc 08 bd d3 be 48 bd 8b 20 90 bd
       0.043316443 -0.033413325 -0.04901011 -0.07037457
0002a0 df 76 56 bd 38 51 37 bd a3 83 f5 bc 54 67 5d bd
       -0.052359458 -0.04475519 -0.029969996 -0.05405362
0002b0 c7 af 82 3d d2 50 3d bd 22 a9 6c bd c9 0e c2 3c
       0.06381183 -0.046219654 -0.057778485 0.02368869
0002c0 c0 7f b0 3b 56 b9 4d bd 03 1a 06 be 3d 7f cd bd
       0.0053863227 -0.05022558 -0.1309586 -0.100340344
0002d0 f2 1f 41 3d 46 06 55 3c d1 7b b1 bd 16 77 05 bc
       0.047149606 0.013001984 -0.08666194 -0.008146068
0002e0 8b ac 84 bd 10 77 57 bd e2 e8 ba bb ef 4b 5a bb
       -0.064782225 -0.05260378 -0.0057040313 -0.003330942
0002f0 20 09 47 bd ee 9e f9 3d 88 d1 8b bd 2a f5 2d 3e
       -0.048592687 0.121885166 -0.06827074 0.16988054
000300 70 fa 44 bd ec 87 85 3d a9 e9 8b 3d 1e 25 90 3d
       -0.0480904 0.06520066 0.068316765 0.070383295
000310 76 fa 0e be c3 8d ee 3a 29 50 35 bd 91 4e 23 ba
       -0.13962731 0.0018200207 -0.0442659 -0.0006229664
000320 15 ef 03 bd dc 82 31 bd c8 b9 a0 3c 06 09 c6 bb
       -0.03221043 -0.043337688 0.019619837 -0.006043556
000330 4c 42 01 3d 6c 0d aa bc 18 a2 ad bd 69 23 f8 3c
       0.031557366 -0.020758353 -0.084781826 0.030290322
000340 26 d4 a9 3c 5c 83 99 3c 5f 93 d1 bd 03 49 5c bd
       0.020731043 0.018739395 -0.10233187 -0.053780567
000350 23 66 2f bd e1 98 08 bd 9f 8d ea ba 66 fc 26 bd
       -0.042822015 -0.03334892 -0.001789499 -0.04076805
000360 df 95 96 3d 43 f3 66 bd 07 92 6b bc ac 34 50 3c
       0.073528044 -0.056384336 -0.014378077 0.01270787
000370 b9 b6 fb 3c 7d c9 71 bd 3d 01 0b bb 74 c8 64 bd
       0.030726777 -0.059030045 -0.0021210455 -0.05585523
000380 55 4b 99 bd 31 4d 5e bd 2f d5 d9 bd c6 26 c2 bd
       -0.074850716 -0.054272834 -0.10636365 -0.09480052
000390 8f ab b6 3d 86 fb a3 bd 77 2c 9d ba 20 34 34 bc
       0.08919441 -0.08006959 -0.0011991401 -0.010998756
0003a0 ad 98 3b 37 27 ed e1 bc 22 90 c2 3d ca 7f d3 bb
       1.1181616e-05 -0.027578903 0.095001474 -0.0064544426
0003b0 62 6f 82 bc 91 12 c5 bd d5 ef 0b bd e0 39 80 bd
       -0.015922252 -0.09622682 -0.03416427 -0.06261039
0003c0 bd 07 a6 bd ee ba 1e bc 20 a6 8d bd 64 5c a2 3d
       -0.08106945 -0.009688122 -0.069164515 0.07927778
0003d0 76 81 9e bc 0c 89 4b 3c 4e 91 8d bb d1 f8 ef 3c
       -0.019348841 0.012422811 -0.0043203 0.02929345
0003e0 1f 9c 1c be 42 d6 a8 bd f4 b9 17 be 3f 3e 0e 3e
       -0.1529393 -0.082439914 -0.14817029 0.13890933
0003f0 5d d8 a3 3d 28 81 a7 bb f5 3c 7a 3d f5 18 c5 bc
       0.080002524 -0.005111832 0.06109329 -0.024059752

network_body._body_endoder.seq_layers.4.bias f4 [256]
000000 41 8d de 3a ef 4e 8c ba 22 40 97 ba a6 7a 9e 3a
       0.0016979353 -0.0010704676 -0.0011539499 0.0012090995
000010 28 e5 8b b9 a3 0c 9c 3b 98 8f e8 ba a2 ec 05 b9
       -0.0002668288 0.0047622486 -0.001774299 -0.00012772021
000020 ea 74 40 bb 47 2f 3b bb 21 30 1e 3c 61 56 4c ba
       -0.0029366561 -0.0028562115 0.0096550295 -0.0007794854
000030 2b 3d e0 3a 6b a6 00 ba 59 1e 34 bb 2a b5 a4 ba
       0.0017108073 -0.0004907611 -0.002748391 -0.0012566198
000040 fe e7 1a 3b d2 f3 46 3b 9e 87 a5 3b a7 ac f8 3a
       0.0023636813 0.003035773 0.005051567 0.0018972353
000050 c2 b0 ed ba 19 6a 06 bb 09 bc 84 3b 70 d3 46 3b
       -0.0018134343 -0.0020510016 0.004050736 0.003033843
000060 1a 98 47 ba 23 13 fb b9 88 c9 84 ba cc 9b f9 3b
       -0.00076139125 -0.0004788871 -0.0010130862 0.0076174494
000070 e8 f3 d9 3a a6 0e 56 3b e8 47 92 bb 3c ea d7 ba
       0.0016628476 0.003266254 -0.0044641383 -0.0016473006
000080 38 3a 3f b8 e0 1a 8a bb aa 10 61 3b 1b 85 af 3b
       -4.559217e-05 -0.0042146295 0.0034342208 0.0053564436
000090 d8 ba ab ba 4c 5f 39 bb 9b c5 eb 3b 7d fd ce ba
       -0.0013101948 -0.002828556 0.0071951873 -0.0015792098
0000a0 a5 0d 3f 3c 49 40 ed 3b 37 d4 ef 3b be 69 47 bb
       0.011660968 0.0072403294 0.007318999 -0.0030428017
0000b0 e6 be b6 3b 5b 1f 36 bb cc 61 a6 3b cc 73 c9 b9
       0.005576956 -0.0027789685 0.0050775763 -0.00038423983
0000c0 43 b7 23 bb 07 96 d4 3b 69 58 49 ba e3 13 92 3b
       -0.0024981059 0.006487611 -0.00076807156 0.004457937
0000d0 23 e8 06 ba f4 06 ef ba d1 e6 43 bb de ad 0f 3b
       -0.00051462854 -0.0018236325 -0.0029892216 0.0021923701
0000e0 db 49 18 3c df ca d3 3a f0 75 94 ba 95 3d b9 ba
       0.009294952 0.0016158483 -0.0011326652 -0.0014132733
0000f0 7f 52 91 b9 d6 09 c3 3b 49 2a 7b 3b ca 95 16 3c
       -0.0002771802 0.0059521003 0.0038324764 0.009190986
000100 04 1c 9e ba df 02 09 3c 42 79 93 3a 93 1a 0b bb
       -0.0012062793 0.008362501 0.0011251348 -0.0021225556
000110 1a a2 18 3a 92 2a 26 3b 41 5f bc 3b e2 46 cf 3b
       0.0005822495 0.0025354964 0.00574866 0.0063255886
000120 fe 5a 0d 3b df 6f c5 b9 e2 f0 34 bb bd 39 17 bb
       0.0021569128 -0.00037658119 -0.0027609398 -0.0023075186
000130 35 99 65 bb 41 ee 58 bb 9a a7 90 3b af ac 52 ba
       -0.0035033945 -0.0033100995 0.004414511 -0.0008036596
000140 9e 7d c5 b9 92 de 9e 3b f6 d3 62 3b 5b f4 63 ba
       -0.0003766836 0.00484831 0.0034611202 -0.00086957746
000150 77 64 5a bb 95 92 a6 3b b2 0b 82 3a 6a 0f fc 3b
       -0.0033324042 0.005083392 0.0009921698 0.007692267
000160 f1 b8 13 bb 93 3d 0e 3b 99 0c 5c 3b d4 02 c0 ba
       -0.0022540654 0.0021704182 0.0033576845 -0.001464928
000170 24 7d 84 bb 7e 02 db ba 69 19 32 ba 34 c0 9d ba
       -0.0040432382 -0.0016709117 -0.00067939475 -0.001203543
000180 e8 1a 1b bb 47 b4 43 ba 9a 33 7a bb 92 09 e5 b8
       -0.002366716 -0.0007465523 -0.003817773 -0.000109213535
000190 a8 1a d1 3a ad 14 37 bb 1f fa 7e bb 50 c2 6d bb
       0.0015953379 -0.0027935908 -0.0038906408 -0.003627915
0001a0 89 a7 8f 3b 53 8d c9 ba 4f a0 c9 3b c5 7b 14 3c
       0.0043839854 -0.0015377201 0.0061531435 0.009062712
0001b0 29 7a 0a bb 6e 8b 02 bb 03 b3 85 3a c3 91 ba b9
       -0.0021129942 -0.0019919532 0.0010200444 -0.00035585286
0001c0 70 0e 93 39 4f b5 21 bb 01 c1 1d 3c 91 05 10 bb
       0.00028048782 -0.0024674719 0.009628535 -0.0021975974
0001d0 e3 7b 3b 3b 05 e3 b3 3b 40 73 c4 3b 57 07 bf ba
       0.0028607778 0.0054897093 0.005995184 -0.0014574331
0001e0 b8 38 10 3a e8 11 59 37 f3 ad c4 3b 9e 24 d2 3a
       0.0005501616 1.2938377e-05 0.0060021817 0.0016032641
0001f0 65 40 46 bb 91 07 bf 3b 58 b5 46 bb df 12 b5 3b
       -0.0030250784 0.0058297594 -0.0030320492 0.0055259313
000200 4f 24 4a bb 9d cf f0 3b 29 a1 9a 3b d3 98 6e 3b
       -0.0030844396 0.007348968 0.004718919 0.0036407008
000210 f3 01 12 3c 7a 2b ff ba 67 1d 0d bb 06 3e e4 3b
       0.008911598 -0.0019467913 -0.0021532418 0.0069654016
000220 85 f2 9f ba ea 57 e3 ba 06 a6 f7 38 6e 64 c0 3b
       -0.0012203014 -0.0017344926 0.00011808802 0.005871347
000230 1c ec 1b bb 37 8b a7 3b 49 cd 10 3c 71 3e f3 3b
       -0.0023791855 0.0051130312 0.008838006 0.007423215
000240 4b 21 bf b9 19 5a 39 bb c3 a1 17 bb ef 33 0e bb
       -0.00036455164 -0.0028282462 -0.002313719 -0.0021698435
000250 1a 6d 0a 3c a9 09 a2 3b 45 ec 05 3c 72 8b 42 bb
       0.008448863 0.0049449992 0.008174007 -0.0029685167
000260 9f 2b 41 bb 54 96 fb 39 8d 70 21 bb c9 28 87 bb
       -0.0029475463 0.00047986454 -0.0024633736 -0.004124735
000270 29 b5 00 3c aa 45 99 3a bc 30 9f b9 0e 6e db 3b
       0.007855692 0.0011693735 -0.00030363153 0.006696469
000280 b7 1f 4e 3c 42 8c 2e bb 8a 5a 00 3b 2f a6 6b 3b
       0.012580804 -0.0026633893 0.0019585215 0.0035957207
000290 80 e5 2f 3c 42 9c d2 ba 77 e2 23 3c cc 50 91 39
       0.010735869 -0.0016068297 0.010002724 0.00027716754
0002a0 75 8d f3 ba 86 7d 7a 3b 9d 7a 8a 3a 58 03 ee ba
       -0.0018581586 0.003822179 0.0010565106 -0.0018158955
0002b0 50 5f 9c 3b d0 1a 29 3b 45 42 0c bb 6d a2 f2 3b
       0.0047721043 0.0025803335 -0.0021401804 0.0074046166
0002c0 a3 92 a5 3b 45 b8 1e bb 7b 63 87 bb 3e 44 f8 ba
       0.005052881 -0.002421872 -0.004131732 -0.0018941236
0002d0 94 c2 21 bb 16 39 ad b9 d9 4e aa 39 59 30 fb ba
       -0.0024682628 -0.00033039664 0.00032483673 -0.0019164189
0002e0 e5 a2 d5 3a 11 1c 8a bb f3 62 00 bb 41 bd c5 3b
       0.0016299157 -0.0042147716 -0.0019590228 0.0060345237
0002f0 97 d6 97 b8 a0 f1 c8 b7 78 98 d4 3b bf 8f f6 3b
       -7.2402116e-05 -2.3954373e-05 0.0064879023 0.00752446
000300 77 1d 81 bb 18 4f 92 bb f0 4d 95 b8 ca 49 00 3c
       -0.00394028 -0.004464995 -7.119391e-05 0.007830093
000310 71 60 ce 39 45 18 29 b8 3d 63 82 ba ff 01 62 3b
       0.00039363236 -4.0315343e-05 -0.0009947788 0.0034486053
000320 ad 36 4f 3b 4e c5 a5 3b bb 0f 45 39 6b 98 22 ba
       0.0031618283 0.005058921 0.00018793244 -0.00062025216
000330 bc c8 84 bb 50 3b 9e 3b 72 5d 07 3a 49 4f 55 bb
       -0.0040522497 0.004828848 0.0005163766 -0.0032548478
000340 1f 24 e5 ba 4a b5 73 bb 06 67 86 ba ff 26 4d bb
       -0.0017482078 -0.0037186914 -0.0010254092 -0.003130376
000350 85 0c 0c bb 56 3d 9f ba 60 e8 b3 3b 3c 1b 22 bb
       -0.0021369767 -0.0012149017 0.0054903477 -0.0024735471
000360 06 c7 96 bb d3 ce 55 bb 62 a4 03 bb b5 58 0c ba
       -0.004601362 -0.0032624498 -0.0020086993 -0.00053537945
000370 98 d6 9d 3b 3d 86 16 3c 8c 3f 0a 3c 53 49 5b 3b
       0.0048168413 0.009187278 0.008438002 0.0033460453
000380 45 a4 28 ba 89 12 45 bb f8 4c 03 3b c8 4f b3 3b
       -0.00064331695 -0.0030070862 0.002003489 0.005472157
000390 74 31 a3 3a a8 bd 1f 3b 39 fc 32 bb b5 3f 01 ba
       0.0012450651 0.0024374519 -0.002731098 -0.00049304526
0003a0 b0 22 f0 3b 71 88 6a bb e0 71 9e 3a 59 18 f2 3b
       0.007328354 -0.0035786892 0.0012088381 0.0073881564
0003b0 ab db 32 3b d2 b0 0f 3c ed 0c 96 3b 1c 19 f0 3b
       0.0027291577 0.008770185 0.0045791776 0.007327212
0003c0 40 3b 42 bb 22 ec 21 3b c5 32 da ba b3 81 ab 3b
       -0.0029637367 0.0024707397 -0.001664721 0.005233967
0003d0 ae b0 88 bb cc 6a 51 3c 3b df ca 3b 49 09 95 ba
       -0.0041714525 0.01278181 0.006191162 -0.0011370565
0003e0 23 66 81 3b 0d 6f 70 3b f8 fc 8b bb e2 00 aa 3b
       0.003948943 0.0036687285 -0.0042720996 0.0051880935
0003f0 00 27 a8 ba 1f 7b 14 3a f8 1f 12 bb 0c 38 e6 3b
       -0.0012829006 0.00056640984 -0.0022296887 0.0070257243

action_model._continuous_distribution.log_sigma f4 [1, 2]
000000 8b 0f c2 bb 9b 80 ee bb
       -0.005922263 -0.0072785146
