MLAgents Jumper Exercise/Assets/results/JumperAgent_2/JumperAgent.onnx (onnx, 89014 bytes, 9 tensors)

network_body._body_endoder.seq_layers.0.weight f4 [128, 26]
00000000: ff76 bdbd a78b 19bd f794 3c3e 598a 6f3e
00000010: f6db 343d aebe a73d 84e1 ec3d a28f 1c3e
00000020: 7b40 f6bc add0 6e3e 445e d43c 33f8 a23d
00000030: 0464 39be 052b 13bd 1768 ec3c c5c2 95be
00000040: 55e4 2b3c 1630 d13e cf97 29be 7fe1 e03c
00000050: 874f 683e 1737 31bd 1bdf a9bd 7174 5abd
00000060: 865f b03e cac1 8dbe b7c2 143e eaf7 033e
00000070: 1581 043d 7f6e 35be c54f ba3d 5d7b 433e
00000080: 6933 32bb f078 9a3d faa1 69bc d59f 5dbe
00000090: 43b9 a43e fd61 e6bc 8dcb 213e 54f3 b63e
000000a0: 6f48 b53e 2856 08be 9a4d 9d3e 9001 5dbe
000000b0: 6c8c f6bd be81 eb3d 0fd6 efbe 6c47 5ebd
000000c0: 7f64 cbbc 0cbe 8f3e 6ec4 773d 936c 9c3e
000000d0: 98ee d03d 07ab 4a3d beba d33d 44f1 c53c
000000e0: 4971 943e 3147 123e ed6f 4fbe 86b8 9d3d
000000f0: 439f 48bd 91e7 563d ce42 453e 56b2 c7bc
00000100: b60e 183e 6ac5 7fbe 3a6e 723e bbb3 9abc
00000110: 68ed 003e 7d93 3e3d 26ad 52be e9be d1bd
00000120: 6bb5 16be fae8 613e f1cd 093e e168 b43e
00000130: 81e7 9fbe 529d 323e f06d b2bd e938 263e
00000140: 56d3 3a3d a827 bc3c 55c0 9d3d 550a 1c3e
00000150: c25a 35be 7c44 a8be 24ef 4bbe ada9 4dbe
00000160: d184 a3be e1cd dcbe e170 bd3e ccd3 973b
00000170: 07f5 8fbd 8b0c 15bd 66a9 d43c b24a 76be
00000180: 8129 013e ca78 2c3e cf8b 1abe 1b1c 1dbe
00000190: d4cc aabe 6c5c f1bd 6104 e8bd 6815 e03d
000001a0: f61f 9e3c 6019 e7bd e546 933e 0f4a 3fbb
000001b0: d554 913d 630f 3ebe 7f43 9bbe 76a9 513e
000001c0: 458a 51bd f736 80be 8214 2f3e e2ef 223e
000001d0: c9d7 ebbd dfb1 9abb 4265 cebc d7cd ae3d
000001e0: 0e9b e1ba 094a 75bd 4218 483e 6a95 f93d
000001f0: 7c4d b73d 1df9 c2bd 68d2 6fbe d5e5 a33d
00000200: a46e b13e 659b 5c3e c1ef 65be 2f84 71bc
00000210: 6d0a 293e b641 773e 3171 67bd 841f 803e
00000220: 8486 10be 84a3 b33d d09e 523d 12b2 e5bd
00000230: 2f99 583d d1b3 c7be 9520 a53e b78a 8c3e
00000240: f631 d73c dc43 dabe a03e 993e 5d74 883d
00000250: 6fbd 4abd cd36 88bd a9e6 f63c d3c7 1abe
00000260: f77f efbc 27e9 35bd 4ceb b2bd 6ad7 2b3e
00000270: f675 943d e1b9 313e b5e2 bc3e 6e8a e2bd
00000280: 2b25 86bd ea9f 54be dc04 b13d 8f86 4e3e
00000290: 5d40 123e a158 ddbb 02ec 38be 3064 cf3b
000002a0: cd88 39be 6699 1cbe 4b96 bfbd 6a73 1bbc
000002b0: 1a00 6abe 1419 bd3e fefb 1ebc 15e7 bdbe
000002c0: becc 233e d201 59be bf27 96be 5466 b6be
000002d0: 14d3 00be 5c46 46bd 7f6b 0bbe af98 d6be
000002e0: 0175 d0bb 4102 cf3c 72af 323e 273c 31be
000002f0: 3a5f 7a3e ad42 b1bb a6eb ee3b b445 8c3d
00000300: 76a8 09bc 98e5 d53e 35de 0a3e 5bc2 92be
00000310: a2ee 303d c457 56bc 86e0 b23e d032 243e
00000320: 812a 7d3e 6241 e33d 998c 3c3e 8e82 fa3d
00000330: 8cfc b13e 6a1c 213e c328 933d 1c55 3a3d
00000340: 4892 84bd f1b6 6a3e 3643 0bbd 66d1 8dbe
00000350: a724 113e d7cd 3d3d 54cb a1bd f1b1 9bbe
00000360: e1e8 ca3e 2277 57be 109f 17bd 4b51 e3bd
00000370: 08c1 4a3e d2ca 88bd abba 673d 5e4a c7be
00000380: eafb cebc 6b68 08be b918 673e eb19 89bd
00000390: 4450 8c3b 2cef 213d 4639 a3bd 0f6a 8d3e
000003a0: 1453 8ebe 39c5 babe 97f3 393e d7a4 803d
000003b0: 69d0 8d3e 75e2 bf3d 5b1c bf3e 8688 c6bd
000003c0: 710d 863d 74ef 9cbc d5a0 d7bd 22a5 40bc
000003d0: 102f 533e 06c2 c9bd 47cb 1e3e c924 1f3e
000003e0: 3653 a53a f29f 9b3d b93c a8bb 6b81 70be
000003f0: a55c c4be 1dbe db3c c141 c9bd 6914 8d3e
-0.09251212 -0.0374867 0.184162 0.23392619 0.044155084 0.08190666 0.11566451 0.15289167
-0.030060044 0.23321791 0.025923856 0.079574965 -0.18104559 -0.0359297 0.028858228 -0.2925016
0.01049145 0.40857 -0.16561817 0.027451275 0.22686587 -0.04326543 -0.08294507 -0.053333703
0.3444788 -0.27686912 0.14527403 0.1288754 0.032349665 -0.17717932 0.09097246 0.19090028
-0.0027191287 0.07542598 -0.01425981 -0.21643002 0.32172593 -0.028122896 0.15800305 0.3573252
0.35406825 -0.13314116 0.30723268 -0.21582627 -0.12038502 0.11499356 -0.46843 -0.054267332
-0.024828194 0.28074682 0.060490064 0.30551586 0.10201758 0.04947951 0.103383526 0.024162896
0.2899268 0.1428497 -0.2025754 0.07701211 -0.04898001 0.052466933 0.19263765 -0.02437703
0.14849362 -0.24977651 0.2367486 -0.01888453 0.12590563 0.046527375 -0.20573863 -0.10241491
-0.14717643 0.2206153 0.13457467 0.35236266 -0.3123131 0.17442825 -0.08712375 0.16232647
0.045611702 0.022968128 0.077027 0.15238316 -0.17710403 -0.3286475 -0.19915444 -0.20084257
-0.31937268 -0.43125823 0.37000182 0.0046334025 -0.07029157 -0.036388915 0.025959682 -0.24051932
0.12613489 0.16842952 -0.15092395 -0.15342753 -0.33359396 -0.11785206 -0.1132896 0.10941583
0.01930235 -0.11284137 0.28765026 -0.002918843 0.070962586 -0.18560557 -0.30324933 0.204748
-0.051157255 -0.25041935 0.17097667 0.1591182 -0.11515767 -0.004720911 -0.025194768 0.085353546
-0.0017212348 -0.05988506 0.19540504 0.121867016 0.08950326 -0.09520171 -0.23420107 0.08002821
0.34654725 0.21543653 -0.2245474 -0.014740988 0.16507883 0.2414616 -0.056504432 0.25024045
-0.14113814 0.087714225 0.051420987 -0.11215605 0.052880462 -0.39004377 0.3225142 0.2744958
0.02626894 -0.42629898 0.29930592 0.066628195 -0.049497064 -0.066510774 0.030139284 -0.1511529
-0.029235823 -0.044411805 -0.087362856 0.16781393 0.07249062 0.17356063 0.36891714 -0.110615596
-0.06550058 -0.20764127 0.08643505 0.20168518 0.14282365 -0.00675495 -0.1805878 0.006329082
-0.18118592 -0.15292892 -0.09354838 -0.009487966 -0.22851601 0.36933196 -0.009703634 -0.37090364
0.15996072 -0.211921 -0.293272 -0.35624945 -0.1258052 -0.048406944 -0.13615225 -0.41913363
-0.006361604 0.02526963 0.1744974 -0.17308103 0.24450389 -0.0054095597 0.007291275 0.06849232
-0.008401981 0.4177673 0.13561328 -0.28663906 0.043196328 -0.013082448 0.34936923 0.16035008
0.24723245 0.11096455 0.18413009 0.122319326 0.3476299 0.15733495 0.07185509 0.045491323
-0.064732134 0.22921349 -0.033999644 -0.2769882 0.14174138 0.046338882 -0.0790011 -0.30409196
0.39630798 -0.2104154 -0.03701693 -0.1109949 0.19800198 -0.0667931 0.056574505 -0.38923925
-0.025266606 -0.13321082 0.22568025 -0.066943966 0.0042820293 0.039534733 -0.079699084 0.2761998
-0.2779776 -0.36478594 0.18159328 0.06281441 0.27698067 0.09369365 0.3732632 -0.096940085
0.065455325 -0.019157149 -0.10528723 -0.011758121 0.20623422 -0.0985146 0.15507232 0.15541376
0.00126133 0.075988665 -0.005134192 -0.23486869 -0.38351932 0.026824052 -0.09826995 0.27554634

network_body._body_endoder.seq_layers.0.bias f4 [128]
00000000: 8997 f6ba c0e9 353b 0087 1e3b a4d5 5a3d
00000010: 1ff3 e53a 52e6 823c e7d7 d53b 76bf 1bbb
00000020: c130 793c 1428 253b 0081 18ba 427d 9b3b
00000030: 484d fb3a d91c de3b 53f0 373a 2687 82bc
00000040: 7565 623b ae1a 0a3d 9890 3bbc 6634 c939
00000050: 6ebf 9eba 8927 99b9 7d44 053c cc39 6a3c
00000060: 3ee0 6a3c f183 0dbb af5a 813c 519d 98bb
00000070: 1dd7 c6bb 9ab0 8c3a 30ac 04bc 4444 2cbb
00000080: e9b0 53ba 9768 4cbb 2199 993c ea61 adb9
00000090: febb c13c a1f8 e93a 5c0f a7bd 56e6 4c39
000000a0: ac17 5f3b f144 44bc 7b16 59b9 b52d 2f3d
000000b0: 5750 f33c c7e2 263c 98e7 05bc a117 2438
000000c0: 68c6 aa3c 163d b43a 355c c6b9 7243 4c3b
000000d0: e35b eb3a b425 f23b 8104 153c 27fe 413c
000000e0: 553f 0e3d bdc0 56bc 1f39 cc3c 098c 1f3d
000000f0: c4d9 d83a 6b51 3c3b 1854 833b b80a 4bba
00000100: 5c3d 123c 254e 6ebb cf1c 43bc 5420 303c
00000110: 0cad b7b9 ad77 513c 7e4e 31bb 9883 47bb
00000120: 0dfe 22bc 20eb 5ebb 4393 fabc cbb0 e2b9
00000130: 63b0 84bb 4cde 0b3c d945 0f3b f4dc 343b
00000140: 43be 04bb 24e5 033c 4178 69bc 30b1 413d
00000150: 8c93 ef3a 8c57 973b e323 28bb d0c6 25bd
00000160: ae80 433c 0a2f d0ba a306 edba 13dd 483a
00000170: 6e9b cebb 03f8 103c 0bf9 72bb 5083 2dbc
00000180: 84cb 643c 3bad 003b bffa f43c 6663 a9bb
00000190: 851a 2a3c 26bd c43c 23d2 0b3d e454 623b
000001a0: 5e62 a73a 967e ab3a 565c 233c 75c2 723c
000001b0: d347 b73c 9b41 dc3b 8699 723c e7f4 df3b
000001c0: 296f 16bb fdc0 783d f592 c03a 8793 13bc
000001d0: c3ac 013b 5b07 af3b 8d2c 9e3c 7036 cd3a
000001e0: 06c8 b7bb 2b78 9c3b 0310 dc3c da94 b03c
000001f0: 7d85 0a3b 9515 fd3b 2461 e5bc 4528 e13c
-0.0018813472 0.0027757734 0.0024189353 0.0534264 0.0017543769 0.015978966 0.0065259817 -0.0023765243
0.015209378 0.002520089 -0.00058175623 0.0047451565 0.0019172812 0.0067783413 0.0007016707 -0.015933584
0.0034545336 0.03371685 -0.011448048 0.00038376747 -0.0012111494 -0.0002921189 0.008134005 0.014296006
0.01433569 -0.0021593536 0.015790312 -0.0046574255 -0.006068124 0.0010733784 -0.008097693 -0.0026285807
-0.0008075373 -0.003119027 0.018749775 -0.00033070083 0.023649212 0.0017850586 -0.081572264 0.00019540763
0.003404121 -0.011979328 -0.00020703107 0.0427682 0.029701395 0.010185904 -0.008172892 3.9122653e-05
0.02084656 0.0013751115 -0.00037834203 0.003116813 0.0017956462 0.0073897485 0.009095312 0.01184038
0.034728367 -0.013107476 0.024929581 0.038951907 0.0016544391 0.0028735052 0.0040078275 -0.00077454327
0.008925762 -0.0036362496 -0.011908724 0.010749895 -0.0003503341 0.012784881 -0.0027054842 -0.0030443426
-0.009948266 -0.0034014657 -0.030587798 -0.000432378 -0.0040493472 0.008536886 0.00218617 0.0027597519
-0.0020255006 0.008050237 -0.014249862 0.04728812 0.0018278225 0.0046185907 -0.0025656156 -0.040472806
0.011932535 -0.0015883159 -0.0018083643 0.0007662337 -0.0063051498 0.008848193 -0.003707471 -0.010590389
0.0139645375 0.0019634503 0.029904721 -0.00516932 0.010382299 0.024015974 0.03413595 0.0034535462
0.0012770405 0.001308399 0.009970745 0.01481687 0.022373116 0.006721688 0.014807111 0.0068346146
-0.002295444 0.060730923 0.0014692234 -0.009007341 0.0019786812 0.005341453 0.019308353 0.0015656482
-0.0056085614 0.0047750673 0.026863104 0.021555353 0.0021136694 0.00772352 -0.028000422 0.027485022

network_body._body_endoder.seq_layers.2.weight f4 [128, 128]
00000000: a061 93bd 6be7 7abe 4163 b3bc 2d41 29bd
00000010: e2e2 cebd 58d0 99bd 89f3 853c d1ab 8b3c
00000020: e1c8 c33d 2ea5 a83d 71f0 7b3c a769 bbbd
00000030: 9e33 05be 6369 aebd cf8e d2bd 4e4d c7bc
00000040: 772b 943d 360b f9bd 3fa5 4bbc c2b8 963c
00000050: a549 0dbd 12da 82bc 41fb 093e b202 65bd
00000060: 0ccc c73d f110 5b3d efd7 e3bd a8c8 9d3d
00000070: e7a8 1b3e 11b4 bebd f2ec 0ebe 1f6a b1bc
00000080: f15d a5bc c381 8f3d b886 233e b3e6 293a
00000090: 6f42 8cbd 2644 fd3c 5861 a9bd afd6 dcbd
000000a0: 3551 f13d e714 22bd 3dee 473d 3ab5 213d
000000b0: dca6 a13c 2e57 f3bd 7e85 0e3e fff0 593d
000000c0: a817 ccbd 1d4b 3c3d 5d85 fd3c ab45 ecbd
000000d0: 6fbf 183b c734 b4bd c20c 913d 46e1 ddbd
000000e0: 28b5 c53b 5001 a13d 1f2c 4e3d 1eda ac3b
000000f0: c010 f23c 5283 37bb b8b2 cd3c 5b0b 133e
00000100: 82ab 0fbe a492 123e 28cc a93d a21f 09be
00000110: 5874 bfbd 1862 28bc 004a 913d 8899 193d
00000120: f287 cc3c 7395 2dbd e3a3 1b3e 8998 92bc
00000130: d2de eebc 879b 1e3b 5d6a c73b 490b ffbd
00000140: f692 0c3e ec6b 6b3d d90c 1b3d d427 e63b
00000150: 2137 4ebd a76e 7dbd 4dc4 debc ad27 573d
00000160: 67a9 88bd dd9b 163e 3a81 e5bb 0d3b 03bc
00000170: 0aa0 c43d da50 a63d 4c0a 2a3e 8ac2 093e
00000180: 159a adbc d504 c2bc 8b47 093e db68 8cbd
00000190: 8d39 723d 1163 aa3d 900f de3d 48e3 f73c
000001a0: 4368 473e be51 09be 7252 f0bd 91e8 82bc
000001b0: 0e9b 4ebe 9d58 dc3d 98ad 5d3d 0d2e b23d
000001c0: 6b1b a6bd 738a 10be 6266 99bd e2d3 e0bc
000001d0: 07fd f83d a5d6 b13d 8d6c 09be 0dc9 4a3d
000001e0: 4f16 97bb ae74 3fbd 8239 c53d 757b b8bc
000001f0: 38c9 8bbb 9263 41be cffc dd3b 67a5 22be
00000200: 0b3e f63c 11b5 afbc 04de 0c3b 63b8 ffbc
00000210: aef2 163d f489 cc3d fdba e03c c47d cfbd
00000220: 47d4 2fbe 1224 6cbd bdb7 0fbe 5541 f23a
00000230: 4d6e a5bc b1a1 e23d 0d65 483c 4797 90bb
00000240: 3060 06bd ff59 33bd 565b 1a3a 0d0a ed3d
00000250: cb01 65bd 969c c53d 95bc 61bd cba7 14bb
00000260: acd7 ea3d 397f 353e 8235 a93d e5a1 aa3c
00000270: 233a 4339 aea5 02bd 4191 bc3c f985 3a3c
00000280: 71e8 c73c 4b7e a43c f4c1 d9bd 8627 b4bd
00000290: a01a 0f3c 1986 423d 46fb d7bd 8fb2 023e
000002a0: 3790 cbbd 39a5 5d3c 8def 5fbd 0070 6bbd
000002b0: 90de 223d bf2a b1bb 4aac 54bd a6f3 1dbe
000002c0: ba33 f1bb eee1 ee3c a524 123d 3bc9 613d
000002d0: 2805 d03d cdef efbc 4179 533d f10b 10bd
000002e0: 8a0d 03bd 7b8d 4cbd ff87 bcbd f7f9 243e
000002f0: ad55 e7bc b26e ddbd 6ca4 3d3e f359 2b3d
00000300: d8e4 c5bd e215 a5bd 1588 edbd 3ed0 863d
00000310: df28 4b3e a41b cfbd a440 3c3d 4802 ea3d
00000320: 5c9f 04bd b44b 17bd 1c5a a4bc 448a 9c3c
00000330: d587 abbd c1b0 1b3d 199b 65be 439d cabd
00000340: 886f 6d3b 6a8e c33c 5fc0 06bd 8d72 8abc
00000350: 3432 bc3c 8c1f 64bd fc6b a83b 7e94 05be
00000360: bf0e 203e 74f0 283e aed7 623c ee95 2a3e
00000370: 0f68 01be 83d2 a8bd 461d 81bc ded0 cebd
00000380: 6038 d03c 7230 bdbc 9efd 483e 9c18 74be
00000390: f8c3 c2bc a962 46bd 4b39 a73b fe84 8cbc
000003a0: f2c9 003e a2d3 c6bd 5ea4 123e d636 bcbc
000003b0: b97d 5a3b d24c aebd a1d1 1d3e b63f a9bd
000003c0: 0b09 a03d c822 783d ced7 35be 95a5 16be
000003d0: e542 b7bb aa23 b7bc ef46 0ebc 8a64 92bc
000003e0: 2442 ecbd 0d91 dabc 05ab 53bd 5dca bf3c
000003f0: 5303 c4bd 1306 07be 7e97 c7ba d569 cabd
-0.07196355 -0.24502341 -0.021897914 -0.041321922 -0.10101868 -0.075104415 0.016351478 0.017049702
0.09559799 0.082346305 0.01537715 -0.09151011 -0.13007972 -0.08516195 -0.10281145 -0.024328854
0.07234853 -0.121603414 -0.012429534 0.018398646 -0.03449406 -0.015973125 0.13474752 -0.055910774
0.09755716 0.053482953 -0.111251704 0.07704288 0.1520115 -0.09311689 -0.13957575 -0.021657048
-0.020186396 0.07007172 0.1596936 0.0006481215 -0.06848609 0.030916285 -0.0827052 -0.10783135
0.11783067 -0.039570715 0.048811186 0.03947947 0.019732885 -0.118818626 0.1391811 0.053208347
-0.099654496 0.04597007 0.030947382 -0.115367256 0.0023307463 -0.08799129 0.070825115 -0.10833983
0.0060335584 0.078615785 0.050335046 0.005275025 0.029549003 -0.0028001857 0.025109634 0.143598
-0.14030269 0.14313751 0.08290893 -0.13390973 -0.09348363 -0.010277294 0.070941925 0.037499934
0.024967168 -0.042378854 0.15199237 -0.017895 -0.029158983 0.0024201588 0.0060856775 -0.12453324
0.13727936 0.05747597 0.03785405 0.007023791 -0.050345544 -0.061873104 -0.027193213 0.052528072
-0.06672936 0.14707895 -0.0070039304 -0.008009684 0.096008375 0.0812089 0.1660549 0.13453117
-0.021191636 -0.023683945 0.13406198 -0.06855937 0.059136916 0.08319677 0.10842812 0.030259743
0.19473366 -0.13410088 -0.11734475 -0.015980037 -0.20176336 0.10759089 0.05412063 0.0870019
-0.08110698 -0.14115314 -0.07490231 -0.027444784 0.12157636 0.08683518 -0.13420315 0.049508143
-0.0046108137 -0.046742134 0.09630109 -0.022519806 -0.0042659305 -0.1888564 0.006774522 -0.15883408
0.030058881 -0.021448644 0.0021494636 -0.031215852 0.03685253 0.0998725 0.027432913 -0.1013141
-0.17170821 -0.057651587 -0.14034934 0.0018482605 -0.020194197 0.110659964 0.012231124 -0.004412565
-0.032806575 -0.043787 0.0005888244 0.11574183 -0.055909913 0.09649007 -0.055111486 -0.002268302
0.114669174 0.17724313 0.08262159 0.02082915 0.00018618307 -0.031896286 0.023018481 0.011384481
0.024402829 0.020079752 -0.10632697 -0.08796601 0.008734375 0.047491167 -0.105459735 0.12763427
-0.09939616 0.013528162 -0.054671813 -0.05747986 0.039763033 -0.005406707 -0.05192212 -0.15424976
-0.0073609026 0.029160466 0.03567948 0.05512355 0.101572335 -0.02928915 0.05162931 -0.03516764
-0.031995334 -0.049939614 -0.09205627 0.16110979 -0.028239096 -0.10812129 0.18519753 0.04183383
-0.09662789 -0.080608144 -0.11598221 0.06582688 0.1983981 -0.10112694 0.045960084 0.11426216
-0.03237854 -0.03693743 -0.020062499 0.019108899 -0.08375517 0.038010363 -0.22422446 -0.098932765
0.0036229808 0.02387162 -0.032898303 -0.016900325 0.022973157 -0.055694148 0.005139826 -0.13044927
0.15630625 0.16497976 0.013845367 0.16658756 -0.12637351 -0.08243277 -0.015761029 -0.10098432
0.025417507 -0.02309439 0.19627997 -0.23837513 -0.023775086 -0.048433933 0.0051032654 -0.01715326
0.12577036 -0.097083345 0.14320514 -0.022975367 0.0033339097 -0.08510746 0.15411998 -0.08264105
0.07814225 0.060580045 -0.17758104 -0.14711602 -0.0055926912 -0.022355873 -0.008683904 -0.017870206
-0.11536053 -0.026680494 -0.05167677 0.023411924 -0.095709465 -0.13185911 -0.0015227643 -0.09883467

network_body._body_endoder.seq_layers.2.bias f4 [128]
00000000: affe 0dbc 5e7c fc3b 37d6 6d3c 35b9 b0bb
00000010: 269c 703b 1d2c 973c 5c6a 4cba f39b 27bc
00000020: b1c2 0abb 631c b5bb b58d ef3a ca7d e2bc
00000030: 4e25 12bc adba 8eba 073f ec3c adc0 713d
00000040: 6573 533b 0911 a73c 4879 5839 b9f8 44ba
00000050: ab7a eabb 4356 2cbc 8561 2bbc 52ff 4b3c
00000060: 49be 9cbb 6819 dc3c 6016 893b 826c 5ebb
00000070: 2715 23bb 4e27 d8bb 3d05 253c 55f0 8abb
00000080: 8c29 cfbb 4a37 86bb d443 31bc 75ca e83b
00000090: 6af5 0b3d 19c2 4abb d8ea 423b 6cd7 bebc
000000a0: e7ca 663b f557 333c c0ab 92bb 1e06 8c3c
000000b0: e33f 813c ccce 4ebc 19c7 21bc 01b5 ccbb
000000c0: b8db 38bc 7d2c 533c aad1 e73b 2681 8a3c
000000d0: 8508 523a b5ca 603c 65ce f13b 7727 213c
000000e0: a432 db3b 3872 b03b db9f 2d3c cc13 fbbb
000000f0: 478e 3f3b 77b3 8a3b ef45 dcbb aeb7 1abb
00000100: a6bd 243b 3386 32bb 8bd9 253c 7520 37bb
00000110: f3a9 8b3c c43b f2bb 959b a3bb ab34 ea3c
00000120: d991 b3ba 957c 6f3b 3270 943b d74b eabb
00000130: dcdd b13b d82d 2b3c 816e 3eba e25a 903c
00000140: 1a89 5e3c 693a b9bb b941 833a 41a1 4abb
00000150: 43e5 a4bb faae 0dbb e807 983b d88d 48bc
00000160: 3eff aebb 4f5f 89ba 7baf 0fbb 0d5d ca3a
00000170: 9294 9a3c 79dc e23a 51cb e43a 1449 4a3b
00000180: cb0c 733b 0fd4 f03b 9bf8 e63a 8fd3 9c3c
00000190: d8e6 883c d0f4 de3a a333 2f3a 080d 663c
000001a0: e801 c73b 83a9 a43c d220 413b 5493 80b9
000001b0: 5505 b6bb fbb3 e0bb a451 85bb c99d 60bc
000001c0: bb12 d0bb dfe1 e93a f135 3fbc 4b38 1a3c
000001d0: 61d1 5d3b 1fe5 c73b 4b5b 89ba 793d d6ba
000001e0: d1e3 26bc ead9 d4bb a492 7e3c f7eb 25bc
000001f0: 78a9 593a be3f edbb 60bb c93b d510 52bb
-0.008666678 0.0077052554 0.014516405 -0.005393172 0.0036714165 0.018453652 -0.0007797831 -0.010230052
-0.0021173174 -0.0055270656 0.0018276485 -0.027647872 -0.008920027 -0.0010889374 0.028838648 0.05902164
0.0032264825 0.020393865 0.00020644546 -0.0007513869 -0.0071557364 -0.010518613 -0.010460262 0.01245101
-0.004783426 0.026867583 0.0041835755 -0.0033939187 -0.0024884434 -0.0065964824 0.01007205 -0.0042400756
-0.0063220914 -0.0040959464 -0.010819394 0.007104213 0.034169592 -0.0030938445 0.0029742029 -0.02329608
0.0035216154 0.010946264 -0.0044760406 0.01709276 0.015777534 -0.012622546 -0.009874129 -0.0062471633
-0.011282854 0.012889025 0.0070745545 0.016907286 0.0008012134 0.013720204 0.0073793405 0.009836069
0.0066893864 0.0053847097 0.010597195 -0.007662272 0.002922909 0.0042328197 -0.006722204 -0.0023608017
0.0025137453 -0.0027240633 0.010122667 -0.002794293 0.017048812 -0.0073923785 -0.004992912 0.028589567
-0.0013700082 0.0036542763 0.0045299763 -0.007150154 0.005428059 0.010447942 -0.0007264391 0.017621461
0.013582492 -0.005652715 0.0010014094 -0.0030918869 -0.005032213 -0.0021619187 0.0046396144 -0.012240849
-0.005340486 -0.0010480675 -0.0021924663 0.0015439108 0.018869672 0.0017308138 0.0017455613 0.0030866312
0.0037086483 0.007349498 0.0017621698 0.019143848 0.016711637 0.0017010216 0.00066834147 0.014041193
0.0060732253 0.02010036 0.0029469025 -0.0002452383 -0.005554835 -0.006857393 -0.00406857 -0.013709494
-0.006349889 0.0017843804 -0.0116705755 0.009412835 0.0033846723 0.0061003114 -0.0010479478 -0.0016345225
-0.010186152 -0.006495704 0.015537892 -0.010127059 0.0008303146 -0.0072402647 0.00615637 -0.003205349

action_model._continuous_distribution.log_sigma f4 [1, 2]
00000000: e3b3 1bbc 923f 67bb
-0.009503338 -0.0035285694

action_model._continuous_distribution.mu.weight f4 [2, 128]
00000000: 3b3d 673b 0e2b 12bd 4a51 87bc 6ece cf3b
00000010: e721 b33c 1d61 81bc 48b9 843c 2875 e5bb
00000020: 06a4 0bbd f222 553c c67a 293d 93d3 89bc
00000030: 5848 7d3a 43a3 92bc a7bf 443c 808f c4ba
00000040: ec08 a53c 83be f93c 8a26 7fbc d28f 9ebc
00000050: c0fc 18bb 58cb de3b 37e1 f33b 9d53 1a3a
00000060: 8542 583c a809 293c 2cc3 4fbc 83c7 e93a
00000070: 8f76 33bc fb48 a6bb d01e 41bc 33a6 353c
00000080: 81a2 acbc 859b d8bc 04d7 07bd 09be 46bb
00000090: db18 b3ba 11ce f8bc dd30 353b e231 5bbb
000000a0: 41d6 3c3c e881 bcbb 41b2 d2bb a06c afbb
000000b0: 7a01 1f3c c473 2fbc 9ffc cdbc 8532 143c
000000c0: 3f54 d7bc 1ccc 6fbc 3425 e73b d63b 813b
000000d0: 3941 153d 8890 453c c4b5 98bc 3137 9bbc
000000e0: 9e15 513a 6613 713c f885 8fbc 1141 d5bb
000000f0: 6e0b 12bd 6611 433c aeb5 883b 0ca9 843a
00000100: ae83 5d3b 7d0a e33c 2bcf c1bc 4905 51bc
00000110: baf0 13bd 23cf 00bc e14d 3cbc fc7b a6bc
00000120: 6af6 53bd 36a0 50bd 7425 25bb 55ad b83c
00000130: 4b41 1ebd 8998 f83c 996b 7bbc 29ad 5f3c
00000140: e17b 9a3c 9dce c0bc 0dbc fcbc a286 d3bb
00000150: 95eb fbbb c323 783b 8727 1e3c ddb8 3d3c
00000160: cfa4 b93b 1c27 863c 4e63 b0ba 638a c43c
00000170: 3ad9 143c 2ee0 29bc 58e4 afbc aeee 39bd
00000180: 7fa3 713c f27a f5bb d1ec 663c 34c0 9d3c
00000190: 9476 c8bc 5cda c03c 0101 4f3c 801c 6a3c
000001a0: 8d74 31bb ac9a b43b 7c9e f23c 9d81 06bc
000001b0: dc29 1b3c 186a 9abb 2a74 5d3c 368c 3b3c
000001c0: c899 e9bc d941 983c e193 06bd a186 1eba
000001d0: 34ba 25bc 9d0a 12bd 96b4 e7bc eaaf ad3c
000001e0: 462e 84bc 74b8 b8bc 0337 b63c 88af 273b
000001f0: f432 fabc a2a0 55bc 7b5f 06bd 091d 24bc
00000200: 0f0c 973c 0ed6 7cbb 6847 923c 7d94 c13c
00000210: 4087 adbc 59cd 423b 19af 883b e444 813b
00000220: c743 ee3b cdd0 25bb ba85 ddbc de7a 9cbb
00000230: e45b 4a3a 64cb a4bc c138 583c ea64 35ba
00000240: 68a7 f9bb 5488 1d3c c070 dabb 3a2b 0a3d
00000250: 0c6d 993b e937 f5bb b9fc 293b 1d33 453b
00000260: 9700 233c 1a21 943b 7cf0 293c 915f 633c
00000270: c6cd 843c 9b33 cbbb 3813 17bc c622 81bb
00000280: 3f0e 6dbc adea 923c 9d21 8dbb 2d9f bcbc
00000290: d4da 303b 543a e83b 7ffe 81bc be43 983a
000002a0: 65aa a2bb 5a60 3bbb 5422 11bb 3a3d 71bc
000002b0: ecd2 7fbc d3c0 2cbc d50e c73c 43cb 193c
000002c0: f3ba 98bc 85a0 f33a 134e 80bc ecce 503c
000002d0: 0ffb 6b3c da6d 0f3d 88b3 3cbc 7cf2 193d
000002e0: 487b e73c 7b7e c63c 2b95 6b3c b190 f43c
000002f0: 1324 e03c b726 fdbc 19a6 e53b 250e 8c3c
00000300: 1273 c53b 5706 9f3c be2b 0f3c ad47 26bd
00000310: b99e 50bc 57f7 483c 2a95 373d 0503 57bb
00000320: 4691 10bc 4cdb 84bc f93a b1bc 345e 3e3a
00000330: 19dc 343b f02b c33b 5e83 cdbb 9100 21bb
00000340: ea92 70bc 6a45 66bb eaca 793b 9251 1c3d
00000350: 5c56 083d 1884 653c da42 d23c 1259 04bd
00000360: f4f4 9abc 6270 f13b aced 74bb afb8 103c
00000370: e5ae bbba f9f3 36bb 2eb1 9abc 0f7b 92bc
00000380: d419 3ebc 5331 cdbb cb03 d0bc d84e 863c
00000390: b846 e63c 4dc2 923c ec9e ff3c 04b0 efba
000003a0: 7c5b 1fbc 4767 4bbb b27e a5bb 9c65 a6bc
000003b0: 6880 a53c cf7c 8b3b 63a2 00bb d901 1d3b
000003c0: e6e9 8a3b ed32 32bc 9e1e a13b 719f 1c3d
000003d0: 9981 96bc 736e c83b 6fb6 6cbc dfb5 cfbc
000003e0: d5d1 2a3b 5619 03bc db2c c23c 3a5c 37bb
000003f0: 711d 0b3c 60a9 27bc a23b 613b 8822 913c
0.00352843 -0.03568559 -0.016518254 0.006341747 0.021866752 -0.015793378 0.01620163 -0.0070024915
-0.03409197 0.01300882 0.04137685 -0.01682452 0.0009661964 -0.017900115 0.012008584 -0.001499638
0.020145856 0.03048635 -0.015573153 -0.019355688 -0.002334401 0.006799143 0.007442619 0.0005887093
0.013199453 0.010317244 -0.01268081 0.0017835948 -0.01095356 -0.005074618 -0.011787131 0.011086988
-0.021073582 -0.026441345 -0.03316404 -0.0030325672 -0.0013664024 -0.030371698 0.0027647533 -0.003344648
0.0115256915 -0.0057527907 -0.006429941 -0.0053535253 0.009704942 -0.010708753 -0.025144873 0.009045248
-0.026285289 -0.014636066 0.0070539955 0.0039439006 0.036439154 0.012058385 -0.01864136 -0.018947216
0.00079759385 0.014714098 -0.017519936 -0.0065080007 -0.03565543 0.011906004 0.0041720485 0.0010121181
0.003380041 0.027714962 -0.023658356 -0.012757608 -0.036118247 -0.007861885 -0.011493177 -0.020322792
-0.05174867 -0.05093404 -0.0025199326 0.022543589 -0.038636487 0.030346172 -0.0153454775 0.013652124
0.018857898 -0.02353602 -0.030851388 -0.0064552585 -0.0076879957 0.0037863113 0.009652979 0.011579719
0.0056653987 0.01637607 -0.001345733 0.02399177 0.009084994 -0.01036839 -0.021471187 -0.04539364
0.014748453 -0.007491463 0.014094547 0.019256689 -0.024470605 0.023541622 0.012634517 0.0142890215
-0.0027077526 0.0055116024 0.029616587 -0.008209613 0.009470429 -0.0047123544 0.013516465 0.011447003
-0.028515711 0.018586086 -0.032855872 -0.0006047283 -0.010115195 -0.035654653 -0.028284352 0.021202046
-0.016135346 -0.022548892 0.022243029 0.0025586803 -0.030541874 -0.013038786 -0.0328059 -0.010016688
0.018438367 -0.0038579735 0.017856315 0.023630375 -0.021182656 0.0029724448 0.004171264 0.00394498
0.0072712633 -0.0025301457 -0.027041305 -0.004775389 0.0007719381 -0.020116515 0.013197125 -0.00069196394
-0.0076188333 0.009615023 -0.006666273 0.03373263 0.004682189 -0.0074834717 0.0025937988 0.003009028
0.009948871 0.0045205476 0.010372277 0.013877765 0.016211402 -0.00620122 -0.009220891 -0.003940913
-0.014468729 0.017934168 -0.0043069855 -0.02302512 0.00269859 0.0070870314 -0.015868424 0.0011616868
-0.0049641603 -0.0028591366 -0.0022145705 -0.01472407 -0.015614253 -0.01054402 0.024299065 0.00938684
-0.018643832 0.0018587267 -0.015662229 0.0127446465 0.014403119 0.035016872 -0.011517413 0.037584767
0.028257027 0.024230232 0.014378826 0.02985415 0.027360952 -0.03090225 0.007008326 0.017096588
0.0060256803 0.019412203 0.008738456 -0.0405957 -0.012733155 0.012266002 0.04481999 -0.0032808196
-0.008823698 -0.01621785 -0.021634566 0.0007261962 0.0027597009 0.0059561655 -0.0062717637 -0.0024566988
-0.014683465 -0.003513659 0.003811533 0.03816373 0.033285484 0.014008544 0.025666643 -0.032311507
-0.01891563 0.0073681334 -0.0037373109 0.0088330945 -0.001431909 -0.0027916415 -0.018883314 -0.017880945
-0.011602838 -0.0062619834 -0.025392434 0.016395018 0.028109893 0.017914915 0.03120371 -0.001828671
-0.009726401 -0.00310369 -0.0050505036 -0.020312123 0.02020283 0.0042568217 -0.001962804 0.00239574
0.0042393086 -0.010876399 0.00491698 0.038237993 -0.018372344 0.006116682 -0.014447792 -0.025355278
0.002606501 -0.008001646 0.02370303 -0.0027978555 0.008490906 -0.010233253 0.003436782 0.017716661

action_model._continuous_distribution.mu.bias f4 [2]
00000000: f0b6 f43a afb0 04b9
0.0018670242 -0.00012654321

action_model._discrete_distribution.branches.0.weight f4 [2, 128]
00000000: b4d8 e03c 07ef 22bc 3fa9 59bc e22d eb3c
00000010: 40bb 98bc 02bd 39bd 0937 513a dea8 a73b
00000020: 1b05 a9bb 53a2 533c 3052 f43b 5d89 e93c
00000030: 3500 353d dabf 7b3c f4c4 42bc 6a2d 95b9
00000040: dc52 b43b e7b0 e3bc 5ded 65ba 2bff d03b
00000050: bb4c 423c a058 0a3c 8ebd 213d ca08 60bc
00000060: 3a9e 913b db3e 63bd 0820 1dbc 5515 833b
00000070: a542 d53b 67ea c83c 8a9b 85bb a8be b6b9
00000080: 857f 2e3c fd38 f93a 1537 4f3c 9f13 6fbc
00000090: b79c 64bc 1c53 ad3b 4ea2 c9ba 0f53 4e3d
000000a0: 96df 00bc 8d1f 07bd 5dee 073c daed 7ebb
000000b0: 673c e6bc ca29 3b3b 1431 813d 3958 e83c
000000c0: 2347 513d b32d 3cbd 6bcf 64bc baa7 e0b9
000000d0: 7430 c23b 2807 d1bc 6e16 a5bc 3fba 1cbc
000000e0: ae9f 10bd 7dd8 13bc 3252 19bd 2631 6e3c
000000f0: 6387 15bc 8694 2abc ab4a 2d3d d003 a63c
00000100: 88f6 99bb d12a c33b dca0 24bd 5941 993c
00000110: 7822 7abc 0795 d53c caac 7d3d 0941 84bc
00000120: 33b1 ec3a 0809 13ba 99aa e5bb e082 3a3d
00000130: 71de 2ebc 20bb 02bd 7517 bf3b 1b16 97bc
00000140: e705 a1bc e4b1 5f3c a69b 80bb c8f0 4c3c
00000150: d505 2c3d 8b23 aaba f724 9cba 39e1 953a
00000160: 2fa7 9d3c 1b9e 813c 5f81 52b9 606a 33bc
00000170: 3c40 d2bc 54da 06b9 f0cb efbc a14b e1bb
00000180: 3df6 ccbb 9232 83bc 01a1 98bb 25d5 59bc
00000190: 48fc 2fbd 8ada 3bbb 6363 413c af30 d0bc
000001a0: 5335 95bc 11e7 46bc a243 80bc bb4d b339
000001b0: 488f 463d 9180 fdbb d801 633c ec3e dc3b
000001c0: 1632 4f3c 115e 7cba bc63 d53b abc4 6ebc
000001d0: 4211 79bc f924 33bc bc7e 29bb 1b54 05bb
000001e0: c1ab 0b3d 0fde b43c 6375 63bd cb79 0e3c
000001f0: afbb 13bc 3136 dc3c 54c4 e0bc 4bd1 13bc
00000200: d8a9 b5bc 14d0 8d3c bc0f 963c d337 8bbc
00000210: 1528 f63b 0c6b 3f3d 5426 37bb 1c85 08bc
00000220: 3c2b e83b 7724 a5bc 7847 b5bb 5a77 debc
00000230: bb17 49bd 6e90 42bb b32b 8a3c 67d3 be3c
00000240: be3f 5f3c 94e9 503c e915 073c 0c20 2c3c
00000250: 8c19 42bc 58d3 76bc 4070 16bd 3b5b 0e3b
00000260: 7021 63bb 0033 3f3d d7cd 013c 50ac a9bc
00000270: 1755 193c b93c 63bc 0e6d 7a3c c96c 153b
00000280: 4b5d f4bb 4077 16bc dd52 d2bb eadd 8d3c
00000290: 74dc 7e3a 9938 61bc 32a5 e93a 2191 00bd
000002a0: 9222 8a3a 9468 d93c 6fd6 b8bc 7eda 8c3c
000002b0: 893a 0d3d ecba 04bb 4be3 79bd 3c0d 0abd
000002c0: 8b51 61bd ced0 c53c 64c7 113c 59d2 a13c
000002d0: 0005 853b 2f82 113d 677a 1a3c fe95 e13c
000002e0: 0aa7 d33c 8f16 1e3c 881b 2e3d facf 9fbc
000002f0: bc9d 7e3c e7ad 763c 1b57 18bd d20e 123c
00000300: d70f 743c 1a11 5c3b 01d2 5c3c 26e5 c2bb
00000310: 436c 923c d26b b3bc 000f 6cbd 6e36 7a3c
00000320: c728 853c fcca 2f3c deb4 a43c b2b7 08bd
00000330: b3df cc3b d152 0a3d 882a 8cbc d3f8 233c
00000340: ef00 4c3b ff34 81bc bf10 403b a9e7 5cbb
00000350: 70bc 0cbd 9460 46bc 92b1 273c 1341 edbc
00000360: 6050 34bd 989c 9abb 85c1 c6bb 4a67 a6bb
00000370: 3b24 a13c 064d 413c 3331 803c e6bf b13a
00000380: bf53 043c 760b 9c3b a9c3 a63a 5653 783c
00000390: 7c6c 5a3d 4067 1fbc 3b20 763c 8fd3 0b3c
000003a0: a29b 91ba 4b7d d83c 28b5 13bc 9309 18bb
000003b0: d389 efbc 427d 0ebc 38a3 f53a f632 28bb
000003c0: 127d 26bc 00ef 28ba dfef f7bb add3 023c
000003d0: 25e4 643c 9ac3 6c3b d0df 39bc 56fe 393b
000003e0: e08f 03bd 1a92 a1bb ee37 383d e73e 94bc
000003f0: b32b 033b 2d58 e9bc f6b7 33bc a76f d7bb
0.027447082 -0.009944684 -0.01328498 0.028708402 -0.018643975 -0.045346268 0.0007980918 0.005116566
-0.0051580793 0.012917119 0.0074560866 0.028507883 0.04418965 0.015365565 -0.011887778 -0.0002845333
0.0055030417 -0.027794315 -0.00087710266 0.0063780746 0.011859114 0.008443981 0.039487414 -0.0136739705
0.004443911 -0.055479866 -0.009590156 0.0040003457 0.006508189 0.024525834 -0.0040773796 -0.00034855795
0.01065052 0.0019014176 0.01264741 -0.01459208 -0.013953379 0.0052894484 -0.0015383454 0.05037218
-0.007865807 -0.032989074 0.008296576 -0.0038899095 -0.028104974 0.0028558844 0.06308189 0.02836238
0.051093232 -0.04594202 -0.013965468 -0.00042849575 0.005926186 -0.025516108 -0.020152297 -0.009565889
-0.035308532 -0.009023783 -0.037431903 0.014538085 -0.009126517 -0.010411387 0.042307537 0.02026549
-0.0046985783 0.005956032 -0.04019247 0.018707918 -0.015267007 0.026072038 0.061932363 -0.016144292
0.001805818 -0.0005608951 -0.007008862 0.04553497 -0.010673151 -0.031916738 0.0058316537 -0.018443158
-0.019656135 0.013653252 -0.0039248047 0.012508579 0.04199775 -0.0012980563 -0.0011912872 0.001143492
0.019244758 0.01582246 -0.00020075355 -0.010950655 -0.025665395 -0.0001286057 -0.02927205 -0.0068754707
-0.00625494 -0.016015325 -0.004657865 -0.0132954465 -0.042965204 -0.0028664195 0.011803481 -0.02541384
-0.018213904 -0.012140051 -0.01565725 0.00034199454 0.048476487 -0.0077362736 0.01385542 0.006721368
0.012646219 -0.0009627054 0.0065121334 -0.0145732565 -0.0152018685 -0.010934108 -0.0025862893 -0.002034432
0.034099344 0.022078542 -0.05553187 0.00869603 -0.009016915 0.02688131 -0.027437367 -0.009022067
-0.022175714 0.017311133 0.01831805 -0.016994392 0.0075121024 0.046732947 -0.002794643 -0.008332517
0.007085232 -0.02015899 -0.0055322014 -0.02715652 -0.049094897 -0.0029688138 0.01686654 0.023294164
0.013626037 0.012751002 0.00824497 0.010505687 -0.011846911 -0.015065037 -0.036728144 0.0021721858
-0.0034657381 0.046679497 0.007922611 -0.020712048 0.009358666 -0.013869458 0.01528479 0.0022800437
-0.0074574105 -0.009183705 -0.0064185695 0.017317731 0.0009722181 -0.013746404 0.0017825721 -0.031388406
0.0010538867 0.026539125 -0.022563187 0.017194029 0.03447965 -0.0020253016 -0.06100778 -0.033704028
-0.055009406 0.024147417 0.008897636 0.019753622 0.004059434 0.035524543 0.009428597 0.027537342
0.025836486 0.009648933 0.042506725 -0.01950835 0.0155405365 0.01505611 -0.037192445 0.008914666
0.014896355 0.003357953 0.013477803 -0.005947727 0.017873889 -0.021901999 -0.057631493 0.015271766
0.016254796 0.010729548 0.020105775 -0.03337831 0.006252253 0.033770386 -0.017110124 0.010008055
0.0031128486 -0.01577234 0.0029306856 -0.0033707416 -0.034359396 -0.012107987 0.010235207 -0.028961694
-0.044021964 -0.0047183745 -0.00606555 -0.005078231 0.019670596 0.011798149 0.01564846 0.0013561219
0.008076607 0.0047621084 0.0012723106 0.015156588 0.053326115 -0.009729207 0.015022333 0.008534326
-0.0011109004 0.026426932 -0.009015359 -0.0023199066 -0.029240524 -0.008696856 0.001874066 -0.002566514
-0.010161655 -0.0006444305 -0.0075664367 0.007985038 0.0139704095 0.003612733 -0.011344865 0.0028380356
-0.03211963 -0.0049307467 0.044975214 -0.0180964 0.002001506 -0.028484428 -0.010969153 -0.0065745893

action_model._discrete_distribution.branches.0.bias f4 [2]
00000000: 5789 b4bc 5a89 b43c
-0.022038145 0.02203815
