MLAgents Jumper Exercise/Assets/results/Jump2/JumperAgent.onnx (onnx, 570158 bytes, 15 tensors)

network_body.observation_encoder.processors.0.normalizer.running_mean f4 [26]
0.8321674 0.84618443 0.8321674 0.8464803 0.8321674 0.8464803 0.832258 0.8474526
0.832258 0.8474526 0.83232445 0.849316 0.83232445 0.84931606 0.83870506 0.8567224
0.83870506 0.8567224 0.87202907 0.88320845 0.87202907 0.88320845 0.89950985 0.90650696
0.89950985 0.90650696
00000000: ec08 553f 8b9f 583f ec08 553f efb2 583f
00000010: ec08 553f efb2 583f dc0e 553f a7f2 583f
00000020: dc0e 553f a7f2 583f 3713 553f c66c 593f
00000030: 3713 553f c76c 593f 60b5 563f 2952 5b3f
00000040: 60b5 563f 2952 5b3f 4c3d 5f3f f319 623f
00000050: 4c3d 5f3f f319 623f 4746 663f d710 683f
00000060: 4746 663f d710 683f

network_body.observation_encoder.processors.1.normalizer.running_mean f4 [2]
0.07160438 -0.028656725
00000000: 51a5 923d 82c1 eabc

network_body._body_endoder.seq_layers.0.weight f4 [256, 28]
0.115900286 -0.26881337 0.14869416 -0.029319907 0.0795554 -0.080002934 0.012939108 -0.34877244
-0.03802644 -0.1262826 -0.00157983 -0.3639948 0.2192639 -0.035354346 -0.12891431 -0.09652464
-0.10621282 -0.017238747 0.1968616 -0.045247402 -0.15675536 -0.06898939 -0.06133063 -0.14501014
-0.11872627 0.16067149 0.30613273 0.022872485 0.09705765 -0.04100438 -0.20720498 0.2820858
-0.026939701 0.17815863 -0.2916533 -0.16235508 -0.055205073 0.0031194165 0.19772826 -0.20499463
-0.29899105 -0.023493936 0.27990836 -0.35657272 -0.040589157 0.20798644 -0.31521693 -0.08286386
-0.07200555 -0.12956373 -0.11077809 -0.065451816 -0.2181442 0.10611386 -0.14286284 -0.023946255
-0.13045993 -0.082837425 -0.35193646 -0.034481518 -0.0628867 -0.024468964 -0.15410717 0.095975235
0.1564722 0.554661 -0.109579384 -0.001968678 0.03758841 0.061194513 -0.032574743 -0.119347215
0.26069698 0.06951078 -0.07670679 0.3904046 -0.054363202 0.097869515 -0.07923605 0.1827709
-0.158242 0.07637166 0.070490204 0.18486166 -0.12070522 -0.13388808 0.19367753 -0.15093473
-0.2254002 -0.010905438 0.069302134 -0.17898057 -0.07634044 -0.30096388 -0.010705767 0.30994362
-0.008055479 0.1974524 0.062655926 -0.06455008 -0.18300448 -0.18607692 -0.08924889 -0.121032625
0.41580826 -0.31494394 0.048269656 0.21487509 -0.09641183 0.3412235 -0.59995747 -0.006813948
-0.30326742 -0.18946667 -0.52359676 -0.2051048 -0.12650667 -0.19670717 -0.03924515 0.24186812
-0.091919735 0.018640049 0.11731757 -0.26399097 -0.048476193 -0.15165165 -0.2999157 -0.18509404
0.08487606 0.010060992 -0.055286083 -0.037997473 -0.13981484 0.016754847 -0.004180175 0.10463816
0.13876875 0.016969655 -0.015311977 -0.28668568 -0.128129 -0.23521194 -0.083523296 0.04453552
0.33963877 0.026460975 0.038381685 0.089699835 0.108594656 0.021618782 -0.0134894885 -0.38976723
-0.29744676 0.3891374 0.26331744 -0.3450168 -0.115075625 0.12077318 0.038310528 0.067397065
0.19207205 0.06365735 0.17783795 0.030346142 -0.0047024316 0.35605773 0.09155755 0.30396605
-0.18796143 -0.055175487 0.31506616 0.27431282 -0.26457295 -0.0005390644 -0.078497015 -0.34388518
-0.10583921 0.07359343 -0.07157744 0.08828147 0.43282294 0.12484794 -0.4152003 -0.0989855
0.32847542 0.048610896 -0.06776799 0.1281077 -0.18183914 0.16679077 0.20088781 0.12495132
-0.07344039 -0.26175216 0.06040293 0.16656509 -0.123708315 0.24061319 0.13513513 0.062864795
-0.104577675 0.15841411 0.05973666 0.36579257 -0.18459186 0.032068755 0.19293062 0.0031470736
-0.07936118 0.4079042 -0.104982 0.17707841 0.06970178 0.13610646 0.062294148 -0.088752106
-0.14380954 -0.3005936 -0.071906544 -0.118576705 0.16915396 -0.17239428 -0.07608941 -0.11402845
-0.088216595 0.52500653 0.2380561 0.1289594 0.12444811 0.13951136 -0.15130942 -0.29185778
0.2551313 -0.33868 0.3367857 0.09216104 0.0421463 0.10998018 0.001570357 0.0155708715
0.079859115 -0.124982744 -0.19618106 -0.15984565 -0.026443962 0.09249759 -0.2544312 0.18841963
-0.13014168 0.1411646 0.058860924 0.06340061 0.20502982 0.07254781 0.10667019 0.060189195
00000000: 215d ed3d e8a1 89be 4843 183e 4d30 f0bc
00000010: f1ed a23d 94d8 a3bd 8dfe 533c 4d92 b2be
00000020: 9dc1 1bbd 3a50 01be 4c12 cfba 875d babe
00000030: b786 603e b8cf 10bd 1d02 04be b6ae c5bd
00000040: 1b86 d9bd 4638 8dbc 1696 493e 5755 39bd
00000050: 7a84 20be 4f4a 8dbd d435 7bbd 8a7d 14be
00000060: c226 f3bd 1187 243e 6ebd 9c3e 145f bb3c
00000070: 29c6 c63d 35f4 27bd 8b2d 54be 8d6d 903e
00000080: a6b0 dcbc 376f 363e 9553 95be 6940 26be
00000090: b71e 62bd 206f 4c3b 4779 4a3e 1dea 51be
000000a0: 5b15 99be 5b76 c0bc 2650 8f3e b390 b6be
000000b0: d140 26bd 66fa 543e 1d64 a1be 87b4 a9bd
000000c0: a577 93bd 5bac 04be a0df e2bd 9a0b 86bd
000000d0: 3161 5fbe 3952 d93d a34a 12be f02a c4bc
000000e0: 4a97 05be aba6 a9bd 0431 b4be 7e3c 0dbd
000000f0: beca 80bd 2373 c8bc 45ce 1dbe aa8e c43d
00000100: 403a 203e 43fe 0d3f 286b e0bd f004 01bb
00000110: 4ef6 193d 19a7 7a3d 186d 05bd 506c f4bd
00000120: 137a 853e ab5b 8e3d 7318 9dbd 1de3 c73e
00000130: f3ab 5ebd d06f c83d 8346 a2bd 4b28 3b3e
00000140: 310a 22be bf68 9c3d 2b5d 903d 604c 3d3e
00000150: 4c34 f7bd f519 09be 6753 463e a28e 1abe
00000160: 4fcf 66be b9ac 32bc 47ee 8d3d af46 37be
00000170: 6058 9cbd f017 9abe 3e67 2fbc eeb0 9e3e
00000180: 21fb 03bc f630 4a3e c051 803d d532 84bd
00000190: 8765 3bbe f38a 3ebe 1fc8 b6bd f4df f7bd
000001a0: d2e4 d43e 5540 a1be 67b6 453d 3708 5c3e
000001b0: 9173 c5bd d9b4 ae3e d096 19bf 8a47 dfbb
000001c0: de45 9bbe 8d03 42be 700a 06bf fe06 52be
000001d0: f78a 01be 9b6d 49be 86bf 20bd 47ac 773e
000001e0: 6a40 bcbd 04b3 983c 3244 f03d d329 87be
000001f0: f98e 46bd 924a 1bbe 8d8e 99be 4b89 3dbe
00000200: 80d3 ad3d dcd6 243c a973 62bd 3da3 1bbd
00000210: 9f2b 0fbe 7641 893c d9f9 88bb 884c d63d
00000220: 6519 0e3e f203 8b3c 16df 7abc 77c8 92be
00000230: 4034 03be 66db 70be 430e abbd e16a 363d
00000240: 22e5 ad3e b0c4 d83c 1d36 1d3d 8cb4 b73d
00000250: e066 de3d df19 b13c 0403 5dbc 928f c7be
00000260: f14a 98be 043d c73e 8bd1 863e 0ba6 b0be
00000270: c5ac ebbd ee57 f73d 80eb 1c3d 7907 8a3d
00000280: 89ae 443e c95e 823d 271b 363e 7998 f83c
00000290: db16 9abb 334d b63e 8682 bb3d 70a1 9b3e
000002a0: f678 40be b1ff 61bd 5a50 a13e bb72 8c3e
000002b0: 1b76 87be 0050 0dba 0bc3 a0bd b811 b0be
000002c0: 3ac2 d8bd 27b8 963d 3197 92bd eacc b43d
000002d0: f89a dd3e 47b0 ff3d 2295 d4be e9b8 cabd
000002e0: ee2d a83e 381c 473d f2c9 8abd aa2e 033e
000002f0: 0a34 3abe 33cb 2a3e 89b5 4d3e 7ae6 ff3d
00000300: ea67 96bd 6104 86be 1069 773d 0a90 2a3e
00000310: c95a fdbd 4e63 763e dd60 0a3e 42bf 803d
00000320: d22c d6bd 4f37 223e 6eae 743d 2a49 bb3e
00000330: a605 3dbe 875a 033d 9b8f 453e 223f 4e3b
00000340: 1d88 a2bd d2d8 d03e ce00 d7bd 0b54 353e
00000350: cfbf 8e3d 7e5f 0b3e 2628 7f3d aac3 b5bd
00000360: cf42 13be 68e7 99be bd43 93bd 58d8 f2bd
00000370: b236 2d3e 2088 30be c4d4 9bbd bf87 e9bd
00000380: e7aa b4bd d466 063f fac4 733e ef0d 043e
00000390: a7de fe3d 11dc 0e3e dbf0 1abe 626e 95be
000003a0: 92a0 823e 7767 adbe 2d6f ac3e edbe bc3d
000003b0: 99a1 2c3d 4a3d e13d 70d4 cd3a f81c 7f3c
000003c0: 2d8d a33d f4f6 ffbd b0e3 48be 94ae 23be
000003d0: 02a1 d8bc 606f bd3d ce44 82be 13f1 403e
000003e0: dc43 05be 748d 103e 2718 713d 2ed8 813d
000003f0: 56f3 513e f293 943d e775 da3d f288 763d

network_body._body_endoder.seq_layers.0.bias f4 [256]
-0.0008034546 8.1434e-05 0.00032983205 -0.00012902547 0.0007368141 -0.0020468268 0.0024441527 0.00010684106
-0.0026745251 0.0034503378 0.0047004987 0.0011294116 -0.0025473828 0.003969358 0.00062646274 7.0815477e-06
0.0026767987 -0.00060092966 -0.0010932833 0.0031743671 0.002740104 0.0006507939 0.00203879 0.00090652436
0.001355826 0.0007418001 0.0038416483 -7.148482e-05 -0.00086828566 0.00021822183 0.0008315464 -0.001418504
0.0015619306 0.002682393 0.004351553 -0.0021789942 0.0031012385 -0.00064827147 -0.00080955087 -0.0014057637
-0.0036491612 0.0031337712 -0.0018014756 0.003420009 0.0020160454 0.0011848599 0.00061862206 -0.0032070077
-0.002366675 0.00088501564 0.0029665222 0.0004962962 0.004237842 -0.0010144896 0.0025356999 0.0024886674
0.0005108632 -0.001515213 5.516211e-05 0.0012617745 0.0009724332 -0.00047903537 0.00022297402 0.002451422
1.0708397e-06 0.0014164192 0.004748636 0.0033163521 -0.001958626 0.0015165312 -0.00070780364 -0.0005772804
-0.00019396209 0.0009167461 0.00026643177 0.0013397977 -0.0011848822 -0.0016241062 -0.001974352 0.000847078
0.003907913 -0.0024737788 0.0032414845 0.00233038 -0.0017710208 -0.0035501076 -0.0013499381 0.0015618803
0.004178241 0.0016439218 6.986365e-05 0.0001404142 0.0009671594 0.0027138216 0.0020010446 0.0036805004
0.00044131328 0.0043957606 0.0040690484 -0.0014111062 -0.0005069778 0.0012531937 -0.00028201126 0.0034310983
-0.002666692 0.0016089373 -8.646313e-05 -0.0014174276 0.000890595 0.0006259279 0.0020137506 0.00019260026
0.0017246364 0.002017444 0.0010161733 0.0015504155 -0.0024916911 -0.00039434078 0.0011160548 0.001939185
0.0009686186 0.003951119 0.0029506597 0.0013725362 0.0016682483 -0.00041190503 0.0035971687 0.0015000502
0.0010515918 -0.001252395 0.0012187161 0.0027740146 0.0024976027 0.0028177458 -0.0029225415 0.0019891288
0.00028835633 -0.0016561256 -0.0020957342 0.001249272 0.0020242056 0.0034406572 -0.0006176055 0.001711161
-0.0018431057 0.0022512968 0.0012060711 -0.0019160523 0.0028271915 0.0012663875 0.0019146929 -0.00034439136
0.0018185534 0.0031167832 0.0034394986 0.0025753172 0.0014491194 0.0009807996 0.0031643983 -3.237604e-05
0.0008958015 0.0018954198 0.0027302972 0.003858718 -0.0022283124 -0.0011679978 0.0024331429 0.00023543034
0.001363003 -0.0017058514 0.00066613255 0.0017856663 0.0023720355 0.0024616416 0.0019979964 -0.0015600927
-0.0020555505 -0.0029548137 0.0033113735 -0.0003228206 0.00028571128 0.0010261672 -0.00015338814 0.004203685
0.0026068152 -0.0012120144 -0.00082645845 -0.00029264193 0.0031148167 -0.0027084805 0.0026246537 -0.0015266435
-0.0013987296 -0.003537549 -0.00024833792 0.0019487477 -0.00069082057 0.0020982635 -0.00043060575 0.000510991
0.002896263 -0.0027124586 -0.0028790073 0.0003194102 0.0037435985 4.2504587e-05 2.2448336e-05 0.0007157178
0.0009446089 -0.0020164137 -0.00044391226 -0.0022379328 -0.0024564827 -0.001763608 0.0014511156 0.0007039137
0.003774453 -0.0010781154 0.0014497393 0.0025353576 0.0015359186 0.00017046292 0.0022031025 -0.002040139
-0.0008636693 0.0007994453 0.0029088885 0.0012713892 0.0005563434 0.0013441682 -0.00028197316 0.0018671347
0.0012079906 9.144513e-05 0.0036376833 0.00089524017 0.00054439774 0.0026712879 -0.001090379 0.00016365216
0.00061594654 0.003958818 0.000886592 0.002333472 0.0022068643 -0.004409446 0.0042692893 -0.002180822
0.0011555483 -0.0018404697 -0.00087622285 -0.000985765 -0.0019525376 0.003491139 0.0010032561 0.0006722879
00000000: ed9e 52ba 8cc7 aa38 4fed ac39 034b 07b9
00000010: c226 413a 0e24 06bb 142e 203b db0f e038
00000020: 1647 2fbb 101f 623b a406 9a3b c408 943a
00000030: fef1 26bb 6311 823b 3439 243a 089e ed36
00000040: 3b6d 2f3b b587 1dba 804c 8fba 0b09 503b
00000050: 5193 333b 0a9a 2a3a 389d 053b d2a3 6d3a
00000060: f9b5 b13a 5d75 423a 2ac4 7b3b 1fea 95b8
00000070: aa9d 63ba 7ad2 6439 22fc 593a 19ed b9ba
00000080: b2b9 cc3a 16cb 2f3b 7997 8e3b 75cd 0ebb
00000090: 263e 4b3b c3f0 29ba 0a38 54ba 9a41 b8ba
000000a0: c426 6fbb f55f 4d3b 7e1f ecba 3b22 603b
000000b0: a11f 043b 4d4d 9b3a 062b 223a a92c 52bb
000000c0: 381a 1bbb 6500 683a fc69 423b e019 023a
000000d0: 98dd 8a3b 9ff8 84ba fc2d 263b e918 233b
000000e0: 73eb 053a 1d9a c6ba dd5d 6738 2062 a53a
000000f0: e3ea 7e3a 0a27 fbb9 22ce 6939 09a8 203b
00000100: c6b9 8f35 24a7 b93a 729a 9b3b 2857 593b
00000110: 4b5c 00bb 58c6 c63a e68b 39ba a254 17ba
00000120: 4d62 4bb9 ca51 703a deaf 8b39 279c af3a
00000130: 0d4e 9bba f6df d4ba 2164 01bb 710e 5e3a
00000140: f30d 803b 1f1f 22bb 166f 543b 4ab9 183b
00000150: 9921 e8ba eca8 68bb 68f0 b0ba 02b8 cc3a
00000160: a0e9 883b dd78 d73a c383 9238 263c 1339
00000170: f888 7d3a 5fda 313b f523 033b 8d34 713b
00000180: 1160 e739 500a 903b a755 853b def4 b8ba
00000190: b4e6 04ba 3442 a43a e9da 93b9 47dc 603b
000001a0: abc3 2ebb fae2 d23a 8a53 b5b8 fac8 b9ba
000001b0: d276 693a 4f15 243a 21f9 033b bdf4 4939
000001c0: 320d e23a 1837 043b 1e31 853a 5037 cb3a
000001d0: a44b 23bb 86bf ceb9 9648 923a 402c fe3a
000001e0: e5ea 7d3a 6378 813b db5f 413b ace6 b33a
000001f0: 20a9 da3a f5f4 d7b9 7abe 6b3b 559d c43a
00000200: 91d5 893a 6727 a4ba 54bd 9f3a 3ecc 353b
00000210: d2ae 233b eea9 383b 1c88 3fbb 0b5c 023b
00000220: 882e 9739 5b12 d9ba 9658 09bb 9dbe a33a
00000230: 89a8 043b a67c 613b cee6 21ba 0949 e03a
00000240: 5d94 f1ba 7e8a 133b 0815 9e3a 0c24 fbba
00000250: 6748 393b eafc a53a 6ff6 fa3a 6d8f b4b9
00000260: 875c ee3a f242 4c3b 3669 613b a7c6 283b
00000270: 61f0 bd3a 2c8e 803a cb61 4f3b 82cb 07b8
00000280: 39d4 6a3a bc6f f83a c9ee 323b 8ce2 7c3b
00000290: e108 12bb 8117 99ba 5d75 1f3b dadd 7639
000002a0: cba6 b23a e096 dfba 669f 2e3a 050d ea3a
000002b0: 2774 1b3b 7e53 213b d1f0 023b 067c ccba
000002c0: 6ab6 06bb 8ca5 41bb a103 593b 3f40 a9b9
000002d0: 85cb 9539 7580 863a d1d6 20b9 11bf 893b
000002e0: 1ad7 2a3b 74dc 9eba b0a6 58ba bc6d 99b9
000002f0: f421 4c3b c380 31bb 6202 2c3b a819 c8ba
00000300: 9455 b7ba 39d6 67bb 5a33 82b9 1f6d ff3a
00000310: 2f18 35ba 0583 093b edc2 e1b9 07f4 053a
00000320: 3bcf 3d3b 81c3 31bb baad 3cbb 8376 a739
00000330: 2957 753b f446 3238 6f4f bc37 029f 3b3a
00000340: a19f 773a cf25 04bb e5bc e8b9 48aa 12bb
00000350: f1fc 20bb dd28 e7ba 5c33 be3a d986 383a
00000360: d05c 773b 8d4f 8dba 2e05 be3a 3e28 263b
00000370: e050 c93a 4bbe 3239 ed61 103b dab3 05bb
00000380: de67 62ba de91 513a 0da3 3e3b bea4 a63a
00000390: 93d7 113a cd2e b03a ccd5 93b9 a5ba f43a
000003a0: 7055 9e3a 3bc6 bf38 3366 6e3b 8dae 6a3a
000003b0: eab5 0e3a c610 2f3b 0ceb 8eba 0b9a 2b39
000003c0: 7977 213a f9b8 813b 2f6a 683a 2aed 183b
000003d0: 0aa1 103b 1d7d 90bb 65e5 8b3b 1fec 0ebb
000003e0: c475 973a ea3b f1ba 52b2 65ba c934 81ba
000003f0: 4aec ffba 98cb 643b b07f 833a 7a3c 303a

network_body._body_endoder.seq_layers.2.weight f4 [256, 256]
0.16853195 0.07590853 -0.035428368 0.03606065 0.022996819 -0.08802572 0.013230964 0.028437084
-0.07164817 0.06000696 0.011322666 0.017324269 -0.05086184 0.037398484 -0.08135254 0.0530526
-0.017921573 -0.008141856 -0.058816466 -0.016306583 -0.03950561 0.06451141 -0.0558663 0.16041726
-0.08078831 -0.06479159 0.03848751 0.07337609 -0.029515028 -0.0049373913 -0.113057815 0.12919228
-0.052951157 -0.0015599855 -0.0626394 0.03124325 -0.02070121 -0.031391487 -0.06499128 -0.03599618
0.12440871 -0.007852806 -0.15989871 -0.07002254 0.05336377 0.04882765 0.10996547 -0.0045895516
0.0028070735 0.030947948 -0.003487012 0.023009125 -0.041805044 0.03473883 0.008830752 -0.078511596
-0.019536784 -0.0218674 -0.05438695 -0.047712915 -0.07087586 0.0013475631 -0.09260727 0.023375733
0.081660256 -0.03454717 0.0931439 -0.11034291 0.08908509 -0.04225477 0.016703086 0.084327094
-0.02124571 -0.019640837 -0.0601866 0.17907536 -0.104561515 -0.039215192 -0.030192623 0.0017332324
-0.07507534 -0.062437527 0.012770455 -0.08029662 -0.0245183 -0.068566635 0.10842199 0.10118845
0.08608491 0.018749494 0.016754394 0.051203534 0.0032617634 -0.105543494 0.04999682 -0.0064692385
-0.059414234 -0.0058970433 0.043474622 -0.010877633 0.0038196477 0.094466336 0.10285475 -0.0046355766
-0.01847682 0.08474179 0.03044615 0.04688666 0.08402101 0.05042564 -0.019003622 0.063077874
0.13809974 0.024639387 -0.057341557 0.021487229 -0.09458518 0.06490774 0.0964065 -0.085698515
0.053748935 0.016030999 -0.06388678 0.105866686 0.026917212 0.005441587 0.001682201 -0.04799905
-0.049791772 0.07626791 -0.0854924 -0.054640763 0.007927131 -0.09193509 -0.052897368 0.05807423
-0.033550844 0.04008433 0.048879106 -0.03863633 -0.08093832 0.048781905 0.018268839 0.0652589
0.020721128 -0.016579304 0.038165115 0.070030145 -0.0660053 -0.09328324 -0.061510712 -0.008550281
-0.09401685 0.01967605 -0.0039590844 -0.14765325 -0.03913363 -0.12727942 0.06332637 0.0012010249
0.05406793 0.023537882 0.049211673 -0.055521555 -0.066205874 -0.02401541 -0.07685721 0.03343204
0.099995196 -0.05997968 0.0626811 -0.102232866 -0.010353462 -0.05685129 -0.11917322 -0.0077249114
0.06498428 0.033385675 0.05277365 0.082473725 0.012935439 -0.0035538063 -0.049220875 0.030542368
0.023100385 -0.12092108 -0.025432486 -0.10053964 -0.043964457 -0.04621134 -0.03087493 0.052782305
-0.014837057 -0.07278433 0.050448887 0.03481701 -0.030954704 -0.038697727 0.041348062 0.020313228
0.114370786 0.016804049 -0.022662576 0.0055005685 0.0058019306 0.038135733 -0.03156592 0.068551145
-0.040579572 0.01338158 0.009191759 -0.049735777 -0.024314946 -0.026306732 0.10325594 -0.020651521
-0.022892188 0.000389449 -0.06394183 0.020589054 -0.014770997 0.07124478 -0.005726235 -0.0006737648
-0.002416334 -0.0041029756 -0.0163696 0.07109458 0.017820766 0.029470965 0.07340774 0.0016828028
0.012527509 0.068852484 0.016558586 -0.079581544 -0.021861434 -0.05462172 0.0001321026 0.10579103
0.0029208898 0.037221026 0.0047498825 0.13538699 -0.03525301 0.059223957 0.017052818 0.02187227
0.072184265 0.03168012 0.06987301 -0.051503293 0.040883698 -0.08871024 -0.021690225 0.014103382
00000000: a493 2c3e ee75 9b3d 561d 11bd 55b4 133d
00000010: d363 bc3c d446 b4bd afc6 583c e3f4 e83c
00000020: 47bc 92bd dcc9 753d b482 393c a0eb 8d3c
00000030: 8154 50bd 272f 193d 299c a6bd af4d 593d
00000040: 43d0 92bc 6b65 05bc 89e9 70bd 6295 85bc
00000050: a2d0 21bd 8f1e 843d 10d4 64bd 6c44 243e
00000060: 5774 a5bd 74b1 84bd 14a5 1d3d 3446 963d
00000070: 80c9 f1bc d7c9 a1bb db8a e7bd fb4a 043e
00000080: 50e3 58bd 6d78 ccba 1649 80bd d8f1 ff3c
00000090: 9595 a9bc 5c94 00bd 261a 85bd bb70 13bd
000000a0: fec9 fe3d 0ea9 00bc 7dbc 23be fa67 8fbd
000000b0: f893 5a3d 80ff 473d 9435 e13d f363 96bb
000000c0: e1f6 373b 8d86 fd3c 5b86 64bb a27d bc3c
000000d0: c43b 2bbd 4e4a 0e3d dcae 103c b0ca a0bd
000000e0: 9b0b a0bc 4323 b3bc dac4 5ebd 9e6e 43bd
000000f0: 5d27 91bd b7a0 b03a e1a8 bdbd 777e bf3c
00000100: 7e3d a73d 5581 0dbd 3bc2 be3d 77fb e1bd
00000110: 3e72 b63d 5613 2dbd e9d4 883c afb3 ac3d
00000120: 7c0b aebc d2e5 a0bc 3986 76bd 885f 373e
00000130: 5924 d6bd 1ca0 20bd 8556 f7bc a12d e33a
00000140: 1ac1 99bd 7ebe 7fbd 2c3b 513c 8e72 a4bd
00000150: 9ada c8bc aa6c 8cbd 590c de3d e43b cf3d
00000160: 494d b03d 8a98 993c 8340 893c ccba 513d
00000170: 4fc3 553b 3027 d8bd 77c9 4c3d e8fb d3bb
00000180: 575c 73bd fc3b c1bb 7212 323d 1938 32bc
00000190: 0e53 7a3b 9177 c13d 83a5 d23d 09e6 97bb
000001a0: b35c 97bc 1b8d ad3d 346a f93c 3a0c 403d
000001b0: 3513 ac3d 1e8b 4e3d 7cad 9bbc f92e 813d
000001c0: 056a 0d3e 8ad8 c93c fbde 6abd fc05 b03c
000001d0: e0b5 c1bd 59ee 843d c570 c53d b482 afbd
000001e0: d827 5c3d 7153 833c 12d7 82bd a2d0 d83d
000001f0: 7c81 dc3c 574f b23b 4d7d dc3a a79a 44bd
00000200: 75f2 4bbd 5a32 9c3d a416 afbd fece 5fbd
00000210: cce0 013c 7748 bcbd e9aa 58bd 3edf 6d3d
00000220: 9c6c 09bd 772f 243d 7535 483d 2141 1ebd
00000230: fdc2 a5bd 89cf 473d 88a8 953c 75a6 853d
00000240: 5bbf a93c 52d1 87bc 0653 1c3d f76b 8f3d
00000250: c92d 87bd 490b bfbd a8f2 7bbd 7a16 0cbc
00000260: e88b c0bd ab2f a13c 35bb 81bb 6a32 17be
00000270: 964a 20bd 8955 02be 42b1 813d b56b 9d3a
00000280: 5576 5d3d 84d2 c03c 2e92 493d 926a 63bd
00000290: f296 87bd f7bb c4bc 5067 9dbd 09f0 083d
000002a0: 48ca cc3d 41ad 75bd f35e 803d 775f d1bd
000002b0: 91a1 29bc e6dc 68bd 1711 f4bd 4121 fdbb
000002c0: 7a16 853d 6bbf 083d 2f29 583d fce7 a83d
000002d0: 2aef 533c fae6 68bb d49b 49bd fd33 fa3c
000002e0: 053d bd3c 79a5 f7bd ca57 d0bc bae7 cdbd
000002f0: 1314 34bd 1a48 3dbd 6ced fcbc 4232 583d
00000300: 2117 73bc f30f 95bd 7ea3 4e3d 489c 0e3d
00000310: b894 fdbc 8281 1ebd 965c 293d ed67 a63c
00000320: 3b3b ea3d a5a8 893c dea6 b9bc 1d3e b43b
00000330: 1f1e be3b 3734 1c3d 444b 01bd 8b64 8c3d
00000340: c436 26bd 6a3e 5b3c 0899 163c beb7 4bbd
00000350: 2330 c7bc 3781 d7bc da77 d33d 612d a9bc
00000360: 6688 bbbc f62e cc39 eff3 82bd 60aa a83c
00000370: 0d02 72bc c9e8 913d 24a3 bbbb 979f 30ba
00000380: 5c5b 1ebb 4172 86bb 8a19 86bc 099a 913d
00000390: dbfc 913c 186d f13c cc56 963d 7e91 dc3a
000003a0: 2e40 4d3c 8802 8d3d dfa5 873c a6fb a2bd
000003b0: c016 b3bc 06bb 5fbd 0685 0a39 f8a8 d83d
000003c0: 666c 3f3b 1375 183d e7a4 9b3b e3a2 0a3e
000003d0: 7665 10bd d294 723d 5ab2 8b3c 7a2d b33c
000003e0: 58d5 933d 03c3 013d 9519 8f3d 1ef5 52bd
000003f0: aa75 273d b7ad b5bd b3af b1bc df11 673c

network_body._body_endoder.seq_layers.2.bias f4 [256]
-0.00070863485 -5.5551805e-05 -0.0005733682 -0.00051966176 -0.00033384006 0.00065143965 0.0024486987 0.0031019258
0.00047322898 0.00036046762 -0.0010774153 0.0019403382 -0.0009337449 -0.0022298 -0.00051433686 -0.0011246268
-0.0020356623 0.0006729324 -0.0022893194 0.0025230458 -0.0030437373 0.0014691345 0.003210855 0.0008296825
0.00026998212 0.00394031 -0.0031957629 0.002204485 -0.0008264262 0.003587596 0.00030748942 0.00089988
0.0031804638 -0.00064899237 0.0019017822 -0.0017606055 -0.0010709567 -0.002948703 0.00058972556 -0.001096141
0.0010781239 0.0026060906 0.0013724077 0.004086448 0.00057049876 -0.00075269875 -0.0013332638 -0.0029127195
-0.002080414 -0.0012626002 0.0005148866 0.00067958166 -0.0011558325 0.0005276542 0.0012888617 0.0026044543
-0.0028108386 0.00040526234 0.003774144 -0.001023964 0.0039200163 -3.70305e-05 0.0011696747 0.0015452661
0.0010090765 0.0033385016 0.000914862 -0.001461452 0.0018957678 0.0020528894 0.0021206962 0.00064098526
0.0026731428 -0.0011495239 0.0031437369 -0.00019853856 0.003181312 -0.0017379744 -0.0017510224 0.0009555314
-0.001278289 -0.0006587048 -0.0021235298 -0.0010017214 -7.725506e-05 -0.00028714916 -0.0006541383 0.0022445745
0.0024357238 0.0014527241 -0.0006837614 0.00065013417 -0.0013206591 0.003685766 0.0012736884 0.0014306552
0.0014012405 -0.00015278014 0.0032768822 -0.003043985 -0.0017295695 -0.0009387301 -0.0016957195 4.2156524e-05
0.0010752085 0.002499143 0.0013278269 -0.0017159645 0.0008547988 0.0019276467 3.432777e-05 -0.0021457027
-0.00015700565 -0.0011754043 -0.0017695765 0.0040818495 -0.0005423453 -0.0012712198 -0.002324459 0.001671068
-0.0032313168 -0.0033333476 0.0035287417 -0.0016667277 0.0008917784 0.002794054 0.00074801856 -0.0014033506
-0.0006994942 0.0008017288 0.0021611704 -0.0020647717 0.0016046846 -0.0010616239 -0.0010535822 0.0011558773
0.004415404 0.0012273621 0.003131445 0.00022045914 0.0017703377 0.0005269278 4.6597565e-05 0.0037465333
-0.0031543234 0.000653175 -1.9991408e-05 0.0019592457 -0.0021817288 0.0016455645 -0.0026132904 5.6146775e-05
0.00044843476 0.004637543 -0.0017252942 -0.0016091844 -0.0016748363 0.0016537922 -0.0021485651 -0.0011415763
0.0037373959 0.0020725764 0.002240214 0.00057476794 -0.0018956956 -0.0012403178 0.0008629545 0.0005511872
0.00069649355 0.0018778337 0.004256338 0.0027403105 0.0018850113 -0.00155958 0.001010805 0.0031097184
-0.0013875279 -0.0017380589 -0.0015345606 -0.000851628 0.0020030744 0.0019489559 0.0021701367 -0.00050322583
0.0006321399 0.0015915347 0.000580408 -0.0017417037 -0.0023427168 0.0011810886 0.0013465274 -9.1844355e-05
0.00010320937 0.00080645777 0.0016959154 0.003426804 0.0022867555 0.00093888264 -0.0026516002 0.0007162
0.0034126171 0.00075836165 0.002798177 0.00080755 0.0010930632 0.0008841387 -0.00023672804 0.00237601
-0.0006250951 -0.0037745263 0.00028198012 0.0041529415 0.00097033556 -0.0014823572 -0.0021922989 -0.0022177005
-0.0010089222 0.0019602638 0.0014802568 0.00048314696 0.0026043248 0.003661125 -0.0028717264 0.003101424
0.00049987464 0.0019937085 0.0033049374 -0.0009181618 0.0023656741 -0.0010845386 -0.0019110087 -0.0019233075
0.0014577364 -5.5498553e-05 0.0033603846 0.0014550909 0.0003988974 0.0021896064 -0.0007869117 0.0018304173
0.0010666583 -0.0008544278 0.0037118376 0.002681446 0.0031060246 -0.0020057007 0.0021282919 0.0008915574
0.0022851753 0.0020096519 0.0034237364 0.0037629155 0.0029813515 -0.00092078047 3.5830506e-06 0.00042242106
00000000: aec3 39ba 4c00 69b8 174e 16ba e939 08ba
00000010: 4107 afb9 60c5 2a3a 597a 203b ae49 4b3b
00000020: b81b f839 25fd bc39 0f38 8dba f252 fe3a
00000030: 8fc6 74ba d621 12bb 90d4 06ba 3768 93ba
00000040: bf68 05bb bb67 303a 6808 16bb af59 253b
00000050: 7079 47bb f98f c03a 356d 523b 0d7f 593a
00000060: 638c 8d39 b71d 813b 0170 51bb 1f79 103b
00000070: 86a4 58ba df1d 6b3b 8836 a139 ede5 6b3a
00000080: 546f 503b 2421 2aba 3945 f93a 1ec4 e6ba
00000090: 585f 8cba 073f 41bb d097 1a3a 63ac 8fba
000000a0: d64f 8d3a f2ca 2a3b 5ce2 b33a 9ce7 853b
000000b0: 868d 153a c250 45ba e9c0 aeba 53e3 3ebb
000000c0: 8e57 08bb d57d a5ba 74f9 063a f425 323a
000000d0: 4e7f 97ba 4652 0a3a 06ef a83a 7eaf 2a3b
000000e0: 0c36 38bb 6479 d439 a157 773b 8836 86ba
000000f0: 7b73 803b 3251 1bb8 c54f 993a 878a ca3a
00000100: fd42 843a c3ca 5a3b 59d3 6f3a 318e bfba
00000110: 697b f83a c589 063b 61fb 0a3b cb07 283a
00000120: e52f 2f3b 9fab 96ba 2707 4e3b ca2e 50b9
00000130: 8f7d 503b becc e3ba 9082 e5ba a07c 7a3a
00000140: 438c a7ba eeac 2cba eb2a 0bbb 314c 83ba
00000150: ff03 a2b8 828c 96b9 7a7a 2bba b619 133b
00000160: aaa0 1f3b 5569 be3a 733e 33ba c46d 2a3a
00000170: f719 adba e48c 713b e4f1 a63a d384 bb3a
00000180: d4a9 b73a 9b33 20b9 f6c0 563b 987d 47bb
00000190: b9b2 e2ba 1c15 76ba e842 deba 39d1 3038
000001a0: 03ee 8c3a a9c8 233b 7a0a ae3a 37ea e0ba
000001b0: 9414 603a 17a9 fc3a 2afb 0f38 eb9e 0cbb
000001c0: e2a1 24b9 0610 9aba 22f1 e7ba 09c1 853b
000001d0: 2d2c 0eba 0f9f a6ba f355 18bb bd07 db3a
000001e0: 80c4 53bb 4b74 5abb 7642 673b 1a76 daba
000001f0: 3cc6 693a 731c 373b ad16 443a a2f0 b7ba
00000200: 435e 37ba 1c2b 523a 6ca2 0d3b 1f51 07bb
00000210: 4854 d23a 3026 8bba 5a18 8aba ce80 973a
00000220: 18af 903b 70df a03a ee38 4d3b 0d2b 6739
00000230: ad0a e83a 8721 0a3a c171 4338 6688 753b
00000240: c4b8 4ebb d539 2b3a 39b3 a7b7 b066 003b
00000250: 56fb 0ebb fbaf d73a bd43 2bbb 247f 6b38
00000260: e51b eb39 88f6 973b 4423 e2ba 45eb d2ba
00000270: 2e86 dbba 0fc4 d83a f1ce 0cbb f2a0 95ba
00000280: 19ef 743b 10d4 073b 8ed0 123b 06ac 163a
00000290: fd78 f8ba 2992 a2ba e537 623a 8c7d 103a
000002a0: e494 363a a521 f63a c078 8b3b c896 333b
000002b0: 7c12 f73a d26a ccba fd7c 843a 6bcc 4b3b
000002c0: b6dd b5ba 94cf e3ba 4f23 c9ba ca3f 5fba
000002d0: 0346 033b 1c74 ff3a da38 0e3b eaea 03ba
000002e0: 31b6 253a 0b9b d03a 8626 183a e149 e4ba
000002f0: 4488 19bb c2ce 9a3a f67d b03a 909c c0b8
00000300: 1c72 d838 7768 533a 7a49 de3a 3b94 603b
00000310: 64dd 153b 591f 763a 78c6 2dbb 5ebf 3b3a
00000320: 37a6 5f3b cacc 463a 9f61 373b c3b1 533a
00000330: 1d45 8f3a 8bc5 673a 333a 78b9 d5b6 1b3b
00000340: 6cdd 23ba 0b5e 77bb bbd6 9339 6615 883b
00000350: 1e5e 7e3a a74b c2ba acac 0fbb d756 11bb
00000360: d03d 84ba c577 003b 2d05 c23a e34e fd39
00000370: 52ad 2a3b 7cef 6f3b 9333 3cbb 4341 4b3b
00000380: 050a 033a e1a8 023b a697 583b ccb0 70ba
00000390: 6d09 1b3b 1427 8eba d07a faba 7e17 fcba
000003a0: 8411 bf3a 1ec7 68b8 e639 5c3b c0b8 be3a
000003b0: 1a23 d139 807f 0f3b c048 4eba 9dea ef3a
000003c0: 1dcf 8b3a aefb 5fba 4d42 733b 33bb 2f3b
000003d0: 728e 4b3b 1372 03bb d07a 0b3b 68b7 693a
000003e0: e1c2 153b 5db4 033b c460 603b 3f9b 763b
000003f0: c762 433b 8860 71ba 5774 7036 6578 dd39

network_body._body_endoder.seq_layers.4.weight f4 [256, 256]
-0.03785254 0.10638582 -0.02838614 -0.06549615 0.018351901 -0.027396122 0.021442415 0.07619398
-5.0860108e-05 -0.023175823 0.06672478 0.075825594 0.01870138 0.0607054 0.01501544 -0.008948098
0.05145881 0.023545064 -0.05567344 -0.11273682 -0.011187529 -0.058523823 0.02660225 -0.031582642
-0.012226915 0.003892595 0.040700726 -0.14310554 -0.0365854 -0.0011252307 -0.003386007 0.0012083388
0.0018008957 0.104795694 0.01915825 -0.013829962 -0.060248964 -0.07694333 0.0868499 -0.035190266
-0.02960517 -0.13313589 0.027143896 -0.07661396 0.078464255 -0.009437281 -0.013082347 0.08704826
-0.04262282 -0.036128268 -0.023156133 0.052320365 -0.07134809 -0.07335042 -0.1765318 0.0085969055
-0.010360661 0.023098972 -0.076297 0.026946245 -0.051507644 0.005605892 -0.027387753 -0.056640923
0.04209879 -0.05580048 -0.022734478 0.0059211627 -0.066678844 0.049550265 -0.052032493 0.10268112
0.11741959 0.06331094 -0.08400786 0.0672874 -0.05883768 -0.030789979 -0.0548871 -0.030268764
-0.014175804 -0.033344816 -0.00939817 0.028701684 0.04218097 0.08130562 0.017313944 -0.0862943
0.020278713 0.049523976 -0.01025361 0.0643202 -0.031981308 -0.018567095 -0.043437522 -0.15778631
0.078736156 -0.025663204 -0.075510174 -0.0012609123 0.032358747 0.051703896 0.06365627 0.004917069
0.06992028 0.010487451 0.04644676 -0.06291653 -0.050748058 -0.06085988 0.09338518 -0.122269146
-0.052792966 -0.0062547764 -0.050348103 0.029227596 -0.0835247 -0.058165833 0.053211667 0.12363061
0.0493284 0.019111002 0.049618635 -0.02574966 0.035012905 0.019719305 0.012497021 -0.028111674
-0.0023260673 0.0058118966 0.053577486 -0.0049453666 -0.102952406 -0.022317002 0.037580732 0.028972685
0.110088535 0.012841214 -0.0076349117 -0.033014778 -0.043265942 -0.046744134 -0.14101209 0.076485924
0.03412511 -0.10265225 0.02094136 -0.046937436 0.019824527 0.060723994 0.008629519 -0.0885203
0.036976896 0.025085034 0.032782376 0.021839857 -0.04724161 -0.042632833 -0.05178933 0.0034703484
0.024738986 0.07649879 0.10009558 -0.031008687 -0.07570132 -0.00718413 -0.029864052 -0.06728766
0.019019326 -0.013867796 -0.069838956 -0.09806789 0.09590985 0.072122864 0.029736599 -0.025209155
-0.014870906 0.055220902 0.038424183 0.041478373 -0.048589848 -0.017304277 -0.033010624 -0.010030406
0.047254495 -0.06776987 -0.055800907 -0.01670428 -0.003946741 0.047441237 0.0016842263 0.08942784
0.09678788 -0.0376463 -0.08120629 0.01756246 0.09197798 -0.009470844 -0.02420891 -0.061937317
-0.032739457 0.053556487 -0.07693787 0.0060553034 -0.038779512 -0.006881834 -0.033631336 -0.05364402
-0.08689153 0.009308906 0.025548402 0.04012726 0.0053112 -0.057313267 -0.059332144 -0.046379708
0.011572347 0.028058901 -0.16863166 -0.023318892 -0.034978267 -0.020030215 -0.056747437 0.000109961686
0.068755165 0.026804818 -0.02034993 -0.046215635 0.07349249 0.07678314 0.015203166 0.035426296
-0.029185712 -0.061295584 0.011653354 -0.07601356 -0.12225006 0.06674444 -0.0878212 0.029984996
-0.013871018 -0.03305041 -0.021233238 0.020455256 -0.09465729 -0.0031142007 0.030167198 -0.0904628
0.060988467 -0.04034338 0.07404466 0.040303074 -0.09446695 -0.011429869 -0.09494229 -0.05109573
00000000: 440b 1bbd cfe0 d93d 0d8a e8bc d822 86bd
00000010: ba56 963c d56d e0bc 01a8 af3c 970b 9c3d
00000020: a052 55b8 39db bdbc 00a7 883d 734a 9b3d
00000030: a333 993c 3aa6 783d 5203 763c 0b9b 12bc
00000040: 79c6 523d 94e1 c03c d509 64bd 90e2 e6bd
00000050: e64b 37bc adb6 6fbd f6ec d93c cd5c 01bd
00000060: 6653 48bc e81a 7f3b ceb5 263d 428a 12be
00000070: 93da 15bd 7a7c 93ba c5e7 5dbb 1f61 9e3a
00000080: 080c ec3a 209f d63d c3f1 9c3c 1197 62bc
00000090: 9ec7 76bd 7794 9dbd 5cde b13d ab23 10bd
000000a0: 8b86 f2bc c654 08be e05c de3c c8e7 9cbd
000000b0: deb1 a03d d39e 1abc 5757 56bc 5c46 b23d
000000c0: 4495 2ebd 3cfb 13bd eeb1 bdbc e14d 563d
000000d0: f31e 92bd bf38 96bd c1c4 34be 09da 0c3c
000000e0: c3bf 29bc 0e3a bd3c 9a41 9cbd 5fbe dc3c
000000f0: aef9 52bd a1b1 b73b 485c e0bc 5000 68bd
00000100: c86f 2c3d 0b8f 64bd a83d babc 5006 c23b
00000110: eb8e 88bd 38f5 4a3d 0620 55bd 7b4a d23d
00000120: af79 f03d 2ba9 813d 500c acbd facd 893d
00000130: c7ff 70bd 443b fcbc 4cd1 60bd 33f6 f7bc
00000140: a241 68bc 9394 08bd c8fa 19bc cb1f eb3c
00000150: f4c5 2c3d 9083 a63d f9d5 8d3c 11bb b0bd
00000160: 8b1f a63c a7d9 4a3d c2fe 27bc 4fba 833d
00000170: d5fe 02bd 051a 98bc 8beb 31bd bc92 21be
00000180: 6c40 a13d a43b d2bc 14a5 9abd 3245 a5ba
00000190: 9b8a 043d 77c7 533d 385e 823d 5d1f a13b
000001a0: 5d32 8f3d 8fd3 2b3c f53e 3e3d 62da 80bd
000001b0: 32dd 4fbd 3648 79bd bb40 bf3d 3f68 fabd
000001c0: 703d 58bd def4 ccbb d039 4ebd b66e ef3c
000001d0: ff0e abbd 4c3f 6ebd 7af4 593d 0c32 fd3d
000001e0: 940c 4a3d ad8e 9c3c e93c 4b3d f3f0 d2bc
000001f0: b169 0f3d 618a a13c 4ec0 4c3c 744a e6bc
00000200: ef70 18bb b971 be3b 1174 5b3d be0c a2bb
00000210: b6d8 d2bd 25d2 b6bc 41ee 193d 2058 ed3c
00000220: 1976 e13d f563 523c 482e fabb 813a 07bd
00000230: a137 31bd c776 3fbd 7965 10be a7a4 9c3d
00000240: c5c6 0b3d 583b d2bd 378d ab3c 7841 40bd
00000250: 0c67 a23c b9b9 783d d362 0d3c 224a b5bd
00000260: 1675 173d 217f cd3c d046 063d 80e9 b23c
00000270: 6b80 41bd c49f 2ebd 0c21 54bd c96e 633b
00000280: 6aa9 ca3c 66ab 9c3d e9fe cc3d ee05 febc
00000290: 4b09 9bbd da68 ebbb 75a5 f4bc 1dce 89bd
000002a0: 6bce 9b3c c135 63bc ba07 8fbd d1d7 c8bd
000002b0: 626c c43d 27b5 933d 2b9a f33c 6e83 cebc
000002c0: 1aa5 73bc 502f 623d ad62 1d3d 3ae5 293d
000002d0: 2606 47bd b3c1 8dbc 2636 07bd 9256 24bc
000002e0: ee8d 413d eeca 8abd 7e8f 64bd 6ad7 88bc
000002f0: aa53 81bb be51 423d 42c1 dc3a f225 b73d
00000300: b938 c63d 0233 1abd 7c4f a6bd 26df 8f3c
00000310: f45e bc3d 992b 1bbc c451 c6bc fcb1 7dbd
00000320: cf19 06bd 0c5e 5b3d 9a91 9dbd 916b c63b
00000330: 44d7 1ebd 0281 e1bb 03c1 09bd d5b9 5bbd
00000340: 30f4 b1bd 6284 183c e24a d13c 7b5c 243d
00000350: 9309 ae3b 51c1 6abd 4306 73bd a6f8 3dbd
00000360: f199 3d3c c8db e53c c7ad 2cbe 4307 bfbc
00000370: 5f45 0fbd 6816 a4bc 0070 68bd 3b9b e638
00000380: 82cf 8c3d c795 db3c e5b4 a6bc 9b4c 3dbd
00000390: 3b83 963d 7b40 9d3d b316 793c 2a1b 113d
000003a0: e016 efbc 1411 7bbd b6ed 3e3c ffac 9bbd
000003b0: 3d5e fabd 4fb1 883d 9adb b3bd 18a3 f53c
000003c0: 4443 63bc de5f 07bd 54f1 adbc c891 a73c
000003d0: aedb c1bd 9e17 4cbb 3321 f73c 8f44 b9bd
000003e0: 0bcf 793d 1a3f 25bd baa4 973d d614 253d
000003f0: e377 c1bd 5844 3bbc 1a71 c2bd c249 51bd

network_body._body_endoder.seq_layers.4.bias f4 [256]
-0.002301125 0.0006822359 0.0008998637 -0.0029275331 0.0033569485 -0.00012851063 0.0013478997 0.0018127117
-0.0018896508 0.0003782455 0.0025595992 -0.0031460547 0.002127448 -0.0027128928 0.0025326386 0.0030652478
0.00080192037 0.00022446566 -0.0012902913 -0.0023108348 -0.0027208314 -0.0023012068 0.0026369097 -0.00094025995
0.00011494821 -0.0019185528 0.0006397196 0.0036968943 0.0008517166 -0.00024771236 0.002599281 0.0020779832
-0.002263716 0.0025942118 -0.0007836968 0.0011669488 0.0027648888 0.0036256975 -0.0023899016 -0.0009270598
-0.00087951025 -0.0011613227 -0.0008364551 -0.0004321629 -0.00014700377 -0.0022492278 0.001462909 -0.003180819
-0.0016956896 -0.0012369315 0.00023616663 0.0022477307 0.0025231985 -0.0009594107 -0.0022984904 -0.0010861318
-0.0023055843 -0.0006305435 -0.0006268958 0.0005313949 0.0009784772 0.0028777882 0.0022310906 0.002228843
0.002397877 -0.00303001 -0.0024344267 0.0011870477 0.0030598629 0.000602939 0.002939599 0.0029800935
0.00037786024 -0.00037552684 0.0031239784 0.0013526508 -0.0017536568 -0.0025712557 0.0019475134 0.0010706341
0.00039408266 0.00030281232 0.0010071683 -0.0024052816 -0.0005978561 -0.0025525203 0.0012970762 -0.003546839
0.0016595428 -0.00127244 -0.0008184078 0.0026654177 -0.0030057235 -1.6033542e-05 -0.00055625493 -0.00016424981
0.0015464632 0.0025019017 -0.0026330447 -0.00084908743 0.0029140643 0.0017374046 0.00261098 -0.002339355
-0.0017252819 -0.003074077 0.0014141815 -0.0013691963 0.002806153 -0.002844205 0.0014079284 -0.0011869213
0.0013101251 0.002072821 0.003240126 -0.00031710326 -0.0015379409 0.003086213 0.0028177632 -0.002887952
-0.0022479936 -0.00024089613 -0.0019165949 0.00341305 0.0007283017 0.0024205458 -0.0012471545 0.0027890767
-0.00199124 -0.002971805 -0.0022714906 0.0011079514 -0.002445911 -0.0025538586 0.0013167196 -0.0032334544
0.0015270663 -0.0010984541 -0.0015838523 0.0011126746 0.0009735462 -0.0032364721 0.00028240518 0.00016696217
-7.393053e-05 0.0016861387 -0.0005029163 -0.0012552721 -0.0031087792 -0.0025951245 -0.0027525881 0.003049184
-0.0020764188 0.00087812706 0.0027827935 0.0026457065 0.0017662476 0.00083792815 0.0031119687 -0.0021788673
-0.001287173 -0.0032149418 -0.00015451126 0.0014052455 -0.00015035548 -0.00047817733 0.00050273404 0.00222712
-0.001830633 0.0023920226 -0.00024050321 -0.001203901 -0.001622291 0.0034034664 0.0013917665 -0.0011038178
0.0028222203 0.0027469294 0.00085252913 0.0015384458 0.0032955746 -0.0014095263 -0.0021724356 -0.0025206741
-0.0002994449 -0.0001449571 -0.0018179379 0.0017186933 0.0001681072 0.001386585 -0.0005004551 0.0033176308
0.0028848178 0.002250451 0.0010201583 0.0021809333 0.00020029784 -0.002970218 0.00281907 -0.001622914
0.00065394095 -0.00044448682 -0.0007253988 0.0012866035 0.0023118798 -0.0027697985 -0.0008147818 0.0023900804
0.003518905 0.0010146572 0.0027458055 0.0028323834 -0.0015337318 -0.0019932422 -0.0018202226 -0.0019373375
-0.0021342295 0.0005605207 0.0035810438 -0.0010987604 0.0011714526 0.00043098588 -0.001766474 6.509411e-05
-0.0008530724 -0.0003051047 0.002295946 0.0005295607 0.0018313427 -0.0014658752 0.0017329245 -0.0022370976
0.0015187019 -0.0018714834 -0.0013414014 0.0030451631 -8.024937e-06 -0.0020258713 -0.0027615598 0.0011934285
0.00035476504 0.0006303414 -0.00256805 -0.00092614675 0.00047243305 -0.0012687917 0.0012784919 0.00015171914
-0.000104474326 0.003411337 -0.0011429453 -0.0020549875 0.0015991987 -0.0009010571 0.0002091759 0.0033036626
00000000: 79ce 16bb 14d8 323a d5e4 6b3a dbdb 3fbb
00000010: 4000 5c3b cfc0 06b9 02ac b03a 8398 ed3a
00000020: 29ae f7ba 404f c639 f3be 273b 0a2e 4ebb
00000030: a86c 0b3b caca 31bb a0fa 253b 53e2 483b
00000040: f737 523a 8b5e 6b39 fe1e a9ba 6071 17bb
00000050: fa4f 32bb d8cf 16bb 01d0 2c3b c77b 76ba
00000060: 5a10 f138 f377 fbba dbb2 273a 9847 723b
00000070: bc45 5f3a 64df 81b9 b358 2a3b c62e 083b
00000080: da5a 14bb a703 2a3b 0171 4dba 4ef4 983a
00000090: 2333 353b 1c9d 6d3b e59f 1cbb ee05 73ba
000000a0: ef8e 66ba 8637 98ba 8d45 5bba ec93 e2b9
000000b0: 0625 1ab9 c867 13bb 15bf bf3a 4a75 50bb
000000c0: e741 deba 8920 a2ba 7fa3 7739 aa4e 133b
000000d0: 3f5c 253b f680 7bba 45a2 16bb 895c 8eba
000000e0: 4919 17bb 0f4b 25ba 4456 24ba 4f4d 0b3a
000000f0: 3f40 803a 4699 3c3b 7d37 123b c811 123b
00000100: b325 1d3b 2293 46bb e78a 1fbb b696 9b3a
00000110: fb87 483b 8d0e 1e3a 4aa6 403b ac4d 433b
00000120: 8b1b c639 5ce2 c4b9 a9bb 4c3b 6e4b b13a
00000130: f5da e5ba 8382 28bb b543 ff3a 8554 8c3a
00000140: e19c ce39 c8c2 9e39 f602 843a eea1 1dbb
00000150: 72b9 1cba 2f48 27bb a802 aa3a 1672 68bb
00000160: 0485 d93a 00c8 a6ba 6b8a 56ba 4aae 2e3b
00000170: acfb 44bb c57f 86b7 a3d1 11ba 793a 2cb9
00000180: b2b2 ca3a f2f6 233b 298f 2cbb 4b95 5eba
00000190: e3f9 3e3b a0b9 e33a fa1c 2b3b dd4f 19bb
000001a0: db22 e2ba 7476 49bb 0f5c b93a 9b76 b3ba
000001b0: 6fe7 373b d765 3abb 3d8a b83a 7892 9bba
000001c0: 81b8 ab3a 2ad8 073b 4b58 543b e140 a6b9
000001d0: bc94 c9ba 1042 4a3b 39aa 383b cb43 3dbb
000001e0: 1353 13bb 1099 7cb9 4136 fbba 7aad 5f3b
000001f0: 80eb 3e3a 05a2 1e3b 9077 a3ba f1c8 363b
00000200: 777f 02bb 9dc2 42bb 4add 14bb ae38 913a
00000210: 944b 20bb a35e 27bb c795 ac3a 5de8 53bb
00000220: d827 c83a 01fa 8fba 4499 cfba 2ad7 913a
00000230: 9435 7f3a fe1a 54bb c80f 9439 9112 2f39
00000240: 270b 9bb8 6d01 dd3a 24d6 03ba f187 a4ba
00000250: a9bc 4bbb f712 2abb c464 34bb d2d4 473b
00000260: 8714 08bb 1c32 663a 875f 363b 9763 2d3b
00000270: 6f81 e73a 68a8 5b3a 2cf2 4b3b 54cb 0ebb
00000280: 5cb6 a8ba c6b1 52bb 4d04 22b9 3730 b83a
00000290: bea8 1db9 e0b3 fab9 e9c9 033a e0f4 113b
000002a0: daf1 efba 7bc3 1c3b 972f 7cb9 37cc 9dba
000002b0: 0ea3 d4ba b10c 5f3b ef6b b63a fbad 90ba
000002c0: 00f5 383b d405 343b 437c 5f3a ada5 c93a
000002d0: 91fa 573b dbbf b8ba 6c5f 0ebb e531 25bb
000002e0: d0fe 9cb9 a0ff 17b9 e047 eeba c745 e13a
000002f0: ef45 3039 12be b53a f930 03ba 9c6c 593b
00000300: 360f 3d3b 4d7c 133b d5b6 853a fded 0e3b
00000310: 0b07 5239 fda7 42bb 25c0 383b f5b7 d4ba
00000320: 3c6d 2b3a 030a e9b9 b028 3eba 40a3 a83a
00000330: e882 173b 8285 35bb 1597 55ba e5a2 1c3b
00000340: 6e9d 663b 3ffe 843a f9f2 333b 829f 393b
00000350: 8007 c9ba 0ea1 02bb 8994 eeba 42ee fdba
00000360: 6ede 0bbb e8ef 123a f2af 6a3b 4804 90ba
00000370: 6d8b 993a f2f5 e139 0889 e7ba 2283 8838
00000380: b8a0 5fba 76f6 9fb9 9577 163b 38d2 0a3a
00000390: aa09 f03a 9c22 c0ba 4c23 e33a 459c 12bb
000003a0: 2e0f c73a 904c f5ba f6d1 afba 5c91 473b
000003b0: d8a2 06b7 7bc4 04bb 49fb 34bb d16c 9c3a
000003c0: c2ff b939 7f3d 253a bb4c 28bb a8c8 72ba
000003d0: e4b0 f739 964d a6ba 1293 a73a cc16 1f39
000003e0: 3a19 dbb8 bd90 5f3b e1ce 95ba f8ac 06bb
000003f0: 349c d13a eb34 6cba 3a56 5b39 4382 583b

action_model._continuous_distribution.log_sigma f4 [1, 2]
-0.0011123603 -0.0017579312
00000000: 9ecc 91ba 626a e6ba

action_model._continuous_distribution.mu.weight f4 [2, 256]
0.010481067 0.003571645 0.0043063182 0.007648864 -0.0033709756 -0.013246123 -0.012060224 0.003751167
0.011281624 0.03307581 -0.024015157 0.011849918 -0.0205991 0.004914701 -0.013059383 2.502504e-05
-0.018222956 -0.013359683 0.022948481 0.0062650065 0.0165499 0.013318152 -0.025290955 0.017452298
-0.0044228467 0.0039271507 -0.0062286905 -0.0031423909 -0.014229746 0.002001257 -0.0013169385 -0.018706655
0.018290134 -0.030376658 0.020553267 0.0044149067 -0.0027136067 -0.014875035 0.011121007 0.01471709
0.0047619427 0.012756614 0.019723842 -0.0111674145 0.008340769 0.0075022266 -0.0068622134 0.00046944222
0.015293607 0.027521621 0.0026571604 -0.0053856 -0.013997549 0.012048059 0.01882019 -0.0033549455
0.0008160272 -0.0097470535 0.031487174 -0.0052187773 0.008424419 -0.021329984 0.003145062 0.0028505572
-0.0031443385 0.014227604 0.00035174677 -0.0054499255 -0.02407215 -0.010478711 -0.011998104 -0.0016688205
-0.015642088 -0.015769215 -0.007338458 -0.011930704 0.014427882 0.018139029 -0.020087425 0.0072080325
0.0013342131 -0.016764663 -0.018388696 0.0015190498 -0.015308638 0.00095588923 -0.0045171566 0.013952381
-0.017944103 0.0018876032 -0.008983758 -0.027412036 0.0045227204 0.015971703 0.005031698 -0.014468713
-0.021963572 -0.0022915099 0.008500198 0.023101717 -0.01052742 4.9438975e-05 -0.010718628 0.005621608
0.021379666 0.013740724 0.011777658 -0.00041050563 0.0023596454 0.004542422 -0.0037392632 -0.005657701
-0.020256082 -0.016457919 -0.019893112 -0.0011918038 0.007843774 -0.015455831 -0.004562727 0.0064458787
0.006936256 0.020101277 0.013156971 -0.013965613 0.01362802 -0.010577041 0.017083125 -0.016098103
0.009972865 0.02064879 0.009667954 0.0017201913 0.0061701774 0.0039882283 -0.009385617 0.010173736
0.0037422774 0.00021900571 -0.0011933566 -0.023742465 -0.0038956935 0.019753914 0.0034656508 0.015630186
-0.02588742 -0.034034193 -0.0075524263 0.015684856 0.021547105 0.00089206017 0.010922412 -0.014074899
0.013678495 -0.025809841 -0.016552579 -0.008189848 -0.0023949128 0.008202816 -0.01130952 0.0028213284
-0.0039453683 0.0027845965 -0.009148334 -0.016270015 0.010662375 -0.020655198 0.006160276 -0.009652264
0.014195364 -0.013902945 -0.005890708 -0.008263016 0.01339162 -0.0143302595 0.005245721 0.018375346
-0.017552216 -0.007579413 -0.020261034 -0.02965244 -0.01320351 -0.004177078 -0.00020309442 0.003706006
-0.0090917405 0.006353322 -0.0017438614 -0.019730901 0.006214821 0.008382247 -0.018864317 -0.025625441
-0.02732831 -0.0055238637 0.00834455 -0.0015167644 0.016989928 0.015659932 -0.013532687 -0.0009996515
-0.011892272 -0.0016255045 -0.00375767 0.009629295 -0.017937921 0.0057889093 -0.010758835 -0.0017358015
-0.016525336 -0.0028192205 0.0011204045 -0.0031593658 -0.004592889 0.021656644 -0.0017699826 0.013195524
0.019822408 0.011530969 -0.007977744 -0.015559406 0.0030913043 0.014589031 -0.0049491283 -0.012817719
0.018493693 0.021506753 -0.012373933 0.003889771 -0.0076723592 0.013883512 0.0037571907 0.026827794
-0.0050500683 0.0117014665 0.008250457 -0.013307109 -0.0007234966 0.0007261215 0.038217504 0.017893814
-0.014946506 -0.016616382 0.012012362 -0.0154551305 -0.01836513 -0.0050958646 -0.019923367 -0.006380503
-0.014220316 -0.018226985 0.009860556 0.016594287 0.0020058379 0.017972166 -0.0047474573 -0.010159852
00000000: c8b8 2b3c 4212 6a3b 041c 8d3b 52a3 fa3b
00000010: 96eb 5cbb 4406 59bc 3f98 45bc 24d6 753b
00000020: 90d6 383c 807a 073d 6fbb c4bc 2926 423c
00000030: 72bf a8bc 800b a13b 06f7 55bc ddec d137
00000040: 4f48 95bc 92e2 5abc 74fe bb3c af4a cd3b
00000050: a893 873c 6134 5a3c fa2e cfbc 1ff8 8e3c
00000060: 87ed 90bb 54af 803b 0b1a ccbb 92f0 4dbb
00000070: e123 69bc 8527 033b 209d acba b33e 99bc
00000080: 31d5 953c 78d8 f8bc 535f a83c ecaa 903b
00000090: c4d6 31bb 6bb6 73bc e234 363c f31f 713c
000000a0: 120a 9c3b 1e01 513c e593 a13c 88f7 36bc
000000b0: b9a7 083c 3dd5 f53b 6bdc e0bb 781f f639
000000c0: 0992 7a3c 0675 e13c c123 2e3b b079 b0bb
000000d0: fa55 65bc 3965 453c cd2c 9a3c a5de 5bbb
000000e0: a9ea 553a 1bb2 1fbc b2f8 003d 4702 abbb
000000f0: 9306 0a3c 38bc aebc 621d 4e3b 6ad0 3a3b
00000100: 3f11 4ebb e51a 693c a76a b839 4a95 b2bb
00000110: f532 c5bc e6ae 2bbc b293 44bc 53bc daba
00000120: d623 80bc 712e 81bc 7377 f0bb 0079 43bc
00000130: ec62 6c3c 4d98 943c 628e a4bc 5c31 ec3b
00000140: c3e0 ae3a 0c56 89bc e4a3 96bc da1a c73a
00000150: 15d1 7abc a494 7a3a a804 94bb 8798 643c
00000160: 83ff 92bc 7469 f73a 9d30 13bc 358f e0bc
00000170: 5433 943b 17d7 823c f1e0 a43b 2e0e 6dbc
00000180: f3ec b3bc 282d 16bb 6a44 0b3c d03f bd3c
00000190: 337b 2cbc b25c 4f38 2f9d 2fbc 7735 b83b
000001a0: 6924 af3c c620 613c 14f7 403c 2239 d7b9
000001b0: 48a4 1a3b 99d8 943b 6d0e 75bb 3c64 b9bb
000001c0: 15f0 a5bc c2d2 86bc e1f6 a2bc 4d36 9cba
000001d0: 2c83 003c 743a 7dbc ee82 95bb f337 d33b
000001e0: 8849 e33b 6fab a43c 5690 573c 07d0 64bc
000001f0: 0f48 5f3c 534b 2dbc e9f1 8b3c 2be0 83bc
00000200: 3a65 233c a727 a93c 5766 1e3c 0b78 e13a
00000210: 332f ca3b afaf 823b 22c6 19bc beaf 263c
00000220: ff40 753b e6a4 6539 676a 9cba 8f7f c2bc
00000230: e44e 7fbb f6d2 a13c f91f 633b e00a 803c
00000240: db11 d4bc 7067 0bbd 587a f7bb 877d 803c
00000250: 8e83 b03c 25d9 693a ebf3 323c 689a 66bc
00000260: c41b 603c 296f d3bc 4699 87bc b62e 06bc
00000270: f8f3 1cbb 1b65 063c 914b 39bc 09e6 383b
00000280: 2648 81bb c77d 363b e5e2 15bc b248 85bc
00000290: 3eb1 2e3c 1735 a9bc 24dc c93b 8824 1ebc
000002a0: ac93 683c 2ec9 63bc d706 c1bb 9a61 07bc
000002b0: 8668 5b3c 77c9 6abc 4ce4 ab3b e587 963c
000002c0: aac9 8fbc b95c f8bb 78fa a5bc ade9 f2bc
000002d0: 8953 58bc dfdf 88bb bef5 54b9 77e0 723b
000002e0: 86f5 14bc 872f d03b 4792 e4ba b3a2 a1bc
000002f0: b2a5 cb3b b155 093c 5789 9abc 72ec d1bc
00000300: 9fdf dfbc 8701 b5bb 94b7 083c 2bce c6ba
00000310: 762e 8b3c 4249 803c 34b8 5dbc bd06 83ba
00000320: ced7 42bc e10e d5ba 3e43 76bb 31c4 1d3c
00000330: 8cf2 92bc e4b0 bd3b d345 30bc d583 e3ba
00000340: 2460 87bc acc2 38bb 89da 923a 5d0d 4fbb
00000350: f27f 96bb 4669 b13c c3fe e7ba 0a32 583c
00000360: 9a62 a23c 64ec 3c3c 15b5 02bc e1ec 7ebc
00000370: 7b97 4a3b d506 6f3c 4c2c a2bb 6901 52bc
00000380: 1680 973c ee2e b03c 09bc 4abc 87eb 7e3b
00000390: 6a68 fbbb ab77 633c 333b 763b f6c5 db3c
000003a0: 0b7b a5bb 82b7 3f3c ed2c 073c 0f06 5abc
000003b0: 09a9 3dba 3059 3e3a f589 1c3d 0c96 923c
000003c0: 31e2 74bc 141f 88bc 7fcf 443c 8437 7dbc
000003d0: 7872 96bc 36fb a6bb 5436 a3bc 8a13 d1bb
000003e0: 54fc 68bc c250 95bc 2b8e 213c bef0 873c
000003f0: 6074 033b 5d3a 933c 8f90 9bbb 8275 26bc

action_model._continuous_distribution.mu.bias f4 [2]
-0.0018189097 0.002017581
00000000: 7b68 eeba 6439 043b
