MLAgents Jumper Exercise/Assets/results/Jump3/JumperAgent.onnx (onnx, 568388 bytes, 11 tensors)

network_body.observation_encoder.processors.0.normalizer.running_mean f4 [26]
0.0 0.0 0.0 0.0 0.0 0.0 0.0 0.0
0.0 0.0 0.0 0.0 0.0 0.0 0.0 0.0
0.0 0.0 0.0 0.0 0.0 0.0 0.0 0.0
0.0 0.0
00000000: 0000 0000 0000 0000 0000 0000 0000 0000
00000010: 0000 0000 0000 0000 0000 0000 0000 0000
00000020: 0000 0000 0000 0000 0000 0000 0000 0000
00000030: 0000 0000 0000 0000 0000 0000 0000 0000
00000040: 0000 0000 0000 0000 0000 0000 0000 0000
00000050: 0000 0000 0000 0000 0000 0000 0000 0000
00000060: 0000 0000 0000 0000

network_body.observation_encoder.processors.1.normalizer.running_mean f4 [2]
0.0 0.0
00000000: 0000 0000 0000 0000

network_body._body_endoder.seq_layers.0.weight f4 [256, 28]
0.17430505 0.091522485 -0.2345043 0.031537898 0.02998378 -0.34201255 -0.13651593 -0.37161282
-0.14600797 -0.11655368 -0.07649515 -0.043329123 0.2038829 0.08610807 -0.3862089 0.014950773
-0.24354093 -0.03783879 0.045536067 -0.5287636 -0.40503433 0.26547733 0.08605322 -0.43431607
-0.098435596 0.29744032 0.35244665 -0.38084954 0.05548528 0.16704054 -0.5312703 -0.020573283
0.2944425 0.2923322 -0.110509455 -0.2424065 -0.13732867 0.018667646 -0.15819956 0.13157909
-0.3317911 -0.2218685 -0.18214856 -0.042069696 0.33415493 -0.04254476 0.0010058405 0.16395551
0.04313364 0.10510663 -0.034199357 -0.111236885 -0.0024873312 0.32557583 0.1421522 -0.17965697
-0.17973979 -0.23694496 -0.0772441 0.19658774 0.032732774 0.09464858 0.045614492 -0.030630723
-0.0720499 -0.31100783 -0.083614334 0.07618842 -0.19369397 -0.025133682 0.02477819 0.3583163
-0.28606606 -0.022559846 -0.05338975 -0.25762302 0.22400028 0.015446569 -0.12369463 0.22032169
-0.07547422 0.04321731 0.26883548 0.0701875 -0.10880102 0.023309298 -0.30560207 0.016001647
-0.13244799 0.21142517 0.2152626 0.092917815 -0.1707808 -0.29516143 -0.16628978 -0.09862101
-0.16386044 -0.049889244 0.17401063 0.22726963 -0.2513539 0.24939704 -0.26256952 -0.017516239
0.35674596 -0.07103398 -0.09366313 -0.010949187 0.106763594 0.063420996 -0.17334528 0.04706389
-0.14113551 0.1346167 -0.1576779 0.024256304 -0.07275351 -0.26834005 0.30868095 0.087622255
0.20214961 0.061896257 -0.09650153 -0.14162056 0.052254103 -0.22819525 -0.3277999 0.22494514
0.034439087 -0.14155324 -0.32328877 -0.2182535 0.052782997 -0.27320778 -0.24019866 0.18353778
0.1866838 0.20169827 0.038698006 0.22807175 -0.23238109 -0.08418501 0.23459989 -0.08448517
-0.15096173 0.17100269 -0.028800786 0.21782707 -0.42720935 0.17266488 0.11325462 -0.07193702
0.11764038 -0.027318649 -0.34813064 -0.018874686 0.15069644 -0.2414216 0.1915261 -0.21321051
0.12493956 0.22115834 -0.14732476 0.013188589 0.050960544 0.09712427 -0.31349778 0.23311414
-0.122925855 0.11882733 0.31402397 -0.07525631 -0.09373566 -0.03746668 0.0054437965 -0.09829332
0.0023388255 -0.09750957 0.18098111 0.19641943 0.06608495 0.10460098 0.14695717 0.16667575
-0.00952643 0.32090202 -0.2035646 -0.24074398 0.20506686 -0.30042744 0.18071657 -0.116546154
-0.15441984 0.06907784 0.06766222 0.30113983 0.06725784 -0.21944807 -0.15372714 -0.4768746
-0.2593901 0.51148134 -0.18621007 0.20113821 -0.10340271 -0.15161915 0.49738842 0.15982312
0.14946337 -0.2219163 0.03109336 -0.10998574 -0.050217014 0.030526748 0.14479628 -0.03954642
0.32380742 -0.06894817 0.0796353 0.10828929 -0.0043948363 -0.05734562 -0.18868925 0.3882388
-0.2438219 0.16456333 -0.05741596 -0.097788 0.15318987 -0.45542398 0.1933145 -0.1085692
-0.21172673 -0.18333924 -0.0932367 0.056783278 -0.16736864 0.15020207 -0.13930434 0.06489607
-0.26425248 0.14254321 -0.10207281 0.14876163 0.16288237 0.14522526 -0.4643843 0.073131934
-0.29729977 -0.09238773 0.17990798 -0.3972243 -0.14401469 -0.2124761 0.12494442 0.041677184
00000000: 067d 323e 2470 bb3d e521 70be e22d 013d
00000010: 8ba0 f53c 451c afbe d5ca 0bbe 0944 bebe
00000020: 1d83 15be b2b3 eebd 7da9 9cbd e179 31bd
00000030: aec6 503e 6e59 b03d 2cbd c5be 16f4 743c
00000040: cb62 79be d9fc 1abd 0784 3a3d 0d5d 07bf
00000050: a960 cfbe a5ec 873e ac3c b03d ad5e debe
00000060: 9a98 c9bd 194a 983e e373 b43e b6fe c2be
00000070: 8844 633d ad0c 2b3e 5501 08bf 4d89 a8bc
00000080: 2bc1 963e 91ac 953e c852 e2bd 6939 78be
00000090: e39f 0cbe e4ec 983c 11ff 21be abbc 063e
000000a0: 86e0 a9be 7f31 63be 2785 3abe 4651 2cbd
000000b0: 5b16 ab3e 6a43 2ebd 68d6 833a f4e3 273e
000000c0: e6ac 303d 2542 d73d a014 0cbd 2ad0 e3bd
000000d0: 7e02 23bb e0b1 a63e 5990 113e fff7 37be
000000e0: b50d 38be b3a1 72be 2832 9ebd 4c4e 493e
000000f0: cd12 063d 1dd7 c13d 43d6 3a3d 48ed fabc
00000100: e68e 93bd 6b3c 9fbe fe3d abbd ad08 9c3d
00000110: b657 46be 27e5 cdbc a1fb ca3c 3c75 b73e
00000120: 4077 92be 6dcf b8bc 36af 5abd 2ae7 83be
00000130: 5460 653e 9b13 7d3c 9c53 fdbd 029c 613e
00000140: 3a92 9abd a204 313d cea4 893e 77be 8f3d
00000150: 12d3 debd 24f3 be3c e077 9cbe e315 833c
00000160: 72a0 07be d77f 583e cd6d 5c3e b24b be3d
00000170: 29e1 2ebe 661f 97be de47 2abe d0f9 c9bd
00000180: 08cb 27be aa58 4cbd d82f 323e 5fb9 683e
00000190: 75b1 80be f061 7f3e 836f 86be 377e 8fbc
000001a0: 68a7 b63e 437a 91bd 75d2 bfbd 3864 33bc
000001b0: dfa6 da3d dee2 813d 6d81 31be 11c6 403d
000001c0: d485 10be f6d8 093e 5176 21be 28b5 c63c
000001d0: cbff 94bd de63 89be 6e0b 9e3e 4c73 b33d
000001e0: 4f00 4f3e ee86 7d3d 98a2 c5bd fb04 11be
000001f0: 6608 563d 04ac 69be 63d5 a7be 0558 663e
00000200: 0010 0d3d 55f3 10be 1b86 a5be d87d 5fbe
00000210: fc32 583d e4e1 8bbe a3f6 75be 54f1 3b3e
00000220: 0a2a 3f3e fe89 4e3e cd81 1e3d a48b 693e
00000230: 4ff5 6dbe 3169 acbd f43a 703e 9006 adbd
00000240: b695 1abe 541b 2f3e a0ef ebbc 0f0e 5f3e
00000250: 2fbb dabe 10cf 303e 0af2 e73d b753 93bd
00000260: 71ed f03d 5ccb dfbc 2e3e b2be 169f 9abc
00000270: 2b50 1a3e 3937 77be 6b1f 443e db53 5abe
00000280: 50e0 ff3d 5577 623e 4ddc 16be f414 583c
00000290: 01bc 503d 17e9 c63d c882 a0be 79b5 6e3e
000002a0: 8dc0 fbbd be5b f33d c0c7 a03e fb1f 9abd
000002b0: 7bf8 bfbd a976 19bd e061 b23b 024e c9bd
000002c0: fb46 193b 19b3 c7bd 1d53 393e 2d22 493e
000002d0: 8c57 873d 0a39 d63d f17b 163e 0cad 2a3e
000002e0: be14 1cbc 454d a43e 3d73 50be 9785 76be
000002f0: 0cfd 513e a0d1 99be c40d 393e c0af eebd
00000300: 3c20 1ebe af78 8d3d 7d92 8a3d 002f 9a3e
00000310: 7abe 893d ffb6 60be a66a 1dbe e828 f4be
00000320: c7ce 84be 71f0 023f daad 3ebe 2df7 4d3e
00000330: cdc4 d3bd 0d42 1bbe b2a9 fe3e aca8 233e
00000340: ed0c 193e 073e 63be 81b7 fe3c 3440 e1bd
00000350: 5bb0 4dbd 3b13 fa3c 7a45 143e 6dfb 21bd
00000360: 16ca a53e b334 8dbd d517 a33d c6c6 dd3d
00000370: 8f02 90bb 3ee3 6abd c137 41be 3cc7 c63e
00000380: 73ac 79be 4a83 283e ff2c 6bbd 1345 c8bd
00000390: cedd 1c3e 552d e9be 3cf4 453e 8759 debd
000003a0: e4ce 58be 48bd 3bbe e2f2 bebd 9595 683d
000003b0: af62 2bbe 92ce 193e cca5 0ebe 3be8 843d
000003c0: 1a4c 87be d9f6 113e 8d0b d1bd f854 183e
000003d0: a3ca 263e eeb5 143e c7c3 edbe 32c6 953d
000003e0: ad37 98be c735 bdbd cc39 383e fc60 cbbe
000003f0: 9678 13be 5693 59be dce2 ff3d b2b5 2a3d

network_body._body_endoder.seq_layers.0.bias f4 [256]
0.0 0.0 0.0 0.0 0.0 0.0 0.0 0.0
0.0 0.0 0.0 0.0 0.0 0.0 0.0 0.0
0.0 0.0 0.0 0.0 0.0 0.0 0.0 0.0
0.0 0.0 0.0 0.0 0.0 0.0 0.0 0.0
0.0 0.0 0.0 0.0 0.0 0.0 0.0 0.0
0.0 0.0 0.0 0.0 0.0 0.0 0.0 0.0
0.0 0.0 0.0 0.0 0.0 0.0 0.0 0.0
0.0 0.0 0.0 0.0 0.0 0.0 0.0 0.0
0.0 0.0 0.0 0.0 0.0 0.0 0.0 0.0
0.0 0.0 0.0 0.0 0.0 0.0 0.0 0.0
0.0 0.0 0.0 0.0 0.0 0.0 0.0 0.0
0.0 0.0 0.0 0.0 0.0 0.0 0.0 0.0
0.0 0.0 0.0 0.0 0.0 0.0 0.0 0.0
0.0 0.0 0.0 0.0 0.0 0.0 0.0 0.0
0.0 0.0 0.0 0.0 0.0 0.0 0.0 0.0
0.0 0.0 0.0 0.0 0.0 0.0 0.0 0.0
0.0 0.0 0.0 0.0 0.0 0.0 0.0 0.0
0.0 0.0 0.0 0.0 0.0 0.0 0.0 0.0
0.0 0.0 0.0 0.0 0.0 0.0 0.0 0.0
0.0 0.0 0.0 0.0 0.0 0.0 0.0 0.0
0.0 0.0 0.0 0.0 0.0 0.0 0.0 0.0
0.0 0.0 0.0 0.0 0.0 0.0 0.0 0.0
0.0 0.0 0.0 0.0 0.0 0.0 0.0 0.0
0.0 0.0 0.0 0.0 0.0 0.0 0.0 0.0
0.0 0.0 0.0 0.0 0.0 0.0 0.0 0.0
0.0 0.0 0.0 0.0 0.0 0.0 0.0 0.0
0.0 0.0 0.0 0.0 0.0 0.0 0.0 0.0
0.0 0.0 0.0 0.0 0.0 0.0 0.0 0.0
0.0 0.0 0.0 0.0 0.0 0.0 0.0 0.0
0.0 0.0 0.0 0.0 0.0 0.0 0.0 0.0
0.0 0.0 0.0 0.0 0.0 0.0 0.0 0.0
0.0 0.0 0.0 0.0 0.0 0.0 0.0 0.0
00000000: 0000 0000 0000 0000 0000 0000 0000 0000
00000010: 0000 0000 0000 0000 0000 0000 0000 0000
00000020: 0000 0000 0000 0000 0000 0000 0000 0000
00000030: 0000 0000 0000 0000 0000 0000 0000 0000
00000040: 0000 0000 0000 0000 0000 0000 0000 0000
00000050: 0000 0000 0000 0000 0000 0000 0000 0000
00000060: 0000 0000 0000 0000 0000 0000 0000 0000
00000070: 0000 0000 0000 0000 0000 0000 0000 0000
00000080: 0000 0000 0000 0000 0000 0000 0000 0000
00000090: 0000 0000 0000 0000 0000 0000 0000 0000
000000a0: 0000 0000 0000 0000 0000 0000 0000 0000
000000b0: 0000 0000 0000 0000 0000 0000 0000 0000
000000c0: 0000 0000 0000 0000 0000 0000 0000 0000
000000d0: 0000 0000 0000 0000 0000 0000 0000 0000
000000e0: 0000 0000 0000 0000 0000 0000 0000 0000
000000f0: 0000 0000 0000 0000 0000 0000 0000 0000
00000100: 0000 0000 0000 0000 0000 0000 0000 0000
00000110: 0000 0000 0000 0000 0000 0000 0000 0000
00000120: 0000 0000 0000 0000 0000 0000 0000 0000
00000130: 0000 0000 0000 0000 0000 0000 0000 0000
00000140: 0000 0000 0000 0000 0000 0000 0000 0000
00000150: 0000 0000 0000 0000 0000 0000 0000 0000
00000160: 0000 0000 0000 0000 0000 0000 0000 0000
00000170: 0000 0000 0000 0000 0000 0000 0000 0000
00000180: 0000 0000 0000 0000 0000 0000 0000 0000
00000190: 0000 0000 0000 0000 0000 0000 0000 0000
000001a0: 0000 0000 0000 0000 0000 0000 0000 0000
000001b0: 0000 0000 0000 0000 0000 0000 0000 0000
000001c0: 0000 0000 0000 0000 0000 0000 0000 0000
000001d0: 0000 0000 0000 0000 0000 0000 0000 0000
000001e0: 0000 0000 0000 0000 0000 0000 0000 0000
000001f0: 0000 0000 0000 0000 0000 0000 0000 0000
00000200: 0000 0000 0000 0000 0000 0000 0000 0000
00000210: 0000 0000 0000 0000 0000 0000 0000 0000
00000220: 0000 0000 0000 0000 0000 0000 0000 0000
00000230: 0000 0000 0000 0000 0000 0000 0000 0000
00000240: 0000 0000 0000 0000 0000 0000 0000 0000
00000250: 0000 0000 0000 0000 0000 0000 0000 0000
00000260: 0000 0000 0000 0000 0000 0000 0000 0000
00000270: 0000 0000 0000 0000 0000 0000 0000 0000
00000280: 0000 0000 0000 0000 0000 0000 0000 0000
00000290: 0000 0000 0000 0000 0000 0000 0000 0000
000002a0: 0000 0000 0000 0000 0000 0000 0000 0000
000002b0: 0000 0000 0000 0000 0000 0000 0000 0000
000002c0: 0000 0000 0000 0000 0000 0000 0000 0000
000002d0: 0000 0000 0000 0000 0000 0000 0000 0000
000002e0: 0000 0000 0000 0000 0000 0000 0000 0000
000002f0: 0000 0000 0000 0000 0000 0000 0000 0000
00000300: 0000 0000 0000 0000 0000 0000 0000 0000
00000310: 0000 0000 0000 0000 0000 0000 0000 0000
00000320: 0000 0000 0000 0000 0000 0000 0000 0000
00000330: 0000 0000 0000 0000 0000 0000 0000 0000
00000340: 0000 0000 0000 0000 0000 0000 0000 0000
00000350: 0000 0000 0000 0000 0000 0000 0000 0000
00000360: 0000 0000 0000 0000 0000 0000 0000 0000
00000370: 0000 0000 0000 0000 0000 0000 0000 0000
00000380: 0000 0000 0000 0000 0000 0000 0000 0000
00000390: 0000 0000 0000 0000 0000 0000 0000 0000
000003a0: 0000 0000 0000 0000 0000 0000 0000 0000
000003b0: 0000 0000 0000 0000 0000 0000 0000 0000
000003c0: 0000 0000 0000 0000 0000 0000 0000 0000
000003d0: 0000 0000 0000 0000 0000 0000 0000 0000
000003e0: 0000 0000 0000 0000 0000 0000 0000 0000
000003f0: 0000 0000 0000 0000 0000 0000 0000 0000

network_body._body_endoder.seq_layers.2.weight f4 [256, 256]
0.05149585 0.008737886 -0.04948375 -0.039089013 -0.056353502 0.03215073 -0.066484764 0.04595828
-0.04267222 0.012453645 -0.026121778 0.015378983 -0.12263796 0.056383107 -0.009877757 0.028781254
0.040383242 -0.06535156 -0.040972933 -0.014109643 0.091465704 -0.018419314 -0.049541574 0.056064174
0.052979484 -0.030035371 0.078691974 0.070590265 -0.031633016 -0.01744183 0.08416033 -0.048404854
-0.03584575 0.12544535 0.001442852 0.10256214 -0.028046543 0.13564569 -0.09902268 -0.0067445096
0.004111214 -0.020134224 -0.087533735 0.022075118 -0.0023107256 -0.015981166 -0.07913653 0.15583861
0.059135295 -0.048168167 0.096870095 -0.078054614 -0.026435578 0.029210443 0.0042325 -0.03521406
-0.023769217 -0.030320004 -0.04584873 -0.05550892 0.079528965 0.075858794 0.06435954 0.029145293
0.00093781215 0.045116484 -0.043098938 -0.060592793 0.022874136 0.21398145 -0.036492962 0.0016063032
0.06763365 0.07934117 -0.040456392 -0.06940488 0.080562636 0.10165811 -0.0016517014 -0.019695641
-0.047233406 -0.05349495 -0.004927265 0.031545706 -0.04923095 -0.045982156 -0.11805654 0.018491618
0.052997906 0.09092161 -0.0039985306 -0.058491606 -0.09252047 0.056032248 0.061565433 0.08695917
-0.048873376 -0.14461952 -0.070507765 -0.047151774 -0.06605023 0.083075136 -0.053164843 -0.12537095
-0.034835376 -0.094098106 0.09332376 -0.029475635 0.04121411 -0.022777846 0.037426446 0.012500078
-0.08819184 -0.052755862 0.06148937 0.019356018 -0.13685304 0.06961189 -0.050507795 -0.105170995
0.18128434 0.051573075 -0.029899273 0.039797436 0.009571341 -0.056404695 0.06111971 0.0030392937
0.052361682 -0.07522104 0.03338393 -0.015732152 0.0652526 0.028569596 -0.10065322 -0.06927061
-0.06897968 -0.07650852 -0.093602344 0.06225614 0.09411657 -0.06480934 -0.057561807 0.010282804
-0.025386862 -0.01764655 0.014860205 -0.099855386 -0.025450835 0.068968736 -0.026402209 0.027726747
0.11633248 -0.055177465 0.09128842 -0.031238213 0.10850588 -0.018812777 0.10800413 0.001775791
0.024211269 -0.057993144 0.023362676 0.019223655 0.022034345 0.066014506 -0.019833896 -0.0067288987
0.05374487 -0.07421042 0.0035823956 0.052485608 0.088954866 -0.038461544 0.013621968 0.045420844
-0.043300863 0.015754964 -0.039466992 -0.083465405 -0.014573761 -0.0829738 -0.10271208 0.16405678
-0.0052163913 0.11999682 -0.01129165 -0.09428453 -0.058379322 0.0969888 -0.021260012 -0.009745736
0.04707714 -0.058833584 0.010413884 0.06361239 -0.16305953 0.04764057 0.041567072 -0.06379363
-0.02163226 0.13117787 0.034400176 0.006082007 -0.032700785 0.032845277 -0.037538752 0.06515818
0.008213038 0.031400993 -0.08566998 0.00299297 -0.044037636 -0.0027991384 -0.09147376 -0.084054515
-0.01621056 0.07486292 0.025608035 0.04545921 -0.045988034 0.0056265183 0.0198996 0.06328679
-0.024162507 -0.03764017 0.103976905 0.036385298 0.07090259 0.05288882 0.008710193 0.10201412
-0.13330916 0.07184629 -0.09994201 0.06547425 0.01851463 0.03216505 -0.034911275 0.11981078
-0.019130066 0.14319035 -0.052870575 0.071549304 0.047621556 -0.031380575 -0.09622788 -0.11208826
0.022155743 0.034184147 0.05749002 -0.01569462 0.13198894 -0.05639482 0.04711914 -0.05315024
00000000: 50ed 523d 5a29 0f3c 79af 4abd cd1b 20bd
00000010: eed2 66bd 7cb0 033d 2a29 88bd c03e 3c3d
00000020: 11c9 2ebd 5f0a 4c3c 57fd d5bc 21f8 7b3c
00000030: 9c29 fbbd f9f1 663d 51d6 21bc aac6 eb3c
00000040: e668 253d 0ad7 85bd 3cd3 27bd 222c 67bc
00000050: 5f52 bb3d 1ae4 96bc 1bec 4abd 8ca3 653d
00000060: 0401 593d bd0c f6bc 4229 a13d a191 903d
00000070: 9f91 01bd 2be2 8ebc 405c ac3d 2b44 46bd
00000080: fed2 12bd bf74 003e 141e bd3a 190c d23d
00000090: ddc1 e5bc b4e6 0a3e 67cc cabd 0c01 ddbb
000000a0: 5db7 863b 87f0 a4bc e344 b3bd e1d6 b43c
000000b0: 8b6f 17bb efea 82bc 5512 a2bd 2894 1f3e
000000c0: da37 723d fc4b 45bd d463 c63d 19db 9fbd
000000d0: 6d8f d8bc bd4a ef3c c9b0 8a3b 9e3c 10bd
000000e0: a9b7 c2bc a861 f8bc e1cb 3bbd 525d 63bd
000000f0: 15e0 a23d db5b 9b3d efce 833d 1cc2 ee3c
00000100: 82d7 753a 10cc 383d 8388 30bd 2630 78bd
00000110: 8a62 bb3c f41d 5b3e a579 15bd 978a d23a
00000120: 8383 8a3d a07d a23d 9ab5 25bd 2524 8ebd
00000130: 06fe a43d 2132 d03d e77d d8ba c158 a1bc
00000140: d177 41bd 851d 5bbd e574 a1bb 1236 013d
00000150: 65a6 49bd c957 3cbd a1c7 f1bd bc7b 973c
00000160: 5514 593d 1c35 ba3d 1b06 83bb e594 6fbd
00000170: 5f7b bdbd 1282 653d 092c 7c3d a617 b23d
00000180: 732f 48bd 2417 14be 6066 90bd 3822 41bd
00000190: 5845 87bd 4c23 aa3d 61c3 59bd 3e61 00be
000001a0: 8aaf 0ebd 82b6 c0bd 8720 bf3d e376 f1bc
000001b0: 20d0 283d 9b98 babc 794c 193d 21cd 4c3c
000001c0: ec9d b4bd 8816 58bd 47dc 7b3d 8390 9e3c
000001d0: 3423 0cbe ae90 8e3d 43e1 4ebd e463 d7bd
000001e0: 9aa2 393e 4a3e 533d 52ef f4bc a302 233d
000001f0: 1dd1 1c3c 9c08 67bd a958 7a3d e32e 473b
00000200: 3479 563d 7d0d 9abd 96bd 083d b7e0 80bc
00000210: 28a3 853d c90a ea3c 4723 cebd c0dd 8dbd
00000220: 3845 8dbd 80b0 9cbd 96b2 bfbd 4b00 7f3d
00000230: 30c0 c03d c2ba 84bd eec5 6bbd 3579 283c
00000240: 1cf8 cfbc 7f8f 90bc 3878 733c fb80 ccbd
00000250: 457e d0bc 7b3f 8d3d 7249 d8bc 3423 e33c
00000260: b93f ee3d c401 62bd 6cf5 ba3d 48e7 ffbc
00000270: 5538 de3d 411d 9abc 4531 dd3d a9c1 e83a
00000280: b656 c63c 388a 6dbd 1563 bf3c ed7a 9d3c
00000290: 5f81 b43c 9d32 873d b27a a2bc 187e dcbb
000002a0: 9523 5c3d a2fb 97bd a0c6 6a3b 26fb 563d
000002b0: f82d b63d da89 1dbd ad2e 5f3c 350b 3a3d
000002c0: 3f5c 31bd 8e10 813c 24a8 21bd e9ef aabd
000002d0: c9c6 6ebc 2bee a9bd b65a d2bd 80fe 273e
000002e0: 43ee aabb e5c0 f53d 9d00 39bc 3f18 c1bd
000002f0: 281f 6fbd 10a2 c63d 7a29 aebc 94ac 1fbc
00000300: f6d3 403d 7cfb 70bd ff9e 2a3c 3647 823d
00000310: 14f9 26be c222 433d 3c42 2a3d 3ca6 82bd
00000320: 2336 b1bc 7e53 063e 33e7 0c3d 934b c73b
00000330: 42f1 05bd c588 063d 3cc2 19bd a771 853d
00000340: fa8f 063c 549e 003d be73 afbd b425 443b
00000350: cf60 34bd c071 37bb 9856 bbbd c624 acbd
00000360: 02cc 84bc bb51 993d f1c7 d13c 7033 3a3d
00000370: f35d 3cbd a85e b83b 7c04 a33c 819c 813d
00000380: 73f0 c5bc 942c 1abd d8f1 d43d c008 153d
00000390: 6135 913d f3a1 583d 33b5 0e3c c7ec d03d
000003a0: 3282 08be 2624 933d 66ae ccbd 5d17 863d
000003b0: feab 973c 80bf 033d 20ff 0ebd 5b5f f53d
000003c0: a8b6 9cbc 7ea0 123e d18e 58bd 7188 923d
000003d0: d20e 433d eb88 00bd 1f13 c5bd 888e e5bd
000003e0: f67f b53c ad04 0c3d a87a 6b3d 0192 80bc
000003f0: 1c28 073e 41fe 66bd 0000 413d 11b4 59bd

network_body._body_endoder.seq_layers.4.weight f4 [256, 256]
-0.0134195965 0.03453969 0.024492364 0.066029534 0.026870867 0.015816908 -0.10541637 -0.08835554
-0.04155375 -0.063009225 -0.17388082 -0.011449662 0.06161469 -0.08956924 0.112476684 0.058453746
-0.076143116 0.015349274 0.06253404 -0.008113695 -0.076038025 0.0727923 -0.03729579 -0.05166758
-0.16295917 -0.038559236 -0.017370628 -0.037116874 -0.10122563 -0.025907958 0.038958177 0.18520297
-0.023061266 -0.05515258 0.037625458 0.07254989 0.02189576 -0.01115945 -0.05225874 0.108516514
-0.0045099705 -0.043564104 0.18049546 -0.020439351 0.09447745 0.031758323 0.010883554 0.0032214632
0.0956652 0.0053906124 -0.003690621 0.041478056 0.01221676 0.035732806 -0.11794774 0.017323414
-0.010361024 0.04389422 -0.029909216 0.02051967 -0.021700436 0.06880991 0.060200687 0.014204435
-0.0073460066 -0.0024989806 0.104910165 0.055956043 0.03812936 0.119053386 -0.017596982 0.02719574
-0.03196668 -0.10925282 0.0014134612 0.059552215 -0.13536236 -0.07173929 -0.026975712 -0.013397792
0.08659564 -0.03464405 -0.034653477 0.1243426 0.010505666 0.013965455 -0.10622536 0.0016547824
0.016177729 -0.03568196 0.021091841 0.029720463 0.0040128874 0.09114598 -0.062000107 -0.07517078
0.031727236 0.03948228 0.05943265 0.051228944 -0.04469541 0.07038688 0.06956019 -0.009148217
-0.09247394 0.034381934 0.07008814 -0.044342745 -0.044083275 -0.031540226 -0.09140862 0.040064752
0.0074624564 -0.06658517 -0.02477601 -0.023624921 0.025305167 -0.102640875 0.05959997 1.8832843e-05
-0.05518373 -0.11283173 -0.10734786 -0.032859884 0.031130124 0.080470495 -0.048412435 -0.03570732
-0.020774638 -0.022898175 0.046989113 -0.017818408 0.05583071 0.058020465 -0.06841076 0.049854625
0.06607811 -0.09738486 0.0680195 -0.04379491 0.053855583 0.02044581 -0.111827135 0.056851197
0.005307635 -0.006388263 0.1227603 -0.0002392527 -0.021864379 0.003195354 0.03878725 0.08027122
0.03419717 -0.10865149 0.024756286 -0.07126797 -0.005989426 -0.02357947 -0.016017092 -0.07609627
0.08985686 -0.044609055 -0.1561473 -0.0018110223 -0.040374923 -0.06393179 -0.013500904 0.0517519
0.04536763 0.012765575 0.030551014 0.010344887 0.104271814 0.035157837 -0.028933879 0.033708155
-0.06563284 0.032304022 0.048262343 0.017616339 -0.042101935 0.081226 -0.01827278 0.010282954
-0.07363433 0.054831967 0.021111242 0.073554665 0.0009720792 -0.012773832 0.035008952 0.10521962
-0.020458013 -0.0077654026 0.0016233494 -0.05041992 -0.03473026 0.0035041363 0.15352038 -0.041108824
-0.006384669 -0.022766393 -0.029886747 -0.094529234 0.10184025 0.025619563 0.07723008 0.018774593
0.046935588 -0.0962354 0.010943047 0.056788854 -0.05053649 0.055580102 0.07079605 0.094428696
0.03390643 0.022419926 0.030958029 -0.054075528 0.15508689 -0.10499386 0.03145659 -0.08039376
0.12392252 0.0913784 0.07728889 -0.0214383 -0.074803196 -0.03482288 0.06728006 0.033139285
-0.064688966 0.07303276 0.015713716 0.016029073 -0.05910123 -0.06744556 -0.028698275 0.040513314
0.060436334 0.08734399 -0.087014556 -0.008182408 -0.008876914 -0.14820091 -0.044296026 -0.07972966
0.021456698 -0.015621985 0.081407 -0.057477243 -0.014876145 -0.052539866 0.104021944 -0.010080745
00000000: dedd 5bbc 7d79 0d3d 36a4 c83c 7e3a 873d
00000010: 4b20 dc3c 7692 813c 8ae4 d7bd c0f3 b4bd
00000020: 4434 2abd fb0a 81bd d00d 32be 5d97 3bbc
00000030: af5f 7c3d 1470 b7bd 2d5a e63d 326d 6f3d
00000040: ecf0 9bbd 857b 7b3c d911 803d 4eef 04bc
00000050: d3b9 9bbd 2114 953d 78c3 18bd 62a1 53bd
00000060: c5de 26be 4af0 1dbd d94c 8ebc dd07 18bd
00000070: 624f cfbd ed3c d4bc 9c92 1f3d d9a5 3d3e
00000080: fbea bcbc ace7 61bd 271d 1a3d 0995 943d
00000090: bd5e b33c 20d6 36bc 430d 56bd e83d de3d
000000a0: 60c8 93bb 4670 32bd cdd3 383e 6d70 a7bc
000000b0: 657d c13d 0415 023d ef50 323c 2f1f 533b
000000c0: 1eec c33d bca3 b03b 58de 71bb e5e4 293d
000000d0: ce28 483c 905c 123d 968e f1bd d5e9 8d3c
000000e0: 49c1 29bc 6dca 333d 2c04 f5bc de18 a83c
000000f0: 1dc5 b1bc 36ec 8c3d ff94 763d b8b9 683c
00000100: c5b6 f0bb f0c5 23bb 24db d63d 2a32 653d
00000110: 882d 1c3d 43d2 f33d 8c27 90bc 9ac9 de3c
00000120: 7eef 02bd f1bf dfbd e343 b93a 06ed 733d
00000130: 6e9c 0abe 0dec 92bd 2bfc dcbc 6a82 5bbc
00000140: 0e59 b13d ebe6 0dbd cef0 0dbd 55a7 fe3d
00000150: f51f 2c3c 5dcf 643c ae8c d9bd 49e5 d83a
00000160: 2887 843c 3f27 12bd ccc8 ac3c 5478 f33c
00000170: 8a7e 833b beaa ba3d d3f3 7dbd 23f3 99bd
00000180: 6bf4 013d 2cb8 213d a76f 733d 71d5 513d
00000190: 8912 37bd ff26 903d 9375 8e3d 67e2 15bc
000001a0: fa62 bdbd 12d4 0c3d 5f8a 8f3d bda0 35bd
000001b0: aa90 34bd 5330 01bd 7134 bbbd f01a 243d
000001c0: 9f87 f43b ce5d 88bd 0ff7 cabc 0d89 c1bc
000001d0: c84c cf3c 6135 d2bd 191f 743d 39fb 9d37
000001e0: 5608 62bd 5214 e7bd 32d9 dbbd 1698 06bd
000001f0: 9a04 ff3c b7cd a43d 1e4c 46bd d741 12bd
00000200: 932f aabc f494 bbbc a877 403d e9f7 91bc
00000210: beae 643d dea6 6d3d f11a 8cbd 5d34 4c3d
00000220: f653 873d b771 c7bd cf4d 8b3d 4b62 33bd
00000230: ac97 5c3d f97d a73c a005 e5bd cddc 683d
00000240: abeb ad3b a254 d1bb c169 fb3d e8df 7ab9
00000250: ed1c b3bc 2569 513b 61df 1e3d 3d65 a43d
00000260: 5512 0c3d ac84 debd b2cd ca3c f1f4 91bd
00000270: f242 c4bb bc29 c1bc 4736 83bc 5cd8 9bbd
00000280: e006 b83d fcb7 36bd 14e5 1fbe d35f edba
00000290: 2d60 25bd acee 82bd e532 5dbc cdf9 533d
000002a0: 68d3 393d b426 513c 1f46 fa3c 9a7d 293c
000002b0: 768c d53d aa01 103d be06 edbc 9011 0a3d
000002c0: 836a 86bd 3951 043d bcae 453d 2450 903c
000002d0: 1473 2cbd d159 a63d ccb0 95bc d679 283c
000002e0: 98cd 96bd 7c97 603d 7cf1 ac3c d4a3 963d
000002f0: 21d3 7e3a 5649 51bc 8c65 0f3d 627d d73d
00000300: 9097 a7bc eb74 febb 91c6 d43a 1e85 4ebd
00000310: 5141 0ebd a7a5 653b 7234 1d3e ba61 28bd
00000320: 7c36 d1bb 9680 babc 0dd5 f4bc 8b98 c1bd
00000330: 9f91 d03d 1ee0 d13c ce2a 9e3d 2dcd 993c
00000340: 883f 403d 1117 c5bd 774a 333c 6e9b 683d
00000350: 5aff 4ebd f6a7 633d 85fd 903d d563 c13d
00000360: 78e1 0a3d fea9 b73c b19b fd3c 4d7e 5dbd
00000370: 19cf 1e3e 0507 d7bd a0d8 003d 7ca5 a4bd
00000380: 17cb fd3d 9924 bb3d a349 9e3d 609f afbc
00000390: 6b32 99bd 70a2 0ebd 21ca 893d 0fbd 073d
000003a0: a67b 84bd 3392 953d 0dba 803c 674f 833c
000003b0: 2214 72bd e620 8abd a518 ebbc 4af1 253d
000003c0: 178c 773d 68e1 b23d b034 b2bd 820f 06bc
000003d0: 7a70 11bc fbc1 17be c06f 35bd 4e49 a3bd
000003e0: f5c5 af3c 5bf3 7fbc b7b8 a63d 426d 6bbd
000003f0: 13bb 73bc 0b34 57bd 7509 d53d b629 25bc

action_model._continuous_distribution.log_sigma f4 [1, 2]
0.0 0.0
00000000: 0000 0000 0000 0000

action_model._continuous_distribution.mu.weight f4 [2, 256]
0.014672528 -0.012982542 0.004802479 -0.026292427 -0.02507113 -0.005207871 0.00049097853 -0.020931698
0.016827034 -0.016646808 -0.0030160162 0.005009382 0.017750397 -0.0076336735 -0.00810374 -0.015280679
0.0016394266 0.000625229 0.0120175695 -0.0024933433 -0.0045980946 -0.009972162 -0.014275357 -0.013730623
-0.006234215 0.019700998 -0.0061807213 0.008389448 -0.000780503 0.017958991 -0.009057522 -0.0024200089
0.0072779977 -0.0058840583 0.015772387 -0.015926737 -0.002931858 0.0032985061 -0.0058460915 0.009111228
-0.0079013 -0.0089780055 -0.01943366 0.009308695 -0.02618145 -0.016903568 0.0057632397 0.0056202123
-0.0022780527 -0.0049055126 0.017394617 -0.003692848 -0.0020097883 0.010285802 0.015206592 -0.015151823
0.0026538884 0.012635618 -0.006043352 -0.013118218 -0.028889893 -0.007084086 0.002862113 0.011673298
-0.02046236 0.010948438 0.030679408 -0.0020049817 -0.016594646 -0.009673776 0.0052631246 0.009833895
-0.011197198 -0.011169817 0.015619404 0.0049917256 0.004399923 0.013101111 -0.015706487 0.0076815123
0.0034960445 -0.009915785 0.016032888 0.011539496 0.0050977874 -0.011814086 -0.00020711128 -0.000543256
-0.012574771 -0.005488121 -0.019409558 -0.0028789223 0.009311455 0.01440088 -0.006903555 0.0013426061
-0.012337033 0.008217833 0.0142164845 0.0051566293 -0.01767133 -0.0073027015 -0.00019112682 -0.010554661
0.00047278832 -0.0051717805 0.020651823 0.0069413558 -0.009840906 -0.016307214 -0.012412458 -0.0015216024
-0.008705454 -0.006177837 -0.009183936 -0.014872222 0.0017705892 -0.01215209 0.005071564 -0.015169546
-0.015063721 -0.008798219 0.006765149 0.005875285 0.013319402 0.0029789205 0.024398154 0.0009459552
-0.013043724 -0.015431903 0.024795674 -0.00991325 0.00036171667 0.0052743074 0.016173078 0.0012957278
0.0025719895 -0.017226664 -0.010180665 -0.0007440053 0.0047015836 -0.019303663 -0.012490826 -0.012591009
0.004539038 0.00011945281 0.008065174 0.0058276183 -0.009374519 0.025515413 0.008433071 -0.006760139
-0.005409522 -0.011799272 0.007510257 0.0069270185 -0.00055594055 0.018240673 -0.01960662 -0.008260283
-0.0045357537 -0.0014795628 0.007521048 0.0060584843 0.0047419025 -0.0025692536 0.022917306 0.0022928033
0.0074419803 -0.008426131 0.0059535634 -0.0117835095 -0.009722635 -0.027374143 -0.0130106835 -0.009531441
-0.014982395 0.007557966 -0.009883139 -0.0168351 -0.027098784 0.02580573 0.013084674 0.008085713
-1.4828047e-05 0.035001762 0.002412044 -0.011383714 -0.02647542 -0.0031361827 0.0099732755 0.0005611936
0.02081537 0.007752534 0.015101348 -0.015379566 -0.0032816043 -0.010155561 0.0058364454 0.0077900733
0.0043646297 -0.010747536 -0.000887685 -0.0025185086 -0.0114472145 0.003673898 0.0074182614 -0.021461347
0.015281214 -0.0067224996 0.0057544652 -0.015209979 0.0172532 0.016992575 -0.0007863341 -0.0016013772
-0.0007964672 0.0033288144 0.032721512 0.0028670623 0.02229297 0.021285005 -0.01682313 -0.0051061017
0.004385204 0.023837592 -0.020148784 0.016976971 -0.006911488 0.020612726 -0.0019424733 -0.00886885
-0.005995427 -0.0019547872 0.011070694 0.008985972 -0.0024042837 0.0027234673 -0.015958192 0.029406479
0.017304763 -0.008528529 0.02101289 -0.003920632 -0.004558999 -0.00038852033 -0.023299644 0.007914623
0.024363698 -0.0021592868 -0.015089141 -0.0055191303 -0.021097343 0.0012553147 -0.005281251 0.0010533463
00000000: 0b65 703c bab4 54bc 1d5e 9d3b 3763 d7bc
00000010: f861 cdbc caa6 aabb 03b5 003a f478 abbc
00000020: d9d8 893c e35e 88bc 5ba8 45bb be25 a43b
00000030: 4869 913c e523 fabb 8dc5 04bc d05b 7abc
00000040: 07e2 d63a 68e6 233a 57e5 443c 5c67 23bb
00000050: 9dab 96bb 4762 23bc 30e3 69bc 68f6 60bc
00000060: 6348 ccbb fd63 a13c a687 cabb e573 093c
00000070: ab9a 4cba bc1e 933c 0066 14bc 0399 1ebb
00000080: 457c ee3b 0fcf c0bb 1835 813c ca78 82bc
00000090: 6a24 40bb c02b 583b 9290 bfbb 4347 153c
000000a0: 7474 01bc 7c18 13bc 5733 9fbc 7f83 183c
000000b0: 7b7a d6bc 5a79 8abc 8fd9 bc3b c229 b83b
000000c0: 624b 15bb 6cbe a0bb 287f 8e3c b503 72bb
000000d0: a7b6 03bb c885 283c 1225 793c 5a3f 78bc
000000e0: dcec 2d3b a005 4f3c 5007 c6bb cbed 56bc
000000f0: 7faa ecbc 9f21 e8bb 4a92 3b3b 5c41 3f3c
00000100: aea0 a7bc 1461 333c 6253 fb3c 0366 03bb
00000110: 7ff1 87bc c27e 1ebc 4a76 ac3b 581e 213c
00000120: 7474 37bc 9c01 37bc 87e8 7f3c a191 a33b
00000130: 3b2d 903b 0ba6 563c e4aa 80bc 32b5 fb3b
00000140: e51d 653b d175 22bc 6757 833c 2710 3d3c
00000150: 570b a73b de8f 41bc 032c 59b9 4b69 0eba
00000160: 6a06 4ebc b2d5 b3bb cb00 9fbc 4dac 3cbb
00000170: 138f 183c abf1 6b3c 3737 e2bb 63fa af3a
00000180: 4421 4abc 17a4 063c 42ec 683c f1f8 a83b
00000190: 77c3 90bc 804b efbb 3769 48b9 75ed 2cbc
000001a0: 93e0 f739 0a78 a9bb 032e a93c 5074 e33b
000001b0: c03b 21bc b596 85bc 9f5d 4bbc 8170 c7ba
000001c0: 52a1 0ebc 746f cabb 3878 16bc 9faa 73bc
000001d0: 1d13 e83a 8f19 47bc 5d2f a63b b089 78bc
000001e0: d3cd 76bc 6826 10bc 2fae dd3b 7685 c03b
000001f0: 9f39 5a3c fe39 433b a3de c73c fbf9 773a
00000200: 58b5 55bc 18d6 7cbc 4c20 cb3c 2f6b 22bc
00000210: caa4 bd39 19d4 ac3b 677d 843c 69d5 a93a
00000220: d38e 283b ef1e 8dbc cecc 26bc 5a09 43ba
00000230: be0f 9a3b b722 9ebc 52a6 4cbc 854a 4ebc
00000240: 36bc 943b bd82 fa38 cb23 043c 9bf5 be3b
00000250: 9597 19bc b305 d13c dd2a 0a3c 2884 ddbb
00000260: 5c42 b1bb bc51 41bc 9a18 f63b 0bfc e23b
00000270: 8abc 11ba 776d 953c 109e a0bc 2356 07bc
00000280: a9a0 94bb e4ed c1ba 2073 f63b 4086 c63b
00000290: f661 9b3b ec60 28bb 13bd bb3c db42 163b
000002a0: dbdb f33b c10d 0abc 1c16 c33b 9f0f 41bc
000002b0: b04b 1fbc bd3f e0bc c32a 55bc c329 1cbc
000002c0: b878 75bc d0a8 f73b e4ec 21bc c3e9 89bc
000002d0: 45fe ddbc 8a66 d33c 1a61 563c f079 043c
000002e0: fac5 78b7 025e 0f3d 6213 1e3b c282 3abc
000002f0: fbe2 d8bc 6a88 4dbb f366 233c 111d 133a
00000300: ff84 aa3c f808 fe3b a56b 773c 93fa 7bbc
00000310: 2f10 57bb 8363 26bc a73f bf3b df43 ff3b
00000320: 2b05 8f3b 6f16 30bc 88b3 68ba 900d 25bb
00000330: 198d 3bbc c8c5 703b e314 f33b b5cf afbc
00000340: 0f5e 7a3c 6a48 dcbb f48f bc3b 4733 79bc
00000350: 9556 8d3c 0334 8b3c fd21 4eba 4de5 d1ba
00000360: 02ca 50ba 3d28 5a3b fe06 063d 53e5 3b3b
00000370: bf9f b63c e45d ae3c a9d0 89bc 1651 a7bb
00000380: c2b1 8f3b 0e47 c33c 100f a5bc 4a13 8b3c
00000390: c379 e2bb 05dc a83c 979a feba a74e 11bc
000003a0: 4975 c4bb e31b 00bb db61 353c e639 133c
000003b0: 3091 1dbb 337c 323b c1ba 82bc dbe5 f03c
000003c0: b8c2 8d3c 3ebb 0bbc 3923 ac3c a578 80bb
000003d0: a863 95bb 51b2 cbb9 e5de bebc 56ac 013c
000003e0: 6196 c73c d282 0dbb 7238 77bc d2d9 b4bb
000003f0: 56d4 acbc 5f89 a43a 580e adbb 7010 8a3a

action_model._discrete_distribution.branches.0.weight f4 [2, 256]
0.0030156681 -0.012240609 -0.0045289 -0.00083077076 0.004782257 0.0029958794 -0.003033926 -0.009348019
-0.005610214 -0.006200591 0.008710326 0.014387803 0.013007921 -0.0047426145 -0.0016324669 0.014658349
-0.0059572994 -0.011010673 0.007841863 -0.002780286 0.0045379233 0.0013409813 -0.0022944459 0.0037291308
0.010460495 0.000562132 0.003320409 -0.0007489175 -0.004163936 0.004079175 0.0015763324 0.0054002176
0.008356056 0.017481076 0.006590349 -0.011357504 0.007459269 -0.005098284 -0.0010688192 0.0010249562
0.010566133 0.0041206116 -0.0059206574 -0.004757222 -0.0017581286 0.0029469489 0.011910786 -0.0065785493
0.008108363 0.0074179596 0.0040651793 0.0044251713 0.0027401894 -0.0021695818 0.0067766733 0.0049215523
-0.0055845967 -0.006211028 0.0068800463 -0.0021574015 -0.0024485032 0.00079895474 -0.015921785 -0.0019323368
-0.0099338135 0.0005003277 -0.0011566987 -0.0076268143 -0.0043154964 -0.0065947087 0.0066793743 0.008458517
0.0029602589 0.0039343066 -0.0022139028 0.0074907853 -0.0034311793 0.0061540375 0.007396435 0.011734048
-0.005253196 0.0065479176 -0.003272421 -0.00024459 -0.010315345 0.0049155853 0.0035051454 -0.01048231
-0.010782361 0.006071057 0.0047077164 -0.0033936047 0.00321029 0.0011230967 -0.0054439665 -0.0021157232
-0.001967789 -0.004331592 0.0002583672 0.0013799444 0.0031189031 0.005504129 -0.0012811566 -0.003460039
-0.003794085 0.0050079743 -0.002001462 -0.0041500037 0.007584687 0.0033275743 -0.002518572 -0.003822141
-0.0026111756 -0.0042462745 0.010615955 -0.0065821395 0.013054474 0.005888353 0.002678486 -0.0056939228
0.0015092868 -0.01601026 -0.0009075787 -0.008561279 0.0051737307 0.00043555768 -0.009942101 -0.0033579958
0.0024896131 0.010041936 -0.0015465493 -0.0037658066 -0.00011291135 -0.0037529578 0.009013003 -0.0009971997
0.008791946 0.00868197 -0.0068266625 -0.0077607953 0.008441958 -0.013050399 -0.00036736284 -0.0036470701
0.004111962 0.0019537322 0.0002035544 -0.002991895 0.0014154989 0.011446764 -0.010683618 -0.0032885154
-0.0033269138 0.0037902829 -0.006825684 -5.8150617e-05 0.010188965 -0.0007930835 -0.008626223 -0.00846362
-0.003758501 0.0032776059 -0.0055502886 0.006419589 0.002188548 0.007601065 0.01193086 -0.0018573286
0.0002452415 -0.0032871717 0.007268148 0.010818758 0.004288306 0.0057790843 0.000752828 -0.0012707099
-0.0064160833 -0.0050421106 -0.000740823 0.0050273216 0.0011237961 0.0038812316 -0.0062953555 -0.0006805297
0.012144952 0.003744671 -0.0063142716 -0.0075082607 -0.014093662 -0.0045091035 0.012579845 -0.008794545
-0.0075698323 0.0012229485 0.0018678226 0.0071440414 -0.0036595264 -0.001331942 -0.001144315 0.00040681186
-0.0017956643 -0.0037579162 0.010487022 -0.002731929 0.0043214257 0.0005937222 0.00489286 -0.0025517722
-0.0045265476 -0.006961091 0.006774845 0.01633859 0.007940276 -0.0018125781 -0.0028736563 0.011535994
0.009902629 0.0031442593 0.003900323 0.0027729773 -0.0025306211 -0.01818362 0.0035293445 0.001462845
-0.00029533057 -0.0059351637 0.0037990205 0.00031932004 -0.0016548515 0.0053385445 -0.002749576 -0.0028686048
0.0077728764 -0.010278401 0.00012813536 0.001397685 0.0053055617 0.0036322963 -0.004410753 0.0056566135
-0.00096186757 -0.007948092 0.003832996 -0.0040997183 -0.0048941383 0.0071436292 -0.0037579245 -0.0019531844
-0.0073448005 0.0035137378 -0.013328658 -0.003826874 -0.0020153346 -0.0052336245 0.0044793207 0.0010651381
00000000: 84a2 453b d68c 48bc 2b67 94bb 15c8 59ba
00000010: 7bb4 9c3b 8456 443b d5d4 46bb 6f28 19bc
00000020: e3d5 b7bb 542e cbbb c1b5 0e3c d2ba 6b3c
00000030: 2d1f 553c ef67 9bbb 80f8 d5ba 9229 703c
00000040: 7335 c3bb 1c66 34bc 287b 003c 7535 36bb
00000050: dcb2 943b dec3 af3a 6a5e 16bb 6f64 743b
00000060: 7f62 2b3c 0a5c 133a 389b 593b 0153 44ba
00000070: a071 88bb 9aaa 853b f09c ce3a 4ff4 b03b
00000080: d7e7 083c 7934 8f3c dbf3 d73b d314 3abc
00000090: e26c f43b 820f a7bb 9f17 8cba d357 863a
000000a0: 931d 2d3c 3206 873b 1302 c2bb 78e2 9bbb
000000b0: 0271 e6ba 9921 413b 7525 433c df90 d7bb
000000c0: f0d8 043c 5b12 f33b 3235 853b 0701 913b
000000d0: c094 333b 8b2f 0ebb db0e de3b f944 a13b
000000e0: fefe b6bb e185 cbbb 0372 e13b 3163 0dbb
000000f0: 1177 20bb f270 513a 676e 82bc 7746 fdba
00000100: 6fc1 22bc 6c28 033a 5e9c 97ba 5bea f9bb
00000110: 0269 8dbb 6d18 d8bb a7de da3b 9795 0a3c
00000120: e700 423b 5beb 803b 2017 11bb 4375 f53b
00000130: a3dd 60bb cfa7 c93b cb5d f23b 2a40 403c
00000140: 0123 acbb ea8f d63b 1d76 56bb 503c 80b9
00000150: b101 29bc eb12 a13b 95b6 653b ffbd 2bbc
00000160: 80a8 30bc b8ef c63b 3043 9a3b 3d67 5ebb
00000170: bb63 523b df34 933a 4d63 b2bb f2a7 0abb
00000180: 05f6 00bb 07f0 8dbb 7575 8739 40df b43a
00000190: 8366 4c3b fb5b b43b 7bec a7ba d2c1 62bb
000001a0: 2fa6 78bb ef19 a43b f62a 03bb c1fc 87bb
000001b0: f788 f83b 6f13 5a3b a00e 25bb e37c 7abb
000001c0: 4220 2bbb 5524 8bbb 8bee 2d3c fdae d7bb
000001d0: 6fe2 553c 16f3 c03b 8a89 2f3b 1694 babb
000001e0: 43d3 c53a f327 83bc 93ea 6dba 9b44 0cbc
000001f0: 6688 a93b 905b e439 32e4 22bc d211 5cbb
00000200: c728 233b ef86 243c 95b5 caba c0cb 76bb
00000210: d2ca ecb8 2ff4 75bb 46ab 133c 78b4 82ba
00000220: 180c 103c d23e 0e3c 32b2 dfbb 454e febb
00000230: 2350 0a3c 57d1 55bc 9b9a c0b9 af03 6fbb
00000240: a3bd 863b 300a 003b 3871 5539 ab13 44bb
00000250: 4388 b93a 358b 3b3c 570a 2fbc 2284 57bb
00000260: 5a08 5abb 6566 783b fda9 dfbb c0e6 73b8
00000270: 9eef 263c efe6 4fba 0055 0dbc ffaa 0abc
00000280: 2f51 76bb 1acd 563b 32df b5bb 6a5b d23b
00000290: be6d 0f3b 5b12 f93b a779 433c 9b71 f3ba
000002a0: c293 8039 976d 57bb a529 ee3b 2941 313c
000002b0: eb84 8c3b 795e bd3b 6f59 453a f38d a6ba
000002c0: 023e d2bb 4a38 a5bb ca33 42ba 3bbc a43b
000002d0: 574c 933a 435c 7e3b 4549 cebb 9365 32ba
000002e0: 9ffb 463c 2769 753b f3e7 cebb db07 f6bb
000002f0: 1ae9 66bc 1ac1 93bb b21b 4e3c ff16 10bc
00000300: 5b0c f8bb 584b a03a bad1 f43a 9018 ea3b
00000310: aad4 6fbb 8f94 aeba d7fc 95ba 5d49 d539
00000320: 7f5c ebba 5f47 76bb c2d1 2b3c 2a0a 33bb
00000330: bf9a 8d3b 06a4 1b3a 4954 a03b a23b 27bb
00000340: 6f53 94bb dd19 e4bb 85ff dd3b 82d8 853c
00000350: ee17 023c 0794 edba f453 3cbb 7701 3d3c
00000360: a33e 223c eb0f 4e3b 909c 7f3b d7ba 353b
00000370: c7d8 25bb d1f5 94bc 934c 673b efbc bf3a
00000380: 99d6 9ab9 c37b c2bb fdf8 783b 696a a739
00000390: 9ae7 d8ba f5ee ae3b 3b32 34bb 34ff 3bbb
000003a0: 9db3 fe3b bd66 28bc 135c 0639 8732 b73a
000003b0: 47da ad3b d20b 6e3b 1488 90bb 1d5b b93b
000003c0: d725 7cba b738 02bc 0033 7b3b ee56 86bb
000003d0: 025f a0bb 1b15 ea3b 8347 76bb ff00 00bb
000003e0: a7ac f0bb bd46 663b 7260 5abc 4bcc 7abb
000003f0: b413 04bb d37e abbb 44c7 923b 1b9c 8b3a

onnx::Div_85 f4 [26]
1.0 1.0 1.0 1.0 1.0 1.0 1.0 1.0
1.0 1.0 1.0 1.0 1.0 1.0 1.0 1.0
1.0 1.0 1.0 1.0 1.0 1.0 1.0 1.0
1.0 1.0
00000000: 0000 803f 0000 803f 0000 803f 0000 803f
00000010: 0000 803f 0000 803f 0000 803f 0000 803f
00000020: 0000 803f 0000 803f 0000 803f 0000 803f
00000030: 0000 803f 0000 803f 0000 803f 0000 803f
00000040: 0000 803f 0000 803f 0000 803f 0000 803f
00000050: 0000 803f 0000 803f 0000 803f 0000 803f
00000060: 0000 803f 0000 803f

onnx::Div_88 f4 [2]
1.0 1.0
00000000: 0000 803f 0000 803f
