MLAgents Jumper Exercise/Assets/results/Jump4/JumperAgent/JumperAgent-246000.onnx (onnx, 570158 bytes, 15 tensors)

network_body.observation_encoder.processors.0.normalizer.running_mean f4 [26]
0.8369927 0.8510773 0.8369927 0.85137326 0.8369927 0.85137326 0.837041 0.8523439
0.837041 0.8523439 0.8370985 0.85421854 0.8370985 0.85421854 0.8432404 0.8615001
0.8432404 0.8615001 0.8783907 0.88922316 0.8783907 0.88922316 0.90526855 0.9119317
0.90526855 0.9119317
00000000: 2745 563f 34e0 593f 2745 563f 99f3 593f
00000010: 2745 563f 99f3 593f 5248 563f 3633 5a3f
00000020: 5248 563f 3633 5a3f 164c 563f 11ae 5a3f
00000030: 164c 563f 11ae 5a3f 9ade 573f 458b 5c3f
00000040: 9ade 573f 458b 5c3f 37de 603f 21a4 633f
00000050: 37de 603f 21a4 633f aebf 673f 5b74 693f
00000060: aebf 673f 5b74 693f

network_body.observation_encoder.processors.1.normalizer.running_mean f4 [2]
0.07157285 -0.028512355
00000000: c994 923d be92 e9bc

network_body._body_endoder.seq_layers.0.weight f4 [256, 28]
0.12367957 0.08793115 -0.024550134 -0.13371876 0.12831971 -0.07602369 0.09939817 0.068913735
-0.17175059 0.18360096 -0.17829883 -0.39055622 0.10368134 0.3043756 0.06794962 0.22405009
0.09295434 -0.22201495 -0.027844425 0.35534972 -0.197804 0.020452619 -0.34931564 0.30241066
-0.43319815 0.047174707 -0.015559681 0.23871183 -0.15798207 -0.107401825 0.04048715 -0.0014442509
-0.35673106 0.16898923 0.26644373 0.13115098 0.25916982 0.20704676 0.22621778 0.26785213
-0.20404954 -0.18070383 0.12881783 -0.5530315 0.0279537 -0.29722527 0.10713131 0.1537048
0.157297 -0.09591252 -0.23650979 0.052040707 -0.19128437 -0.24140263 0.16723914 0.09870202
0.10704276 0.30607644 0.21722779 -0.022053555 -0.18387492 -0.12253138 -0.017466966 0.10962121
0.21223147 -0.060723014 0.22610368 -0.10436475 -0.112612575 -0.08673701 0.22366004 0.30020112
0.43944186 0.07168405 -0.27296636 0.075890765 -0.09089701 -0.23671985 -0.19698954 0.1729934
-0.29148987 0.037264753 -0.14357775 0.54539436 -0.024868237 -0.24745901 -0.34091553 0.26829845
-0.03385297 0.12416913 -0.12094547 -0.23865458 0.07969182 -0.04537193 -0.25535437 0.30244038
-0.2749032 -0.24909541 0.015052056 -0.06295584 -0.23515682 -0.11395496 0.035114646 -0.104424074
-0.13226007 -0.29463696 -0.13387544 -0.12988897 -0.10917584 -0.20534772 -0.063131 -0.25008255
-0.1612662 -0.46930948 -0.25259146 -0.34989724 0.13403288 -0.23987927 -0.08204762 0.15564634
-0.089287914 -0.10261764 0.2992971 -0.16428277 0.012728966 -0.30230495 -0.07920655 0.046671674
0.023745105 0.2143754 -0.03890652 0.23912889 -0.27042904 -0.077973664 -0.13401237 -0.29901448
-0.3353566 -0.07042634 -0.060357492 0.012053738 -0.26565695 -0.5252861 0.11159896 0.34654462
-0.06722781 0.26672173 0.4905421 -0.39472446 0.04809405 0.0073896362 0.065227374 -0.21825935
-0.10544061 -0.15364985 -0.19052333 0.06020024 -0.12847242 -0.18649323 -0.09053196 -0.06353451
-0.035566576 0.00250696 -0.12726746 0.26144144 0.34156078 -0.020481724 -0.23287477 -0.092651
-0.061444353 0.1561257 0.3859549 -0.15588364 -0.20532288 -0.13927604 0.060496606 0.045988917
-0.07282513 -0.0020942609 0.26324478 -0.10576537 -0.16215938 -0.05147149 -0.045163184 0.05729763
0.01566299 0.0976014 0.08971062 0.28537768 -0.32972157 -0.3622896 0.25653696 -0.13849418
-0.19261909 -0.42834133 -0.08527635 -0.01918922 0.14311075 0.26808262 -0.17010255 0.30270475
-0.49122638 0.030843899 -0.08073515 -0.08569891 -0.27481452 -0.11022541 -0.3589735 -0.20369615
0.18714216 -0.031994324 -0.12961662 -0.00044282823 0.16560826 -0.14137141 -0.084206335 0.14888977
-0.09105837 0.21803911 -0.10295773 -0.22476605 -0.08598763 -0.114917174 -0.0016650984 -0.05163267
0.20921242 -0.06369755 0.012381046 0.123693354 -0.025106141 0.060252737 -0.11986205 -0.17204754
0.21613695 0.3265593 0.26444504 0.25896996 0.08467575 -0.20500378 -0.04557177 -0.11991845
-0.16072261 0.3380623 0.1883992 -0.11198039 -0.120783664 -0.25031596 0.31978464 0.07225673
-0.14229715 0.08394714 0.08114695 -0.43905455 -0.100130655 0.11277961 -0.069387436 0.28595355
00000000: b74b fd3d 3f15 b43d 5d1d c9bc 92ed 08be
00000010: 3e66 033e 4fb2 9bbd 4591 cb3d a522 8d3d
00000020: 63df 2fbe e401 3c3e f893 36be fcf6 c7be
00000030: e256 d43d 1ed7 9b3e 2c29 8b3d 636d 653e
00000040: d85e be3d e357 63be fe19 e4bc 66f0 b53e
00000050: 228d 4abe 408c a73c 80d9 b2be 92d5 9a3e
00000060: 26cc ddbe 443a 413d 08ee 7ebc e070 743e
00000070: 0dc6 21be 7df5 dbbd dbd5 253d 054d bdba
00000080: 74a5 b6be 830b 2d3e 506b 883e 714c 063e
00000090: e8b1 843e 1104 543e a2a5 673e ea23 893e
000000a0: 5df2 50be 6d0a 39be d2e8 033e 7993 0dbf
000000b0: 28ff e43c e92d 98be a967 db3d cb64 1d3e
000000c0: 7712 213e c96d c4bd 9f2f 72be a328 553d
000000d0: 0de0 43be 4032 77be bd40 2b3e 4924 ca3d
000000e0: 3c39 db3d 0db6 9c3e f670 5e3e a8a9 b4bc
000000f0: b549 3cbe bbf1 fabd e216 8fbc 1681 e03d
00000100: 3553 593e b2b8 78bd b987 673e 30bd d5bd
00000110: 6ca1 e6bd 2ca3 b1bd 2307 653e f6b3 993e
00000120: 86fe e03e 16cf 923d 3fc2 8bbe 9e6c 9b3d
00000130: 3628 babd b066 72be a0b7 49be 2f25 313e
00000140: 293e 95be eda2 183d 0c06 13be f79e 0b3f
00000150: 79b8 cbbc e565 7dbe 7b8c aebe 6a5e 893e
00000160: 69a9 0abd 634c fe3d 42b2 f7bd de61 74be
00000170: 7735 a33d ebd7 39bd cfbd 82be 77d9 9a3e
00000180: 1dc0 8cbe de12 7fbe e69c 763c feee 80bd
00000190: f3cc 70be 3861 e9bd 60d4 0f3d 4adc d5bd
000001a0: 2f6f 07be a8da 96be a516 09be 9d01 05be
000001b0: 9597 dfbd ac46 52be d34a 81bd d20a 80be
000001c0: f722 25be 5549 f0be ab53 81be bb25 b3be
000001d0: ea3f 093e e9a2 75be 9508 a8bd c161 1f3e
000001e0: 95dc b6bd 3229 d2bd 783d 993e be39 28be
000001f0: 278d 503c b7c7 9abe 0b37 a2bd cc2a 3f3d
00000200: 1885 c23c 3a85 5b3e 715c 1fbd 34de 743e
00000210: ad75 8abe a8b0 9fbd 8a3a 09be 6d18 99be
00000220: dcb3 abbe af3b 90bd 6b39 77bd 0b7d 453c
00000230: 3004 88be 2679 06bf ff8d e43d 4c6e b13e
00000240: bcae 89bd c08f 883e 5628 fb3e 5319 cabe
00000250: 44fe 443d c324 f23b ee95 853d 617f 5fbe
00000260: 3ff1 d7bd 6356 1dbe 8c18 43be 8794 763d
00000270: 468e 03be 15f8 3ebe d268 b9bd 621e 82bd
00000280: 42ae 11bd cf4b 243b 6752 02be a7db 853e
00000290: 0ee1 ae3e 4ac9 a7bc b976 6ebe cfbf bdbd
000002a0: 13ad 7bbd 6adf 1f3e e19b c53e f69f 1fbe
000002b0: 2940 52be 619e 0ebe 4acb 773d e05e 3c3d
000002c0: 5725 95bd de3f 09bb 05c8 863e 849b d8bd
000002d0: 1c0d 26be c5d3 52bd 08fd 38bd ebb0 6a3d
000002e0: ac4f 803c 3ee3 c73d 34ba b73d 061d 923e
000002f0: 44d1 a8be 067e b9be d058 833e 6bd1 0dbe
00000300: f03d 45be 8e4f dbbe 5ea5 aebd b632 9dbc
00000310: a08b 123e 2042 893e 5d2f 2ebe 1efc 9a3e
00000320: 0682 fbbe 58ac fc3c 7858 a5bd e982 afbd
00000330: 7db4 8cbe dcbd e1bd 60cb b7be b995 50be
00000340: 32a2 3f3e 7b0c 03bd 38ba 04be 662b e8b9
00000350: 3695 293e abc3 10be 5f74 acbd 8f76 183e
00000360: d07c babd a545 5f3e 81db d2bd 1229 66be
00000370: 481a b0bd b259 ebbd 6e3f daba c77c 53bd
00000380: c83b 563e dc73 82bd dfd9 4a3c f152 fd3d
00000390: 65ab cdbc 93cb 763d 3c7a f5bd 3b2d 30be
000003a0: 0153 5d3e c832 a73e 5765 873e b697 843e
000003b0: 7b6a ad3d 83ec 51be 77a9 3abd ce97 f5bd
000003c0: 7894 24be 8016 ad3e b8eb 403e fa55 e5bd
000003d0: 6d5d f7bd 6a29 80be d0ba a33e 56fb 933d
000003e0: 58b6 11be 7aec ab3d 5f30 a63d c2cb e0be
000003f0: 4d11 cdbd fff8 e63d 001b 8ebd 8168 923e

network_body._body_endoder.seq_layers.0.bias f4 [256]
0.0031850387 0.0019482858 -0.001660466 0.0021078822 0.0010868014 -0.0015017809 -0.0013248199 0.0033404594
-0.0026236146 -0.00075282657 -0.0012341063 0.0014204413 0.0015891866 0.0024903864 -0.0030312769 0.0036064675
-0.0013831035 0.0014459003 0.001271371 0.0027168829 0.0016440132 0.0005856589 0.0019859136 0.002410437
0.0028749923 -0.0009739611 0.00017419978 0.00271609 0.0054289224 -0.0011595652 -0.002783856 -0.0017926571
-0.0022172811 0.0015968368 0.0021256732 0.0006449921 0.003281628 0.0005682906 0.003360867 -0.0024421662
-0.0024250192 0.003065343 0.0016312167 0.0023764065 -0.0005516351 -0.0012442969 0.0005337262 0.003683312
0.0022035944 0.0023701778 0.0027128665 0.0006922081 -0.0002041452 0.0018520106 0.0027098907 -0.0017210616
0.00422036 0.0032414426 -0.0004272915 0.0009806632 0.0030069975 -0.003398518 0.0030965563 -0.00082905026
0.0017450588 -0.0016201816 0.00202637 0.0018718529 0.0018101775 0.00085961615 -0.0012697692 -0.0027552578
-0.0018344114 0.0042098705 -0.0012700645 0.0022438054 0.0015163474 0.0022631453 0.0021028891 0.00059775915
0.0031470966 0.0005257853 0.0033506404 -0.00036473485 -0.0015008071 0.0019947898 0.0033511098 0.0019051861
0.0035177653 -0.0030058029 -0.00052938296 9.264491e-05 -0.0030483063 0.0023627423 -0.0009249306 -0.0010215155
-0.0005096043 0.0022401875 0.00088122097 -0.0017214891 0.00080869277 0.001077645 0.001711479 -0.0015045144
0.0014681857 -0.00065463537 -0.0009302676 0.0012503504 0.0011839947 0.0013533091 0.0032261822 -0.0031006264
-0.0022051183 0.00095086655 -3.823851e-05 -0.0021944493 0.00129338 -0.0006286524 0.0036780436 0.0001369525
-0.0020454305 0.00010165867 0.00072545937 0.0005912716 0.00014747326 0.0036137067 -0.00075266726 0.0034453503
0.0041648233 0.0027498233 -0.00024045695 0.002211284 -0.00055664335 0.0004776881 0.002526683 -0.00069596944
0.0037505704 -0.0011186973 -0.002237459 0.00015559346 0.0020222033 6.670504e-05 0.002306539 0.0023747003
0.0024135513 0.002133853 0.0022101756 0.0013087301 -0.002280287 -0.00100094 0.000604554 0.00024151517
-0.0014252785 -0.0016109837 -0.00019211184 0.001424293 0.0031443113 -0.0023656634 -0.0019019009 0.00013197983
-0.0006272383 0.00032448446 -0.00064940716 0.0017449331 0.00049343886 0.00047992874 0.0032050556 0.004738445
-0.0029561785 0.00014771448 0.0029698387 0.0022536584 -0.00016044496 0.003336211 0.00071702007 -0.00019199743
-0.001461353 0.0017128795 0.0036469144 -0.0011580902 -0.001783024 0.0036596318 0.0027450682 -0.0007532288
-0.0019742039 0.0043202275 0.0029476273 -0.0026278219 -0.0007813514 -0.00261212 -0.00037504814 0.002062445
0.0021298185 -0.0023657363 0.0008943534 -0.0012384105 0.00037417465 8.94976e-05 0.0019577073 0.0023877462
0.0006688161 -0.0027914545 0.0024399029 0.0022883767 0.0005016519 0.00058568316 -0.0009176037 -0.00027209637
0.0034447303 0.0033429952 -2.7359069e-05 0.0002648597 0.0011403239 0.00057811616 0.00040931028 0.0014077831
-0.00019966686 0.0021081204 0.0017226031 -0.00033242456 0.00070173544 0.0039743693 0.0013739255 -0.0006888913
0.002931864 -0.0011005638 0.0030080678 -0.0017240775 0.0020612269 0.00484048 0.002025926 0.0026249255
-0.0032771325 -0.000635949 0.000858708 -0.00068061525 0.00082602265 0.0026384902 0.0018810283 -1.3107257e-05
-0.0025600325 0.0040139854 -0.0018525227 0.004502369 -0.0013609095 0.003292677 0.0032490382 0.002575837
-0.0026536891 -0.0029377341 0.0011522089 0.0029532502 0.002967749 0.00071232516 0.003650328 0.0014856594
00000000: 15bc 503b a05d ff3a fea3 d9ba 6524 0a3b
00000010: 0173 8e3a 68d7 c4ba 94a5 adba 9ceb 5a3b
00000020: f3f0 2bbb 5659 45ba bcc1 a1ba 1a2e ba3a
00000030: 414c d03a c035 233b 63a8 46bb 7c5a 6c3b
00000040: 4149 b5ba 5d84 bd3a 22a4 a63a bb0d 323b
00000050: ee7b d73a e786 193a 1a26 023b 6cf8 1d3b
00000060: 5e6a 3c3b 6c51 7fba 66a9 3639 6e00 323b
00000070: 1ae5 b13b 8dfc 97ba 5a71 36bb 97f7 eaba
00000080: ce4f 11bb f44c d13a e14e 0b3b b014 293a
00000090: 9510 573b 56f9 143a fe41 5c3b c00c 20bb
000000a0: 12ed 1ebb ece3 483b 8dce d53a 7cbd 1b3b
000000b0: 9b9b 10ba ad17 a3ba c2e9 0b3a b963 713b
000000c0: 2e6a 103b fc54 1b3b 59ca 313b 4d75 353a
000000d0: cf0f 56b9 2abf f23a 6c98 313b 3f95 e1ba
000000e0: f24a 8a3b 626e 543b 1806 e0b9 9989 803a
000000f0: 0c11 453b acb9 5ebb 98ef 4a3b 9f54 59ba
00000100: 75ba e43a 465c d4ba d9cc 043b f658 f53a
00000110: 7a43 ed3a dd57 613a 626e a6ba 8e91 34bb
00000120: a270 f0ba f4f2 893b 4b78 a6ba cf0c 133b
00000130: 2dc0 c63a 4751 143b a0d0 093b f0b2 1c3a
00000140: 853f 4e3b dbd4 093a 6b96 5b3b e239 bfb9
00000150: bbb6 c4ba 05bb 023b 4b9e 5b3b 70b7 f93a
00000160: 4f8a 663b 01fd 44bb 4ac6 0aba 5b4a c238
00000170: 18c6 47bb 3dd8 1a3b 0b77 72ba 5fe4 85ba
00000180: f796 05ba 1cd0 123b bd01 673a 97a3 e1ba
00000190: 74fe 533a c43f 8d3a b553 e03a 2033 c5ba
000001a0: 2370 c03a d69b 2bba 34dd 73ba cce2 a33a
000001b0: 4530 9b3a 8561 b13a 5b6e 533b e133 4bbb
000001c0: bf83 10bb 9343 793a 4a62 20b8 c0d0 0fbb
000001d0: a286 a93a 26cc 24ba 550b 713b e89a 0f39
000001e0: a10c 06bb 9531 d538 c12c 3e3a 91ff 1a3a
000001f0: 0da3 1a39 f0d3 6c3b a54e 45ba 63cb 613b
00000200: 1279 883b 6136 343b 2c23 7cb9 30eb 103b
00000210: b4eb 11ba 3672 fa39 b596 253b b871 36ba
00000220: 21cc 753b 41a1 92ba 55a2 12bb cd26 2339
00000230: f186 043b ffe3 8b38 4e29 173b dca0 1b3b
00000240: ac2c 1e3b 1dd8 0b3b 98d8 103b b289 ab3a
00000250: de70 15bb f931 83ba ef7a 1e3a 3c3f 7d39
00000260: 69d0 baba a527 d3ba a171 49b9 58af ba3a
00000270: ca10 4e3b 3f09 1bbb 3449 f9ba 1164 0a39
00000280: 406d 24ba 911f aa39 fa3c 2aba 3db6 e43a
00000290: 1f5a 013a f29e fb39 e90b 523b f544 9b3b
000002a0: 72bc 41bb cee3 1a39 a0a1 423b 1db2 133b
000002b0: 1e3d 28b9 55a4 5a3b 67f6 3b3a eb52 49b9
000002c0: df8a bfba b382 e03a 1201 6f3b 0fcb 97ba
000002d0: 5cb4 e9ba 6fd6 6f3b 9ae6 333b 5474 45ba
000002e0: a561 01bb b290 8d3b fb2c 413b 8937 2cbb
000002f0: 9bd3 4cba 1a30 2bbb 1ca2 c4b9 162a 073b
00000300: 6d94 0b3b 780a 1bbb 0a73 6a3a 2952 a2ba
00000310: df2c c439 a8b0 bb38 e14c 003b bc7b 1c3b
00000320: 7d53 2f3a d6f0 36bb c7e6 1f3b 97f8 153b
00000330: 4a81 033a 8888 193a 588b 70ba 28a8 8eb9
00000340: fcc0 613b 2716 5b3b 2781 e5b7 dedc 8a39
00000350: ec76 953a b88c 173a b298 d639 5d85 b83a
00000360: aa5d 51b9 6428 0a3b f8c8 e13a 4549 aeb9
00000370: abf4 373a 6d3b 823b 4a15 b43a b696 34ba
00000380: 8424 403b cb40 90ba 0123 453b 71fa e1ba
00000390: a615 073b e49c 9e3b 66c5 043b f106 2c3b
000003a0: 29c5 56bb d1b5 26ba eb1a 613a 516b 32ba
000003b0: 7189 583a 85ea 2c3b d68c f63a 3de7 5bb7
000003c0: 38c6 27bb c087 833b 59d0 f2ba 9c88 933b
000003d0: 8c60 b2ba f4c9 573b d1ed 543b 60cf 283b
000003e0: 84e9 2dbb 0087 40bb b705 973a 518b 413b
000003f0: 917e 423b 55bb 3a3a 573a 6f3b 75ba c23a

network_body._body_endoder.seq_layers.2.weight f4 [256, 256]
0.011896369 -0.04420328 0.021031108 -0.091670334 -0.02558979 0.043736625 0.09251843 -0.0023773026
0.017112888 -0.051876593 0.06894363 0.01403228 -0.061504155 -0.08633718 0.023570029 0.014016574
-0.03115387 0.098011516 0.07276461 0.03425896 0.039767876 -0.04659062 -0.02514495 0.07480249
-0.017844241 -0.0711766 0.1141461 -0.023706764 0.05367743 -0.01515243 -0.04440579 -0.0075208624
0.041387986 -0.048648424 0.05158581 0.09699849 0.012990344 -0.024965039 0.0052857683 0.009842692
-0.016024353 0.009709417 -0.0025686224 0.031158352 -0.0734812 -0.022090107 -0.031152142 -0.052152984
-0.032890324 0.01718522 -0.028167812 -0.032866765 0.038334966 -0.020473264 -0.031560786 -0.034210548
-0.029629568 0.045149986 -0.072818235 -0.03419064 -0.06665316 -0.04866193 -0.009492703 -0.079943284
-0.041695863 0.11493195 -0.010756715 0.064285085 -0.04172446 0.017889703 0.0830366 -0.063493356
0.034523938 -0.014272188 0.015992252 -0.005588014 0.011164915 0.08454886 0.030140467 0.17357999
-0.07107006 -0.025407175 -0.08253746 -0.09324974 -0.027321571 0.053214673 -0.04014349 0.07271874
0.05647112 0.05718979 0.023889957 -0.048851512 0.028995182 -0.090953544 -0.046700884 0.0655497
-0.11124113 -0.16929312 -0.014076551 -0.021239864 -0.033001926 0.119655885 -0.037505087 0.013087426
-0.009470317 0.08620763 -0.058163464 -0.017267171 0.11374192 0.07131387 0.020928806 0.018054154
0.00895342 0.06559345 -0.02834196 -0.08367612 -0.050499603 0.075069316 0.068654336 -0.0074172644
-0.015095537 0.14379057 0.07987993 0.0031779893 -0.024249716 0.042062383 0.03184796 -0.0016340488
-0.04269478 0.09183225 -0.011073202 0.019674785 0.08654613 0.03035015 -0.017555652 -0.1628567
0.04984568 -0.04680825 -0.09291719 -0.029716395 -0.04889306 0.10159209 -0.0633374 -0.11182462
0.026315475 -0.02187881 -0.08465258 -0.092331976 0.03940779 -0.007458765 0.07189407 -0.09180226
0.048617635 -0.08353371 0.024677342 0.07209985 -0.017430635 -0.0294455 -0.051277634 0.05623715
0.025719732 0.064396776 -0.027989045 0.060731366 -0.056627054 -0.011004294 0.050432034 -0.061497703
0.032008722 0.021846047 0.08800883 -0.06890077 0.04131866 -0.08095286 -0.17622873 0.122171246
0.012679046 -0.1507109 -0.09782365 0.049650356 -0.04502991 -0.00051138236 0.06520032 0.056826472
-0.03379477 -0.055798482 0.07748215 0.035793886 0.082454756 -0.033483412 0.078729816 0.034788243
-0.024136884 0.04440101 -0.0698442 -0.03862042 0.07548021 0.0004737346 0.016055161 -0.05440292
0.14319152 0.062084723 -0.009661969 -0.08726774 0.0040072193 0.057438508 -0.13384901 0.073914155
0.08186729 -0.09318422 0.0073212604 0.0054373913 0.069322035 -0.0032443858 0.026981309 -0.0953178
-0.0497058 -0.04453517 -0.084608555 -0.047269452 0.035650507 -0.056482255 -0.06649991 0.17840715
-0.03992622 -0.17605439 0.045469765 -0.026421707 -0.007032223 0.043783996 0.0113061955 0.03411951
0.01844092 0.06356629 -0.028446805 -0.07142716 0.04101095 -0.014052429 0.1797409 -0.014489141
-0.07682411 -0.038283493 0.06600454 0.053264443 0.04555174 0.13410173 0.08938521 -0.014567661
-0.053529304 0.043021098 0.056360945 -0.044821158 0.009770937 -0.017642932 -0.046925627 0.03280363
00000000: fde8 423c 800e 35bd 6e49 ac3c a8bd bbbd
00000010: aea1 d1bc 2d25 333d 4d7a bd3d 85cc 1bbb
00000020: 5430 8c3c 8d7c 54bd 5132 8d3d a6e7 653c
00000030: c8eb 7bbd 8cd1 b0bd ef15 c13c c6a5 653c
00000040: 6736 ffbc 43ba c83d 9d05 953d 2053 0c3d
00000050: a4e3 223d ced5 3ebd c8fc cdbc 0c32 993d
00000060: 162e 92bc 0ac5 91bd 6ec5 e93d b034 c2bc
00000070: dddc 5b3d e641 78bc d8e2 35bd 9171 f6bb
00000080: 7386 293d 9243 47bd a44b 533d 25a7 c63d
00000090: 74d5 543c 7b83 ccbc 3d34 ad3b 3e43 213c
000000a0: 8145 83bc 3f14 1f3c 5556 28bb cd3f ff3c
000000b0: 507d 96bd 50f6 b4bc c732 ffbc 5e9e 55bd
000000c0: 01b8 06bd 05c8 8c3c 2fc0 e6bc 4d9f 06bd
000000d0: 2005 1d3d 8cb7 a7bc e245 01bd 5c20 0cbd
000000e0: b5b9 f2bc 31ef 383d ba21 95bd 7c0b 0cbd
000000f0: 7481 88bd bb51 47bd 4887 1bbc 4eb9 a3bd
00000100: 48c9 2abd 7161 eb3d ef3c 30bc e6a7 833d
00000110: 44e7 2abd 6d8d 923c 180f aa3d ce08 82bd
00000120: f968 0d3d e5d5 69bc 2f02 833c a91b b7bb
00000130: 0ced 363c f427 ad3d 24e9 f63c f4be 313e
00000140: 2e8d 91bd b522 d0bc 6609 a9bd b8f9 bebd
00000150: 7dd1 dfbc a1f7 593d 806d 24bd 90ed 943d
00000160: 434e 673d d73f 6a3d dfb4 c33c 8618 48bd
00000170: 4e87 ed3c da45 babd 6d49 3fbd ec3e 863d
00000180: 64d2 e3bd 2d5b 2dbe 56a1 66bc 39ff adbc
00000190: 072d 07bd 250e f53d ef9e 19bd a56c 563c
000001a0: 6329 1bbc a08d b03d d03c 6ebd e273 8dbc
000001b0: 86f1 e83d 020d 923d e372 ab3c 4ee6 933c
000001c0: 5eb1 123c dc55 863d 662d e8bc 635e abbd
000001d0: acd8 4ebd f1bd 993d a59a 8c3d 860c f3bb
000001e0: 4553 77bc d63d 133e 1798 a33d d045 503b
000001f0: 57a7 c6bc 9b49 2c3d 0273 023d 942d d6ba
00000200: b9e0 2ebd 8c12 bc3d 606c 35bc 042d a13c
00000210: 193f b13d e1a0 f83c dfd0 8fbc e8c3 26be
00000220: fc2a 4c3d 02ba 3fbd 5e4b bebd cc6f f3bc
00000230: 1744 48bd 840f d03d 0ab7 81bd 4e04 e5bd
00000240: 8d93 d73c 313b b3bc 555e adbd 8c18 bdbd
00000250: 106a 213d a868 f4bb 333d 933d d302 bcbd
00000260: 4923 473d b913 abbd 2328 ca3c 16a9 933d
00000270: b1ca 8ebc b037 f1bc 7f08 52bd ed58 663d
00000280: 30b2 d23c 75e2 833d 4849 e5bc 74c1 783d
00000290: c5f1 67bd 5b4b 34bc d291 4e3d 04e5 7bbd
000002a0: 941b 033d 7bf6 b23c f93d b43d d91b 8dbd
000002b0: c13d 293d 9dca a5bd 4e75 34be eb34 fa3d
000002c0: c6bb 4f3c f553 1abe c457 c8bd 2c5e 4b3d
000002d0: 4871 38bd 4a0e 06ba bf87 853d e0c2 683d
000002e0: 626c 0abd f38c 64bd f6ae 9e3d 9c9c 123d
000002f0: 0ade a83d e725 09bd 193d a13d 1e7e 0e3d
00000300: b7ba c5bc d5dd 353d 7a0a 8fbd 7230 1ebd
00000310: 5e95 9a3d 955f f839 1d86 833c 99d5 5ebd
00000320: cca0 123e 8d4c 7e3d 3c4d 1ebc 6eb9 b2bd
00000330: fe4e 833b a444 6b3d b70f 09be 4e60 973d
00000340: 0aaa a73d 5ed7 bebd 2fe7 ef3b 252c b23b
00000350: b6f8 8d3d c39f 54bb e807 dd3c fb35 c3bd
00000360: 4f98 4bbd 836a 36bd 4047 adbd 9d9d 41bd
00000370: 4406 123d f059 67bd 1b31 88bd 5db0 363e
00000380: ad89 23bd 9a47 34be 813e 3a3d 5672 d8bc
00000390: 906e e6bb d956 333d 9f3d 393c e6c0 0b3d
000003a0: 6a11 973c 0b2f 823d 4609 e9bc 6748 92bd
000003b0: 19fb 273d 293c 66bc 000e 383e dd63 6dbc
000003c0: f555 9dbd 27cf 1cbd 632d 873d d12b 5a3d
000003d0: 7694 3a3d f751 093e 980f b73d 33ad 6ebc
000003e0: 8b41 5bbd e436 303d bcda 663d 6496 37bd
000003f0: 4816 203c e987 90bc 1635 40bd 195d 063d

network_body._body_endoder.seq_layers.2.bias f4 [256]
0.0013099703 0.0013121533 0.0006833985 -0.0013314476 0.0013000622 0.0027918143 0.00095910864 0.0006138653
-0.0005078322 -0.0026260298 -0.00087020017 -0.0023077752 0.0011977222 -0.0007171157 0.0006373656 0.0003857196
-0.0005685779 0.0010399882 0.002566396 -0.0029093728 0.0011383861 -0.0023345072 0.00035803992 0.00013082966
-0.0015758312 -0.0022275993 0.00031693198 0.0037599476 0.004381588 0.0018583465 -0.00044546003 0.002287489
0.0010905501 -0.0026222093 0.0016110409 0.0009646459 0.0022595776 -0.001946978 0.0018821096 0.0038892326
0.0022692385 0.0023560317 0.0040430813 0.0036620833 0.0004852634 0.00075568643 0.0029943027 0.002577773
0.0023919428 0.002951283 0.0002267082 0.0030518393 -0.0024325887 0.0024946362 0.003756843 -0.00051536923
-0.0024076712 -0.0013420348 0.0017304816 -0.0028868825 0.0016077533 0.002019501 -0.0015846984 -0.0011916009
-8.947226e-06 0.0015100446 0.0012483625 0.0028998195 -0.0024944511 9.679075e-05 -0.0016846274 0.0035012658
0.0037626678 1.8134353e-05 -1.7161577e-05 -0.003424768 0.002056006 -0.0005844179 0.0030622312 -0.0007101053
0.0013517428 -0.0011500455 0.0029851352 0.002725335 7.119265e-05 0.002326071 0.0002471421 0.0035278187
0.0020199916 -0.001342282 0.002392868 0.0025015925 0.00084252335 0.0010040504 0.0031986502 0.0016435346
-0.00035282955 -0.00021842873 -0.0024002586 -0.0030672255 -0.002102624 0.00086305523 -0.0017979584 0.002146801
-0.0002041481 0.0021065597 0.0020354774 0.0040910244 -0.0013719447 0.0036788194 -0.0028889237 -0.0010901933
0.0021550367 0.003726231 0.0019563898 0.0012378987 0.0034710327 -0.0003804984 -0.0027256766 -0.0019506854
0.0009354716 -0.0033325842 0.0025737523 0.0012508914 0.0033317378 -0.0027495895 -0.0029612426 0.0033061355
-0.0022796167 0.0028161372 0.0025085304 -0.0022023316 -0.0020236368 -0.0026230123 0.00041883672 -0.0026252416
0.0018977029 0.004293337 0.002515473 -0.0004884903 -0.0012568064 -0.0013588773 0.0017618695 -0.0012289124
0.0030555266 0.0009972372 0.0020259153 -0.0014339034 -0.0025133435 -0.0022495224 0.0012777504 0.0034044494
-0.0015485014 0.0022058825 0.0032116862 -0.00046316534 0.00038524406 -0.00039025303 0.00091934594 0.0029243235
-0.0006745085 -0.0013289537 -0.003965147 0.002361882 0.0005624463 -0.001852622 0.003994306 0.0019372872
0.00069264433 0.001688819 -0.002848344 -0.0024684318 -0.0009355318 -0.001799996 -0.0023825464 0.0015111228
0.0023604094 -0.0012597246 -0.0008175895 0.000848953 0.0002443923 0.0016348361 0.0019841748 -0.002249839
2.606105e-05 0.0017283836 0.00010392354 0.00020953655 -0.0033199356 -0.0017255129 0.0030674224 -0.0014032702
-0.0011722529 0.0012453008 -0.0023805997 -0.0023915202 -0.0022536465 0.00072382536 0.0012446544 0.0032508548
0.00023793039 0.00051857386 -0.0024871605 -0.000450378 -0.0019460261 0.0015606773 0.0029000044 0.0001765554
0.001408514 0.0013455283 0.0014080523 -0.00023840847 0.0030384266 -0.0036146878 0.0037168954 0.0022650738
-0.00039881977 0.002670247 0.0014051812 0.0020312006 -7.818434e-05 0.0005966181 0.0003128732 0.0032700014
0.0021977553 -0.0016860684 -0.0031253519 -0.001632973 -0.0009970387 -0.0030817161 0.003698742 0.0026005895
-0.0024592585 0.0028371527 0.0032549556 0.0024004362 0.00083862647 -0.0015853394 0.0013372804 0.0012105186
0.0003017502 0.0022822518 -0.003317714 0.0025835615 0.0032898148 0.0038504987 -0.00033887106 0.00421434
0.0033983195 0.001962937 -0.0009180545 8.8715504e-05 0.002854181 -0.0026500823 -0.0022243503 0.003530403
00000000: 4fb3 ab3a 8ffc ab3a 1926 333a f883 aeba
00000010: d966 aa3a dff6 363b b16c 7b3a ceeb 203a
00000020: 0b20 05ba 7819 2cbb 251e 64ba 0b3e 17bb
00000030: e3fc 9c3a d2fc 3bba e214 273a 693a ca39
00000040: 9e0c 15ba 3750 883a fb30 283b 2dab 3ebb
00000050: e635 953a 88fe 18bb 4eb7 bb39 522f 0939
00000060: 1f8c ceba eafc 11bb e429 a639 7469 763b
00000070: 6d93 8f3b c393 f33a a28c e9b9 b2e9 153b
00000080: caf0 8e3a 5fd9 2bbb 9029 d33a 4ae0 7c3a
00000090: 6c15 143b be31 ffba 1eb1 f63a 7fe2 7e3b
000000a0: 81b7 143b a767 1a3b d37b 843b 90ff 6f3b
000000b0: f36a fe39 4219 463a 103c 443b dbef 283b
000000c0: 24c2 1c3b 506a 413b 85b8 6d39 5e01 483b
000000d0: 116c 1fbb 0d7d 233b 5e35 763b d819 07ba
000000e0: 05ca 1dbb 37e7 afba 54d1 e23a da31 3dbb
000000f0: 40bb d23a 9b59 043b a8b5 cfba 7e2f 9cba
00000100: 0b1c 16b7 b0ec c53a 18a0 a33a e60a 3e3b
00000110: f279 23bb 23fc ca38 b7ce dcba 7e75 653b
00000120: 1797 763b 3a1f 9837 35f6 8fb7 1372 60bb
00000130: 0fbe 063b 9f33 19ba b7af 483b 5c26 3aba
00000140: f62c b13a 20bd 96ba 42a2 433b 899b 323b
00000150: 434d 9538 ff70 183b da92 8139 fa32 673b
00000160: d661 043b 83ef afba aad1 1c3b c2f1 233b
00000170: c9dc 5c3a 579a 833a 72a0 513b df6b d73a
00000180: fbfb b8b9 040a 65b9 a84d 1dbb 8103 49bb
00000190: 2dcc 09bb a83e 623a 79a9 ebba 58b1 0c3b
000001a0: 9710 56b9 350e 0a3b a565 053b 000e 863b
000001b0: d3d2 b3ba 5918 713b 1954 3dbb d1e4 8eba
000001c0: 843b 0d3b c833 743b c636 003b fd40 a23a
000001d0: 447a 633b a17d c7b9 44a1 32bb 24ae ffba
000001e0: 703a 753a 7c67 5abb 66ac 283b f3f4 a33a
000001f0: 4959 5a3b 7532 34bb 6811 42bb c0ab 583b
00000200: 9f65 15bb f18e 383b 2866 243b fe54 10bb
00000210: fe9e 04bb d8e6 2bbb 5097 db39 3f0c 2cbb
00000220: 58bc f83a 1faf 8c3b a2da 243b 070e 00ba
00000230: 6dbb a4ba 5b1c b2ba 88ee e63a 7513 a1ba
00000240: 3b3f 483b bab5 823a 38c5 043b d0f1 bbba
00000250: e8b6 24bb b96c 13bb 307a a73a 2f1d 5f3b
00000260: 16f7 caba 9190 103b 277b 523b 00d5 f2b9
00000270: 95fa c939 e09a ccb9 4300 713a 02a6 3f3b
00000280: 80d1 30ba 4930 aeba 10ee 81bb cec9 1a3b
00000290: 2271 133a aed3 f2ba abe2 823b 92ec fd3a
000002a0: 9392 353a 5d5b dd3a 48ab 3abb 6ac5 21bb
000002b0: 7a3e 75ba d8ed ebba 7f24 1cbb de10 c63a
000002c0: 19b1 1a3b 581d a5ba 8153 56ba 458c 5e3a
000002d0: c721 8039 ff47 d63a ee08 023b 0972 13bb
000002e0: ae9d da37 ee8a e23a 87f1 d938 0ab7 5b39
000002f0: 4793 59bb 9b2a e2ba cf06 493b efed b7ba
00000300: 48a6 99ba 5c39 a33a d603 1cbb 0dbb 1cbb
00000310: eab1 13bb 19bf 3d3a ac23 a33a 4b0c 553b
00000320: f47c 7939 e7f0 073a a1ff 22bb b620 ecb9
00000330: cd11 ffba a48f cc3a 000e 3e3b bb21 3939
00000340: e39d b83a 705c b03a 658e b83a 49fd 79b9
00000350: 5720 473b 66e4 6cbb 2897 733b a271 143b
00000360: af18 d1b9 50ff 2e3b 0f2e b83a e41d 053b
00000370: e6f6 a3b8 5d66 1c3a 2109 a439 854d 563b
00000380: 3708 103b 11ff dcba b4d2 4cbb 7b09 d6ba
00000390: 11af 82ba 9ef6 49bb 9866 723b a76e 2a3b
000003a0: 832b 21bb 86ef 393b 1851 553b a350 1d3b
000003b0: 45d7 5b3a 2acb cfba af47 af3a 44aa 9e3a
000003c0: 3a34 9e39 d591 153b 016e 59bb f850 293b
000003d0: ef99 573b a658 7c3b 81aa b1b9 7218 8a3b
000003e0: 57b6 5e3b 9ea4 003b 98a9 70ba c60c ba38
000003f0: 360d 3b3b 01ad 2dbb 68c6 11bb 555e 673b

network_body._body_endoder.seq_layers.4.weight f4 [256, 256]
-0.129552 -0.07112676 0.08070177 -0.014511867 -0.020005181 0.105907135 0.047265768 -0.12232274
-0.017154181 0.00744119 0.06475323 0.06551511 0.046417568 -0.022223074 -0.05057911 -0.07172728
-0.03272315 -0.07693657 0.010303927 0.05939109 -0.06823908 -0.06521135 -0.0116625335 -0.041073956
0.13562164 0.09994519 -0.0011700568 -0.06320669 0.050968047 0.050877284 0.089848444 -0.05461841
0.113092415 -0.08905108 0.05109111 0.11082484 0.039847776 0.09037669 -0.08835271 -0.012366068
0.0158308 0.016546067 -0.0013926597 -0.0013360747 0.014084125 -0.041211877 -0.037844893 0.067922436
0.032332778 0.023050409 0.15645829 -0.001152508 -0.04040512 0.10742841 -0.020218698 -0.028320609
-0.142506 0.003205873 -0.028077174 0.040634092 -0.08982068 -0.10526741 0.04095627 -0.120976724
0.098024696 -0.012317561 -0.0035356476 -0.10804235 -0.01631873 -0.087327816 0.12730627 -0.031128
0.08888897 0.028039161 0.021487333 0.025819017 0.05386396 0.0635092 0.008076969 0.009095984
0.06186 -0.037350446 0.025469562 0.060210943 0.030278288 -0.052515265 -0.072150834 0.0802313
0.056367423 0.13084318 -0.001597213 0.022956835 -0.037381895 0.012262583 -0.116950706 -0.0089979395
0.11710861 0.043702424 -0.024839701 -0.048923764 0.078661785 -0.06267299 0.015758228 0.037945397
0.097361006 -0.11693632 0.04919122 -0.1037981 0.027071958 0.0014555393 -0.0063038943 -0.05461169
-0.02202259 -0.053193767 -0.013226067 -0.03066288 -0.005166448 0.017586095 0.06543628 0.08690766
0.024628494 -0.17616263 -0.055263657 -0.009842082 0.0026820637 0.0024853982 -0.020615285 -0.08901832
0.04184944 -0.06379548 0.02617697 -0.013164213 -0.011766497 0.025551897 -0.2122845 0.049940683
-0.0068564536 -0.08593962 0.06277194 -0.061659437 -0.08982571 0.016660623 -0.047063768 -0.054777004
0.046602022 -0.14986257 0.013492852 0.06410198 -0.062821895 -0.024687838 -0.09040005 0.019361464
-0.05416333 -0.000891204 -0.04173356 0.038027864 0.008531548 -0.04558515 0.07695918 -0.016102495
0.15922196 0.017364657 -0.015624474 -0.021298071 -0.029531987 0.041830275 -0.0605088 -0.03041821
0.09996344 -0.010681902 0.057189263 -0.009983311 0.011537019 -0.035051562 0.14733788 -0.032875467
-0.07094882 -0.17185976 -0.06760228 0.047097065 -0.03904963 0.012233131 0.067139685 -0.0004380256
0.018916262 -0.024402136 0.05889871 0.017862273 0.011980491 0.060445957 -0.0043741623 -0.07325325
0.10932006 -0.03615003 0.0110387 0.10502822 -0.067529514 0.0026620908 -0.03876984 0.017028406
0.08887066 0.08159977 0.014696595 -0.17268652 0.020270845 -0.016885305 -0.052035734 0.017861836
0.0206375 0.1762869 0.027156109 0.038864724 -0.0457813 0.038963143 -0.046854384 0.037056617
0.107354924 -0.0072860993 0.03448513 0.0004403321 0.06425485 0.026122866 0.13563287 -0.07541724
0.04247365 -0.019887943 0.060039356 -0.096370466 -0.021956366 -0.038560685 0.07784103 0.04576163
-0.04486233 0.06945183 0.006564255 0.044935 0.055229563 0.0069054696 -0.06737917 -0.08507199
0.006854805 -0.077561505 0.037121117 -0.027748624 -0.028672218 -0.011280261 0.13720974 -0.04288178
-0.02460235 0.090021335 0.053223085 0.0716396 0.12114021 -0.10822547 -0.15094957 0.0042209737
00000000: 48a9 04be e8aa 91bd f846 a53d 2fc3 6dbc
00000010: e8e1 a3bc d7e5 d83d c099 413d 5884 fabd
00000020: ed86 8cbc 3ad5 f33b 579d 843d c92c 863d
00000030: 5920 3e3d 2a0d b6bc 0a2c 4fbd c1e5 92bd
00000040: b608 06bd ec90 9dbd cdd1 283c 1244 733d
00000050: eec0 8bbd 878d 85bd 3614 3fbc 2a3d 28bd
00000060: 66e0 0a3e 10b0 cc3d 975c 99ba 8272 81bd
00000070: dfc3 503d b364 503d 7602 b83d 8eb7 5fbd
00000080: ff9c e73d 6a60 b6bd e944 513d 22f8 e23d
00000090: 6c37 233d 6a17 b93d 44f2 b4bd 0c9b 4abc
000000a0: 98af 813c 9e8b 873c e889 b6ba 3a1f afba
000000b0: 1ac1 663c c9cd 28bd 3f03 1bbd eb1a 8b3d
000000c0: 606f 043d 36d4 bc3c 9a36 203e c00f 97ba
000000d0: d77f 25bd 6d03 dc3d afa1 a5bc 9f00 e8bc
000000e0: 18ed 11be a019 523b 1a02 e6bc ef6f 263d
000000f0: e8f3 b7bd 7196 d7bd c3c1 273d a5c2 f7bd
00000100: 2cc1 c83d 98cf 49bc 53b6 67bb 4f45 ddbd
00000110: dbae 85bc edd8 b2bd 935c 023e 2600 ffbc
00000120: 6c0b b63d 62b2 e53c 3406 b03c 6782 d33c
00000130: 75a0 5c3d 1d11 823d 4355 043c 5207 153c
00000140: e960 7d3d c8fc 18bd 8ba5 d03c c09f 763d
00000150: 2c0a f83c 3f1a 57bd d1c3 93bd 4f50 a43d
00000160: 87e1 663d c1fb 053e 9359 d1ba f90f bc3c
00000170: c21d 19bd 00e9 483c da83 efbd 186c 13bc
00000180: a4d6 ef3d 5001 333d a17c cbbc 4964 48bd
00000190: 6e19 a13d b25a 80bd 6617 813c a26c 1b3d
000001a0: 3565 c73d 4f7c efbd bc7c 493d 1994 d4bd
000001b0: 03c6 dd3c cbc7 be3a e690 cebb 82b0 5fbd
000001c0: b868 b4bc b5e1 59bd 25b2 58bc b830 fbbc
000001d0: 4f4b a9bb b710 903c 7503 863d a5fc b13d
000001e0: b2c1 c93c fa63 34be 255c 62bd af40 21bc
000001f0: 90c5 2f3b 10e2 223b 63e1 a8bc 3d4f b6bd
00000200: 526a 2b3d 34a7 82bd 1671 d63c b6ae 57bc
00000210: 44c8 40bc 3652 d13c 1c61 59be 9a8e 4c3d
00000220: 1aac e0bb 1d01 b0bd 938e 803d 9b8e 7cbd
00000230: 8bf6 b7bd dc7b 883c f0c5 40bd da5d 60bd
00000240: c3e1 3e3d 9375 19be 2011 5d3c e647 833d
00000250: c4a8 80bd 263e cabc a923 b9bd ef9b 9e3c
00000260: 5eda 5dbd b09f 69ba cff0 2abd 1bc3 1b3d
00000270: e8c7 0b3c 7fb7 3abd c69c 9d3d 61e9 83bc
00000280: 150b 233e 5340 8e3c cbfd 7fbc 4b79 aebc
00000290: 11ed f1bc 3956 2b3d 13d8 77bd 9c2f f9bc
000002a0: a2b9 cc3d 2503 2fbc 4a3f 6a3d 0b91 23bc
000002b0: c405 3d3c 3a92 0fbd bedf 163e 6da8 06bd
000002c0: 9d4d 91bd 01fc 2fbe 1073 8abd dae8 403d
000002d0: 81f2 1fbd 786d 483c 8880 893d cda6 e5b9
000002e0: 47f6 9a3c fde6 c7bc c63f 713d e753 923c
000002f0: d249 443c 2e96 773d 2255 8fbb cd05 96bd
00000300: 32e3 df3d 0e12 14bd aadb 343c 0919 d73d
00000310: ea4c 8abd 7976 2e3b 20cd 1ebd 287f 8b3c
00000320: d201 b63d c81d a73d fdc9 703c bcd4 30be
00000330: 0b0f a63c 0d53 8abc 6c23 55bd fc52 923c
00000340: f90f a93c 8e84 343e 7d76 de3c 9e30 1f3d
00000350: 2c85 3bbd d197 1f3d 62ea 3fbd aec8 173d
00000360: e6dc db3d 3bc0 eebb 4840 0d3d 60dc e639
00000370: 0c98 833d 9fff d53c 58e3 0a3e 5b74 9abd
00000380: daf8 2d3d 0aec a2bc d4eb 753d e15d c5bd
00000390: d6dd b3bc cff1 1dbd 1e6b 9f3d 8c70 3b3d
000003a0: 90c1 37bd c33c 8e3d f618 d73b c30d 383d
000003b0: 6538 623d 4747 e23b 17fe 89bd 393a aebd
000003c0: 469e e03b 91d8 9ebd 500c 183d 1551 e3bc
000003d0: 00e2 eabc d8d0 38bc b680 0c3e cea4 2fbd
000003e0: de8a c9bc 1b5d b83d 7300 5a3d c8b7 923d
000003f0: 5c18 f83d 51a5 ddbd 8692 1abe 1850 8a3b

network_body._body_endoder.seq_layers.4.bias f4 [256]
-0.002636993 -0.002736261 -0.0021155681 0.0033531266 -0.002190872 0.0024013447 0.0019278859 -0.0022050003
0.00071606354 0.0019864242 0.0035914325 -0.0028640402 -0.00050792034 0.0031876303 0.00070066325 0.0015736572
-0.0004853413 -0.0016074239 0.0019900163 0.0009497041 0.0003960843 0.001923796 0.0005677968 0.0016041329
0.0027371258 0.0012605278 0.0015959161 0.0029791007 0.0020296266 -0.0019342755 -0.002869964 0.002204545
-0.0027267847 0.0037060238 -0.000434914 8.6108616e-05 -0.0018787761 -0.002896061 -0.00043356937 0.0002968167
-0.00305218 -0.0010606821 -0.0013570815 -0.002562206 -0.0017338225 -0.0008629047 -0.0029365015 0.0022326272
-0.00071184855 -0.0025185088 0.0028819798 0.0026365584 -0.0007312239 0.0019870368 -0.00061601336 -2.6846075e-05
-0.0026091835 0.0032218464 0.0012193669 -0.00056973274 0.0034216975 0.0019081947 0.00056980114 0.0034970439
-0.00085602776 -0.0008917982 -0.003203542 -0.0010652305 0.00022940489 0.0038233316 -0.001875977 0.0005793782
-0.0019090369 0.0027372632 -0.0005197973 0.0025615357 -0.0019830402 -0.0026494763 0.0026216172 0.00094295054
-0.0018891537 0.0011943737 -0.001906434 0.0017200597 -4.563257e-05 -0.0018302655 -6.397776e-05 0.0009584765
0.00073167006 -0.0033594884 -0.0032967224 -0.0018810248 -0.0012219786 0.0029809654 -0.0032677762 -0.002669259
0.00036531207 1.9477911e-05 -0.002834227 0.0026495848 0.0014594602 0.0022125086 0.00097637513 -0.002531274
0.0013579159 0.00030168777 -0.00034173162 0.002961865 -0.001629652 -0.0013058783 -0.0018754844 0.0022462453
0.003461662 0.0019747189 -0.00082470255 0.0015207765 -0.00148577 0.00041678766 -0.0011052851 -0.00010877812
0.000127123 0.0019149098 0.003547282 -0.0012430723 -0.0005880126 0.0001677327 -0.002203791 -0.0031122542
-0.0027001365 -0.0011000037 -0.0021776916 -0.0019959987 -0.0013666211 0.0015726088 -0.0011284153 0.0021420363
-0.0021800005 0.0029791363 0.0014780349 -0.001641845 0.002965315 0.0024423355 -0.0011291896 -0.0016308369
0.0015616395 -2.85939e-05 0.0018212256 -0.0012279934 -0.0023291267 -0.0028605442 0.00037476278 0.0034150835
0.002600914 -0.0033846633 -0.0013103249 0.0028157793 0.0024269957 0.0010447302 -0.0015485595 -0.0031542683
0.00017591345 0.002952067 -5.080052e-05 0.0026698043 -0.0023249818 0.0035748002 0.0014558741 -0.0020396104
-0.0015846431 0.001677189 0.00029813545 0.0010212569 0.00061583857 0.0008348385 -0.0018885377 0.0033307555
-0.0022195526 0.0011966923 -0.0010989226 -0.0020043117 0.0017748977 -0.0030495597 -0.001892329 0.0022775065
0.00022692177 0.0026544123 0.0037205385 -0.0011736852 0.0028563973 -0.0009791087 0.0008747465 0.0016820497
-0.0009339529 -0.0012804074 0.0007389316 -0.0018278962 -0.0023366667 0.0023048401 0.0013968645 0.002439578
0.0013263592 0.0019961656 -0.00022041837 -0.0022494558 0.0024485386 -0.0020968537 -0.0019951633 -0.0030004624
0.0027559483 0.0026078147 -0.0011715315 -0.00078170985 0.0030588605 0.0013870922 0.0014451734 -0.0018706863
0.003936234 -0.0014389054 0.0019140489 0.001704755 -0.0010551674 0.0029436813 0.0027977163 0.0011949161
0.0032201135 -0.0021255151 0.0028072582 -0.0026371826 -0.0003333083 -0.002705927 -0.0012355873 0.0033623425
0.0011030778 -0.00095658196 0.00083880086 0.0008838793 -0.0011329475 -0.0022139295 0.0019600834 0.0025957488
0.002419536 -0.00027417764 0.0027246738 -0.0006279792 0.0015450387 -0.00060303067 0.003461028 0.003174435
0.0011529428 0.0024632353 -0.003093617 -0.001618885 0.0021507367 0.00037334405 0.0012747615 0.0043137046
00000000: 67d1 2cbb d852 33bb 58a5 0abb 21c0 5b3b
00000010: bc94 0fbb e15f 1d3b 1eb1 fc3a c481 10bb
00000020: 36b6 3b3a ab2e 023b 3d5e 6b3b 9fb2 3bbb
00000030: f525 05ba 90e7 503b b7ac 373a 2c43 ce3a
00000040: 6875 feb9 32b0 d2ba ef6a 023b 90f5 783a
00000050: 89a9 cf39 e227 fc3a 33d8 143a c541 d23a
00000060: 5a61 333b 4b38 a53a 0f2e d13a 043d 433b
00000070: 7c03 053b 8487 fdba 0216 3cbb 217a 103b
00000080: dbb3 32bb c3e0 723b 2b05 e4b9 3695 b438
00000090: 4441 f6ba d7cb 3dbb b250 e3b9 109e 9b39
000000a0: 1507 48bb 9606 8bba 19e0 b1ba afea 27bb
000000b0: 6e41 e3ba 8e34 62ba 5272 40bb 4551 123b
000000c0: 599b 3aba 910d 25bb 99df 3c3b 1cca 2c3b
000000d0: 9baf 3fba f238 023b f57b 21ba 8233 e1b7
000000e0: d6fe 2abb 9d25 533b 2ad3 9f3a 1e5a 15ba
000000f0: 8f3e 603b 641c fa3a b55e 153a a92e 653b
00000100: 0d67 60ba 90c7 69ba 84f2 51bb 349f 8bba
00000110: 688c 7039 dc90 7a3b 58e3 f5ba 6ae1 173a
00000120: a638 faba a863 333b 0243 08ba 70df 273b
00000130: e5f5 01bb d6a2 2dbb 70cf 2b3b 5730 773a
00000140: 7b9d f7ba 888c 9c3a 4fe1 f9ba a073 e13a
00000150: 9965 3fb8 85e5 efba cc2b 86b8 4542 7b3a
00000160: 8ccd 3f3a dd2a 5cbb d30d 58bb b88c f6ba
00000170: cc2a a0ba 4d5c 433b 3028 56bb bcee 2ebb
00000180: 5b87 bf39 7f64 a337 70be 39bb a8a4 2d3b
00000190: 5c4b bf3a bcff 103b 6df3 7f3a bbe3 25bb
000001a0: 19fc b13a d92b 9e39 712a b3b9 d91b 423b
000001b0: 0c9a d5ba 012a abba d0d2 f5ba be35 133b
000001c0: 0ddd 623b 496a 013b da30 58ba cb54 c73a
000001d0: 2bbe c2ba 4b84 da39 37df 90ba cf1f e4b8
000001e0: 524c 0539 b6fd fa3a 8479 683b 96ee a2ba
000001f0: dc24 1aba 67e1 2f39 7a6d 10bb f6f6 4bbb
00000200: c6f4 30bb 002e 90ba 9ab7 0ebb 4dcf 02bb
00000210: 3220 b3ba ff1f ce3a 56e7 93ba 6861 0c3b
00000220: 57de 0ebb 9d3d 433b 9fba c13a 2d33 d7ba
00000230: bb55 423b 970f 203b 5101 94ba cec1 d5ba
00000240: edaf cc3a efdc efb7 31b6 ee3a 9ff4 a0ba
00000250: 43a4 18bb f877 3bbb cf7b c439 98cf 5f3b
00000260: 1974 2a3b 3ad1 5dbb 35bf abba f088 383b
00000270: 3b0e 1f3b 54ef 883a 09f9 caba d7b7 4ebb
00000280: 6875 3839 7777 413b a512 55b8 e2f7 2e3b
00000290: b95e 18bb 3247 6a3b 07d3 be3a fcaa 05bb
000002a0: cdb3 cfba 20d5 db3a 104f 9c39 b2db 853a
000002b0: 3a70 213a 10d9 5a3a cf88 f7ba ce48 5a3b
000002c0: ea75 11bb 55da 9c3a b909 90ba c55a 03bb
000002d0: afa3 e83a 1fdb 47bb 0608 f8ba 3842 153b
000002e0: d9f1 6d39 a6f5 2d3b 47d4 733b 57d6 99ba
000002f0: 6532 3b3b 7055 80ba 3e4f 653a 3978 dc3a
00000300: 85d4 74ba 58d3 a7ba dcb4 413a 0596 efba
00000310: c322 19bb cd0c 173b ff16 b73a 54e1 1f3b
00000320: 3bd9 ad3a 1ad2 023b 1b20 67b9 9b6b 13bb
00000330: a977 203b 5e6b 09bb 49c1 02bb 68a3 44bb
00000340: 249d 343b dfe7 2a3b 138e 99ba a9eb 4cba
00000350: 2a77 483b 17cf b53a f96b bd3a d131 f5ba
00000360: 86fb 803b a799 bcba d3e0 fa3a 1672 df3a
00000370: 8b4d 8aba c7ea 403b e459 373b bb9e 9c3a
00000380: 8a08 533b 3a4c 0bbb faf9 373b 95d4 2cbb
00000390: e2bf aeb9 ec55 31bb 6ef3 a1ba bf5a 5c3b
000003a0: 2695 903a 21c3 7aba f9e2 5b3a 23b4 673a
000003b0: 697f 94ba 9317 11bb be74 003b 701d 2a3b
000003c0: 1491 1e3b 80bf 8fb9 7190 323b f99e 24ba
000003d0: e582 ca3a b414 1eba 6ad2 623b 2f0a 503b
000003e0: 571e 973a 3b6e 213b 48be 4abb c430 d4ba
000003f0: 60f3 0c3b 64bd c339 e615 a73a fa59 8d3b

action_model._continuous_distribution.log_sigma f4 [1, 2]
-0.0030384983 0.001052668
00000000: 8b21 47bb adf9 893a

action_model._continuous_distribution.mu.weight f4 [2, 256]
0.008666277 -0.0023926937 -0.00095725915 0.0069822716 0.0007663263 0.0016416284 0.012514146 0.006362324
-0.015751097 0.0077647003 -0.0033767652 -0.001969936 0.012321865 0.004680927 0.01734441 -0.0040198746
0.0115448255 -0.021636926 -0.012322858 -0.004789597 -0.016058953 0.016751153 0.027205938 -0.009276762
-0.012286134 -0.0066801347 0.009543338 -0.024605043 -0.016143912 -0.011000887 0.0032419225 -0.00860025
0.0052731093 -0.0013690377 -0.015589484 0.010212628 0.02413036 -0.0062790005 -0.009929886 0.0077528567
0.008199656 0.023971545 -0.013507085 -0.0095587075 -0.0057438505 -0.006809383 0.013291572 -0.008735062
-0.008569012 0.007330674 -0.003925972 0.009268834 0.0013021682 0.019527199 -0.0056741615 -0.0023952636
0.0021249813 -0.0059961327 0.020038633 -0.008829462 -0.0025185246 -0.026371565 -0.020868145 -0.0013948786
0.010345294 -0.025272107 5.8411533e-05 -0.0052883644 0.0029978198 -0.0029658957 -0.009873688 -0.00045297394
0.009808121 0.00804554 -0.003508502 -0.004952695 0.015649231 0.010621406 0.004371068 0.0072145844
-0.006147345 0.0009466866 -0.018938297 -0.009374048 0.0073773433 -0.014673774 -0.014027757 -0.01148294
0.007875673 0.0011636977 0.005247156 0.024779532 0.010528735 0.0014289331 0.0005580508 0.015514587
-0.027464988 0.014773043 0.002207955 -0.0017197961 0.0191125 0.0150404405 0.010099502 -0.008550006
-0.009549572 0.01200806 0.0008135113 -0.0001498928 0.0027135694 -0.0034023575 0.030874217 -0.011433518
-0.0013860099 -0.00060193625 0.0043989904 0.0048389584 0.00717401 -0.011991791 0.006938277 -0.026734205
-0.017094593 -0.0041157845 -0.003910111 -0.004164634 -0.00519726 -0.01076033 -0.008056415 -0.0014781178
0.009632793 0.0060957293 0.0030698916 0.009392138 0.013096329 0.011078834 0.013702162 0.0007954395
-0.0026548945 -0.0010525335 -0.004568535 -0.012218692 -0.008891835 -0.014867797 -0.0065342323 -0.0070347046
-0.020343367 0.017584722 -0.011424315 -0.016361373 -0.008936235 0.0045869565 0.011164871 -0.009936739
0.0014420205 0.004171061 -0.011105458 -0.0056333155 0.01642452 -0.014385564 0.018100064 0.0017157492
-0.011652053 0.00096600613 0.0062921434 -0.004434837 -0.008655333 -0.004906533 -0.009645398 -0.0016650133
-0.01704712 -0.00654833 0.0054299245 0.008767973 0.009216581 0.00504298 -0.0006536383 -0.006525254
-0.012912049 -0.008149298 0.0051302966 0.0059952717 -0.012341514 0.011302784 0.02609599 0.014950046
-0.014288668 0.0041327546 -0.00880631 -0.009244524 -0.0072054756 0.006321498 0.011931063 -0.0007143527
-0.0032776252 -0.013149009 0.026744975 -0.007549268 0.013060052 0.010524717 -0.004305681 0.0010897635
-0.006409632 0.0020921119 -0.014562238 -0.014129918 -0.0069570057 0.00824842 2.9355675e-05 0.00032038047
-0.005795129 0.01052895 0.010227302 -0.015643982 -0.0072346204 0.0037294663 -0.031889185 0.008716975
-0.0025631192 0.008081136 0.011345074 0.0052567986 -0.01565855 -0.015021183 -0.02163222 -0.013425466
0.00616018 0.008186519 0.013179994 -0.0067996783 -0.0040230835 -0.0021352053 -0.012293806 -0.007562613
-0.0054592267 -0.012130147 -0.008528206 0.022958742 -0.020757383 0.017747235 -0.020236894 -0.0022781126
-0.008277259 -0.0057737357 -0.012755414 0.014670544 0.019653572 -0.025075555 -0.013013784 -0.017441213
0.009782737 -0.0030597874 0.016389214 0.013075937 0.009353684 -0.015586605 -0.028289517 -0.0005198885
00000000: 00fd 0d3c bdce 1cbb 93f0 7aba 8acb e43b
00000010: 4ae3 483a e92b d73a 2208 4d3c 0b7b d03b
00000020: 7208 81bc 076f fe3b b84c 5dbb 0b1a 01bb
00000030: a6e1 493c 7662 993b dd15 8e3c 27b9 83bb
00000040: 8226 3d3c ec3f b1bc d0e5 49bc 0df2 9cbb
00000050: 118e 83bc b739 893c fdde de3c 8ffd 17bc
00000060: c84b 49bc 08e5 dabb a95b 1c3c 8490 c9bc
00000070: 3d40 84bc 103d 34bc 6f76 543b 10e8 0cbc
00000080: 0cca ac3b 4871 b3ba 096b 7fbc de52 273c
00000090: 08ad c53c 13c0 cdbb f6b0 22bc ad0b fe3b
000000a0: da57 063c f95f c43c d24c 5dbc 209c 1cbc
000000b0: e936 bcbb 3f21 dfbb e5c4 593c 811d 0fbc
000000c0: 0b65 0cbc 2736 f03b 71a5 80bb 4fdc 173c
000000d0: 84ad aa3a 81f7 9f3c 51ee b9bb dbf9 1cbb
000000e0: 4543 0b3b 357b c4bb 0f28 a43c 73a9 10bc
000000f0: d50d 25bb 2e09 d8bc acf3 aabc 5cd4 b6ba
00000100: 4f7f 293c 7307 cfbc e8fe 7438 044a adbb
00000110: 1277 443b 795f 42bb 40c5 21bc 227d edb9
00000120: 3eb2 203c 71d1 033c e5ee 65bb 384a a2bb
00000130: d132 803c 6805 2e3c 2d3b 8f3b 5268 ec3b
00000140: ab6f c9bb 102b 783a 7d24 9bbc 9b95 19bc
00000150: a4bd f13b 456a 70bc add4 65bc f122 3cbc
00000160: f708 013c 3787 983a 56f0 ab3b 72fe ca3c
00000170: b780 2c3c 0a4b bb3a 284a 123a e530 7e3c
00000180: 41fe e0bc a20a 723c 57b3 103b c86a e1ba
00000190: d191 9c3c 2e6c 763c 6278 253c 5315 0cbc
000001a0: cf75 1cbc 74bd 443c d241 553a 8b2c 1db9
000001b0: 24d6 313b 16fa 5ebb edeb fc3c a653 3bbc
000001c0: c6aa b5ba 42cb 1dba 6825 903b 2090 9e3b
000001d0: f513 eb3b 3879 44bc 7c5a e33b b101 dbbc
000001e0: f609 8cbc b4dd 86bb 6320 80bb 7b77 88bb
000001f0: c74d aabb 184c 30bc 0eff 03bc 67bd c1ba
00000200: ddd2 1d3c afbe c73b 3c30 493b 7be1 193c
00000210: fc91 563c ff83 353c 087f 603c 0b85 503a
00000220: bdfd 2dbb 2af5 89ba a6b3 95bb e930 48bc
00000230: 0faf 11bc 0f98 73bc 1d1d d6bb 6183 e6bb
00000240: 22a7 a6bc d60d 903c 0d2d 3bbc 4908 86bc
00000250: 4969 12bc 2e4e 963b ddec 363c b4cd 22bc
00000260: 2e02 bd3a 65ad 883b abf3 35bc ad97 b8bb
00000270: b78c 863c 6eb1 6bbc 9646 943c fde2 e03a
00000280: 41e8 3ebc 933b 7d3a 532e ce3b 1c52 91bb
00000290: 19cf 0dbc fbc6 a0bb bb07 1ebc 933c daba
000002a0: 67a6 8bbc 6093 d6bb 82ed b13b 8ba7 0f3c
000002b0: 2401 173c 953f a53b ec58 2bba ccd1 d5bb
000002c0: 0f8d 53bc a284 05bc 0c1c a83b fc73 c43b
000002d0: 1034 4abc 502f 393c 42c7 d53c 0af1 743c
000002e0: 041b 6abc 0f6c 873b 5748 10bc 5876 17bc
000002f0: e91b ecbb 9224 cf3b 817a 433c 6643 3bba
00000300: 6dcd 56bb f16e 57bc 4718 db3c da5f f7bb
00000310: d4f9 553c dd6f 2c3c ac16 8dbb 65d6 8e3a
00000320: e407 d2bb d01b 093b 7496 6ebc 2c81 67bc
00000330: 98f7 e3bb 6224 073c d540 f637 bdf8 a739
00000340: 11e5 bdbb 9e81 2c3c 6a90 273c cf27 80bc
00000350: 6510 edbb 106a 743b 3c9e 02bd a5d1 0e3c
00000360: 01fa 27bb be66 043c b0e0 393c 3941 ac3b
00000370: 5c46 80bc 681b 76bc 0e36 b1bc 7cf6 5bbc
00000380: 56db c93b c020 063c e7f0 573c d6cf debb
00000390: 12d4 83bb cdee 0bbb f66b 49bc cccf f7bb
000003a0: 50e3 b2bb 86bd 46bc e3b9 0bbc f913 bc3c
000003b0: 630b aabc a662 913c d8c7 a5bc 634c 15bb
000003c0: 579d 07bc 9b31 bdbb 15fc 50bc b95c 703c
000003d0: 8700 a13c 406b cdbc c437 55bc e0e0 8ebc
000003e0: c647 203c b786 48bb ac42 863c 743c 563c
000003f0: 3240 193c f65e 7fbc 6bbf e7bc 2049 08ba

action_model._continuous_distribution.mu.bias f4 [2]
-0.0004997882 -0.0029343918
00000000: 3804 03ba ed4e 40bb
