MLAgents Jumper Exercise/Assets/results/beta_3/JumperAgent/JumperAgent-18999972.onnx (onnx, 570158 bytes, 15 tensors)

network_body.observation_encoder.processors.0.normalizer.running_mean f4 [26]
00000000: 6a14 373f 251b 423f 6a14 373f 7256 423f
00000010: 6a14 373f 7256 423f 6a14 373f 8a16 433f
00000020: 6914 373f 8916 433f 6914 373f 9289 443f
00000030: 6a14 373f 9389 443f 0715 403f 43f6 4c3f
00000040: 0615 403f 43f6 4c3f 7310 5a3f 0cd8 603f
00000050: 7310 5a3f 0bd8 603f d9d5 6d3f d137 713f
00000060: dad5 6d3f d237 713f
0.71515524 0.7582267 0.71515524 0.75913155 0.71515524 0.75913155 0.71515524 0.76206267
0.7151552 0.7620626 0.7151552 0.76772416 0.71515524 0.7677242 0.75032085 0.80063266
0.7503208 0.80063266 0.8518135 0.8782966 0.8518135 0.87829655 0.9290443 0.94225794
0.92904437 0.942258

network_body.observation_encoder.processors.1.normalizer.running_mean f4 [2]
00000000: a6bf e33e 3599 d8bc
0.44482154 -0.026440242

network_body._body_endoder.seq_layers.0.weight f4 [256, 28]
00000000: 62a9 783e 59ee 08be 41c0 8f3d 0c99 113e
00000010: fe3b 553e 52ad c03d c35f 223e 5d8c 473c
00000020: 729f 5b3e 9e1c 7b3e 4786 6cbe 7799 393e
00000030: 6a77 853c a096 0fbd 44e0 f13d 17c1 8fbe
00000040: a857 1f3c cba8 09bd 1c8d f6bc f13f 7b3e
00000050: 0fdc 02bf 61ea 6e3d 1b97 0d3e 609e e13b
00000060: a945 81be 92be 1d3e 1a39 a03d 39fc 0d3e
00000070: 31dc 953d bd7f a2bd 2ddb 2cbe 2343 05be
00000080: 3a7e 283e c3b7 77bd d460 ad3e dabe 183c
00000090: db97 3dbe 9944 093e 5b69 30be 5f8a 8e3e
000000a0: 9dce 3d3e 179c c1be b609 df3e bfb0 13bf
000000b0: 5612 0a3d f9dd 17bc 1830 693e cffd 53be
000000c0: c568 1dbc ec33 cf3d f8dc 803e 127e e0be
000000d0: c849 10be 2171 363d 9c98 1a3e 1ca8 5cbe
000000e0: b5e2 6b3e 615a 9cbd ee29 013d c6bf 613d
000000f0: 35fc df3b 793c fabd b67c f2bc 57de 433e
00000100: 6cb9 7abd c492 2a3e bf27 143d 3246 c03c
00000110: 2d69 bc3b 89d8 5fbe 1a2a 89be 7466 933d
00000120: c505 783d 3080 4bbe f769 543d c72e 9b3e
00000130: f047 1bbe e542 aa3e 0e4b 95bd bcc8 143d
00000140: 828e 203e 3ff0 a03e b23a 9ebc 2355 583d
00000150: 3ed1 bdbd 2f71 0cbe 6a57 563e 0de4 9abe
00000160: 98fa c1bd a1c6 22be 59c2 b03e 2afe 65be
00000170: f9d1 6a3c 6406 8bbd fb30 c53e f726 ac3e
00000180: 282d 163e 11ef 3ebe fe95 65bd 10fd ebbd
00000190: 109b 2dbe ff01 3a3e 80bb 6f3d 0981 f3bd
000001a0: ebb8 1b3e 46d0 2ebe 9215 84bd 04b5 05bd
000001b0: 51e7 4b3e a27c 5b3d a0f7 cebc 411a 7a3d
000001c0: 8ba2 1fbe ff7f 18bc bc72 f93d 9113 283d
000001d0: befc 623e 466d 1dbe 0af8 003f 71e5 213e
000001e0: 6b61 87be fe3b 273c a3d6 e43d f3b9 4abd
000001f0: 77d1 293e 0e58 283d 1be2 d83c e4cf 9abe
00000200: 5886 573e 4a9e 7e3d 9e8c 5fbe 170c 37be
00000210: 6d56 47be 9481 163e c95f 8a3c cc35 d43e
00000220: ee43 293d 47da 70be 9ed8 34bd c89a ce3e
00000230: 4339 1d3e 847d a3bc 2e20 a23e 7cdd 0abe
00000240: 12ed 6f3e c2b5 cfbd 4b08 51be d645 233e
00000250: 71d1 9c3d af46 6fbd 6ad3 50bd 3b67 83bd
00000260: 18af 94bd 6279 ffbd 978c 843e c316 d23d
00000270: 6f0c 1d3e 2e88 7e3d 88d5 463e d082 2abe
00000280: 22bd 3fbe 0a65 82bd 5b2e cf3d 42b8 82be
00000290: e6a0 e6bd 1ada 713e f5df 673e 558b aabb
000002a0: 6d12 cd3e bd5c cf3d 5e2b 523e 5290 49bb
000002b0: 8b52 ae3e 824f 83bc 1f51 363e 6c91 bcbe
000002c0: baf3 fcbd 6dc7 7abe 3fe1 a03d 6efc e73e
000002d0: 27c4 98be 0a18 553e 2aeb d73e 0484 763d
000002e0: 6239 1b3e b1e3 b3be eb13 873e f5f3 213e
000002f0: 4285 45ba 234b 43be 4b22 f1bd 9acb 9dbe
00000300: 2d35 75be ae3d 2b3e ef58 b13e 0a21 ca3d
00000310: 10f1 1fbe ddb7 243e 29e8 83bd 3424 223e
00000320: 7704 d53d 95a3 463e b50f e9bc 0e03 52be
00000330: bd18 e9bc c057 cdbd 363a b5be bb33 a53d
00000340: 04f9 913d b4fc cabd 73e3 d03c 8b01 f03d
00000350: 077c c03c e2b7 2cbc 8242 e4bd b5ad 973d
00000360: 5787 293d fd4e 1bbe 1772 d53d 523f d73e
00000370: 16ef 1bbe 4bef 833e 4825 41be f8cd 9abe
00000380: daf0 733e 0c27 913d 13e5 11be 23b9 8abe
00000390: 475f 163e 7a08 3fbe ee42 bebd cded cdbe
000003a0: 9567 d5bd eeb1 d0bd dca0 8e3e 721e 983d
000003b0: 628b 823d 7d8a a03d 3e59 92bd 1801 0dbc
000003c0: 93f8 6bbd 1392 a8bd b4fb 8abd b4c7 70bd
000003d0: 6503 b73c 6b2a 413d 4ab0 94bd d516 6bbe
000003e0: 3adb b13d f7b1 a03e 3e88 cdbe bc7f 703c
000003f0: 3c1e 7bbe 54e2 71bd 50f2 6ebd 7df4 7b3d
0.24283364 -0.13372172 0.070190914 0.14218539 0.20823666 0.09408058 0.15856843 0.012179461
0.21447542 0.24522635 -0.23098098 0.18124948 0.016292293 -0.035055757 0.118103534 -0.28077003
0.009725489 -0.03360824 -0.030096583 0.2453611 -0.5111703 0.05832899 0.13827173 0.006885335
-0.2524846 0.15404728 0.07823391 0.13865747 0.07317389 -0.079345204 -0.16880484 -0.13013892
0.16454402 -0.060477983 0.33862936 0.009322846 -0.1851496 0.13405074 -0.1722769 0.27839944
0.18535848 -0.378144 0.43562096 -0.5769157 0.033708893 -0.009269231 0.22772253 -0.20702289
-0.0096074985 0.10117325 0.25168586 -0.43846184 -0.14090645 0.044541482 0.15097278 -0.21548504
0.230357 -0.07634426 0.031534128 0.05511453 0.0068354853 -0.122185655 -0.029600482 0.19127785
-0.06121199 0.16657549 0.036170717 0.023470972 0.0057498426 -0.21859945 -0.26789933 0.07197276
0.060552377 -0.19873118 0.05185887 0.30309126 -0.1516416 0.3325416 -0.07289706 0.036324248
0.15679362 0.31433293 -0.019315097 0.052815568 -0.092684254 -0.13715051 0.20931783 -0.30252114
-0.09471625 -0.15896083 0.34523275 -0.22460237 0.014332288 -0.06788328 0.38513932 0.33623478
0.14665663 -0.18645884 -0.056051247 -0.11522877 -0.16953683 0.18164824 0.058528423 -0.11889846
0.1520726 -0.17071638 -0.06449427 -0.032643333 0.19912459 0.053585656 -0.025264561 0.061060194
-0.15589349 -0.00930786 0.12180087 0.041034285 0.22166726 -0.15373716 0.5037848 0.15810181
-0.26441512 0.010207174 0.11173751 -0.04949374 0.16583811 0.0410996 0.026475003 -0.30236733
0.21047342 0.062162675 -0.21830985 -0.17875706 -0.19466563 0.14697868 0.016891377 0.41447294
0.04132455 -0.23520766 -0.044151895 0.40352464 0.15353875 -0.019957311 0.31665176 -0.13561052
0.23430279 -0.101420894 -0.2041332 0.15944609 0.07657135 -0.05841702 -0.05098287 -0.06416174
-0.07259959 -0.12474324 0.25888512 0.10258248 0.15336774 0.06214159 0.19417393 -0.16651464
-0.18724492 -0.06366928 0.101162635 -0.25531203 -0.11261158 0.23618355 0.22644027 -0.005204598
0.4005312 0.1012511 0.20524356 -0.0030756188 0.3404735 -0.016029123 0.17804383 -0.36829698
-0.12351175 -0.24490137 0.07855462 0.45309776 -0.29837152 0.20809951 0.42171603 0.060184494
0.15158609 -0.35134652 0.26382384 0.15815718 -0.00075348106 -0.19071631 -0.11774119 -0.30819398
-0.23946066 0.16722748 0.34638163 0.09869583 -0.15619302 0.16085763 -0.064407654 0.15834123
0.10401242 0.19398339 -0.028449873 -0.20508978 -0.028454179 -0.100265026 -0.35395974 0.080665074
0.07127574 -0.099114805 0.025499081 0.11719044 0.02349664 -0.010541888 -0.11145498 0.07406179
0.041388836 -0.1516685 0.104221515 0.42040497 -0.15227923 0.25768504 -0.18861878 -0.30235267
0.23822346 0.07087526 -0.14247541 -0.27094373 0.14684783 -0.18655577 -0.092901096 -0.4022049
-0.10420147 -0.101901874 0.278571 0.07427682 0.063742414 0.078389145 -0.07145928 -0.008606218
-0.057610106 -0.082309864 -0.0678629 -0.0587842 0.022340486 0.047159594 -0.07260187 -0.22957928
0.08684392 0.31385776 -0.40143007 0.014678892 -0.24523252 -0.059053734 -0.058336556 0.06151246

network_body._body_endoder.seq_layers.0.bias f4 [256]
00000000: 5c8b 1abe c43f 5dbd 0326 dabd b68a 193d
00000010: 419e 323d 90c5 d9bd 545c 74bd a79d 11be
00000020: b0e9 46bd 077a f6bc 0d60 303d 418c f43c
00000030: df4a 2cbe c3f6 d5bc 7512 663c 4380 c4bd
00000040: d7b6 cabd bc6e 6e3d b9e8 bfbd 7ac6 ccbd
00000050: 3b6b e8bc d2fb 3bbd 10e0 a5bd 8451 82bd
00000060: 9cc9 573d 989e 433d 5a0b 8dbd e00f 72bd
00000070: ffc3 d33b 6572 963c 89d5 89bd d60e d0bc
00000080: 7494 35be 145e 8d3d 4f01 47bd 2097 833c
00000090: 56a9 0cbe 74b0 ac3b 44ba 26bd 70ca 463d
000000a0: 54de ba3d c017 58be 082a 47bd 6af7 753d
000000b0: 7666 f9bd 9306 393d 0406 e3bc 18b0 01be
000000c0: 1ff8 86bc a082 14be 3fae 8fbe eb4b eabd
000000d0: 8f8e 3b3d ba9f e9bc e7b4 553d 271a a6bd
000000e0: ff79 ecbd 0713 29be c07a 19bd 355e 0ebd
000000f0: 1879 cfbd 08c0 22bd dca4 933d 19e5 f5bd
00000100: 6eb5 a9bd 0ab2 57bd 1f67 e83c 04f2 843d
00000110: 2bc0 2cbc fb08 50be 3ebf cfbc afd7 543d
00000120: 0a6b 303d be30 20bd 1034 89bd 55b4 48bd
00000130: 5029 d6bc 1318 84bd 3ac0 03be deb6 213c
00000140: 8aa0 f8bd 6aee 18bc b2f8 2fbd 9d62 8bbd
00000150: 5cea eabd 4e9a 91bd 46dc 29bc 4e51 a8bc
00000160: 2a98 b5bd cb18 24be 012b 92bd c3c9 ea3c
00000170: 02c7 f4bd e90b 19bd 500f 023d 450e dabc
00000180: f1bc f3bd 7299 f1bd e400 8dbd bc36 c0bd
00000190: 34c2 1fbe 9906 83bb b61f ecbd feb6 313d
000001a0: 73d1 5ebc 1aaf ebbb 6c6f 093d e237 65bd
000001b0: 6086 773d 4314 f43c a271 97bd dbfc 29bd
000001c0: 98e8 85bd 754b b6bd 8af5 02bc a7c4 463c
000001d0: 7bae 2c3c d5dc 54bd c460 e8bb f4d6 d4bd
000001e0: 2efc 38bb 74a9 30bc dc36 23be 4d92 963c
000001f0: 3908 f1bd 5f36 8cbd 1eff 05be 8043 a9bd
00000200: 344c f8bc c1d2 2b3b 42c8 2cbd a891 90bd
00000210: d0e5 96bd 4a9b dbbb 6741 7fbe 180e a0bc
00000220: 2ed3 b4bc e3d3 f7bc 0d32 2d3d 06d5 4eba
00000230: 432e c9bc bde2 e2bd da1f fcbb 5b41 c1bb
00000240: 5498 043d bcee 2cba 4e39 cf3c ff7b afbd
00000250: a588 a2bd 89cb 25be 1f3d 0fbe 71db febd
00000260: d814 92bd e3b4 8fbd cebd dcbd dbc2 3b3d
00000270: 5a12 04bc 2184 5b3d 4a0d 023d 06e9 61bd
00000280: 668c 8f3c ff1d 553d 3491 f4bd 1f1c 273d
00000290: 4dd8 a8bc ecfd 1abd 97da e0bd babf 48bb
000002a0: 0bc3 debd ca04 b63c 6b2d 0c3c 38d5 86bd
000002b0: f460 05be 5fc7 12be 4cf7 a3bb 8205 0abd
000002c0: 6f98 9bbc e598 063d b28d c33d 5fcc 623d
000002d0: 2edd 2cbe fb1f c1bd 2bb6 9dbc d6d9 743c
000002e0: e517 b7bb 163d 15bd d192 58be 8d42 2cbe
000002f0: 7358 adbd ccdc d53c e9b7 a6bd cb61 0fbe
00000300: 9349 24bd a543 d9bd bfd6 ccbd 239b 14bc
00000310: d70e fcbd 3a57 99bd 1755 ca39 089e 1fbe
00000320: 6364 f9bc 1613 cbbd 2912 e1bd daec 05bc
00000330: e5ea babb 3c9d 7ebd d7e1 37bd 6087 c2bd
00000340: a6b1 7abc 57ce 4c3d 868d 363d 8b8e 69bb
00000350: 09df e0bd 13b3 93bd 92e8 913b d2c8 33be
00000360: 32ea ea3c c867 08bd 56c0 e3bd ee63 fcbd
00000370: abda 703d 40fb b1bb b07a e4bd 9e7d 22be
00000380: 37a7 8dbd e88b 10be 5b4b 96bd c4ef 793c
00000390: 0b97 0cbe f8ac cdbc a1f1 36be ef42 c3bd
000003a0: 6486 7c3d 9e5f 073c ee08 29bd 8eac 57bd
000003b0: ae12 5c3c e923 0cbc 4c4b 89bd 616e 62bd
000003c0: 319e 4fbd 2a06 e7bc b0d7 8dbc 044a 8dbc
000003d0: 3732 763c b609 d4bc 0a70 03bd 1d17 0e3d
000003e0: 2aed c2bd 38ee 27bd c845 543d b65c a5bc
000003f0: 1d22 293b b056 24bc dffe 90bd 4c9b 46bd
-0.15092224 -0.05401589 -0.106517814 0.0374858 0.043607954 -0.10633385 -0.059658363 -0.14220296
-0.048562706 -0.030087484 0.04306035 0.029852035 -0.16825436 -0.026118642 0.014042486 -0.095947765
-0.09898155 0.058211073 -0.0937056 -0.09998794 -0.028371444 -0.04589445 -0.08099377 -0.06363204
0.052682504 0.04775867 -0.06886931 -0.05909717 0.0064625735 0.018365094 -0.06730182 -0.0253977
-0.17732412 0.069027096 -0.048585232 0.016063273 -0.13736472 0.0052700583 -0.04070498 0.048532903
0.09124437 -0.2110281 -0.04862407 0.060050406 -0.12177746 0.045172285 -0.02771283 -0.1266483
-0.016475735 -0.14502954 -0.28062627 -0.114402615 0.04579025 -0.028518546 0.052174475 -0.08110457
-0.115467064 -0.16511165 -0.03747058 -0.03475781 -0.10130519 -0.039733917 0.07209179 -0.120065875
-0.08286558 -0.052660026 0.028369484 0.06491473 -0.010543863 -0.20315926 -0.025359746 0.051963504
0.04307083 -0.039108984 -0.06699383 -0.049000103 -0.026142746 -0.06449904 -0.12866297 0.009870259
-0.121399954 -0.009334186 -0.042961784 -0.06805918 -0.11470482 -0.071095094 -0.010367459 -0.020546582
-0.088669136 -0.16025083 -0.071371086 0.02866066 -0.1195202 -0.037364874 0.031752884 -0.026618132
-0.11901272 -0.117968455 -0.068849355 -0.0938544 -0.15601426 -0.0039985892 -0.11529486 0.043387406
-0.013599741 -0.0071925046 0.033553526 -0.055961497 0.060430884 0.029794818 -0.073947206 -0.041500907
-0.06538504 -0.08901111 -0.007993111 0.0121318465 0.010539646 -0.051968414 -0.0070916135 -0.103925616
-0.0028226483 -0.010782588 -0.15938896 0.018380309 -0.117691465 -0.06846308 -0.130856 -0.08264828
-0.030309774 0.0026218148 -0.04218317 -0.07059032 -0.07368052 -0.0067018615 -0.24927293 -0.01953797
-0.022073355 -0.030252403 0.04228406 -0.00078900193 -0.024558192 -0.11078403 -0.0076942267 -0.0058976836
0.032371834 -0.00065968535 0.02529588 -0.08568572 -0.07936219 -0.16190924 -0.1398816 -0.12444199
-0.07132882 -0.07016923 -0.1077839 0.045840126 -0.008061016 0.053592805 0.031750955 -0.05515387
0.017523002 0.05203056 -0.11941758 0.040798303 -0.020610953 -0.037839815 -0.10979193 -0.0030631856
-0.10877045 0.02221908 0.00855575 -0.06583637 -0.13025266 -0.14333867 -0.0050038453 -0.03369666
-0.018993584 0.032860655 0.095485106 0.055370685 -0.16881248 -0.09429928 -0.019251904 0.014944514
-0.0055875652 -0.03643521 -0.21149756 -0.16822262 -0.08464136 0.02610626 -0.08140547 -0.14002149
-0.04010923 -0.10608605 -0.10001897 -0.009070191 -0.12307518 -0.0748734 0.0003859184 -0.15587628
-0.030443376 -0.0991575 -0.10989792 -0.008174146 -0.005704271 -0.06216167 -0.044893112 -0.09498477
-0.015301144 0.05000147 0.04456856 -0.003563794 -0.109800406 -0.0721189 0.0044527734 -0.17557076
0.028676126 -0.0333021 -0.111206695 -0.123237476 0.058802288 -0.0054315627 -0.11156213 -0.15868232
-0.06916659 -0.1411587 -0.07338592 0.0152549185 -0.13729493 -0.025106892 -0.17865612 -0.09534251
0.061651602 0.008262543 -0.04126828 -0.052654795 0.013432188 -0.0085534835 -0.06703815 -0.055281047
-0.050687972 -0.028201181 -0.017314762 -0.017247207 0.015026621 -0.025883537 -0.03208927 0.03469001
-0.09517892 -0.040998667 0.05182436 -0.02018581 0.0025807687 -0.010030434 -0.07079863 -0.048487946

network_body._body_endoder.seq_layers.2.weight f4 [256, 256]
00000000: a7a3 823d 16d7 87bd 429a d53c 6fec 2dbd
00000010: 8f4d 10be bd18 83bc a5cf 743d 93e7 a73d
00000020: c65c 79bd da69 6c3d d0fc d1bc a7b7 9fbc
00000030: 3545 97bd 40ad 3bbd 2226 3abd 1dab fd3d
00000040: 0641 a3bb bdcc 86bd 3483 53bd d2ef da38
00000050: 17ae 44be 61ab 90bc c9bd 533d 1ca3 e6bc
00000060: e45a 3c3d f685 55bd 6d70 d4bd df12 a23d
00000070: 8b96 893b 7397 77bc 73d8 83bd 1efa de3d
00000080: 252d 73bc 5f3f 653d 321f bc3c 7fbe cebc
00000090: f4c7 06bd 845b 3ebe 4ee2 8b3d 2cf1 edbd
000000a0: f242 0fbd 01a4 193c 85f6 9cbc ff87 debc
000000b0: c60a bcbd 910c 88bc 0435 b0bd 3b38 0d3c
000000c0: 3d97 1dbd 8119 7a3d be11 c1bd f147 183d
000000d0: f1d6 fabb ce14 5fbd f497 85bd bcc6 58bc
000000e0: 3f68 243b e187 efbd a174 cbbd 7bf4 a53d
000000f0: 24bb 5b3d a0b4 22bd 892b 28bd 9304 25bd
00000100: 90b8 0c3e ed13 11bd 6fed 21be 9299 20be
00000110: f173 ebbb 0ac2 d3bd c7e2 603b 22cb 673c
00000120: fba9 5a3d 99c1 e73d 7f3e 173e dacc a2bd
00000130: aa2c be3c 1842 9ebd 7d8f 0cbe 7967 bebc
00000140: 305e 4cbc dfd2 ed3c 7144 46bc b7ef 82bd
00000150: 3ed4 56bd 1789 9a3d 7898 0a3e 22b5 0cbe
00000160: 1059 263e 0143 5abd c165 a53d 182f 543a
00000170: 148f 2bbd c68e dcbd 7b55 4b3d 244f e7bd
00000180: db20 173d cdd0 30bc 5294 0cbd 4ff1 08be
00000190: 2b3d db3c 8ccc 1cbe 6466 573c 6c0d 43bd
000001a0: 3b50 7ebe 9727 b63d 0c89 cf3c 2508 9939
000001b0: ba1f b2bd f365 42be 17ca 89bd 6135 463e
000001c0: 4155 f53c b463 f83b 65a9 853d f5fd a9bc
000001d0: 9f32 f9bc 9577 8a3c 6d8e f13c b7af c2bc
000001e0: f471 0cbd c911 13bd 5446 d3bd 949e 3c3c
000001f0: c081 973c 0654 483c ecfd a8bd 0b2b 15bd
00000200: 847c ec3c ae45 9abd 563e f0bc 3563 cb3c
00000210: 8100 40bd e45b 2cbe 4137 35bd c5e8 ab3c
00000220: 9864 dcbd ddda 8fbd 7436 18be ebc3 123c
00000230: ae13 8cbc 71c9 3dbe d231 aebd c821 a5bd
00000240: 3a42 d6bc 4133 5f3b 8c88 26be 357d 13be
00000250: 0c4f 8a3b faa5 e0bd 74a0 2f3d 2b97 b43d
00000260: 7726 9c3d 425e fa3d ad10 a03b 78bb 54bd
00000270: a926 dd3c 61d9 b2bc 3674 f53c 1933 e3bd
00000280: 59be 6dbd b80d 553e f182 02be c0c7 f73d
00000290: 3222 1ebe 7b28 38bd 9f53 f13d b8cf 463d
000002a0: 9775 303c 6727 debd 68a6 3dbd 4b3d 233c
000002b0: 15aa 533c 58c6 17bc 8515 40ba 056f 133e
000002c0: 085b 87bc 37ce 3f3d 01b2 443c 8ea9 71bd
000002d0: e52a 253d e07b 163c aded 4f3d dd1c 5ebd
000002e0: 742e 0cbd 8a32 323d 1862 703c fef7 01be
000002f0: 1042 89bd e436 5e3d 7172 1ebe 8c59 82bd
00000300: 3952 143d 43be 913c 8659 893d a231 853d
00000310: 9145 70bc b7b7 bebc 5529 05be c7b1 e6bc
00000320: cd60 90bd d275 ff3c ca98 f63b 0868 03be
00000330: 2785 b2bd 3e38 0a3d 2aff ee3c 5bac 663d
00000340: 5517 4e3d 1b80 30bd c962 b1bd 9673 03be
00000350: e4b2 42be 4f80 4bbc f4d7 5ebd 684b 30be
00000360: aaa4 83be 7c99 7abd 1383 77bd e8e3 523e
00000370: 487c 8b3d e0a3 64be f099 c5bd f22d e0bd
00000380: 91c3 a53d e522 453d f281 143d cae9 b43d
00000390: a475 6cbd 4f7f 4e3c 6bab 7bbd 7506 703c
000003a0: aaa3 643e 65e9 b7bc f3e0 8ebd 764e c23c
000003b0: e892 093e ed7d 86bd ba91 93bd cc42 8fbe
000003c0: 5023 f2bb f46c a8bb 477b c8bd 7928 22bc
000003d0: c917 26bd 9260 6f3d df97 ae3d 98b1 133d
000003e0: 95cd 38bd b417 1dbe f1f3 043e a29d a0bd
000003f0: 4403 ccbd 7667 2c3c b446 0b3d 9ee8 b6bd
0.063788705 -0.06632821 0.026074532 -0.04246181 -0.14092086 -0.016003007 0.059768338 0.08198466
-0.06087949 0.057718135 -0.025633246 -0.019496752 -0.07386247 -0.04581952 -0.045446523 0.12386153
-0.0049821166 -0.065820195 -0.051638797 0.0001043972 -0.19207035 -0.017659845 0.051694665 -0.028153948
0.045985118 -0.05212971 -0.10373006 0.079137556 0.0041988543 -0.015111792 -0.06437769 0.1088755
-0.014842306 0.05596864 0.022964094 -0.02523732 -0.032905534 -0.18589598 0.068302736 -0.116182655
-0.034975953 0.0093774805 -0.019160518 -0.027164457 -0.09181742 -0.016607555 -0.08603862 0.008619363
-0.03847431 0.06105948 -0.09427212 0.037177984 -0.0076550175 -0.0544632 -0.065231234 -0.013230976
0.002508655 -0.11695839 -0.099343546 0.081032716 0.053645268 -0.03972304 -0.041057143 -0.040287565
0.1374228 -0.035419393 -0.1581323 -0.15683582 -0.007185452 -0.103397444 0.0034314857 0.014147552
0.053384762 0.11316223 0.14769934 -0.079492286 0.023214657 -0.0772745 -0.13726611 -0.023242699
-0.012473628 0.029031215 -0.012101279 -0.06393378 -0.052448504 0.07545679 0.13534725 -0.13740972
0.16244912 -0.053286556 0.08076049 0.0008094176 -0.041884497 -0.10769419 0.049642067 -0.11294392
0.036896568 -0.0107919695 -0.034321137 -0.13373302 0.026762566 -0.15312403 0.01314697 -0.047620222
-0.24835293 0.0889427 0.025333904 0.00029188502 -0.086974576 -0.18984203 -0.06727999 0.193563
0.029947879 0.007580245 0.0652645 -0.020750979 -0.030419646 0.016902724 0.02948686 -0.023765428
-0.03428836 -0.035905633 -0.103161484 0.011512417 0.018494487 0.012227064 -0.08251557 -0.036418002
0.028867967 -0.075328216 -0.0293266 0.024827579 -0.04687548 -0.16831928 -0.044242147 0.020985017
-0.10761374 -0.07024167 -0.14864522 0.008957843 -0.017099228 -0.18533875 -0.08505596 -0.08063084
-0.026154626 0.003405765 -0.16263026 -0.14403231 0.004220849 -0.109691575 0.04287763 0.088178955
0.07624524 0.122250095 0.0048848004 -0.051936597 0.026995974 -0.02183217 0.02996264 -0.110937305
-0.058042858 0.20806015 -0.12745263 0.12098646 -0.15442732 -0.04496048 0.117835276 0.04853794
0.010770223 -0.10847359 -0.046301275 0.009963344 0.012918969 -0.009263597 -0.00073274254 0.1439782
-0.0165229 0.04682752 0.01200533 -0.05899959 0.04032411 0.009184808 0.050763775 -0.054226745
-0.03422399 0.04350523 0.014671825 -0.12692258 -0.067020535 0.054251567 -0.15473343 -0.06364736
0.036211226 0.01779092 0.06706528 0.06503607 -0.014665023 -0.023280961 -0.13004048 -0.028160943
-0.07049713 0.03118411 0.007525538 -0.12832654 -0.08716803 0.033745043 0.029174406 0.056316715
0.05031522 -0.04309092 -0.0866142 -0.12837061 -0.19013554 -0.012420728 -0.054405168 -0.17216265
-0.25711566 -0.06118153 -0.060427736 0.20594752 0.06810814 -0.22328138 -0.09648502 -0.109462634
0.08093942 0.04812898 0.036256738 0.08833654 -0.05772938 0.012603595 -0.061442774 0.014649977
0.22328058 -0.022450158 -0.069764994 0.023719054 0.13434947 -0.06566987 -0.072055295 -0.2798065
-0.0073894635 -0.0051399413 -0.09789138 -0.009897345 -0.040550027 0.058441706 0.08525061 0.03605804
-0.045117933 -0.15341073 0.12983681 -0.07842566 -0.0996156 0.010522714 0.034002975 -0.08931087

network_body._body_endoder.seq_layers.2.bias f4 [256]
00000000: 0f99 2dbd bcfd 7fbb 8f96 48bc c648 483d
00000010: 7b37 603c b9ed d6bc dab2 87bd 0f03 b9bc
00000020: fa8c 7dbd c558 21bd 705d f5bc 4623 3e3d
00000030: 934d 4fbc 615e 5a3d 9bef 8cbd 655d 04bd
00000040: 625b 973d 64e8 50bd 571a eabd 20a8 a4bc
00000050: 7461 b93b 6da3 29be 5a65 90bb 2e4d 88bc
00000060: 28e9 38be 2812 5bbd 22ef 53bd 2fc9 25bd
00000070: 1598 fbbd da02 79bd 0b4d b6bc 906a 4c3c
00000080: d50f eebd a85f 67bd 43fa 9dbc c84f 9d3d
00000090: 169f 94bd 27e4 b4bd 84b7 2fbe 6717 b9bd
000000a0: 21ea b3bc 490b 233d f740 99bd 601d 99bd
000000b0: 51b5 6cbc a665 72bd d473 11bd 0c48 a73c
000000c0: 0b18 e33b e447 963a dc6d 6ebd d16d b2bd
000000d0: 0297 cbbd f81c 76bc 385f 2e3d a75b 61bd
000000e0: 8438 b7bd 495c eabd 57e5 d8bd c6f9 353b
000000f0: f1f9 8abd 5f7f 4f3d 89cb e3bd 21ef 9ebd
00000100: 26ec b3bd 159c 2abe 67fb b9bd c2d9 62bc
00000110: 0fb3 613b fbf9 0bbd 5529 3ebc dc76 bc3d
00000120: 2af3 113d b73a 37bd 18d6 343d f96e a5bd
00000130: 6357 84bc 28e4 c23b 52eb 24bd 5ad0 29be
00000140: 5b6b d63c 8435 adbd b26b b63d 4592 613d
00000150: 7637 88bc 769c 8f3d 8f61 1cbd 2051 01bd
00000160: e8f5 fcbc ff02 4d3c 2477 243b e843 47bd
00000170: 1621 153d 78a1 9a3d cd4f bdbb 99fa 44bd
00000180: 258b bfbb 1dda 20bb e06b b3bc 0619 38bc
00000190: 67ef e33b 08d2 cabd 216e 84bc 60fb d3bd
000001a0: 5e25 8dbd c5fc f53b b9a2 d9bd b5ca 9cbd
000001b0: c866 33bd bc15 b2bd 030e 5c3d b2a8 83bd
000001c0: d024 a7bd 6404 88bc 760d 9f3d 605a f93b
000001d0: 8e2f 3d3d 0102 0fbd 9dbb 813d 348f bbbd
000001e0: 75e1 06be a581 2cbd b6de 8abc 88f1 0fbc
000001f0: 7e2d 78bd 661d 03be bd66 fd3c 91c5 83bd
00000200: a678 6f3c 7f0f ebbc 882b cebc 6e6e 39bd
00000210: 4a00 a13b b048 203d 3890 47bd 84e4 a63c
00000220: a212 f6bc 78d6 babd 79cc 263d 9f3d 75bd
00000230: 26de 49bd 53c2 383d 6968 bcbd 1ba3 88bd
00000240: 729e 61bd 0e3e a9bc 7c20 45be 6732 bfbd
00000250: f30b 31bd efdd c33c 8058 83bd f8af 3a3c
00000260: eb39 69bd 1267 833d 5801 f4bd e035 7cbd
00000270: 596e 45bd bbbc 7c3c e515 e7bc b7e5 6cbd
00000280: f790 18be 1029 b83d ae6e e83b a743 12bc
00000290: c152 9bbd 2b27 213d 1e81 883c 6602 90bd
000002a0: 809e 56be e799 94bc 3f2d d1bd 6e71 43bd
000002b0: 3679 00bd 5878 4abd d0db 4fbd 286e 713d
000002c0: 2ce6 5838 fbd3 d5bc e245 053d 8d08 8bbd
000002d0: a215 adbc a5e5 6dbd 4df7 a43c 9f1c fabc
000002e0: 9c88 003d c229 86bb c91b 28bd e0bd 3bbd
000002f0: 6d5c 64bb be6d 8cbd 35c2 cdbd 67c4 a13d
00000300: 52fd 893d 07da dcbb e1d8 cfbd 57bc 823d
00000310: ad10 9f3d c682 22be 4031 a83d 3ba4 cabd
00000320: 6319 b9bc 16f5 a73d 895a f43d d5d9 17be
00000330: 7bce 03be 785a 18bd 2688 dfbc a7c1 0cbe
00000340: f1a7 94bd e589 27bd bfa2 58bd 5e7d 8d3d
00000350: e248 4bbc 7dc2 1d3d d5c1 9dbd 2193 9bbd
00000360: aa05 573d 9c8c 853d b8aa 7fbe f13d e8bd
00000370: cd66 cbbd c549 83bd 1f3a 3f3d 28d9 59bd
00000380: 8534 9cbd acf2 49bc be27 d4bd f49a eb3c
00000390: 221c 97bd 064b 803d 007b a73c 0832 b8bd
000003a0: ea4f 20be ad95 9e3d 1ec1 92bc 8c37 893b
000003b0: 3962 163c c4cc 94bd 0eec 1e3d 5713 adbd
000003c0: 2aef 73be 2286 39bd 38ce a7bd 9011 4fbe
000003d0: 56db 4dbd b4c9 2fbe 5339 693d 71aa 573d
000003e0: 5020 bc3c 4c10 a4bc 4742 123c bcb0 083d
000003f0: 60e5 ffbc 04cd 513d c7e5 3cbe 7cca 96bc
-0.042382296 -0.003906115 -0.012242927 0.048897527 0.013685103 -0.026236402 -0.0662591 -0.022584466
-0.061902024 -0.039391298 -0.029951781 0.046420358 -0.0126527725 0.053312663 -0.068816386 -0.03231563
0.07390477 -0.051002875 -0.11430805 -0.0200997 0.0056573693 -0.16566248 -0.0044066133 -0.016638365
-0.18057692 -0.053484112 -0.051741727 -0.040475067 -0.12284867 -0.060793735 -0.022253534 0.012476578
-0.116241135 -0.05648771 -0.019284373 0.07681233 -0.07256906 -0.08832579 -0.1715985 -0.09037667
-0.021962227 0.039805684 -0.07483094 -0.07476306 -0.014447526 -0.05917897 -0.035510853 0.020420097
0.0069303564 0.0011465517 -0.05821024 -0.08712352 -0.09940912 -0.015021555 0.042571276 -0.055019047
-0.089463264 -0.11443383 -0.10590618 0.0027767285 -0.06785954 0.05065858 -0.111228056 -0.07760454
-0.08785276 -0.16661103 -0.09081154 -0.013845863 0.0034439003 -0.034173947 -0.011606534 0.09202358
0.03563229 -0.04473373 0.04414949 -0.08077807 -0.01615495 0.0059476085 -0.04026348 -0.16583386
0.026174238 -0.08457473 0.0890726 0.055071134 -0.016628008 0.070122644 -0.038178977 -0.031571507
-0.030878976 0.012512921 0.0025095427 -0.048648745 0.036408506 0.07550329 -0.0057773353 -0.04809055
-0.0058454447 -0.0024544068 -0.021902025 -0.011236435 0.006956029 -0.099033415 -0.016165795 -0.1035068
-0.06891893 0.007506939 -0.1062674 -0.07655851 -0.04379919 -0.08695552 0.0537243 -0.064286605
-0.08161318 -0.016603656 0.07766239 0.0076096505 0.04618793 -0.03491402 0.063346125 -0.09158173
-0.13171943 -0.042115826 -0.0169519 -0.008785613 -0.06059026 -0.12804183 0.030932778 -0.06434167
0.014616167 -0.028693913 -0.025167242 -0.04527133 0.0049133645 0.03913182 -0.048721522 0.020372637
-0.030038182 -0.09122938 0.040722344 -0.05987322 -0.049284123 0.045107197 -0.09199602 -0.06671735
-0.055082746 -0.020659473 -0.19250673 -0.09335785 -0.043224286 0.023909537 -0.064133644 0.011394493
-0.05694 0.064161435 -0.11914319 -0.061574817 -0.04820094 0.015425856 -0.028208682 -0.05783626
-0.1489905 0.08992207 0.007093272 -0.008927262 -0.075841434 0.039343994 0.01666313 -0.070317075
-0.209589 -0.018139793 -0.10213708 -0.047715597 -0.031365596 -0.049431175 -0.05074674 0.058942944
5.1712777e-05 -0.026102057 0.03253735 -0.0678874 -0.02112848 -0.058080334 0.020137453 -0.030531226
0.03138028 -0.0040943334 -0.041042123 -0.045835376 -0.003484513 -0.06856869 -0.10046808 0.07898789
0.0673777 -0.006739858 -0.10148788 0.06383579 0.077668525 -0.15870199 0.08212519 -0.09894606
-0.022595113 0.08201043 0.11931331 -0.1482919 -0.12871735 -0.037195653 -0.0272866 -0.13745748
-0.07258595 -0.04090299 -0.05288958 0.069086775 -0.012407513 0.038515557 -0.07702986 -0.07596422
0.052495636 0.0652096 -0.24967468 -0.113399394 -0.09931717 -0.06410555 0.046686288 -0.053185612
-0.07627205 -0.012325924 -0.10359143 0.02876041 -0.07378413 0.062643096 0.020444393 -0.08993918
-0.15655485 0.07743392 -0.017914351 0.00418753 0.009178692 -0.072656184 0.038799338 -0.084509544
-0.23821703 -0.045293935 -0.0819363 -0.20221543 -0.050258003 -0.17166787 0.056939434 0.05265278
0.022964627 -0.020027302 0.008926935 0.033371672 -0.031237304 0.05122091 -0.18447028 -0.018407099

network_body._body_endoder.seq_layers.4.weight f4 [256, 256]
00000000: 35a8 9c3d 11b1 f3bd f58c b5bc af91 cdbd
00000010: bc98 13bc 0ba1 c9bd 842c fc3d 8603 a9bc
00000020: 9076 20ba fd11 0fbc 35c7 263d c593 3b3c
00000030: 3718 7a3c b7a5 ac3b 85cc 8ebc fa10 d0bd
00000040: ed36 6c3b f19f 633d 2db3 b5bc 8dc9 993d
00000050: 2b29 99bd 721c 573d d846 873d 3d1e 493d
00000060: 1723 5dbd 1778 d23d 245a 2dbd ea1f 3ebc
00000070: 732c c1bc fcce 6e3c aa97 dfbc ebbd 07bd
00000080: bcea a7bd 5523 3bbd 1672 98bd 75dc b5bc
00000090: f738 883c 2c83 dabc 52e8 40bd 5a71 563d
000000a0: aa8c b4bc 887d 94bc d067 7fbc cc09 4dbd
000000b0: 22bb d3bc 35df 49bd 9c3a f73d aa64 913d
000000c0: 01e0 c1bd 53eb 3fbd d93e 013b 0966 1ebd
000000d0: 7fb4 a23d d360 b73c 06d1 1abd 0aba 68bd
000000e0: 1867 c4bc 9c30 a23d 145b b43c c9b4 26bd
000000f0: ab3c 343d caa4 423d c98f 83bd 39f1 7b3b
00000100: 004b 79bd 93c3 d5bc 6ccf 933c 7de2 41bd
00000110: 56d6 56bd 0185 02be 8464 583d 67d4 9cbc
00000120: 5b08 bd3d 5982 7c3d cf7a 0abd 4dd4 ddbc
00000130: dbc4 8c3d 1038 d6bc 265b ccbb d641 6d3d
00000140: 5efc 693d 177d 673d cdf4 d9bc 4aa9 a83d
00000150: f9c0 0a3d 80dd e2bd 9236 84bd 92ff 5bbd
00000160: a0ab b93c f99e 82bd d543 79bc fb16 0c3d
00000170: fbc7 cf3d 132b 653d 85dc d03c b587 c9bd
00000180: 9a3b 62bc 1c01 863d cb45 8abd 187f 98bc
00000190: 5340 273d 0888 21bc f3c8 a0bd 04db c8bd
000001a0: 2688 293d 4989 433d 795f ca3b 01d9 50bd
000001b0: ffab 1e3d 7813 35bd e1ec a43d 640d 813d
000001c0: 446c b3bc a633 26bd a503 003c 6900 7a3d
000001d0: 690c 60bc 2a26 1a3b 1263 da3d 0c06 a83d
000001e0: 1cd9 953d a3c6 33bd 965e a0bc fb1e 98bc
000001f0: 2f04 373d 7ab9 42bd aec8 debd 8858 9abc
00000200: 58c2 df3c 4419 c0bd df84 f53c 196b d1bd
00000210: b82e d1bc c7b7 1bbb e708 62bd c9d5 853d
00000220: 3128 38be ddc0 143e d64f b73d 3905 983c
00000230: 54b9 99bd 047f c5bd b9f4 4a3c be78 b4bd
00000240: a507 f83c 891e 8d3b 5589 0fbd 7b5d 853d
00000250: 3b33 e2bc fb7e 973d 3c33 3dba 0398 42bc
00000260: 1a15 f93c 8da0 f43c c9a3 123c 5ee5 14bd
00000270: e283 c73c d61a 303e 6158 26bd 45e8 46bd
00000280: 2f9c 383d 372a 26bd f645 503d ef59 613d
00000290: 36cc 05be a86f 1f3d d8ab f6bc e185 343d
000002a0: 13f8 0d3d 7bdf 823d 6834 c43c b3f7 f3bd
000002b0: bb11 153d 3b45 4dbc 5419 70bc b07a 42bd
000002c0: fbfc 1dbc bd18 b13a 3624 aa3b c80d 23bd
000002d0: ae57 74bd 740b 2e3c 917c bbbc b8e3 52bd
000002e0: 2390 65bd 0c0b 88bd c523 d13c c776 cd3c
000002f0: e052 83b9 862e bf3d ea4b 5a3d 116e 293d
00000300: db15 56bd dfb7 06bd df56 273d c7bd 693d
00000310: 6421 f5b9 ba27 223c 8407 04bc be88 503c
00000320: 1bb0 75bd 3b01 743d a9b4 fabd e723 643d
00000330: efef e6bc 5448 133c 70c1 9b3d 37a2 393d
00000340: c2cb d7bc 2aaa 0d3d b04c 293b 2861 c1bc
00000350: f260 8dbd ca7a 99bd e038 d33d 59b3 76bd
00000360: e13e af3b 7769 8bbc 0529 273d a6dd 053c
00000370: 4b9c 4c3d 3599 243d 9585 fc3c 5ca2 cc3d
00000380: 721f 36bd 1d6c 6ebd 5dc3 96bc ef6f 1e3d
00000390: 0fba ad3d c1a2 95bd a719 cabc 623b 463d
000003a0: 09e9 aa3d 514a 1fbd 15f9 14bd c7f6 7f3d
000003b0: 305f b0ba 714c 063d 402e 963d 2e50 833c
000003c0: 8cd6 fdbc 5fd2 be3d 65fd 69bd 7e1c 053d
000003d0: 89c1 91bc 0a11 5abd 6a65 763d f5f9 97bd
000003e0: 1a61 003d 14f5 4d3c fa2a be3d dc5e 143e
000003f0: 33f2 09bd 63d2 8abc a81b f6bc e330 98bd
0.076492704 -0.11899007 -0.02216194 -0.100375526 -0.009008583 -0.0984517 0.12313178 -0.020631563
-0.0006121183 -0.008732316 0.040717322 0.011448805 0.015264562 0.005268778 -0.017431507 -0.10159488
0.003604348 0.055572454 -0.022180164 0.07509146 -0.07478555 0.052517362 0.06605309 0.049101103
-0.053988542 0.102768116 -0.042322293 -0.011604289 -0.023580765 0.014575716 -0.027293999 -0.033140104
-0.08199069 -0.045687992 -0.07443635 -0.022199849 0.016628725 -0.026673876 -0.047096558 0.052354194
-0.02203973 -0.018126264 -0.015588716 -0.05005817 -0.025846068 -0.049285132 0.12071726 0.07099278
-0.094665535 -0.046855282 0.0019721298 -0.038671527 0.07944583 0.022385037 -0.037796997 -0.056818046
-0.02397494 0.07919428 0.022016086 -0.040699754 0.04400317 0.047520436 -0.06423909 0.003844334
-0.06086254 -0.026094234 0.018043242 -0.047335137 -0.0524505 -0.1274605 0.052830234 -0.01914425
0.09230109 0.061647747 -0.033808526 -0.027078772 0.06873485 -0.02614978 -0.0062364517 0.057924114
0.05712544 0.05651578 -0.026605988 0.08235414 0.03387544 -0.11077404 -0.06455721 -0.053710528
0.022664845 -0.06377978 -0.015213926 0.034201603 0.10145565 0.055949282 0.025495777 -0.09840337
-0.013808155 0.0654318 -0.06751593 -0.01861529 0.04083283 -0.0098590925 -0.07850828 -0.09807399
0.041389607 0.047738347 0.006175932 -0.0509882 0.038738247 -0.04420802 0.080529936 0.06301382
-0.021902211 -0.0405766 0.007813369 0.061035547 -0.013674834 0.0023521283 0.106634274 0.08204278
0.07316801 -0.043890607 -0.019576352 -0.01856946 0.044681724 -0.047540165 -0.1087812 -0.018841043
0.02731435 -0.09379819 0.029970584 -0.102255054 -0.025534973 -0.0023760663 -0.05518427 0.06534917
-0.17984082 0.14526697 0.08950774 0.018557178 -0.07506052 -0.09643367 0.012387448 -0.08812092
0.030277083 0.0043066186 -0.03504308 0.065119706 -0.02761232 0.073972665 -0.00072174123 -0.011877063
0.03040557 0.029861713 0.008950182 -0.036351554 0.024354879 0.17197737 -0.04061163 -0.048561353
0.045070823 -0.040567603 0.05084797 0.055017408 -0.13066182 0.038924843 -0.030111238 0.04407299
0.03466041 0.06390282 0.02395077 -0.11912479 0.036393862 -0.012528713 -0.014654476 -0.047480285
-0.009642835 0.0013511401 0.005192305 -0.039808065 -0.05965393 0.010622848 -0.022886546 -0.0514867
-0.056045663 -0.06642732 0.025529752 0.025081052 -0.00025048014 0.093350455 0.053295054 0.041364733
-0.052266937 -0.032890197 0.04085433 0.05706575 -0.0004675492 0.009897167 -0.0080584325 0.012727914
-0.0599824 0.059571486 -0.122414894 0.0556983 -0.028190581 0.008989412 0.07605255 0.045320716
-0.026342276 0.03458611 0.0025833063 -0.023605898 -0.069032565 -0.07494123 0.103135824 -0.060229633
0.005348072 -0.017018063 0.040810604 0.008170521 0.04995374 0.040185172 0.030825416 0.09991905
-0.044463582 -0.058208574 -0.018403703 0.038680967 0.084827535 -0.073064335 -0.024670435 0.048396476
0.08345229 -0.038889233 -0.036370356 0.062491205 -0.0013456102 0.032787744 0.0733304 0.016029444
-0.030986093 0.09317469 -0.05712642 0.032497875 -0.01779248 -0.053238906 0.06015531 -0.074207224
0.031342603 0.012570638 0.09285541 0.14489311 -0.033678245 -0.016946023 -0.030042484 -0.074311994

network_body._body_endoder.seq_layers.4.bias f4 [256]
00000000: ce56 fe3c 215c bebd 7945 b1bc cffc debc
00000010: 782f 8dbd 97fb 1ebd 02e4 bcbc ae6d 9bbe
00000020: 6671 ddbc ad23 e5bd 9566 19bd e085 acbd
00000030: bd61 1ebe e3de ee3c 2fa4 9dbe 6a2d eebc
00000040: 9f4f b23b 6256 c0bb 302a 1fbd 2583 febd
00000050: 7e69 afbd 51c6 31be 5ddd 21bd 02f7 f3bc
00000060: d83f c6be 3f92 87bd 4426 eabc 3267 42be
00000070: 15d0 f0bc d888 37be 2946 a5bd 5009 27bd
00000080: 65e0 58bd 623d 1a3d ecd2 0abd 9a67 d5bd
00000090: b1e3 e73a c2d3 7cbe 1e74 92bd 2686 88be
000000a0: 522c 53bc 8222 55bd 7056 90bd e31b 1ebd
000000b0: 1ccb 10bd aa79 8cbe 6083 34bd b257 97bd
000000c0: eaa7 60bc b147 093c e6d5 92bb 3867 8dbc
000000d0: b011 e5bc 7022 47bc c914 15ba a4e3 8fbe
000000e0: a9a4 5bbd ad30 7abe c7ee e1bc c312 8abc
000000f0: 6e52 5ebc cc63 5abe 40f8 5cbc d8bd fdbb
00000100: 77ca 16bd 7c22 bb3c 21a5 f73b dbdd 90bb
00000110: 1f97 67bd af45 f6bc a720 56be d03d 973c
00000120: d856 953c ae96 cdba 2ff9 a5bd e2ce 343c
00000130: 6242 ccbc 7064 28bd 3545 0fbc 95d1 4fbd
00000140: 0955 92bc 0a72 0fbc 3dd3 b4bc 1687 bb3c
00000150: 8176 a7bb f4f9 653c a317 68bd 4583 81bc
00000160: 3838 8d3a 3a64 e0bc 3132 563a 3c10 15bb
00000170: 2251 44bc 4c14 8dbd 1993 09be 73e1 d2ba
00000180: b939 8ebe 83ba 05bd 7509 c63c 93eb bebd
00000190: d70e 5fbd 9975 10be 108c 643b c830 c7bc
000001a0: 1796 42bd 7b42 c6ba 6b07 603d 7148 92bd
000001b0: 272a d8bc 2fad 69bd ed06 9cbd 0d93 103c
000001c0: d906 ecbd e3e7 b33b 984c bc3b 346b 4dbb
000001d0: bf7e 5fbb 7269 1bbd f286 ef3a 93b8 7ebe
000001e0: ee29 993b 438a f03b 2baf 803c 4dd1 8bbe
000001f0: 7184 d7bd a48f 8cbd befc a2bd 6f55 8fbd
00000200: e958 9fbb a0a9 44be 975c 3fbc d93c 00be
00000210: ea2d a83c 086d 8c3c c6bb 25bd 3bbc cdbc
00000220: 820a 71be 9e95 963c a20d 08bd bf2b 94bc
00000230: 034a b9bd 1e0b 023d 24eb 06bc 221d 1bbe
00000240: d899 db3a 54e8 e3bc 5da0 21be 9aac acbd
00000250: 8547 b5bc 6067 c1bd 1e17 9fbb d09a 1cbd
00000260: 5b04 d7bb 9ed5 1ebe e898 f3bb b4c3 8dbb
00000270: bb22 20bd deb4 56bd 5460 b9bc 1ea0 66bd
00000280: c115 04bc 9bfc 593c 5b8f 893c bb89 da3c
00000290: c824 b0be c792 68bd f288 82bd 7730 17bd
000002a0: 788d 72bd 3df5 56bd 9754 0abd 2067 bcbc
000002b0: 6664 993b e5cc 91bd 1604 ebbd 67f4 70be
000002c0: 170e 00be 19ab 31bd c45a 9dbd a147 0dbd
000002d0: e782 fe3c a53f 79bc 74db c1bd 29ee bbbc
000002e0: 52a7 87bc c313 afbd 8cdd adbc ce07 d0bd
000002f0: eca8 babd c105 bbbd 3b13 81bb f818 05bd
00000300: 6332 e9bc 67ad 07bd df40 2cbd 64e5 ea3b
00000310: c9a0 87bc e3da f9bc 688c c1bd dc4a 5dbd
00000320: 4d95 07be 4641 8fbe e801 acbd cc02 64bc
00000330: 3d51 a0bd fe5a fdbc e6a5 8fbd 31a9 89ba
00000340: b5d0 45be 762d f9bb a053 d9bc be41 17be
00000350: c79b 8ebd 19bd a5bc 2104 023b 463c 2ebd
00000360: 1238 78bd 59b2 33bd b02a 24be 6cea c0bd
00000370: c061 99be 983b 44bd 2a59 97ba 1c1e bebc
00000380: 72cc 9bbd 20f9 bdbd 3d8e 75bc 9c92 72bd
00000390: 52f1 43be 6314 d1bc 4772 ec3b c67d 073b
000003a0: 1fa0 7ebc 1de8 57be a55e e1bc 4f6e f1bd
000003b0: 6745 cb3b 9499 7cbd 709d 2cbc d552 7abe
000003c0: 0b98 5cbc 2888 3dbb 435a 98bc 788b 0bbe
000003d0: 79fa 1e3b fa31 9fbc 58f6 7cbd 8cfc a5bd
000003e0: a72a 2dbd 0be0 8abd 575e b3bd 6017 8e3c
000003f0: a2ae b9bd a37d 69bc 997b 3bbb 8b52 72bd
0.031047251 -0.09294916 -0.021639572 -0.027220158 -0.068938196 -0.038814154 -0.023057941 -0.30357116
-0.027031612 -0.11188445 -0.037451345 -0.08423972 -0.15466972 0.029159015 -0.30789325 -0.02907439
0.0054416205 -0.0058696726 -0.038858593 -0.124273576 -0.08565043 -0.17360808 -0.03951775 -0.029780868
-0.38720584 -0.06619691 -0.0285827 -0.18984678 -0.029396096 -0.17923295 -0.080700226 -0.040780365
-0.052948374 0.037656195 -0.033892557 -0.10420151 0.0017691759 -0.24690154 -0.07151054 -0.26664847
-0.012888985 -0.052034862 -0.07047737 -0.038600814 -0.03534995 -0.27436572 -0.0440706 -0.073897734
-0.013711909 0.008378909 -0.004481065 -0.017261133 -0.027962536 -0.012154207 -0.0005686996 -0.28103364
-0.05362383 -0.24432631 -0.027579678 -0.01685465 -0.013569457 -0.21327132 -0.013486922 -0.0077435784
-0.03681418 0.022843592 0.0075575267 -0.0044209785 -0.056540605 -0.030062525 -0.20910893 0.018462092
0.018229887 -0.0015685165 -0.081041686 0.011035653 -0.024933998 -0.04111141 -0.008744528 -0.050736982
-0.017862814 -0.008755216 -0.022073383 0.022891562 -0.0051105623 0.014036644 -0.056663167 -0.015809665
0.0010774201 -0.027391542 0.0008170931 -0.0022745272 -0.011982234 -0.06888637 -0.1343502 -0.0016088918
-0.27778414 -0.032648575 0.024174431 -0.09322276 -0.05445751 -0.1410736 0.0034873523 -0.024315253
-0.047506418 -0.0015126014 0.054694574 -0.07142723 -0.026387287 -0.057049926 -0.076185085 0.008824122
-0.115247436 0.0054902895 0.0057464354 -0.0031344416 -0.0034102646 -0.037942357 0.001827447 -0.24875097
0.004674188 0.007340701 0.015708527 -0.2730812 -0.10523308 -0.06863335 -0.07958363 -0.06998717
-0.004862894 -0.19205332 -0.01167979 -0.12523212 0.020529706 0.017141834 -0.040462278 -0.02511417
-0.23539165 0.01838189 -0.033216126 -0.018087266 -0.0904732 0.031748883 -0.008234773 -0.15147832
0.0016754223 -0.027820744 -0.1578383 -0.08431359 -0.02212883 -0.09443545 -0.0048550507 -0.03823358
-0.0065617985 -0.15511176 -0.0074339993 -0.004326308 -0.03909562 -0.052418582 -0.02262894 -0.056305043
-0.008061827 0.013304855 0.01679199 0.026677003 -0.34403062 -0.056780603 -0.063737765 -0.036911454
-0.059216946 -0.05247997 -0.033772077 -0.022998393 0.004681158 -0.07119159 -0.11475389 -0.23530732
-0.12505375 -0.043376062 -0.07683328 -0.03449214 0.031068278 -0.015212928 -0.094656855 -0.022940712
-0.016559277 -0.08548691 -0.021223806 -0.101577386 -0.091142505 -0.09131957 -0.00393906 -0.032494515
-0.02846641 -0.033124354 -0.042054053 0.007168459 -0.01655616 -0.030499881 -0.094506085 -0.05402647
-0.13240547 -0.27979487 -0.08398801 -0.013916682 -0.07827995 -0.030927178 -0.070140645 -0.0010502693
-0.19317897 -0.0076042963 -0.026529133 -0.14771172 -0.06963306 -0.02023177 0.0019838887 -0.04253795
-0.060600348 -0.043871257 -0.16031909 -0.094197124 -0.2995739 -0.047908396 -0.0011546959 -0.023207717
-0.07607354 -0.092760324 -0.0149875255 -0.05922185 -0.19135025 -0.025522416 0.0072157714 0.0020674332
-0.0155411055 -0.21084638 -0.02751095 -0.11788618 0.0062033418 -0.0616699 -0.010535583 -0.2444566
-0.013463984 -0.0028920267 -0.018597728 -0.13627422 0.002425818 -0.01943301 -0.06175837 -0.0810481
-0.042277005 -0.06781014 -0.08758228 0.01734513 -0.09066512 -0.0142511455 -0.0028607605 -0.05916075

action_model._continuous_distribution.log_sigma f4 [1, 2]
00000000: 84ed 0ac0 d7b5 0cc0
-2.1707468 -2.1985986

action_model._continuous_distribution.mu.weight f4 [2, 256]
00000000: 278e c0b8 dec8 24ba 7e0c 01ba ab6c dab9
00000010: 533f 673b 791b eabb d68d 093b bc51 c8bb
00000020: 882f 4eb9 7fa1 b2bc 48f6 76ba 10a1 3cba
00000030: 32ca 96bc a75d da38 094d 35bc 0526 b639
00000040: 5cfa 05ba b2a3 49ba ab44 9db9 7c17 dfbb
00000050: e64b 51bc 40a6 43bb 6eb1 3e3b a4c7 92b9
00000060: 1d58 51bc d91e b8bc 8e80 033a 2cc2 67bc
00000070: 2a70 69ba 4937 7dbc dcec 4dba dfc2 50bb
00000080: 5fa4 da3a b96a 233b cb63 1039 a4a5 0fbb
00000090: 0295 023a bd61 86bc 4d4b 0d3b baf4 973b
000000a0: a423 1fb9 acd3 d1b9 f0ea 653b 9b19 a9b8
000000b0: a7e6 c039 7a84 ac3b 00cc c3b9 007a 573d
000000c0: 2ee6 1fba 62e6 9b38 41c8 a83b f0ac abbb
000000d0: c284 a6b9 cb3c eeb8 5015 24ba 44b7 70bc
000000e0: b9c4 58ba 9068 6abc c4f4 2eba d2dc 8bba
000000f0: bce4 52ba 9895 b5bc d72b cfb9 8a1e c6b9
00000100: 5677 0f3c a57c be3b 0d3e 07ba 179b 1a39
00000110: 80d6 33ba f358 8f3b 7bcd 6abc 6d24 d539
00000120: 9242 beb9 5ad7 10ba 81a7 483b e5c1 8d3d
00000130: 26c4 02ba 92a9 67ba 506b 233a 4b6d dcb9
00000140: 99f8 353a 383e 28b9 70a3 3ab9 4532 c1b8
00000150: 8ded a7b9 1aec e2bb 3a36 1bba b0a6 05ba
00000160: e0f8 8db7 5c4f 3eba c5e3 ed39 a3e3 bcb9
00000170: 3d9c a8b9 985a 083b 3a6e 61bc ba18 8d39
00000180: 6148 03bc 0793 023c 55f9 0cba 1c67 7aba
00000190: 8ddb f8b9 7be7 b63c 700c 9d3c 1b13 3039
000001a0: f1d1 4bba 9ff9 82ba c361 1dba 0ae2 61ba
000001b0: f558 5bba 2260 01ba 9b03 0bba 2eff bcba
000001c0: 9442 183d 7b49 fcb9 d918 ad3a 06e5 f63a
000001d0: 5614 e0b9 dd64 15ba fe3f 4e39 b559 dfbb
000001e0: a293 12ba f78f 353b 50c7 34ba 7253 2fbc
000001f0: 0bcb 99bb 0a11 5b3a df7f 1cba 14d1 0f3b
00000200: 6e97 89ba 0a68 1c3b f01d 4d38 f03b bbbb
00000210: 047a 5c39 7fab 47b8 834a b638 9fb0 0eba
00000220: 7554 78bc fcfe 48ba e5b6 ad3b 3c8e 9cb8
00000230: d821 2cba 5ba5 2eba 1fbf 49ba 0502 8cbc
00000240: 1c8a 8d3a 5523 0bb9 abd8 73bc a162 8ab8
00000250: 888e 88b9 57bd 433b a1f9 b5b9 1090 3f3b
00000260: b388 01b9 98a9 e03b 03b7 8db8 0292 5ebb
00000270: 4355 80ba d5dc 11ba 5c50 2db9 7c08 653b
00000280: 98b6 50ba d91a ed37 3984 0d3a 7548 8dba
00000290: 1338 68bc 97fe c33b b0f7 8d3b 0c11 21ba
000002a0: 17ed 3dba db01 27ba baf0 3bba f736 593a
000002b0: 89e6 a23d efef 43b9 30fb 46ba 5404 95bc
000002c0: 70f1 a2bb 994b 00ba c710 17b9 942b 2aba
000002d0: a203 493b 6e1c 1b3d 2fd3 91ba f70d c139
000002e0: b009 66ba 7b80 e33b 5afc 8639 8e79 303c
000002f0: 552c 19ba 95fa 45ba a233 19ba a344 8ab9
00000300: 96ac feb9 5c67 ddb9 2547 62ba be94 afb9
00000310: 653d 8c3b 9f61 aaba c3ce 493b 0f2d 43ba
00000320: 799e e8bb 042a 15bc becd 3eba c152 57b8
00000330: a183 22ba bd6d 65ba ab4e a6b9 b2d5 6d39
00000340: 840d bcbc 86b2 9039 b27f adb9 462d 01bc
00000350: a538 0b3b 2688 0cba 8e11 4d39 758f 3d3a
00000360: 1acd 12ba 5622 3aba 6ef1 6f3a ff8b 45bb
00000370: 44f3 41bc 3ca8 80ba 329d 8939 1995 223a
00000380: ecc2 96bc c446 46bc 2e66 ecb9 2f17 9fb9
00000390: 4e5b 58bc 92b9 77ba 4b08 13ba 4148 2839
000003a0: 270a 353a 73fe 30bc fddc 11ba a9c0 e2bb
000003b0: e29c 7ab8 92d5 c23a 77b2 a7b9 eeed 70bc
000003c0: ae33 cab9 e6ed 1cbc 1a86 5ab8 7f9a b33c
000003d0: c065 4cbc 6519 26b9 5b7c 073b cfb3 b33a
000003e0: 4e92 d0ba 896e 4aba db1a 003c f68c 2239
000003f0: 8f44 0fba 2851 e7bc 833b 86ba 314e 97ba
-9.1817514e-05 -0.0006286035 -0.0004922821 -0.00041661164 0.0035285547 -0.0071443883 0.0020989082 -0.006113259
-0.00019663398 -0.021805523 -0.0009420854 -0.0007195631 -0.018406961 0.00010412494 -0.01106573 0.00034742072
-0.0005110854 -0.0007691934 -0.00029996535 -0.0068082195 -0.012774443 -0.0029853731 0.0029097456 -0.00027996034
-0.0127773555 -0.022475647 0.00050164096 -0.014145415 -0.00089049584 -0.015455076 -0.0007855424 -0.0031854433
0.0016681066 0.0024935438 0.00013770086 -0.0021918798 0.00049813103 -0.016404027 0.0021559775 0.004637328
-0.00015176699 -0.00040021294 0.003508266 -8.0633174e-05 0.00036792943 0.005264816 -0.0003734529 0.052606583
-0.0006099668 7.433888e-05 0.0051508253 -0.0052391216 -0.000317609 -0.00011360048 -0.00062592793 -0.014692131
-0.000826906 -0.014307156 -0.0006674046 -0.0010670668 -0.00080449483 -0.022166058 -0.0003951478 -0.00037788256
0.008756479 0.0058131986 -0.00051590876 0.0001474436 -0.0006860271 0.0043746172 -0.014331217 0.00040653665
-0.00036289223 -0.0005525254 0.0030617418 0.06921748 -0.0004988335 -0.00088372186 0.00062339474 -0.000420431
0.0006941646 -0.00016044907 -0.00017799227 -9.2123206e-05 -0.0003202971 -0.006925118 -0.0005920861 -0.0005098386
-1.6924401e-05 -0.000725975 0.00045373864 -0.00036027757 -0.00032159864 0.0020805951 -0.01375919 0.00026912038
-0.008012862 0.007969624 -0.00053777295 -0.00095521077 -0.00047465824 0.022327175 0.01917097 0.00016791785
-0.0007775119 -0.0009992606 -0.00060036423 -0.00086167513 -0.00083674426 -0.00049352844 -0.00053029665 -0.0014419311
0.03717287 -0.00048119933 0.0013206258 0.0018836565 -0.0004273976 -0.0005698929 0.0001966953 -0.006816114
-0.0005591457 0.0027704218 -0.0006896155 -0.010701047 -0.004693394 0.0008356726 -0.0005969982 0.0021944689
-0.00104974 0.0023865723 4.890369e-05 -0.005713932 0.0002102629 -4.7605015e-05 8.692315e-05 -0.0005443189
-0.015156855 -0.000766739 0.0053013437 -7.465153e-05 -0.00065663224 -0.0006662213 -0.0007696021 -0.017090807
0.0010798606 -0.00013269235 -0.014883201 -6.598724e-05 -0.00026046135 0.0029867494 -0.00034708998 0.0029230155
-0.00012353323 0.0068561547 -6.7574925e-05 -0.003396154 -0.0009791035 -0.00055642176 -0.00016528502 0.0034947684
-0.0007961779 2.8265104e-05 0.0005398426 -0.001077904 -0.014173525 0.005981277 0.004332505 -0.0006144203
-0.0007245107 -0.0006370821 -0.0007169355 0.00082860835 0.07954127 -0.00018686031 -0.00075905304 -0.01819054
-0.0049726292 -0.00048940774 -0.00014406732 -0.0006491479 0.0030672331 0.03786891 -0.001112556 0.00036822233
-0.0008775247 0.0069428063 0.00025746488 0.010771168 -0.0005843093 -0.0007552293 -0.00058441807 -0.0002637255
-0.00048575242 -0.00042229414 -0.0008631817 -0.00033489423 0.0042797797 -0.0012999064 0.0030793406 -0.0007445374
-0.0070989695 -0.009104256 -0.0007278583 -5.1337065e-05 -0.0006199424 -0.0008752009 -0.000317206 0.00022681689
-0.022955664 0.0002759883 -0.00033092272 -0.007884329 0.002124348 -0.0005360864 0.00019556863 0.00072311546
-0.00056000205 -0.00071004534 0.00091531023 -0.0030143259 -0.011837784 -0.0009815763 0.00026247796 0.0006202027
-0.018403493 -0.012101833 -0.00045089558 -0.00030344116 -0.0132053625 -0.00094499544 -0.0005608841 0.00016048645
0.0006906115 -0.010802853 -0.0005564241 -0.0069199395 -5.9750753e-05 0.0014864674 -0.0003198569 -0.014705164
-0.00038566947 -0.009578204 -5.2100142e-05 0.021924255 -0.012475431 -0.00015840454 0.0020673487 0.0013710203
-0.0015912743 -0.00077221595 0.007818903 0.00015502036 -0.0005465233 -0.02823694 -0.0010241125 -0.0011543689

action_model._continuous_distribution.mu.bias f4 [2]
00000000: 2c04 6b3d 1307 83bd
0.057377025 -0.06397834
