MLAgents Jumper Exercise/Assets/results/beta_3/JumperAgent/JumperAgent-18499978.onnx (onnx, 570158 bytes, 15 tensors)

network_body.observation_encoder.processors.0.normalizer.running_mean f4 [26]
0	0x3f362eae	0.7116498
1	0x3f4156fb	0.75523347
2	0x3f362eae	0.7116498
3	0x3f4192ef	0.7561483
4	0x3f362eae	0.7116498
5	0x3f4192ef	0.7561483
6	0x3f362eae	0.7116498
7	0x3f425543	0.7591135
8	0x3f362ead	0.7116497
9	0x3f425542	0.75911343
10	0x3f362ead	0.7116497
11	0x3f43ccb9	0.76484257
12	0x3f362eae	0.7116498
13	0x3f43ccba	0.7648426
14	0x3f3f2eb5	0.74680644
15	0x3f4c40f7	0.7978663
16	0x3f3f2eb4	0.7468064
17	0x3f4c40f7	0.7978663
18	0x3f59a0ea	0.8501116
19	0x3f607bb5	0.8768876
20	0x3f59a0ea	0.8501116
21	0x3f607bb4	0.87688756
22	0x3f6d9797	0.9280943
23	0x3f7103fe	0.94146717
24	0x3f6d9798	0.9280944
25	0x3f7103ff	0.9414672

network_body.observation_encoder.processors.1.normalizer.running_mean f4 [2]
0	0x3ee592b9	0.44838503
1	0xbcd7c6fe	-0.026340004

network_body._body_endoder.seq_layers.0.weight f4 [256, 28]
0	0x3e77bf82	0.24194148
1	0xbe09f9d1	-0.13474204
2	0x3d8dec87	0.0692988
3	0x3e108cb3	0.14116172
4	0x3e54521e	0.2073445
5	0x3dbe9494	0.09305683
6	0x3e2175e3	0.15767626
7	0x3c369cbb	0.011145766
8	0x3e5ab592	0.21358326
9	0x3e7a0d99	0.2441925
10	0xbe6d7027	-0.23187314
11	0x3e388523	0.18019538
12	0x3c7c5074	0.015400041
13	0xbd13e781	-0.03610945
14	0x3def3f1a	0.116819575
15	0xbe9079e1	-0.28217986
16	0x3c0a4eae	0.00844161
17	0xbd0f6ee6	-0.03501787
18	0xbd06e9ee	-0.032937936
19	0x3e78673e	0.24258134
20	0xbf03964a	-0.514012
21	0x3d6387f8	0.05554959
22	0x3e0e2de8	0.138847
23	0x3bde9dfa	0.0067937346
24	0xbe80fa43	-0.25190935
25	0x3e1da6a6	0.15395603
26	0x3dacb9f5	0.08433906
27	0x3e1012f2	0.14069727
28	0x3d91c4c3	0.071176074
29	0xbda5bde8	-0.08092862
30	0xbe2ee6ee	-0.1708028
31	0xbe06df9b	-0.13171236
32	0x3e267279	0.16254605
33	0xbd7e29ad	-0.062051464
34	0x3eac5aff	0.33663175
35	0x3bff0153	0.0077821403
36	0xbe3fa39c	-0.18714756
37	0x3e07b0aa	0.13250986
38	0xbe32751f	-0.1742749
39	0x3e8dc90a	0.27692443
40	0x3e3bc2dc	0.18336052
41	0xbec25d6d	-0.37961903
42	0x3ede35f5	0.4340054
43	0xbf13f574	-0.57796407
44	0x3d0374e9	0.032093916
45	0xbc2904ee	-0.010316117
46	0x3e66aa3a	0.22525874
47	0xbe556808	-0.20840466
48	0xbc45c5d9	-0.012071096
49	0x3dcc5f68	0.09979135
50	0x3e7f8fcf	0.24957202
51	0xbee21fb5	-0.44164816
52	0xbe1273e3	-0.1430202
53	0x3d29645e	0.041355483
54	0x3e109707	0.14120112
55	0xbe5b0c53	-0.2139142
56	0x3e6f1fd9	0.23351993
57	0xbd9685ab	-0.07349714
58	0x3d0e1ef2	0.03469748
59	0x3d6d6016	0.057952963
60	0x3c23d1e7	0.009998775
61	0xbdf46c4d	-0.11934719
62	0xbcd892d4	-0.0264372
63	0x3e46bee0	0.1940875
64	0xbd6dc463	-0.058048617
65	0x3e2d734f	0.16938518
66	0x3d211cc9	0.039334092
67	0x3cd6ce19	0.026221322
68	0x3c12086a	0.008913139
69	0xbe5d0783	-0.21584897
70	0xbe868ad9	-0.26277807
71	0x3d9be56b	0.076121174
72	0x3d868025	0.065674104
73	0xbe4740a3	-0.1945825
74	0x3d4b07f4	0.04956813
75	0x3e9a9ff5	0.30200163
76	0xbe1da06e	-0.1539323
77	0x3ea9b417	0.3314521
78	0xbd8bec89	-0.06832225
79	0x3d25b7c5	0.04045846
80	0x3e253dd1	0.16136862
81	0x3ea30e12	0.31846672
82	0xbcda6d92	-0.026663575
83	0x3d3a4a5f	0.045481082
84	0xbdc37595	-0.09543911
85	0xbe0e4d2f	-0.1389663
86	0x3e538552	0.20656326
87	0xbe9bcf06	-0.30431384
88	0xbdc79eef	-0.09747111
89	0xbe249c7b	-0.16075318
90	0x3eaf5969	0.34247902
91	0xbe67c03a	-0.22631922
92	0x3c3dafa5	0.011577521
93	0xbd8e8aa5	-0.06960038
94	0x3ec3c80a	0.38238555
95	0x3eab59d8	0.33466983
96	0x3e135b10	0.14390206
97	0xbe40897b	-0.18802445
98	0xbd740483	-0.059574615
99	0xbdefadc2	-0.117030635
100	0xbe3136c6	-0.1730605
101	0x3e3829b7	0.17984663
102	0x3d5a1306	0.0532408
103	0xbdf84b2a	-0.121237114
104	0x3e164ed5	0.1467851
105	0xbe313557	-0.17305504
106	0xbd79ea92	-0.06101472
107	0xbcf9b76e	-0.030482974
108	0x3e4f7791	0.20260455
109	0x3d645603	0.05574609
110	0xbcf0c810	-0.029392272
111	0x3d8a5f7f	0.06756496
112	0xbe2509bc	-0.16116995
113	0xbc6e75ee	-0.014554484
114	0x3deea454	0.11652437
115	0x3d1296ff	0.035788532
116	0x3e5d958d	0.2163908
117	0xbe22cc83	-0.15898328
118	0x3eff3cb2	0.49850994
119	0x3e1c86f3	0.15285854
120	0xbe8a14fb	-0.26969132
121	0x3ba2a833	0.0049638986
122	0x3dda083b	0.10646101
123	0xbd602e57	-0.054731693
124	0x3e246a46	0.16056165
125	0x3d12e3a5	0.03586163
126	0x3cab013a	0.020874608
127	0xbe9d9dd8	-0.30784488
128	0x3e51ca42	0.20487311
129	0x3d682eb2	0.056685157
130	0xbe6733c4	-0.22578341
131	0xbe3e1f74	-0.18566686
132	0xbe4efd93	-0.20213918
133	0x3e0f6e3c	0.14006895
134	0x3c074e8d	0.008258474
135	0x3ecf7c68	0.40524602
136	0x3d05e7b2	0.032691665
137	0xbe7a4d14	-0.24443465
138	0xbd2fe70d	-0.042944957
139	0x3ecfa2f0	0.40554
140	0x3e1b677b	0.15176193
141	0xbcb0c1b5	-0.021576742
142	0x3ea13741	0.31487468
143	0xbe0c8503	-0.13722615
144	0x3e6e1b4a	0.23252597
145	0xbdd304b9	-0.10303635
146	0xbe52da13	-0.20591001
147	0x3e21a1b4	0.15784341
148	0x3d992dee	0.074794635
149	0xbd75d73c	-0.060019717
150	0xbd581a9f	-0.052759763
151	0xbd86a20c	-0.06573877
152	0xbd985299	-0.07437629
153	0xbe015a25	-0.12632044
154	0x3e83c4fb	0.25736222
155	0x3dcf6895	0.10127369
156	0x3e1b7d30	0.15184474
157	0x3d792b93	0.06083257
158	0x3e450cdd	0.19243188
159	0xbe2be5af	-0.16786836
160	0xbe4185cd	-0.18898697
161	0xbd852aca	-0.06502302
162	0x3dd0fa99	0.10204048
163	0xbe829563	-0.25504598
164	0xbde4d4a6	-0.11173372
165	0x3e722001	0.23645021
166	0x3e6ca275	0.23108847
167	0x3bb0516f	0.0053808014
168	0x3ece436d	0.40285817
169	0x3dd3085d	0.103043295
170	0x3e548d61	0.20757057
171	0xbaa9edaf	-0.0012964512
172	0x3eaf838b	0.34280047
173	0xbc697893	-0.014249939
174	0x3e38b322	0.18037084
175	0xbebbadb2	-0.36655957
176	0xbdf82fc7	-0.12118488
177	0xbe790036	-0.24316487
178	0x3da5a52a	0.08088143
179	0x3ee8d4e4	0.45474923
180	0xbe979327	-0.29604456
181	0x3e56c91a	0.20975152
182	0x3ed9169c	0.42400062
183	0x3d7c32eb	0.061571997
184	0x3e1d900b	0.1538698
185	0xbeb32df8	-0.3499601
186	0x3e889adf	0.26680657
187	0x3e2307a5	0.15920885
188	0x3b121208	0.002228858
189	0xbe423773	-0.18966465
190	0xbdeab227	-0.11459761
191	0xbe9d200c	-0.30688512
192	0xbe71fd28	-0.23631728
193	0x3e2c94d8	0.16853654
194	0x3eb31f69	0.34984902
195	0x3dcbce94	0.09951511
196	0xbe1f2ee2	-0.15545228
197	0x3e2550eb	0.16144149
198	0xbd8263df	-0.06366705
199	0x3e22bc01	0.1589203
200	0x3dd688d2	0.10475315
201	0x3e473b61	0.19456245
202	0xbce2fe32	-0.0277091
203	0xbe516e97	-0.20452343
204	0xbce30734	-0.027713396
205	0xbdcc2ea2	-0.09969832
206	0xbeb4d912	-0.35321862
207	0x3da64f22	0.08120562
208	0x3d937d5f	0.07201647
209	0xbdc9e15b	-0.09857436
210	0x3cc9aa67	0.024617387
211	0x3dee4d09	0.11635787
212	0x3cb942e8	0.022614911
213	0xbc3a5bae	-0.011374397
214	0xbddec2b9	-0.10876984
215	0x3d9d7684	0.07688621
216	0x3d3486a7	0.044073727
217	0xbe186a90	-0.148844
218	0x3dd5caed	0.10439096
219	0x3ed81eb6	0.4221093
220	0xbe1bc27a	-0.15210906
221	0x3e84ceaf	0.25938937
222	0xbe3e4254	-0.1857999
223	0xbe9f33f3	-0.31094322
224	0x3e705600	0.23470306
225	0x3d88b1de	0.066745505
226	0xbe157fed	-0.14599581
227	0xbe8cd85f	-0.27508828
228	0x3e12c46d	0.14332743
229	0xbe4346c3	-0.19069962
230	0xbdc5788f	-0.09642135
231	0xbed01302	-0.40639502
232	0xbddc9d36	-0.10772173
233	0xbdd946d6	-0.10609214
234	0x3e8cd365	0.2750503
235	0x3d8f5950	0.06999457
236	0x3d76ab61	0.060222033
237	0x3d97c55d	0.07410691
238	0xbd9c6f29	-0.076383896
239	0xbc672486	-0.014107829
240	0xbd801245	-0.06253485
241	0xbdb3d694	-0.08781162
242	0xbd951e74	-0.07281199
243	0xbd8413b1	-0.06449068
244	0x3c8e782e	0.01739129
245	0x3d29ca8a	0.041452922
246	0xbd8ff7b7	-0.0702967
247	0xbe6872dd	-0.22700067
248	0x3db693ce	0.0891491
249	0x3ea2040c	0.31643713
250	0xbec789f0	-0.38972425
251	0x3bed5b12	0.0072435224
252	0xbe79b8ee	-0.24386951
253	0xbd6b6458	-0.057468742
254	0xbd695d5c	-0.0569738
255	0x3d813c01	0.06310273

network_body._body_endoder.seq_layers.0.bias f4 [256]
0	0xbe18b2ab	-0.14911906
1	0xbd5212c7	-0.05128744
2	0xbdd750c2	-0.1051345
3	0x3d1ead57	0.03873953
4	0x3d289410	0.04115683
5	0xbdd3a744	-0.10334638
6	0xbd70f2ef	-0.05882543
7	0xbe07d041	-0.13263036
8	0xbd3a521c	-0.04548846
9	0xbcce31e8	-0.025170282
10	0x3d1c8a92	0.03821809
11	0x3cf09124	0.029366083
12	0xbe21aacc	-0.1578781
13	0xbcf11b28	-0.029431894
14	0x3c49a11c	0.012306478
15	0xbdb66ad5	-0.08907095
16	0xbdbf5560	-0.09342456
17	0x3d683ac4	0.05669667
18	0xbdb22694	-0.086987644
19	0xbdca2666	-0.09870605
20	0xbcd32c8c	-0.025778078
21	0xbd34e7fb	-0.044166546
22	0xbda3f9d9	-0.08006639
23	0xbd806397	-0.06268995
24	0x3d5f7965	0.05455913
25	0x3d4bdd1b	0.04977141
26	0xbd8dc7eb	-0.06922897
27	0xbd67b6e1	-0.05657089
28	0x3b96ac41	0.004598171
29	0x3c867cdf	0.016416965
30	0xbd72e174	-0.05929704
31	0xbcf6bbf4	-0.03011892
32	0xbe30caf9	-0.17264928
33	0x3d831121	0.063997515
34	0xbd3cfa8c	-0.046137378
35	0x3cafc981	0.02145839
36	0xbe09a651	-0.13442351
37	0x3b2b6a90	0.0026156045
38	0xbd0c189d	-0.03420316
39	0x3d4729eb	0.04862396
40	0x3db87686	0.090069816
41	0xbe5014c4	-0.20320421
42	0xbd2fd41c	-0.042926893
43	0x3d5eef51	0.05442745
44	0xbdeab81e	-0.11460899
45	0x3d48ac47	0.04899242
46	0xbcff1383	-0.031137234
47	0xbdf4a692	-0.11945833
48	0xbc85cac5	-0.01633204
49	0xbe11174a	-0.1416904
50	0xbe8ddd01	-0.27707675
51	0xbddedf6d	-0.10882459
52	0x3d3d35b4	0.046193793
53	0xbcfb4760	-0.030673683
54	0x3d5b7bb3	0.053584766
55	0xbda4d2f4	-0.080480486
56	0xbde825e3	-0.11335351
57	0xbe290f20	-0.16509676
58	0xbd06b128	-0.032883793
59	0xbceda89e	-0.029011067
60	0xbdbfca4a	-0.093647555
61	0xbd0f98b9	-0.035057757
62	0x3d878351	0.066168435
63	0xbdf63520	-0.120218515
64	0xbdadb628	-0.08482009
65	0xbd55d09e	-0.052200906
66	0x3ce745e0	0.028231561
67	0x3d83a26d	0.06427465
68	0xbbbc1731	-0.0057400693
69	0xbe467577	-0.19380747
70	0xbcaa244e	-0.020769265
71	0x3d4945c5	0.049138803
72	0x3d5514ec	0.052021906
73	0xbd1343e2	-0.03595341
74	0xbd738abe	-0.059458487
75	0xbd37eb08	-0.044901878
76	0xbcb692dd	-0.022286827
77	0xbd8617d0	-0.065475106
78	0xbe039d52	-0.12852982
79	0x3bd8c495	0.0066152313
80	0xbdefd1a5	-0.117099084
81	0xbc0502f3	-0.008118379
82	0xbd16b9a9	-0.036798153
83	0xbd81ebad	-0.0634378
84	0xbddde838	-0.10835308
85	0xbd85c239	-0.06531186
86	0xbbc6a7a6	-0.0060624657
87	0xbc97f083	-0.018547302
88	0xbdaa94b1	-0.08329142
89	0xbe22f7b0	-0.15914798
90	0xbd8c6fdc	-0.06857273
91	0x3d0ec4b0	0.034855545
92	0xbde7920e	-0.113071546
93	0xbd1514e0	-0.03639686
94	0x3ceb962d	0.028758133
95	0xbcda6c8f	-0.026663093
96	0xbdef5795	-0.11686627
97	0xbdf2f22b	-0.11862596
98	0xbd839c28	-0.06426269
99	0xbdc58516	-0.09644525
100	0xbe1f047a	-0.15529051
101	0xbb7f4c61	-0.0038955437
102	0xbde1a57c	-0.11017892
103	0x3d466ed4	0.048445538
104	0xbc827fb0	-0.015930027
105	0xbbaa66e7	-0.005200255
106	0x3d145bbe	0.036220305
107	0xbd55c751	-0.052192036
108	0x3d750e85	0.0598283
109	0x3ce352cb	0.02774944
110	0xbd8a99aa	-0.0676759
111	0xbd3322de	-0.043734424
112	0xbd836bce	-0.064170465
113	0xbdbbb006	-0.09164433
114	0xbc3ca0e6	-0.011512971
115	0x3c53a9ec	0.0129189305
116	0x3c045d4b	0.008078883
117	0xbd4e42fc	-0.05035685
118	0xbb784ccc	-0.0037887571
119	0xbdc594f8	-0.09647554
120	0xbbac35a8	-0.0052554198
121	0xbc700d92	-0.014651673
122	0xbe1c6601	-0.15273286
123	0x3c33c1f5	0.010971536
124	0xbde1d8b4	-0.11027661
125	0xbd959748	-0.07304245
126	0xbe0867df	-0.13320874
127	0xbda5d531	-0.08097304
128	0xbcd27ccc	-0.025694273
129	0x3a67b63c	0.0008839106
130	0xbd2c697d	-0.04209279
131	0xbd8fe9e8	-0.07027036
132	0xbd9caa4f	-0.07649671
133	0xbc288118	-0.010284685
134	0xbe765bb3	-0.24058418
135	0xbc97a064	-0.018509097
136	0xbcd15313	-0.025552308
137	0xbd207670	-0.03917545
138	0x3d2683b9	0.040652964
139	0xba5e2347	-0.00084738847
140	0xbce0d833	-0.027446842
141	0xbde6f8d8	-0.11277932
142	0xbc48dd85	-0.012259846
143	0xbb97722f	-0.004621766
144	0x3d0411f8	0.0322437
145	0xbb938752	-0.0045022154
146	0x3cd7686c	0.02629491
147	0xbda4dacc	-0.08049545
148	0xbda525af	-0.08063828
149	0xbe1effb3	-0.15527229
150	0xbe04d3f6	-0.12971482
151	0xbdef6c1f	-0.11690544
152	0xbd85d97a	-0.06535621
153	0xbd8097db	-0.06278964
154	0xbdd0a6e0	-0.10188079
155	0x3d2ee7fa	0.0427017
156	0xbbf3dbcf	-0.0074419747
157	0x3d537cf2	0.05163283
158	0x3ce2dac6	0.02769221
159	0xbd7151ea	-0.05891601
160	0x3c976556	0.018480938
161	0x3d56c56c	0.05243437
162	0xbdf2af96	-0.118498966
163	0x3d22387b	0.039604645
164	0xbca96153	-0.02067629
165	0xbd197ca2	-0.037472375
166	0xbdd27dd4	-0.10277906
167	0xbbd0fb94	-0.0063776467
168	0xbdcf2361	-0.1011417
169	0x3cba4686	0.022738706
170	0x3bb4dd5e	0.005519553
171	0xbd81b024	-0.06332424
172	0xbe02862d	-0.12746496
173	0xbe11b474	-0.14228994
174	0xbbee9855	-0.007281343
175	0xbce35abd	-0.027753228
176	0xbc9f25b6	-0.019427162
177	0x3d09509e	0.03352415
178	0x3dc201a5	0.0947297
179	0x3d623bc2	0.05523277
180	0xbe23e55a	-0.1600546
181	0xbdb8a25a	-0.09015341
182	0xbb95c15b	-0.004570169
183	0x3c51cd3d	0.01280528
184	0xba61d91c	-0.00086154207
185	0xbd1bfd0c	-0.03808312
186	0xbe535c65	-0.20640714
187	0xbe2c617a	-0.1683406
188	0xbdb23054	-0.08700624
189	0x3cde7547	0.027155532
190	0xbda94930	-0.082659125
191	0xbe0c68f4	-0.13711911
192	0xbd17744a	-0.036976136
193	0xbdc97208	-0.09836203
194	0xbddf9f40	-0.109190464
195	0xbc2eec3c	-0.01067644
196	0xbdf4abd6	-0.119468376
197	0xbd97708e	-0.07394515
198	0x3a95090a	0.0011370492
199	0xbe180232	-0.14844587
200	0xbd0937c7	-0.03350046
201	0xbdcb4398	-0.09925002
202	0xbdd748a8	-0.10511905
203	0xbc40b9f4	-0.011763085
204	0xbba1f194	-0.0049421284
205	0xbd8322e4	-0.06403139
206	0xbd3a6701	-0.04550839
207	0xbdb52186	-0.08844285
208	0xbc8a16f5	-0.01685665
209	0x3d482ff8	0.04887387
210	0x3d29615f	0.041352626
211	0xbbbf2e8a	-0.0058344053
212	0xbde3e41d	-0.111274935
213	0xbd87303b	-0.06600996
214	0x3c45eb7d	0.012080071
215	0xbe30647c	-0.17225832
216	0x3ce1c76b	0.02756091
217	0xbd55454f	-0.05206805
218	0xbddda6dc	-0.108228415
219	0xbde5c26c	-0.11218724
220	0x3d7a25ee	0.06107133
221	0xbc09f1a7	-0.008419431
222	0xbddee8b7	-0.108842306
223	0xbe204c91	-0.15654208
224	0xbd812ac7	-0.06306987
225	0xbe09d98c	-0.13461894
226	0xbd8753ee	-0.06607805
227	0x3c636e35	0.013881256
228	0xbe076d55	-0.132253
229	0xbc9b01f6	-0.018921833
230	0xbe3965fc	-0.1810531
231	0xbdc24c73	-0.09487238
232	0x3d7e001b	0.06201182
233	0x3c7d91ce	0.015476657
234	0xbd26b3a3	-0.04069866
235	0xbd4c2794	-0.049842432
236	0x3c8d5f89	0.017257469
237	0xbb5fbcf1	-0.0034139717
238	0xbd86cff7	-0.06582635
239	0xbd6d70f4	-0.05796905
240	0xbd88c613	-0.06678405
241	0xbcb569fb	-0.022145262
242	0xbca493d6	-0.020090025
243	0xbc99671b	-0.018725922
244	0x3c8cc09a	0.017181683
245	0xbcc51598	-0.024058148
246	0xbcdbcfdb	-0.026832512
247	0x3d122019	0.035675142
248	0xbdbc7647	-0.09202247
249	0xbd3082e6	-0.043093584
250	0x3d5eb306	0.05436995
251	0xbcb5c141	-0.022186877
252	0x3b1b2aca	0.0023676627
253	0xbbd2866e	-0.0064247167
254	0xbd85e2cb	-0.06537398
255	0xbd37198e	-0.044702105

network_body._body_endoder.seq_layers.2.weight f4 [256, 256]
0	0x3d811382	0.06302549
1	0xbd9e57b7	-0.07731574
2	0x3cf09d4f	0.029371886
3	0xbd0a6437	-0.03378698
4	0xbe0e83c8	-0.13917458
5	0xbcab8be8	-0.020940736
6	0x3d707e1a	0.05871401
7	0x3db430ca	0.08798368
8	0xbd4ef70b	-0.050528567
9	0x3d4c76c0	0.049917936
10	0xbcd4d61f	-0.025981007
11	0xbccca7e7	-0.024982406
12	0xbd89612b	-0.067079864
13	0xbd328748	-0.043586046
14	0xbd4a06e7	-0.04932299
15	0x3dfc2dd7	0.12313431
16	0xbb72d2ef	-0.0037051996
17	0xbd8936c5	-0.066998996
18	0xbd3204df	-0.043461677
19	0x3a4bdbef	0.0007776608
20	0xbe44cb5b	-0.19218199
21	0xbc849d64	-0.016188331
22	0x3d59597e	0.053063862
23	0xbcca13d7	-0.024667663
24	0x3d31d79d	0.043418515
25	0xbd72a032	-0.059234805
26	0xbdcdf3b7	-0.100562505
27	0x3d9d219b	0.07672425
28	0xbb57a1be	-0.0032902802
29	0xbc8300f3	-0.015991664
30	0xbd67ac68	-0.056560904
31	0x3de68113	0.11255088
32	0xbbaa900b	-0.0052051595
33	0x3d49e55d	0.049291003
34	0x3ca2eb0f	0.019887475
35	0xbcb54a47	-0.022130145
36	0xbd0961aa	-0.033540405
37	0xbe396ec7	-0.18108664
38	0x3d917818	0.07102984
39	0xbdfd5441	-0.12369586
40	0xbd120783	-0.035651695
41	0x3c9057e4	0.017620035
42	0xbca64e9e	-0.02030116
43	0xbce21247	-0.027596606
44	0xbdb52a76	-0.088459894
45	0xbc2f0578	-0.010682456
46	0xbdac21dd	-0.084048964
47	0x3c9cf6b9	0.019160615
48	0xbd03a85e	-0.03214299
49	0x3d951b4f	0.07280599
50	0xbdcbe5f1	-0.09955967
51	0x3ce7a5c0	0.028277278
52	0xbc265f0d	-0.010154498
53	0xbd63c9dc	-0.05561243
54	0xbd7c0c77	-0.061535325
55	0xbc86cce4	-0.016455121
56	0x3b31a097	0.0027103776
57	0xbdf086b2	-0.11744441
58	0xbdc8d72d	-0.098066665
59	0x3d9b011d	0.07568572
60	0x3d669805	0.05629732
61	0xbd4482ea	-0.047976412
62	0xbd33da2f	-0.043909248
63	0xbd3bc665	-0.0458435
64	0x3e0de02d	0.13855048
65	0xbd004ef9	-0.031325314
66	0xbe1be3e5	-0.15223654
67	0xbe22af51	-0.1588719
68	0xba92563f	-0.0011164619
69	0xbdc565dc	-0.09638569
70	0xbb3bc5c0	-0.0028651804
71	0x3c5fea75	0.013666739
72	0x3d6fba54	0.058527306
73	0x3de2caca	0.11073835
74	0x3e1d5c4a	0.15367237
75	0xbd9da9b4	-0.07698384
76	0x3cde3a54	0.027127422
77	0xbda09f73	-0.078429125
78	0xbe09fdf9	-0.13475789
79	0xbcb7a1e9	-0.022416072
80	0xbc34f5d6	-0.01104494
81	0x3d08d49f	0.033405896
82	0xbc253f2f	-0.010085865
83	0xbd8a6809	-0.067581244
84	0xbd71f8f7	-0.059075322
85	0x3d9d4eef	0.07681071
86	0x3e0f87ec	0.14016694
87	0xbe0669fa	-0.13126364
88	0x3e26933d	0.16267104
89	0xbd54817e	-0.051881306
90	0x3d9f78bd	0.07786701
91	0x3b83974c	0.0040158387
92	0xbd223402	-0.03960038
93	0xbde3bb78	-0.11119741
94	0x3d2ef2d4	0.042712048
95	0xbde70b11	-0.112814076
96	0x3d2b0ca9	0.04176012
97	0xb990e599	-0.00027636884
98	0xbce4b3ce	-0.027917769
99	0xbe09c4d8	-0.13453996
100	0x3cdd5350	0.027017266
101	0xbe18428d	-0.14869137
102	0x3c471898	0.01215186
103	0xbd39e369	-0.04538289
104	0xbe74bd48	-0.2390033
105	0x3db5017d	0.088381745
106	0x3cd26217	0.025681539
107	0x3be2bef0	0.006919734
108	0xbdbd904f	-0.0925604
109	0xbe48de8a	-0.19616142
110	0xbd95fdfd	-0.07323835
111	0x3e3b1906	0.18271264
112	0x3cfc2b85	0.03078247
113	0xbaed2a0f	-0.00180942
114	0x3d71a177	0.058991875
115	0xbca28357	-0.019838018
116	0xbd005fe5	-0.031341452
117	0x3cbae6f9	0.022815214
118	0x3d0e752d	0.034779716
119	0xbcac29e0	-0.021016061
120	0xbd2706b3	-0.040777873
121	0xbd1dab27	-0.0384933
122	0xbdcddcd5	-0.10051886
123	0x3c1ab2ea	0.0094420705
124	0x3cc21c50	0.023695141
125	0x3bf259cb	0.007395958
126	0xbd9ac83f	-0.07557725
127	0xbd094f4d	-0.033522893
128	0x3cb66d96	0.022269052
129	0xbd92ea2f	-0.07173573
130	0xbcda52b5	-0.026650766
131	0x3ce3d50d	0.027811551
132	0xbd321576	-0.043477498
133	0xbe2d55e3	-0.16927294
134	0xbd3179b8	-0.04332897
135	0x3bb9aa46	0.00566605
136	0xbde0dfe6	-0.10980205
137	0xbd907e8e	-0.070553884
138	0xbe14510e	-0.14484045
139	0x3c1a9507	0.009434945
140	0xbcb1f1a0	-0.021721661
141	0xbe3e99f6	-0.18613419
142	0xbdaa3559	-0.083109565
143	0xbd9ae816	-0.07563798
144	0xbcf2cbba	-0.02963816
145	0xbab49a06	-0.0013778813
146	0xbe24e3e9	-0.16102566
147	0xbe09d7d1	-0.13461234
148	0xba7437b3	-0.0009316161
149	0xbdd6c134	-0.10486069
150	0x3d2c1100	0.0420084
151	0x3dd20d38	0.102564275
152	0x3d957b59	0.07298917
153	0x3df1a900	0.11799812
154	0x3c158f38	0.009128384
155	0xbd69deda	-0.057097293
156	0x3cc711c3	0.024300462
157	0xbccada60	-0.024762332
158	0x3d22226b	0.039583605
159	0xbdeb7935	-0.11497728
160	0xbd903e81	-0.07043172
161	0x3e579d7a	0.21056166
162	0xbe06736c	-0.13129967
163	0x3debd0fc	0.1151447
164	0xbe1e22a3	-0.154429
165	0xbd45a05d	-0.048248637
166	0x3e0168b5	0.12637599
167	0x3d207ce8	0.03918162
168	0x3c8d851d	0.017275387
169	0xbde9247f	-0.11383914
170	0xbd4ded47	-0.050275113
171	0x3bc63376	0.006048615
172	0x3c385143	0.011249843
173	0xbc4a4dd5	-0.012347658
174	0x3b9181e8	0.004440535
175	0x3e1833e4	0.14863545
176	0xbca46318	-0.020066783
177	0x3d55a3d2	0.052158184
178	0x3c8a98d7	0.016918583
179	0xbd84cfb1	-0.064849265
180	0x3d19723b	0.037462454
181	0x3c8963f3	0.016771292
182	0x3d67d911	0.056603495
183	0xbd6d203a	-0.05789206
184	0xbd3b7108	-0.045762092
185	0x3d22255f	0.03958642
186	0x3c8afff0	0.016967744
187	0xbe011329	-0.12604965
188	0xbd96c79f	-0.073622935
189	0x3d635da6	0.055509232
190	0xbe1d1de9	-0.15343441
191	0xbd9696c8	-0.07352978
192	0x3d14ad66	0.036298178
193	0x3c8c7adc	0.017148428
194	0x3d975efb	0.07391163
195	0x3d91a6c8	0.07111889
196	0xbc85b70d	-0.016322637
197	0xbc8491a1	-0.016182723
198	0xbe07b116	-0.13251147
199	0xbcac8b9b	-0.021062663
200	0xbd8c71ec	-0.068576664
201	0x3d172194	0.036897257
202	0x3c2c9f1d	0.010535982
203	0xbe03d8a1	-0.12875606
204	0xbdc16b4c	-0.094442934
205	0x3d0e6666	0.034765624
206	0x3d3350e7	0.043778326
207	0x3d7662c7	0.060152795
208	0x3d536275	0.051607568
209	0xbd33bd8f	-0.04388195
210	0xbdb10dcf	-0.08645212
211	0xbe04ab47	-0.12955962
212	0xbe3ced06	-0.18449792
213	0x39ad212a	0.0003302184
214	0xbd61b2b9	-0.055102084
215	0xbe3281b9	-0.17432298
216	0xbe851ebd	-0.26000014
217	0xbd938e5a	-0.07204886
218	0xbd648791	-0.05579335
219	0x3e521951	0.2051747
220	0x3d849e6e	0.064755306
221	0xbe6d0b04	-0.23148733
222	0xbdcf9836	-0.10136454
223	0xbddd9331	-0.1081909
224	0x3da797aa	0.081832245
225	0x3d440141	0.04785276
226	0x3d087b26	0.03332057
227	0x3db73d28	0.089472115
228	0xbd65dc05	-0.05611803
229	0x3b8899ad	0.00416871
230	0xbd694b11	-0.056956355
231	0x3c76fbcc	0.0150746815
232	0x3e5d43f7	0.21607958
233	0xbc5e7f5b	-0.013580169
234	0xbd90e9f6	-0.070758745
235	0x3d070b7d	0.03296994
236	0x3e117c92	0.14207676
237	0xbd87d832	-0.06633033
238	0xbd71c0cb	-0.059021752
239	0xbe8cecc3	-0.27524385
240	0xbc5d0291	-0.013489381
241	0x3b8b58a6	0.004252511
242	0xbdc3ea8a	-0.09566219
243	0xbc5cd2b2	-0.013477968
244	0xbd4ce1c9	-0.050020013
245	0x3d6f00f1	0.058350507
246	0x3da5b630	0.0809139
247	0x3ce17aac	0.027524315
248	0xbd3e9d63	-0.046536814
249	0xbe1b8dcb	-0.15190808
250	0x3df5687e	0.11982821
251	0xbd9fdeed	-0.078061916
252	0xbde2bd7c	-0.110712975
253	0xb9cea393	-0.00039413254
254	0x3d0630df	0.03276145
255	0xbdbc5245	-0.09195379

network_body._body_endoder.seq_layers.2.bias f4 [256]
0	0xbd228ad4	-0.039683178
1	0xbb9a75f9	-0.0047137705
2	0xbc79aa39	-0.015238338
3	0x3d3db559	0.046315525
4	0x3c7b95ac	0.015355509
5	0xbd05ca60	-0.032663703
6	0xbd8089e7	-0.06276303
7	0xbcd49718	-0.025950953
8	0xbd788e80	-0.060682774
9	0xbd2c6b90	-0.042094767
10	0xbcc5353a	-0.024073232
11	0x3d2f72eb	0.042834204
12	0xbc06a353	-0.0082176505
13	0x3d56e831	0.05246753
14	0xbd8d7ba9	-0.06908352
15	0xbcef50d8	-0.029213354
16	0x3d82c1af	0.063845985
17	0xbd5e1082	-0.05421496
18	0xbddee27c	-0.10883042
19	0xbcbdd8f4	-0.02317474
20	0x3b8436a8	0.004034836
21	0xbe27a483	-0.1637135
22	0xbbc845dd	-0.006111844
23	0xbc78d0fb	-0.015186544
24	0xbe355887	-0.17709552
25	0xbd4320ce	-0.047638707
26	0xbd4fd5b9	-0.05074093
27	0xbd05842a	-0.032596745
28	0xbe00208e	-0.12512419
29	0xbd7544da	-0.059880115
30	0xbcc18f0e	-0.023627784
31	0x3c8d5fc3	0.017257577
32	0xbde9f6f2	-0.11424054
33	0xbd74e824	-0.0597917
34	0xbc9f80f8	-0.019470677
35	0x3d9ea734	0.07746735
36	0xbd8c966d	-0.06864629
37	0xbdb25d06	-0.08709149
38	0xbe21cb3e	-0.15800187
39	0xbdb6e940	-0.08931208
40	0xbcc6fe0b	-0.024291059
41	0x3d238150	0.039918244
42	0xbd97beba	-0.07409425
43	0xbd8e7733	-0.06956329
44	0xbc8aa85c	-0.016925983
45	0xbd70d124	-0.058793202
46	0xbd15658f	-0.036473807
47	0x3c7c14a6	0.015385782
48	0x3a3709ff	0.00069823855
49	0x3bac9ad0	0.0052674785
50	0xbd6be64d	-0.05759268
51	0xbda5b2a3	-0.08090713
52	0xbdc3514e	-0.09536992
53	0xbc5edc38	-0.013602309
54	0x3d12fec3	0.03588749
55	0xbd5c1d4c	-0.053738877
56	0xbdb1da2b	-0.0868419
57	0xbdded2be	-0.1088004
58	0xbdd20161	-0.10254169
59	0xbb504b6c	-0.0031783236
60	0xbda3b28f	-0.07993042
61	0x3d5c4d37	0.053784575
62	0xbdddce55	-0.1083037
63	0xbd97e308	-0.0741635
64	0xbdadbe45	-0.08483557
65	0xbe25ab01	-0.16178514
66	0xbdbccd78	-0.092188776
67	0xbc60c6a5	-0.013719236
68	0x3bd16030	0.0063896403
69	0xbd00d3b0	-0.03145188
70	0xbc30356c	-0.010754924
71	0x3dae9cb8	0.085259855
72	0x3d05c9c1	0.03266311
73	0xbd291c30	-0.041286647
74	0x3d4e7e4f	0.050413426
75	0xbd9c08ea	-0.07618888
76	0xbc950fe6	-0.018196058
77	0x3c17b9a6	0.009260571
78	0xbd2de307	-0.04245284
79	0xbe27aff5	-0.16375716
80	0x3c98225f	0.018571077
81	0xbdb04f8f	-0.086089246
82	0x3db692ad	0.08914695
83	0x3d5aee50	0.05344993
84	0xbc865fbe	-0.016403075
85	0x3d94b10f	0.07260334
86	0xbd36c029	-0.044616852
87	0xbceb744c	-0.028741978
88	0xbceec08d	-0.02914455
89	0x3c138adc	0.009005275
90	0x3b6eba13	0.0036426827
91	0xbd36402c	-0.044494793
92	0x3d00066b	0.03125612
93	0x3d8f6faa	0.0700372
94	0xbc2c662c	-0.010522407
95	0xbd3090f4	-0.043106988
96	0xbb0c5176	-0.002141086
97	0xbb98197b	-0.0046417094
98	0xbcbb791e	-0.022884902
99	0xbbe232ec	-0.006903043
100	0x3c37ef35	0.011226465
101	0xbdc033a5	-0.093848504
102	0xbc8dbc82	-0.017301802
103	0xbdd28abb	-0.10280367
104	0xbd81c789	-0.063368864
105	0x3b3dd0a8	0.002896348
106	0xbdd561ea	-0.10419066
107	0xbd9fbabf	-0.07799291
108	0xbd4456a6	-0.047934197
109	0xbda4a9c3	-0.08040192
110	0x3d4c28f1	0.049843732
111	0xbd6d4618	-0.057928175
112	0xbda595db	-0.08085223
113	0xbc40d635	-0.011769821
114	0x3d93b1a2	0.07211615
115	0x3c007312	0.007839935
116	0x3d361973	0.044457864
117	0xbd0d7b66	-0.03454151
118	0x3d824610	0.063610196
119	0xbdcb308a	-0.099213675
120	0xbe0287b8	-0.12747085
121	0xbd06964f	-0.03285819
122	0xbc575459	-0.013142669
123	0xbc2d0600	-0.010560513
124	0xbd866564	-0.065623075
125	0xbe02fc22	-0.12791494
126	0x3cdb0ea7	0.026740385
127	0xbd775780	-0.06038618
128	0x3c6d467a	0.014482135
129	0xbcf60264	-0.030030437
130	0xbcc421d9	-0.023941921
131	0xbd3d3ed6	-0.046202503
132	0x3c2b5d4c	0.010459255
133	0x3d1fe0db	0.0390328
134	0xbd6200d0	-0.055176556
135	0x3c97b291	0.018517764
136	0xbd044ecd	-0.032301713
137	0xbdb2b634	-0.08726159
138	0x3d125cf9	0.035733197
139	0xbd7db4cc	-0.06194
140	0xbd5333ec	-0.05156319
141	0x3d335c24	0.043789044
142	0xbdaf9fb2	-0.08575381
143	0xbd7f4728	-0.06232372
144	0xbd720c18	-0.059093565
145	0xbcc46615	-0.023974458
146	0xbe445aee	-0.19175312
147	0xbdc32154	-0.09527841
148	0xbd1bf51c	-0.03807555
149	0x3c8814cc	0.01661148
150	0xbd7c2f0a	-0.061568297
151	0x3bafe2b4	0.0053676013
152	0xbd6aadb0	-0.057294548
153	0x3d85010f	0.064943425
154	0xbdeb515b	-0.11490127
155	0xbd87bc85	-0.06627754
156	0xbd47774f	-0.048697766
157	0x3c4e4a12	0.012590902
158	0xbd02ef26	-0.03196635
159	0xbd56cc9d	-0.05244123
160	0xbe17f138	-0.14838111
161	0x3daad540	0.083414555
162	0x3c046417	0.008080504
163	0xbc3fc30b	-0.011704217
164	0xbd90ebc7	-0.07076221
165	0x3d14a493	0.036289763
166	0x3c4f4a52	0.012651997
167	0xbd9d7be2	-0.076896444
168	0xbe513420	-0.2043004
169	0xbc9dc9ae	-0.019261207
170	0xbdcc8661	-0.09986568
171	0xbd522acc	-0.051310346
172	0xbd165fdc	-0.036712512
173	0xbd45fcd6	-0.048336826
174	0xbd546da0	-0.05186236
175	0x3d704c38	0.058666438
176	0xbb211330	-0.0024578087
177	0xbcd23cc0	-0.025663733
178	0x3cf718fa	0.030163277
179	0xbd8a87f9	-0.06764216
180	0xbcddbc75	-0.027067402
181	0xbd5ae0a0	-0.053436875
182	0x3c86bd9e	0.016447838
183	0xbcbc7d26	-0.023008894
184	0x3d03f6a0	0.03221762
185	0xbbdc947c	-0.006731568
186	0xbd2408c6	-0.04004743
187	0xbd4ca626	-0.04996314
188	0xbbfa94af	-0.007647119
189	0xbd96979c	-0.07353136
190	0xbdce0df7	-0.10061257
191	0x3d9e9f02	0.07745172
192	0x3d8e12fc	0.06937215
193	0xbbfb8cc6	-0.0076766936
194	0xbdc79950	-0.09746039
195	0x3d64f70d	0.05589967
196	0x3da2b462	0.079445615
197	0xbe1d50bd	-0.1536283
198	0x3da32b1c	0.07967207
199	0xbdc5f4a9	-0.09665806
200	0xbcd15798	-0.025554463
201	0x3d9e967b	0.077435456
202	0x3de3e1ac	0.11127028
203	0xbe12d2ad	-0.14338179
204	0xbdf962c0	-0.12177038
205	0xbd1e3c57	-0.038631763
206	0xbcf208ec	-0.02954527
207	0xbe0bc980	-0.13651085
208	0xbd8d5e13	-0.06902709
209	0xbd421889	-0.04738668
210	0xbd557daf	-0.052121814
211	0x3d8bae82	0.06820394
212	0xbc00243e	-0.007821141
213	0x3d1dd22b	0.03853051
214	0xbd997a96	-0.074940845
215	0xbda33579	-0.079691835
216	0x3d770037	0.06030294
217	0x3d7ccea5	0.06172051
218	0xbe789ae8	-0.24277842
219	0xbdf200c3	-0.118165515
220	0xbdc1dcb8	-0.09465927
221	0xbd8d4dfc	-0.0689964
222	0x3d441b7f	0.047877785
223	0xbd669386	-0.056293033
224	0xbda2a052	-0.07940735
225	0xbc061466	-0.008183574
226	0xbdce4e5e	-0.10073541
227	0x3d0861e4	0.03329648
228	0xbd94309e	-0.072358355
229	0x3d612ac1	0.054972414
230	0x3c942f61	0.018088998
231	0xbdba88c7	-0.091081195
232	0xbe1c5d0f	-0.15269874
233	0x3d998ebc	0.074979275
234	0xbc999987	-0.018749965
235	0x3b0368b4	0.0020051422
236	0x3c37a461	0.011208625
237	0xbd8dd301	-0.069250114
238	0x3d0be0aa	0.034149803
239	0xbda43b6c	-0.08019146
240	0xbe6b30dd	-0.22967859
241	0xbd2c97a2	-0.042136796
242	0xbda78a91	-0.08180726
243	0xbe4cda2e	-0.20005104
244	0xbd3e079e	-0.046393983
245	0xbe28c2f5	-0.1648062
246	0x3d5f29b5	0.054483134
247	0x3d56ae67	0.052412417
248	0x3ca218fc	0.019787304
249	0xbc66d6b9	-0.01408928
250	0x3c00138a	0.0078171585
251	0x3d038474	0.03210874
252	0xbcc3de89	-0.023909824
253	0x3d520046	0.051269792
254	0xbe36c181	-0.17847253
255	0xbcd2e80e	-0.025745418

network_body._body_endoder.seq_layers.4.weight f4 [256, 256]
0	0x3d978390	0.073981404
1	0xbdf31026	-0.118683144
2	0xbccfd90e	-0.025372054
3	0xbdd374f9	-0.10325045
4	0xbc304852	-0.01075943
5	0xbdd3fb0f	-0.1035062
6	0x3df6a16e	0.12042509
7	0xbc96842d	-0.018373573
8	0xbb90a30a	-0.004413967
9	0xbc37d1b9	-0.011219435
10	0x3d19824c	0.037477776
11	0x3c3ca8e8	0.01151488
12	0x3c8142ee	0.015778985
13	0x3b1fbc77	0.0024373808
14	0xbc901e8a	-0.017592687
15	0xbdd36eb4	-0.10323849
16	0x398d99d5	0.0002700823
17	0x3d636b7e	0.055522434
18	0xbcd0cea5	-0.02548916
19	0x3d99fd02	0.075189605
20	0xbda51c4b	-0.08062037
21	0x3d4f3028	0.050583035
22	0x3d8031b4	0.0625948
23	0x3d3fe23b	0.04684661
24	0xbd5fb6ed	-0.05461781
25	0x3dd2bd95	0.10290066
26	0xbd50bc30	-0.05096072
27	0xbc6c19e5	-0.014410471
28	0xbccbe38c	-0.024888776
29	0x3c5066e7	0.012719846
30	0xbd072950	-0.032998383
31	0xbd1a0db3	-0.03761072
32	0xbda83d5b	-0.082148276
33	0xbd315cd2	-0.04330141
34	0xbd9d8fd8	-0.07693452
35	0xbcb5c6f0	-0.022189587
36	0x3c4a6da0	0.012355238
37	0xbcba1818	-0.022716567
38	0xbd47a0d9	-0.04873738
39	0x3d522ea2	0.051314004
40	0xbca984ae	-0.02069315
41	0xbca3791c	-0.01995521
42	0xbc9f1a74	-0.019421794
43	0xbd567a14	-0.052362517
44	0xbcf2d841	-0.029644134
45	0xbd6425a1	-0.05569995
46	0x3df39426	0.118934914
47	0x3d99b31b	0.07504865
48	0xbdbeee82	-0.093228355
49	0xbd4ab055	-0.04948457
50	0x394b8dd1	0.0001941242
51	0xbd2a8ef1	-0.041640226
52	0x3d9c47f9	0.07630915
53	0x3cb3055f	0.021853147
54	0xbd1d34f4	-0.03838058
55	0xbd773be9	-0.06035987
56	0xbcb98f88	-0.022651449
57	0x3da38df1	0.079860575
58	0x3cb04094	0.021515168
59	0xbd45919f	-0.04823458
60	0x3d3257a0	0.043540597
61	0x3d3e02ae	0.046389274
62	0xbd8437c3	-0.06455948
63	0x3ab33972	0.0013673736
64	0xbd7d1598	-0.06178817
65	0xbcd6649f	-0.026171027
66	0x3c645058	0.013935171
67	0xbd1ea9d9	-0.038736198
68	0xbd4ba5f1	-0.0497188
69	0xbe01a065	-0.12658842
70	0x3d6b1f73	0.05740304
71	0xbca3ade5	-0.01998038
72	0x3db8a745	0.09016279
73	0x3d6fca4f	0.058542546
74	0xbd1493c7	-0.036273744
75	0xbcc5f89e	-0.024166401
76	0x3d81af9c	0.06332323
77	0xbcc5ac7f	-0.024130104
78	0xbc447a1c	-0.011992004
79	0x3d68f35c	0.05687271
80	0x3d7201f5	0.059083898
81	0x3d5e0093	0.054199766
82	0xbced6197	-0.028977199
83	0x3da3d037	0.07998698
84	0x3d059d87	0.032620933
85	0xbde0a60f	-0.10969173
86	0xbd80c843	-0.06288197
87	0xbd5ff262	-0.054674514
88	0x3c92e5cc	0.017931841
89	0xbd7ad77c	-0.06124066
90	0xbc780a0c	-0.015139114
91	0x3cf8aef7	0.030356867
92	0x3dd101e7	0.10205441
93	0x3d62d53c	0.055379137
94	0x3cff3719	0.031154202
95	0xbdceffc5	-0.10107378
96	0xbc84b564	-0.016199775
97	0x3d90d133	0.070711516
98	0xbd906b93	-0.07051768
99	0xbc38b648	-0.011273928
100	0x3d1d4c5d	0.038402904
101	0xbc5515c3	-0.013005677
102	0xbda504ff	-0.080575936
103	0xbdcaa338	-0.09894413
104	0x3d1d0d21	0.0383426
105	0x3d3c07fa	0.045906045
106	0x3b925c31	0.0044665565
107	0xbd59eccf	-0.053204354
108	0x3d11622d	0.03549402
109	0xbd3a2990	-0.045449793
110	0x3da2802f	0.07934605
111	0x3d70cd74	0.058789685
112	0xbcc1bf4d	-0.02365079
113	0xbd36ab81	-0.044597153
114	0x3bf0963e	0.007342129
115	0x3d626ca9	0.055279408
116	0xbc55d7be	-0.013051925
117	0x3a1bd5c5	0.0005944635
118	0x3dd60352	0.10449852
119	0x3daada86	0.08342461
120	0x3d933dfc	0.07189557
121	0xbd557ec3	-0.052122843
122	0xbcd4d1b3	-0.025978899
123	0xbcbef117	-0.02330832
124	0x3d322b9c	0.04349862
125	0xbd4d24f5	-0.050084073
126	0xbde67b08	-0.11253935
127	0xbcae6281	-0.021287205
128	0x3cb8422d	0.022492493
129	0xbdb70d6d	-0.08938108
130	0x3cf7b8fa	0.03023957
131	0xbdc50623	-0.09620311
132	0xbcd7ba25	-0.026333878
133	0xbb22cb29	-0.0024840331
134	0xbd5e936d	-0.054339815
135	0x3d79dc97	0.061001386
136	0xbe3606e9	-0.17776074
137	0x3e18341d	0.1486363
138	0x3db3c67a	0.08778091
139	0x3c85b4d2	0.016321573
140	0xbd98a8c8	-0.074540675
141	0xbdc09cc1	-0.094048984
142	0x3c03c4a8	0.008042492
143	0xbdb37732	-0.08762969
144	0x3cfd4a79	0.0309193
145	0xbb914225	-0.004432934
146	0xbd19dd06	-0.0375643
147	0x3d88c13f	0.06677484
148	0xbd0e35bc	-0.034719214
149	0x3d9496bd	0.072553135
150	0xb88bd63a	-6.667939e-05
151	0xbc505ce2	-0.0127174575
152	0x3d18d673	0.03731389
153	0x3cd833ed	0.026391948
154	0x3c0d6d90	0.008632079
155	0xbd263e62	-0.040586837
156	0x3cb64a30	0.022252172
157	0x3e2cf8d2	0.16891792
158	0xbd2391d1	-0.039933983
159	0xbd6483db	-0.05578981
160	0x3d308c69	0.043102656
161	0xbd2d9a44	-0.042383447
162	0x3d3fd5ec	0.04683487
163	0x3d5c6ba4	0.05381359
164	0xbe07f4f6	-0.13277039
165	0x3d16538e	0.036700778
166	0xbd0129b2	-0.031533904
167	0x3d48f7c6	0.04906442
168	0x3d0813e6	0.0332221
169	0x3d82db5b	0.06389495
170	0x3ca41c23	0.020032948
171	0xbdfc0cd5	-0.12307135
172	0x3d034817	0.032051172
173	0xbc7b2b47	-0.015330142
174	0xbc5fd242	-0.013660969
175	0xbd479560	-0.04872644
176	0xbc181aaa	-0.009283701
177	0xbbc48751	-0.0059975763
178	0x3bb9fad5	0.0056756535
179	0xbd2b1d31	-0.041775886
180	0xbd745b5f	-0.05965745
181	0x3bff4f32	0.0077914232
182	0xbcc4b0d7	-0.024010105
183	0xbd4b6996	-0.04966124
184	0xbd6658e5	-0.05623712
185	0xbd8f5f53	-0.070006035
186	0x3d0fe2fd	0.035128582
187	0x3ccc0547	0.02490486
188	0xbb92240e	-0.0044598645
189	0x3dc3fb72	0.09569444
190	0x3d5c513c	0.05378841
191	0x3d1f7c18	0.038936704
192	0xbd61e292	-0.055147715
193	0xbcfe57ba	-0.03104769
194	0x3d1fc372	0.03900475
195	0x3d64540a	0.05574421
196	0xbb3eacdc	-0.0029094731
197	0x3c334ebf	0.0109440675
198	0xbc0f0f62	-0.008731695
199	0x3c19fffc	0.00939941
200	0xbd7eff4f	-0.0622552
201	0x3d8537bf	0.06504773
202	0xbdfd2664	-0.12360838
203	0x3d5e0259	0.054201458
204	0xbd03e1fe	-0.032197945
205	0x3c6b53ad	0.014363212
206	0x3da573fd	0.08078764
207	0x3d355b0a	0.044276275
208	0xbcddf1f6	-0.027092915
209	0x3d1a3421	0.03764737
210	0xbb2857d3	-0.0025687113
211	0xbce3586e	-0.027752127
212	0xbd9d59d1	-0.07683147
213	0xbd9d3817	-0.07676714
214	0x3dc9eb05	0.098592795
215	0xbd7d7590	-0.061879694
216	0x3b9ea5bc	0.0048415344
217	0xbc7be702	-0.015374901
218	0x3d1fe889	0.039040122
219	0x3c0a9364	0.008457992
220	0x3d4c3041	0.049850706
221	0x3d17a889	0.037025962
222	0x3cf661ff	0.030076025
223	0x3dd0606c	0.10174641
224	0xbd3c6e59	-0.046003673
225	0xbd6ec5a3	-0.05829395
226	0xbcc1f820	-0.023677886
227	0x3d34f44b	0.04417829
228	0x3da85b3a	0.08220525
229	0xbd9a0dac	-0.07522139
230	0xbccf0918	-0.02527289
231	0x3d3c1b02	0.045924194
232	0x3da70ef8	0.08157152
233	0xbd1821bc	-0.037141547
234	0xbd21bf16	-0.039488874
235	0x3d860572	0.06544007
236	0xba9e2b45	-0.0012067339
237	0x3cee254d	0.02907052
238	0x3d93dee7	0.072202496
239	0x3c9436a5	0.018092463
240	0xbd0485fa	-0.032354333
241	0x3dbbfddc	0.09179279
242	0xbd8102e0	-0.062993765
243	0x3d00079d	0.03125726
244	0xbc79a568	-0.01523719
245	0xbd60cdf7	-0.054883923
246	0x3d72db40	0.059291124
247	0xbd981769	-0.0742634
248	0x3cf6443d	0.030061835
249	0x3c64ed6a	0.01397262
250	0x3dc1525b	0.09439536
251	0x3e122141	0.14270498
252	0xbd1333df	-0.03593814
253	0xbc8fe0a0	-0.017563164
254	0xbcfdafea	-0.030967671
255	0xbda187af	-0.07887208

network_body._body_endoder.seq_layers.4.bias f4 [256]
0	0x3d044d1d	0.032300103
1	0xbdc15e48	-0.09441811
2	0xbcabe1f1	-0.02098176
3	0xbce31551	-0.027720125
4	0xbd864c2a	-0.06557496
5	0xbd1c1c89	-0.03811315
6	0xbcc9d587	-0.02463795
7	0xbe96fac6	-0.294882
8	0xbced64ec	-0.028978787
9	0xbde2cfbf	-0.11074781
10	0xbd17094f	-0.03687411
11	0xbdae3c48	-0.085075915
12	0xbe1e70b1	-0.15472676
13	0x3cfe9e4d	0.031081343
14	0xbe9755a7	-0.29557535
15	0xbcf9b9d7	-0.030484123
16	0x3baa4f03	0.005197407
17	0xbba07d07	-0.004897717
18	0xbd1bd145	-0.03804137
19	0xbdf93367	-0.12168007
20	0xbdb3cb64	-0.08779028
21	0xbe264a71	-0.16239335
22	0xbd10c622	-0.035345204
23	0xbd0066e1	-0.031348113
24	0xbec2785d	-0.37982455
25	0xbd661512	-0.056172438
26	0xbcc10912	-0.023563895
27	0xbe3d37be	-0.18478295
28	0xbcef8e68	-0.02924271
29	0xbe3b8065	-0.18310697
30	0xbda785d0	-0.081798196
31	0xbd0f2a25	-0.0349523
32	0xbd4d03e6	-0.050052546
33	0x3d2ed846	0.042686723
34	0xbd0b0795	-0.033942778
35	0xbdcc78d7	-0.09983986
36	0x3acc9854	0.0015609362
37	0xbe7a1ab4	-0.24424249
38	0xbd9b0928	-0.07570106
39	0xbe845256	-0.25844067
40	0xbc673f00	-0.014114141
41	0xbd56e44b	-0.05246381
42	0xbd93c0c1	-0.07214499
43	0xbd1a8373	-0.037723016
44	0xbd11e087	-0.035614517
45	0xbe880dfb	-0.26573166
46	0xbd2efaa1	-0.042719487
47	0xbd9b72c0	-0.07590246
48	0xbc6f114d	-0.014591527
49	0x3bf2f230	0.007414125
50	0xbbf54ab7	-0.0074857133
51	0xbc9e1e4d	-0.019301558
52	0xbce742d1	-0.028230103
53	0xbc2f769c	-0.010709431
54	0x3aa4295d	0.0012524534
55	0xbe8aff17	-0.27147743
56	0xbd5d6885	-0.054054756
57	0xbe71072f	-0.23537897
58	0xbcdecb25	-0.027196476
59	0xbc8f9121	-0.017525258
60	0xbc5c244a	-0.013436386
61	0xbe53297d	-0.20621295
62	0xbc33a0d3	-0.010963636
63	0xbbdd07a0	-0.0067452937
64	0xbd153e14	-0.036436155
65	0x3c674f52	0.0141180325
66	0x3bc90c21	0.006135479
67	0xbb92714f	-0.004469074
68	0xbd76145f	-0.06007802
69	0xbce7e365	-0.028306672
70	0xbe51b629	-0.20479645
71	0x3c8c5748	0.017131463
72	0x3c9c0a9d	0.01904803
73	0xbab9b9a6	-0.0014169707
74	0xbda1c380	-0.07898617
75	0x3c1ea8d5	0.009683807
76	0xbcbb6af3	-0.022878146
77	0xbd2163fa	-0.039401986
78	0xbc1a318a	-0.009411225
79	0xbd4b430e	-0.049624495
80	0xbca896c6	-0.020579707
81	0xbc228fe5	-0.009922002
82	0xbca763f4	-0.020433404
83	0x3cbac3ce	0.022798445
84	0xbb86d4a7	-0.0041147056
85	0x3c4a423b	0.012344892
86	0xbd6169ec	-0.055032656
87	0xbc8972eb	-0.01677843
88	0x3ae75866	0.0017650246
89	0xbcdc6c27	-0.02690704
90	0x3a2355b5	0.0006230728
91	0x3acc7488	0.0015598694
92	0xbc3c8465	-0.011506175
93	0xbd89973b	-0.06718298
94	0xbe027859	-0.12741221
95	0xbb5f1812	-0.0034041447
96	0xbe8855f9	-0.26628092
97	0xbd01fbec	-0.031734392
98	0x3cd1f085	0.025627384
99	0xbdc5e871	-0.09663475
100	0xbd5df16c	-0.054185316
101	0xbe09f1e4	-0.1347118
102	0x3b9dd6af	0.004816852
103	0xbcc100a1	-0.02355987
104	0xbd428257	-0.047487583
105	0xbb02bc1c	-0.0019948548
106	0x3d69d947	0.057091977
107	0xbd9d5411	-0.0768205
108	0xbcbb2438	-0.022844419
109	0xbd6f4a98	-0.058420748
110	0xbd9f2ecc	-0.07772598
111	0x3bc12280	0.0058940053
112	0xbdf30235	-0.11865655
113	0x3bc3c159	0.0059739766
114	0x3b6eb538	0.0036423933
115	0xbbc634af	-0.006048761
116	0xbb9dbdb3	-0.0048138737
117	0xbd1f6cc0	-0.03892207
118	0x3b76e025	0.0037670222
119	0xbe661256	-0.22467932
120	0x3bda9291	0.006670304
121	0x3b410e9c	0.002945817
122	0x3c6071ee	0.013699038
123	0xbe85e8c8	-0.2615416
124	0xbdd7be46	-0.10534339
125	0xbd8b7e40	-0.0681119
126	0xbda60f10	-0.08108342
127	0xbd969dc5	-0.07354311
128	0xbb80eb7b	-0.0039343215
129	0xbe3ca449	-0.18422045
130	0xbc4cd973	-0.012503016
131	0xbdf20acd	-0.11818466
132	0x3cb6f50d	0.022333646
133	0x3cabc861	0.020969572
134	0xbd21eaf2	-0.039530702
135	0xbcc7b038	-0.02437602
136	0xbe6d16ea	-0.23153272
137	0x3c981cb5	0.018568376
138	0xbd0b3542	-0.033986337
139	0xbc883dcb	-0.016631028
140	0xbdbd8749	-0.09254319
141	0x3d0bbc47	0.034115102
142	0xbc2256e0	-0.009908408
143	0xbe14baa2	-0.1452432
144	0x3a882ccf	0.001038933
145	0xbce171a2	-0.027520005
146	0xbe224462	-0.15846398
147	0xbdab54dd	-0.08365796
148	0xbca59980	-0.020214796
149	0xbdc7000f	-0.09716808
150	0xbb8c5b69	-0.004283358
151	0xbd27c591	-0.0409599
152	0xbc114191	-0.00886573
153	0xbe17010f	-0.14746498
154	0xbbe8dac6	-0.007106158
155	0xbbfbc0f4	-0.007682914
156	0xbd234c8a	-0.039867915
157	0xbd626dea	-0.055280603
158	0xbcab35bc	-0.020899646
159	0xbd51293c	-0.051064715
160	0xbbdfb83e	-0.0068273833
161	0x3c5fd5d7	0.013661823
162	0x3c8eaf0e	0.017417457
163	0x3cdb0e5f	0.026740251
164	0xbead7313	-0.33876857
165	0xbd6249a9	-0.05524603
166	0xbd6fbf56	-0.05853208
167	0xbd18b260	-0.037279487
168	0xbd803541	-0.062601574
169	0xbd5f0671	-0.054449502
170	0xbcfd9b0a	-0.030957717
171	0xbcc722c6	-0.024308573
172	0x3ae6397c	0.0017564739
173	0xbd928ef5	-0.07156173
174	0xbdea8a0f	-0.11452114
175	0xbe736af6	-0.23771271
176	0xbdfdac69	-0.123864
177	0xbd3c87b3	-0.04602785
178	0xbd9c6590	-0.07636559
179	0xbd0717d9	-0.032981727
180	0x3cd57c82	0.026060347
181	0xbc2ec1a5	-0.010666286
182	0xbdc78aa8	-0.097432435
183	0xbcbdb509	-0.023157613
184	0xbc6e3d29	-0.014540949
185	0xbdaee3fc	-0.08539578
186	0xbca4488f	-0.02005413
187	0xbdcfdb08	-0.10149199
188	0xbdbcec3f	-0.09224748
189	0xbdb17eae	-0.0866674
190	0xbb944ced	-0.004525772
191	0xbcfe6a15	-0.031056443
192	0xbce24677	-0.02762149
193	0xbd06047c	-0.03271912
194	0xbd30b65b	-0.043142658
195	0x3c14f0cd	0.0090906145
196	0xbcb171a2	-0.02166063
197	0xbcf8bf28	-0.030364588
198	0xbdc3ad15	-0.09554497
199	0xbd6dc966	-0.058053397
200	0xbdfc4895	-0.123185314
201	0xbe8a4d48	-0.27012086
202	0xbdaec98b	-0.08534535
203	0xbc5c7a40	-0.013456881
204	0xbd9ff59d	-0.07810519
205	0xbcf2e3c0	-0.029649615
206	0xbd91e5fe	-0.07123946
207	0xbafc29bc	-0.0019238512
208	0xbe457963	-0.19284587
209	0xbbdcf457	-0.0067429948
210	0xbce51c46	-0.027967583
211	0xbe144896	-0.14480814
212	0xbd9376bd	-0.07200382
213	0xbc8e2321	-0.017350735
214	0x3a4e34dd	0.00078661536
215	0xbd3a69cf	-0.045511063
216	0xbd7078fb	-0.058709126
217	0xbd31777e	-0.043326847
218	0xbe1f2bec	-0.15544099
219	0xbdb54e86	-0.08852868
220	0xbe93d254	-0.28871405
221	0xbd46431e	-0.04840385
222	0x3a900046	0.001098641
223	0xbcab83d8	-0.020936891
224	0xbd83ed27	-0.064417176
225	0xbdba28f6	-0.09089844
226	0xbc5c6353	-0.013451415
227	0xbd727318	-0.059191793
228	0xbe4557cd	-0.19271775
229	0xbcc9588b	-0.024578353
230	0x3c0f0b7d	0.008730766
231	0x3b0bfa41	0.002135888
232	0xbc8775f4	-0.016535737
233	0xbe573861	-0.210176
234	0xbcdd1be4	-0.026990838
235	0xbddc02c3	-0.10742714
236	0x3ba57d02	0.0050503025
237	0xbd8160f2	-0.06317319
238	0xbc17d739	-0.009267622
239	0xbe7182ad	-0.23585005
240	0xbc50f7dd	-0.012754408
241	0xbb651653	-0.0034955933
242	0xbca632fa	-0.02028798
243	0xbe0a9f4c	-0.1353733
244	0x3c21828c	0.009857785
245	0xbc9a4c5e	-0.018835243
246	0xbd776bb2	-0.06040544
247	0xbdaa54d6	-0.083169624
248	0xbd2d0553	-0.042241406
249	0xbd8cfe3b	-0.06884428
250	0xbdb93f68	-0.09045297
251	0x3c67950b	0.014134656
252	0xbdc0a000	-0.094055176
253	0xbc3d3baa	-0.01154987
254	0xbbbc7559	-0.0057512936
255	0xbd6bde19	-0.057584856

action_model._continuous_distribution.log_sigma f4 [1, 2]
0	0xc0061bc0	-2.0954437
1	0xc007f0af	-2.1240652

action_model._continuous_distribution.mu.weight f4 [2, 256]
0	0xb9d43e07	-0.00040482005
1	0x3a4d0de4	0.0007822199
2	0xb9c4ff77	-0.0003757437
3	0x3ac551d6	0.0015054296
4	0x3b4ce65f	0.0031265242
5	0xbc439e8d	-0.011939657
6	0xbae70229	-0.0017624545
7	0xbb510df8	-0.0031899195
8	0xba174535	-0.00057705055
9	0xbc9cf3ec	-0.01915928
10	0x3a020b60	0.00049608015
11	0x3a1dbff1	0.0006017676
12	0xbc9b99c2	-0.018994216
13	0x3a5356d2	0.00080619485
14	0xbbbc82e1	-0.0057529067
15	0x39b23350	0.00033989036
16	0x3a88adec	0.0010427809
17	0xb981906b	-0.00024712397
18	0xba0cdee3	-0.0005373789
19	0xbb6fd76f	-0.0036596914
20	0xbc280f3d	-0.010257539
21	0x3b2f038f	0.0026705002
22	0x3ab0f530	0.0013500806
23	0xbab1386e	-0.0013520846
24	0xbbaa7bd6	-0.0052027507
25	0xbca97773	-0.02068684
26	0xbb27219c	-0.002550221
27	0xbc43570c	-0.011922609
28	0x3996574e	0.00028675277
29	0xbc9e018a	-0.019287843
30	0x388d449d	6.736184e-05
31	0xb9915e0e	-0.0002772663
32	0xbb0b6e38	-0.0021275412
33	0xbac5c5fa	-0.0015088909
34	0x35854f6c	9.932387e-07
35	0x3a71642e	0.00092083483
36	0x3a0ce7c4	0.0005375112
37	0xbc3499db	-0.01102301
38	0x3a8398ec	0.0010040081
39	0x3b9b3caa	0.0047374563
40	0xba16cd8b	-0.0005752674
41	0xb921d531	-0.00015433576
42	0x3bc5676c	0.0060242917
43	0xba3f329d	-0.0007293614
44	0x3ae68561	0.0017587357
45	0x3c0ffb90	0.0087880045
46	0x39caf44a	0.00038710452
47	0x3d5127f2	0.051063485
48	0xba76e425	-0.00094181515
49	0x38a18ea3	7.7036464e-05
50	0x3b29636a	0.002584661
51	0xbaff4708	-0.0019476125
52	0x3a973830	0.0011537131
53	0xb94ba702	-0.00019421804
54	0x39add2a6	0.00033154077
55	0xbc0c741e	-0.008572606
56	0x3af6814a	0.0018806842
57	0xbc280303	-0.010254624
58	0x3a6cc5eb	0.00090321776
59	0x3a3b32c6	0.000714105
60	0x3a1730e1	0.00057674764
61	0xbc698897	-0.014253757
62	0x3ae0956d	0.0017134376
63	0xba089ec7	-0.0005211648
64	0x3beb70a2	0.0071850577
65	0x3bca2b45	0.006169709
66	0xbaa24ad7	-0.0012381923
67	0xb9953c8e	-0.0002846461
68	0xb8de00db	-0.00010585944
69	0x3b6eec22	0.0036456664
70	0xbc82342e	-0.015894022
71	0xba41c9c8	-0.00073924335
72	0xb961a425	-0.0002151882
73	0xba7bcd51	-0.00096054847
74	0x3bca7794	0.0061788056
75	0x3d8836c1	0.066510685
76	0x3b1439a9	0.0022617376
77	0x3a3efe6b	0.0007285836
78	0x3aa87fff	0.0012855529
79	0x3a94e603	0.0011360053
80	0x39026ad6	0.00012437566
81	0xbaa63aee	-0.0012682357
82	0x3939eb95	0.00017730736
83	0xbaad3c6f	-0.0013216863
84	0x3a5e6a10	0.00084844325
85	0xbbbac474	-0.0056996886
86	0x3a7bdbeb	0.00096076605
87	0x396bb7d3	0.00022479826
88	0x3a5aa057	0.00083399325
89	0x3ac1dc30	0.0014790352
90	0xbac8ef74	-0.0015330152
91	0x39e77a2a	0.00044150773
92	0x39c2d449	0.00037160728
93	0xbb5cdafe	-0.0033699865
94	0xbc2a303f	-0.010387479
95	0xba9553bd	-0.0011392754
96	0xbbd93b3b	-0.0066293753
97	0x3c170858	0.009218298
98	0x35c0fb69	1.4378285e-06
99	0x3a7e33cb	0.0009697049
100	0x3aa835e1	0.001283344
101	0x3ce89f6c	0.02839633
102	0x3c9589e7	0.018254234
103	0x3a2ea362	0.0006661919
104	0xb9579d71	-0.0002056265
105	0x3a53b360	0.000807574
106	0xb905626d	-0.00012720535
107	0x39f485e2	0.00046639057
108	0x39951475	0.00028434736
109	0x3a80022e	0.0009766275
110	0x3ac4e9cd	0.0015023291
111	0xbb02da8f	-0.0019966697
112	0x3d48fedc	0.049071178
113	0xba31089e	-0.0006753298
114	0xba507e76	-0.00079534145
115	0xbb0029a0	-0.001955606
116	0xba3dbb65	-0.0007237702
117	0x3a52651c	0.0008025931
118	0x39c1669d	0.00036888281
119	0x3b0a780d	0.0021128685
120	0x398b37bb	0.00026553668
121	0xbb339af7	-0.0027405599
122	0xb6ad0c1a	-5.1572106e-06
123	0xbba35645	-0.0049846494
124	0xbb7c7e19	-0.0038527308
125	0xbb1387e9	-0.0022511429
126	0x3a965a1a	0.0011470944
127	0x3a1874be	0.0005815736
128	0x3a4f0300	0.00078968704
129	0x3be2e586	0.006924334
130	0xb9311c83	-0.00016890657
131	0xbb34d2bb	-0.0027591425
132	0x3a02e64e	0.00049934245
133	0xbae77486	-0.0017658628
134	0x3a38c603	0.0007048549
135	0xbb837f88	-0.0040130056
136	0xbc8bcdff	-0.017066
137	0x3a48770e	0.0007647135
138	0x3b8f56bb	0.0043743527
139	0x3a9e4e95	0.0012077863
140	0x3a76811b	0.00094033935
141	0x39184d5c	0.00014524668
142	0xba99f067	-0.0011744619
143	0xbc4739fa	-0.012159819
144	0x3a890d37	0.0010456209
145	0x39800ff9	0.00024425963
146	0xbc8ba1c2	-0.017044906
147	0x3b814440	0.0039449036
148	0xb953c806	-0.00020197043
149	0x3b34e919	0.0027604757
150	0xba4e96d0	-0.0007880749
151	0x3ba575da	0.0050494494
152	0xb9d965dc	-0.00041465356
153	0x3bffea4d	0.0078099133
154	0x3aa23773	0.0012376144
155	0xbb6b8405	-0.0035936844
156	0x3a2ba60b	0.00065478747
157	0x3a85c973	0.0010207131
158	0xbaa7b3e2	-0.0012794698
159	0x3c265311	0.0101516405
160	0x397f950b	0.00024374218
161	0xb8807872	-6.12595e-05
162	0x3a2bef51	0.0006558793
163	0xb9b748b6	-0.00034958654
164	0xbc1085dc	-0.008820977
165	0x3bd8fed4	0.0066221748
166	0x3bc2af4e	0.005941308
167	0xba23d5cc	-0.0006249815
168	0xb9e9a806	-0.0004456641
169	0x3b0fa8c9	0.0021920672
170	0x3abdd0ab	0.0014481744
171	0xb91b19a1	-0.000147915
172	0x3da2efae	0.079558715
173	0x3b1932b5	0.002337617
174	0x3ab6fcce	0.001396084
175	0xbc647c8d	-0.013945711
176	0xbb741a17	-0.0037246996
177	0xbaadf4cf	-0.0013271811
178	0xbaa7b189	-0.0012793998
179	0x3aa397df	0.0012481174
180	0x3b6aa974	0.0035806568
181	0x3d23cc45	0.03998973
182	0xb8813af1	-6.162178e-05
183	0x38a2d9c0	7.765321e-05
184	0x3ac4f834	0.0015027584
185	0x3bbe1037	0.005800273
186	0xb831ff9f	-4.2438154e-05
187	0x3c47a8f6	0.0121862795
188	0x3aa0e050	0.0012273882
189	0xb8a196bf	-7.705157e-05
190	0x399a3aeb	0.00029417066
191	0x3a1b3014	0.0005919945
192	0xba95262b	-0.0011379173
193	0x3b1906ea	0.0023350068
194	0x3a634c72	0.0008670754
195	0xbac6a2fb	-0.0015154773
196	0x3b934d29	0.004495282
197	0x39ef1a66	0.000456053
198	0x3be52592	0.006993004
199	0xbb827dcc	-0.0039822813
200	0xbb9e96ee	-0.0048397696
201	0xbc160d54	-0.009158451
202	0x3a5c6944	0.000840802
203	0xba4a160a	-0.00077089726
204	0x3ad9206f	0.0016565452
205	0x399dadb3	0.0003007479
206	0x3af44891	0.0018637349
207	0x3983cd29	0.00025139123
208	0xbcbe6932	-0.02324352
209	0x3975f82f	0.00023457476
210	0x39d1982e	0.0003997697
211	0xbbad8ba0	-0.0052961856
212	0xbabd12e7	-0.0014425189
213	0x3a8de177	0.001082464
214	0xb994dce1	-0.00028393327
215	0xb9ef2736	-0.00045614847
216	0x3aef8db5	0.0018276485
217	0x39dfd720	0.00042694155
218	0x3be94ec3	0.007119985
219	0xba4132e7	-0.0007369951
220	0xbbba4872	-0.0056849057
221	0x3ad5e508	0.0016318867
222	0xbb02201f	-0.0019855571
223	0xbb70deac	-0.0036753817
224	0xbc4c0e19	-0.012454533
225	0xbc28f86f	-0.010313137
226	0xba8505ff	-0.0010148882
227	0x3adb0a27	0.00167114
228	0xbc700230	-0.014648959
229	0x3a1f5d9a	0.00060793164
230	0x3977e913	0.00023642583
231	0xba730d1a	-0.00092716666
232	0x38a9365c	8.068673e-05
233	0xbc3bc30f	-0.01146008
234	0x39e327a8	0.0004332636
235	0xbb6ea131	-0.0036411996
236	0x39a0af54	0.00030648208
237	0xba5eb38c	-0.00084953825
238	0x3a2b843b	0.0006542836
239	0xbc009887	-0.007848865
240	0x398a7d5d	0.00026414814
241	0xbc0d460f	-0.00862266
242	0x3943dce8	0.00018678943
243	0x3ce8d7cf	0.028423218
244	0xbc3e15eb	-0.011601905
245	0x3843ba7a	4.6665293e-05
246	0x3add8a4d	0.0016902179
247	0x3ae9405f	0.0017795673
248	0xbae978dd	-0.0017812509
249	0x39c623b2	0.00037792098
250	0x3b949627	0.004534501
251	0xb9a1a856	-0.00030833733
252	0x3a804cb2	0.0009788482
253	0xbce17a2d	-0.027524078
254	0x3a88cbb9	0.0010436691
255	0xb9fab209	-0.00047816362

action_model._continuous_distribution.mu.bias f4 [2]
0	0x3d5cf23b	0.053941946
1	0xbd863382	-0.06552793
