MLAgents Jumper Exercise/Assets/results/beta_3/JumperAgent/JumperAgent-20333177.onnx (onnx, 570158 bytes, 15 tensors)

network_body.observation_encoder.processors.0.normalizer.running_mean f4 [26]
00000000: c77a 383f 893b 433f c77a 383f 6775 433f
00000010: c67a 383f 6675 433f c77a 383f b630 443f
00000020: c57a 383f b430 443f c67a 383f c09a 453f
00000030: c77a 383f c19a 453f 377b 413f f7f6 4d3f
00000040: 357b 413f f6f6 4d3f b64b 5a3f 92ff 603f
00000050: b64b 5a3f 91ff 603f a89f 6d3f eb0f 713f
00000060: a99f 6d3f ec0f 713f
0.72062343 0.7626272 0.72062343 0.76351017 0.7206234 0.7635101 0.72062343 0.76636827
0.7206233 0.76636815 0.7206234 0.77189255 0.72062343 0.7718926 0.75578636 0.80454963
0.75578624 0.8045496 0.85271776 0.8788997 0.85271776 0.87889963 0.9282174 0.94164914
0.9282175 0.9416492

network_body.observation_encoder.processors.1.normalizer.running_mean f4 [2]
00000000: bedc e03e 0f17 dcbc
0.43918413 -0.026866464

network_body._body_endoder.seq_layers.0.weight f4 [256, 28]
00000000: 9c85 783e cd37 08be 8678 8f3d 1a55 123e
00000010: 8315 553e 811f c23d fd3b 223e d75f 543c
00000020: f478 5b3e 36e7 7b3e 0eaa 6cbe 1a89 3a3e
00000030: c358 843c 35d8 0bbd 7db3 ee3d 0aab 8fbe
00000040: 1fc3 053c dc03 09bd 2df2 f6bc 6fdb 7d3e
00000050: 02df 02bf 6458 793d 4fed 0d3e 40b1 393c
00000060: 561a 81be dc4c 223e fae5 913d 8ca2 0d3e
00000070: d229 a03d d399 9ebd 42b4 27be a162 03be
00000080: a388 2d3e 0da3 70bd 67f4 af3e cb0a 333c
00000090: 718d 38be 4dce 0a3e 7442 2bbe 1b22 8f3e
000000a0: 88f5 423e 5704 c1be 8224 e13e 84c0 13bf
000000b0: 6c79 1a3d 8776 1dbc 84a9 6d3e 8f7e 54be
000000c0: 41a5 abbb 4632 ce3d 1dbb 853e f12a dfbe
000000d0: 458d 06be a90a 413d f565 0c3e 606c 6cbe
000000e0: 7ed2 673e 56c3 a2bd 30d3 e13c 1505 553d
000000f0: de5a 1f3b eeca 00be b57e 09bd 36c3 403e
00000100: 9c61 86bd b7f8 263e 8fe7 033d a6ac a83c
00000110: 099b e93a 6ecb 62be 4c87 8ebe 4f0c 843d
00000120: cf0d 4b3d 43ba 53be c996 3c3d 382a 993e
00000130: bf3c 21be 583e a83e 1fc2 a3bd 19d7 093d
00000140: d652 193e 0292 9f3e 4806 aebb 452f 4b3d
00000150: 97ab bdbd 28ae 0ebe 146a 563e 9f09 9cbe
00000160: 2fbf c0bd b683 24be cecb b03e 7077 68be
00000170: dcad 743c e5db 8ebd 753a c53e 76bc aa3e
00000180: d23f 163e 05c4 41be 2db8 6cbd b5eb f5bd
00000190: 02d0 2ebe 0a9e 353e 2ba3 6f3d ae7a fcbd
000001a0: e2b2 1b3e 0c4d 33be 5123 85bd 0c54 10bd
000001b0: 6e60 4b3e 9add 503d 8f8a 78bc 6914 813d
000001c0: be54 1bbe 32be 9bbb 2307 013e 0fc5 3a3d
000001d0: d461 673e 7aa8 18be 510b 023f 8199 263e
000001e0: ae2e 85be 4903 743c eb71 ed3d 73ae 37bd
000001f0: 441f 2e3e 8763 3b3d 741a fc3c 734e 98be
00000200: f307 5c3e ee8c 893d 3dcc 59be 9c7e 30be
00000210: 0c96 41be 110f 1d3e 2906 e63c e29e da3e
00000220: 0417 573d 3e08 64be dee3 3fbd 54ac d23e
00000230: fab9 173e 1d8e d9bc 9660 9f3e d0a6 11be
00000240: 3451 6a3e 347f ddbd 9487 56be 4665 1c3e
00000250: a499 913d 5b9b 85bd cad0 66bd e183 91bd
00000260: e4ad 9fbd 33cb 06be fdad 833e 0bc9 c83d
00000270: 8f32 1b3e 7e82 6b3d ea56 443e 2b78 30be
00000280: c03b 42be 1b50 8ebd 2344 cb3d daef 85be
00000290: 178b eabd 4d6a 6b3e 5973 5f3e 5b31 0dbc
000002a0: cf97 ce3e e23a d53d 9636 553e 8a89 5fb9
000002b0: cfe5 af3e 5d0b 56bc 575c 393e 221b bbbe
000002c0: bca6 f6bd 4ac0 77be c8f6 a63d 8070 e93e
000002d0: c53e 97be 9200 583e e13d da3e 554f 833d
000002e0: 34fa 1f3e 0dd3 b1be e623 8c3e 69d9 293e
000002f0: c9a6 153c b065 3bbe 89ea d9bd 8e66 9abe
00000300: 5099 69be 3908 323e 3066 af3e 0298 e03d
00000310: 2caa 21be 7926 253e bf5a 87bd 3aa0 223e
00000320: 319d d13d 9f25 473e 2bda f6bc 0a5b 51be
00000330: bfb5 f6bc b6fb cbbd e116 b6be e233 a73d
00000340: 6e86 8e3d 95fc c8bd 35d2 063d ea1e 013e
00000350: 4270 fd3c 2158 d3ba 267f d8bd 88cc a53d
00000360: 210e 413d 623f 14be 2a59 ec3d 684c de3e
00000370: a47b 10be 61fc 8a3e d737 3cbe 4815 91be
00000380: 9815 7c3e e4ca a13d 55c0 09be bb8f 86be
00000390: 966e 1e3e 3ecb 36be ddf9 adbd 6dc3 c9be
000003a0: 3d49 c5bd 6632 c0bd 33b3 923e b8d1 a83d
000003b0: 68d4 923d d13d b13d d9d3 84bd d925 c6ba
000003c0: 7441 51bd 5734 9abd 12ad 83bd e24f 56bd
000003d0: 1f3e d43c 51a2 5b3d 6038 9dbd c27a 6abe
000003e0: 2653 a93d efff a03e 40ca d4be 9f57 8f3c
000003f0: e49f 7abe 8866 72bd e5f8 6cbd a861 7b3d
0.24269718 -0.13302536 0.0700541 0.14290276 0.20808987 0.09478665 0.15843196 0.012962303
0.21432859 0.24599919 -0.23111746 0.18216363 0.016155606 -0.034141738 0.116553284 -0.2806018
0.008164196 -0.033450946 -0.030144775 0.24790739 -0.5112153 0.06087531 0.13860057 0.011333764
-0.25215405 0.15849632 0.07123943 0.13831538 0.078204766 -0.077441834 -0.16377357 -0.12830593
0.16946654 -0.058749247 0.34366152 0.010927866 -0.18022706 0.1355526 -0.16724569 0.27955708
0.19038975 -0.37698624 0.43973166 -0.5771563 0.037713453 -0.009610779 0.23209196 -0.20751403
-0.0052382057 0.10068183 0.2611932 -0.4358745 -0.13139828 0.047129307 0.13710769 -0.23088217
0.2263889 -0.079474136 0.027566522 0.0520068 0.0024315636 -0.12577412 -0.033568103 0.18824467
-0.06561586 0.16305815 0.032203253 0.020590138 0.0017822693 -0.22147915 -0.27837598 0.0644766
0.049573716 -0.20676522 0.046042237 0.29915023 -0.15745829 0.32860065 -0.0799601 0.0336524
0.14973006 0.31166083 -0.0053108074 0.049605627 -0.09261244 -0.13933623 0.20938903 -0.3047609
-0.094114654 -0.16065869 0.3453049 -0.22701812 0.014934029 -0.06975535 0.38521162 0.3334691
0.14672783 -0.18922432 -0.05779283 -0.12007848 -0.17071536 0.17736068 0.05850522 -0.12328087
0.15204957 -0.1750986 -0.06500877 -0.035236403 0.19861004 0.050992586 -0.015169754 0.06302721
-0.15169045 -0.0047528977 0.12600379 0.045598086 0.22595912 -0.14908019 0.5079852 0.16269495
-0.26012176 0.014893361 0.11593994 -0.044844102 0.17004114 0.045749214 0.030774333 -0.29747352
0.21487407 0.06716333 -0.21269317 -0.17235798 -0.18904895 0.15337779 0.02807911 0.42699343
0.052512184 -0.22268769 -0.04684817 0.411471 0.14817038 -0.026557023 0.31128377 -0.1422379
0.22882539 -0.10815278 -0.20950156 0.15273008 0.07109383 -0.06523772 -0.05635146 -0.07105232
-0.07796839 -0.13163452 0.2571868 0.09803971 0.15156005 0.057497494 0.1917378 -0.1723334
-0.18968105 -0.06948873 0.099251054 -0.26159555 -0.114523105 0.2298977 0.21821345 -0.008617724
0.40350196 0.10411622 0.20821604 -0.00021318175 0.34355018 -0.013064233 0.18101631 -0.36544138
-0.12043521 -0.24194446 0.081525385 0.45593643 -0.29540077 0.21093968 0.42625335 0.06411616
0.15622789 -0.3473133 0.27371138 0.16586842 0.009134003 -0.1830051 -0.10640437 -0.30156368
-0.2281239 0.17385949 0.3425765 0.10966493 -0.15787572 0.16127957 -0.06609105 0.15881434
0.1023506 0.19447945 -0.030133327 -0.20444885 -0.03011596 -0.099601194 -0.3556433 0.08164193
0.06959234 -0.09813801 0.032915313 0.12609449 0.030937318 -0.0016124287 -0.10571127 0.08095652
0.047132615 -0.14477304 0.11540444 0.43417668 -0.14109665 0.27145675 -0.18380676 -0.2833655
0.24617612 0.079000264 -0.13452275 -0.26281533 0.15471873 -0.17850968 -0.08494923 -0.3940691
-0.0963311 -0.09384613 0.28652343 0.08243126 0.071694195 0.08654369 -0.06485719 -0.0015117481
-0.05108781 -0.07529514 -0.06429495 -0.052322276 0.025908528 0.053621594 -0.07676768 -0.22898391
0.082678124 0.31445262 -0.41560555 0.017497836 -0.24475056 -0.059179813 -0.05785455 0.06137243

network_body._body_endoder.seq_layers.0.bias f4 [256]
00000000: bfb3 21be 6e5c 82bd cce9 e6bd ee10 0f3d
00000010: b60d 3b3d 0d69 e6bd 2bc8 aabd 3199 21be
00000020: df12 6bbd 7f84 19bd 371d 4f3d 858a 063d
00000030: f409 3cbe 0cd5 00bd 1fa2 e03c 84dd e5bd
00000040: df23 d4bd f04a 893d 1baa cdbd b460 d2bd
00000050: f7c9 01bd b0d7 68bd d04b aebd ff0d a4bd
00000060: 87ac 053d 6d7a 4e3d 6ceb 93bd 02eb 90bd
00000070: b5da 4e3c afa1 f73c 0ac8 a4bd 12c2 6cbb
00000080: 4903 40be 9362 ac3d 5ac4 3cbd 36d3 2cb8
00000090: 2449 07be f931 e13b 2f28 43bd 7e97 1d3d
000000a0: edf4 cd3d 912a 68be 2d69 45bd 5b1c 893d
000000b0: 2d9d 0abe ab54 283d 102e e2bc bfe5 0ebe
000000c0: 3919 94bc e9e1 1abe 5ae9 93be 4a52 febd
000000d0: 0042 533d ef11 ddbc 5afb 673d fa3d aebd
000000e0: a3a7 f0bd 945e 32be 0f50 28bd 1dd5 3ebd
000000f0: dcea debd 7f0e f9bc 9d68 b73d 92ca ffbd
00000100: b4f3 a6bd bc8f 76bd 710d f53c b159 903d
00000110: 2eb7 3abb f0ff 64be d5c9 2cbd 70d5 913d
00000120: 74ae eb3c 0322 25bd bdca 9bbd 049c 27bd
00000130: d11d b4bc 1af0 81bd 1c8f 0bbe b3a9 5c3c
00000140: 893c 01be cf41 a8bc 326c 41bd cce5 aabd
00000150: 4fea 01be b20e 93bd 939d 85bc 60eb dbbc
00000160: fb9d c7bd 815c 35be 3c02 a8bd cad9 f03c
00000170: 9c00 0bbe 7014 10bd 19b9 2b3d f806 a4bc
00000180: b5a2 f3bd c683 eebd 67d9 9fbd c2c9 bebd
00000190: d83a 2bbe 5bf9 16bb e2e8 ffbd 7745 543d
000001a0: 24e5 79bc 6545 50bc e5c4 1a3d 6c53 86bd
000001b0: 942f 8a3d 80d5 253d 1a4f a7bd 50bf 17bd
000001c0: 70cf 94bd 58fd a4bd 88e9 1fbc 0527 b53c
000001d0: 52b3 1a3c 80e9 65bd 8045 6bbc 91d9 e7bd
000001e0: 7e71 1bbc 38cb 01bb 831f 26be d364 183d
000001f0: 4c62 00be 9680 69bd 1139 0bbe 13ce 9cbd
00000200: 07d2 08bd 917a 373a 1cbc 55bd 94c2 9cbd
00000210: 49e6 aabd 79c4 32bc d74f 8dbe 965d f8bc
00000220: 12fa b9bc 2ddf bdbc eb8f 593d 7f6f 77bb
00000230: 60a9 03bd dbd6 e7bd 22fd 94bb 018e 04bc
00000240: f5de 1a3d 9b20 51bb da37 d53c 230e d6bd
00000250: 0b01 a0bd 3298 3cbe 9c34 1fbe 7cc3 07be
00000260: 98b0 9ebd 8e0f 9fbd 5030 eabd 422a 613d
00000270: 0673 7dbc cd3f 873d bc25 053d 09f9 70bd
00000280: 5d5f df3c b966 503d d986 fbbd b338 143d
00000290: 4fa3 dabc 3fb0 20bd 6bdf f4bd 2ee1 f83b
000002a0: c6a0 f1bd d7a1 fb3c a68a e83b 1ac8 9cbd
000002b0: 7880 04be 0c68 17be 04fb dc3a 2439 30bd
000002c0: 7075 a9bc 07a5 123d f054 ce3d 64b7 773d
000002d0: 637c 43be 3c38 d9bd dc2a 6bbc 7cf7 973c
000002e0: 92aa e5bb 66ff 06bd 9c7d 67be f3fb 38be
000002f0: 15aa 96bd 5c80 c43c 56ff abbd 3a73 18be
00000300: f54a 14bd 2861 01be 9bdc dbbd 1522 6bbc
00000310: 393b 07be da59 bcbd 431b 30bb 100d 34be
00000320: 647e d3bc 78ba e1bd 82ab e4bd 5ffd 99bb
00000330: 1f5e 01bc 78f6 8fbd fe30 54bd 9e5f d2bd
00000340: c429 14bc 41f7 443d 3e21 5f3d cb46 c239
00000350: 61ed e6bd a8eb a8bd 4c0a eb3a 9df3 45be
00000360: 2d98 013d fa99 1cbc 7458 05be ff0e 08be
00000370: 3a77 7c3d af7b ec3a 7d44 e7bd 4675 33be
00000380: 9de3 9fbd 7d69 23be 6ceb a6bd f0a0 583c
00000390: 8dd6 17be d76b 15bd 4fe0 44be d0ef b6bd
000003a0: 024e 963d e111 c2bb ae31 2bbd 618d 62bd
000003b0: 6b91 8c3c 1f4e 81bc 7cbd 9bbd 90ad 69bd
000003c0: 5c5f 1abd c757 37bd 5427 42bc 3590 2dbc
000003d0: 207a 943c db45 aabc 9d42 15bd a016 363d
000003e0: d562 cabd 7a23 2dbd b80f 6c3d 3758 8ebc
000003f0: 83d9 003c 6d38 69bc 417c 90bd 2a05 73bd
-0.15791224 -0.06365286 -0.11275062 0.034928255 0.045667373 -0.112505056 -0.0833896 -0.15781094
-0.057391044 -0.037479874 0.05056497 0.032846946 -0.18363172 -0.031453177 0.027421055 -0.112238914
-0.10358404 0.06703746 -0.10042211 -0.10272351 -0.03168675 -0.05684632 -0.08510554 -0.08010482
0.032635238 0.050409723 -0.072226375 -0.07076074 0.012625386 0.030228464 -0.08045967 -0.0036126417
-0.18751253 0.08417239 -0.046085693 -4.12047e-05 -0.13211495 0.0068724123 -0.047645744 0.038474552
0.100564815 -0.22672488 -0.048196007 0.066948615 -0.1353652 0.04109637 -0.027609855 -0.13954829
-0.018078433 -0.1512524 -0.2888897 -0.12418039 0.051576614 -0.02698609 0.056636192 -0.08507915
-0.11750724 -0.17418891 -0.041091975 -0.04658996 -0.108846396 -0.03040242 0.089555 -0.12489809
-0.081519514 -0.06019567 0.029913636 0.07048357 -0.0028490531 -0.22363257 -0.04218467 0.07120788
0.02876971 -0.04031564 -0.07607029 -0.040920272 -0.021986874 -0.06344624 -0.1362881 0.013468194
-0.12620749 -0.020539192 -0.047222324 -0.083446115 -0.12687038 -0.07180537 -0.016310489 -0.026845634
-0.09746929 -0.17711069 -0.08203551 0.029400725 -0.13574451 -0.03517574 0.04192457 -0.020022854
-0.11896268 -0.116462275 -0.07805138 -0.09315826 -0.16721666 -0.002303681 -0.12495591 0.05182406
-0.015252385 -0.012711857 0.03778543 -0.0655888 0.06747356 0.040486813 -0.08169384 -0.037047684
-0.07266128 -0.08056134 -0.009760268 0.022113333 0.009442167 -0.056130886 -0.014359832 -0.113207944
-0.009487508 -0.0019804966 -0.16222958 0.03720553 -0.12537497 -0.057007395 -0.13595988 -0.07656493
-0.033403423 0.000699916 -0.05218135 -0.076543 -0.08344705 -0.010911101 -0.27599975 -0.030318063
-0.02270225 -0.023177708 0.053115766 -0.0037755666 -0.03214395 -0.11320277 -0.0045467773 -0.008090497
0.037810285 -0.0031910304 0.026027609 -0.10451915 -0.07812699 -0.18417433 -0.15547413 -0.13258165
-0.07748526 -0.07766639 -0.11434996 0.05497194 -0.015469318 0.06603966 0.03250669 -0.05883125
0.027267152 0.050879214 -0.122815795 0.036186885 -0.0266892 -0.03923058 -0.11956676 0.007595203
-0.11798243 0.03071682 0.0070966063 -0.07655354 -0.12939632 -0.14785784 0.0016859476 -0.043023244
-0.020685881 0.035801914 0.10074794 0.06047763 -0.19090419 -0.10606429 -0.01435348 0.018550627
-0.007008859 -0.03295841 -0.2260651 -0.18064861 -0.07356659 0.023986988 -0.08398311 -0.14887705
-0.036204297 -0.12634718 -0.107354365 -0.0143513875 -0.13206185 -0.09196825 -0.0026871718 -0.17583108
-0.025817104 -0.11021894 -0.11165525 -0.0046993936 -0.007895975 -0.07029432 -0.051804535 -0.10272144
-0.009043161 0.048087362 0.05447506 0.00037055308 -0.11275745 -0.08248073 0.0017932146 -0.19331212
0.031639267 -0.009558195 -0.13022023 -0.1328697 0.06163714 0.0018042232 -0.1129236 -0.17525205
-0.07807086 -0.1595821 -0.08150372 0.013221964 -0.14827938 -0.036479797 -0.19226192 -0.08932459
0.073390976 -0.0059225415 -0.041795425 -0.05531061 0.017159184 -0.015784321 -0.07604501 -0.057050288
-0.037688598 -0.044761445 -0.011850197 -0.010593464 0.01812464 -0.020785263 -0.03644048 0.04445517
-0.09882132 -0.04227016 0.057632178 -0.017376048 0.007864359 -0.014234644 -0.070549496 -0.059331097

network_body._body_endoder.seq_layers.2.weight f4 [256, 256]
00000000: d5bb 813d 9797 acbd d604 1d3d c12a 11bd
00000010: c81e 1cbe e4a7 8cbc b1ff 683d a086 a63d
00000020: 1ed3 acbd de2a 973d f858 d4bc dcfb c7bc
00000030: ad45 b2bd 99ec 65bd 780a 47bd 0b92 f13d
00000040: 017a 07bc e028 a3bd 5be6 62bd 41d8 11bb
00000050: 0e6f 4dbe 98d9 08bd bff7 553d 429b fabc
00000060: 4767 243d 0136 4abd 0b75 ebbd a7bd 9d3d
00000070: 2bee b43b 0fcf 13bc 40f8 b3bd 284e da3d
00000080: be4b e03b 8b36 6e3d 7ee6 ed3c 4ab6 ccbc
00000090: 04fa 75bc 74c1 47be 8186 923d b2bf 02be
000000a0: 0520 0fbd 1e27 053c 8ea0 8bbc 8284 17bd
000000b0: ac57 d5bd 21ca f5bc 80fd c2bd 23df f0ba
000000c0: 9029 a3bd f2fa 723d 61c2 c0bd 8770 2a3d
000000d0: 50a7 c8bc 6da2 4fbd 66cc a9bd 208a 3fbc
000000e0: 6179 5bb9 789d fbbd 33f7 d6bd 7677 b03d
000000f0: 4aec 2b3d 7af2 eebc 5913 1bbd 1fe5 14bd
00000100: cfcd 0c3e bb82 f2bc 1ea2 41be 2ad8 3dbe
00000110: 1b0f 963b 314e c5bd 4ee5 6d3b 95bf 813c
00000120: be3f 813d ae8e cb3d 8cdf 113e 9f3e a0bd
00000130: 0b6c 143d 2f68 aebd b2d6 13be 2e31 fbbc
00000140: f377 56bc 3294 b73c 66d1 b4bc 2a7f 89bd
00000150: 1aed 52bd 4bac a53d 91f8 ed3d 9d37 1fbe
00000160: 42cb 243e aa4f 7bbd 12dc 923d c5e7 e3bb
00000170: 7620 47bd a6fe 07be 8dcf 6e3d ebb0 debd
00000180: 71ea 3b3d 94d4 87ba fed5 72bd 4656 0cbe
00000190: d683 a93c 9c5b 3fbe 427c 043c 7642 29bd
000001a0: d987 91be e319 af3d fc51 0d3c 6fd8 02bc
000001b0: bf01 e6bd f2a0 55be 88c0 81bd f74f 423e
000001c0: ce9b 083d 4063 013d 44e0 ab3d 6a51 b5bc
000001d0: 14a1 0cbd 895b ac3c a640 223d 1ff7 93bc
000001e0: 34d1 c7bc e9ed 1abd 011a debd 2133 823c
000001f0: 5968 c03c 01d6 803c 6505 83bd 736d 09bd
00000200: 2455 bf3c bf76 87bd 06f1 ffbc c293 063d
00000210: eea3 61bd cd26 2ebe 84f2 25bd 34c5 713a
00000220: 491b e5bd e046 62bd cb22 14be a907 bc3b
00000230: 09c0 e7bb 7e33 53be 79a9 8fbd 02d2 b5bd
00000240: dabe 0dbd 39ab 6ebb 46c5 3bbe d90b 0ebe
00000250: 0da1 793b ea3a f8bd 9fac 5d3d b757 be3d
00000260: 818d 923d 5f3a 053e 8e45 833b b70b 86bd
00000270: 8d47 173d 2217 c4bc 86c2 163d 31f4 e8bd
00000280: 7d77 5bbd 9019 4f3e 1b1d 0abe 50c6 fb3d
00000290: 32d7 1fbe 4902 3abd dc17 e93d 874d 403d
000002a0: 5cf9 303b ac5b f2bd 1f87 43bd d45b ecba
000002b0: 7e89 0e3d 73d1 eebc 05d6 ccba f353 223e
000002c0: 390b caba f123 5c3d c332 043c c5b2 9cbd
000002d0: bb1f 213d a6f6 85bc 9d4b 5f3d ba42 80bd
000002e0: cd67 58bd a79b 333d e539 5e3c 4506 1fbe
000002f0: 8ff8 43bd f6e3 383d 504b 27be 2f11 5abd
00000300: a1e5 e33c 2bd7 823c 7403 a73d b338 8e3d
00000310: 1c17 6ebc 74d2 17bb b21e 0cbe 15f9 ccbc
00000320: 00a1 aabd f7b4 c13c 44d6 6d3b 2369 0cbe
00000330: b274 cfbd 7341 463d dc60 5a3d 5633 683d
00000340: 0eeb 5b3d 2dd3 1cbd 7bf1 b2bd 6f85 fbbd
00000350: 8aa9 4ebe 0e86 00bd d81f 54bd 0960 34be
00000360: 742b 93be 8fa0 94bd e0af 8fbd 5445 5a3e
00000370: 04ee 903d a9f0 71be 04d6 bebd 20d3 d2bd
00000380: 0c59 a33d efca 4c3d f828 e83c bb57 b23d
00000390: 1bd9 59bd 890a 173c c45b 22bd 3d20 c03c
000003a0: f988 613e fea3 0fbd e1d0 99bd b808 e23c
000003b0: 578b 0d3e 66fd 73bd 3d49 76bd 6975 9fbe
000003c0: 529c 063c cc48 8c3b 2e02 cbbd 0eb2 14bc
000003d0: 67f1 81bd f233 7e3d 7894 ad3d dc62 d63c
000003e0: e72c e8bc 7edf 22be f8b4 f73d 6e72 b3bd
000003f0: 8e8d 03be 7964 3fbc 6ec8 1d3d 1b3f c3bd
0.06334654 -0.08427351 0.03833469 -0.035441164 -0.15246117 -0.0171699 0.05688447 0.081311464
-0.08438705 0.07381223 -0.02592133 -0.024412088 -0.08704696 -0.05613384 -0.04859397 0.117954336
-0.008268834 -0.07966781 -0.055395465 -0.0022254142 -0.20061895 -0.03341064 0.052238222 -0.03059161
0.040137555 -0.04936791 -0.114969335 0.07702189 0.005521556 -0.009021535 -0.08787584 0.10659438
0.0068449667 0.058157485 0.029040571 -0.024989266 -0.015013222 -0.1950739 0.07154561 -0.12768438
-0.034942646 0.008127002 -0.017044332 -0.036991604 -0.10417113 -0.03000361 -0.095210075 -0.0018377047
-0.07966912 0.05932135 -0.09412075 0.04161122 -0.024493843 -0.05069201 -0.08290939 -0.011690646
-0.00020930685 -0.12285894 -0.10496368 0.08616535 0.04197339 -0.029168356 -0.03786025 -0.03635132
0.13750385 -0.029603353 -0.18909499 -0.18539491 0.0045794374 -0.096340545 0.0036300006 0.015838424
0.06310986 0.09939323 0.14245433 -0.07824444 0.03623585 -0.08515965 -0.14437369 -0.0306631
-0.013090122 0.022409532 -0.022072505 -0.06713708 -0.05149565 0.08089503 0.11619676 -0.15548559
0.16093162 -0.06135527 0.07170881 -0.0069551193 -0.04861494 -0.13280734 0.058303405 -0.10873588
0.045877878 -0.0010363036 -0.05928611 -0.13704786 0.020692747 -0.1868729 0.008086266 -0.041323148
-0.28423956 0.085498594 0.008625504 -0.007986172 -0.11230802 -0.20862177 -0.063355505 0.18975817
0.033351712 0.031588793 0.08392385 -0.022133548 -0.034333304 0.021039741 0.039612435 -0.018062172
-0.024391748 -0.037824545 -0.108448036 0.01589352 0.023487257 0.015727045 -0.06397513 -0.033551645
0.023356028 -0.06614446 -0.031242859 0.032855757 -0.055087976 -0.17006989 -0.040514484 0.0009222806
-0.11186845 -0.055243373 -0.14466397 0.005738218 -0.007072453 -0.20625111 -0.07014746 -0.088779464
-0.03460584 -0.0036417975 -0.18336973 -0.13871707 0.0038090379 -0.12120612 0.054119702 0.09294074
0.07155896 0.13010548 0.0040060943 -0.06545203 0.03693347 -0.023936812 0.036806606 -0.11374701
-0.05358075 0.20224595 -0.13487665 0.122936845 -0.15609434 -0.045412336 0.11381504 0.046948936
0.0027004099 -0.11833891 -0.047736283 -0.0018032738 0.03479909 -0.029152608 -0.0015627748 0.15852337
-0.0015414722 0.053745214 0.008068743 -0.07651285 0.0393369 -0.016352963 0.05451547 -0.06262727
-0.052833367 0.043849614 0.013563608 -0.15529735 -0.047844466 0.045139275 -0.16337323 -0.053239044
0.027819457 0.01597174 0.081549555 0.06944408 -0.014531877 -0.0023166211 -0.13683584 -0.025021115
-0.083314896 0.023645861 0.0036291042 -0.13711981 -0.1012968 0.04840226 0.05331503 0.056689583
0.053690962 -0.03828733 -0.08737465 -0.1228131 -0.20181862 -0.031377845 -0.05178818 -0.1761476
-0.2874409 -0.072571866 -0.07015967 0.21315509 0.07076648 -0.23626961 -0.09318164 -0.10294175
0.07975969 0.04999822 0.028339848 0.087081395 -0.053185564 0.00921882 -0.039638296 0.023452872
0.22024907 -0.035068505 -0.075105436 0.027592048 0.13822685 -0.05956783 -0.06012844 -0.31144264
0.008215981 0.004281139 -0.09912525 -0.009075655 -0.06344872 0.062061258 0.08475584 0.026170187
-0.028341724 -0.15905568 0.12095064 -0.0876206 -0.12846968 -0.011681669 0.038521223 -0.09533521

network_body._body_endoder.seq_layers.2.bias f4 [256]
00000000: 784e 4bbd 5551 42bb 7be0 0cbc 5f74 443d
00000010: fefd cebb 95ac 16bd 17c9 98bd 742c eebc
00000020: 7b71 82bd 06ed 14bd 53eb febc b944 443d
00000030: 1303 26bc 3204 723d 9037 8cbd bca0 10bd
00000040: e0e9 983d 477f 35bd 86bf f0bd d3fe a0bc
00000050: 3af3 2b3a e8d2 2fbe 2d5a 3d38 ff3c 76bc
00000060: 99fd 49be 6655 73bd 0328 44bd 88a0 0bbd
00000070: a6c6 09be 9b91 82bd a4c2 c3bc e705 a73c
00000080: da3a fdbd 535d 86bd 7bd3 afbc f4cb 9f3d
00000090: 4c3d a1bd 8e44 cebd 705f 46be 57bc b4bd
000000a0: 59c2 c6bc 8624 513d 4718 91bd adf7 9dbd
000000b0: 6736 8fbc e525 8abd 7de8 1cbd 060e e53c
000000c0: e8e8 863c 6d49 2cbb 93c0 82bd 9fb6 acbd
000000d0: b71d e1bd 0d4a aabc fe59 5c3d fb66 88bd
000000e0: 27c7 c4bd b9f4 05be 71dc f6bd ce5f 0c3c
000000f0: 5225 71bd fc1c 363d 6ab9 edbd 0bc0 b1bd
00000100: bc1f c9bd 6e44 3abe 8821 a9bd 6a76 44bc
00000110: b7fa 3f3c 6ffe 0cbd 7447 d5bb 959d e93d
00000120: 43f2 203d 71c7 1dbd 5526 143d b851 a3bd
00000130: 0131 97bc dcfa 8abb 2703 f1bc e2f9 2abe
00000140: a656 3a3d 1ff4 adbd 0f18 c83d 0b8c 7b3d
00000150: be40 71bc 9d51 8f3d 78cd 4ebd b9a9 eebc
00000160: 76d5 05bd 492d c23b b9e7 b3bb 0d30 39bd
00000170: fef0 203d d55e b13d 7ef1 6c3a 8ee5 58bd
00000180: ae6d e7bb cf32 8cbb 215d aabc 0471 1bbc
00000190: da32 ec3b 4821 e3bd 0397 86bc 13d4 e4bd
000001a0: 2572 8dbd b73c a13c 5a14 f2bd 57a0 a4bd
000001b0: 829d 0ebd 5a84 cbbd 86d2 753d 74ed 8cbd
000001c0: 5d80 b0bd 4028 aabc cfd6 ba3d 2b2e a73c
000001d0: 1ea1 453d 7832 07bd 3418 943d e3e2 adbd
000001e0: 9161 05be 74e5 11bd 4508 d3bb b4d4 efbb
000001f0: 1e59 56bd 1a51 0ebe cce1 1f3d 8e49 89bd
00000200: 922f c83c 6d6b 1dbd a6cd c6bc cfd8 39bd
00000210: f590 503b 58d0 533d c032 36bd 7311 143d
00000220: 6d51 24bd f76a dbbd 8a3c 463d 1b6f 48bd
00000230: 5253 54bd 7005 473d c3d4 cebd f4c2 acbd
00000240: 4091 65bd 3151 6abc 47eb 54be a09c c7bd
00000250: 7f58 12bd 8b2b ef3c 28c0 89bd 3335 d43c
00000260: 6ae2 75bd 2b43 a23d 8e8d 0bbe ce13 69bd
00000270: 2037 65bd fa9d b13c c474 e1bc 9503 89bd
00000280: 4800 1ebe e79d c23d a499 2c3c 104a 04bc
00000290: a6b5 8dbd 027c 703d 07d9 863c fc4a 8dbd
000002a0: 85ec 66be 74f6 95bc 1379 e0bd 3958 57bd
000002b0: 58aa 01bd 554b 3abd 33e8 5fbd 4acc 933d
000002c0: 9127 2cbc a089 bbbc 6f39 083d c4e6 8dbd
000002d0: c177 98bc f56e 8bbd e76f b53c 7cb9 02bd
000002e0: e46b 0e3d f0b7 b0b8 6fe0 49bd 4a76 6dbd
000002f0: 60cb 62bb ded8 7abd 7b37 d3bd 2dd3 b23d
00000300: c44b 953d a5a7 17bc ccd1 d6bd d11f 9b3d
00000310: 49af b23d 706f 33be b7b4 b93d 551c d0bd
00000320: 41da e7bc 2a83 bc3d 7ed6 0b3e 1166 1fbe
00000330: 6644 0abe 4a18 43bd a8eb 17bd b235 17be
00000340: 491b a5bd a73b 15bd f4cf 60bd 67f4 a13d
00000350: debd 89bc 88bd 443d db1b aebd 3132 96bd
00000360: f084 243d 74dd 903d 4be9 8bbe 63be dcbd
00000370: ba0a dbbd 67cc 6cbd 73da 403d 0a89 6fbd
00000380: a302 a0bd 4988 78bc c2f5 e6bd 231c de3c
00000390: 317b a0bd f689 9a3d 9d33 8a3c 6898 aebd
000003a0: 2b59 38be caf5 a53d efeb c5bc e941 3f3c
000003b0: 7946 2d3c fa6d abbd 1bb5 383d c07c aabd
000003c0: 4f05 84be 9c2d 47bd ce96 b3bd 2b52 5abe
000003d0: ff59 77bd 6ab4 3fbe a6bc 733d 22f2 5f3d
000003e0: 3171 e93c e0db b6bc a7e0 db3a a47d 263d
000003f0: 20d5 19bd 88b0 793d 7767 53be 8314 96bc
-0.04963538 -0.0029650528 -0.008598442 0.047962543 -0.0063168993 -0.03678568 -0.0746023 -0.029073931
-0.06369301 -0.036358856 -0.03111807 0.0479171 -0.010132569 0.059086032 -0.06846535 -0.03530954
0.07466483 -0.044310834 -0.1175528 -0.01965276 0.0006559376 -0.17170298 4.5145094e-05 -0.015029191
-0.19725646 -0.059407614 -0.04788972 -0.03408864 -0.13454685 -0.06375428 -0.023896523 0.020388557
-0.12364741 -0.06560769 -0.021463146 0.07802573 -0.078730196 -0.100716695 -0.19372344 -0.088249855
-0.024262594 0.051060222 -0.07084709 -0.07713256 -0.017481996 -0.06745509 -0.038307656 0.027960788
0.01646848 -0.0026288882 -0.06384387 -0.0843327 -0.10991996 -0.020787263 0.05379676 -0.06660267
-0.09608298 -0.13081636 -0.120537646 0.0085677635 -0.058873482 0.044461235 -0.116076306 -0.086792074
-0.09820506 -0.18190166 -0.08258349 -0.011991123 0.01171749 -0.034422334 -0.006508762 0.114070095
0.03929354 -0.03852028 0.03616937 -0.07974571 -0.018455984 -0.0042413305 -0.029420448 -0.16696885
0.04549279 -0.08493828 0.09770214 0.061412852 -0.014724908 0.069979884 -0.05048892 -0.029133664
-0.032674275 0.0059258086 -0.00549027 -0.04521184 0.039292328 0.08660666 0.00090386707 -0.052953295
-0.0070626354 -0.004278518 -0.02079636 -0.009487394 0.0072082104 -0.11090332 -0.01642943 -0.111732624
-0.06906537 0.019682271 -0.11820288 -0.08038395 -0.03481818 -0.099373534 0.060015224 -0.06881228
-0.08618233 -0.020771146 0.09123003 0.020407757 0.048249356 -0.033007115 0.07231179 -0.08490541
-0.130255 -0.035619214 -0.006440195 -0.0073190574 -0.052331083 -0.13898125 0.039033696 -0.067034826
0.024436746 -0.038432527 -0.024267983 -0.04537278 0.0031824682 0.051712364 -0.044481993 0.036149453
-0.040116716 -0.10713761 0.04839758 -0.048934083 -0.051837273 0.04858917 -0.10099175 -0.08435622
-0.056046724 -0.014301584 -0.20792876 -0.09746671 -0.035728928 0.029195568 -0.06726104 0.025904274
-0.06003038 0.079229675 -0.13628218 -0.056903653 -0.055960774 0.021681774 -0.027521499 -0.06690136
-0.15429795 0.09502774 0.010534678 -0.0080742985 -0.06919412 0.058712013 0.016460909 -0.06899068
-0.22551163 -0.018305995 -0.10960593 -0.05257437 -0.031656593 -0.045482 -0.0546648 0.072166994
-0.01050748 -0.022892773 0.033257898 -0.06928781 -0.01861179 -0.06808273 0.022148086 -0.031915173
0.03477086 -8.426595e-05 -0.049286302 -0.057974137 -0.0034606084 -0.061241977 -0.103133164 0.08731685
0.07289842 -0.009256278 -0.10489234 0.07574428 0.08724839 -0.17522979 0.09067672 -0.10161654
-0.028302314 0.09204705 0.13656041 -0.15566279 -0.13502654 -0.047630586 -0.037089974 -0.14766577
-0.08061845 -0.036433842 -0.05488582 0.07907944 -0.016814169 0.048032314 -0.08501407 -0.07333792
0.04016584 0.07073489 -0.27326426 -0.10778501 -0.10695405 -0.05781212 0.04708333 -0.0584803
-0.07813003 -0.015169212 -0.11277343 0.027113026 -0.07835997 0.07545845 0.016870314 -0.08525163
-0.18002765 0.08103521 -0.024160353 0.011673429 0.010575884 -0.08370586 0.04509459 -0.083245754
-0.257853 -0.04862748 -0.08768998 -0.21320407 -0.06038856 -0.18721166 0.05950608 0.054674275
0.028496357 -0.022321641 0.0016775326 0.040647164 -0.037556767 0.06095937 -0.20644937 -0.018320328

network_body._body_endoder.seq_layers.4.weight f4 [256, 256]
00000000: 4920 a63d e6e2 fcbd d15d 82bc 0fe3 bfbd
00000010: baec 48bc 0d1d acbd 61df f13d feae b4bc
00000020: 6714 5e3b 6721 08bc a6da 3a3d 87c5 163c
00000030: f7b4 983c 10a0 f43a 7866 83bc 7961 d0bd
00000040: 94f2 003c ff37 303d ecc6 5bbc 4a00 983d
00000050: 2811 8ebd 64d7 723d ef0e 913d c836 683d
00000060: 5ef1 55bd b7c8 d33d 8d10 febc 200e 30bc
00000070: ce72 cabc 4781 f63c 7ade c5bc 0bcd f0bc
00000080: a673 a4bd 526d 3bbd bbb3 96bd 5529 e0bc
00000090: 18b5 9a3c e40a f2bc 819e 26bd b28a 663d
000000a0: c290 abbc e16f 60bc 210b 4fbc f482 3bbd
000000b0: a30d 91bc 25b4 1ebd 19e0 f83d dfa3 763d
000000c0: dc11 d1bd e3ac 0dbd 7c93 983b 8a06 0abd
000000d0: 45c8 a43d b94e b03c 9a95 17bd af97 0dbd
000000e0: 5706 aebc e075 9c3d 78a0 0d3d 2195 0bbd
000000f0: 8ec2 283d 5d13 273d 17fe 7cbd cd44 033c
00000100: bc87 5ebd 8b2a e1bc dc95 cd3c cdca e5bc
00000110: 6d6e 5fbd bbe1 f7bd c5ff 1f3d 0369 8abc
00000120: e0ca b23d da89 913d d1c6 28bd f019 e9bc
00000130: 066c 913d 9a34 d7bc c924 95bb a3b0 753d
00000140: 30da 5c3d f641 753d 304a d0bc 8741 af3d
00000150: 0455 2a3d 1b3d edbd 5101 69bd 5914 4ebd
00000160: 094c 023d 34a9 82bd 5196 a1bc b360 1f3d
00000170: f626 cc3d 73e2 693d baff c33a 4d32 c1bd
00000180: d3cf cebb eaa4 6c3d 2279 84bd a4c1 87bc
00000190: 4fdd 1e3d 1ea4 d4bb 3687 a4bd 3ac7 c1bd
000001a0: e1e9 403d d3e7 443d 1950 f63b 625b 3abd
000001b0: d849 243d daaa 0abd 2d9a a73d 0d88 903d
000001c0: 2baf 61bc 9c76 05bd b1cd f63b e9c3 9a3d
000001d0: 0c75 3ebc 69bc a9ba 42d9 e43d 92c1 933d
000001e0: 304b 963d 227f 11bd 88ee c7bb a656 21bc
000001f0: be5f 313d a13d 1cbd 9601 e0bd 61ea 6dbc
00000200: e9d4 ce3c 338c d0bd 49f1 c43c 6374 cbbd
00000210: cc69 07bd 68e5 cdba 278e 43bd def1 873d
00000220: 1a39 39be bf83 1a3e 1d7f bb3d 0d9a c33c
00000230: 816b 96bd 313c c9bd 20ae 5f3c eddf a3bd
00000240: af12 163d af24 763b 5977 f5bc f784 843d
00000250: f67d 76bc dfd4 943d e0c9 ad3b 2529 37bc
00000260: 3a8f 3a3d 7d36 2b3d 8000 303c 78cc fdbc
00000270: b7a4 d33c 6202 2f3e 819b 2bbd 1518 27bd
00000280: 3c69 413d 518a 12bd e67b 573d 8fe4 6c3d
00000290: 0a94 00be 79fa 403d d271 f0bc aeb7 483d
000002a0: c038 133d 9b12 923d 429d da3c ddee f0bd
000002b0: 030b 0e3d 25dc 68bb a0b7 f6bb 0310 46bd
000002c0: f955 23bc e87e 783c 3a1d 193b 8098 12bd
000002d0: ad60 6dbd fd37 8e3c 7388 e0bc 8c46 6bbd
000002e0: 11c9 53bd 0fb9 82bd ad4d 073d f8d7 e13c
000002f0: b5ab 1f3c 6be2 b23d d947 643d 428b 2b3d
00000300: 9999 52bd e797 0dbd 4280 303d 8621 6e3d
00000310: 6d23 fb3a 26b2 473c 3363 e9bb abef 813c
00000320: 2fc1 6dbd 417c 633d f87b f8bd b6ba 673d
00000330: 1e9b c7bc fc06 843c 8a51 813d 3670 4b3d
00000340: fbf0 b2bc 8b85 f33c 346f 163c 591b bbbc
00000350: c31f 64bd 2f1d 97bd 98a6 d83d e3f7 7fbd
00000360: 0957 243c 05d6 c9bc 5810 2e3d f271 193c
00000370: e276 5b3d 8aae 2a3d e8cb ca3c ee17 c33d
00000380: 174d 1bbd 85a3 62bd 4ce7 72bc b5dc 0f3d
00000390: 005a b53d bc69 91bd d15d debc bf73 3a3d
000003a0: 2a85 b03d 37d9 25bd 2f83 0abd 31eb 6e3d
000003b0: c35a a4bb 37a3 193d eeb7 9e3d 3507 903c
000003c0: ba4b f1bc 7fa2 bf3d e720 59bd 56cf 0a3d
000003d0: 9518 adbc 658a 58bd e61d 603d ed25 a4bd
000003e0: e17f 183d 45cd 183c 3b77 c33d 013f 163e
000003f0: 4cf6 f1bc 2f00 83bc bb87 e9bc 8f50 96bd
0.08111627 -0.12347965 -0.015913876 -0.0936948 -0.012263471 -0.084039785 0.11810184 -0.022056099
0.0033886672 -0.008308745 0.045618676 0.009202368 0.018640978 0.0018663425 -0.016040072 -0.101748414
0.007870335 0.043022152 -0.013414126 0.0742193 -0.06936866 0.059287444 0.070829265 0.05669287
-0.05223214 0.10341018 -0.031013751 -0.010745555 -0.024712946 0.030090941 -0.024153937 -0.029394647
-0.08029871 -0.045758553 -0.073584996 -0.027363459 0.01888518 -0.029546209 -0.040678505 0.056284614
-0.02094305 -0.013698549 -0.012636931 -0.045779184 -0.017706698 -0.038746018 0.12152118 0.060214873
-0.102084845 -0.034588706 0.0046562534 -0.033697642 0.08046011 0.021521913 -0.037007906 -0.034568485
-0.021243257 0.0763967 0.034576863 -0.034077767 0.041201167 0.04078995 -0.061765756 0.008012009
-0.054328665 -0.027486106 0.025095873 -0.028050805 -0.05454867 -0.121036015 0.03906228 -0.016895777
0.087301016 0.07106371 -0.04120523 -0.02845475 0.07100682 -0.0262702 -0.0045515043 0.059982907
0.053919017 0.05987736 -0.025426 0.0855742 0.041584983 -0.115839206 -0.05688602 -0.050312374
0.031810794 -0.06379929 -0.019724997 0.03891058 0.09968369 0.057100724 0.0014953532 -0.09433422
-0.0063113957 0.05777446 -0.06468417 -0.016571827 0.038785275 -0.006489291 -0.08033602 -0.094618276
0.047098044 0.048072647 0.0075168726 -0.045497306 0.040109485 -0.033854343 0.081837036 0.070571996
-0.013774673 -0.032583818 0.0075318445 0.07556898 -0.011624586 -0.0012949827 0.11174251 0.07214655
0.0733856 -0.035521634 -0.006101433 -0.009847319 0.043304197 -0.03814471 -0.109378025 -0.014521212
0.025248008 -0.10182991 0.024040835 -0.099343084 -0.03305988 -0.0015708627 -0.04774299 0.066379294
-0.18088189 0.1508932 0.09155104 0.023877168 -0.073447235 -0.09825934 0.0136523545 -0.08001695
0.03663891 0.0037558486 -0.029964136 0.064706735 -0.01504468 0.072671644 0.0053036064 -0.011179243
0.045546748 0.04180001 0.010742307 -0.030981287 0.025835378 0.17090753 -0.041896347 -0.04079445
0.0472195 -0.03577644 0.052608393 0.057835158 -0.12556472 0.04711387 -0.029351149 0.049003296
0.035942793 0.07132455 0.026686314 -0.117643096 0.03467847 -0.0035531607 -0.007529214 -0.048355114
-0.009969228 0.015166976 0.0023363368 -0.035789967 -0.057953525 0.017360682 -0.027408814 -0.057440326
-0.051705424 -0.063829534 0.03303306 0.027568802 0.009745528 0.08734592 0.05573258 0.041880853
-0.051416013 -0.034568693 0.043091066 0.05813744 0.0019160338 0.01218847 -0.007122421 0.015861353
-0.058045562 0.05553842 -0.1213302 0.056574546 -0.024365958 0.016116612 0.063143805 0.04966756
-0.021843424 0.029726764 0.009181786 -0.022840189 -0.055694353 -0.07378613 0.1057865 -0.062492263
0.010030516 -0.024638185 0.042496055 0.009365546 0.053580172 0.04167036 0.024755433 0.095260486
-0.037915315 -0.055331726 -0.014825653 0.035122592 0.08855057 -0.07100245 -0.027144345 0.04552054
0.08619149 -0.040490355 -0.033816513 0.058329765 -0.0050157025 0.03750917 0.077499256 0.017581562
-0.029455055 0.093571655 -0.053009894 0.033889137 -0.021129886 -0.05286636 0.054716013 -0.08015046
0.03723133 0.009326284 0.09544226 0.14672472 -0.029536389 -0.015991298 -0.028507104 -0.07339584

network_body._body_endoder.seq_layers.4.bias f4 [256]
00000000: 3197 f63c 1cfa c9bd a293 ccbc 9601 0bbd
00000010: 4f81 a1bd 0b40 b0bc 7ad6 fbbc cc65 b4be
00000020: 7d0f e7bc 502a e3bd 0043 16bd 3613 b1bd
00000030: 3372 2cbe fdcb 003d 9475 b4be 13eb f1bc
00000040: 0839 62ba 5a09 59bc b929 29bd 47f8 f7bd
00000050: 5d66 babd 351c 49be a676 3fbd ba68 f1bc
00000060: 47d4 d7be 04a6 8dbd c89a 05bd 22fb 54be
00000070: 85d2 f4bc b8b2 2ebe 322b c0bd f712 07bd
00000080: 33f0 70bd caac 1f3d d2c3 21bd b3c8 d0bd
00000090: b535 723b 96e1 84be 7fb0 a0bd 856f 96be
000000a0: b649 42bc 6989 68bd 2d7b 92bd ede4 2ebd
000000b0: f798 16bd 61b2 9abe 59c5 4cbd 0752 a1bd
000000c0: 1943 95bc 152b 123c f905 86bc 140e 8cbc
000000d0: e50b 06bd 2862 1bbc 8cf3 b03a cd1f 9fbe
000000e0: 520e 5fbd aed0 89be d4b4 02bd 4bcb 51bc
000000f0: c7b2 52bc 3411 65be 08e9 4abc 1c12 13bc
00000100: ed64 0abd 845f e43c e284 b73b 05e5 22bb
00000110: 95f1 74bd 6f16 1ebd 91b5 62be 279e 9a3c
00000120: e86d 733c 005e 85bb c57f acbd 7f3c a13c
00000130: 6134 d5bc 0ad3 4cbd 7356 a1bb 439e 73bd
00000140: e9f4 84bc 1fbb 01bc 3106 aabc 64f8 973c
00000150: 6cdf deba 3dc0 a73c 5ff9 60bd 8ed7 77bc
00000160: 336e ee38 9639 e2bc 81f9 7cbb 4986 caba
00000170: a399 53bc 39db 95bd 3859 03be 26e3 49bb
00000180: d3ff a5be ae4e 0dbd 71c7 bb3c 11ff c5bd
00000190: 93ab 67bd 199b 20be 620e 4cbb 8bd2 a5bc
000001a0: 8637 6ebd 1522 b9bb 0e9d 663d e46d 8bbd
000001b0: 1597 d2bc bc71 6fbd 8c2d a3bd 980c 0d3c
000001c0: 7107 f0bd e259 7c3b fbb0 613b 79be 8fbc
000001d0: 98d4 d9ba 0948 31bd 09d2 3aba bf14 98be
000001e0: 3761 4b3a 4fbe 893b 4a29 493c d321 9ebe
000001f0: ba5e eabd 6ba7 93bd cb15 a9bd d5b1 94bd
00000200: 792b 33bb f2ef 5bbe f2cb 38bc 7273 fdbd
00000210: 7a61 b73c 0463 9a3c 83b3 47bd e006 aabc
00000220: 92af 7dbe 3b8a 793c 2f71 c5bc 1639 9bbc
00000230: 5953 c2bd 26d6 fa3c d259 2fbc 09f7 20be
00000240: e4c2 273b 48c9 00bd 7f31 25be eaff b6bd
00000250: 0993 b7bc 0f19 b6bd 1b42 ddbb 8d28 2cbd
00000260: 9e8d 02bc 745c 2fbe 0f06 48bc 3f13 56bb
00000270: f908 1bbd f5dd 56bd bb03 d4bc b805 b3bd
00000280: 7c68 21bc 73a3 443c e1d5 793c bd53 ad3c
00000290: 30be c0be e7e5 6bbd 56e9 86bd 913e 19bd
000002a0: db6c 81bd 4a84 5bbd 0542 02bd beb0 25bd
000002b0: 6231 d13a 53ca 9ebd 01d5 efbd 6fe0 70be
000002c0: 4c56 06be e454 28bd 6081 a2bd ceca 1ebd
000002d0: bacc b53c eedb a1bc 9d27 c4bd 3da9 aabc
000002e0: 46db a5bc 1749 a2bd 9019 a2bc 380a ddbd
000002f0: 5dea c0bd 519f aebd 217c b8bb 6dec 09bd
00000300: bd3e 0cbd 204f 07bd 67cb 2bbd 735d b23b
00000310: b756 8abc 7ebb 41bd 022c cabd c4c8 37bd
00000320: 8574 04be f8b6 a2be 89c3 b7bd c7a1 9abc
00000330: e551 a5bd d92a 1bbd 0ac5 99bd 0610 07bb
00000340: 78d1 52be c1b8 00bc f711 dbbc c755 0fbe
00000350: 1c86 92bd 23dc d9bc 1740 f93a 6a07 32bd
00000360: a108 88bd 9956 4ebd 50d8 2cbe c53e b3bd
00000370: f521 abbe 3c46 3dbd 98f7 06bc 1012 e1bc
00000380: 570b a8bd 2859 b7bd f4df 80bc ddca 7cbd
00000390: 3ae6 51be b686 ebbc b9ac 6c3b d49b c53a
000003a0: be94 87bc 04fb 61be 755a 02bd 05ca e2bd
000003b0: b784 a33b 7ebf 8dbd b5fa 28bc da73 84be
000003c0: 8f3d 94bc a6e2 abb9 26c3 8cbc 16db 11be
000003d0: a856 f53a f1e6 9ebc 207d 8abd e65d adbd
000003e0: 9e45 33bd f54d 8fbd 9cd2 cabd bc2d 5b3c
000003f0: e984 c4bd a1ca 8ebc 2755 a5bb 0cf9 6dbd
0.03010139 -0.09862158 -0.02497274 -0.03393706 -0.07885992 -0.021514913 -0.030741919 -0.35233915
-0.028205628 -0.11092055 -0.03668499 -0.08646242 -0.16840439 0.03144454 -0.35245955 -0.029531037
-0.0008629714 -0.0132468585 -0.041299555 -0.12107902 -0.091015555 -0.19639666 -0.04674401 -0.029468883
-0.42154142 -0.069164306 -0.032618314 -0.20798925 -0.02988554 -0.17060363 -0.09383239 -0.03297707
-0.05882282 0.038983144 -0.03949339 -0.1019453 0.0036958281 -0.25953358 -0.07846164 -0.29381958
-0.011858394 -0.05677167 -0.071524 -0.04269879 -0.036766972 -0.30214217 -0.049992893 -0.078769736
-0.018220471 0.008921404 -0.01636027 -0.017096557 -0.032726187 -0.0094838515 0.0013500317 -0.3107895
-0.054457016 -0.26917022 -0.031910732 -0.0128048165 -0.012860007 -0.22369844 -0.012384661 -0.008976486
-0.033787657 0.027877577 0.0056005577 -0.0024855745 -0.059800703 -0.038595613 -0.22139575 0.018874241
0.014857747 -0.0040700436 -0.084228076 0.019682167 -0.026025953 -0.05000595 -0.0049236356 -0.059477102
-0.016230064 -0.007918148 -0.020754905 0.018551059 -0.0017003841 0.020477409 -0.05492532 -0.015127076
0.000113692506 -0.02761535 -0.0038600864 -0.0015451397 -0.012915048 -0.07317204 -0.12827003 -0.0030805557
-0.3242174 -0.034498863 0.02292225 -0.09667791 -0.05656011 -0.15684165 -0.0031136503 -0.020241996
-0.05815842 -0.005649815 0.056302123 -0.06808069 -0.025706807 -0.058458075 -0.07967672 0.00860896
-0.11720169 0.0038505723 0.0034437764 -0.01754688 -0.0016619144 -0.04328159 -0.00071266346 -0.29703328
0.00077583216 0.0042035948 0.0122779105 -0.3088518 -0.11443849 -0.07209667 -0.0825611 -0.07260481
-0.0027339144 -0.2147825 -0.011279093 -0.12375535 0.022385348 0.018846042 -0.04875518 -0.020755231
-0.24774006 0.015230711 -0.024101822 -0.01894812 -0.094885536 0.030619692 -0.010702567 -0.15719236
0.0025598342 -0.031441957 -0.16132163 -0.089355305 -0.022408979 -0.08891498 -0.006752265 -0.04203086
-0.0079683345 -0.17125112 -0.012208476 -0.003266528 -0.037850354 -0.05245777 -0.025880685 -0.08741325
-0.009851571 0.01200186 0.015248747 0.021158094 -0.37645102 -0.0575923 -0.06587474 -0.037413184
-0.06319591 -0.053592958 -0.031801242 -0.040451758 0.0015960152 -0.07753434 -0.11710549 -0.23523115
-0.13118857 -0.041096583 -0.079348326 -0.03876763 0.022192348 -0.019758191 -0.09577868 -0.020832652
-0.02024616 -0.07924097 -0.01978758 -0.10792965 -0.09419701 -0.08526481 -0.0056300317 -0.03367274
-0.03423952 -0.033034444 -0.041942026 0.005443269 -0.016887052 -0.047297947 -0.09871675 -0.0448692
-0.12935074 -0.3178022 -0.08972842 -0.01887597 -0.08072261 -0.03788266 -0.07508285 -0.0020608916
-0.20587718 -0.007856549 -0.026741965 -0.13997565 -0.071544856 -0.026594227 0.0019016293 -0.0434641
-0.06642271 -0.050375555 -0.16879392 -0.08752207 -0.33424345 -0.04620956 -0.008237742 -0.027474433
-0.08205288 -0.08952552 -0.01573179 -0.061716903 -0.2049798 -0.028750759 0.0036113693 0.0015076348
-0.016550418 -0.22068411 -0.031824548 -0.110736884 0.004990186 -0.0692129 -0.010313679 -0.25869638
-0.01809576 -0.00032784528 -0.017182898 -0.14243731 0.0018717842 -0.01939723 -0.06762147 -0.08465175
-0.043767564 -0.06997291 -0.09903452 0.013377603 -0.09595663 -0.017430605 -0.0050455513 -0.058098838

action_model._continuous_distribution.log_sigma f4 [1, 2]
00000000: 4959 1ac0 dbd4 1bc0
-2.4116995 -2.4348667

action_model._continuous_distribution.mu.weight f4 [2, 256]
00000000: 25f8 2c38 f2f9 e039 c726 0638 358b 4639
00000010: eb39 2abb 7636 21ba eca3 b6b9 4ea5 30bc
00000020: 6151 8b39 3045 ebbc 0d16 cd39 d3db 9c39
00000030: 3412 b2bc b897 5c38 672c 21bc 1cc0 0938
00000040: 0e8e ee39 cfed d139 6012 0cb9 6bda 00bc
00000050: 97f3 80bc 0d68 84bb b568 e93a 6379 813a
00000060: 4f60 95bc a7ba ebbc 6d4a 45bb 43c8 90bc
00000070: 5cbd 30b8 e34d eebc 9ff9 d4b6 5850 03bc
00000080: 4d71 a6ba c170 0c3b 5a74 573a 94e6 aabb
00000090: 8a3b c8b9 6071 a8bc cb9d 10bb 8d52 133c
000000a0: 753f 1f37 1158 be39 acba 9c3a 88d8 8d39
000000b0: c2df e9b9 ed7c 253c d125 9139 0dd0 573d
000000c0: 97a8 e239 887e 543a 2988 73bb 00e3 03bc
000000d0: 807d bc39 7788 b237 c986 f239 dafc 83bc
000000e0: 8afe 283a 8dc6 82bc 21a0 d1b8 8b6e 043a
000000f0: c169 6239 6db8 fcbc 10aa 8239 1394 4239
00000100: f812 b33b 4fe4 a5b8 82dc 623a f425 e839
00000110: 7c33 9639 3726 21bb e35f 9fbc 7ef0 9cb9
00000120: 8397 053a 2c7f f939 526c d63a df21 953d
00000130: 9a88 193a 4a5f b439 6065 be38 0ec0 9139
00000140: 064a 1b39 be27 4039 2d07 ab39 1122 6eb9
00000150: 0877 5a39 1616 06bc b638 5db9 60bb 4a39
00000160: 7cd8 a5b9 a169 0737 e538 07ba 4640 9c38
00000170: 0fc7 1aba 728c 23bb 435a 8bbc 92dd 023a
00000180: 8002 11bc d5ee 0e3b 916b 09b9 5200 4439
00000190: dbbc 0ab8 9b1c b43c 7f5a aa3c f15f 86ba
000001a0: 512e eb38 3ebc a839 b10d 5d39 c263 ceb9
000001b0: 890e 0b3a a6d2 e938 53a0 2f39 3393 3039
000001c0: f262 c53c 84a1 2439 9616 06ba c614 a539
000001d0: aced 0e3a a3a5 db39 79be 18b8 6d99 c8bb
000001e0: ca13 0539 8e71 0f3b d48d cd39 3ba1 4dbc
000001f0: b315 d5bb ffc8 bf3a 4b5f 6e39 66f2 c43a
00000200: 93d2 6e39 0571 003c 12a0 0c39 4ce4 b0bb
00000210: 3ef5 10ba 2604 8e3a 914f fb38 286b efbb
00000220: 01f0 9fbc 71a6 84b8 ce3f ee3a 7bc2 29ba
00000230: 1651 ec39 ca89 a338 f5e8 3b39 ceed a4bc
00000240: a156 70b8 841e cb39 507c 67bc 7b8a 913a
00000250: cf99 9639 5a33 f038 21d8 1e38 ace7 0b3a
00000260: 6001 2e39 f40f 153c bfcc 9e38 687f f1ba
00000270: b953 2e39 7325 313a 0695 1d3a a41a 48bb
00000280: 2cbb 043a 3cc4 61b9 ee82 a9b9 509c af39
00000290: 6c59 d7bc 82d3 9f3a 5047 b0ba 3f57 cbb8
000002a0: 9b43 0e3a 2045 8639 2a75 c439 473f 4e3a
000002b0: b8f1 a23d 8f44 f639 ded4 ad39 1100 a3bc
000002c0: 2f0f b8bb 1a06 2638 83f5 29bc 744b 6b39
000002d0: 12b3 2f3a 05d0 273d 604f aa39 3492 c939
000002e0: f1bb e339 688d 883b 5b3d 5e3a 3e4a 4e3b
000002f0: 5b7c b339 d2b6 26bb 8324 7b39 29f5 c639
00000300: 446a 5d39 4e14 163a 15a6 6539 c0ad 75b9
00000310: a674 c9ba 752f 24bc 1be9 063b 310e 1ebb
00000320: 4533 43bc f8a7 16bc 3488 ad39 7a89 27b9
00000330: 806d 3b39 cb7c 283a db02 333a 8730 a439
00000340: 6089 e0bc 9fe9 01ba 5554 a139 cdac e2bb
00000350: 9408 6fba 774a b939 9436 4a3a 07fc e3b9
00000360: 5a2c 2439 6e6a 1f39 5720 7c3a bf70 fdbb
00000370: c4da 7bbc 3a3d 17b9 6409 e139 ea17 8bbb
00000380: c375 f2bc 6fb0 31bc cf77 4739 3ff8 003a
00000390: 2e51 8dbc 5546 c039 1234 3639 5a57 0ab9
000003a0: 1683 113a 31dc c6bb 9caf 0f3a 32a6 5dbc
000003b0: eee2 c4b9 ba6f 1d3a 3a5d bd38 c9a7 88bc
000003c0: ceac 243a f525 56bc acb0 0fb9 88ec 913c
000003d0: eccc 9abc f785 f039 15eb 88bb c725 be3a
000003e0: 8c2b 6cba ce98 8b39 9f77 2e3c b36f 063a
000003f0: 3cfd 453a 197d 05bd e2a7 103a dcac 0039
4.12391e-05 0.00042910833 3.1984204e-05 0.0001893461 -0.0025974463 -0.0006149778 -0.00034835876 -0.010781599
0.00026572778 -0.028719515 0.00039117076 0.0002991842 -0.021737196 5.2593386e-05 -0.0098372465 3.284226e-05
0.00045500736 0.00040040768 -0.00013358286 -0.007864575 -0.015741153 -0.004040724 0.0017807694 0.0009878095
-0.0182344 -0.028775526 -0.0030104176 -0.017673617 -4.2138025e-05 -0.029089874 -6.347152e-06 -0.008014761
-0.0012698561 0.0021429511 0.0008218937 -0.0052154753 -0.00038191333 -0.020561874 -0.0022066708 0.00899185
9.491913e-06 0.0003630524 0.0011957488 0.00027054944 -0.00044607936 0.010100585 0.0002768473 0.052688647
0.00043231688 0.0008106013 -0.0037160015 -0.0080497265 0.0003595166 2.12828e-05 0.0004625826 -0.01611178
0.00064466207 -0.015963817 -9.995723e-05 0.00050518726 0.00021592436 -0.03084966 0.0002492224 0.00018556444
0.0054649077 -7.910339e-05 0.0008654074 0.00044278766 0.00028648588 -0.0024589428 -0.019454902 -0.0002993382
0.00050961244 0.0004758773 0.0016359186 0.07281851 0.0005856842 0.0003440327 9.0787886e-05 0.00027799647
0.00014809528 0.00018325352 0.00032621008 -0.0002271014 0.00020834443 -0.008183977 -0.00021097329 0.00019334024
-0.00031632546 8.071221e-06 -0.0005158319 7.4506315e-05 -0.0005904296 -0.0024955538 -0.017010814 0.0004992123
-0.008850694 0.0021809835 -0.0001310541 0.00018692136 -3.307765e-05 0.021986296 0.020795105 -0.0010251981
0.000112143 0.00032183708 0.00021081303 -0.00039365707 0.0005304595 0.00011149542 0.00016749026 0.00016839504
0.024095032 0.00015700428 -0.000511506 0.0003148673 0.0005452286 0.00041894344 -3.6417016e-05 -0.0061218054
0.0001269124 0.0021887752 0.00039206317 -0.012550647 -0.006502831 0.0014632045 0.00022732948 0.0015025854
0.00022775894 0.007839446 0.00013411071 -0.005398309 -0.0005529708 0.0010834977 0.00011983433 -0.007306475
-0.019523622 -6.3252526e-05 0.0018176974 -0.0006475818 0.00045073841 7.798111e-05 0.00017920493 -0.020132925
-5.730114e-05 0.00038741913 -0.0141287595 0.0011103892 0.00028724826 0.00011453657 3.787142e-05 0.0005336951
0.00016594445 0.009098042 7.572164e-05 -0.0018424811 0.00016625122 0.00067575945 0.0006011281 -0.0030533457
0.0005063291 -0.00021530775 -0.00032331742 0.00033495063 -0.026287757 0.0012193772 -0.0013448987 -9.696045e-05
0.0005426944 0.00025609974 0.00037471327 0.00078677054 0.079562604 0.00046971857 0.0003315573 -0.019897493
-0.0056170444 3.9583167e-05 -0.010373476 0.00022439455 0.0006702404 0.040969867 0.00032484066 0.00038446637
0.0004343684 0.0041672476 0.00084777706 0.0031477357 0.00034234193 -0.002543856 0.00023950827 0.00037948161
0.0002111579 0.00057250715 0.00021901012 -0.00023429748 -0.0015369847 -0.01002108 0.002058572 -0.0024117345
-0.011914079 -0.00919532 0.0003309861 -0.00015977575 0.00017874502 0.0006427287 0.00068287336 0.00031316673
-0.027409256 -0.0004955772 0.00030771145 -0.006917572 -0.00091184047 0.0003534143 0.0007713821 -0.0004348459
0.00015656781 0.0001520307 0.0009617856 -0.0077343876 -0.015371982 -0.00014423291 0.0004292234 -0.004244794
-0.029597169 -0.010845288 0.00019022751 0.0004919804 -0.017250624 0.00036673495 0.0001737627 -0.00013193247
0.00055508444 -0.0060687293 0.0005481185 -0.013528394 -0.0003755311 0.0006005723 9.029587e-05 -0.016681569
0.00062818534 -0.013070573 -0.00013703358 0.017812982 -0.018896542 0.0004587618 -0.0041784146 0.0014507108
-0.00090091745 0.00026625994 0.010648637 0.0005128339 0.00075526885 -0.032590006 0.00055181806 0.00012271426

action_model._continuous_distribution.mu.bias f4 [2]
00000000: 7fde 753d 6a00 82bd
0.060026642 -0.06347735
