MLAgents Jumper Exercise/Assets/results/beta_3/JumperAgent/JumperAgent-19499903.onnx (onnx, 570158 bytes, 15 tensors)

network_body.observation_encoder.processors.0.normalizer.running_mean f4 [26]
000000 a3 ed 37 3f 34 d3 42 3f a3 ed 37 3f d0 0d 43 3f
       0.7184698 0.7610352 0.7184698 0.7619295
000010 a2 ed 37 3f cf 0d 43 3f a3 ed 37 3f a4 cb 43 3f
       0.71846974 0.76192945 0.7184698 0.76482606
000020 a1 ed 37 3f a2 cb 43 3f a2 ed 37 3f 6b 3a 45 3f
       0.7184697 0.76482594 0.71846974 0.77042264
000030 a3 ed 37 3f 6c 3a 45 3f 8a ef 40 3f 21 a0 4d 3f
       0.7184698 0.7704227 0.7536551 0.8032246
000040 88 ef 40 3f 20 a0 4d 3f 5c 76 5a 3f 7b 2a 61 3f
       0.75365496 0.80322456 0.8533685 0.87955445
000050 5c 76 5a 3f 7a 2a 61 3f 90 f9 6d 3f 50 56 71 3f
       0.8533685 0.8795544 0.9295893 0.9427233
000060 91 f9 6d 3f 51 56 71 3f
       0.92958933 0.94272333

network_body.observation_encoder.processors.1.normalizer.running_mean f4 [2]
000000 f9 09 e2 3e 0a ed d9 bc
       0.44148234 -0.026602287

network_body._body_endoder.seq_layers.0.weight f4 [256, 28]
000000 72 80 79 3e 9d ee 07 be 43 6e 91 3d e1 99 12 3e
       0.24365404 -0.13274617 0.07101109 0.14316513
000010 5a 10 56 3e 47 a9 c2 3d d3 36 23 3e 68 cb 57 3c
       0.20904675 0.09504943 0.15938883 0.013171054
000020 cc 73 5c 3e eb 1d 7c 3e 38 af 6b be 8e a3 3a 3e
       0.21528548 0.24620788 -0.2301606 0.18226454
000030 99 2f 8c 3c 1a 6e 0b bd 6e b7 f2 3d 16 5e 8f be
       0.01711254 -0.034040548 0.11851393 -0.2800147
000040 e4 e2 25 3c e2 9b 06 bd e7 65 f1 bc 07 3a 7c 3e
       0.010124896 -0.032863505 -0.029467536 0.2463151
000050 b1 b2 02 bf 44 d2 72 3d b0 33 0e 3e 11 ab f8 3b
       -0.5105391 0.059282556 0.13886905 0.007588752
000060 5b f7 80 be 06 77 1e 3e 15 44 98 3d df e1 14 3e
       -0.25188717 0.15475091 0.074348606 0.14539288
000070 19 21 98 3d 9a 2b a3 bd 90 b8 2b be ae a1 05 be
       0.07428188 -0.07967301 -0.16769624 -0.13049957
000080 59 84 29 3e 5a 9f 79 bd 2b f2 ad 3e 38 17 11 3c
       0.16554393 -0.060942985 0.33973822 0.008855633
000090 bc 91 3c be f7 ae 08 3e bf 46 2f be b0 31 8e 3e
       -0.18414968 0.13347994 -0.17116831 0.27772284
0000a0 3a f1 3e 3e c4 f4 c1 be 80 1e df 3e c1 20 14 bf
       0.18646708 -0.37882054 0.43577957 -0.5786248
0000b0 02 4a 0a 3d fa 80 35 bc a8 ec 69 3e 70 28 55 be
       0.033761986 -0.011078114 0.22844183 -0.20816207
0000c0 94 a0 11 bc 9c de cc 3d 3c db 81 3e 38 9b e0 be
       -0.008888382 0.10003397 0.25362575 -0.43868423
0000d0 1c 4d 0e be 5b 87 35 3d b7 f1 18 3e 7d 04 5f be
       -0.13896602 0.04431854 0.14935957 -0.21779056
0000e0 fb f7 69 3e aa a9 9f bd 2c ff f2 3c 6c 28 5b 3d
       0.22848503 -0.07796033 0.029662691 0.053505346
0000f0 6c 5c 94 3b 16 84 fe bd b1 e8 00 bd 9f 3e 42 3e
       0.004527619 -0.12427537 -0.03147191 0.189692
000100 99 16 82 bd 15 74 28 3e 7a 7d 0c 3d 2d ab b3 3c
       -0.063519664 0.16450532 0.03429935 0.021932209
000110 35 2d 7e 3b b7 6b 61 be 7f dc 8b be 41 fd 8a 3d
       0.003878427 -0.22013746 -0.27316663 0.067865856
000120 fa 62 60 3d f5 41 50 be 4c 1b 55 3d 5e 4c 9b 3e
       0.05478189 -0.2033766 0.052027985 0.303317
000130 94 1b 1b be 7d 60 aa 3e be 88 9c bd 5a c0 0c 3d
       -0.15147239 0.3327674 -0.07643269 0.03436313
000140 84 ef 1c 3e 3b ef 9f 3e d3 f5 82 bc b2 2b 56 3d
       0.15325743 0.31237206 -0.015986359 0.052287765
000150 35 4f c1 bd 62 47 0f be 70 98 54 3e 86 52 9c be
       -0.09438936 -0.13992074 0.20761275 -0.3053171
000160 c6 62 c4 bd 8a 15 25 be f0 e2 af 3e 11 f1 68 be
       -0.09589152 -0.16121498 0.34352827 -0.2274821
000170 0a 91 57 3c 5f cf 8f bd 93 51 c4 3e a7 97 aa 3e
       0.013157139 -0.07021975 0.38343486 0.33318827
000180 2e 6e 14 3e 98 0d 42 be 05 c0 70 bd 66 78 f4 bd
       0.14495155 -0.18950498 -0.058776874 -0.11937027
000190 f2 d1 2f be ba 57 36 3e bb 3a 68 3d 27 c0 fb bd
       -0.17169932 0.17806903 0.056696635 -0.122925095
0001a0 c0 d8 19 3e d2 ef 32 be 24 44 8d bd a5 d6 16 bd
       0.1502409 -0.17474297 -0.068977624 -0.036825795
0001b0 2c 50 47 3e 01 5b 4a 3d 7b 40 89 bc ab f4 77 3d
       0.19464177 0.049403194 -0.01675438 0.060536068
0001c0 db 7e 1c be f3 35 c7 bb 05 ba ff 3d 14 51 35 3d
       -0.15282767 -0.0060794293 0.12486652 0.044266775
0001d0 b9 37 66 3e 72 05 1a be fb c0 01 3f 59 38 25 3e
       0.22482194 -0.1504114 0.5068509 0.16134776
0001e0 cf c3 85 be e8 f2 5d 3c e7 1d eb 3d 06 53 3d bd
       -0.26125953 0.013546683 0.11480313 -0.046221755
0001f0 27 f5 2c 3e 00 bf 35 3d eb 31 f5 3c f0 ef 98 be
       0.16890393 0.044371605 0.02993103 -0.29870558
000200 ca 2a 5b 3e e6 06 87 3d 96 1f 5b be 3e 99 32 be
       0.21403041 0.06593113 -0.21398768 -0.1744127
000210 65 e9 42 be 6d f4 1a 3e 04 92 c2 3c 46 1f d8 3e
       -0.19034345 0.15132304 0.023751266 0.4221136
000220 ec 5c 45 3d 89 07 69 be 60 45 3a bd 8e e8 d1 3e
       0.04818432 -0.2275678 -0.045476317 0.40997738
000230 63 c4 1a 3e 5d aa b8 bc aa e5 a0 3e 3d 84 0d be
       0.15113978 -0.022542173 0.3142522 -0.13819976
000240 a3 5b 6d 3e f9 39 d5 bd 2b 7d 53 be bf 9b 20 3e
       0.23179488 -0.10411448 -0.20653217 0.15684412
000250 ab ae 97 3d d5 5c 7a bd ba a6 5a bd f9 c8 88 bd
       0.07406362 -0.061123688 -0.05338166 -0.066789575
000260 dc 98 99 bd c5 6d 02 be 72 8b 84 3e 98 25 d0 3d
       -0.07499859 -0.12737186 0.25887638 0.101634204
000270 db ed 1c 3e b1 3b 7a 3d e7 6c 47 3e 80 4d 2b be
       0.1532511 0.061092082 0.19475137 -0.16728783
000280 c3 25 3f be b2 fa 83 bd 58 f8 cb 3d fa ee 83 be
       -0.18666749 -0.06444301 0.09959477 -0.25768262
000290 e5 d6 e9 bd 96 6c 6f 3e 24 9e 6b 3e 7e 68 16 bb
       -0.11417941 0.23381266 0.23009545 -0.0022950466
0002a0 b7 1c cd 3e 27 7b cf 3d 44 40 52 3e f0 cb 45 bb
       0.4006097 0.10130911 0.20532328 -0.003018137
0002b0 b8 6a ae 3e 17 00 82 bc 05 66 36 3e f7 89 bc be
       0.34065795 -0.015869183 0.17812355 -0.3682401
0002c0 de 92 fc bd f0 9d 7a be a2 0a a1 3d 4d 03 e8 3e
       -0.123327 -0.24474311 0.07863356 0.45315018
0002d0 dd b9 98 be ef 25 55 3e d5 32 d8 3e 24 20 78 3d
       -0.29829302 0.20815252 0.42226282 0.060577527
0002e0 37 e4 1b 3e f0 a2 b3 be e4 37 88 3e ca 86 23 3e
       0.15223776 -0.3508525 0.2660514 0.15969387
0002f0 e6 3f c1 3a 4c b8 41 be 5f 90 e9 bd 08 ee 9c be
       0.0014743775 -0.1891796 -0.1140449 -0.30650353
000300 3a 6c 71 be df f8 2c 3e d3 72 b1 3e 55 a2 df 3d
       -0.23576441 0.16891812 0.34657916 0.10919634
000310 03 a1 19 be 95 3b 2b 3e 76 90 6e bd 18 a9 28 3e
       -0.15002827 0.16721947 -0.058243237 0.16470754
000320 e5 af e1 3d 85 2e 4d 3e f5 8f b6 bc 8c 7a 4b be
       0.11019877 0.20037277 -0.022285441 -0.19870967
000330 1d 6b b6 bc 88 3a c0 bd 31 12 b2 be 6e 53 b2 3d
       -0.022267872 -0.09386164 -0.34779504 0.08707319
000340 f1 98 9e 3d 06 dd bd bd 20 34 0d 3d d3 ca 00 3e
       0.07744015 -0.092706725 0.03447354 0.12577371
000350 b9 19 05 3d 45 6b fd ba dc 6b cf bd b6 c2 aa 3d
       0.032495234 -0.0019334337 -0.101279944 0.083379194
000360 d0 34 53 3d 69 c4 11 be 83 b9 e3 3d db cf da 3e
       0.051564038 -0.14235081 0.11119368 0.42736706
000370 64 cb 14 be d2 7f 87 3e 13 a4 43 be 0e 31 97 be
       -0.14530712 0.26464707 -0.19105558 -0.29529613
000380 63 63 75 3e e0 dd 93 3d 8a 72 10 be b9 0b 8a be
       0.23963694 0.07220054 -0.14106193 -0.2696207
000390 60 bc 17 3e 3f c3 3d be 15 5e bb bd 91 41 cd be
       0.14817953 -0.18531512 -0.09148804 -0.40089086
0003a0 78 ad d2 bd 96 2b ce bd 15 5a 8f 3e 49 c7 9a 3d
       -0.10286993 -0.10066907 0.27998415 0.07557542
0003b0 30 70 85 3d 5b 33 a3 3d 9f 36 91 bd 69 de 02 bc
       0.06515539 0.0796878 -0.07090496 -0.007987597
0003c0 ef 06 6a bd 97 77 a7 bd 1b 47 8a bd d1 d9 6a bd
       -0.05713552 -0.08177107 -0.067518435 -0.057336632
0003d0 31 d6 b9 3c 65 18 47 3d db a6 9c bd 1c a8 6d be
       0.022685142 0.04860725 -0.07649013 -0.2320866
0003e0 a8 e4 a9 3d 41 69 9f 3e 93 11 d0 be 25 55 9e 3c
       0.08295566 0.3113499 -0.40638408 0.01932771
0003f0 bb a1 78 be f4 a3 68 bd d0 ff 64 bd 57 97 82 3d
       -0.24280445 -0.056796983 -0.055908024 0.06376522

network_body._body_endoder.seq_layers.0.bias f4 [256]
000000 f7 78 1f be 78 6c 67 bd 91 e3 de bd dc 1f 10 3d
       -0.15573488 -0.05649993 -0.108832486 0.035186633
000010 6b e3 32 3d 95 2b e6 bd 58 26 8b bd fb 1a 15 be
       0.043673914 -0.11238781 -0.06794423 -0.14561073
000020 5f 92 51 bd 5c 03 fe bc a5 1f 35 3d 18 29 05 3d
       -0.05116498 -0.031007461 0.04421963 0.032509893
000030 a3 78 30 be 31 22 f9 bc db 8f b3 3c 1a 46 d4 bd
       -0.1723352 -0.030411812 0.021919182 -0.10364933
000040 17 3f ce bd 53 e7 7d 3d 4d b8 c2 bd 04 f6 ce bd
       -0.10070627 0.061988186 -0.09507809 -0.101055175
000050 f0 75 f1 bc cb fe 4d bd 31 90 a8 bd 89 85 8f bd
       -0.029475182 -0.050291818 -0.08230627 -0.07007892
000060 e7 43 3b 3d 1f d7 51 3d 57 af 90 bd 69 5f 85 bd
       0.045719054 0.051230546 -0.070646934 -0.06512339
000070 2a f9 2b 3c 6b 60 b7 3c f7 ea 8c bd 80 ad 76 bc
       0.010496417 0.022384843 -0.068807535 -0.015056014
000080 4c 2c 3d be 5e 21 98 3d b9 8f 3a bd 6d 4c 47 3c
       -0.18473929 0.07428239 -0.04554722 0.012164217
000090 73 37 09 be af 61 b7 3b e1 89 20 bd 40 64 3d 3d
       -0.13400058 0.0055963616 -0.03919399 0.046238184
0000a0 c5 5e c6 3d f3 1e 5b be d5 82 3f bd f6 2a 7d 3d
       0.096860446 -0.21398525 -0.04675563 0.06180855
0000b0 7f 3b 03 be c7 3e 37 3d 3c 81 ee bc e2 b9 05 be
       -0.12815665 0.044737604 -0.029114358 -0.1305919
0000c0 56 93 80 bc ee eb 18 be cf fd 91 be 7c 7e ec bd
       -0.015695255 -0.1493375 -0.28513953 -0.115475625
0000d0 99 0f 47 3d 42 39 ed bc 1d aa 60 3d 8f d1 a5 bd
       0.04859886 -0.028957967 0.054849733 -0.08096611
0000e0 7d 5d ee bd 99 55 2d be 1b da 28 bd f2 0a 16 bd
       -0.11638925 -0.16927184 -0.041223627 -0.036631532
0000f0 58 c6 ce bd 4b 9d 19 bd 1c 8e 9c 3d d5 56 f8 bd
       -0.10096425 -0.037503522 0.07644293 -0.12125937
000100 9d f9 a7 bd f6 ee 66 bd 1c d7 f7 3c 27 b7 8a 3d
       -0.08201907 -0.056380235 0.03025394 0.06773215
000110 2c ba f7 bb 20 95 55 be 17 72 0e bd 07 88 79 3d
       -0.007560035 -0.20857668 -0.034776773 0.06092074
000120 d8 1d 19 3d 29 db 16 bd ba 15 8c bd b0 5e 30 bd
       0.037381977 -0.0368301 -0.068400815 -0.04305905
000130 41 f2 b1 bc 08 b2 85 bd b6 91 08 be ff 51 2d 3c
       -0.021721961 -0.065280974 -0.13336834 0.010578631
000140 19 97 f5 bd 67 a8 6d bc d1 5b 2c bd c7 5c 93 bd
       -0.1199171 -0.014505482 -0.04207975 -0.0719543
000150 29 e7 f2 bd 7d eb 94 bd 55 2b 23 bc ba 2f bd bc
       -0.118604966 -0.07271478 -0.009959062 -0.023094047
000160 fa 38 bf bd 72 73 2b be ba b4 9b bd 78 07 03 3d
       -0.09337039 -0.16743258 -0.0760283 0.031989545
000170 0b 6c 02 be b1 a5 11 bd 98 25 13 3d 83 90 bb bc
       -0.12736528 -0.035558406 0.035924524 -0.022896057
000180 d1 af ed bd 5b 79 f5 bd 8e 36 93 bd d7 e4 bc bd
       -0.116058 -0.11986037 -0.0718814 -0.09223335
000190 8a eb 23 be 94 07 0a bb b9 2a f1 bd d2 46 39 3d
       -0.1600782 -0.0021061646 -0.11775727 0.045233555
0001a0 a3 a0 5d bc bb de 11 bc e2 9e 19 3d ae 5b 70 bd
       -0.013527068 -0.008903201 0.037505038 -0.058681183
0001b0 67 04 83 3d 33 7e 06 3d f6 de 9d bd 28 b2 26 bd
       0.06397324 0.032835197 -0.07708542 -0.040697247
0001c0 6a 80 8a bd 61 90 b1 bd 66 5a e8 bb ce be 8d 3c
       -0.06762774 -0.08670116 -0.0070908545 0.017302897
0001d0 17 aa 29 3c 4d 2f 58 bd 4d 32 29 bc cc 8f d4 bd
       0.010355494 -0.052779485 -0.010326934 -0.103789896
0001e0 26 66 c6 bb f9 62 b7 bb 5a 3d 20 be 31 93 c8 3c
       -0.0060546575 -0.0055965153 -0.15648404 0.024484249
0001f0 fb a1 f1 bd 7f a0 85 bd 70 99 03 be d6 a2 a1 bd
       -0.117984734 -0.06524753 -0.128515 -0.078923866
000200 b6 9c fe bc 85 78 fc 39 79 85 32 bd ff 4e 93 bd
       -0.031080585 0.0004815498 -0.04358432 -0.07192802
000210 81 fa 9c bd 3a 89 20 bc 65 f8 81 be 56 ca b6 bc
       -0.07664967 -0.009798342 -0.25384822 -0.022313278
000220 d4 0d c4 bc ce 77 7b bc 30 66 36 3d f1 96 62 bb
       -0.023932375 -0.015348388 0.044531047 -0.0034574831
000230 5a d7 eb bc fe c6 de bd 46 b6 00 bc b2 7d dd bb
       -0.028789211 -0.108777985 -0.007855957 -0.006759369
000240 43 49 14 3d b7 cc c3 bb a5 a2 d8 3c cf df c1 bd
       0.03620268 -0.0059753316 0.026444742 -0.09466516
000250 c5 9b a3 bd d3 44 2c be 12 26 11 be 60 c6 02 be
       -0.07988695 -0.1682313 -0.14174679 -0.12770987
000260 71 b4 93 bd 60 62 8f bd cf 17 df bd 94 91 48 3d
       -0.07212151 -0.070011854 -0.10893213 0.04896696
000270 b0 b2 15 bc d8 b7 6b 3d 9e 07 f7 3c a4 ef 6a bd
       -0.009136841 0.057548374 0.030155 -0.057357445
000280 92 5d b2 3c 1b c8 57 3d 6c fd f8 bd e4 3b 22 3d
       0.021773133 0.05268107 -0.121577114 0.039607897
000290 83 8c b8 bc 19 29 1d bd 28 35 e3 bd f5 3f d9 3a
       -0.022527939 -0.038369272 -0.11094123 0.0016574847
0002a0 23 4c de bd 48 6b d0 3c cf 66 9a 3b 70 af 8c bd
       -0.10854366 0.02544178 0.004711963 -0.068693995
0002b0 7b fa 08 be 25 da 13 be b9 4a b5 bb f0 c3 14 bd
       -0.133768 -0.14438684 -0.0055325893 -0.036319673
0002c0 84 30 b3 bc a2 d2 09 3d e0 55 c7 3d dd a3 6c 3d
       -0.02187372 0.03364814 0.09733176 0.05777346
0002d0 5b 39 37 be 5d 43 bf bd a4 ff 6e bc f1 e8 82 3c
       -0.17892973 -0.093390204 -0.014587317 0.015980216
0002e0 f5 1d 9c bb 3f 95 15 bd 2b 59 5e be ed 91 2e be
       -0.0047643133 -0.036519285 -0.21713702 -0.17047854
0002f0 45 fe a1 bd ab 83 db 3c 3e e9 ab bd d8 fd 14 be
       -0.07909826 0.026796183 -0.08394097 -0.14549959
000300 d5 fb 12 bd 23 69 eb bd a2 2c ce bd 3a 15 47 bc
       -0.035884697 -0.114946626 -0.10067107 -0.012151057
000310 89 9b 04 be 70 90 ac bd a8 ac 99 39 b6 52 25 be
       -0.12949957 -0.08425987 0.00029311073 -0.16144833
000320 8c 37 f2 bc 8a 69 d3 bd ab ee dc bd 48 6e 03 bc
       -0.029567502 -0.10322864 -0.1078771 -0.008021899
000330 57 3c 03 bb 3d 5e 89 bd 9b 6d 4c bd 5f 3e c2 bd
       -0.002002498 -0.06707428 -0.049909215 -0.094845526
000340 85 9a 79 bc 49 3a 4d 3d 76 1b 40 3d 4b 85 36 bb
       -0.015234594 0.050104413 0.04690119 -0.0027850445
000350 2b 98 e7 bd d3 89 98 bd b7 1e f8 3b 82 58 39 be
       -0.113083206 -0.07448163 0.007572021 -0.1810017
000360 02 61 f6 3c 19 a8 e1 bc 39 eb f1 bd b7 c5 01 be
       0.030075554 -0.027545976 -0.11812443 -0.12673078
000370 46 31 75 3d 81 4f e1 ba ab e4 e9 bd b6 74 24 be
       0.059861444 -0.0017189832 -0.11420568 -0.16060147
000380 18 1b 8d bd 46 99 13 be c8 19 96 bd d9 37 31 3c
       -0.06889933 -0.14413938 -0.07329136 0.010816538
000390 b2 2d 0e be 5e 8f 0e bd 3a 5a 3a be 07 8d c0 bd
       -0.13884619 -0.034804694 -0.18198481 -0.09401899
0003a0 71 4e 89 3d 43 47 6e 3b 1f 2c 2d bd 4d 1c 5c bd
       0.06704415 0.0036358393 -0.042278405 -0.053737927
0003b0 2a a7 96 3c d1 da 36 bc 62 0a 92 bd 53 3c 65 bd
       0.018390257 -0.011160568 -0.071308866 -0.055965733
0003c0 16 8b 32 bd 75 47 1e bd 4a 01 84 bc 05 10 68 bc
       -0.043589674 -0.038642365 -0.016113896 -0.014163976
0003d0 b8 ad 8a 3c 8b 85 cd bc d3 38 f6 bc a2 d8 24 3d
       0.016928539 -0.025088092 -0.030056393 0.04024566
0003e0 32 2e ca bd 49 e1 2a bd 53 b9 66 3d 14 a8 a6 bc
       -0.09872092 -0.041718755 0.056329083 -0.020343818
0003f0 4f 3c bf 3b 87 e3 1c bc 58 a7 88 bd f0 31 55 bd
       0.0058360468 -0.009575731 -0.06672543 -0.052049577

network_body._body_endoder.seq_layers.2.weight f4 [256, 256]
000000 33 af 81 3d 77 99 8b bd 88 51 c0 3c 00 0b 3b bd
       0.06332245 -0.068163805 0.023476377 -0.045664787
000010 b6 8f 14 be 64 47 53 bc 75 2e 6e 3d 4f b6 a9 3d
       -0.14507946 -0.012895439 0.058149774 0.08286726
000020 a5 5c 97 bd 0a 57 88 3d 55 7f c4 bc 93 44 95 bc
       -0.073907174 0.066572264 -0.023986498 -0.018221175
000030 31 d7 a0 bd 43 f1 54 bd a0 a7 22 bd 92 e7 02 3e
       -0.078535445 -0.051987898 -0.03971064 0.1278365
000040 e6 68 ff bb 89 34 88 bd 37 e3 5c bd 8c a5 59 ba
       -0.0077944873 -0.06650645 -0.053927626 -0.00083025615
000050 a4 53 47 be 78 8d 70 bc 1c 3a 79 3d 53 f9 03 bd
       -0.194655 -0.014682166 0.060846433 -0.032220196
000060 f8 c4 42 3d 81 e4 39 bd a1 63 e0 bd ce 96 a1 3d
       0.047551125 -0.045383934 -0.10956503 0.07890092
000070 cb a6 e7 3a 12 2b a8 bc 5e bc 8c bd dd 4b e4 3d
       0.001767361 -0.02052835 -0.06871866 0.11147282
000080 7b 50 6c bc 83 eb 72 3d c3 77 de 3c 9f 17 01 bd
       -0.014423485 0.059306633 0.027156716 -0.031516667
000090 3c 9d 0d bd d5 4a 42 be 64 dd 89 3d f7 10 ee bd
       -0.03457378 -0.18973859 0.0673168 -0.116243295
0000a0 e1 83 09 bd eb 3b eb 3b 27 48 aa bc ed b4 e1 bc
       -0.033573035 0.0071787736 -0.020786358 -0.027552092
0000b0 32 44 ba bd ec bf a0 bc 36 63 b8 bd 24 d1 d4 3a
       -0.090950385 -0.019622765 -0.09003298 0.0016236645
0000c0 06 c0 41 bd d5 28 65 3d 5a 6c bc bd 19 a2 36 3d
       -0.04730227 0.055947144 -0.09200354 0.044588182
0000d0 ea 55 fb bb 9d 7f 69 bd 98 6d 89 bd 5a b8 8b bc
       -0.007670154 -0.057006467 -0.067103565 -0.01705568
0000e0 d0 04 f4 3a 66 9c f3 bd a7 6f e0 bd 13 13 ac 3d
       0.0018617157 -0.11895065 -0.10958796 0.084020756
0000f0 36 07 4b 3d 85 a5 0d bd 22 2c 26 bd 8b ce 1d bd
       0.049567424 -0.03458168 -0.040569432 -0.038527053
000100 7d 41 0d 3e c1 9a 1a bd be 24 2c be 9a 3e 29 be
       0.13794513 -0.03774524 -0.16810891 -0.16527787
000110 1a 1b 8a bc 8f 7c d7 bd 78 fc ab 3b 30 43 73 3c
       -0.016858626 -0.105218045 0.0052486025 0.014847562
000120 8f b0 3b 3d 9a bc dc 3d 91 be 14 3e 8a 1a b5 bd
       0.045822676 0.107781604 0.1452582 -0.088429525
000130 11 68 c7 3c fb e7 a3 bd 54 ab 12 be 8a 68 d3 bc
       0.024341615 -0.08003231 -0.14323169 -0.025806684
000140 63 2e 4d bc 5c 2d a2 3c d7 33 23 bc 05 14 84 bd
       -0.0125232665 0.01979702 -0.00996109 -0.06449131
000150 d8 bb 43 bd 52 8a 9c 3d 03 2b 0c 3e 6a 80 14 be
       -0.047786564 0.0764357 0.13688283 -0.14502111
000160 cd 9c 27 3e a2 1c 60 bd db e5 a9 3d ef 52 25 3a
       0.16368409 -0.054714806 0.082957946 0.00063066086
000170 d8 28 2c bd a3 63 e9 bd d7 48 64 3d 84 9c ee bd
       -0.04203114 -0.11395957 0.055733528 -0.11650947
000180 49 50 15 3d 5e 9b 1b bc f3 7f 3e bd f4 f0 11 be
       0.03645352 -0.009497492 -0.04650874 -0.14252073
000190 aa 19 e0 3c 7b 05 2a be 17 0b 81 3c 2e 65 4f bd
       0.027355988 -0.16603653 0.015752358 -0.0506336
0001a0 1e c6 85 be af 61 b2 3d 35 22 d6 3c ff 1a fd bb
       -0.26127714 0.08710038 0.026139358 -0.0077241655
0001b0 e4 83 bc bd 6d 4a 45 be a2 95 85 bd 60 75 47 3e
       -0.09204844 -0.19266672 -0.06522681 0.19478369
0001c0 1d 0b ed 3c 72 eb 81 3c d9 3a 89 3d 99 23 9b bc
       0.028935963 0.01585934 0.067006774 -0.018937873
0001d0 e3 ed fe bc f7 8a 47 3c 5b 0a e1 3c 9e a8 c7 bc
       -0.031119293 0.012179128 0.027470758 -0.024372395
0001e0 45 0b fe bc 14 3a 12 bd ca c6 cf bd e8 7e 5b 3c
       -0.031011233 -0.03569992 -0.10145338 0.013396956
0001f0 3c 3b a3 3c e1 88 7c 3c 76 59 9b bd 61 01 13 bd
       0.019925706 0.015413494 -0.07585423 -0.035889987
000200 04 eb 1e 3d c3 d0 9f bd a6 01 e8 bc 0d e4 d4 3c
       0.038798347 -0.0780349 -0.028321099 0.02598765
000210 ce 37 58 bd 7a 54 30 be d5 ab 31 bd 00 ce b1 3c
       -0.052787594 -0.17219725 -0.043376762 0.021704674
000220 24 88 de bd cb 42 72 bd 08 9c 18 be d9 69 12 3c
       -0.108658105 -0.05914573 -0.14903271 0.008936369
000230 c7 8f 94 bc 9e 09 42 be 6a 89 b1 bd a8 4e b1 bd
       -0.018134965 -0.18948981 -0.08668788 -0.086575806
000240 5b b4 a3 bc 44 47 95 3b 51 8c 2a be ab d9 15 be
       -0.019983461 0.0045556147 -0.16655089 -0.14633815
000250 2e 60 5c 3b 9c f4 e4 bd c7 d7 38 3d 4f 96 aa 3d
       0.0033626663 -0.11179468 0.045127656 0.0832945
000260 ab de 9d 3d 30 d3 02 3e 8c 7d 20 3c 2f 3c 5f bd
       0.07708486 0.12775874 0.009795558 -0.054500755
000270 69 4d eb 3c f4 ec b6 bc 69 fc d3 3c c1 86 e3 bd
       0.028723435 -0.022329785 0.025877194 -0.11109687
000280 6a 97 65 bd a9 82 53 3e c9 38 04 be 6e e7 f9 3d
       -0.056052603 0.20655312 -0.12912287 0.12202345
000290 c4 3b 20 be 22 6c 27 bd a1 50 ef 3d 3c 30 4f 3d
       -0.15647799 -0.040874608 0.116853006 0.05058311
0002a0 9f ca f7 3b 25 a1 da bd 70 c9 41 bd e3 a9 00 3c
       0.007561996 -0.10675267 -0.047311246 0.007853004
0002b0 3e 80 98 3c 7d c3 0b bc d7 7e 3a 3b 2f 08 13 3e
       0.018615838 -0.008530495 0.002845695 0.1435859
0002c0 be 02 75 bc 0e 50 45 3d ca 6d 19 3c e1 6e 74 bd
       -0.014954267 0.04817205 0.009364555 -0.059676055
0002d0 0c 3c 2a 3d 29 41 93 3a f1 a5 36 3d b7 36 62 bd
       0.04156117 0.0011234629 0.044591848 -0.05522796
0002e0 4e dd 09 bd 06 2c 2b 3d 61 bf 4c 3c 6d 4f 07 be
       -0.03365832 0.04179003 0.0124968 -0.13213892
0002f0 82 ef 6b bd fe b1 55 3d 00 21 21 be 27 98 67 bd
       -0.05760146 0.0521717 -0.15735245 -0.05654159
000300 7a ee 0d 3d 06 75 9c 3c 9e 2a 8e 3d c0 76 84 3d
       0.034651257 0.01909877 0.06941722 0.06467962
000310 20 49 6b bc 81 b1 b6 bc 4d da 00 be 62 0f fc bc
       -0.014360696 -0.022301437 -0.12583275 -0.030769054
000320 84 33 9b bd 6d 65 f6 3c 5c b4 01 3c 6f f5 07 be
       -0.07578185 0.03007766 0.007916536 -0.13277219
000330 43 b5 a8 bd f3 55 ed 3c c1 74 e5 3c c3 20 6a 3d
       -0.08237698 0.028971648 0.028009774 0.05716015
000340 b9 e5 4a 3d 69 a5 36 bd 5a ce b3 bd e2 6a 01 be
       0.049535487 -0.04459134 -0.08779593 -0.12638429
000350 94 05 49 be 78 e4 d1 bc 53 57 5c bd 06 0e 2c be
       -0.19631034 -0.025621638 -0.053794216 -0.16802225
000360 1f da 87 be 2d 21 5e bd be 06 89 bd 42 6e 55 3e
       -0.265336 -0.054230858 -0.06690739 0.20842841
000370 33 12 93 3d 73 19 65 be 45 69 c1 bd fb c3 df bd
       0.071812056 -0.2237299 -0.09443907 -0.10926052
000380 fc 4c a3 3d 4f 2b 4a 3d 6f e9 2a 3d 5c 29 aa 3d
       0.07973668 0.04935771 0.041726526 0.0830867
000390 b1 d9 6b bd 58 7c 7f 3c 46 3d 63 bd 96 f7 5a 3c
       -0.057580654 0.015593611 -0.055478357 0.013364693
0003a0 86 c2 67 3e 85 ca c3 bc d0 63 8c bd b1 39 ab 3c
       0.22632799 -0.02390028 -0.06854975 0.020901533
0003b0 36 2f 0a 3e 1a 5e 82 bd 48 7c a1 bd 8e 4c 95 be
       0.13494572 -0.06365605 -0.07885033 -0.2915997
0003c0 09 73 0f 3b 6c 0a 0b bc cb 41 c7 bd 79 0f 42 bc
       0.0021888635 -0.0084863715 -0.09729346 -0.011844509
0003d0 58 1b 35 bd 67 c3 71 3d c1 b5 b7 3d 3d 27 1b 3d
       -0.04421553 0.05902424 0.08970214 0.037879217
0003e0 dd 2a 39 bd 9e b0 23 be cd 8c 05 3e 74 0c a7 bd
       -0.045206893 -0.15985343 0.13041992 -0.08156672
0003f0 fc 0a d8 bd 9b f8 45 3c 3d 84 17 3d 12 38 b9 bd
       -0.1054897 0.012083198 0.036991347 -0.09043898

network_body._body_endoder.seq_layers.2.bias f4 [256]
000000 5e 61 34 bd 60 1b 53 bb 1b 88 37 bc d9 ae 45 3d
       -0.04403817 -0.0032212362 -0.011201884 0.04826245
000010 e9 af 0f 3c 53 d7 f2 bc 23 5e 8e bd e1 a2 d3 bc
       0.008769968 -0.02964369 -0.06951549 -0.025834503
000020 a5 14 80 bd 85 81 21 bd 2e c2 03 bd 53 0a 41 3d
       -0.06253938 -0.03943016 -0.032167606 0.047128987
000030 b6 61 06 bc af 81 60 3d 82 59 84 bd 18 7a fa bc
       -0.008202007 0.054811176 -0.06462385 -0.030575797
000040 38 dc 94 3d eb 24 49 bd 11 65 e6 bd b2 8e a5 bc
       0.07268566 -0.049107473 -0.11249746 -0.020209644
000050 76 57 85 3b 81 ec 2f be 2c fe 79 bb 5b b8 6f bc
       0.004069264 -0.17180063 -0.0038145883 -0.014631356
000060 9d 97 44 be 89 17 58 bd 82 1c 4d bd 9f 2f 11 bd
       -0.19198461 -0.05275682 -0.050076015 -0.035445806
000070 3d 1d fa bd f1 54 88 bd f9 f1 b2 bc 7e cd 8f 3c
       -0.12212608 -0.06656826 -0.021843897 0.017554041
000080 34 72 f3 bd 51 62 84 bd 30 f2 92 bc 7b 6f a1 3d
       -0.11887017 -0.06464065 -0.01793775 0.07882591
000090 00 f1 98 bd 3f d7 b8 bd cc a7 38 be 65 83 c6 bd
       -0.07467842 -0.0902543 -0.1803276 -0.0969303
0000a0 11 14 d8 bc db 4b 38 3d c1 98 9b bd a9 a8 96 bd
       -0.026376756 0.044994216 -0.07597495 -0.07356388
0000b0 fc 24 6b bc b5 f1 81 bd 06 f7 14 bd e6 cf bc 3c
       -0.0143520795 -0.0634493 -0.036368392 0.023048352
0000c0 b7 61 31 3c eb 08 9f 39 5e 92 71 bd 99 78 b3 bd
       0.01082652 0.00030333488 -0.058977477 -0.087632366
0000d0 f4 d9 d3 bd a8 34 54 bc aa 30 4a 3d 26 9b 81 bd
       -0.10344306 -0.012952007 0.049362816 -0.0632842
0000e0 2b e5 b8 bd cf e8 f1 bd 4e c0 e0 bd df 44 03 3c
       -0.09028085 -0.11811983 -0.10974179 0.008012026
0000f0 74 12 7f bd d3 92 4b 3d 53 b8 f0 bd de 78 a6 bd
       -0.062273458 0.04970057 -0.11753907 -0.08128522
000100 cb 21 be bd 06 75 3a be 43 81 b7 bd ac 27 70 bc
       -0.09283789 -0.18208703 -0.089602016 -0.014657896
000110 1d bb 1a 3c 6f 35 0c bd d2 ac 46 bc fb 60 d1 3d
       0.009444025 -0.034230646 -0.0121261645 0.10223576
000120 0e 05 1b 3d 05 2c 23 bd d8 14 30 3d 48 ad 9f bd
       0.037846617 -0.039836902 0.04298863 -0.07796723
000130 c9 5f a8 bc 4b 3a 1e 3b f8 54 09 bd 4f d9 2e be
       -0.020553486 0.0024143632 -0.0335283 -0.17075084
000140 27 09 e2 3c 29 f7 b0 bd 47 d7 c0 3d 49 bb 68 3d
       0.027592255 -0.08640892 0.09416061 0.056819234
000150 e6 ff 8d bc 9d 5b 8c 3d 77 7e 33 bd 70 ef 01 bd
       -0.017333936 0.06853411 -0.04382178 -0.031722486
000160 d5 f4 14 bd 4c 4f 57 3c 16 2b 5b 3a 0d 67 3c bd
       -0.036366303 0.013141464 0.00083606073 -0.045996714
000170 80 02 1c 3d 0a 0b a3 3d fd 0e 31 bc 05 07 46 bd
       0.03808832 0.0796109 -0.010806796 -0.048346538
000180 fd 84 9a bb 8c 3e 53 bb fa f5 c9 bc 8b 74 4b bc
       -0.0047155605 -0.0032233326 -0.024653424 -0.012417923
000190 af 93 07 3c 65 e4 cb bd 0d 68 89 bc 2e 73 d9 bd
       0.008274957 -0.09955672 -0.016773248 -0.10617672
0001a0 00 ac 91 bd a1 c3 59 3c 92 24 e9 bd 6f ad a1 bd
       -0.071128845 0.0132912705 -0.11383928 -0.07894408
0001b0 04 67 33 bd 42 eb bf bd 58 d8 67 3d 1a a9 80 bd
       -0.043799415 -0.09371044 0.056602806 -0.062822536
0001c0 2e cd ab bd 7f 0a 91 bc ae 48 a7 3d e3 9c 34 3c
       -0.08388744 -0.0177052 0.081681594 0.011023733
0001d0 74 09 47 3d 91 9f fe bc 99 21 8d 3d 00 78 bf bd
       0.048593 -0.031081947 0.06891174 -0.0934906
0001e0 fe 5a 05 be 43 94 1d bd 43 8e 96 bc 8d 4d 0e bc
       -0.13022992 -0.03847147 -0.018378383 -0.008685482
0001f0 41 df 64 bd c4 3e 0e be 8f 8f 08 3d d5 4e 86 bd
       -0.055876974 -0.1389113 0.033340033 -0.06558005
000200 46 a6 90 3c 0a ab 06 bd 55 d3 d0 bc 3f e7 37 bd
       0.01765741 -0.03287796 -0.025491396 -0.044898268
000210 31 40 c1 3b 51 bf 45 3d 16 e6 4f bd 85 9e dd 3c
       0.005897545 0.048278157 -0.050756536 0.027053127
000220 61 65 1d bd cc 77 bb bd dd 55 29 3d df d6 6f bd
       -0.03842676 -0.09153709 0.04134165 -0.058554526
000230 c2 ed 54 bd 24 1e 36 3d d7 77 ba bd 0c 66 a6 bd
       -0.051984556 0.044462338 -0.09104889 -0.08124933
000240 c4 de 6c bd ce de 98 bc f8 29 4e be 8e b7 c4 bd
       -0.057829633 -0.018660929 -0.20133197 -0.09605323
000250 81 61 06 bd 3e cf cd 3c 0e 10 87 bd 75 45 9d 3c
       -0.03280783 0.025123235 -0.06594859 0.019198159
000260 84 ac 5a bd 0e 3c 8f 3d 1b 7a fe bd d7 a3 78 bd
       -0.05338718 0.069938764 -0.124256335 -0.060703125
000270 4e 0f 4b bd e7 e2 85 3c 35 4e ed bc 23 58 77 bd
       -0.049575143 0.016343547 -0.028967956 -0.060386788
000280 96 12 1e be 51 e7 b5 3d dd 34 d6 3b 68 ee 22 bc
       -0.15436777 0.08882011 0.0065370635 -0.009944536
000290 0f f5 a0 bd 87 11 47 3d 62 3f 62 3c 10 d1 95 bd
       -0.07859241 0.0486007 0.013809057 -0.07315266
0002a0 14 75 61 be 19 bf 90 bc 8b a7 d5 bd 55 7e 4c bd
       -0.22017318 -0.017669247 -0.10432347 -0.049925167
0002b0 5d 18 e9 bc cd 04 54 bd 1b a1 5a bd 41 99 83 3d
       -0.028454 -0.05176239 -0.0533763 0.06425715
0002c0 aa bd 23 bb bf 63 c7 bc 94 af 11 3d 46 74 85 bd
       -0.0024984875 -0.024339555 0.035567835 -0.06516318
0002d0 66 7f bd bc dc 81 7d bd c1 2a b5 3c d0 08 02 bd
       -0.023132037 -0.06189142 0.022115113 -0.031746686
0002e0 64 48 0e 3d c1 ab 85 bb 70 8c 38 bd 13 2e 50 bd
       0.034737006 -0.0040793126 -0.045055807 -0.05082519
0002f0 fb d2 08 bb 83 6d 98 bd 9b 8e d4 bd 2e 90 a7 3d
       -0.0020877707 -0.07442763 -0.10378762 0.08181797
000300 bd 16 91 3d 83 33 d6 bb 37 64 d9 bd 05 e7 86 3d
       0.07084415 -0.0065369024 -0.106148176 0.06587032
000310 3b d4 ab 3d f5 aa 25 be ac ab ab 3d 2f a2 d1 bd
       0.08390089 -0.16178496 0.08382353 -0.10236012
000320 33 ea c4 bc 36 4f ba 3d 34 bb fc 3d 3f e0 19 be
       -0.024037456 0.090971395 0.12340394 -0.1502695
000330 f8 f0 05 be a1 79 24 bd 5d 0f 0e bd 84 76 0f be
       -0.13080204 -0.040155057 -0.03468262 -0.14010054
000340 05 8c 94 bd a8 25 1b bd 5c 29 6e bd 55 17 9a 3d
       -0.07253269 -0.03787771 -0.058144912 0.075239815
000350 c4 16 40 bc 44 77 32 3d d5 08 a5 bd e2 e0 9b bd
       -0.011724178 0.04357077 -0.08058325 -0.07611252
000360 ff c4 5a 3d 44 ff 84 3d 95 41 86 be 72 c3 e6 bd
       0.053410526 0.064940006 -0.2622191 -0.11267747
000370 8a 33 cc bd 40 75 88 bd 83 be 47 3d 05 f0 53 bd
       -0.09970768 -0.06662989 0.04876567 -0.051742572
000380 88 70 9f bd bc 0e 33 bc 12 c4 d8 bd 49 2a e2 3c
       -0.077851355 -0.010928806 -0.105842724 0.027608054
000390 6b a8 9a bd 80 11 87 3d 28 ff a0 3c 02 05 b4 bd
       -0.075516544 0.06595135 0.019652918 -0.08790018
0003a0 d9 eb 2c be 39 98 a2 3d de fe ac bc 0f 4f fa 39
       -0.16886844 0.079391904 -0.021117624 0.0004774262
0003b0 1b c4 21 3c b1 cd 9b bd 0c f4 2d 3d 0c 9d ac bd
       0.009873415 -0.07607592 0.04246907 -0.08428392
0003c0 84 97 7f be 1b e9 43 bd 2f 86 b4 bd 8c e1 54 be
       -0.24960142 -0.04782973 -0.08814656 -0.20789164
0003d0 ef da 56 bd e4 ad 3b be 8e ff 76 3d 33 1a 5e 3d
       -0.052454885 -0.18328053 0.06030231 0.054224204
0003e0 11 20 d9 3c 05 72 af bc 08 7b 17 3c 29 82 11 3d
       0.026504548 -0.021416673 0.0092456415 0.03552452
0003f0 40 ac f6 bc 3d 58 75 3d 59 79 45 be 44 4e 9c bc
       -0.030111432 0.059898604 -0.19284572 -0.019080289

network_body._body_endoder.seq_layers.4.weight f4 [256, 256]
000000 9d e4 a1 3d 06 5f fa bd f8 63 98 bc 58 77 c6 bd
       0.07904933 -0.122251555 -0.018602356 -0.09690732
000010 e6 b7 46 bc 03 f0 b9 bd 37 0a 00 3e 36 69 b2 bc
       -0.012128806 -0.09078982 0.12503897 -0.021778684
000020 51 73 3b 3b 44 6d 2f bc ad 04 37 3d 63 bf 0e 3c
       0.002860267 -0.010707203 0.044682194 0.008712622
000030 8b 48 3c 3c db 01 cb 3a f0 f8 7e bc 85 7c cd bd
       0.011491905 0.0015488224 -0.015562281 -0.10033516
000040 83 85 04 3c 71 8d 60 3d eb 68 90 bc d6 d8 99 3d
       0.008088472 0.05482239 -0.017628154 0.07512061
000050 f1 21 97 bd e8 d6 66 3d 3b 83 8b 3d 2a e4 59 3d
       -0.07379521 0.056357294 0.068121396 0.05319611
000060 bb 07 5d bd f7 55 ce 3d 9d 44 26 bd b2 c9 34 bc
       -0.05396245 0.1007499 -0.04059278 -0.011034416
000070 59 6d cd bc 3b 04 b4 3c b5 2e c4 bc 48 d0 f2 bc
       -0.025076555 0.021974673 -0.023948053 -0.029640332
000080 9b d1 a6 bd 01 66 3d bd 5d 78 94 bd bc 95 cb bc
       -0.08145448 -0.046239857 -0.0724952 -0.024851672
000090 ab b0 96 3c 88 6a ca bc d8 f4 2c bd 84 de 5a 3d
       0.018394789 -0.024709001 -0.04222569 0.053434864
0000a0 86 d0 ce bc c4 d2 a7 bc ac f1 66 bc e8 08 51 bd
       -0.025245916 -0.020486243 -0.014095705 -0.051033884
0000b0 de ab b5 bc 71 56 44 bd f6 ad f6 3d 65 c6 8b 3d
       -0.02217668 -0.047934 0.12044899 0.0682495
0000c0 33 b4 c3 bd 8f 7e 29 bd a7 c9 93 3b 79 a0 15 bd
       -0.09555855 -0.04138046 0.004510123 -0.03652999
0000d0 00 0d a6 3d b9 bf ae 3c cb 9c 18 bd 31 60 42 bd
       0.08107948 0.021331655 -0.037258904 -0.047455017
0000e0 e7 35 c0 bc bc e6 9e 3d fd 0b f8 3c 47 7b 14 bd
       -0.023463203 0.07758853 0.030279154 -0.03625038
0000f0 c1 b9 39 3d 38 12 46 3d a8 ef 82 bd 0a f3 ec 3b
       0.045343164 0.04835722 -0.06393367 0.007231121
000100 92 16 68 bd 3d eb e0 bc 37 0e b3 3c 9e b4 21 bd
       -0.05666215 -0.02745592 0.021857364 -0.03947889
000110 92 d3 63 bd 31 81 00 be c0 e9 3c 3d ab dd 88 bc
       -0.05562169 -0.12549283 0.04612136 -0.016707262
000120 4a d7 b5 3d a5 02 79 3d 6e 7c 0a bd d8 76 e7 bc
       0.08878954 0.060793538 -0.03381007 -0.028254911
000130 d4 52 90 3d 37 59 da bc 5b 3e ee bb 55 42 6e 3d
       0.07047048 -0.02665387 -0.007270617 0.058168728
000140 9f b5 70 3d 5e 8a 74 3d e8 df cc bc 8e 24 b0 3d
       0.058766957 0.05970227 -0.02500911 0.08600722
000150 39 ce 14 3d e8 a3 df bd 21 02 77 bd 68 03 4f bd
       0.03632948 -0.109199345 -0.060304765 -0.050540358
000160 65 c4 ce 3c 2f 2d 84 bd 5c 6d 77 bc f3 5e 14 3d
       0.025240133 -0.064539306 -0.015101757 0.036223363
000170 70 b0 cb 3d 15 65 68 3d 41 cb 78 3c c2 70 cb bd
       0.09945762 0.056737024 0.015185178 -0.09933616
000180 a4 51 4b bc 3a 51 75 3d 30 06 84 bd 21 75 88 bc
       -0.012409601 0.059891917 -0.06446493 -0.016657414
000190 29 3a 19 3d d4 04 02 bc 97 61 a8 bd d6 d0 c2 bd
       0.03740898 -0.007935721 -0.08221739 -0.095124885
0001a0 0c b9 33 3d 90 25 3a 3d 31 2b 15 3c d5 3f 42 bd
       0.043877646 0.04544598 0.009104536 -0.047424156
0001b0 c9 82 1e 3d 02 29 27 bd 7c 35 a4 3d f0 54 82 3d
       0.038698945 -0.040810592 0.08018014 0.06363857
0001c0 b3 82 8e bc d3 a9 1b bd 25 3e 03 3c 20 1e 86 3d
       -0.017396307 -0.038003754 0.008010422 0.06548715
0001d0 6e c8 3b bc 9d ec c1 3a f2 3f da 3d 57 41 a3 3d
       -0.01146136 0.0014795248 0.10656728 0.07971447
0001e0 58 e7 95 3d 77 95 30 bd 3b ac 5d bc da 8a 98 bc
       0.07319516 -0.04311129 -0.0135298325 -0.018620897
0001f0 0c ff 3a 3d 77 0a 2f bd ba 55 df bd 7a 8d 8c bc
       0.045653388 -0.04273459 -0.10905023 -0.017157305
000200 fe 49 b7 3c a5 ed bd bd b0 28 f4 3c 67 20 d3 bd
       0.02237415 -0.09273843 0.029804558 -0.10308915
000210 0d e6 df bc d2 7e 33 bb ca 4c 63 bd e5 a0 89 3d
       -0.027331376 -0.0027388823 -0.055493154 0.06720141
000220 5b 9c 38 be 5c b3 14 3e 0e 01 ba 3d 3b b3 b0 3c
       -0.18028395 0.14521545 0.090822324 0.021569839
000230 0b cb 9a bd 75 7e c0 bd 8f 11 43 3c db 75 af bd
       -0.075582586 -0.0939912 0.011906042 -0.08567401
000240 9c 8a f7 3c 7c 47 44 3b 06 3d 05 bd 9e 29 86 3d
       0.030217461 0.0029949835 -0.0325289 0.065509066
000250 69 24 b6 bc 83 b0 96 3d c4 73 3e 39 2c 7e 47 bc
       -0.022234159 0.07357886 0.00018162938 -0.012176078
000260 5e 63 11 3d 8f f6 06 3d 1f 6a 22 3c 63 d3 01 bd
       0.035495155 0.03294998 0.009912997 -0.031695735
000270 73 91 dc 3c 40 23 2d 3e c8 fb 2a bd e9 ed 2f bd
       0.026924824 0.16907978 -0.041744024 -0.0429515
000280 5d 67 3d 3d 8c c7 1a bd 7a 30 4c 3d 28 2a 66 3d
       0.046241153 -0.03778796 0.04985092 0.056192547
000290 b0 8b 03 be a2 28 27 3d ca b0 00 bd 39 c3 2f 3d
       -0.12846255 0.040810235 -0.0314186 0.04291079
0002a0 72 78 0e 3d 47 8b 84 3d ac 84 dc 3c 2b 71 f3 bd
       0.034782834 0.064718775 0.026918732 -0.118868195
0002b0 fb 66 14 3d 82 d4 ed bb ce e0 40 bc 7a a5 4f bd
       0.036231022 -0.007257999 -0.011772348 -0.05069492
0002c0 d0 f9 2f bc 99 c5 0c 3c 7d 69 d2 3b ad b4 1f bd
       -0.010740712 0.008592033 0.0064212666 -0.038990665
0002d0 a1 f1 75 bd aa 43 83 3c 4f 25 b8 bc 3f e4 4e bd
       -0.06004489 0.016023476 -0.022478728 -0.05051064
0002e0 5d 01 58 bd 3c 5e 82 bd 04 c4 fa 3c 8a 46 da 3c
       -0.052735675 -0.0636563 0.030611046 0.026644964
0002f0 4a 7d 5e 3b 99 66 c4 3d 54 da 60 3d 85 26 2b 3d
       0.003394919 0.095898814 0.054895714 0.041784782
000300 39 73 5e bd 41 d9 0d bd 8e 2f 29 3d 46 b7 6c 3d
       -0.054309104 -0.034631018 0.041305117 0.05779197
000310 d8 7d 99 36 ba 62 47 3c 47 71 03 bc f4 e4 66 3c
       4.5744055e-06 0.012169534 -0.008022613 0.014092673
000320 3f 84 77 bd c2 6f 73 3d 83 0e fa bd 70 cd 5f 3d
       -0.060428854 0.059432752 -0.12209799 0.05463928
000330 34 bd e1 bc f6 29 65 3c 18 78 93 3d 3e 14 46 3d
       -0.02755604 0.013987055 0.072006404 0.04835915
000340 56 c0 c1 bc f0 54 14 3d f4 fd b3 3b 1c 2f c0 bc
       -0.023651283 0.036213815 0.00549292 -0.023459964
000350 f7 1a 7e bd a8 b9 9b bd b3 af d7 3d d4 e5 6c bd
       -0.062037434 -0.076037705 0.10531559 -0.05783637
000360 a0 89 27 3c 48 f5 8e bc 9f b6 27 3d 27 69 e1 3b
       0.010225683 -0.017450944 0.040945645 0.00687899
000370 9f 77 57 3d 23 02 2e 3d 41 3a fc 3c 07 2f d2 3d
       0.052604314 0.042482506 0.030789496 0.10262876
000380 a2 9d 23 bd fe 80 6c bd b5 ea 6e bc 0a 1b 1d 3d
       -0.039945252 -0.057740204 -0.014582326 0.038355865
000390 6f 53 b2 3d 2b 2a 93 bd 8f 94 df bc 5f 90 4d 3d
       0.0870732 -0.07185777 -0.027292518 0.05018651
0003a0 7e f5 ac 3d b6 93 26 bd 2a 98 12 bd 93 31 79 3d
       0.084452614 -0.040668212 -0.035789646 0.060838293
0003b0 a5 9a de bb a0 07 16 3d 4a 57 9b 3d 81 33 81 3c
       -0.0067933374 0.036628366 0.075850084 0.01577163
0003c0 ba 3a fd bc b6 b9 c0 3d 9e c3 61 bd 54 be 05 3d
       -0.030911792 0.094104216 -0.055118196 0.032652214
0003d0 b4 f9 a3 bc 4c 9c 5a bd d4 8e 72 3d 85 20 9b bd
       -0.020016529 -0.053371713 0.059218243 -0.07574562
0003e0 fc 98 11 3d 6f b4 05 3c 6f 4e bd 3d 0b a9 15 3e
       0.035546288 0.0081606945 0.09243476 0.14615266
0003f0 60 92 00 bd 5f 71 72 bc 63 a0 f5 bc a9 aa 93 bd
       -0.031389594 -0.014797538 -0.029983705 -0.07210285

network_body._body_endoder.seq_layers.4.bias f4 [256]
000000 4d 21 fe 3c a3 6f c2 bd 0c 2c cc bc 14 61 f5 bc
       0.031021738 -0.09493949 -0.024923347 -0.029953517
000010 f7 d5 8b bd 39 15 08 bd 8d 9d ec bc 0d a8 a7 be
       -0.0682792 -0.033223365 -0.02888372 -0.327454
000020 03 2c e5 bc 38 e9 e4 bd 6d 7a 17 bd a2 cd ac bd
       -0.027975088 -0.111772954 -0.03698199 -0.08437659
000030 ff 56 24 be 1d 50 fa 3c be 8b a8 be dc e3 ea bc
       -0.16048811 0.03055578 -0.32919115 -0.028673105
000040 d5 8f 37 3b 99 3d 16 bc 01 34 1e bd 5a bf 00 be
       0.0028009315 -0.009169959 -0.038623814 -0.12572995
000050 c8 82 ac bd 31 9e 3f be 69 3a 1f bd de 33 ed bc
       -0.08423382 -0.18712689 -0.038874064 -0.028955396
000060 4a 94 d0 be 20 41 8c bd 09 4f 02 bd bf c1 48 be
       -0.40738136 -0.06848359 -0.031813655 -0.19605158
000070 bd 7f 00 bd fe 6d 36 be 93 11 ad bd 44 c0 1d bd
       -0.03137182 -0.17815396 -0.08450618 -0.038513437
000080 e2 a6 68 bd 43 38 17 3d f8 6e 1a bd 97 56 cb bd
       -0.056799777 0.03691889 -0.037703484 -0.09928625
000090 4f 12 80 3b 93 30 7f be 72 51 97 bd c1 66 8e be
       0.0039084326 -0.24920873 -0.07388581 -0.2781277
0000a0 1a 12 72 bc 6a fe 59 bd a7 43 85 bd 65 86 2a bd
       -0.014774824 -0.053221144 -0.06507044 -0.041632075
0000b0 04 95 11 bd 66 d8 91 be 83 b7 3d bd 67 5e 98 bd
       -0.035542503 -0.2848541 -0.04631759 -0.07439881
0000c0 c1 d8 85 bc e8 29 ff 3b 70 0c 0e bc 15 15 94 bc
       -0.016338708 0.007786978 -0.0086699575 -0.018076459
0000d0 d9 c8 fc bc 96 e5 2e bc 1c 94 d3 3a 33 7a 97 be
       -0.03085749 -0.010674855 0.0016142162 -0.29585418
0000e0 86 17 66 bd 3b 7d 83 be 3c 70 03 bd 8f c3 90 bc
       -0.056174777 -0.2568148 -0.032089457 -0.017671375
0000f0 fd 74 2f bc 4b 78 5e be 08 57 4d bc fa 4b e3 bb
       -0.0107090445 -0.21725576 -0.012532957 -0.0069365473
000100 7c 65 0d bd 45 ab b7 3c 46 97 ae 3b e0 17 2b bb
       -0.03452061 0.022420535 0.005328092 -0.002610676
000110 0a 81 6d bd 33 4a 0d bd 01 cb 59 be 40 59 79 3c
       -0.05798439 -0.03449459 -0.21268846 0.015219033
000120 53 05 7e 3c c0 10 96 bb af 73 93 bd cd 3d 69 3c
       0.015504199 -0.0045796335 -0.07199799 0.014235926
000130 f3 a0 d9 bc af 1f 30 bd c5 ce d9 bb 0f 68 5d bd
       -0.026566004 -0.042998966 -0.0066469633 -0.054054316
000140 ff 7b 99 bc 77 ab 1c bc 72 70 aa bc 42 5e 92 3c
       -0.018735884 -0.009562365 -0.020805571 0.017867211
000150 ed 2b 6c bb df 3e 87 3c 67 1f 5a bd f9 ef 72 bc
       -0.0036036924 0.016509471 -0.053252604 -0.014827722
000160 f2 da 37 3b db c1 e0 bc 43 a0 3a 3b 66 92 5b ba
       0.0028054086 -0.027436187 0.002847687 -0.0008376002
000170 51 8c 50 bc cf 4b 95 bd 12 27 09 be 2d 32 4e bb
       -0.012728767 -0.0728985 -0.1339381 -0.0031463013
000180 02 4f 99 be a0 fe f1 bc f8 a9 c2 3c 6c 69 be bd
       -0.2994309 -0.02954036 0.023762688 -0.092974514
000190 e9 7b 67 bd 6d 3a 15 be c9 fc 48 3a 7d f5 b8 bc
       -0.056514654 -0.14573069 0.00076670625 -0.022577995
0001a0 c2 0c 4f bd 72 6a 91 bb 61 53 62 3d 4f a1 96 bd
       -0.050549276 -0.004437738 0.055255298 -0.07354986
0001b0 16 b8 ce bc ca 7d 6d bd f1 17 9b bd 47 ac 22 3c
       -0.025234263 -0.05798129 -0.07572926 0.009928769
0001c0 27 9e ee bd 90 67 9d 3b e3 52 80 3b ba c3 4c bc
       -0.11651259 0.0048036054 0.003916131 -0.012497837
0001d0 b8 4c 0e bb 97 02 2a bd b3 0d 2c ba 09 e5 89 be
       -0.0021713208 -0.041506376 -0.00065633206 -0.26932552
0001e0 8e 50 9f 3b 8e 8b df 39 29 9f 6d 3c 58 e8 94 be
       0.004861898 0.0004263785 0.014503279 -0.29083514
0001f0 e3 7f d5 bd d0 99 95 bd 51 79 a6 bd 11 40 8d bd
       -0.10424783 -0.07304728 -0.08128608 -0.06896985
000200 21 5e 08 bb d1 c5 4e be ba 2f 3f bc 4a 82 fe bd
       -0.0020808058 -0.20192648 -0.011669094 -0.124271944
000210 5d 75 ae 3c 38 b8 93 3c 41 60 39 bd 00 07 d3 bc
       0.021296198 0.018032178 -0.04525781 -0.025760174
000220 cc 08 75 be ba 79 82 3c ae 2b f9 bc cb 91 a6 bc
       -0.23929137 0.015927184 -0.030416336 -0.020333191
000230 ec 67 c0 bd 47 37 00 3d 05 b0 39 bc fb e1 1d be
       -0.093948215 0.031302717 -0.01133347 -0.15418236
000240 88 2c 43 39 88 38 e8 bc f8 00 26 be c6 41 ab bd
       0.00018613238 -0.028347269 -0.16211307 -0.08362155
000250 34 14 b9 bc 1a 2b bd bd c4 df f1 bb 7b 38 20 bd
       -0.022592641 -0.092367366 -0.0073814113 -0.039116364
000260 06 7d 14 bc 07 0c 26 be b8 55 37 bc 4d d7 b8 bb
       -0.009063011 -0.16215526 -0.011189871 -0.0056409
000270 63 da 1f bd ef 8c 5f bd d6 9f c9 bc 21 d5 98 bd
       -0.03902663 -0.054577764 -0.024612349 -0.07462526
000280 45 16 2d bc b5 6c 62 3c 51 a9 7a 3c 17 27 ba 3c
       -0.0105643915 0.013819863 0.015299157 0.022723718
000290 fc dd b8 be 7a 8e 59 bd f6 7b 62 bd c6 a8 13 bd
       -0.3610686 -0.053114392 -0.055294 -0.036049627
0002a0 bc 6b 80 bd f5 67 59 bd 80 38 03 bd ef ad 04 bd
       -0.06270549 -0.053077657 -0.032036304 -0.03239244
0002b0 93 f7 95 3b 9f 7a 92 bd d7 d4 ef bd 18 9c 6f be
       0.0045766323 -0.07152294 -0.11710518 -0.23399389
0002c0 ab 1e 03 be fb 57 31 bd 89 28 a6 bd 2f 97 16 bd
       -0.12804668 -0.043296795 -0.081132 -0.036765274
0002d0 1f cc b9 3c eb 3d 8b bc 69 a6 bf bd c7 7f ab bc
       0.02268034 -0.016997298 -0.09357912 -0.020934952
0002e0 7d 36 a2 bc 1e 03 ab bd e0 06 a5 bc 3e de d0 bd
       -0.019801373 -0.08350204 -0.02014488 -0.10198639
0002f0 1e e8 be bd 04 92 b7 bd 9a aa bf bb 90 a3 fc bc
       -0.093216166 -0.08963397 -0.0058491947 -0.030839711
000300 19 ce 00 bd 01 45 10 bd 4b 4c 2f bd 79 72 db 3b
       -0.03144655 -0.035222057 -0.042797368 0.006696996
000310 64 2d ac bc a8 b9 0a bd cf 6d bf bd 85 3d 55 bd
       -0.021017738 -0.03386846 -0.09347116 -0.052060623
000320 06 86 06 be 02 f5 97 be 3a 0b af bd 18 bd 90 bc
       -0.13137063 -0.29679114 -0.08547063 -0.017668292
000330 3a c1 a2 bd cd 9e 0c bd 00 dd 91 bd cb ca 29 ba
       -0.07947011 -0.03433113 -0.071222305 -0.0006477057
000340 9a 51 4a be 63 4c 02 bc 76 84 f5 bc 37 fb 16 be
       -0.19757691 -0.007952782 -0.029970389 -0.14744268
000350 09 da 92 bd db c4 c3 bc 0a 1c 41 3a d1 fb 3c bd
       -0.07170493 -0.023897579 0.0007366544 -0.04613859
000360 f7 d7 7c bd ab 0c 3e bd 1d cb 28 be ae 7e bb bd
       -0.061729398 -0.0463988 -0.16483732 -0.091550216
000370 c4 72 a2 be a7 71 46 bd 04 68 9d bb 90 06 d8 bc
       -0.31728184 -0.04844823 -0.0048036594 -0.026370317
000380 99 b1 ab bd 7e 16 c2 bd 22 b3 85 bc 54 46 78 bd
       -0.083834834 -0.09476946 -0.016320769 -0.060613945
000390 87 aa 46 be 16 ca e2 bc 46 ae 99 3b a1 45 a0 ba
       -0.19400989 -0.027684253 0.0046899645 -0.0012227782
0003a0 af d1 82 bc 15 59 5c be d2 ff fb bc 43 49 f1 bd
       -0.015969126 -0.21518357 -0.030761633 -0.11781552
0003b0 5d a9 ce 3b 7a 64 87 bd f7 d2 33 bc fa ef 80 be
       0.006306811 -0.06610961 -0.010975591 -0.25183088
0003c0 f5 0f 7e bc 07 86 3c bb 89 d3 8d bc 84 16 0c be
       -0.015506734 -0.002876641 -0.017312782 -0.13680464
0003d0 b8 1a 9e ba e4 51 9c bc f2 5a 78 bd 36 e7 a7 bd
       -0.0012062406 -0.019082017 -0.060633607 -0.08198397
0003e0 fb 4f 30 bd e8 be 8d bd 74 d7 bf bd fa c7 5c 3c
       -0.043045025 -0.06921178 -0.09367266 0.0134754125
0003f0 cd 80 c1 bd bd 20 7c bc 5d b5 a3 bb 28 c1 63 bd
       -0.09448395 -0.015388665 -0.0049959854 -0.05560413

action_model._continuous_distribution.log_sigma f4 [1, 2]
000000 ed 87 10 c0 c4 76 13 c0
       -2.2582963 -2.3041239
