MLAgents Jumper Exercise/Assets/results/beta_3/JumperAgent/JumperAgent-19999926.onnx (onnx, 570158 bytes, 15 tensors)

network_body.observation_encoder.processors.0.normalizer.running_mean f4 [26]
0	0x3f386767	0.7203278
1	0x3f433477	0.7625193
2	0x3f386767	0.7203278
3	0x3f436e93	0.763406
4	0x3f386766	0.72032773
5	0x3f436e92	0.7634059
6	0x3f386767	0.7203278
7	0x3f442aa7	0.7662758
8	0x3f386765	0.7203277
9	0x3f442aa5	0.7662757
10	0x3f386766	0.72032773
11	0x3f45964e	0.7718247
12	0x3f386767	0.7203278
13	0x3f45964f	0.7718248
14	0x3f416996	0.75551736
15	0x3f4df660	0.80454063
16	0x3f416994	0.75551724
17	0x3f4df65f	0.8045406
18	0x3f5a8056	0.85352075
19	0x3f613029	0.8796411
20	0x3f5a8056	0.85352075
21	0x3f613028	0.87964106
22	0x3f6de305	0.9292453
23	0x3f714684	0.94248223
24	0x3f6de306	0.92924535
25	0x3f714685	0.9424823

network_body.observation_encoder.processors.1.normalizer.running_mean f4 [2]
0	0x3ee114b4	0.43961108
1	0xbcdb3604	-0.026759155

network_body._body_endoder.seq_layers.0.weight f4 [256, 28]
0	0x3e786972	0.24258974
1	0xbe08bfc7	-0.13354407
2	0x3d8f4000	0.06994629
3	0x3e11ca78	0.14237392
4	0x3e54f95a	0.20798245
5	0x3dc10a3f	0.094257824
6	0x3e221fd3	0.15832452
7	0x3c4b2da9	0.012401023
8	0x3e5b5ccb	0.21422116
9	0x3e7b5413	0.2454379
10	0xbe6cc637	-0.23122488
11	0x3e39e4d7	0.18153702
12	0x3c8376e6	0.016047906
13	0xbd0e68b7	-0.034767833
14	0x3df0503b	0.11734053
15	0xbe8fb871	-0.28070405
16	0x3c12a96d	0.008951527
17	0xbd096f01	-0.033553127
18	0xbcf08a57	-0.02936284
19	0x3e7d61d8	0.24744356
20	0xbf02abd4	-0.5104344
21	0x3d77719d	0.060411084
22	0x3e0c4f0f	0.13702033
23	0x3c049ccd	0.008094025
24	0xbe81e98d	-0.25373498
25	0x3e1efb8c	0.15525645
26	0x3d96bbf0	0.07360065
27	0x3e0f26e7	0.13979684
28	0x3d9daefc	0.07699391
29	0xbd9fc8c1	-0.07801963
30	0xbe28f1ae	-0.16498443
31	0xbe03f67f	-0.12887
32	0x3e2c4b38	0.16825569
33	0xbd72f263	-0.05931319
34	0x3eaf55a6	0.34245032
35	0x3c2a8723	0.010408196
36	0xbe39cadd	-0.18143792
37	0x3e0a460d	0.13503285
38	0xbe2c7fdf	-0.16845654
39	0x3e8ee95b	0.2791241
40	0x3e41b81c	0.18917888
41	0xbec13d18	-0.37741923
42	0x3ee067fc	0.43829334
43	0xbf13de89	-0.57761437
44	0x3d1495b9	0.0362756
45	0xbc24f52d	-0.01006822
46	0x3e6b5bb1	0.22984196
47	0xbe554c8d	-0.20829983
48	0xbbf55c1e	-0.007487788
49	0x3dcc964b	0.099896036
50	0x3e843f33	0.25829467
51	0xbedf810a	-0.43653136
52	0xbe09851d	-0.13429685
53	0x3d3e5971	0.046472017
54	0x3e1046fa	0.14089575
55	0xbe67b091	-0.22625948
56	0x3e695ca4	0.22789246
57	0xbd9fbbf0	-0.07799518
58	0x3cee250c	0.0290704
59	0x3d5b12bc	0.053484663
60	0x3b80f4cb	0.0039354316
61	0xbdfe8edc	-0.12429592
62	0xbd0355bb	-0.03206418
63	0x3e424597	0.18971859
64	0xbd834d0e	-0.064111814
65	0x3e287b18	0.16453207
66	0x3d0a1080	0.033707142
67	0x3cb4acc7	0.022055043
68	0x3b575c52	0.0032861424
69	0xbe614b70	-0.22001433
70	0xbe8d1ddd	-0.27561846
71	0x3d88c5a9	0.06678326
72	0x3d565930	0.05233115
73	0xbe515dab	-0.20445888
74	0x3d4dc6a0	0.05023825
75	0x3e9a9827	0.30194208
76	0xbe1cf0bc	-0.15326208
77	0x3ea9ac48	0.33139253
78	0xbda1621d	-0.07880042
79	0x3d084612	0.03326995
80	0x3e1a82ca	0.15088955
81	0x3e9f5fef	0.3112788
82	0xbc1d637c	-0.009606238
83	0x3d46a667	0.048498537
84	0xbdbebec7	-0.09313732
85	0xbe0eb4c0	-0.13936138
86	0x3e55e06e	0.20886394
87	0xbe9c0b79	-0.30477503
88	0xbdc1d25a	-0.094639495
89	0xbe248748	-0.1606723
90	0x3eb0870f	0.34478042
91	0xbe687115	-0.22699387
92	0x3c6c147b	0.01440918
93	0xbd8ecf43	-0.06973126
94	0x3ec4f5b3	0.38468704
95	0x3eaac981	0.3335686
96	0x3e15b62c	0.14620274
97	0xbe41a9f1	-0.18912484
98	0xbd6cb524	-0.057789937
99	0xbdf49a57	-0.119435005
100	0xbe2ecf44	-0.17071253
101	0x3e3646aa	0.17800394
102	0x3d6f9c89	0.058498893
103	0xbdfaddfd	-0.12249372
104	0x3e1bb143	0.15204339
105	0xbe327eb7	-0.1743115
106	0xbd80c589	-0.06287677
107	0xbd0455af	-0.032308277
108	0x3e4d8f87	0.20074283
109	0x3d5cdbf7	0.053920712
110	0xbc8e21c8	-0.017350093
111	0x3d586607	0.052831676
112	0xbe1d1bbe	-0.15342614
113	0xbbd799c6	-0.0065796105
114	0x3dfe8030	0.124267936
115	0x3d334739	0.043769095
116	0x3e659ad6	0.22422346
117	0xbe1a87e2	-0.15090898
118	0x3f019995	0.5062497
119	0x3e24b810	0.1608584
120	0xbe86123e	-0.26185793
121	0x3c55ed0c	0.013057005
122	0x3de9e3e8	0.11420423
123	0xbd3f4399	-0.046695326
124	0x3e2c5844	0.16830546
125	0x3d33ce6a	0.043898024
126	0x3cf117af	0.029430239
127	0xbe991d57	-0.29905197
128	0x3e5aa7ad	0.21353026
129	0x3d865194	0.065585285
130	0xbe5ac465	-0.21363981
131	0xbe321a13	-0.17392759
132	0xbe428e34	-0.18999559
133	0x3e1b739a	0.15180817
134	0x3cbff706	0.02343322
135	0x3ed83bfc	0.42233264
136	0x3d440f73	0.047866296
137	0xbe68ce16	-0.22734866
138	0xbd3597ee	-0.044334345
139	0x3ed008bf	0.40631673
140	0x3e182ed7	0.14861618
141	0xbcd40f31	-0.02588615
142	0x3e9f9aed	0.31172886
143	0xbe10f5ac	-0.14156216
144	0x3e6ac60e	0.22927114
145	0xbddc1cdb	-0.10747691
146	0xbe5612b7	-0.20905577
147	0x3e1d1a98	0.15342176
148	0x3d92834e	0.07153951
149	0xbd843070	-0.06454551
150	0xbd64fd64	-0.055905715
151	0xbd90084a	-0.07032831
152	0xbd9ec43b	-0.07752272
153	0xbe060d64	-0.13091046
154	0x3e830a07	0.25593588
155	0x3dc7f42d	0.0976337
156	0x3e19eb0b	0.15031068
157	0x3d69d8f2	0.05709166
158	0x3e43391a	0.19064751
159	0xbe3084ee	-0.17238209
160	0xbe435990	-0.19077134
161	0xbd8e69cf	-0.06953775
162	0x3dc50663	0.09620359
163	0xbe866c1a	-0.2625435
164	0xbdf0c8da	-0.117570594
165	0x3e6a71fd	0.22895046
166	0x3e63906a	0.22223058
167	0xbb9ed556	-0.004847209
168	0x3ece5c15	0.40304628
169	0x3dd49822	0.103805795
170	0x3e54bf14	0.20776016
171	0xba0862ad	-0.0005202692
172	0x3eafaa15	0.3430945
173	0xbc5b1375	-0.013371338
174	0x3e38e4d5	0.18056042
175	0xbebb420f	-0.36573836
176	0xbdf795ad	-0.12089095
177	0xbe780dfe	-0.24224088
178	0x3da607d3	0.08106961
179	0x3ee94c63	0.4556609
180	0xbe977a7f	-0.29585645
181	0x3e57b810	0.21066308
182	0x3ed9ac3b	0.42514214
183	0x3d81dee6	0.06341343
184	0x3e1ed6cc	0.15511626
185	0xbeb22f4c	-0.3480171
186	0x3e8b038f	0.27151152
187	0x3e288b5a	0.16459408
188	0x3be338ce	0.006934262
189	0xbe3cb3c0	-0.18427944
190	0xbdde6bac	-0.108603805
191	0xbe9ac4c9	-0.3022826
192	0xbe6bd9f2	-0.23032358
193	0x3e314b9d	0.17314
194	0x3eb11d9a	0.34592897
195	0x3de076f1	0.10960186
196	0xbe1f4bce	-0.15556261
197	0x3e26eb97	0.16300808
198	0xbd829df2	-0.06377782
199	0x3e246199	0.16052856
200	0x3dd659ff	0.10466384
201	0x3e48e702	0.19619372
202	0xbce3e6d6	-0.027820032
203	0xbe4fa5da	-0.20278111
204	0xbce3c26e	-0.027802672
205	0xbdc89129	-0.09793312
206	0xbeb4e7ae	-0.35333008
207	0x3daa6e0a	0.083217695
208	0x3d93433d	0.07190559
209	0xbdc5c266	-0.09656219
210	0x3d0f49da	0.03498254
211	0x3e0252b2	0.12726858
212	0x3d072fc5	0.03300454
213	0xb9e5e452	-0.00043848396
214	0xbdd270b5	-0.102754034
215	0x3da82246	0.08209662
216	0x3d4d2b0f	0.050089892
217	0xbe131495	-0.1436332
218	0x3deb24b6	0.114816114
219	0x3edd50c9	0.43225697
220	0xbe1115de	-0.14168498
221	0x3e8a00c2	0.26953703
222	0xbe42c6d5	-0.19021161
223	0xbe957060	-0.29187298
224	0x3e79d63d	0.24398132
225	0x3d9bf77b	0.076155625
226	0xbe0bffb0	-0.13671756
227	0xbe88066b	-0.26567397
228	0x3e1c2f3a	0.1525239
229	0xbe39b8db	-0.18136923
230	0xbdb278ab	-0.08714422
231	0xbecb4086	-0.39697665
232	0xbdc9c80b	-0.09852608
233	0xbdc62701	-0.09675408
234	0x3e919376	0.28432816
235	0x3da2ab61	0.07942844
236	0x3d8e559a	0.06949921
237	0x3dab176d	0.083540775
238	0xbd896e18	-0.06710452
239	0xbb99b782	-0.0046910653
240	0xbd5a75e6	-0.053335093
241	0xbda0b740	-0.07847452
242	0xbd891324	-0.06693104
243	0xbd657301	-0.05601788
244	0x3cbea5e2	0.023272458
245	0x3d4c7f2e	0.049925976
246	0xbd9f56f9	-0.077802606
247	0xbe6d879a	-0.23196259
248	0x3da7348e	0.08164321
249	0x3e9f7997	0.31147453
250	0xbed20821	-0.41021827
251	0x3caf2560	0.021380126
252	0xbe7ac8e1	-0.24490692
253	0xbd7241a1	-0.05914462
254	0xbd6d9c96	-0.05801066
255	0x3d7b8b5a	0.061412193

network_body._body_endoder.seq_layers.0.bias f4 [256]
0	0xbe236c27	-0.15959226
1	0xbd715d24	-0.058926716
2	0xbde184c2	-0.1101165
3	0x3d117fe9	0.035522375
4	0x3d2aeb39	0.041728232
5	0xbde5bcd8	-0.1121766
6	0xbd9cf596	-0.07664029
7	0xbe1b4fd3	-0.1516717
8	0xbd56799a	-0.052362062
9	0xbd0723af	-0.032993015
10	0x3d39951f	0.04530823
11	0x3cf2591c	0.029583506
12	0xbe33ee3a	-0.17571345
13	0xbcff914f	-0.031197218
14	0x3cb3a3cd	0.021928692
15	0xbde21bab	-0.110404335
16	0xbdd29dab	-0.10283979
17	0x3d7f5b24	0.062342778
18	0xbdc1aa07	-0.09456258
19	0xbdce0ba0	-0.10060811
20	0xbd02f7c7	-0.03197458
21	0xbd5bb89f	-0.053642865
22	0xbda3fd38	-0.08007282
23	0xbd979c6e	-0.074028835
24	0x3ce87e7b	0.028380623
25	0x3d510a6b	0.051035326
26	0xbd951a39	-0.07280392
27	0xbd8ec805	-0.069717444
28	0x3bd5e089	0.006527011
29	0x3ccff26b	0.025384149
30	0xbd9172ea	-0.07101996
31	0xbacd17ef	-0.0015647392
32	0xbe3b25db	-0.1827616
33	0x3da24b8d	0.079245664
34	0xbd3aeba6	-0.045634888
35	0x3b66ef21	0.0035237747
36	0xbe04b6a1	-0.12960292
37	0x3b063575	0.002047864
38	0xbd295e74	-0.041349843
39	0x3d26fab9	0.04076645
40	0x3dc8aae2	0.09798218
41	0xbe61d848	-0.22055161
42	0xbd3f9363	-0.04677142
43	0x3d84f54e	0.06492101
44	0xbe057c8a	-0.13035789
45	0x3d33334c	0.043750092
46	0xbcf4b168	-0.02986975
47	0xbe06f83d	-0.13180633
48	0xbc8c7eec	-0.017150365
49	0xbe18505d	-0.14874406
50	0xbe9378c1	-0.28803065
51	0xbdf1f647	-0.11814552
52	0x3d478d21	0.048718575
53	0xbce534a2	-0.027979199
54	0x3d5c4b6c	0.053782865
55	0xbda9f678	-0.08298963
56	0xbdf04169	-0.11731226
57	0xbe318099	-0.17334212
58	0xbd2c70de	-0.042099826
59	0xbd2030f0	-0.03910917
60	0xbdd14a6e	-0.102192745
61	0xbcd3dc4b	-0.02586188
62	0x3da6e0cf	0.081483476
63	0xbdfdf8fd	-0.12401006
64	0xbda94245	-0.08264593
65	0xbd6a1f2e	-0.05715864
66	0x3cf82d5e	0.03029507
67	0x3d8dcd4d	0.06923924
68	0xbb8b4112	-0.0042497003
69	0xbe5e8405	-0.21730049
70	0xbd170a59	-0.036875103
71	0x3d85a73d	0.06526039
72	0x3d1ac517	0.037785616
73	0xbd19173a	-0.037375666
74	0xbd907670	-0.0705384
75	0xbd355e18	-0.044279188
76	0xbcb042f7	-0.021516306
77	0xbd88090c	-0.066423506
78	0xbe0bb6f6	-0.13644013
79	0x3c4705b8	0.01214736
80	0xbe04b426	-0.12959346
81	0xbcaacb28	-0.020848826
82	0xbd2cfd6c	-0.04223387
83	0xbd9f88d5	-0.077897705
84	0xbdf2dba0	-0.118582964
85	0xbd900d46	-0.07033782
86	0xbc55ee88	-0.013057359
87	0xbccae795	-0.02476863
88	0xbdc6a044	-0.09698537
89	0xbe2e3dcf	-0.17015766
90	0xbda2b513	-0.079446934
91	0x3cf52531	0.02992496
92	0xbe05ab96	-0.13053736
93	0xbd0e2d70	-0.0347113
94	0x3d12acac	0.035809204
95	0xbcbac9b5	-0.02280126
96	0xbdf1a67f	-0.11799335
97	0xbdf5e5d6	-0.12006728
98	0xbd9b0c80	-0.075707436
99	0xbdc2f336	-0.09519045
100	0xbe2771d0	-0.1635201
101	0xbb2a325c	-0.0025969958
102	0xbe007baf	-0.12547182
103	0x3d47b5aa	0.048757233
104	0xbc80f396	-0.01574115
105	0xbc238738	-0.009980969
106	0x3d18eb52	0.037333794
107	0xbd784c5a	-0.06061969
108	0x3d876352	0.06610741
109	0x3d1c34f9	0.038136456
110	0xbd960db2	-0.07326831
111	0xbd23d494	-0.039997652
112	0xbd907e3a	-0.07055326
113	0xbda02fa2	-0.07821585
114	0xbbb61516	-0.005556713
115	0x3c9a00c4	0.018799193
116	0x3badd9b0	0.0053054914
117	0xbd582b7c	-0.052775845
118	0xbc299636	-0.0103507545
119	0xbdd8af57	-0.105803184
120	0xbc44cf7f	-0.012012362
121	0xbbd309bd	-0.00644037
122	0xbe2384c5	-0.15968616
123	0x3ceafdc3	0.028685456
124	0xbdfdb458	-0.123879135
125	0xbd822c34	-0.06356087
126	0xbe0dbc10	-0.13841271
127	0xbda3053f	-0.07959985
128	0xbd02a352	-0.031894036
129	0x39bc7c6f	0.00035950865
130	0xbd4ea0be	-0.050446264
131	0xbda5c441	-0.08094073
132	0xbda68d03	-0.081323646
133	0xbc482812	-0.012216585
134	0xbe84ed02	-0.25962073
135	0xbcd16454	-0.025560535
136	0xbcd1162d	-0.02552327
137	0xbc7ec771	-0.01555048
138	0x3d402b60	0.046916366
139	0xbbcfaf65	-0.0063380473
140	0xbd038691	-0.032110754
141	0xbde62c6a	-0.1123894
142	0xbbc2cc2f	-0.0059447507
143	0xbc02dec3	-0.007987681
144	0x3d13e466	0.03610649
145	0xbc3ec02f	-0.0116425
146	0x3cbc2e9e	0.022971448
147	0xbdcfe38e	-0.101508245
148	0xbdaa777b	-0.0832357
149	0xbe35044a	-0.17677417
150	0xbe192719	-0.14956321
151	0xbe04d9af	-0.12973665
152	0xbd966e18	-0.073452175
153	0xbd93319b	-0.07187196
154	0xbde16c3c	-0.11006972
155	0x3d509e5c	0.050932273
156	0xbc4c8f9d	-0.012485412
157	0x3d6f9ae2	0.058497317
158	0x3cfec52b	0.031099876
159	0xbd76eb9e	-0.060283296
160	0x3cb5c0c6	0.022186648
161	0x3d5fba50	0.05462104
162	0xbe00ea59	-0.12589397
163	0x3d201ae4	0.039088145
164	0xbcc84553	-0.024447119
165	0xbd38dd59	-0.04513297
166	0xbde78c3a	-0.11306043
167	0x39d6545d	0.00040880116
168	0xbde10462	-0.10987164
169	0x3ce102e5	0.0274672
170	0x3b4cc5fe	0.0031245942
171	0xbd93e707	-0.07221799
172	0xbe0819ad	-0.13291045
173	0xbe142324	-0.1446653
174	0xbb312aea	-0.0027033635
175	0xbd0d3b71	-0.034480516
176	0xbca67b3e	-0.020322438
177	0x3d0d8b98	0.034556955
178	0x3dc8544a	0.09781702
179	0x3d6f5c98	0.058437914
180	0xbe3fa55c	-0.18715423
181	0xbdc69520	-0.09696412
182	0xbbdbb25a	-0.006704611
183	0x3c6e6d1e	0.014552383
184	0xbb9cf320	-0.004789725
185	0xbd1944fa	-0.037419297
186	0xbe6566c3	-0.22402482
187	0xbe330efd	-0.17486186
188	0xbd947054	-0.072479874
189	0x3cd58d85	0.026068458
190	0xbdad9195	-0.08475033
191	0xbe158361	-0.14600898
192	0xbd06641d	-0.03281032
193	0xbdf5b0ee	-0.11996637
194	0xbdd8942e	-0.10575138
195	0xbc3dfa57	-0.01159533
196	0xbe0675ce	-0.13130876
197	0xbdb501d6	-0.08838241
198	0xbb7c90c2	-0.003853843
199	0xbe2ab6f2	-0.1667135
200	0xbcead680	-0.028666735
201	0xbdd929bd	-0.10603664
202	0xbddb137e	-0.10697077
203	0xbbed7cd4	-0.0072475467
204	0xbbc3909f	-0.005968168
205	0xbd8873d7	-0.0666272
206	0xbd50e50a	-0.05099968
207	0xbdc3f952	-0.095690385
208	0xbc49e28a	-0.0123220775
209	0x3d55b3c3	0.052173387
210	0x3d4873c8	0.048938543
211	0xbb8c1527	-0.0042749825
212	0xbdea13e5	-0.11429576
213	0xbd9e6d51	-0.07735694
214	0x3b8e119c	0.0043355953
215	0xbe3fa480	-0.18715096
216	0x3cf074c8	0.02935256
217	0xbcb7c326	-0.022431921
218	0xbdfd18dc	-0.12358257
219	0xbe025591	-0.12727953
220	0x3d7c3902	0.061577804
221	0xba0e79d8	-0.0005435026
222	0xbdf47082	-0.11935522
223	0xbe2d1f79	-0.16906537
224	0xbd906093	-0.0704967
225	0xbe19467e	-0.14968297
226	0xbd9b87b8	-0.07594246
227	0x3c4a3597	0.012341878
228	0xbe1232be	-0.14277169
229	0xbd1771d4	-0.03697379
230	0xbe3f78fd	-0.18698497
231	0xbdbe24b7	-0.092843466
232	0x3d933736	0.07188265
233	0xb7ea51bb	-2.7933032e-05
234	0xbd38f3fe	-0.045154564
235	0xbd56faba	-0.052485205
236	0x3c845553	0.016153967
237	0xbc3dce6b	-0.011584858
238	0xbd956c67	-0.07296067
239	0xbd6f009e	-0.058350198
240	0xbcc837d3	-0.024440682
241	0xbd1f925d	-0.038957942
242	0xbc4d040d	-0.012513173
243	0xbc492c85	-0.012278681
244	0x3c922b39	0.017842876
245	0xbcc290a0	-0.023750603
246	0xbd0377ce	-0.032096677
247	0x3d376b11	0.04477984
248	0xbdc80b03	-0.09767725
249	0xbd2ea70b	-0.042639773
250	0x3d6b675e	0.057471626
251	0xbc9dbe45	-0.019255767
252	0x3bca2e66	0.006170082
253	0xbc1ad814	-0.009450931
254	0xbd8bd656	-0.06827991
255	0xbd6c73d9	-0.05772767

network_body._body_endoder.seq_layers.2.weight f4 [256, 256]
0	0x3d73a332	0.059481807
1	0xbda026cf	-0.07819902
2	0x3d186f5a	0.037215568
3	0xbd0a0a3f	-0.033701178
4	0xbe194794	-0.14968711
5	0xbcd8b93c	-0.026455514
6	0x3d610621	0.054937486
7	0x3dac863f	0.08424043
8	0xbd8d0890	-0.06886399
9	0x3d814b07	0.063131385
10	0xbcbcd2d6	-0.023049753
11	0xbcd80f83	-0.026374584
12	0xbd9edf3e	-0.07757424
13	0xbd60f24e	-0.05491858
14	0xbd574633	-0.05255718
15	0x3dec0a8e	0.11525451
16	0xbbe5de59	-0.0070150313
17	0xbda0c57a	-0.07850166
18	0xbd402712	-0.04691226
19	0xb9f1befd	-0.000461094
20	0xbe4e0de1	-0.20122482
21	0xbce81185	-0.028328666
22	0x3d71ee04	0.05906488
23	0xbcbb65b5	-0.022875646
24	0x3d161d03	0.03664876
25	0xbd658040	-0.05603051
26	0xbde8ed67	-0.11373406
27	0x3d96f9f6	0.07371895
28	0xbaaf3f85	-0.0013370371
29	0xbc5afcbf	-0.013365923
30	0xbd90ea55	-0.07075945
31	0x3de16ecd	0.11007462
32	0x3bc86a53	0.0061161905
33	0x3d5e9410	0.054340422
34	0x3cbbbbbe	0.02291667
35	0xbcb5f60c	-0.02221205
36	0xbcb50815	-0.02209858
37	0xbe40ecdd	-0.18840356
38	0x3d94c72e	0.07264553
39	0xbe03bd40	-0.12865162
40	0xbcf7219f	-0.030167399
41	0x3c65424f	0.01399286
42	0xbc95a5b3	-0.018267488
43	0xbcf0553b	-0.029337516
44	0xbdca6efc	-0.0988445
45	0xbcc3e5c5	-0.023913274
46	0xbdbf529d	-0.09341929
47	0x3bbd011b	0.005767954
48	0xbd71990f	-0.05898386
49	0x3d8e8c62	0.0696037
50	0xbdd5777a	-0.10423179
51	0x3d13ae6a	0.036055006
52	0xbc957e2a	-0.018248636
53	0xbd5d6d2f	-0.054059204
54	0xbd8a7458	-0.06760472
55	0xbc80a7fe	-0.015705105
56	0xb9e325b4	-0.00043324905
57	0xbdfd9757	-0.123823814
58	0xbdd70fbf	-0.1050105
59	0x3da6269e	0.081128344
60	0x3d468def	0.048475202
61	0xbd1db7e2	-0.038505442
62	0xbd2818a6	-0.04103913
63	0xbd0fe448	-0.035129815
64	0x3e0f0734	0.13967592
65	0xbcbb2d63	-0.02284879
66	0xbe2fab3a	-0.17155161
67	0xbe33f1ab	-0.17572658
68	0x3a03728d	0.0005014323
69	0xbdc2472a	-0.0948623
70	0x3c02bb2d	0.0079791965
71	0x3c644f40	0.01393491
72	0x3d79baff	0.06096935
73	0x3dd12c00	0.102134705
74	0x3e1bc9e5	0.15213735
75	0xbda3ac4a	-0.07991846
76	0x3d1491f0	0.03627199
77	0xbdb4239e	-0.08795856
78	0xbe133b79	-0.14378156
79	0xbce7bec8	-0.028289214
80	0xbc60b32c	-0.013714593
81	0x3ccaff46	0.024779927
82	0xbc48c7e5	-0.01225469
83	0xbd83bd5b	-0.06432601
84	0xbd652a6f	-0.05594867
85	0x3d9a5457	0.07535618
86	0x3e050db1	0.12993504
87	0xbe13f14f	-0.1444752
88	0x3e2316d3	0.15926675
89	0xbd60844c	-0.054813668
90	0x3d87cc9a	0.066308215
91	0x3b4e5773	0.003148523
92	0xbd48de35	-0.04904004
93	0xbdfd12d6	-0.12357108
94	0x3d4d285c	0.050087318
95	0xbde97fec	-0.11401352
96	0x3d35b5fe	0.044363014
97	0x3b2dee3c	0.0026539704
98	0xbd463798	-0.048392862
99	0xbe0d42db	-0.13795035
100	0x3cb2eb26	0.021840643
101	0xbe316dbe	-0.1732702
102	0x3c1847cb	0.0092944605
103	0xbd337c5a	-0.043819763
104	0xbe86efef	-0.2635493
105	0x3dbfb03d	0.09359787
106	0x3cb54d1c	0.022131495
107	0x3b89a47b	0.004200516
108	0xbdd37cb2	-0.10326518
109	0xbe55c1b3	-0.20874672
110	0xbd78bd3f	-0.060727354
111	0x3e3cbbdc	0.18431038
112	0x3d1eaa62	0.03873671
113	0x3ca4880c	0.020084403
114	0x3d983df4	0.074336916
115	0xbcc0071e	-0.023440894
116	0xbd0e441a	-0.034732915
117	0x3ced0f6e	0.028938022
118	0x3d256d65	0.04038753
119	0xbc817466	-0.015802573
120	0xbd061e6f	-0.032743867
121	0xbd235856	-0.039879166
122	0xbdd8d149	-0.10586793
123	0x3c85fad5	0.016354958
124	0x3cc5b6f4	0.02413509
125	0x3c6952ca	0.01424093
126	0xbd888acd	-0.06667099
127	0xbce9cd26	-0.028540205
128	0x3cc0bcdf	0.02352756
129	0xbd806c3e	-0.062706456
130	0xbcf12c76	-0.029440146
131	0x3d04a40b	0.032383006
132	0xbd3f064f	-0.046636876
133	0xbe2fd9b3	-0.1717289
134	0xbd1a3ac0	-0.037653685
135	0x3ba5a725	0.0050553256
136	0xbdebf704	-0.11521724
137	0xbd6e970a	-0.05824951
138	0xbe0ed16e	-0.13947079
139	0x3b5faf32	0.0034131524
140	0xbc581488	-0.013188489
141	0xbe462244	-0.19349009
142	0xbd8e47d6	-0.06947295
143	0xbda7e4c6	-0.08197932
144	0xbd03f687	-0.03221753
145	0xbba602d3	-0.0050662546
146	0xbe35622e	-0.17713234
147	0xbe0a69b6	-0.13516888
148	0x3a72160d	0.0009234853
149	0xbddc814f	-0.10766851
150	0x3d3a8a7c	0.045542225
151	0x3dc8deeb	0.09808143
152	0x3d92aa7b	0.07161423
153	0x3dff6efa	0.12472339
154	0x3c318a93	0.010836261
155	0xbd818acb	-0.06325301
156	0x3d104aed	0.035227705
157	0xbce4f29b	-0.027947715
158	0x3d2c7981	0.042108063
159	0xbdee6d1b	-0.11641904
160	0xbd82fda4	-0.06396034
161	0x3e56c1a4	0.20972306
162	0xbe0525c2	-0.13002685
163	0x3dfff8fd	0.124986626
164	0xbe19c4f4	-0.15016538
165	0xbd4f8220	-0.050661206
166	0x3df6b3ab	0.12045988
167	0x3d2f89b0	0.04285592
168	0x3c56cf03	0.013110879
169	0xbdfae57b	-0.12250801
170	0xbd571dc1	-0.05251861
171	0x3bbb718a	0.005720322
172	0x3cbdd789	0.023174064
173	0xbca62b3c	-0.020284288
174	0xbb768ac1	-0.0037619325
175	0x3e201f05	0.15636833
176	0xbc187327	-0.009304798
177	0x3d582b3b	0.052775603
178	0x3c0f0bbf	0.008730828
179	0xbd92ca11	-0.07167447
180	0x3d0c801b	0.03430186
181	0x3ab30382	0.0013657662
182	0x3d673721	0.05644906
183	0xbd7cbf78	-0.061706036
184	0xbd46f4e2	-0.048573382
185	0x3d21ad5a	0.03947196
186	0x3c533e5f	0.012893288
187	0xbe15085a	-0.14553967
188	0xbd632336	-0.0554535
189	0x3d5e2093	0.054230284
190	0xbe2829f2	-0.16422251
191	0xbd824336	-0.06360476
192	0x3cb1f0ff	0.021721361
193	0x3c7466a8	0.014917053
194	0x3d9fecfd	0.07808874
195	0x3d91c318	0.07117289
196	0xbc9d98bd	-0.01923787
197	0xbb0a1d98	-0.0021074768
198	0xbe0d21be	-0.13782403
199	0xbc9df5ba	-0.01928221
200	0xbda2478b	-0.07923802
201	0x3cf06521	0.029345097
202	0x3c2ec3d2	0.010666804
203	0xbe0bd38f	-0.13654922
204	0xbdcd1bfe	-0.10015105
205	0x3d4b1cf3	0.049588155
206	0x3d4c79f1	0.04992098
207	0x3d7efddb	0.062253814
208	0x3d507669	0.050894175
209	0xbd2d12c4	-0.042254224
210	0xbdb20ea9	-0.086942025
211	0xbdffe5ef	-0.12495028
212	0xbe487e00	-0.19579315
213	0xbc915938	-0.017742738
214	0xbd55b5c6	-0.052175306
215	0xbe2d7470	-0.16938949
216	0xbe8ec109	-0.2788165
217	0xbd8a0211	-0.067386754
218	0xbd80aad8	-0.06282586
219	0x3e56fe39	0.20995416
220	0x3d8ea33b	0.069647275
221	0xbe6f3944	-0.23361689
222	0xbdd025ba	-0.10163446
223	0xbddadb09	-0.10686309
224	0x3da84f56	0.08218257
225	0x3d3f2509	0.04666618
226	0x3d06e478	0.03293273
227	0x3dc0af91	0.09408487
228	0xbd4b0dcd	-0.04957371
229	0x3bc23970	0.0059272572
230	0xbd24ff8c	-0.04028277
231	0x3c9ed1da	0.019387174
232	0x3e61f250	0.22065091
233	0xbce50176	-0.027954798
234	0xbd9dfc05	-0.077140845
235	0x3d12335f	0.035693523
236	0x3e11cf90	0.14239335
237	0xbd852c63	-0.06502607
238	0xbd5fa54f	-0.05460101
239	0xbe97a7e1	-0.2962027
240	0x3ada4069	0.0016651276
241	0x3c1674ce	0.009183122
242	0xbdc14806	-0.094375655
243	0xbc34c0ce	-0.011032296
244	0xbd75c7e3	-0.06000508
245	0x3d807f9c	0.062743396
246	0x3dac1fad	0.08404479
247	0x3cee98dc	0.029125623
248	0xbd172810	-0.03690344
249	0xbe1f9369	-0.15583576
250	0x3dfca21f	0.1233561
251	0xbdaf8088	-0.08569437
252	0xbdf7f634	-0.121075064
253	0xbb43bb27	-0.002986619
254	0x3d15f78d	0.036613036
255	0xbdcc118e	-0.09964286

network_body._body_endoder.seq_layers.2.bias f4 [256]
0	0xbd2f1b81	-0.04275084
1	0xbc0bf85a	-0.008543098
2	0xbc17b496	-0.009259364
3	0x3d4414c3	0.047871362
4	0xbb74b4cb	-0.0037339206
5	0xbd068de1	-0.03285015
6	0xbd8f0e62	-0.06985165
7	0xbcfb0b68	-0.030645087
8	0xbd818ff5	-0.06326286
9	0xbd169f92	-0.03677327
10	0xbcf1e0ed	-0.029526198
11	0x3d4595fd	0.048238743
12	0xbc74c34c	-0.0149391405
13	0x3d654317	0.055972185
14	0xbd97b763	-0.07408025
15	0xbd0e28d0	-0.03470689
16	0x3d9cf8d2	0.07664646
17	0xbd2e7d16	-0.04259976
18	0xbdf1130a	-0.117712095
19	0xbc9f74e7	-0.019464923
20	0x3b4a56fc	0.00308746
21	0xbe2bea28	-0.16788542
22	0xbb2fe4da	-0.0026839287
23	0xbc3571f0	-0.011074528
24	0xbe479679	-0.19490995
25	0xbd64be3b	-0.05584548
26	0xbd4925dc	-0.04910837
27	0xbd1c240a	-0.038120307
28	0xbe00f096	-0.12591776
29	0xbd8bd214	-0.068271786
30	0xbcbc0af4	-0.022954442
31	0x3c7db962	0.015486093
32	0xbdf926b8	-0.12165588
33	0xbd8c9f7f	-0.06866359
34	0xbc939413	-0.018014943
35	0x3d9fc3c8	0.07801014
36	0xbd9982b1	-0.074956305
37	0xbdce9781	-0.10087491
38	0xbe3f0180	-0.18652916
39	0xbdc206db	-0.09473964
40	0xbcc1fbf2	-0.023679707
41	0x3d4186fe	0.04724788
42	0xbd9925db	-0.074779235
43	0xbd94bb6b	-0.0726231
44	0xbc8bead9	-0.017079758
45	0xbd8b4d08	-0.06801802
46	0xbd23b15f	-0.039964076
47	0x3cdfca30	0.02731809
48	0x3c66538c	0.014058005
49	0xbb8c8d36	-0.0042892946
50	0xbd7a2c0e	-0.06107717
51	0xbdbbd0ac	-0.091706604
52	0xbde2c2df	-0.11072325
53	0xbc857282	-0.016289953
54	0x3d5e57d8	0.054282993
55	0xbd8b2c7d	-0.06795595
56	0xbdbf1506	-0.09330182
57	0xbe00a4c2	-0.1256285
58	0xbdf18437	-0.11792796
59	0x3c36769c	0.011136677
60	0xbd70257b	-0.058629494
61	0x3d442091	0.04788262
62	0xbdf58498	-0.11988181
63	0xbdac0011	-0.0839845
64	0xbdc49e15	-0.09600464
65	0xbe44a32e	-0.19202873
66	0xbdaccf53	-0.084379815
67	0xbc7aa6b7	-0.015298537
68	0x3c8dbd5e	0.017302211
69	0xbd04bb55	-0.032405216
70	0xbafafb4e	-0.0019148381
71	0x3de17532	0.11008681
72	0x3d1b6fef	0.037948545
73	0xbd1d2b9f	-0.03837168
74	0x3d297add	0.041376937
75	0xbd9f9ef0	-0.07793987
76	0xbcaeca70	-0.021336764
77	0xbb8d4e03	-0.0043122782
78	0xbcfd750d	-0.030939603
79	0xbe2f3592	-0.17110279
80	0x3d20c7e5	0.039253134
81	0xbdb164e1	-0.08661819
82	0x3dc7f26f	0.097630374
83	0x3d676748	0.05649498
84	0xbc9c733f	-0.019097922
85	0x3d9389f0	0.07204044
86	0xbd4040f7	-0.046936955
87	0xbcf0bbed	-0.029386485
88	0xbd0eb6dc	-0.034842357
89	0x3bb92640	0.0056503117
90	0xbba279e0	-0.0049583763
91	0xbd3ed634	-0.046591
92	0x3d171454	0.03688462
93	0x3db0e4f4	0.08637419
94	0xbab43807	-0.0013749608
95	0xbd4fc814	-0.05072792
96	0xbbab0254	-0.0052187834
97	0xbc05580d	-0.008138669
98	0xbccb9833	-0.024852848
99	0xbc2eb73e	-0.0106638055
100	0x3bc6b628	0.006064195
101	0xbdd782b7	-0.10522979
102	0xbc8a4f86	-0.016883623
103	0xbde3fd52	-0.111323014
104	0xbd8c363c	-0.06846282
105	0x3c8a97b8	0.016918048
106	0xbdf399be	-0.11894558
107	0xbda9283e	-0.08259629
108	0xbd1d936d	-0.038470674
109	0xbdbf380e	-0.093368635
110	0x3d6d238d	0.057895232
111	0xbd844250	-0.064579606
112	0xbda8bf2c	-0.08239588
113	0xbc99abab	-0.018758615
114	0x3dacc11b	0.084352694
115	0x3c90c7ad	0.017673338
116	0x3d4c0dfb	0.04981802
117	0xbcf4dc08	-0.029890075
118	0x3d8d7cb1	0.069085486
119	0xbdb6a4d4	-0.08918157
120	0xbe041f05	-0.12902458
121	0xbd2583bb	-0.04040883
122	0xbc5ff1cf	-0.0136684915
123	0xbc50f473	-0.012753594
124	0xbd54ad73	-0.051923227
125	0xbe0f3021	-0.13983203
126	0x3d19fc4f	0.037594136
127	0xbd91d5a2	-0.07120825
128	0x3c9ff667	0.019526673
129	0xbd1e6e0c	-0.038679168
130	0xbcb40c46	-0.021978509
131	0xbd49ff54	-0.049315766
132	0x3ba8019c	0.005127145
133	0x3d3753b2	0.044757552
134	0xbd3180bd	-0.043335665
135	0x3d060df3	0.032728147
136	0xbd2ce734	-0.04221268
137	0xbdcb9edb	-0.09942409
138	0x3d38374f	0.04497462
139	0xbd5002ae	-0.050783806
140	0xbd687fac	-0.056762382
141	0x3d2e516a	0.04255811
142	0xbdc89308	-0.09793669
143	0xbdb23095	-0.087006725
144	0xbd6cd7d2	-0.05782301
145	0xbc8b4100	-0.016998768
146	0xbe5119d1	-0.20420004
147	0xbdc9e675	-0.09858409
148	0xbd0a282b	-0.033729713
149	0x3cd9ae3e	0.026572343
150	0xbd86e67a	-0.06586929
151	0x3c8bc540	0.01706183
152	0xbd644123	-0.05572618
153	0x3d988039	0.074463315
154	0xbe05cbd2	-0.13066033
155	0xbd824251	-0.06360305
156	0xbd54cd1d	-0.051953424
157	0x3c9d1ff8	0.019180283
158	0xbcef18a0	-0.029186547
159	0xbd86be23	-0.065792345
160	0xbe21e209	-0.15808882
161	0x3dbcd02c	0.09219393
162	0x3bfa82ce	0.0076449877
163	0xbc5a33b9	-0.013317996
164	0xbda279bc	-0.07933375
165	0x3d5ae015	0.053436358
166	0x3c638ba0	0.01388827
167	0xbd8f59b4	-0.069995314
168	0xbe61f4e8	-0.2206608
169	0xbc829c50	-0.015943676
170	0xbddcf06d	-0.10788045
171	0xbd5316a7	-0.051535275
172	0xbcec28bd	-0.02882802
173	0xbd4696e7	-0.048483755
174	0xbd766b89	-0.060161147
175	0x3d873b5d	0.066031195
176	0xbbf3f4f8	-0.007444974
177	0xbce639be	-0.028103705
178	0x3d104e5f	0.03523099
179	0xbd8606c2	-0.06544258
180	0xbcb17d98	-0.021666333
181	0xbd878e22	-0.066189066
182	0x3cb7aedd	0.022422248
183	0xbd00c71c	-0.031439885
184	0x3d1782ce	0.03698998
185	0xba772da1	-0.00094291015
186	0xbd4a6c16	-0.049419485
187	0xbd5ef64e	-0.054434113
188	0xbace92ac	-0.0015760264
189	0xbd8e2345	-0.06940321
190	0xbdd8c583	-0.10584547
191	0x3dae4170	0.08508575
192	0x3d93aaa8	0.072102845
193	0xbbd7498c	-0.006570047
194	0xbdde7e2d	-0.1086391
195	0x3d9730ea	0.073823765
196	0x3db6102c	0.08889803
197	0xbe2b88e5	-0.1675144
198	0x3db69687	0.089154296
199	0xbdd5227c	-0.10406968
200	0xbcd8c043	-0.026458865
201	0x3db26516	0.08710687
202	0x3e083d40	0.13304615
203	0xbe1c197b	-0.15244095
204	0xbe086e13	-0.1332324
205	0xbd37ae8d	-0.0448442
206	0xbd240a95	-0.040049154
207	0xbe16a83e	-0.14712617
208	0xbd9b71a5	-0.07590035
209	0xbd15fec1	-0.036619905
210	0xbd7272e2	-0.059191592
211	0x3da2de08	0.07952505
212	0xbc8693af	-0.016427843
213	0x3d428dc4	0.04749848
214	0xbdac8cb6	-0.08425276
215	0xbd91f689	-0.07127101
216	0x3d1c2319	0.03811941
217	0x3d8b5f40	0.06805277
218	0xbe89dd09	-0.2692645
219	0xbde258f3	-0.11052122
220	0xbdd15ac5	-0.10222391
221	0xbd8782ff	-0.066167824
222	0x3d4a9835	0.049461562
223	0xbd73b0d4	-0.05949481
224	0xbda0cfe8	-0.07852155
225	0xbc2101f4	-0.009827126
226	0xbde11619	-0.10990543
227	0x3cc430c7	0.02394904
228	0xbda6bce5	-0.081414975
229	0x3d90d6cf	0.070722215
230	0x3c8b7acc	0.017026328
231	0xbdb46ed6	-0.08810203
232	0xbe34111a	-0.17584649
233	0x3da27111	0.07931722
234	0xbcc18604	-0.023623474
235	0x3bc23e7e	0.00592786
236	0x3c357a69	0.011076548
237	0xbdaba591	-0.08381189
238	0x3d3bbd9f	0.045835134
239	0xbdac02a3	-0.083989404
240	0xbe82cd7d	-0.255474
241	0xbd4ebcf5	-0.050473172
242	0xbdba5e14	-0.09099975
243	0xbe5707f9	-0.20999135
244	0xbd5b3d61	-0.053525332
245	0xbe44ecbc	-0.19230932
246	0x3d715448	0.058918267
247	0x3d64fb0c	0.05590348
248	0x3cc6353c	0.024195306
249	0xbc9d844b	-0.019228121
250	0x3a92986d	0.0011184342
251	0x3d23b5c4	0.039968267
252	0xbd10f262	-0.035387404
253	0x3d6e8a9c	0.058237657
254	0xbe4e7941	-0.20163442
255	0xbcaf9e57	-0.021437807

network_body._body_endoder.seq_layers.4.weight f4 [256, 256]
0	0x3da5e0a0	0.080994844
1	0xbdf5da83	-0.120045684
2	0xbc7845c4	-0.015153352
3	0xbdc10989	-0.09425647
4	0xbc5d8414	-0.013520259
5	0xbdae96ef	-0.08524882
6	0x3df8d9fd	0.12150953
7	0xbcc1df91	-0.023666175
8	0x3bacf1b6	0.0052778376
9	0xbc1eb7c9	-0.0096873725
10	0x3d3e88a7	0.04651704
11	0x3bff2068	0.0077858455
12	0x3c585db2	0.013205932
13	0x3b673f49	0.0035285524
14	0xbc4d2b75	-0.012522568
15	0xbdcb6189	-0.09930713
16	0x3c26e5f1	0.010186658
17	0x3d44e391	0.048068587
18	0xbc2a2492	-0.010384696
19	0x3d9c1c72	0.07622613
20	0xbd8e36ba	-0.06944032
21	0x3d6e2a1e	0.058145635
22	0x3d8fbd53	0.070185326
23	0x3d68bf89	0.056823287
24	0xbd58e278	-0.052950352
25	0x3dd20315	0.10254494
26	0xbcf40888	-0.029789224
27	0xbbf788d6	-0.007554154
28	0xbcc620ab	-0.0241855
29	0x3ced0d14	0.0289369
30	0xbcb23473	-0.021753525
31	0xbce7fa79	-0.028317677
32	0xbda598ab	-0.0808576
33	0xbd3c470c	-0.045966193
34	0xbd8fc5df	-0.07020163
35	0xbcd49756	-0.025951069
36	0x3cadc10d	0.021210218
37	0xbce72216	-0.028214496
38	0xbd26a508	-0.04068473
39	0x3d63ee7a	0.05564735
40	0xbcd1aaed	-0.0255942
41	0xbc866c85	-0.016409168
42	0xbc55a280	-0.013039231
43	0xbd418e92	-0.047255106
44	0xbc83775f	-0.016048132
45	0xbd1d0752	-0.03833706
46	0x3df79226	0.120884225
47	0x3d7b81ae	0.06140297
48	0xbdcd598a	-0.10026844
49	0xbd11be0e	-0.03558164
50	0x3beb3510	0.0071779564
51	0xbd0b9070	-0.034073293
52	0x3da55f5d	0.0807483
53	0x3cc1f283	0.023675209
54	0xbd11d12a	-0.035599865
55	0xbd206e26	-0.039167546
56	0xbca572b3	-0.020196294
57	0x3d9dcafb	0.07704731
58	0x3d10fdc9	0.03539828
59	0xbd114177	-0.035462823
60	0x3d2c8d2c	0.04212682
61	0x3d346195	0.044038374
62	0xbd7de8d9	-0.06198964
63	0x3c19364d	0.009351325
64	0xbd57bbed	-0.052669454
65	0xbce3b2d8	-0.02779524
66	0x3ccf8dfc	0.025336258
67	0xbd0c9bde	-0.034328334
68	0xbd681115	-0.056656916
69	0xbdf81f8b	-0.12115391
70	0x3d25b06a	0.040451445
71	0xbc8234e7	-0.015894366
72	0x3db7039d	0.08936236
73	0x3d868e8f	0.0657016
74	0xbd1bd4d4	-0.038044766
75	0xbcdb396e	-0.026760783
76	0x3d932c33	0.07186165
77	0xbcd7eb34	-0.02635727
78	0xbb9e8518	-0.0048376434
79	0x3d721c0f	0.05910879
80	0x3d60df64	0.054900542
81	0x3d79df55	0.061004
82	0xbcd328f2	-0.02577636
83	0x3db26f22	0.08712603
84	0x3d2c569f	0.042074796
85	0xbde8d327	-0.11368399
86	0xbd6e7c20	-0.058223844
87	0xbd4aae89	-0.049482856
88	0x3d05d0ab	0.032669704
89	0xbd893846	-0.067001864
90	0xbc8d5b4a	-0.017255444
91	0x3d2011d0	0.039079487
92	0x3dc8d028	0.09805328
93	0x3d6fa3c3	0.058505785
94	0x3b9dc6c8	0.0048149563
95	0xbdc4206e	-0.09576498
96	0xbc025af5	-0.007956256
97	0x3d65313f	0.055955168
98	0xbd831abb	-0.06401583
99	0xbc8e8944	-0.017399438
100	0x3d24c78e	0.040229373
101	0xbbda2e7c	-0.0066583734
102	0xbda7ea23	-0.08198955
103	0xbdc5b0d1	-0.09652866
104	0x3d4332ed	0.04765599
105	0x3d40732f	0.046984848
106	0x3c05c1da	0.008163894
107	0xbd3a9b08	-0.045558006
108	0x3d2894c9	0.041157518
109	0xbd10eb8d	-0.03538089
110	0x3da4bc95	0.08043782
111	0x3d8cd994	0.06877437
112	0xbc6bf242	-0.0144010205
113	0xbd04467f	-0.032293793
114	0x3c02acf6	0.007975807
115	0x3d95f7f5	0.07322685
116	0xbc4bc2ef	-0.0124366125
117	0xb92265c0	-0.00015487429
118	0x3de1fef1	0.11034954
119	0x3d980078	0.074219644
120	0x3d95c4b4	0.07312909
121	0xbd09ac4d	-0.033611584
122	0xbc00ae30	-0.00785403
123	0xbc3ca46b	-0.01151381
124	0x3d362015	0.04446419
125	0xbd1e9d58	-0.038724273
126	0xbdde1656	-0.10844104
127	0xbc4f37ae	-0.012647552
128	0x3cd9c703	0.026584154
129	0xbdcea706	-0.10090451
130	0x3cd369e1	0.025807323
131	0xbdce1970	-0.100634456
132	0xbce35c62	-0.027754012
133	0xbaabc4f1	-0.0013104958
134	0xbd4e0a17	-0.05030259
135	0x3d8a0aff	0.067403786
136	0xbe39207e	-0.18078801
137	0x3e16d575	0.14729865
138	0x3dbae070	0.09124839
139	0x3cbfed78	0.023428664
140	0xbd98f341	-0.07468272
141	0xbdc55434	-0.09635201
142	0x3c625e5a	0.0138164405
143	0xbda91f0b	-0.08257874
144	0x3d1e558c	0.038655803
145	0x3baef212	0.0053389156
146	0xbcfec930	-0.031101793
147	0x3d87d593	0.06632533
148	0xbc5ef609	-0.013608464
149	0x3d984e42	0.074368015
150	0x3ad34832	0.0016119538
151	0xbc546865	-0.012964343
152	0x3d292245	0.041292448
153	0x3d201065	0.039078135
154	0x3c1e1a98	0.009649895
155	0xbcfd5f9d	-0.030929381
156	0x3cebf115	0.02880148
157	0x3e2fb392	0.17158344
158	0xbd31174e	-0.043235116
159	0xbd23b752	-0.03996975
160	0x3d41a5f0	0.04727739
161	0xbd132c43	-0.035930883
162	0x3d575ab6	0.052576743
163	0x3d68cb8b	0.05683474
164	0xbe0146de	-0.1262469
165	0x3d365e28	0.04452339
166	0xbcfff47e	-0.031244513
167	0x3d3610cc	0.044449612
168	0x3d10587d	0.03524064
169	0x3d88ffa6	0.06689386
170	0x3ce74d6d	0.028235162
171	0xbdeba37b	-0.11505791
172	0x3d13e1fe	0.036104195
173	0xbba621ab	-0.0050699315
174	0xbc08e25d	-0.00835475
175	0xbd41244f	-0.047153767
176	0xbc45c598	-0.012071036
177	0x3c59c624	0.013291869
178	0x3b9423bf	0.004520863
179	0xbd1598e1	-0.03652275
180	0xbd76985e	-0.060203902
181	0x3c9aa884	0.018879183
182	0xbccbe2ae	-0.024888363
183	0xbd6350ea	-0.055497088
184	0xbd4cbdbc	-0.049985632
185	0xbd804bc2	-0.0626445
186	0x3cece505	0.028917799
187	0x3cdf33a0	0.027246296
188	0x3c028b93	0.007967847
189	0x3db86f03	0.09005549
190	0x3d6afa79	0.057367776
191	0x3d2854b3	0.0410964
192	0xbd51e21f	-0.051241037
193	0xbd0ac835	-0.03388234
194	0x3d334ad3	0.04377253
195	0x3d70e9e7	0.058816817
196	0x3ae2f37f	0.0017314999
197	0x3c51ce60	0.012805551
198	0xbbe9847e	-0.00712639
199	0x3c85a89c	0.01631575
200	0xbd6d42c5	-0.057925005
201	0x3d663e82	0.056211956
202	0xbdf838bb	-0.121201955
203	0x3d5d074c	0.053962037
204	0xbce00a4f	-0.027348666
205	0x3c84ab1e	0.016194876
206	0x3d866015	0.06561295
207	0x3d4b3943	0.049615156
208	0xbcb6429d	-0.02224856
209	0x3cf5fc06	0.0300274
210	0x3c283069	0.010265448
211	0xbcaa9aaa	-0.020825703
212	0xbd54c7b3	-0.05194826
213	0xbd975845	-0.07389883
214	0x3dda198e	0.106494054
215	0xbd7c17c3	-0.0615461
216	0x3c45092c	0.0120261125
217	0xbcb5e30d	-0.022202993
218	0x3d2a8d60	0.041638732
219	0x3ba2a2e3	0.0049632653
220	0x3d6286ee	0.05530446
221	0x3d34ad28	0.044110447
222	0x3cdf3cd7	0.02725069
223	0x3dc9a856	0.09846561
224	0xbd197151	-0.037461583
225	0xbd6848fd	-0.056710232
226	0xbc542ba0	-0.012949854
227	0x3d14bae1	0.036311034
228	0x3dbe0297	0.09277838
229	0xbd91a0bb	-0.07110735
230	0xbcde309e	-0.027122792
231	0x3d46699e	0.04844057
232	0x3daf4589	0.08558185
233	0xbd2b25e7	-0.041784193
234	0xbd0cd12c	-0.03437917
235	0x3d71c5f4	0.059026673
236	0xbbe3d466	-0.00695281
237	0x3d201ded	0.03909104
238	0x3da05d72	0.07830323
239	0x3ca27241	0.019829871
240	0xbcf7f9c4	-0.030270465
241	0x3dc48b65	0.095969
242	0xbd52420d	-0.051332522
243	0x3d0786a3	0.033087384
244	0xbc96799c	-0.018368535
245	0xbd5a0664	-0.05322875
246	0x3d69f9d0	0.057123005
247	0xbda1391c	-0.07872221
248	0x3d1b2690	0.037878573
249	0x3c0f6e18	0.008754276
250	0x3dc24372	0.094855204
251	0x3e16b4bc	0.14717382
252	0xbce4d550	-0.027933747
253	0xbc7a8601	-0.015290738
254	0xbcf0eca3	-0.029409712
255	0xbd8f8dee	-0.07009493

network_body._body_endoder.seq_layers.4.bias f4 [256]
0	0x3cfc535a	0.030801464
1	0xbdc48b02	-0.09596826
2	0xbcc66af7	-0.024220927
3	0xbcedc43d	-0.029024238
4	0xbd96002c	-0.073242515
5	0xbcd47874	-0.025936343
6	0xbcfbfe10	-0.030760795
7	0xbeaff125	-0.34363666
8	0xbce5fa86	-0.02807356
9	0xbde5ca98	-0.11220282
10	0xbd0f26e1	-0.034949187
11	0xbdad1410	-0.08451092
12	0xbe27bb28	-0.16379988
13	0x3cf982ae	0.03045782
14	0xbeb01126	-0.34388083
15	0xbce034fe	-0.027369019
16	0x3b0a2be3	0.0021083287
17	0xbc2977b3	-0.01034348
18	0xbd24f315	-0.040270884
19	0xbdf8e3cd	-0.121528246
20	0xbdb7de8d	-0.08977995
21	0xbe45e944	-0.19327265
22	0xbd26a3c7	-0.040683534
23	0xbcd644fd	-0.026155943
24	0xbed401c9	-0.41407612
25	0xbd91fb7b	-0.07128044
26	0xbcf245d9	-0.029574322
27	0xbe4ed2ef	-0.20197652
28	0xbceb6bb6	-0.028737884
29	0xbe324a7d	-0.17411228
30	0xbdb29961	-0.08720661
31	0xbd28c22a	-0.041200794
32	0xbd697742	-0.0569985
33	0x3d1558cd	0.03646164
34	0xbd17a0f1	-0.03701872
35	0xbdc7dfd5	-0.097594894
36	0x3b2d1448	0.0026409794
37	0xbe827c16	-0.25485295
38	0xbda3bce7	-0.07995015
39	0xbe93eb75	-0.28890577
40	0xbc67591b	-0.0141203655
41	0xbd5e5186	-0.054276966
42	0xbd8d38d8	-0.06895608
43	0xbd30bc7b	-0.0431485
44	0xbd1e3501	-0.038624767
45	0xbe97f9b6	-0.29682702
46	0xbd423d17	-0.04742154
47	0xbd9932ed	-0.074804164
48	0xbc914b8e	-0.017736223
49	0x3c08074c	0.008302521
50	0xbc843bc5	-0.016141782
51	0xbca68ff3	-0.020332312
52	0xbce544b8	-0.02798687
53	0xbc4ab02a	-0.012371102
54	0x3b610324	0.0034334147
55	0xbe9c4e21	-0.30528358
56	0xbd55c89d	-0.052193273
57	0xbe87d0a9	-0.26526383
58	0xbcfaffc1	-0.030639531
59	0xbc57fd3f	-0.013182937
60	0xbc308c40	-0.010775626
61	0xbe652d7d	-0.22380634
62	0xbc5bb996	-0.013410946
63	0xbbd31369	-0.006441523
64	0xbd190b89	-0.037364516
65	0x3cb37ca3	0.021910017
66	0x3c05aa70	0.008158311
67	0xbb194dc7	-0.0023392306
68	0xbd6a95d6	-0.0572718
69	0xbd1b140b	-0.03786091
70	0xbe5d8930	-0.21634364
71	0x3c8de316	0.017320197
72	0x3c86e3e0	0.016466081
73	0xbb6edb24	-0.0036446536
74	0xbda4ee8b	-0.08053311
75	0x3ca1a19a	0.019730378
76	0xbcc2a87c	-0.02376198
77	0xbd396f1f	-0.04527199
78	0xbb94f722	-0.004546062
79	0xbd5e5d5f	-0.054288264
80	0xbc79a197	-0.01523628
81	0xbc2913e5	-0.010319685
82	0xbcae6c8b	-0.021291992
83	0x3c95095f	0.018192945
84	0xbb48a9c4	-0.0030618766
85	0x3c994421	0.018709244
86	0xbd5fadf4	-0.054609254
87	0xbc7a1dfb	-0.015265937
88	0x3a1f8cda	0.0006086357
89	0xbcd2c545	-0.025728831
90	0xba782493	-0.0009465899
91	0xbb0d656a	-0.002157534
92	0xbc2a3f92	-0.010391133
93	0xbd91b12f	-0.07113873
94	0xbe063720	-0.13106966
95	0xbb8b562c	-0.004252216
96	0xbea0ada8	-0.3138249
97	0xbd0dfe3c	-0.034666285
98	0x3cc40254	0.023926891
99	0xbdc1a3cb	-0.09455069
100	0xbd621140	-0.055192232
101	0xbe186c4d	-0.14885063
102	0x3b41b0d2	0.0029554856
103	0xbcb2179b	-0.021739772
104	0xbd5ab377	-0.053393807
105	0xbb144a90	-0.002262745
106	0x3d6cdcd4	0.057827786
107	0xbd889ad9	-0.0667016
108	0xbccfc0d9	-0.025360512
109	0xbd67b1af	-0.056565937
110	0xbd9dd690	-0.0770694
111	0x3c44d1f2	0.0120129455
112	0xbdf3a244	-0.11896184
113	0x3ba046c3	0.004891248
114	0x3bc51a66	0.00601511
115	0xbc5d12b5	-0.01349323
116	0xbb376c97	-0.0027988309
117	0xbd21a747	-0.03946617
118	0xbb137b8e	-0.0022504064
119	0xbe94027b	-0.28908142
120	0x3b99078b	0.0046700886
121	0xbae81a4c	-0.0017708032
122	0x3c6886a3	0.014192256
123	0xbe9a9daa	-0.30198413
124	0xbddeaaa5	-0.108723916
125	0xbd915e88	-0.070981085
126	0xbda32b37	-0.07967227
127	0xbd8fdbd2	-0.07024349
128	0xbae39f01	-0.0017366112
129	0xbe57d015	-0.21075471
130	0xbc4312d9	-0.011906349
131	0xbdf114c0	-0.11771536
132	0x3cbcd86f	0.023052422
133	0x3c95b99a	0.018276978
134	0xbd3f71b2	-0.046739288
135	0xbca97694	-0.020686425
136	0xbe785b85	-0.24253662
137	0x3c886d4f	0.016653685
138	0xbcfb01cb	-0.030640503
139	0xbca47608	-0.020075813
140	0xbdbe593f	-0.09294366
141	0x3d05a6ac	0.032629654
142	0xbc355866	-0.011068439
143	0xbe20e693	-0.15712957
144	0x3b08e6f3	0.002088961
145	0xbcf57a10	-0.02996543
146	0xbe248886	-0.16067705
147	0xbdb20c62	-0.08693768
148	0xbcbbb3bb	-0.02291285
149	0xbdba1634	-0.09086266
150	0xbbd6e2d2	-0.006557801
151	0xbd3932cd	-0.045214463
152	0xbc2cfbd6	-0.010558089
153	0xbe2a87bd	-0.16653343
154	0xbc28b55c	-0.010297146
155	0xbb9137c4	-0.0044316966
156	0xbd1a02ff	-0.037600514
157	0xbd4d1dcd	-0.05007725
158	0xbce103f2	-0.027467702
159	0xbdb782f4	-0.08960524
160	0xbc065046	-0.00819785
161	0x3c53c647	0.012925691
162	0x3c84b128	0.016197756
163	0x3cb29dd9	0.021803783
164	0xbebd295e	-0.36945623
165	0xbd6acde7	-0.05732527
166	0xbd77eb0b	-0.06052689
167	0xbd237212	-0.039903708
168	0xbd7dbcf2	-0.06194777
169	0xbd4a0caa	-0.049328484
170	0xbd06d330	-0.032916248
171	0xbd13da34	-0.036096767
172	0x3b5c4a0f	0.0033613478
173	0xbd98d57c	-0.07462594
174	0xbdebfed1	-0.11523212
175	0xbe722be7	-0.2364956
176	0xbe00ec8d	-0.12590237
177	0xbd3083ee	-0.043094568
178	0xbda68657	-0.08131092
179	0xbd126876	-0.035744153
180	0x3cc4d057	0.024025125
181	0xbc9edcf1	-0.019392462
182	0xbdbf7430	-0.09348333
183	0xbca85029	-0.020546036
184	0xbc8c4995	-0.01712493
185	0xbdaef961	-0.08543659
186	0xbc9f31cf	-0.01943293
187	0xbdd8bf04	-0.10583308
188	0xbdbc08b2	-0.09181346
189	0xbdbdf1b8	-0.0927462
190	0xbaf3d9fc	-0.0018604393
191	0xbcf9e219	-0.03050332
192	0xbd03f9d9	-0.032220695
193	0xbcfcc850	-0.030857235
194	0xbd1fc826	-0.039009236
195	0x3bad813d	0.0052949474
196	0xbcbd7ab2	-0.023129795
197	0xbd2404d4	-0.040043667
198	0xbdcd4153	-0.10022225
199	0xbd547974	-0.05187364
200	0xbe03b410	-0.12861657
201	0xbe9de641	-0.30839732
202	0xbdb108da	-0.086442664
203	0xbc8f0be0	-0.017461717
204	0xbd9f9377	-0.077917986
205	0xbd0d77e9	-0.034538183
206	0xbd90fb02	-0.07079126
207	0xba5123c5	-0.00079780474
208	0xbe4e7d69	-0.20165028
209	0xbbee357f	-0.007269561
210	0xbcd6eb32	-0.026235197
211	0xbe108f72	-0.1411722
212	0xbd8cf003	-0.06881716
213	0xbccada96	-0.024762433
214	0x3b13c87d	0.002254992
215	0xbd312b20	-0.043254018
216	0xbd7f9562	-0.062398322
217	0xbd40b400	-0.04704666
218	0xbe291d95	-0.16515191
219	0xbdbf6f7f	-0.09347438
220	0xbea847d8	-0.32867312
221	0xbd32666d	-0.043554712
222	0xbb85c8e4	-0.004082786
223	0xbcc424e9	-0.023943381
224	0xbda688cc	-0.08131561
225	0xbdb90ffe	-0.090362534
226	0xbc81b721	-0.015834393
227	0xbd6c7ad4	-0.057734326
228	0xbe4c0564	-0.19923931
229	0xbcd7707a	-0.02629875
230	0x3b9500ab	0.004547199
231	0x3a654eb1	0.00087473827
232	0xbc77f80e	-0.015134824
233	0xbe5bdedd	-0.21471734
234	0xbcfa4f0a	-0.030555267
235	0xbde099f0	-0.10966861
236	0x3bd2ebda	0.006436807
237	0xbd894865	-0.06703261
238	0xbc1729aa	-0.009226242
239	0xbe823861	-0.2543364
240	0xbc666042	-0.014061036
241	0xbb30253f	-0.002687767
242	0xbc8dd6ad	-0.01731428
243	0xbe10e10b	-0.14148347
244	0xbac49e29	-0.0015000749
245	0xbc8da3c2	-0.01729
246	0xbd786730	-0.060645282
247	0xbdaaf1de	-0.08346914
248	0xbd2d685d	-0.042335857
249	0xbd8bc1cc	-0.06824073
250	0xbdb99744	-0.09062055
251	0x3c866bbe	0.016408797
252	0xbdbfaa28	-0.093586266
253	0xbc84a25d	-0.016190702
254	0xbb57cd91	-0.0032928924
255	0xbd6f1227	-0.05836692

action_model._continuous_distribution.log_sigma f4 [1, 2]
0	0xc0163653	-2.3470657
1	0xc0180a81	-2.375641

action_model._continuous_distribution.mu.weight f4 [2, 256]
0	0x38d1420e	9.9782e-05
1	0xb91a69e7	-0.00014726036
2	0xba3b6dab	-0.00071498257
3	0xba35fe47	-0.00069424923
4	0xbb73b868	-0.0037188772
5	0xbb8c8b01	-0.0042890315
6	0xb9aa311a	-0.0003246151
7	0xbc2e0301	-0.010620833
8	0x3863267e	5.4156866e-05
9	0xbcd74a10	-0.026280433
10	0xb9b918e3	-0.00035304492
11	0xb8bfaf33	-9.140223e-05
12	0xbc94e4bb	-0.018175473
13	0xba612728	-0.00085889036
14	0xbc21d7e0	-0.009878129
15	0xba471956	-0.0007595023
16	0xba9daa62	-0.0012028927
17	0xbab27185	-0.0013614154
18	0xba4393d0	-0.00074606854
19	0xbb8dec27	-0.00433113
20	0xbc555380	-0.013020396
21	0xbbc8c8cb	-0.006127452
22	0x3b3e5e51	0.0029047916
23	0xbac03db0	-0.0014666822
24	0xbc950432	-0.018190477
25	0xbcd1818d	-0.02557447
26	0xbad60c5f	-0.0016330591
27	0xbc6f0e7e	-0.014590858
28	0xba764128	-0.00093938643
29	0xbcab3561	-0.020899476
30	0x38a7c0f6	7.999122e-05
31	0xbbc3845c	-0.005966706
32	0xba9d1a39	-0.0011985964
33	0x3a34ade8	0.0006892369
34	0xba7682cc	-0.00094036455
35	0xbb3fe5fc	-0.0029281368
36	0x3967a98a	0.00022093035
37	0xbca02f17	-0.019553704
38	0xba29114f	-0.00064494176
39	0x3baa61e1	0.0051996564
40	0x3a23f523	0.0006254485
41	0xba6116a7	-0.00085864443
42	0xba0a04a7	-0.00052649755
43	0x39f322be	0.00046374457
44	0x3a70ded6	0.00091884786
45	0x3bcf0620	0.006317869
46	0xba8c7edc	-0.0010718959
47	0x3d58e2b2	0.05295057
48	0xbac35aea	-0.0014904414
49	0x3a446b8a	0.0007492831
50	0x3aa18530	0.0012323018
51	0xbbeca395	-0.007221649
52	0xba40e503	-0.0007358344
53	0x3aa38abb	0.0012477258
54	0x3938e708	0.00017633673
55	0xbc7768b6	-0.015100649
56	0xba4dff13	-0.00078581384
57	0xbc68c6c9	-0.01420755
58	0xb6c3df83	-5.837473e-06
59	0xba8d14aa	-0.0010763605
60	0x39023d2d	0.00012420556
61	0xbce9065a	-0.028445411
62	0xb8dde844	-0.00010581364
63	0xba396e6b	-0.00070736435
64	0x3beda72e	0.0072525954
65	0xbb4d2f72	-0.0031308797
66	0xba8e7f71	-0.0010871721
67	0x3a329bff	0.00068134064
68	0xba8a1eb4	-0.0010537715
69	0xbb8ba03e	-0.0042610457
70	0xbc785114	-0.015156049
71	0xb8eb66b5	-0.00011224804
72	0xba8cd0ec	-0.0010743416
73	0xbaca8f9d	-0.0015454177
74	0xb854b01f	-5.0708764e-05
75	0x3d954938	0.07289356
76	0xba6d5a8d	-0.00090543256
77	0x38c753b7	9.5046526e-05
78	0xbaa08d3c	-0.0012249122
79	0xba22f950	-0.000621696
80	0xb951c2ac	-0.00020004314
81	0x39e8db7d	0.0004441402
82	0xb9e806c3	-0.00044255526
83	0x3a9254a4	0.0011164141
84	0x39944b9d	0.00028285096
85	0xbc0b930e	-0.008518947
86	0xb8a6289d	-7.923062e-05
87	0x39ace8d6	0.00032979873
88	0x3a5342fc	0.00080589927
89	0xba61babc	-0.00086108944
90	0xbb4ddae7	-0.0031410994
91	0xbab17479	-0.001353874
92	0xbafa7b79	-0.0019110284
93	0xba597c8f	-0.0008296454
94	0xbc68a3d8	-0.01419922
95	0x3af1d2c6	0.0018449656
96	0xbc045100	-0.0080759525
97	0x3b7bedc2	0.0038441275
98	0x388506ba	6.343187e-05
99	0xb9b47c69	-0.00034424968
100	0xb824439f	-3.9163624e-05
101	0x3cbdba16	0.023160022
102	0x3ca8711e	0.020561751
103	0xbab3e9dc	-0.0013726312
104	0x38683677	5.5363835e-05
105	0xbaac0ef6	-0.0013127017
106	0x37f163b0	2.877586e-05
107	0xba635718	-0.0008672341
108	0x38bda6f3	9.043319e-05
109	0x3827af6a	3.997927e-05
110	0xb99e1e20	-0.00030158553
111	0xba661ca5	-0.0008778072
112	0x3ce50ef7	0.027961237
113	0x38616d6d	5.374609e-05
114	0xba0799d0	-0.0005172761
115	0xb997f855	-0.00028985986
116	0x3a87bb4c	0.0010355501
117	0xba05f553	-0.00051101035
118	0x3b230840	0.0024876744
119	0xbbbf0f4b	-0.0058306805
120	0xb991f769	-0.0002784089
121	0xbb570f95	-0.0032815684
122	0xbac6fe5e	-0.0015182009
123	0xbc3ce43b	-0.011529024
124	0xbba2763c	-0.0049579423
125	0xba469fbd	-0.00075769034
126	0xb986573b	-0.00025623463
127	0xba88f3bd	-0.0010448616
128	0x36a5a12b	4.9361456e-06
129	0x3bf21c52	0.00738863
130	0x3a040142	0.0005035588
131	0xbb511219	-0.0031901656
132	0xbaaf257f	-0.0013362615
133	0x39391f65	0.0001765467
134	0xb96ae9cc	-0.00022403075
135	0xbb5efc57	-0.0034024918
136	0xbc80167e	-0.015635725
137	0xba840900	-0.0010073483
138	0x3b06466e	0.0020488757
139	0xb83d8945	-4.5188954e-05
140	0x38480673	4.7689722e-05
141	0x39a7a666	0.000319767
142	0xba971c92	-0.00115289
143	0xbc9f4a5b	-0.019444635
144	0xb9c96e82	-0.00038420042
145	0x39e80d09	0.000442602
146	0xbc3cad0e	-0.011515869
147	0xb7ce954f	-2.462664e-05
148	0x39b35d4c	0.00034211052
149	0xbb351c48	-0.0027635265
150	0x3a3a9aa7	0.0007118382
151	0x3b2c0407	0.0026247518
152	0x3acb2024	0.001549725
153	0x3c11b0cf	0.008892252
154	0xba6d0560	-0.00090416335
155	0x3afc9450	0.0019270275
156	0xbaa119a1	-0.0012290963
157	0xba97e9ae	-0.0011590028
158	0x39666c1e	0.00021974786
159	0xbaa0231e	-0.0012217497
160	0xbabb5d1e	-0.0014294719
161	0xb74b4953	-1.2116815e-05
162	0xbaf0d879	-0.0018375061
163	0xbaa98ab5	-0.0012935015
164	0xbcca1d57	-0.024672193
165	0x3b419a22	0.0029541333
166	0xba1eef94	-0.00060629216
167	0x3ad56eed	0.0016283669
168	0xba78a10c	-0.0009484447
169	0xba2a5b57	-0.0006498596
170	0x37fb4c8a	2.9957173e-05
171	0xb9acaedd	-0.0003293668
172	0x3da8acfe	0.08236121
173	0x3854018c	5.054618e-05
174	0xb97ff1c0	-0.00024408754
175	0xbcaaf6cf	-0.02086964
176	0xbb782413	-0.0037863299
177	0x399a1c0a	0.0002939406
178	0xbb97cc4c	-0.0046325084
179	0xbac73a37	-0.0015199844
180	0xbac14406	-0.0014745004
181	0x3d2d5a94	0.04232271
182	0xb939b74d	-0.0001771126
183	0xb9c3eb67	-0.00037368687
184	0xba8089c0	-0.0009806678
185	0x3b9d0c1f	0.0047927047
186	0x37080b44	8.108855e-06
187	0x3a148e42	0.000566695
188	0xb7e219e9	-2.6953365e-05
189	0xba22d974	-0.00062122126
190	0xba33e225	-0.0006862006
191	0x396ae2b6	0.00022400435
192	0xba80f57b	-0.0009838784
193	0xba976d6b	-0.0011552995
194	0xbaaecbc5	-0.0013335875
195	0x3ac2e404	0.0014868979
196	0xbb29a01c	-0.0025882786
197	0xbb4468be	-0.0029969658
198	0x3886fb65	6.436444e-05
199	0xbaf2d901	-0.0018527807
200	0xbc20decf	-0.009818747
201	0xbc02d06b	-0.007984261
202	0x3953d525	0.0002020193
203	0xba6c9aed	-0.0009025771
204	0xba6325f4	-0.0008665018
205	0x38456b3f	4.706834e-05
206	0xba3cbdd2	-0.0007199916
207	0x389e443c	7.546737e-05
208	0xbcc04f00	-0.02347517
209	0xba531ba9	-0.0008053133
210	0xba6d44d6	-0.000905109
211	0xbb818bf2	-0.0039534504
212	0xb9cc90b2	-0.00039017719
213	0x385d0f92	5.2705007e-05
214	0xbae90500	-0.0017777979
215	0x3a05fe84	0.0005111473
216	0xba52ba1c	-0.0008038597
217	0x38445faf	4.6819154e-05
218	0xb9e0110f	-0.0004273732
219	0xbbb010e4	-0.0053731073
220	0xbc64e024	-0.013969455
221	0xb99ba354	-0.00029685593
222	0xba823565	-0.0009934126
223	0xbb1fa9f7	-0.0024362782
224	0xbcc98822	-0.024601046
225	0xbbe75192	-0.0070592845
226	0xba6298d9	-0.0008643992
227	0xba621e5a	-0.00086257386
228	0xbc590ae0	-0.013247222
229	0xbab2d185	-0.0013642764
230	0xba8ed1f5	-0.0010896312
231	0x393243d5	0.00017000672
232	0xba79e5d6	-0.00095328444
233	0xbc0da851	-0.008646087
234	0xba92dd0c	-0.0011204793
235	0xbc3b2eb2	-0.011424707
236	0xb94e390b	-0.00019666941
237	0xba586e16	-0.000825615
238	0x3a4e7c31	0.00078767823
239	0xbc841e71	-0.016127797
240	0xbab78028	-0.0013999986
241	0xbc4d685f	-0.012537091
242	0xb89986fe	-7.320753e-05
243	0x3c9ce6a2	0.019152943
244	0xbc804de4	-0.015662141
245	0xbae1b024	-0.0017218632
246	0xbb64d250	-0.0034915395
247	0x38f92205	0.00011879582
248	0xb8e8645d	-0.00011081316
249	0xba0e0c46	-0.0005418699
250	0x3c4e0627	0.012574709
251	0xbac78cdf	-0.0015224478
252	0xb955ab25	-0.00020377019
253	0xbd05bfca	-0.032653607
254	0xbaa9e07c	-0.0012960578
255	0xb95b6caf	-0.00020925955

action_model._continuous_distribution.mu.bias f4 [2]
0	0x3d6c970b	0.057761233
1	0xbd8623b8	-0.065497816
